checkpoints/VQE-H2-4d5987e7/model.pth (torch, 49793 bytes, 11 tensors)

recurs1.weight_ih f4 [120, 2]
00000000: 2744 8bbd 50a2 9b3e 9adf 58be b91e c3bb
00000010: 85e0 28be 176c ffbd ce6f 57bd 892e 2d3e
00000020: 06ee b7bd 1e54 ef3d adcb 31be 54c7 133e
00000030: 37ee 88be d3dd fbbc f011 fabd 66ea 483e
00000040: e125 1dbd 72fc 8a3e 308c 38be abcb 45be
00000050: 7dab 8d3c 4793 5e3e 247e 34bd fd21 663e
00000060: 1081 0cbe d2fb 7fbd 197a 6f3d 14d0 133d
00000070: 6515 0fbe 39df 033c 5caf 19be c162 943d
00000080: 80e4 26be 17f9 1fbe 61a0 59be 7e01 43be
00000090: 9afe 42be b0c1 993e e972 363c 0501 603e
000000a0: 9f14 4cbd ce8a 5a3d 67bd d9bb 2b65 37be
000000b0: b4f2 3fbe 6e33 fbba 0e9f e4bb 284d 4bbd
000000c0: 431d f5bd 2927 c33d afed 193c 2fd6 b13e
000000d0: 52c3 b43b 1a11 433e 4385 e53d ea48 0bbe
000000e0: 740e 41bb 2e8f 77bc 988f 79be dd87 61bd
000000f0: 7671 7b3d f516 8a3e c3e0 ecbd 2424 503e
00000100: 2f29 913d 9c90 5cbe 6fc8 44bd 7ee9 7a3d
00000110: e67a d63d 8bc1 9e3e fcf2 42be 05cc 053e
00000120: ac8e a03d 5c7e 3b3e af8d 2d3e 4a54 ae3e
00000130: 1085 d43b 718e d83c 58d7 bebb 7e39 79be
00000140: 639f 31be 3d1e 803e 4566 1d3e 248c edbd
00000150: c50e 4dbc 70b1 03be a15c 52bd b203 e43d
00000160: afe9 653d 6c51 3fbd f362 693d 5e3b 00bd
00000170: 780d fd3d 6da5 97bc 0f3f 3bbe eca2 febd
00000180: e73f 883d 9a22 3c3e fecf 42be 26a9 433d
00000190: 8130 103e 518c 8e3e 4f6d abbd 7bfa 83bd
000001a0: c2ef 22be 1445 213e 5eba 40be 6bc3 a1be
000001b0: 6ef4 9bbc 93d3 3e3e 9185 13be f064 873e
000001c0: 0ee0 0ebe 0751 b03e 12d3 1d3e fdac 38be
000001d0: d80f 2fbd dc69 f73d b916 103c d14a f83d
000001e0: 915d a83c 8d75 4b3e 1307 6bbd 0c92 893e
000001f0: 1e24 3fbe fe37 82be 030f 04be 6805 f8bd
00000200: 975b 37bd 5c33 b4be f153 d4bd dc20 733e
00000210: d277 a9bd e4c8 50be 980a 2e3e b7a2 49be
00000220: 652d 343d 6534 59be 83ec 873d 5d28 953e
00000230: e3b8 143e da1e 983e 0e2c 153e e6e0 3a3e
00000240: 73d5 30be 5202 7ebe 454d 3a3e 799d 54be
00000250: bcff 2abe b075 0fbe 9c75 38be ad89 a8be
00000260: 4ee3 1fbc 7203 903e a9bd 733d 0356 afbe
00000270: 7ec5 eb3d 7c8d a0be d0e6 c0bb 1b0e 5abe
00000280: 5ead 283c b8d9 22be bd82 41be a00b b3be
00000290: 4577 92bd d467 403e b338 93bd 0402 8c3e
000002a0: 6d70 53be 68a0 963d e43b 743e 2401 60be
000002b0: eb91 e33d 6a2d 5d3e 0661 0cbe 75c8 923e
000002c0: 3cdf 91bc c9ff 88be a6cd 0d3e d589 b5be
000002d0: cf14 4cbd cd0b 393e 2208 ad3d 040c 4d3e
000002e0: 3b22 083c a77b ffbd 2727 e2bd 32e9 88bd
000002f0: 9a13 64be 30c3 473e c6f8 ab3d 308b ae3e
00000300: fee0 65be 8ae3 bf3d 14d9 2bbe 6eda dd3d
00000310: 607d 32be 6639 933e ce75 27be f848 1dbe
00000320: 54de 2dbd 9323 5c3e a7f1 17be 963a bcbc
00000330: 4853 4abe 3a63 973c 7952 ebbd 1e4c bb3e
00000340: e3f1 613d 2b0a b63d 156a 58bd f6b6 24be
00000350: 44b5 5fbc d250 0bbe e22a adbd 222e 7ebc
00000360: 312b 47be bed5 a83d 6985 7e3d 1b26 c13c
00000370: 439d 58bd 7879 b53e a087 273d 7b3b 433c
00000380: a4e1 47be f61d 673e c3e2 63be 8fc7 66be
00000390: 93fa 9cbd b51c 0b3e ed32 70bd fbdb b13e
000003a0: dd11 01bd 23a8 b63e b42d dd3d afa9 18be
000003b0: c7bf 573d c84e c43b 8258 25be 6457 b73d
-0.068001084 0.30397272 -0.21179047 -0.00595459 -0.16491897 -0.124717884 -0.05259686 0.16912283
-0.08980946 0.11685966 -0.17362852 0.14431506 -0.26744244 -0.030745422 -0.122104526 0.19620666
-0.038366202 0.27145725 -0.18022227 -0.19315974 0.017293686 0.2173587 -0.04406561 0.22473903
-0.13721108 -0.062496014 0.05846605 0.03608711 -0.13973005 0.008048826 -0.150083 0.07245398
-0.16298103 -0.15622364 -0.21252586 -0.19043538 -0.19042435 0.30030584 0.011135795 0.21875389
-0.049824353 0.05335503 -0.006644893 -0.17909686 -0.18744928 -0.0019165108 -0.0069769686 -0.04963413
-0.11968472 0.095289536 0.009395047 0.34733722 0.005516448 0.19049492 0.11207058 -0.13602033
-0.0029458078 -0.01510982 -0.24371183 -0.05506121 0.0613875 0.2697064 -0.115663074 0.20326287
0.07087933 -0.21539539 -0.04804271 0.06125783 0.1047266 0.31007037 -0.19038004 0.13066109
0.078397125 0.18309921 0.16948579 0.34048682 0.006485589 0.026435109 -0.005824011 -0.24338338
-0.17345957 0.2502307 0.15371044 -0.11598995 -0.012515728 -0.12860656 -0.05135787 0.11133517
0.05613106 -0.04670851 0.05697913 -0.031306617 0.123560846 -0.018511498 -0.18285774 -0.12433419
0.066528134 0.18372574 -0.19024655 0.047768734 0.14081003 0.27841428 -0.08370458 -0.0644426
-0.15911773 0.15749007 -0.18821093 -0.31594405 -0.019037452 0.18635397 -0.1440642 0.26444197
-0.13952658 0.3443682 0.15412548 -0.1803474 -0.04273972 0.12080738 0.00879448 0.12123645
0.020552428 0.19869061 -0.057379793 0.26869237 -0.18666121 -0.25433344 -0.12896352 -0.12110406
-0.04476508 -0.35195434 -0.10367573 0.23743004 -0.08274807 -0.20389134 0.16996229 -0.19690977
0.043988604 -0.21211393 0.06636908 0.29132357 0.14523654 0.29711038 0.14567587 0.18249854
-0.17268924 -0.24805573 0.18193538 -0.20763196 -0.16699117 -0.14009738 -0.18013614 -0.32917538
-0.0097587835 0.2812763 0.059507046 -0.3424531 0.11512278 -0.31357944 -0.00588689 -0.21294443
0.01029524 -0.15903366 -0.18897529 -0.34969807 -0.07151655 0.18789607 -0.07188549 0.27345288
-0.20648356 0.07354814 0.23850971 -0.21875435 0.11111816 0.21599355 -0.13708887 0.28668562
-0.017806642 -0.2675765 0.1384798 -0.3545672 -0.049824532 0.18070908 0.08448817 0.20024115
0.008308942 -0.12474757 -0.11042624 -0.066851035 -0.22273102 0.19508052 0.08397059 0.34090567
-0.22449109 0.093695715 -0.16782027 0.10832678 -0.1743064 0.2875473 -0.16353533 -0.15359867
-0.042448357 0.21497945 -0.14838277 -0.022977155 -0.19758332 0.018479932 -0.1149034 0.3658151
0.05516232 0.08888658 -0.052835543 -0.16085419 -0.013654057 -0.13605049 -0.08455445 -0.015513929
-0.1945007 0.08243893 0.06213895 0.02357774 -0.05288435 0.35444236 0.040900826 0.011916037
-0.19519669 0.22570023 -0.22254471 -0.22537063 -0.07664981 0.1358517 -0.058642317 0.34738144
-0.031511176 0.35675153 0.10799733 -0.14908479 0.052673128 0.005990837 -0.16147044 0.08952215

recurs1.weight_hh f4 [120, 30]
00000000: 557b e03d 508a 4a3e 17ee 53bd 8c21 4b3d
00000010: c431 fb3c ce5d fdbd 3c15 e73d 690a 48be
00000020: c2d6 28bd 111d afbc e3f3 22bd df8c 2c3d
00000030: 5a14 f53c 5c75 c1bd 2363 a0bd ebfc e0bd
00000040: 591d 1dbe acc6 f6bc fd81 0dbe 9aa9 38be
00000050: 5507 2ebe 3a9f c53d e6bb 143e a82b 423e
00000060: 7925 f13d ded4 fdbd d49a 8c3c c5d9 613d
00000070: 1188 f73d 54c9 9bbc 1140 eebc a2c5 3fbd
00000080: 7675 edbd 7cd8 c93d 4e42 09be e782 d4bd
00000090: c898 183e 251d 2fbe 57cb 98bd 7a45 78bb
000000a0: 28c4 143d b4ae dfbd 42fb 4abe c6ae b33d
000000b0: 20f1 ad3d d674 1f3e db0b 87bd 0090 bc3b
000000c0: 1872 cdbd 2764 6dbd 300d 36be d059 2a3d
000000d0: 07b7 b33d 58e8 f2bc 82cc b13c 296e 34be
000000e0: 451e 443e 01eb 00be cd97 453d f5e4 e2bd
000000f0: 91c7 a9bd 36bd 63bd 45d2 283c 3eac f43d
00000100: b259 073e ff17 2abe 00a5 e23d 525f 0b3e
00000110: 8711 e73d 0145 07be c30e 76be 620c e0bd
00000120: 3f36 483e 2113 a2bd d330 203e 74c8 6d3e
00000130: fd34 51be c049 f03d 515b 0c3e 4ffb 2e3d
00000140: 52ec c6bc e17c da3d 56a3 6abe e4d1 dcbd
00000150: fc02 343e 9f18 293e 12bf 933d 83fb 70bd
00000160: 4f6a 273e c7a9 343c 2106 d5bd f8bd 17be
00000170: 6162 763e 5aca 443e 552f 02be 6141 cd3d
00000180: c28b 103e 4680 213e 0f0d 0a3e b6cc bd3d
00000190: 451a 28bd a3e4 a5bd 42f9 163e f679 5e3d
000001a0: d0cf 44bd 60c0 433e c46c 5c3d 5f37 bb3d
000001b0: 394c 00be d2c8 343c 2bde 03be e2d7 2b3e
000001c0: 7b3c c9bc a32d 1e3d 383d c03d 0e3e 113d
000001d0: ea7f afbc 1c0e 663d 56a4 e3bd 8c64 393d
000001e0: 24eb 2fbd 186b 04be c17b f3bd 1b20 5e3e
000001f0: 7097 8e3d c9c1 823e 5699 013e 624e 72be
00000200: 6482 4fbe 7bc3 71bd 75fd a2bd f4fd 133e
00000210: a098 e4bd 79d4 2ebe 1dd7 cfbd 88db afbd
00000220: 92de 043e 09b1 093e 0add 3a3d 7625 9a3d
00000230: bf62 8c3d e072 85bd a7cc e53d c37e 043e
00000240: a8c0 1b3e bbc3 b53d dce2 3a3e 7151 093e
00000250: 456a eebd bd48 2b3d 98eb db3d 7b42 0f3d
00000260: 0af6 1abd 9af1 d1bb 0246 58be 8699 503e
00000270: 3177 f93d 4588 b4bd 3fbf 31be d764 0b3e
00000280: 04ba 343e 87c8 0b3c 9b87 1dbe d764 d53d
00000290: 6a9c 243e a014 3ebe 4dec 5b3e 1c34 603c
000002a0: 5710 12be ca3b d63b 73c1 50be 3c72 1cbd
000002b0: 2807 543e c74b ba3c 361a e6bc e3f2 1fbe
000002c0: aebb 573d 2542 39bc 3665 1ebc 69cf a83d
000002d0: b5b8 ee3d 5e73 04bd e0e4 983d 12d2 363e
000002e0: edee 5cbb be8d 69bd ac91 50bd d5a1 72be
000002f0: 0a28 2bbe 1864 913c 54df 59bd c016 a13d
00000300: 8e52 df3d f0b9 acbd 343a 09bd e601 a4bd
00000310: e6a6 5f3d 244d 67be 2b24 93bc da66 81be
00000320: 231b 9bbe ad55 41be a89c 013d ca38 bb3d
00000330: c94b 6cbd 02b0 163d 65f3 4d3d 0ee3 a63d
00000340: a9bd 79bd aae0 8abe 7a95 413e 8440 1b3e
00000350: 2e5e 4f3e 30a8 dd3d 1c7e 3ebe 35fc 483e
00000360: d849 b2bc b86b 4e3d c10d 3dbe 957f 4ebd
00000370: c338 e9bd a762 28bd 71e9 8bbd 9c96 34be
00000380: f852 a03d 1db5 3a3d 053c a13d 9030 82be
00000390: 4096 42be ffd2 b8bd 9978 093d ac14 183e
000003a0: 3288 193e a5b1 973c 04ca d33d 37a9 69be
000003b0: a667 dbbd c63c ea3d 8569 1dbe 0d93 16bc
000003c0: f969 36bd 3b9e 58b9 d503 fcbd 0c89 343e
000003d0: bc9a c6bd 341a 6f3e 96e7 b73d c2d8 d53c
000003e0: fa82 8fbd c7af 24bd 588d 3c3d eeff 533d
000003f0: bfc1 1a3d 600a 53be 45b0 6d3e cc84 9fbd
0.10961024 0.19779325 -0.051740732 0.04959254 0.030663379 -0.123714074 0.11283347 -0.19535221
-0.041220434 -0.021376165 -0.03978337 0.042126533 0.029916931 -0.09446213 -0.07831409 -0.1098574
-0.15343226 -0.030124031 -0.13819118 -0.18033448 -0.16994984 0.09649511 0.14524803 0.18961966
0.117747255 -0.12394117 0.017163672 0.05513932 0.120864995 -0.0190169 -0.029083284 -0.046819337
-0.115946695 0.09855744 -0.134042 -0.1037653 0.14902031 -0.17100962 -0.07460659 -0.0037883208
0.03631988 -0.10921994 -0.1982241 0.0877357 0.084932566 0.15571913 -0.06594058 0.005754471
-0.10031527 -0.05795684 -0.17778468 0.041589558 0.08775144 -0.029651806 0.021703962 -0.17620148
0.19152172 -0.12589647 0.04824047 -0.11078826 -0.082900174 -0.055600367 0.010304038 0.11946915
0.1321781 -0.16610716 0.110666275 0.1361058 0.1128264 -0.13209917 -0.24029069 -0.10939862
0.19551943 -0.07913805 0.15643625 0.23220998 -0.2043037 0.11732817 0.1370671 0.042720135
-0.024282608 0.1066835 -0.2291387 -0.10782221 0.17579263 0.16513298 0.07214178 -0.05883361
0.16349147 0.011026806 -0.104015596 -0.14818561 0.24060966 0.19217816 -0.12713368 0.10022236
0.14115813 0.15771589 0.13481544 0.09267561 -0.041040678 -0.081002496 0.14743522 0.05431553
-0.048049748 0.19116354 0.053814664 0.091414206 -0.12529077 0.011034207 -0.12877719 0.16781572
-0.024564972 0.03861774 0.093866765 0.03545957 -0.021423299 0.0561658 -0.11115329 0.045261905
-0.042948857 -0.12931478 -0.118888386 0.21691935 0.06962478 0.2553847 0.1265615 -0.23662713
-0.20264584 -0.059024315 -0.07958499 0.14452344 -0.111619234 -0.1707324 -0.101484515 -0.08586794
0.12975529 0.1344644 0.045620956 0.07526676 0.06854772 -0.06516051 0.11220675 0.12938981
0.15210211 0.08875223 0.18250602 0.13409974 -0.11641363 0.041817416 0.10738295 0.03497551
-0.037832297 -0.006406975 -0.21120456 0.20371065 0.12180937 -0.08815054 -0.17358111 0.13612686
0.17649084 0.008531696 -0.1538376 0.10419624 0.16075292 -0.18562555 0.2147686 0.013684299
-0.14264046 0.006537889 -0.20386295 -0.03819488 0.20705855 0.022741212 -0.02808867 -0.15619998
0.05266922 -0.011307274 -0.009667685 0.08242685 0.11656324 -0.032336585 0.074655294 0.17853573
-0.0033711747 -0.05701994 -0.050920174 -0.23694547 -0.16714492 0.017747924 -0.053191498 0.07865667
0.10904418 -0.08433902 -0.033502772 -0.080081746 0.054602526 -0.2258802 -0.017961582 -0.25273782
-0.3029414 -0.18880339 0.03164354 0.09141691 -0.05768946 0.036788948 0.050280947 0.08148776
-0.06097189 -0.2712453 0.18904677 0.1516133 0.2025077 0.10823095 -0.18602794 0.1962746
-0.021763727 0.050395697 -0.18462278 -0.05041464 -0.113877796 -0.041109707 -0.06831635 -0.17635578
0.07828325 0.04558288 0.07872776 -0.25427675 -0.19002628 -0.09024619 0.033562277 0.14851636
0.1499336 0.018517325 0.10341266 -0.22818457 -0.10713129 0.11437373 -0.15372284 -0.009190333
-0.044534657 -0.0002065831 -0.123054184 0.17630404 -0.09697482 0.2334984 0.089797184 0.026104335
-0.07007404 -0.040206697 0.046033233 0.051757745 0.037782427 -0.20609426 0.23211773 -0.07789001

recurs1.bias_ih f4 [120]
00000000: d55d b8bd 0262 8ebd 1e07 743d 50dd 713e
00000010: f2c0 333e fd71 253e 844a a13d 9a79 663e
00000020: cb8a fe3d eae5 253e 18fa b33d 5c65 a23d
00000030: 3b69 413e a35d 763e 901e 363e c26d 143e
00000040: 6d96 293e 4d37 933d 80eb 643e 1823 123e
00000050: 0820 4f3e dcef 5a3d 2c8c 6ebd e460 433e
00000060: aae8 1c3e 7a21 823e 3a78 173e 6650 f23d
00000070: 33e8 613e d07b d43d 2eaa 463e 37a7 f23d
00000080: e711 2b3e 2166 633e 7c27 f2bd c328 173e
00000090: 6393 313e 9ee8 0abe 56f3 773c 8611 96bd
000000a0: 229d d2bc e81d aa3c 76f8 1b3e 7e1e f6bc
000000b0: b7a3 e6bd 6e75 043e 9165 0c3e f176 6dbb
000000c0: 6412 403e 69f0 4e3e 4bbc 87bb 2dc8 023d
000000d0: b605 023d 1997 1d3d d77a 533b d820 2abc
000000e0: 2a69 83bd 5793 b03d df9d 1cbd 135a 20bd
000000f0: 6c94 603e 3691 213c 48d9 483e 4b99 983e
00000100: 344e efbc a262 8b3d 98ba 2a3e 80c4 18be
00000110: 587e 8ebd 8a40 0fbd 1312 5dbb aceb 333d
00000120: 938a cc3d c60f f7bd d704 f43d 634b 463e
00000130: 2bc3 1ebe 9655 bfbd ada4 13be cbc8 923d
00000140: 294b 60be ce06 26bd 17f8 223e c645 29be
00000150: 6443 6e3e 80c1 1abe 12c4 ad3d fc34 7fbc
00000160: f761 b73a 721b 003e 8f35 7a3e 4137 12bd
00000170: b892 593e 4cf6 213e deee ed3d 4785 49bd
00000180: 8736 243e 0e14 453e b1c1 8fbd 1ad8 97bd
00000190: ad50 c3bd 7aef bf3d de59 793d bc8a b0bb
000001a0: ee70 6a3e 4148 623d caea 28bd 36dd 113e
000001b0: ed05 13bd 070c 493d 22db 103e d34e d93d
000001c0: 6f6c 52bd 56f8 9b3e ae93 453e 8764 50bd
000001d0: 4d12 173e a4c5 d03d bce2 89bd 0aa2 2b3c
-0.09002272 -0.06952287 0.0595771 0.2361958 0.17554072 0.16156764 0.07875541 0.22507325
0.124288164 0.16200987 0.08787936 0.07929489 0.18887798 0.24059157 0.17785096 0.14494994
0.16561289 0.07188282 0.22355461 0.142712 0.20227063 0.053451404 -0.058239147 0.1907993
0.1532313 0.25416166 0.14791957 0.11831741 0.22061233 0.10375178 0.19400856 0.118483
0.16706048 0.22206928 -0.11823937 0.14761643 0.1734138 -0.13565299 0.015133699 -0.07327561
-0.025709692 0.020766214 0.15231499 -0.030043837 -0.11261695 0.12935421 0.1371062 -0.0036234225
0.18757015 0.20208897 -0.0041423193 0.031929184 0.031743728 0.038474176 0.0032269263 -0.010383807
-0.06416543 0.08621853 -0.038236495 -0.0391484 0.21931618 0.009861281 0.19614136 0.29804453
-0.029212095 0.06805922 0.16672742 -0.14918709 -0.06957692 -0.03497366 -0.0033732697 0.043925926
0.099873684 -0.120635554 0.119149856 0.19364695 -0.15504138 -0.09342496 -0.14418288 0.071672045
-0.21903671 -0.040533833 0.15914951 -0.16530523 0.23267895 -0.15112877 0.08484663 -0.015576597
0.0013990988 0.1251047 0.24434493 -0.035697225 0.21247375 0.15816611 0.11617826 -0.04919937
0.16036426 0.19245932 -0.070193656 -0.07414265 -0.09536872 0.093718484 0.06087672 -0.005387632
0.22894642 0.055244688 -0.041239537 0.14244542 -0.035894323 0.049083736 0.14146093 0.10610738
-0.05137294 0.30462903 0.19294617 -0.05087712 0.14753075 0.10193947 -0.06732699 0.010475645

recurs1.bias_hh f4 [120]
00000000: a937 a1bd 2acc 2e3e a6b0 053e 8341 323e
00000010: a437 273d 3a62 873e fe10 1a3e a1ba b1bd
00000020: e3d8 9c3d b82e 463e 1620 003e ca62 bb3c
00000030: f811 e639 8a66 56bc f6c2 6b3e f441 8b3c
00000040: dd53 633e 4382 863d 9dfe cd3d 4ccd b0bd
00000050: af55 a83b 4f86 713e 83ae 95bd ec83 7c3e
00000060: 02f0 98bd 1777 083e effc b4bd cad6 bfbd
00000070: 049b 93bd 1e54 d33d db34 6c3d e930 dfbd
00000080: e62f bb3d 59aa 4e3e db11 383e 3652 5b3e
00000090: be17 fd3d b87a 7abd 6aa6 643c 497a 4c3e
000000a0: 24a4 df3d a5b4 60bd 241e 453e c6df 0bbe
000000b0: 04b9 5d3e c41c 083e 943b cbbd 4e9a f4bd
000000c0: 3e3a 323e 0940 773e 7d1d 553d 2f4c 3ebd
000000d0: 840e d43d 9460 203e 843f d03c 6370 5f3e
000000e0: 44cb 213e 911c 263d d1dd e23d c509 fbbd
000000f0: d771 ddbc 2856 333a 2898 e93d ee88 da3d
00000100: f807 863d 0584 c53d 0964 2fbe 1156 0b3d
00000110: 6424 f3bc cc11 3fbe 169f 783c 1219 4bbd
00000120: 59a2 bebd 96f9 58be 24ed 833e 24c5 a8bd
00000130: 51e6 debc 1ae2 343e 998e debc 66e5 20be
00000140: ffae 69be 85f2 a03d 1c6e 64bd 8b3f 2ebd
00000150: 11f2 113e d7a9 f0bd 5f12 383e fc80 81bd
00000160: c02f 89bd 76e7 dfbd 7525 143e 0da6 0dbd
00000170: 8e05 183e 0ad4 b03d dbef 7a3e f001 35bc
00000180: 9e3f 853c a7de 143d 60c4 ccbc 8c04 283e
00000190: 7b3b 8d3c 0b79 013e 978f 603e 14ba 213e
000001a0: 4845 d03c 0c49 4e3e a503 b4bc c8e7 64bd
000001b0: 1142 403d 5022 f4bc be7a c5bd ee0e e23d
000001c0: 1272 6b3e b782 713d f90d 723d 2f68 70bd
000001d0: d89f cc3d b2b9 a13d 1909 123d 152e 8e3e
-0.078719445 0.1707007 0.13055667 0.17407803 0.040824547 0.26442128 0.15045545 -0.08678175
0.07658555 0.1935376 0.1251224 0.022874255 0.00043882406 -0.013085971 0.2302359 0.016999222
0.2219996 0.06567814 0.10058329 -0.08632907 0.0051371674 0.23586391 -0.07308676 0.24659699
-0.07467653 0.13326679 -0.08837306 -0.0936714 -0.07207301 0.103187785 0.057667594 -0.10898001
0.09139995 0.2018217 0.17975561 0.2141808 0.12358044 -0.06115219 0.013955692 0.19968523
0.10919979 -0.054859776 0.19249779 -0.13659582 0.21652609 0.13292223 -0.09923473 -0.11943494
0.1740503 0.24145521 0.052030075 -0.046459373 0.10354331 0.15661842 0.025420912 0.21820216
0.15800196 0.040554587 0.11077464 -0.12257723 -0.027031822 0.00068411464 0.114059746 0.106706485
0.06544489 0.09644321 -0.17128004 0.034017626 -0.029680438 -0.18659133 0.015174648 -0.049584456
-0.09308309 -0.2118896 0.2576686 -0.082407266 -0.027209433 0.17664376 -0.027167605 -0.15712509
-0.22820662 0.07858757 -0.05576907 -0.042541068 0.14252497 -0.117511444 0.17975758 -0.0632343
-0.06698561 -0.109328195 0.14467414 -0.034582186 0.14845869 0.08634193 0.2450556 -0.011047825
0.016265687 0.03634515 -0.024995983 0.16407984 0.017240277 0.1264383 0.21929775 0.1579364
0.02542366 0.20145053 -0.021974394 -0.055885106 0.046938006 -0.029801518 -0.09642552 0.11038004
0.22992733 0.05896255 0.059095357 -0.058693107 0.09991425 0.07896747 0.035653207 0.27769533

recurs2.weight_ih f4 [120, 30]
00000000: 36aa 64bd 7191 123c fc06 5fbc 0573 923e
00000010: 9ff6 ed3d d200 743e bb2d 1d3e 97ec c73c
00000020: ca2e 42be 5135 22be a25f 993d 6c22 21be
00000030: d086 f33d 7302 163c 0708 263e 1925 14be
00000040: 8661 e63d e391 0dbd 6cfa c7bd 7e50 d9bc
00000050: 3bc2 dcbd b0f7 afbd 2988 8d3d f724 14be
00000060: ad89 993e db3d 873d f68d 3d3e 0e49 b53d
00000070: c234 42be ec38 00be 1804 efbd 0d70 bcbd
00000080: 5afd 58bd 5afa 653e 630e d63d 69cc 0a3e
00000090: c4c9 59bd f88a e83d fd6b 68bd 91b1 18be
000000a0: 54fe ca3d 9416 a93d 3840 ebbd baad f03d
000000b0: 0866 913d 6f60 e23d 3d15 85be 81c9 1d3d
000000c0: 576f c5bd 1b3f 17be 6689 17be cacc 263d
000000d0: 5756 0ebd 5dac 40be 0adb 533e bfd9 113c
000000e0: 0013 02be 3fca ecbc 7274 a63d 3eaa 993c
000000f0: 7a60 e53d 440a 05bd 7e22 453e f17d b4bc
00000100: dc41 6bbd 0c28 2d3e 6bd3 9ebd e5f8 9f3d
00000110: 21f4 1f3e 37d0 8cbe c633 d2bd a0ed e63d
00000120: a277 f63c 01d3 f9bc a1db 0a3e 2a58 163e
00000130: 8602 2bbe b3fd 763d d753 013e 1c52 74bd
00000140: 3ec8 81be cca2 e93d 6817 40bd 0359 02be
00000150: 7148 3f3e acfb bbbc 5fcf 99bd 2484 20be
00000160: 1551 823c d896 c4bc 5c28 4e3d cf67 c2bd
00000170: 04bb 883e abb8 5e3e 4dc4 933c a0ed e13d
00000180: a028 f23c bd59 983d 44d4 c3bc be13 b1bd
00000190: d791 adbd b3dc 293d 7ae8 14be c551 e7bc
000001a0: 459b 31bd 33ed fbb9 33c1 b93c a308 d5bd
000001b0: 5534 c73d c9ca 37be 5e2e 853d ace1 a43d
000001c0: 5fb4 83bd b7d8 9d3c a1f4 46bd a742 4dbe
000001d0: 8bb7 91bc d8c2 03bd c2ab aa3c 3bb9 2ebe
000001e0: d868 8e3e 4485 913d 3f12 2e3b a2db 003e
000001f0: 9ad8 17be 6f26 0b3e d9b7 663c 80d1 0fbe
00000200: b24a 9bbd 938d 673d a927 6abd 7a26 503b
00000210: fc8f 25bd 889b 60be ffc3 013e 028b 353c
00000220: b026 24be bffd 283c b6ee d83d dbad a6bc
00000230: c113 6abe 9105 073e 0c9d 81bd 7334 03be
00000240: 8a81 553e 201c 493d 5aac 903e cb21 253e
00000250: 3315 10be 35a9 c7bb 9380 6cbc be2f 3e3d
00000260: adbd 913e ed77 4c3e 8029 41be f03a e53b
00000270: d7a3 1bbe 8c2a 473c 128c d8bd 05aa 72be
00000280: 5273 24bd dcbf 673d 73b3 ab3c 33e2 8d3d
00000290: 6a84 e13d ff60 f13d 8c6b ebbd b0d3 853c
000002a0: 6304 6abd c503 923d 3229 0dbd fefa b4bd
000002b0: 8187 01be 4a80 7ebe f2b9 3b3d e1b5 91bd
000002c0: 8d12 8d3e 5c66 6cbd 3f70 863d 2d09 933d
000002d0: d8c4 a2bd c9f6 c6bd a234 d83d 6393 2f3e
000002e0: 65c3 13be 9753 c43d 9820 54be cefb 7bbd
000002f0: 60d9 93bc 4d47 f53b 9249 883c 579a d03d
00000300: 7e0a fdbd e4cf 963d 512b c3bd eb21 08be
00000310: 3d83 07be b528 74be fdd8 c63d c713 08be
00000320: 2007 62be 921a 783c 931c c3bd a071 163d
00000330: 0a64 1e3e 6bdd e7bd d55d 363e 8e73 453d
00000340: f7fd 31be 1207 c1bc 8f1f 533e 76b3 f039
00000350: 64e6 c03d 500a 1d3e 6e77 f9bc b183 eb3d
00000360: 01e1 50be a8d9 983d 7865 8a3c 93b1 3ebc
00000370: 2866 913d 774e fabd 94b4 77bd 3fae b6bd
00000380: d6cb 1f3e 6b82 c8bd cb4b 6f3c 6a21 a8bd
00000390: 14da bc3d 9b9c 88be a03e c8bd 1b6d ce3d
000003a0: b17b d0bd 9eff 9fbc a0d8 523e 1d69 4cbc
000003b0: 3605 ec3d 90ba 9a3d 567f 1dbe bd9d e73d
000003c0: 9d59 c13d ecc9 1e3e 0ede da3d 277d cc3d
000003d0: 9b82 1e3d f1a5 793e 6da0 193e 064d 5cbe
000003e0: 09e3 4fbd 44f3 17be d694 113e d3ed 203e
000003f0: d4a8 e0bd 6421 acbd 8b71 783e 4dfb f83d
-0.05582639 0.008945809 -0.013612505 0.28603378 0.11619305 0.23828438 0.15349476 0.024404807
-0.18963161 -0.15840651 0.07488944 -0.15735787 0.11890948 0.009155857 0.16214 -0.14467277
0.1124907 -0.034562957 -0.09764561 -0.02652764 -0.10779234 -0.085921645 0.06910736 -0.14467226
0.2998785 0.06603595 0.18511185 0.08851825 -0.18965438 -0.12521714 -0.11670703 -0.092010595
-0.05297599 0.22458783 0.10451963 0.13554539 -0.053170934 0.11354631 -0.05674361 -0.14911486
0.099117905 0.082562596 -0.11486858 0.11751886 0.07099539 0.110535495 -0.25992766 0.038522247
-0.09640377 -0.14770167 -0.14798507 0.040722646 -0.03475031 -0.18815751 0.20689026 0.008902012
-0.1270256 -0.028905032 0.08127679 0.018757936 0.11200042 -0.032480493 0.19251439 -0.02203271
-0.057435855 0.16909808 -0.077551685 0.07811145 0.15620472 -0.27502605 -0.10263781 0.11275792
0.030086342 -0.030496122 0.13560344 0.1468207 -0.16700181 0.06030054 0.12629639 -0.059648618
-0.25348085 0.11408004 -0.046897322 -0.12729268 0.18679978 -0.022947155 -0.07510256 -0.15675408
0.015907804 -0.02399771 0.05033146 -0.09492456 0.26705182 0.21750133 0.01803794 0.110316515
0.029560387 0.07438991 -0.023904927 -0.08646344 -0.08475082 0.04147024 -0.14541808 -0.028237233
-0.043360967 -0.00048051178 0.022675132 -0.10402038 0.097267784 -0.1794845 0.065029845 0.08050856
-0.064308874 0.019268377 -0.04857314 -0.20044957 -0.017787715 -0.03216824 0.020833854 -0.17062847
0.27814364 0.071054965 0.0026561168 0.12583783 -0.1482872 0.1358888 0.014081919 -0.14044762
-0.075826064 0.0565315 -0.05716673 0.0031761215 -0.040420517 -0.2193433 0.12672423 0.011080505
-0.16030383 0.010314404 0.105924055 -0.020346573 -0.22859098 0.13185717 -0.063287824 -0.12812977
0.20850196 0.049099088 0.28256494 0.16126172 -0.14070587 -0.006093169 -0.014434951 0.04643225
0.28465024 0.19967623 -0.18863487 0.0069955513 -0.15199219 0.01215614 -0.10573591 -0.2369767
-0.04014904 0.056579456 0.020959591 0.0692791 0.11011584 0.11786079 -0.11495122 0.016336292
-0.05713309 0.07129625 -0.034463115 -0.088369355 -0.12649347 -0.24853626 0.04583163 -0.07114769
0.27553216 -0.057714805 0.06564378 0.071794845 -0.07947701 -0.09715039 0.10556914 0.17146067
-0.14430006 0.09586256 -0.20715559 -0.061519437 -0.018047988 0.0074853064 0.016636644 0.10185688
-0.12355517 0.07363871 -0.09529746 -0.13294189 -0.13233657 -0.23843654 0.09709356 -0.13288794
-0.2207303 0.015143054 -0.095269345 0.036729455 0.1546785 -0.11321529 0.17809232 0.048205905
-0.17382036 -0.023562942 0.20617507 0.00045910076 0.094189435 0.15335965 -0.030452456 0.114997275
-0.20398332 0.0746339 0.016894087 -0.011639017 0.07099563 -0.12221997 -0.060474947 -0.089199536
0.15605101 -0.097905 0.014605473 -0.08209498 0.092212826 -0.2668198 -0.0977757 0.10079404
-0.10179842 -0.019531067 0.20590448 -0.012476233 0.115244314 0.07555115 -0.15380606 0.11309383
0.094409205 0.15506715 0.10686885 0.099848084 0.038698774 0.24379708 0.15002604 -0.21513757
-0.050753627 -0.14838892 0.14216933 0.15715723 -0.109697014 -0.08404806 0.24262063 0.12157307

recurs2.weight_hh f4 [120, 30]
00000000: f37e 3a3d 260e a63d c2fb 4b3e 1d1d 2bbe
00000010: 9541 a33d 7a1b eabd dfb9 223e c30e f4bd
00000020: 719e 0cbc 32f6 df3d 077b 20bd fa0d 5f3d
00000030: 5f7b f9bc 349a 4e3d 6a57 f8bc f818 b6bb
00000040: d795 953d 71dd 0c3e b28d 1ebe 1778 ccbd
00000050: a800 00bd 540a 00be 1bfb cbbd 18d3 46bc
00000060: 6c7a 443d c12c 43bd 5eee 8b39 0710 8dbd
00000070: 4f50 2cbe 7959 ef3d f22c 39bc 6d43 a8bd
00000080: 2d5e f8bd a993 d73d d81f 6abd 51dd d23d
00000090: debb 39bc f98d 67bd 0807 c5bd 15c9 ec3d
000000a0: 537e 83be 3853 adbd faca d4bd f380 46bd
000000b0: 35b4 343e b663 623e 74eb 543e 62d6 b4bd
000000c0: df1b cdbd bf2f 273d 3239 393e 8774 f8bd
000000d0: 21b4 9cbd 0cc0 f0bd 14f8 86bd cda3 a2bd
000000e0: 779e 46be d854 333b 5ec2 4f3c dbc8 e93d
000000f0: 54b4 04be 32c2 45bd ee82 543e 38a9 88bc
00000100: e6e1 1a3e 9e16 a2bd b1c8 73bc 0376 b53c
00000110: 1f27 b7bc dc72 5abe 1553 5f3d 673d 85bd
00000120: f733 01bd e3fa 013d bd38 623e 496c 973d
00000130: 9b21 ff3d 84f3 673b 0033 f53d 9794 913d
00000140: 6fa3 263e a6c6 f23c 3b9d 3ebe 1648 8b3d
00000150: 0309 3fbe b1cd 74be 7432 dbbc 3de2 093d
00000160: 6d04 e8bd e91b 723e ae27 20bd dd36 bb3c
00000170: 254a 643e e316 ed3d 52e3 cfbd ab2d 023d
00000180: b136 abbd e246 1abe 83da d1bc 6521 84bc
00000190: f000 65be 14a5 99bd a678 7cbe 78dc 40bd
000001a0: 3d47 113e 33ff 413d 57c5 253e 6f71 263e
000001b0: c38b bc3d c031 8a3c 2429 183c aa3e 653c
000001c0: 0cfa 44be 355e adbd 4f7a 993d aaf2 53bd
000001d0: 2f4d 22bc c2e1 5a3e cd42 f93d bb99 dc3d
000001e0: 8fe6 043e 7542 3d3e 5595 17bd 9e7f 143d
000001f0: 4d0b ca3d 67ae 8e3d 4c55 603e fd69 09be
00000200: 3bcf 6c3c e0eb 1c3e a6e7 62be 8146 b1bd
00000210: 5d55 8c3d d752 143e 6509 883e 1c1e e0bc
00000220: f43a 0b3e 1725 03be 85fe 1ebe 6962 773c
00000230: 6fca e9bc 3655 003d a1b7 a3bd 96b8 053e
00000240: 5216 5cbd f0e7 243c c0e1 39bc 31dd 403e
00000250: 05cf 213c f627 693e c696 4dbe 1407 0cbd
00000260: 599d 493e acc1 0c3e db59 e0bc 0fe8 2a3e
00000270: 42eb 1a3e a908 2fbe b6ce 753c 4974 e43d
00000280: 183a 2bbe 9461 103e f98f ffbd 991f b6bd
00000290: bfd2 72bc ca5a 65bd e314 5a3e e773 093e
000002a0: 46f0 9e3d 2ab0 b83d 37f5 e53d dc96 2cbd
000002b0: 0e79 61be fe3a 16be 4bba aabd 6aa8 9f3d
000002c0: 7488 f2bd a42a 3a3d c65d 133d fe22 8f3e
000002d0: 77a7 9cbc 94b7 093e 53f8 aebd ba81 37be
000002e0: 0045 c6bc 9c01 ab3d 4aa8 ea3d 949b a13d
000002f0: 1aba 293e 560d 85bd e8f1 2dbd db79 1f3e
00000300: 162e 06be 9db3 093e 66d3 a5bd 043d ed3d
00000310: c638 df3d bfab 263e b402 1fbd 256b d0bc
00000320: acf9 50bd 25b9 193e f054 5a39 a0eb 44bd
00000330: a9b8 bf3b 18b0 873d 089c c0bd 31c0 17be
00000340: f415 39bd a88e fb3d 20cf a7bb c1c8 ff3c
00000350: 2acc cd3d 831e 1dbc 5095 193e 1e4d cebd
00000360: 85f0 4b3e 1032 87ba 25ae 0d3e 6254 b53d
00000370: 0cea 7dbe ccb0 073e ac53 dfbd 6681 c5bd
00000380: d473 353e fab5 133d 09b0 95bd 81e0 9bbd
00000390: 30ac f93d 5267 4bbe 9ec1 f83d 71bf 9b3b
000003a0: 7b76 18be 3c37 663d 017a 2cbe cc67 68bd
000003b0: 3ac4 70bd 3d23 dc3d 05b5 04bd 4138 8ebd
000003c0: 8484 37bd feb7 563e 093a 15bd 3944 183e
000003d0: 81c6 053e de39 dabc 755b cf3c bcc6 083e
000003e0: cb85 64bb 6506 653d 0033 8ebd 0254 663c
000003f0: a9db 3cbe ed63 b5bd 16e2 853e 186f c83d
0.045531224 0.08108167 0.19920257 -0.16710325 0.07971493 -0.11431022 0.15891217 -0.11916878
-0.008582697 0.1093563 -0.039179828 0.05445669 -0.030454336 0.05044003 -0.03031512 -0.0055571757
0.0730397 0.13756348 -0.1548374 -0.09983843 -0.031250626 -0.1250394 -0.09960004 -0.01213529
0.047968313 -0.047650103 0.00026689743 -0.068878226 -0.1682751 0.116869874 -0.01130222 -0.082159854
-0.121273376 0.10526211 -0.057159275 0.10296119 -0.011336295 -0.05653188 -0.09620482 0.11561791
-0.25682315 -0.08463138 -0.10390277 -0.04846282 0.17646869 0.22108349 0.20792943 -0.08829953
-0.100150816 0.04081702 0.18088225 -0.12131601 -0.07651544 -0.1175538 -0.06590286 -0.07941399
-0.19396387 0.0027363803 0.012680618 0.11415263 -0.12959415 -0.048280902 0.2075307 -0.016682252
0.15125236 -0.0791447 -0.0148793915 0.022150999 -0.022357522 -0.21332878 0.054522593 -0.06505852
-0.0315437 0.031733405 0.22091956 0.07393701 0.124575816 0.003539295 0.11972618 0.071084194
0.16273282 0.029635739 -0.18614666 0.06800859 -0.18655781 -0.2390659 -0.026757456 0.033663023
-0.11328969 0.2364346 -0.03910034 0.02285331 0.22293909 0.11576631 -0.1015078 0.031781834
-0.08360041 -0.15066102 -0.02561689 -0.016129205 -0.22363639 -0.07502189 -0.24655399 -0.047085255
0.14187331 0.047362518 0.1618856 0.16254209 0.09206345 0.016869426 0.009287152 0.013991991
-0.1923601 -0.08465234 0.07494032 -0.051745094 -0.009906097 0.21375182 0.12170944 0.10771509
0.12978576 0.18482383 -0.03700765 0.036254518 0.09865437 0.06966858 0.21907538 -0.13419338
0.0144537045 0.15324354 -0.2215868 -0.08656026 0.06852219 0.14484726 0.26569667 -0.027358107
0.13596708 -0.12807117 -0.15526779 0.015099146 -0.02853891 0.031331263 -0.07994009 0.13058695
-0.053732224 0.010065064 -0.011345327 0.18834378 0.009876017 0.2276915 -0.20077047 -0.034186438
0.1968893 0.13745755 -0.027386596 0.16690086 0.15128806 -0.17093147 0.015002897 0.11154992
-0.1672138 0.14099723 -0.124786325 -0.088927455 -0.014820754 -0.055994786 0.2129703 0.1342312
0.07760672 0.09017976 0.11228412 -0.04213606 -0.22018835 -0.14670941 -0.08336314 0.07795794
-0.118424326 0.04545082 0.0359781 0.27956384 -0.019122822 0.13448936 -0.08543458 -0.1792058
-0.024202824 0.08349916 0.1145788 0.07891002 0.16574898 -0.06496684 -0.042467028 0.15573828
-0.13103518 0.13447423 -0.08096962 0.115839034 0.108995005 0.16276453 -0.038820937 -0.025441715
-0.051019356 0.15012033 0.00020821742 -0.048076272 0.0058508706 0.06625384 -0.094047606 -0.14819409
-0.04518695 0.12283069 -0.005121127 0.031223657 0.10048707 -0.009589794 0.14998364 -0.10073303
0.1991597 -0.0010314602 0.13835962 0.08853985 -0.24796313 0.13251036 -0.10904631 -0.096438214
0.17719966 0.03606222 -0.07308967 -0.0761118 0.12191045 -0.19863632 0.121463045 0.004753046
-0.14888947 0.05620502 -0.16843416 -0.056739613 -0.058780886 0.10748909 -0.032399196 -0.06944323
-0.04480411 0.20968625 -0.0364323 0.14869775 0.13064004 -0.026638921 0.025312165 0.13357061
-0.0034869786 0.0559143 -0.06943321 0.014058115 -0.18443169 -0.0885695 0.26149052 0.097868145

recurs2.bias_ih f4 [120]
00000000: c972 953e febb 793e 7ae8 9cbb 9e79 ec3d
00000010: d1e2 a43c 3315 2d3d 1366 913d 5ae0 973e
00000020: fb3e f23d 3d06 923e 4e23 4fbd fe87 f73d
00000030: 76d8 233e 841b 54ba a442 003e 3343 163e
00000040: 678b 8e3e 142f 053e 3e52 c13d 59d1 763e
00000050: 4699 6e3d 591f 793e d66f 883e fb80 1a3c
00000060: 63cb 373e a637 853d c091 943e a73d d63d
00000070: 5bd8 c43d 644d 823e c6e9 ed3d 4bc6 333e
00000080: d846 8cbb 1af7 35bd ad01 e83d b0c6 823e
00000090: 6a7f 383e b683 e63c c023 863e 0630 48bd
000000a0: 463f 553e 38cd 383d 1994 abbc 7ab6 c83d
000000b0: 1c92 5d3e e032 5a3e 10e4 0e3d 9be1 e43d
000000c0: f3a4 193e bede 453d 8627 8c3d f753 8b3e
000000d0: fcc5 cf3c 2008 603e 16e4 09bd 3672 113b
000000e0: 5583 cf3d a1ad c53c e361 31bd 6112 453d
000000f0: 39bd 85bd 5785 063e 9a18 2b3e 4a81 3abd
00000100: 56a2 c23d c9bd 293e d5b5 e03d 2703 d9bd
00000110: c31b ebbd 3be6 80bb d004 febc 22f8 2b3d
00000120: d659 5abe 984a 113e 7b99 913e 9818 5e3d
00000130: f7e3 703d 4734 ab3c d478 d0bd 9d99 44be
00000140: 1034 493e 14e1 353e efed 083d c454 1cbe
00000150: 6d44 c9bc a077 00be 4135 a03c 1582 323e
00000160: 6aff 5c3e cef1 6a3e eb17 1d3e f77c 993e
00000170: 4e32 d73d e4ab 163e fa1c 9dbc 7b3d 5c3e
00000180: ca29 203e 19df 423e 6092 6a3e 6aae 5e3e
00000190: cfc4 5dbd e146 c73d 95b9 4abc e081 783e
000001a0: dd40 cb3d a296 50bc dcdf 593e b467 6d3c
000001b0: f5f6 d93d 5dcd 6b3e 8a03 603e 30c3 4b3e
000001c0: e444 ee3d b3a7 663d 9790 093e 4755 cabd
000001d0: f4e6 a33d ffc5 623e ba1c 6a3e fec1 17bd
0.29189137 0.2438812 -0.0047884556 0.11546634 0.020127686 0.042256545 0.07099547 0.29663354
0.11828419 0.28520384 -0.05057078 0.12086485 0.16000542 -0.00080912584 0.12525421 0.14674072
0.2784073 0.1300624 0.094395146 0.24103297 0.05825164 0.24328364 0.26647824 0.009430165
0.1794868 0.06504755 0.29017448 0.10460978 0.09611579 0.2544967 0.11616854 0.17556112
-0.004280906 -0.044425108 0.11328445 0.25542212 0.18017355 0.028138977 0.2619915 -0.048873924
0.20824918 0.045117587 -0.020944642 0.0980043 0.21637768 0.2130847 0.034885466 0.11175843
0.1500433 0.048308127 0.06843476 0.27212498 0.025362961 0.218781 -0.033664785 0.002219332
0.101324715 0.024130644 -0.043306243 0.04811323 -0.06530232 0.13136803 0.16708604 -0.045533456
0.095036194 0.16576304 0.10972182 -0.105963044 -0.114799045 -0.0039336956 -0.031008154 0.041984685
-0.21323332 0.14188612 0.2843741 0.054222673 0.058811154 0.020898951 -0.10179296 -0.19199224
0.19648767 0.17761642 0.033430036 -0.1526671 -0.02456876 -0.12545633 0.019556643 0.17432435
0.21581808 0.22943804 0.15341155 0.29978153 0.10507642 0.14714009 -0.019178856 0.21507828
0.15640941 0.19030418 0.229074 0.21746221 -0.05414277 0.09730316 -0.012373348 0.24268293
0.09924481 -0.012731226 0.21276802 0.014490057 0.106428064 0.23027559 0.2187635 0.19898677
0.116342336 0.056312274 0.13434063 -0.098795466 0.08003035 0.22145842 0.22862521 -0.03705024

recurs2.bias_hh f4 [120]
00000000: 7a5f 353e ad25 893e 9fa6 ecbc ba28 fc3d
00000010: 107f 313d 13f5 093e c571 2c3c 0aae 953e
00000020: dd76 633e 409c 903d 095d e5bc c043 7a3d
00000030: d926 eb3d 13e4 073e 2d94 3b3d c3b3 133d
00000040: 856c 033e fdb0 043c 82da 273e e052 dfbc
00000050: 2ee0 bf3d f95e e6bc 8e29 273d e0fd f23d
00000060: 9f36 8c3d cdf5 0bbc a108 2c3e 72d9 0f3d
00000070: c22a 103e 210e 333e 9c4a 8c3d 9ffa d6bd
00000080: 2a8c 4d3c 48ac c53d 1e6a 0c3e 7425 35bd
00000090: 3059 2d3e f50a 1b3e f925 f83d 380f 9a3d
000000a0: 1086 f03b f6e0 f93d 2084 4c3e 48a8 aa3c
000000b0: 8ebc 143e 6fa7 503e 77ce 503e e290 893d
000000c0: 9dff 113e 8844 e13d 63eb 263e f3c8 3b3d
000000d0: e73e cb3d c68f db3d 6ddc 54bd 6fa4 ee3d
000000e0: 17f0 89bd 71a3 3f3e c958 6a3d f4ed 013e
000000f0: 8adb f7bd 8a34 0f3e f6c2 493e e826 183e
00000100: 1b58 453d 9037 47bd 14ac 1f3e d7d9 7b3d
00000110: 8972 11be 1440 b1ba 31b9 b6bd 27e1 ae3c
00000120: 73b0 1fbd 3218 0a3e d2ea b43d 00b6 1d3d
00000130: 3d01 b33c 8bc3 cb3d 1d95 01be 67a8 fe3d
00000140: 0c68 643c e8fe 043e fc7a adbd cb44 74bd
00000150: 73b6 cfbc bb6e debc f5f9 22be 5811 21be
00000160: c682 f2bd e284 803e 4129 4f3e 4d5b 7b3d
00000170: 8c62 813e 3292 033e 597c c43d 8650 e73c
00000180: 92b5 debc 0970 743e 7467 8f3e 7a81 f8bd
00000190: 2d7c 103e a78c 423e 1abd 0a3d ad50 bc3c
000001a0: dc1e febc 0b11 4c3e 01b7 9e3e 95c9 433e
000001b0: 175a a43d 0c2b 343e 6ce8 bfba f846 0bbc
000001c0: f428 353e 4ccd 6d3e 8ca9 0c3e 51d4 e03c
000001d0: 6c4d 263e 370a ccbd 0f89 7b3e 59e8 963c
0.17712203 0.26786557 -0.028888045 0.123124555 0.043334067 0.13472395 0.010525172 0.29234344
0.22213311 0.07061052 -0.027998464 0.061099768 0.11482019 0.13270597 0.04579561 0.036060106
0.12834366 0.008098838 0.16391948 -0.027261198 0.09368931 -0.028121458 0.040811114 0.11864829
0.06846356 -0.00854249 0.16800167 0.03511948 0.14078811 0.17485859 0.06850168 -0.10497021
0.012545625 0.09652001 0.13712355 -0.04422517 0.16928554 0.15140899 0.12116618 0.07522434
0.0073402002 0.12201111 0.19972277 0.020832196 0.14525053 0.20376371 0.2039126 0.06717087
0.14257665 0.109993994 0.1630073 0.045845937 0.09924107 0.10720782 -0.051968027 0.11652457
-0.06735247 0.18714692 0.05721358 0.12688428 -0.12102421 0.13984886 0.19703278 0.14858592
0.048179727 -0.048636973 0.15592986 0.061487045 -0.14203848 -0.0013523125 -0.08922041 0.021347595
-0.038986634 0.13485792 0.08833851 0.038503647 0.021851176 0.09949406 -0.12654538 0.12434464
0.013940822 0.12987864 -0.08470723 -0.05963592 -0.025355553 -0.02715241 -0.15915664 -0.15729272
-0.11841349 0.25101382 0.20230581 0.061366368 0.25270498 0.12848738 0.0959403 0.028236639
-0.027186189 0.23870863 0.28008616 -0.12134071 0.1410987 0.18998967 0.033871748 0.022987688
-0.031020574 0.19928376 0.30998996 0.19119866 0.08024996 0.17594546 -0.0014641411 -0.008500807
0.17691404 0.23222846 0.13736552 0.02744499 0.16240472 -0.09962886 0.24564002 0.018421339

output.weight f4 [2, 30]
00000000: cf29 dabd 7aee 90bd 5601 f93d 10ff a1bd
00000010: fe3c 5b3d 1a8d f0bd c023 103e dae8 2cbe
00000020: 6982 39be 214e 34be d917 e83c d718 c53d
00000030: d2c1 29be 4a02 a03a b2a5 813e e651 373d
00000040: 6585 243e b503 1c3c dc8f 8fbd ba06 153e
00000050: da6d cb3d 17c5 fbbd bf34 9fbd 6d64 c13d
00000060: 7ea0 b93d a756 c8bd f3f8 56be d2fe 303e
00000070: 76bf 77bd 6ed2 863d 05b2 863e 01cb 713e
00000080: 570b 4b3e 2052 6b3e 3f69 01be 46fa 2d3e
00000090: cb4f 2ebe 7833 2e3e 82ad 433e 7dac 223e
000000a0: b57c 59be 44a9 10be 67fd 24be f502 4fbe
000000b0: 67f9 213e 2d1e 833e a09f 2a3e 3abb 5dbe
000000c0: 3a72 753e b358 68be d89a 4a3e 60e4 afbd
000000d0: 1548 403e cb93 183e ee27 a1be beef 0b3e
000000e0: 03fa 1ebe 29d4 58be e9ef 873e b1a7 1b3e
-0.106525056 -0.07076736 0.12158458 -0.079099774 0.053524964 -0.11745663 0.14076138 -0.16885701
-0.18116154 -0.17607929 0.028331684 0.096238784 -0.16577843 0.0012207713 0.25321728 0.04475584
0.16066511 0.009522368 -0.07009861 0.14553347 0.09933062 -0.12293451 -0.077737324 0.09442983
0.090638146 -0.097821526 -0.20993404 0.17284706 -0.060485326 0.06583105 0.26307693 0.23612596
0.19828545 0.22980547 -0.12637804 0.16990003 -0.17022626 0.17011821 0.19109157 0.15886112
-0.21238978 -0.1412707 -0.1611229 -0.20215972 0.15817796 0.2560896 0.16662455 -0.21653453
0.23969355 -0.22690086 0.1978563 -0.08588481 0.18777497 0.14900129 -0.31475776 0.13665673
-0.1552506 -0.21174683 0.26550224 0.15200688

output.bias f4 [2]
00000000: ab12 a53d dddd 073d
0.08060201 0.03317057

switch.weight f4 [1, 30]
00000000: 8d5c 003e e140 77bd 7163 d2bd fee2 76bd
00000010: 5993 27bd aee5 963d 3a13 fabc 0f98 a53d
00000020: e48d 0cbe 00b4 f93c c4a3 083e c4f5 debc
00000030: 4db2 193e 989a 493d 2d67 36be 8e16 debd
00000040: 0237 113e f925 1dbd b321 3a3e 5be8 3dbe
00000050: 9953 c3bd cf7f 063e 9593 283e a62b 22be
00000060: c658 523d 8aff 2fbe e983 0fbe dd9d 9b3d
00000070: b0de c0bd de25 8dbc
0.12535305 -0.060364608 -0.10272873 -0.06027507 -0.040912006 0.07368027 -0.030526746 0.080856435
-0.13726002 0.030481339 0.13343722 -0.0272168 0.15009423 0.049219698 -0.17812796 -0.10844146
0.1418114 -0.03836629 0.18176918 -0.18545668 -0.09537429 0.13134693 0.16462548 -0.15836963
0.051354192 -0.17187324 -0.14015163 0.075984694 -0.09417474 -0.01722997
