checkpoints/QAOA_MaxCut-d8ef508e/model.pth (torch, 50130 bytes, 11 tensors)

recurs1.weight_ih f4 [120, 2]
000000 8b 61 b0 3d e8 95 52 3e 75 81 8f bd f5 78 75 bd
       0.08612355 0.20564997 -0.07007114 -0.059929807
000010 4e 2c c1 3b a2 17 1b 3e 35 89 85 3d 6c 75 8c 3e
       0.005895174 0.15145734 0.06520311 0.27433336
000020 f0 a2 d3 3d b0 f6 f1 3d 2e 28 13 3d e4 19 64 3d
       0.10333812 0.1181463 0.03592699 0.055688754
000030 cf f5 b0 bd 6f 86 0c bd 05 b6 7c 3c a9 e5 9c 3d
       -0.08640634 -0.034307893 0.015424256 0.07660992
000040 36 ba 2e 3e 40 8f 4b 3e 01 30 a2 bd 16 a5 00 3c
       0.17063221 0.19878864 -0.07919312 0.00785186
000050 d2 44 2e 3e 0a 5b 69 3e 57 f0 04 3d 69 30 42 3e
       0.1701844 0.22788635 0.03245577 0.1896378
000060 29 2c 48 3d 66 a9 41 3d 7d e6 7f 3e a8 36 93 bd
       0.04887024 0.04728069 0.24990268 -0.07188159
000070 9d 36 90 bd c0 c1 81 3d b7 15 4f 3c 90 6f 28 3e
       -0.07041667 0.06335783 0.012639455 0.16448808
000080 7b 33 c7 bb 0b 57 6f bd 01 80 09 bd 04 a9 1f be
       -0.006079135 -0.05843262 -0.03356934 -0.15591818
000090 8d b4 f2 bc a8 22 6f 3e 2e f7 17 3e 3b a1 37 3e
       -0.029627109 0.23353064 0.14840385 0.17932598
0000a0 74 ab 73 3d 40 3c e8 bb 9a 6a 0c 3e f1 f8 c9 bd
       0.059489682 -0.0070872605 0.1371254 -0.09861935
0000b0 23 9f 66 bd 8c 8c b9 bc d8 0e 16 3e de 6f 36 3e
       -0.05630411 -0.022650026 0.146541 0.17816111
0000c0 45 4c 32 3c 0f 8e c1 3d 0c 93 4b 3e c8 92 88 3e
       0.010882442 0.09450924 0.19880313 0.26674485
0000d0 28 a0 18 3e 98 1c db 3d 62 ad 5d 3e c0 96 be bd
       0.14904845 0.10698813 0.21648172 -0.09306097
0000e0 22 5c 07 3e 47 24 82 bd bc 43 23 bc c9 5f 59 bd
       0.1321874 -0.063545756 -0.00996488 -0.053069863
0000f0 59 bd 13 3e 3f b5 4a 3e be 0b cf bc 66 74 0e 3e
       0.14427699 0.19795702 -0.025274154 0.1391159
000100 d6 30 1e 3e d4 c4 bb 3d e7 ea 3e 3d 70 98 2e 3e
       0.15448317 0.09168401 0.04661074 0.17050338
000110 12 86 5c 3e 4c 0c 8c 3e f6 02 a1 bd 9b 0e 59 3d
       0.21535519 0.27353132 -0.07861893 0.052992444
000120 b8 5e ff 3d c5 5c 80 3e 85 62 73 3e 34 52 75 3e
       0.12469238 0.25070778 0.23768051 0.23957139
000130 bc bd f0 3d fe e7 4c bd 9e ba 14 3d 51 34 c2 bc
       0.11754939 -0.050025932 0.036310785 -0.023706587
000140 b5 55 b1 bd e5 5f 82 3e 6d cc 35 3e 45 27 da bd
       -0.086589254 0.25463787 0.17753763 -0.10652021
000150 69 4b 01 3e 45 bc 8d bc 87 f6 00 3d 6b cf 2e 3d
       0.12626423 -0.017301688 0.031485107 0.042678278
000160 95 54 cd 3d b5 b6 7f 3c 5d ed 26 3e a0 79 d5 3d
       0.10025898 0.015607526 0.16301484 0.10423589
000170 8a c7 6f 3e 1c 93 c6 3d 42 ec a0 bd 34 69 cb bd
       0.23415962 0.09696028 -0.078575626 -0.09932175
000180 ec 5d 16 3e 00 c3 04 3e d1 d3 b8 bd 37 db 3a 3c
       0.14684266 0.12965012 -0.09024776 0.011404804
000190 14 d8 51 3e 67 df 67 3e 2d 03 cf 3b b7 4f 3f 3d
       0.20492584 0.22643815 0.0063175173 0.04670688
0001a0 cc 8d fb bd e9 c5 ad 3d 6b 7f fe bd f8 6d 91 bd
       -0.12282905 0.08485014 -0.12426647 -0.07101053
0001b0 db 13 71 3d e9 95 1f 3e 81 17 a1 ba 06 b2 58 3e
       0.058856826 0.1558453 -0.001229033 0.2116166
0001c0 1c 3e 39 bd da db 85 3e ad 22 52 3e 0c 14 0c be
       -0.045225248 0.26144296 0.2052104 -0.13679522
0001d0 62 6f 21 3d 67 95 c2 3d 15 c3 02 3e 64 4e 9a 3d
       0.039412864 0.095011525 0.1276973 0.07534483
0001e0 df b5 f3 3d d6 1c 0b 3e 22 02 89 bd 6c 54 44 3e
       0.118999235 0.13585219 -0.0668986 0.1917283
0001f0 d0 67 cd bd 19 4d 82 bc 34 31 31 3c 97 f1 c1 3c
       -0.10029566 -0.015905904 0.010814954 0.02367477
000200 7d 69 d3 bd 3c ce 86 be 6d c9 0d 3c 1b 93 13 3e
       -0.10322855 -0.2632922 0.008653981 0.14411585
000210 fc e1 16 be 40 46 ed bd 57 e3 bf 3d d0 8d 03 be
       -0.14734644 -0.11585665 0.093695335 -0.12847066
000220 ab 40 0f bd c8 be 0a be 5c 8e bc bc 8e 68 d8 3c
       -0.03497378 -0.1354934 -0.023017101 0.026417043
000230 83 1a 55 3e 83 1e 63 3e 56 58 56 3e 12 8c a3 3d
       0.20810895 0.22179608 0.20932135 0.07985701
000240 60 24 53 be cc 40 37 be 0d 53 9e 3d 18 12 f6 bd
       -0.20619345 -0.17895812 0.077306844 -0.1201517
000250 20 03 67 bd d2 76 1c bd cc 3e 45 be 54 6c 7c be
       -0.056399465 -0.038199253 -0.19262236 -0.24650699
000260 d0 c8 39 bc 3d e7 4f 3e ff 57 aa 3d bc 2a 91 be
       -0.011339381 0.20303054 0.08317565 -0.28352916
000270 b8 84 c5 3d f7 11 82 be aa be 94 bd f1 d0 35 be
       0.09644455 -0.2540433 -0.07262929 -0.17755486
000280 47 cf 5f bd b2 88 fe bd c9 e0 3c be 97 7c 8a be
       -0.054641034 -0.12428416 -0.18445124 -0.2704818
000290 4e 4e 9d bd 44 40 e0 bd 48 2f f3 bd d8 07 4e 3c
       -0.07680951 -0.10949758 -0.118742526 0.012575112
0002a0 ec 91 c9 bd 66 64 d1 3d 2e d6 f5 3d ea bc 37 be
       -0.098422855 0.102242276 0.12003742 -0.17943159
0002b0 89 85 55 3e ee 3c 2d 3e 21 c6 1d be b6 b3 5e 3e
       0.20851721 0.16917774 -0.15407611 0.21748242
0002c0 f2 7d 3e bd a2 e8 45 be 13 00 bd 3d 01 1f 86 be
       -0.04650683 -0.19327024 0.0922853 -0.2619553
0002d0 7d 7e b9 3d 61 84 b7 3d 19 b6 5f 3e 02 d9 06 3e
       0.09057329 0.08960796 0.21846808 0.1316872
0002e0 8d b1 0f 3e 35 73 2e 3e 7e b2 67 3c d0 3e c6 3d
       0.14032574 0.17036135 0.014141677 0.09679949
0002f0 d1 b4 00 bd 30 d3 3e 3e 85 49 5e 3e c7 ea 76 3e
       -0.03142244 0.18635249 0.21707733 0.24112998
000300 37 96 56 bd 2b d3 f9 3d df 83 24 bd 5a c8 26 bc
       -0.05238935 0.1219848 -0.040164825 -0.0101796035
000310 53 35 92 bc c9 27 2c 3e 4d f0 a3 bd 1d 91 b8 3d
       -0.017847693 0.16812052 -0.08004818 0.09012053
000320 4c 60 de 3d a5 2e 54 3e b2 a3 9f bd a7 b1 87 bd
       0.10858211 0.20720918 -0.07794894 -0.06625681
000330 c7 09 1b ba 27 78 13 3e a2 2a 97 3b e0 bd 8d 3e
       -0.00059142377 0.14401303 0.0046132365 0.27683926
000340 0b ff d2 3d 19 ca 1d 3e d3 e3 bc 3d 71 c8 a4 bc
       0.10302552 0.15409125 0.092231415 -0.02011511
000350 28 02 09 3e 2d 9c 07 bc 2a 77 cf 3d 44 a9 1e 3d
       0.13379729 -0.008276981 0.101301506 0.038735643
000360 27 e6 6f bd 02 3d 4c bc c0 dd 5c 3e c9 98 21 bd
       -0.0585691 -0.012465717 0.21568966 -0.039452348
000370 2e 4a e5 3c bc 08 90 3e 48 86 2c 3e ec 50 ad 3d
       0.027989473 0.28131664 0.16848099 0.084627
000380 33 46 ca bd e5 a1 33 3e c5 95 d0 bd be 4f 04 3d
       -0.09876671 0.17542227 -0.10184816 0.03230261
000390 af 1a 80 3c bb 87 b2 3d 58 45 a9 3d ba 57 7a 3e
       0.015637724 0.08717295 0.082651794 0.24447528
0003a0 bd eb bb 3d 09 f2 82 3e 0c cf 53 3e 00 4f c1 bd
       0.09175823 0.25575283 0.20684451 -0.09438896
0003b0 57 3b 40 3e ff 50 34 bd d9 de 17 3d 89 1f bc 3d
       0.18772636 -0.044022556 0.03707776 0.09185702

recurs1.weight_hh f4 [120, 30]
000000 15 47 f3 3d 9d 72 56 3e 06 c3 65 bc 99 c9 5c 3d
       0.11878792 0.20942159 -0.014023548 0.053903196
000010 c5 b8 8e 3c 54 2b ec bd a6 22 99 3d 06 c9 55 be
       0.01742209 -0.11531702 0.07477312 -0.20877466
000020 e3 4c 80 bd 09 32 70 bd b0 ba 92 bc 0d 40 9c 3d
       -0.06264665 -0.058641467 -0.017911285 0.07629404
000030 3a 35 72 3d c6 30 eb bd e3 7d 76 bd fb de 25 be
       0.059132792 -0.11483912 -0.06017865 -0.16198342
000040 b7 17 da bd 32 2b b8 bb bb 07 1e be 52 3d 3b be
       -0.106490545 -0.0056203837 -0.15432636 -0.1828511
000050 83 ad 2c be 2a 6a 11 3d 50 be 83 3d 2a b4 c6 3d
       -0.16863064 0.035501637 0.064327836 0.09702332
000060 33 62 f8 3d 4f 12 00 be af c2 91 3c fd 6c de 3d
       0.12128105 -0.12506984 0.017793028 0.108606316
000070 71 61 b0 3d 4e 5c b8 bc 92 c4 ec bc 81 cb dd bc
       0.086123355 -0.022504952 -0.028902326 -0.027074577
000080 2b 66 ea bd 2f b1 c3 3d 6b 7b 27 be af d3 d4 bd
       -0.11445268 0.095552795 -0.16355674 -0.10391938
000090 ca bd d9 3d e2 ba 2c be 08 17 9d bd b7 85 f1 bb
       0.106319025 -0.16868165 -0.076704085 -0.0073706764
0000a0 8c d2 87 3d 95 02 9e bd 9f 65 5c be cb c8 ab 3d
       0.066319555 -0.07715336 -0.2152314 0.083879076
0000b0 de 94 b0 3d b0 81 ae 3d 22 92 79 bc 90 fa 8d bb
       0.08622144 0.0852083 -0.015232595 -0.004332848
0000c0 de a4 d2 bd cc d0 8a bd b8 1a 34 be e6 69 b4 3b
       -0.10285352 -0.06778106 -0.17588317 0.005505788
0000d0 38 92 36 3c c9 05 7f bd 23 44 86 3c a9 e8 2f be
       0.01114326 -0.062261377 0.016389912 -0.17178597
0000e0 67 3f 41 3e 95 13 cb bd a9 33 a1 3c 17 a8 ee bd
       0.18871842 -0.09915844 0.019677954 -0.11653154
0000f0 02 4e de bc 16 84 e3 3d 66 92 58 bd 32 bc c1 3d
       -0.027136806 0.11109178 -0.05287399 0.094597235
000100 14 ac 42 bd 94 3b 92 bd c7 d6 fa bc f8 98 46 3c
       -0.047527388 -0.0714027 -0.030619992 0.0121214315
000110 97 7d 79 3b 57 85 4a bd 20 ea 8f bd dc 80 d8 3c
       0.0038069242 -0.04944357 -0.07027078 0.026428632
000120 59 de 00 bd 72 07 02 be 53 7c e6 3d 21 31 aa 3c
       -0.031462047 -0.12698153 0.11254182 0.02077538
000130 3c 68 5b bc b2 7e c0 bd fd 5d 20 3c e7 2b 4c bd
       -0.013391551 -0.09399165 0.009788034 -0.049846556
000140 58 d5 41 bd 1c 8f 4a bd 07 90 39 be 2d 99 d5 bc
       -0.0473226 -0.049452886 -0.18121348 -0.026074016
000150 95 a9 39 3e 63 56 cb 3d 61 18 35 3e fa 35 bd 3d
       0.18131097 0.09928586 0.17685081 0.09238811
000160 8b 1f 8f 3c 03 8a 2a be 9d 0c c0 bd 8d 36 af bd
       0.017471096 -0.1665421 -0.09377406 -0.085553266
000170 88 0f 66 3e 47 3f 2b 3e 0d e9 52 be 8b 50 06 3e
       0.22466862 0.16723357 -0.20596714 0.13116662
000180 fd 1e a5 3d 6c 11 00 3e 0d 90 c5 3d da 4a f0 3d
       0.08062551 0.12506646 0.09646616 0.11733027
000190 fc b4 0e 3d eb d5 3b bc 89 93 4b 3d 34 a3 39 3d
       0.03484057 -0.011464576 0.049701247 0.04532166
0001a0 1f 0a 88 bd 58 b5 84 3d 98 ef 30 3e ea 24 41 3b
       -0.066425554 0.06479901 0.17278898 0.0029471465
0001b0 c2 62 36 be 8c 90 00 bc 68 00 fb bd a4 7a 9a 3d
       -0.1781111 -0.007846963 -0.12255937 0.07542923
0001c0 fa c1 8a bd 45 83 0a 3d 81 87 ab 3d 13 48 7a 3c
       -0.06775279 0.033816595 0.08375455 0.015275973
0001d0 df 3b 5a 3b 72 f7 1b 3e 53 5e 42 be 01 0a 16 bd
       0.0033299846 0.15231112 -0.18981294 -0.036630634
0001e0 38 62 75 bd 34 0f 00 be 39 57 94 bd 18 17 5a 3e
       -0.05990812 -0.125058 -0.07243199 0.21297872
0001f0 db 5f 1b 3d a6 d7 70 3e d0 af b6 3d e9 b9 5d be
       0.03793321 0.23519763 0.08920252 -0.2165295
000200 20 97 3a be 92 7d bb bd 34 cc 77 bd d9 42 37 3e
       -0.18221712 -0.0915481 -0.060497478 0.17896594
000210 8e 30 45 be 94 7c 1b be 66 01 cd bd 57 d3 1f be
       -0.19256803 -0.15184242 -0.10010032 -0.15607964
000220 e6 9d 36 3e 67 93 df 3d dd bc 94 3d ba d8 99 3d
       0.17833671 0.10916787 0.07262585 0.075120404
000230 ec 9f b7 3d 1a 0f d5 bd eb f7 2b 3d 5c c0 a5 3d
       0.089660496 -0.10403271 0.04198448 0.0809333
000240 21 07 fd 3d 22 eb fe 3d f8 65 24 3e ff 6c 0c 3e
       0.12354875 0.12447192 0.16054523 0.13713454
000250 06 eb fa bd c3 ad 30 3d c4 74 b5 3d 70 1e 0f 3d
       -0.122518584 0.043134462 0.08860162 0.034941137
000260 0c e3 38 bd 4c 8e 20 bd 65 f1 5f be fe 4e 42 3e
       -0.045138404 -0.039198205 -0.21869428 0.18975446
000270 2b 29 86 3d 4e a2 ab bd f9 b9 32 be 69 0d d4 3d
       0.06550821 -0.083805665 -0.17453755 0.1035412
000280 59 61 46 3e 56 13 93 3d bf 3d 35 be 85 d3 c6 3d
       0.19373073 0.071814224 -0.17699336 0.09708313
000290 68 be 07 3e 6c 6a 63 be 92 5d 78 3e e0 8f 63 3d
       0.13256228 -0.22208565 0.24254444 0.05555713
0002a0 0c 1d 10 be 83 e0 0f 3d 7e 0f 34 be 44 c0 ce bd
       -0.1407358 0.03512622 -0.17584035 -0.100952655
0002b0 85 c3 ef 3d 83 77 42 bd 16 df 80 bd 16 10 08 be
       0.11707214 -0.047477257 -0.0629255 -0.13287386
0002c0 86 e6 ca 3c a9 e2 ac 3c da 1d 56 bd 1b ff bc 3d
       0.024768125 0.021104174 -0.052274562 0.09228345
0002d0 c3 0c a5 3d b9 12 1d bd ba d7 92 3d f8 f3 1f 3e
       0.08059075 -0.038347933 0.07170053 0.1562041
0002e0 11 b5 6f 3c 7f 6f c0 bd 6d 88 c9 bd 3e 0f 4a be
       0.014630572 -0.09396266 -0.09840474 -0.19732377
0002f0 6b 88 16 be 7c 13 41 3c 6c f2 56 bd 5c 4f f9 3d
       -0.14700477 0.011784431 -0.052477285 0.1217334
000300 77 93 8c 3d fa 45 7f bd 91 60 65 bd 1f 2a 11 be
       0.06864064 -0.062322594 -0.056000296 -0.14176224
000310 bb 2b d5 3d f8 79 5a be 27 08 93 3c 47 e3 75 be
       0.104087315 -0.2133559 0.017948223 -0.2401248
000320 f8 28 81 be c8 a7 7a be a8 41 b0 bd 66 b5 81 3d
       -0.2522657 -0.24478066 -0.08606273 0.06333427
000330 39 d3 cf bd 1e 58 a2 3d 13 d9 8b 3b f2 58 d0 3d
       -0.101477094 0.07926963 0.0042678206 0.10173215
000340 5a e5 69 bd fb ec 6e be 55 59 37 3e f9 b5 fe 3d
       -0.057103492 -0.23332588 0.17905171 0.12437052
000350 38 30 5b 3e ba 44 f5 3d e4 3b 1b be f5 6d 3b 3e
       0.21405113 0.11975999 -0.15159565 0.18303664
000360 d2 75 52 bc 21 6a 85 3d 00 94 31 be f7 4b b8 bd
       -0.012845473 0.06514383 -0.17341614 -0.08998864
000370 ea f7 15 be 3f 65 54 bd cd c4 88 bc d4 2e 32 be
       -0.14645353 -0.05185437 -0.016695404 -0.17400676
000380 fe ec b3 3d d2 1d 73 3d 5f 50 2b 3d 89 e7 18 be
       0.08785437 0.05935461 0.041824695 -0.14932074
000390 de d5 31 be ee f9 b6 bd f6 94 23 3d 5f 62 1b 3e
       -0.1736674 -0.08934389 0.039936982 0.15174244
0003a0 e8 72 b0 3d 0c 5e 75 bd 6e 00 be 3d 9b b5 55 be
       0.08615667 -0.059904143 0.09277426 -0.20870058
0003b0 95 e9 f5 bd 79 64 bd 3d 3e 64 03 be 91 ab 84 3d
       -0.12007443 0.09247679 -0.12831208 0.06478036
0003c0 5c b0 8d bd e5 0d 03 bd 1d 09 bb bd 6c 51 1e 3e
       -0.069184035 -0.031995673 -0.091325976 0.15460747
0003d0 dc 58 a2 bd 7c c2 4e 3e a4 b7 6c 3d 42 b9 5a 3d
       -0.07927105 0.20191377 0.05779232 0.053399332
0003e0 10 a1 59 bd 3f bf c5 bd f3 67 a9 3c 9b e8 89 3d
       -0.053132117 -0.09655618 0.02067945 0.06733819
0003f0 de 70 49 3c 91 40 43 be 1c 43 59 3e 7a a6 c3 bd
       0.012294976 -0.19067599 0.21217006 -0.09553237

recurs1.bias_ih f4 [120]
000000 7d 85 ce bd fe 03 bf bd 8a 0f 06 3c 88 7d 40 3e
       -0.100840546 -0.09326933 0.008182416 0.18797886
000010 67 ca 0e 3e f3 9e d8 3d a0 ad 9d 3c 5b 18 64 3e
       0.13944398 0.10577192 0.01924783 0.22274916
000020 53 ef 97 3d 12 78 ad 3d 18 45 8d 3d 89 56 ac 3d
       0.07418694 0.08470167 0.06897944 0.08414943
000030 82 78 0f 3e 48 0d 51 3e 81 c7 05 3e 07 71 e9 3d
       0.14010814 0.20415223 0.13064386 0.113985114
000040 b6 bb 26 3e e6 2e 0e 3d 7a dd 37 3e 8d 3b ce 3d
       0.16282544 0.034712695 0.1795558 0.10069952
000050 ac ed 29 3e c7 c6 12 3d 72 35 fc bd 26 0e 06 3d
       0.16594571 0.0358341 -0.123148814 0.032728337
000060 0f c7 fc 3d e4 05 53 3e 22 18 02 3e 3e 22 10 3e
       0.12342655 0.20607716 0.12704518 0.14075562
000070 39 e8 55 3e 97 a3 b0 3c 17 ad 4b 3e 69 56 13 3e
       0.20889367 0.02156238 0.19890247 0.14388432
000080 ab 40 29 3e e0 97 2d 3e fa b1 c0 bd 48 cc 12 3e
       0.16528575 0.16952467 -0.09408946 0.1433574
000090 f8 0a 50 3e e4 1b da bd 51 5a 0c 3d b9 b1 e1 bd
       0.20316684 -0.10649851 0.03426582 -0.11020226
0000a0 0f bc 19 bb fe 2d 2f 3d 67 af 42 3e 38 59 77 bc
       -0.002345804 0.04276847 0.19012223 -0.015096955
0000b0 01 5d 2a be cb dc 31 3e 59 83 32 3e f1 18 1d 3d
       -0.1663704 0.17369382 0.17432918 0.038353864
0000c0 94 70 34 3e 49 57 2a 3e 49 24 15 bd df f9 4f 3d
       0.1762107 0.16634859 -0.036411557 0.050775405
0000d0 e9 ca 07 3d b2 ae 51 bd 58 4f 8d bc 61 79 63 bd
       0.033152495 -0.051191993 -0.017249748 -0.055535678
0000e0 ef 90 9e bd 1a da 0d 3e b0 3d 51 bc 40 89 aa bc
       -0.07742488 0.1385273 -0.012771055 -0.020817399
0000f0 05 e6 4c 3e 4d d2 22 3d c4 f1 44 3e 59 8a 59 3e
       0.2000962 0.03975134 0.19232851 0.21244182
000100 1a e8 49 bd 45 ec 81 3d c1 e9 13 3e 17 e3 0d be
       -0.049293615 0.06343893 0.14444639 -0.13856159
000110 47 ce a9 bd 0e e6 b6 bc f1 1d 48 3c d9 40 8f 3d
       -0.082912974 -0.022326495 0.01221417 0.069947906
000120 62 40 a9 3d f6 de cf bd 31 d7 37 3d 51 ee 2c 3e
       0.08264233 -0.10149948 0.044882957 0.16887785
000130 74 f6 c5 bd ac e9 e6 bd 84 57 16 be d3 f7 b5 3d
       -0.09666148 -0.11275038 -0.14681822 0.08885159
000140 3b 42 34 be f2 d1 c4 bd 51 7b db 3d ba 5e 00 be
       -0.1760339 -0.096103564 0.1071688 -0.12536135
000150 64 8d 38 3e 51 51 ed bd 28 4e 42 3d 71 83 13 3c
       0.18022686 -0.115877755 0.047437817 0.009003506
000160 84 74 68 bc 31 f4 ca 3d b0 40 5f 3e 01 26 59 bd
       -0.014187936 0.09909857 0.2180202 -0.05301476
000170 e8 f4 14 3e 57 ee cd 3d 6a cb 9d 3d 81 65 7e bd
       0.1454655 0.10055225 0.07704814 -0.06210852
000180 c6 f6 03 3e 46 c7 39 3e b2 52 ae bd c2 66 1f be
       0.12887105 0.18142423 -0.08511867 -0.15566543
000190 5f 39 f2 bd 1e 1b b4 3d 74 e8 2a 3d c1 95 49 bc
       -0.11827349 0.08794235 0.04172559 -0.0123037705
0001a0 6c 91 3c 3e 1f 62 26 3d 85 71 d9 bc f8 ac d5 3d
       0.18414849 0.04062092 -0.026543388 0.10433382
0001b0 b3 43 30 bd 87 96 c2 bb de 69 de 3d 24 da cc 3d
       -0.043033313 -0.0059383544 0.10860036 0.100025445
0001c0 91 fd e8 bd 71 5e 2d 3e bc da 27 3e ae 72 96 bd
       -0.11376489 0.16930558 0.16392034 -0.07346092
0001d0 20 1c fd 3d e7 3e 0e 3e 7e ab 94 bd cc e2 42 bd
       0.1235888 0.13891183 -0.07259272 -0.04757957

recurs1.bias_hh f4 [120]
000000 4e 5f b7 bd 24 7b 16 3e ae 1f a2 3d b8 e1 00 3e
       -0.08953725 0.14695412 0.07916199 0.12586105
000010 7a eb 9a 3b fd a1 55 3e de 42 ba 3d 16 7d b6 bd
       0.004727778 0.20862575 0.09094785 -0.08910577
000020 b3 f5 d8 3c a8 09 ee 3d 34 8b d9 3d 6a 27 e3 3c
       0.026484346 0.116229355 0.10622254 0.027728755
000030 c0 f6 45 bd 20 db 4a bd ed 6b 3b 3e ad cf 64 bc
       -0.048331022 -0.04952538 0.18302889 -0.013965529
000040 23 79 60 3e ae 89 e9 3c e4 c4 67 3d f0 6b 03 be
       0.2192121 0.028508034 0.056584254 -0.12834144
000050 a2 7d ff bc 04 7c 5f 3e ef 4e 0d be 24 4d b5 3d
       -0.031187836 0.21824652 -0.13799642 0.08852604
000060 2f fa d5 bd 0c 74 ae 3d 0f bd df bd be e2 91 bd
       -0.10448109 0.08518228 -0.10924732 -0.07123326
000070 db 9a ab bd cf 04 ac 3c 29 20 80 3d 4e 2b ab bd
       -0.08379146 0.020998387 0.06256134 -0.08357869
000080 7a 8d b7 3d 1c dc 18 3e a1 cc 50 3e b4 f5 56 3e
       0.089625314 0.14927715 0.2039056 0.20992166
000090 76 03 1d 3e 18 10 03 bd 17 87 07 3d 38 aa 26 3e
       0.15333351 -0.03199777 0.033087816 0.16275871
0000a0 c4 be 07 3e 90 95 06 bd 19 d5 6b 3e 0a 23 f9 bd
       0.13256365 -0.032857478 0.23030509 -0.12164886
0000b0 da ad 26 3e 21 84 35 3e ef ff 7d bd 0d a2 9e bd
       0.16277257 0.17726184 -0.062011655 -0.077457525
0000c0 6e 98 26 3e e8 a6 52 3e 77 e1 a1 3c e0 34 e2 bc
       0.16269085 0.20571482 0.01976083 -0.027613103
0000d0 17 f1 d6 3d 43 1e 89 3d 5c 03 a2 3b 18 34 31 3e
       0.10495203 0.06695225 0.004944248 0.17305028
0000e0 5f 37 14 3e 18 2f be 3d 98 82 0b 3e fe 7e d5 bd
       0.14474247 0.09286326 0.13624036 -0.104246125
0000f0 8d 72 3d bd b4 76 fa 3c 21 c9 e1 3d b0 e0 ac 3c
       -0.046251822 0.03057418 0.110246904 0.021103233
000100 ef ce 39 3d a8 0d bc 3d e0 34 46 be b1 db 36 3d
       0.045363363 0.09182292 -0.19356108 0.044643108
000110 02 32 30 bd 72 1e 32 be d1 00 fc 3c 41 06 c1 bc
       -0.04301644 -0.17394426 0.030762108 -0.023562552
000120 84 ec e1 bd 2c 61 45 be a8 cd 3b 3e 39 7f db bd
       -0.1103144 -0.1927535 0.1834017 -0.10717625
000130 09 59 ff 3c 0c 18 21 3e 3a 25 f4 bc dc 4d 0f be
       0.031170385 0.1573183 -0.029802907 -0.13994545
000140 12 a6 3d be c1 8f bc 3c cf ab dc bd d1 35 2a bb
       -0.18520382 0.023017766 -0.107749574 -0.0025972018
000150 29 78 b8 3d 25 78 a8 bd e4 c3 11 3e e0 53 1e bd
       0.09007294 -0.08226041 0.14234883 -0.03865421
000160 dc 1b a9 bd 18 95 0a be 1e 61 f2 3d ce 94 54 bd
       -0.08257267 -0.13533437 0.1183493 -0.051899724
000170 84 cf a6 3d 47 57 eb 3c 19 de 52 3e 93 41 c4 bc
       0.08145049 0.02872814 0.20592536 -0.02395705
000180 03 7d 79 bc 01 57 cf 3c 3f 84 23 bd ac 13 a9 3d
       -0.015227559 0.025310041 -0.03992104 0.08255705
000190 4d 9d b9 bb c6 1d f7 3d 3d f3 4c 3e 09 a5 1a 3e
       -0.0056645037 0.12066226 0.20014663 0.15102018
0001a0 7e b6 9e bc 7b 4f 3f 3e 4a 7e ee bb 46 81 c0 bd
       -0.019374128 0.18682663 -0.0072782384 -0.09399657
0001b0 41 04 23 3d 01 b8 ad bd 8b 63 04 be 40 9a d5 3d
       0.03979898 -0.084823616 -0.12928598 0.104298115
0001c0 65 8e 2b 3e 2e 63 9c bd 8e 54 f6 3c 76 74 a6 bd
       0.16753538 -0.076361045 0.030069616 -0.08127682
0001d0 6e 97 9b 3d e2 71 ed 3d 08 ef f8 3c 57 e9 60 3e
       0.07597242 0.11593987 0.030387416 0.21964012

recurs2.weight_ih f4 [120, 30]
000000 ce 0d cf bd 8f d9 78 3d 28 ee b1 bd 14 b4 3f 3e
       -0.10110055 0.060754355 -0.08688003 0.18721038
000010 7f e2 81 3d ef 21 6a 3e 17 47 eb 3d d7 69 b8 ba
       0.06342029 0.22864507 0.11488169 -0.0014069629
000020 cf 3a 56 be 56 96 ec bd 0b 81 02 3e ca 92 cc bd
       -0.20920871 -0.11552112 0.12744538 -0.09988935
000030 82 4a 3d 39 3f 96 e5 3c 93 84 7a 3d 0b d6 82 be
       0.00018052201 0.028025744 0.06116159 -0.25553927
000040 93 0a 6c 3e 4b 9f f1 bd d6 2c 17 be 69 62 53 3d
       0.23050909 -0.11797961 -0.14763197 0.051607523
000050 5d 3b c8 bc e3 42 2b be 59 ae 5b 3c 6f c1 05 be
       -0.02444237 -0.16724734 0.013408267 -0.1306207
000060 58 74 53 3e 31 5e c1 3d 6d 8f 15 3e df bb 3c 3e
       0.2064985 0.09441794 0.14605494 0.18431042
000070 1b 6c 86 be 1b 06 49 be 9c 6c 11 be 8e 9a 5e bd
       -0.26254353 -0.19631235 -0.14201587 -0.054346614
000080 99 6a f9 bd 67 03 2a 3e 38 12 5f 3d 32 a7 0c 3e
       -0.12178535 0.1660286 0.054460734 0.13735655
000090 15 d4 e3 bd 0c fe d9 3d 95 dc 78 bd 96 a1 b3 bd
       -0.11124436 0.10644159 -0.06075724 -0.087710544
0000a0 52 e0 12 3e e4 19 13 3e c2 25 44 be 62 a8 0f 3e
       0.14343384 0.14365345 -0.19155028 0.14029077
0000b0 65 5c 0b 3c 5a 0d 5b ba 0d 37 10 be a1 56 dd bc
       0.008505915 -0.00083561765 -0.140835 -0.027018847
0000c0 5c 6a fc bd f8 77 1a be 9a 66 ed bd 9d a5 12 bd
       -0.12324974 -0.15084827 -0.11591835 -0.035802472
0000d0 cb 0e b6 bd e0 e7 12 be c4 c8 26 3e fb e0 9a 3c
       -0.0888954 -0.14346266 0.16287524 0.018906107
0000e0 66 52 01 be 9e 43 85 3d c6 ec 66 3c 05 22 17 bd
       -0.12629089 0.065070376 0.014094537 -0.036897678
0000f0 12 c1 ca 3d 8d f6 3f 3d fb de f9 3d 93 b7 a7 bd
       0.099001065 0.04686599 0.12200733 -0.08189311
000100 59 77 11 be df c1 3d 3e b5 28 28 be 6d 7f 23 3d
       -0.14205684 0.18530987 -0.16421779 0.039916445
000110 c6 64 f4 3d a0 a3 5f be 1d e2 81 bc 59 1b 44 3e
       0.119332835 -0.21839762 -0.01585489 0.19151057
000120 ac aa 80 bd 2b 95 72 bc 2f ec 8a 3d 03 db 85 3b
       -0.06282553 -0.014806072 0.0678333 0.004084946
000130 e3 27 43 bc b1 ac 35 bd 64 89 9c 3d 88 c9 91 bd
       -0.011911365 -0.044354144 0.07643393 -0.07118517
000140 21 12 60 be 71 cb 6f 3c 49 b9 d3 bd 56 d4 97 bd
       -0.21881916 0.014635907 -0.10338075 -0.07413547
000150 e8 06 12 3e 86 0c a0 bc 69 d5 5f bd 67 12 10 bd
       0.14260447 -0.019537222 -0.054646883 -0.0351738
000160 d1 50 94 bd 0a d2 d8 bd ef ee d2 3c 51 ac 37 bd
       -0.07241977 -0.10586937 0.025748698 -0.044842068
000170 dd 47 3f 3e d2 af 1e 3e 27 4e 3b bd a2 60 da 3d
       0.18679757 0.15496758 -0.04572883 0.106629625
000180 55 b4 3e bd f2 a8 8c 3d b7 e2 f7 bc e7 a9 02 bc
       -0.046558697 0.06868161 -0.030259473 -0.007975078
000190 cf dd 9d bc 69 a4 e9 3d b9 6c 8c be 39 52 34 bc
       -0.019270806 0.11408312 -0.274267 -0.0110059315
0001a0 35 56 d7 bd 20 7e 3b be 06 12 48 3e 29 54 5b be
       -0.105144896 -0.18309832 0.19538125 -0.21418823
0001b0 30 a8 98 3d 88 7a 2f be 34 89 d5 3d 26 ff 72 bc
       0.07453954 -0.17136586 0.1042656 -0.01483134
0001c0 78 13 f6 bd 45 cb 75 3d 23 0d cc bd 0e 86 3e be
       -0.12015432 0.060008306 -0.09963443 -0.18605825
0001d0 3c 37 27 bd a9 75 cf 3d 5c f8 4c bd a2 2c 7a be
       -0.04082416 0.10129864 -0.05004154 -0.24431089
0001e0 24 c5 61 3e 58 3b 9d 3d 33 e2 95 bd a9 91 15 3d
       0.2204786 0.076773345 -0.07318535 0.036515865
0001f0 94 17 25 be 4c 01 c5 3d 3a 2e ad 3c a2 e0 da bd
       -0.16122276 0.09619388 0.021140207 -0.106873766
000200 09 ce 55 bd 9f df d8 3d b4 9d 32 bd 81 01 a2 3b
       -0.052198444 0.10589527 -0.04360743 0.004944027
000210 94 94 06 be 4e d5 30 be ef 28 33 3d b7 db b2 bd
       -0.13142616 -0.1726887 0.04374021 -0.087333135
000220 64 1e 84 bd 2d 6b 65 bd de 50 e0 3d a5 85 4b 3d
       -0.06451109 -0.056010414 0.10952924 0.049688
000230 73 39 1b be 63 e0 b4 3d d8 0d 12 be ad dd f2 bd
       -0.15158634 0.08831861 -0.14263093 -0.118586875
000240 9f af fe 3d b0 30 b2 3d ef 0e 6d 3e 14 9d 64 3e
       0.12435841 0.08700693 0.23150228 0.22325546
000250 04 c2 32 be a2 39 2e bd e9 91 9b bd ba fd 57 3d
       -0.17456824 -0.04253543 -0.075961895 0.052732207
000260 ba e6 44 3e 62 8b 06 3e e7 b0 5b be 2e 7d 1d bd
       0.1922864 0.13139108 -0.21454202 -0.03844946
000270 a0 3a 42 be 9a f3 45 3d 00 7a 87 bd 6d 71 1c be
       -0.18967676 0.04832802 -0.066150665 -0.15277644
000280 d7 e5 43 bc 7e 02 b7 3d 8b b6 8c bd 01 88 fb 3d
       -0.011956654 0.08936022 -0.06870755 0.122818
000290 fc 0f 31 3d 51 89 3c 3b e4 c3 c7 ba a9 8b 08 bd
       0.043228135 0.002876837 -0.0015240875 -0.033336315
0002a0 d9 05 2e bd 34 9b f0 3d 2d 5b c1 3c 01 4b 17 be
       -0.042486046 0.11748353 0.023603046 -0.14774705
0002b0 e3 47 2d be 8e 52 58 be 26 0b 96 bc 37 6c d7 bc
       -0.16921954 -0.21125242 -0.018315863 -0.026296718
0002c0 75 23 61 3e 62 09 bf 3c 56 b5 01 3d f4 7e 0a 3d
       0.21986182 0.023319904 0.031667076 0.03381248
0002d0 a0 5f d5 bd f3 68 a6 bd 39 0b 98 3d a4 74 d7 3d
       -0.1041863 -0.08125486 0.074240156 0.10520294
0002e0 24 cb 28 be 31 67 8a 3d c9 d1 67 be fe c5 43 bd
       -0.16483742 0.067579634 -0.2263862 -0.047796242
0002f0 05 9c 0d bc 18 f1 a1 3c 38 ec 2f 3d 5e 45 ed 3d
       -0.008643155 0.019768283 0.042949885 0.11585496
000300 a5 ec 19 be d1 a7 c2 3d 8f 74 15 be dc 7a 41 be
       -0.15031679 0.09504665 -0.14595245 -0.18894523
000310 41 e6 96 bd 8f 07 7c be ef 0f 9b 3d ff fa a4 bd
       -0.07368136 -0.24612258 0.075713985 -0.08055686
000320 27 4d 37 be a9 14 0b bd c5 10 24 be ad f0 f7 3b
       -0.17900525 -0.03395525 -0.16022022 0.0075665326
000330 54 d0 ec 3d 53 cd b9 bd 8b 56 15 3e 08 2e d1 3d
       0.11563173 -0.090723656 0.14583795 0.10213858
000340 8c 13 5a be ba 79 10 bd 44 a4 19 3e 6c 32 dd 3c
       -0.21296519 -0.035272337 0.15004069 0.027001582
000350 71 e0 d5 3c 31 20 25 3d 69 d5 81 bd b5 45 aa 3d
       0.026107999 0.040313903 -0.06339533 0.08314077
000360 03 8a 5e be 92 e8 a2 3d b8 67 e3 3c b4 56 17 3d
       -0.21732335 0.079545155 0.027759418 0.03694792
000370 59 3c cc 3d c1 01 c7 bd ef 5f 25 be e7 8e 4f bd
       0.09972448 -0.097171314 -0.16149877 -0.05067339
000380 95 60 72 3d a8 1a 41 be d4 34 e2 3d 07 de 16 be
       0.05917414 -0.18857825 0.110452324 -0.14733134
000390 b6 73 97 3d 51 54 40 be 1c eb 9d bc 6c d7 43 3d
       0.07395117 -0.18782164 -0.019277148 0.047812864
0003a0 87 af 23 be 19 29 60 bc 55 02 f4 3d b1 df b2 3c
       -0.15984927 -0.013681673 0.11914507 0.02183518
0003b0 de 6a 86 3d b1 da 23 3e ac 92 4b be 24 cb 70 3d
       0.06563352 0.16001393 -0.1988017 0.05878748
0003c0 3d c5 a5 3d 55 6b 4d 3e fb c9 ae 3d 88 14 10 3d
       0.08094261 0.20060475 0.085346185 0.03517583
0003d0 33 4f e1 bb cd fa 80 3e 6b 81 c8 3d 13 fa 71 be
       -0.0068758964 0.25191346 0.097903095 -0.23630552
0003e0 ea fd 97 bd 1f d3 1c be 4f b9 42 3e 14 b1 54 3e
       -0.07421477 -0.15314911 0.19016002 0.20770675
0003f0 a0 b7 57 be a3 a9 a6 bd 11 e6 32 3e 0a 00 00 3d
       -0.21066141 -0.081378244 0.17470576 0.031250037

recurs2.weight_hh f4 [120, 30]
000000 4f e5 05 3d c8 8d 4c 3c 71 a7 1c 3e a0 31 4b be
       0.03268939 0.012484975 0.15298249 -0.19843149
000010 71 c9 d1 3d 4a 0b 10 be 57 66 36 3e 87 85 12 be
       0.102435 -0.14066806 0.17812477 -0.14308749
000020 48 eb 31 bd 9f c7 90 3d fb 5d 3b 3d e1 c1 02 3e
       -0.043437272 0.07069325 0.045743924 0.12769271
000030 9b b9 93 bb 26 6d 71 3d 2e 90 4f bd 8d 81 a2 bc
       -0.00450821 0.058941983 -0.05067461 -0.019837165
000040 e2 be 4e 3d 3c 23 27 3e 27 7a 1c be f6 25 90 bd
       0.05047501 0.16322035 -0.15280972 -0.070384905
000050 5f b3 1f be d9 1b c2 bd cb d6 fa bd 79 f7 08 bd
       -0.15595768 -0.09477968 -0.12248 -0.033439133
000060 be dd 9c 3d 2a 3a 24 bd 9a 22 3b 3d eb 3e 64 bd
       0.076594815 -0.040094532 0.045687295 -0.055724066
000070 a7 b1 3f be 40 d0 cc 3c 71 e3 7f bc cc bb 38 be
       -0.18720113 0.025001645 -0.015618191 -0.18040389
000080 8f 6d 67 be 84 65 ae 3c 8f b2 e7 bc b6 56 c3 3c
       -0.22600387 0.02128864 -0.028283386 0.023845058
000090 9d dc 84 bc 61 b6 7e bd 11 20 cf bd 7f b8 0a 3e
       -0.016218478 -0.06218565 -0.10113538 0.13546942
0000a0 0f e4 de bd 25 10 5b bd f2 f3 90 bd 30 37 16 bd
       -0.108833425 -0.053482193 -0.07077779 -0.036673725
0000b0 ab 6c 3d 3d 5c 8c 10 3e 77 f8 08 3e 0a f4 8c bd
       0.046246212 0.14116043 0.13376032 -0.06882484
0000c0 f6 77 cc bd d2 b2 c3 3d 59 b3 c7 3c ca 7f 03 be
       -0.09983818 0.09555592 0.024377512 -0.12841716
0000d0 2a ad c9 bd 80 c4 e6 bd 0c 4d fb ba 09 83 c4 bd
       -0.098474815 -0.11267948 -0.0019172742 -0.095953055
0000e0 4c 35 29 be b0 ac 47 39 d7 7c 7d bd 5b c7 ed 3c
       -0.16524237 0.0001904245 -0.061886635 0.029025724
0000f0 47 0e cf bd e3 c8 21 be d3 25 bd 3d 32 e5 c0 bd
       -0.10110145 -0.15799288 0.0923573 -0.094187155
000100 35 d1 13 3e bd 18 1c be ef 8f 35 bd 5b 1b 3a 3d
       0.14435275 -0.15243812 -0.04432672 0.045436244
000110 56 dd 91 3b dc e8 44 be 2e 7e 51 3e 7b 2a 52 bd
       0.004451434 -0.19229454 0.2045829 -0.051310044
000120 bf 43 06 bd dc 49 68 3c ec fb 9f 3d b1 e5 10 3c
       -0.03277945 0.014177766 0.07811722 0.008843825
000130 2f fe 47 3d 13 e4 16 bc 17 8a 1b 3e 7f 13 f2 3d
       0.048826393 -0.009209651 0.15189396 0.11820125
000140 27 cd ee 3b 09 55 c2 bb 03 3b 3c be 1a 39 c4 3d
       0.0072876397 -0.005930547 -0.18381886 0.09581204
000150 3c 35 07 be 6d 13 65 be 4d da 87 bc 0f cd d4 3b
       -0.13203901 -0.22370692 -0.016583586 0.0064941715
000160 80 8a 2e be 23 ae 2c 3e 00 1b f9 bc 52 4c c2 bd
       -0.17045021 0.16863303 -0.030408382 -0.09487213
000170 b8 5c e9 3d 85 7f 76 3c df 95 c3 bd bb 05 90 bd
       0.11394638 0.015045051 -0.0955007 -0.07032343
000180 bd 1e e3 bd d2 05 1a be b9 44 89 bc ec 49 81 3c
       -0.11089847 -0.15041283 -0.016756402 0.015782319
000190 07 8e 54 bd e7 c8 5c bd 00 e9 3e be 20 f9 78 bd
       -0.05189326 -0.053902533 -0.1864357 -0.06078446
0001a0 9e 14 67 bb f1 1f 20 bd 6f 5f 8f 3d a2 01 25 3e
       -0.0035260092 -0.03909296 0.070006244 0.16113904
0001b0 73 79 e5 3d ed d7 7b 3d 67 ae 3b be 35 7d d9 bb
       0.11204805 0.06148522 -0.18328248 -0.0066372403
0001c0 94 1e 52 be 08 87 80 bd 4a 73 0d 3e 6d d1 ff bc
       -0.20519477 -0.06275755 0.1381351 -0.031227792
0001d0 fc 84 1d 3d 37 61 43 3e 02 0c 4f 3d 01 a1 3b 3b
       0.038456902 0.19080053 0.05054856 0.0028629901
0001e0 19 7b 1f 3e 86 65 f9 3d 8b 0a c3 bd 61 89 49 3c
       0.15574302 0.12177567 -0.09523495 0.01230082
0001f0 29 ab c8 3d bf 53 55 3d 0d 6c 43 3e b3 7f 01 be
       0.09798271 0.05208182 0.19084187 -0.1264637
000200 69 35 76 3c cc 8b 3a 3e a4 d4 fd bd 8a 85 8a bd
       0.015027382 0.18217391 -0.123940736 -0.06763752
000210 80 8b e5 3d 36 c1 dc 3d ea 05 4b 3e ea c2 20 bd
       0.11208248 0.107790396 0.19826475 -0.039248385
000220 6f 7a e3 3d ff 8e 0e be ed 8b ea bd 53 7b 90 3c
       0.11107337 -0.13921736 -0.1145247 0.01763693
000230 66 db 2e be 03 f8 40 3b df e2 a8 bd 94 bc 2b 3e
       -0.17075881 0.0029444702 -0.08246397 0.16771156
000240 ff ae 47 bd 53 1b 52 3d 5a 4d 11 3d ef 46 2e 3e
       -0.048750874 0.05129559 0.03547416 0.17019247
000250 3a 7b ac bb ee 48 e8 3d 55 dc 1d be fe 3f d3 bd
       -0.005263713 0.11342035 -0.15416081 -0.1031494
000260 2a c8 07 3e 7d 96 c7 3d 13 4d 8d bd a7 a9 09 3e
       0.1325995 0.097455 -0.06899466 0.13443623
000270 1f ca c1 3d 86 5e 06 be e0 f0 6d 3d 93 1b 31 3e
       0.0946238 -0.13121995 0.058091044 0.17295675
000280 c6 7f 59 bd 02 9c 3e 3e c4 6d ac bd d1 70 0d be
       -0.05310037 0.186142 -0.08419374 -0.13812567
000290 dd b3 c7 bd 63 63 99 bd 7a b5 2e 3e 38 8c e3 3d
       -0.09751103 -0.0748966 0.17061415 0.11110729
0002a0 b1 fd ff 3d 64 6f b6 3d d2 91 9c bc b7 63 c8 bd
       0.1249956 0.08907965 -0.019112501 -0.09784644
0002b0 17 72 42 be c3 70 b9 bd a2 ce 91 bd 79 54 0d 3e
       -0.18988834 -0.09054711 -0.0711949 0.13801755
0002c0 6c ab 79 bd 6d 22 47 bc d4 45 b2 3c 5e 04 39 3e
       -0.060954496 -0.012154204 0.021761812 0.18068072
0002d0 83 8b 90 bc 4b 1e e6 3d eb 9f c5 bd ed f3 43 be
       -0.01764465 0.11236247 -0.096496426 -0.19136019
0002e0 36 56 cc bc 70 83 8e 3d 94 c5 e6 3d 58 3f 8b 3d
       -0.024943452 0.069586635 0.11268154 0.06799191
0002f0 cd 7d 0f 3e 1d af bc bd 4b 00 d2 3c f2 74 44 3e
       0.14012833 -0.09213088 0.025634905 0.19185236
000300 cc ec d9 bd e5 e9 02 3e c2 1e ab bd f1 27 e1 3d
       -0.106408685 0.12784536 -0.08355476 0.10993946
000310 ed 19 d0 3d 4b da 2e 3e f5 06 97 bc 29 b7 8a bc
       0.10161195 0.1707546 -0.018435935 -0.01693304
000320 23 08 11 be d3 38 25 3e 05 85 69 bc 78 c9 3d bd
       -0.1416326 0.16134958 -0.014252906 -0.046334714
000330 15 d3 87 3c 9f 57 b9 3d 56 84 a8 bd f4 10 24 be
       0.016580144 0.090499155 -0.08228366 -0.16022092
000340 cb e9 55 bd 30 d9 49 3d 4c 94 a0 3c fa 8d 00 bd
       -0.052224915 0.04927939 0.019601963 -0.0313854
000350 26 97 85 3d e4 7c 93 bc 74 e3 10 3e c0 57 e2 bd
       0.0652297 -0.018003888 0.14149266 -0.11051893
000360 f8 4b 39 3e cf 9c a7 3b c9 24 06 3e 9b 3d b9 3d
       0.18095386 0.0051151286 0.1309997 0.090449534
000370 6b c2 28 be 91 46 4f 3e 32 70 99 bd 2c e8 f9 bd
       -0.16480415 0.20241763 -0.07492103 -0.122024864
000380 f2 df 1d 3e 08 b7 1e 3d 1b 8b af bd 70 57 92 bd
       0.1541746 0.03874877 -0.08571454 -0.07145584
000390 d4 78 25 3e 3f 79 44 be 9d 15 dc ba 53 e4 8b bb
       0.16159374 -0.19186877 -0.0016791109 -0.0042691617
0003a0 ca 59 20 be 32 59 ab 3d 7f 19 2b be 97 7f 5a bb
       -0.15659252 0.08366622 -0.16708945 -0.003334021
0003b0 75 1f c2 bc 36 af a8 3d cd a4 1c bd fd 91 2a be
       -0.02369664 0.08236544 -0.038243104 -0.16657253
0003c0 83 a5 53 bd 8d c1 ef 3d 29 28 d2 bd a1 e6 c8 3d
       -0.051671516 0.11706839 -0.10261566 0.09809614
0003d0 4b 3f 12 3e eb cc 8c bd 36 6e 0b 3d 8f 0c ef 3d
       0.14281957 -0.068750225 0.034040652 0.11672317
0003e0 63 7b ba bc ed e6 65 3b cb fe 02 3d eb 1b c1 3d
       -0.022763913 0.003508027 0.03198127 0.09429153
0003f0 4c 09 3f be ba 06 8c bd b8 36 5e 3e 32 6c 8c 3d
       -0.1865589 -0.068372205 0.21700561 0.06856574

recurs2.bias_ih f4 [120]
000000 45 9b 3e 3e a4 60 2d 3e d3 96 c9 bd 7e 66 eb 3c
       0.18613918 0.16931397 -0.098432206 0.028735396
000010 76 24 aa bd 75 8c 3a bd ec 07 fa bb 42 d6 3c 3e
       -0.083077356 -0.045544107 -0.007630339 0.18441108
000020 6f 19 2a 3d 84 a6 56 3e 8a 8d 1c be 16 e9 3c 3d
       0.04152816 0.20961958 -0.15288368 0.046120726
000030 bf b3 52 3d 63 38 3b bd f3 63 83 3c 1d 88 4a 3d
       0.05144095 -0.04570807 0.01603887 0.049446214
000040 0f c1 2a 3e 4e 56 5e 3c 1f e0 33 3c 9d 39 0e 3e
       0.16675209 0.013570381 0.010978728 0.13889165
000050 8a da 4c bc 7b 07 1d 3e c3 29 41 3e a0 6c 8b bd
       -0.012503276 0.15334885 0.18863587 -0.06807828
000060 df 19 a4 3d c5 aa 11 bc 37 1b 23 3e a5 c6 f8 3b
       0.08012747 -0.008890812 0.1592835 0.0075920396
000070 a9 76 2d 3c af 3e c8 3d 83 25 f3 3c 43 17 03 3e
       0.010587373 0.09777581 0.029680973 0.12801842
000080 f0 6f 64 bd 7e 4c e7 bd ea 47 ef 3c 2e 49 31 3e
       -0.055770814 -0.112938866 0.029209096 0.17313072
000090 d7 97 0b 3e a5 aa af bd d2 9d 37 3e 8d 8b db bd
       0.13632141 -0.0857747 0.17931297 -0.107199766
0000a0 cb 6f 3e 3e 6d 46 e4 3c 98 d8 ae bd 0e b4 8a 3d
       0.18597333 0.027865613 -0.08537406 0.06772624
0000b0 42 9a 22 3e 88 19 13 3e af 29 c8 bd 5d a1 5f 3d
       0.15879157 0.14365208 -0.097735755 0.054597247
0000c0 fc 26 97 3d b0 0d 3f bd d8 89 86 3d 4b 27 3d 3e
       0.073804826 -0.046643913 0.0656926 0.1847202
0000d0 a6 16 39 bd 61 b1 22 3e 67 34 ff bd f4 9b 34 bd
       -0.045187615 0.15887977 -0.12461167 -0.04409404
0000e0 f1 b2 40 3d d5 9b 8d bd ad db e6 bd 3b f5 8d bd
       0.04704565 -0.06914488 -0.112723686 -0.069315396
0000f0 fb 62 de bd 0e 6b 4d 3d 66 cd 6f 3d a6 54 20 be
       -0.10858723 0.050150923 0.058545493 -0.15657291
000100 04 44 fe 3d e6 b8 95 3d cf af 05 3e 2f b0 18 be
       0.12415317 0.07310657 0.13055347 -0.14910959
000110 c3 0a 45 be 62 55 1b bd d0 c1 ca 3d a2 db a1 3d
       -0.19242387 -0.037923224 0.09900248 0.0790322
000120 45 23 17 be 6e c8 3c 3e 03 fe f4 3d 5a bf 2a bd
       -0.14759548 0.18435833 0.119625114 -0.041686393
000130 e5 8f f6 bb ce 13 3a 3d 30 a0 31 be b5 ad 1e be
       -0.007524478 0.045429043 -0.17346263 -0.15495951
000140 83 6a a8 3d da 90 3a 3e 9c 02 ae bc 3b bf 43 be
       0.082234405 0.18219319 -0.021241479 -0.19115917
000150 01 92 23 3d 19 91 1a be 99 b4 10 3d 06 11 58 3e
       0.039934162 -0.15094413 0.03532848 0.21100244
000160 cd 4a 1a 3e 23 c6 15 3e 32 57 71 3d e5 fa 54 3e
       0.15067597 0.14626364 0.058921047 0.20798834
000170 89 7b 8e bc 5b 83 60 3d a7 4e c3 bd 98 bf f4 3d
       -0.01739289 0.05481277 -0.09536486 0.11950606
000180 cb 9d ac 3d 56 aa aa 3d 9c bc 20 3e 64 02 46 3e
       0.08428534 0.0833327 0.15696949 0.1933685
000190 f9 6f 13 be 18 ca ac 3c ec a3 fd bd 33 08 31 3e
       -0.14398183 0.02109246 -0.12384781 0.17288284
0001a0 4c c8 20 3c df 17 eb bd 79 70 bd 3d d5 bc a7 bd
       0.0098133795 -0.114791624 0.09249968 -0.08190314
0001b0 0d f1 4a 3c af 05 f9 3d 12 6c 24 3e a2 fa 11 3e
       0.012386573 0.12159287 0.1605685 0.14255765
0001c0 83 ec cd 3c 49 e1 71 3c ee 4c 12 3d b2 09 16 be
       0.025137192 0.014763185 0.035717897 -0.14652136
0001d0 54 da 53 bd 6b 77 27 3e 34 b2 0c 3e 57 2a 47 be
       -0.051721886 0.16354148 0.13739854 -0.19449745

recurs2.bias_hh f4 [120]
000000 5a 2a 92 3d 06 f0 45 3e f6 f1 fa bd 7d 11 15 3d
       0.07136984 0.19329843 -0.12253182 0.03639363
000010 51 3b 75 bd 8d 32 40 3d 56 78 8b bd a1 71 38 3e
       -0.05987102 0.04692321 -0.06810062 0.18012096
000020 b0 dd 14 3e 7c fd a2 bb 54 70 05 be 74 8c 5f bc
       0.14537692 -0.0049740653 -0.13031131 -0.0136443265
000030 aa fd cc 3b 2b d4 b3 3d 2e e2 81 bd ce d0 7a bd
       0.006255825 0.08780702 -0.063419685 -0.061234288
000040 26 b6 88 3c 2b fd dd bd bd de a4 3d 12 82 04 be
       0.016688418 -0.108393036 0.080502965 -0.12940243
000050 e5 e0 bb 3c 6e c7 f1 bd 1e ae 17 bd 31 82 28 3d
       0.022934387 -0.11805616 -0.037031285 0.041139785
000060 15 19 fd bc ad eb a8 bd 25 01 18 3d f6 88 7d bd
       -0.03089575 -0.082480766 0.037110467 -0.061898194
000070 f5 57 62 3d 78 95 94 3c 40 57 93 bc 51 2c 1c be
       0.055259664 0.018137679 -0.01798594 -0.1525128
000080 07 84 1f bd 39 6d e5 3c 32 49 59 3d 8f 8d 01 be
       -0.03894427 0.028006183 0.05304832 -0.12651657
000090 9e 71 00 3e a1 94 19 3d 40 a5 1d 3d 89 6e 8a 3c
       0.12543342 0.03749526 0.038487673 0.01689841
0000a0 22 b4 74 bc f3 8b d6 3d 55 8a 0a 3e f4 c2 1a bc
       -0.014935525 0.10475912 0.13529332 -0.0094458945
0000b0 5b 89 b3 3d 19 8e 09 3e 34 01 92 3d 8c ff 23 3c
       0.08766433 0.13433112 0.07129136 0.010009658
0000c0 4d dc 87 3d 24 72 76 3c 8b 1c 24 3e c0 39 2a bd
       0.06633816 0.015041862 0.16026513 -0.04155898
0000d0 3b 08 eb 3c c7 c4 41 3d 4d 58 12 be e7 ca 8f 3d
       0.028690448 0.047306802 -0.14291497 0.070211224
0000e0 f4 19 f9 bd a0 3f c0 3d 17 f3 47 bc 78 eb 1a 3c
       -0.12163153 0.093871355 -0.012203953 0.009455554
0000f0 b0 40 28 be d1 27 70 3d 5c 3b b5 3d 60 ca 19 3d
       -0.16430926 0.058631722 0.088492125 0.037546515
000100 b6 4d 9e 3d 45 af 10 be fc 00 35 3e d2 3e 96 3c
       0.07729666 -0.1412936 0.17676157 0.018340502
000110 71 ef 60 be 9c c2 10 bd a3 13 27 3d b9 2f 6f 3d
       -0.2196634 -0.035341844 0.04079021 0.05839512
000120 54 53 da 3c 08 96 35 3e 20 7d 9c bd f2 21 6b bd
       0.026651062 0.17733014 -0.07641053 -0.05740542
000130 4c 35 36 bd 5f 00 fe 3d e4 f8 4a be 1f 40 25 3e
       -0.04448442 0.124024145 -0.19821507 0.16137742
000140 8f 70 cd bd b1 ae 09 3e 54 b9 0e be 37 f7 c8 bd
       -0.100312345 0.13445546 -0.13937885 -0.098127775
000150 ff 58 20 3d 20 9d 57 bd 72 d3 12 be cc 04 f7 bd
       0.039147373 -0.05264008 -0.14338472 -0.12061462
000160 01 f6 3b be 1c de 2b 3e 3f ce dc 3d 7a 42 f9 bc
       -0.18355562 0.16783947 0.10781526 -0.030427206
000170 82 5c 05 3e 94 1c 14 3d 9a d3 a1 3c 2e e7 89 bd
       0.1302357 0.036160067 0.01975422 -0.06733547
000180 27 63 cb bd 18 e6 06 3e 2a f9 54 3e c1 ec 14 be
       -0.09931021 0.13173711 0.20798174 -0.1454344
000190 77 f5 51 3d eb 04 e9 3d 25 ee 9e bd 4a be 3f bd
       0.051259484 0.11377891 -0.07760266 -0.046812333
0001a0 8c af f6 bd fa 1c c7 3d 70 46 42 3e 59 29 c2 3d
       -0.12045202 0.09722324 0.18972182 0.09480543
0001b0 9f f5 61 bc 15 c1 89 3d 12 5d 74 bd f5 f9 84 bd
       -0.013791471 0.067262806 -0.05965907 -0.06492988
0001c0 27 88 af 3d 78 41 43 3e c0 b0 1e 3d 21 24 a6 bc
       0.08570891 0.19067943 0.03874278 -0.0202809
0001d0 ae 1a fb 3c b5 53 21 be 8c 1e 1e 3e c7 5c 0e be
       0.03065237 -0.15754588 0.1544134 -0.13902579

output.weight f4 [2, 30]
000000 f8 ea 05 be d5 9c 46 be 9d 13 34 3c 87 b1 28 be
       -0.13077915 -0.19395764 0.010991004 -0.16473971
000010 8d 89 b8 3d c4 b0 3c be 44 6f 2c 3e 42 3d 4f be
       0.09010611 -0.18426806 0.1683932 -0.20238212
000020 88 64 5b be 20 e0 6d be f0 15 54 3e 1d 53 00 3e
       -0.21425068 -0.23230028 0.20711493 0.12531705
000030 c4 78 2d be 4c d0 fa 3c ec 26 05 3e ca fa b6 bc
       -0.169406 0.030616902 0.13003129 -0.022336382
000040 8d 02 cf 3d e2 22 40 3d a5 97 a5 bd 0c c6 49 3e
       0.101079084 0.046908267 -0.080855645 0.19704455
000050 e9 2e a4 bd 18 9b bc bd 6e df eb bd 67 29 82 3d
       -0.0801676 -0.09209269 -0.11517225 0.06355553
000060 14 7d 1a 3e 5b 78 f2 bd c7 f8 7b be 1d 9c 46 3e
       0.15086776 -0.11839362 -0.2460662 0.1939549
000070 26 f9 ed bd 9c a2 b0 3c 08 6b 51 3e b7 59 c2 3d
       -0.11619787 0.021561913 0.20450985 0.09489768
000080 9b dc 49 3d 4c ad de 3d d3 6c 11 bd 10 4d 37 3d
       0.04928265 0.108728975 -0.035504173 0.044751227
000090 ad 56 13 be 05 ef ba 3d 95 8e 01 3e 87 d9 f0 3d
       -0.14388533 0.091276206 0.12652047 0.1176024
0000a0 37 64 ed bd 0c cf 4c bd d4 92 02 3d 8d 57 1b be
       -0.1159138 -0.050002143 0.031878307 -0.15170117
0000b0 29 2b 3a 3c ef 4e 14 3e e5 50 dd 3c 18 dd e9 bd
       0.011362829 0.14483236 0.027016113 -0.114191234
0000c0 ee 18 39 3e 8b 8b cf bd cd 9a ec 3d 22 58 02 bd
       0.18075916 -0.101340376 0.115529634 -0.03182233
0000d0 08 1b c6 3d 1a f6 e5 3d 9a 21 54 be a2 d1 af 3d
       0.096731246 0.11228581 -0.20715943 0.08584906
0000e0 a6 10 08 3d de 98 31 be 56 d4 1b 3e f9 0e b3 bc
       0.033219002 -0.1734347 0.15217718 -0.021857725

output.bias f4 [2]
000000 61 2d 16 3b 2f 0f 58 bd
       0.0022915232 -0.052748855

switch.weight f4 [1, 30]
000000 e7 cf fc 3d c5 24 90 bd 36 fe d4 bd 5f d7 7d bd
       0.12344342 -0.07038263 -0.104000494 -0.061972972
000010 0f 87 1f bd ce 41 a5 3d 27 f5 e7 bc 7f a3 a2 3d
       -0.03894716 0.08069192 -0.02831514 0.07941341
000020 3e 3c 1a be 34 bf ac 3c c4 5b 18 3e 3a ee 2c bd
       -0.15062043 0.021087267 0.14878756 -0.042219378
000030 1c 88 1d 3e 64 41 80 3d f6 6f 3d be 7f 95 df bd
       0.15383953 0.06262472 -0.18499741 -0.10917186
000040 fa 78 0e 3e 65 89 d8 bc 60 1b 2d 3e 3d 09 2f be
       0.13913336 -0.026432702 0.16904974 -0.17093368
000050 b8 14 d7 bd 17 40 14 3e cf ae 2c 3e 6a 2a 32 be
       -0.10501999 0.14477573 0.16863559 -0.17398992
000060 56 87 86 3d 34 b9 3f be 3b 94 0f be e6 12 b7 3d
       0.06568782 -0.18722993 -0.14021389 0.089391515
000070 2e e6 bf bd bc 7a 09 bc
       -0.09370075 -0.008391079
