checkpoints/VQE-H2-e66c32aa/.pth (torch, 49793 bytes, 11 tensors)

recurs1.weight_ih f4 [120, 2]
000000 e7 62 36 bd 8f 49 3d 3e f3 e8 64 be 76 e4 f2 bd
       -0.044527914 0.18485092 -0.22354488 -0.11859982
000010 36 3d ea bd 70 e4 05 bc 54 6c 23 bd a5 4e da 3d
       -0.11437456 -0.0081721395 -0.03989823 0.106595315
000020 a3 4d d3 bd 26 f2 13 3d ee 12 ea bd 0e f8 4e 3d
       -0.103175424 0.036119603 -0.11429392 0.050529532
000030 30 b9 7f be a4 ef 06 be 5f c9 f8 bd 42 ce 4d 3d
       -0.24972987 -0.13177353 -0.121477835 0.05024553
000040 8b 2f 4b 3c 25 05 32 3e 4e 21 3a be 7d eb 07 be
       0.012401472 0.17384775 -0.18176767 -0.13273425
000050 8b fb ad bc 98 08 0b 3e c5 af e3 bd 22 9f 05 3e
       -0.02123811 0.13577497 -0.1111751 0.13048986
000060 e9 5d bd bd 1f f1 23 bd 48 ce 05 3e 3c 5c d9 bd
       -0.092464276 -0.040024873 0.13066971 -0.106132954
000070 9a b9 05 be e8 d1 1f 3d a3 52 01 be 7a 66 e0 3d
       -0.13059083 0.03901854 -0.1262918 0.10957046
000080 91 7b 3b be 10 c4 06 be cb 47 48 be e4 96 56 be
       -0.18308856 -0.1316073 -0.19558637 -0.20955998
000090 60 81 1c be ac a1 55 3e 8e f2 e4 3c 86 ce 23 3e
       -0.15283728 0.20862454 0.02794769 0.15996751
0000a0 21 7d c0 bc eb 82 03 be 3f 6f 3a bd 50 dd 41 be
       -0.023497166 -0.1284291 -0.04551625 -0.1893208
0000b0 61 90 33 be ea a9 22 be 32 17 0e 3d ff b4 1f 3d
       -0.17535545 -0.1588513 0.03469009 0.03899097
0000c0 7d 4a 01 be be 8a c7 3c c5 80 83 3d d5 3e 88 3e
       -0.12626071 0.02435815 0.06421045 0.26610437
0000d0 06 2f 01 3d ac 32 93 3d ea 80 81 3d 4c c7 0b be
       0.031538986 0.07187399 0.063234165 -0.13650244
0000e0 08 1a 2b bd ee 40 03 be 1d 1d 5c be a3 aa e4 bd
       -0.041772872 -0.12817737 -0.21495481 -0.11165359
0000f0 3c a0 1e 3d 19 ad 24 3e 9b f6 2d be fe 46 90 3d
       0.03872703 0.16081657 -0.16988604 0.07044791
000100 64 4c 56 3d b4 02 af bd 72 74 d5 bc 2c 1d fc 3a
       0.052318946 -0.085454375 -0.026056502 0.0019234768
000110 03 2a 17 3d 8b fd 2d 3e d5 dd 44 be ce aa a1 3c
       0.0369053 0.1699125 -0.19225247 0.019734766
000120 9c 57 88 3b 79 41 14 3e 72 d1 f2 3d e0 11 5b 3e
       0.0041608345 0.14478101 0.11856355 0.21393538
000130 de a8 7c bc 13 36 a8 bd 3b 08 1b bd 94 a1 2e be
       -0.01542112 -0.08213439 -0.037849646 -0.17053825
000140 a2 61 7c be a0 b7 1b 3e 10 30 99 3d 4f 6a 38 be
       -0.24646619 0.15206766 0.0747987 -0.18009304
000150 82 72 d0 bc 00 f9 c6 bd ca 36 83 bd 44 87 d9 bc
       -0.025445227 -0.09715462 -0.064069346 -0.026553757
000160 1c 25 62 3d 14 4e ac bc 4b d5 77 3c 62 ee 19 3d
       0.05521117 -0.021033324 0.015126537 0.037580855
000170 cb de 91 3d 5f e4 92 3c f5 12 77 be 0a a6 24 be
       0.071225725 0.017931161 -0.24128325 -0.16078964
000180 e1 92 4d 3d 6d 22 d1 3d 90 a3 46 be c7 78 05 bd
       0.050188903 0.10211644 -0.19398332 -0.032585885
000190 cc 3a 0e 3e 5b fe aa 3d 41 8e 1b be 27 23 85 bd
       0.13889617 0.08349296 -0.15190984 -0.065008454
0001a0 74 c0 59 be f7 a1 8b bd 93 64 5b be 0c 93 57 be
       -0.21264821 -0.06818002 -0.21425085 -0.21052188
0001b0 4e 3e 5f bd 19 65 92 3d 59 59 ff bd f4 86 46 3e
       -0.054502778 0.07148189 -0.124682136 0.19387418
0001c0 d2 81 1a be 8b 2e 5c 3e 84 67 98 3d 19 a9 3f be
       -0.15088585 0.2150213 0.07441619 -0.1871685
0001d0 af b6 eb bd bb 18 c3 3c 4b 79 5b bd 4d 4a c2 3c
       -0.115094535 0.023815503 -0.05358247 0.02371707
0001e0 4d 81 27 3d 8c 93 c7 3d 18 dd 90 bd 90 51 29 3e
       0.040894795 0.09744939 -0.0707342 0.1653502
0001f0 39 16 52 be 09 8e 27 be 7d de 9b bd 29 66 02 be
       -0.2051629 -0.16362776 -0.07610796 -0.12734284
000200 de a7 80 bd b9 65 71 be f4 05 7a bd 8c b7 fd 3d
       -0.06282018 -0.2357396 -0.061040834 0.123885244
000210 02 9d 04 be f2 7b b8 bd d5 68 01 3e 10 9a c1 bd
       -0.12950519 -0.09008016 0.12637646 -0.09453213
000220 6d dc 7c 3c f4 c3 d1 bd 12 57 85 3d 58 05 3a 3e
       0.015433413 -0.10242453 0.06510748 0.18166101
000230 7e db 30 3e 03 83 4f 3e 73 a2 31 3e c3 03 8b 3d
       0.1727123 0.20264821 0.17347126 0.06787827
000240 e4 96 3c be 8c 86 28 be 98 6c 26 3e e1 b9 12 bd
       -0.18416935 -0.16457576 0.16252363 -0.0358218
000250 fd c7 f4 bd de 85 91 bd fc 33 3b be 07 10 5b be
       -0.11952207 -0.07105611 -0.18281549 -0.21392833
000260 73 d0 81 bc 8e b3 2f 3e 22 1c 98 3d 64 ea 78 be
       -0.015846467 0.17158338 0.07427241 -0.24308163
000270 b9 fc c1 3d 71 ff 5e be db 5a 67 bc fb f6 19 be
       0.09472031 -0.2177713 -0.014120783 -0.15035622
000280 2a f2 4b 3a a5 b3 54 ba ef 24 38 be af 68 74 be
       0.00077799207 -0.00081139273 -0.17982839 -0.23868059
000290 54 46 7a bd 19 11 9e bd fd 95 91 bd af 01 1d 3e
       -0.061102226 -0.07718105 -0.07108686 0.15332673
0002a0 93 12 57 be bf 98 73 3c a6 0d 35 3e 3a 0b 23 be
       -0.21003179 0.0148679605 0.17680988 -0.15922251
0002b0 f5 a0 e8 3d 98 94 ac 3d fb f6 0d be 0b bd 38 3e
       0.11358825 0.084267795 -0.13863747 0.18040864
0002c0 63 ab d4 bc 74 90 28 be 82 4b 12 3e a1 a1 6f be
       -0.02596063 -0.16461354 0.14286616 -0.234015
0002d0 c9 04 da bc b2 0b 4f 3d f7 7c 81 3d 9d 7f 71 3d
       -0.02661361 0.050548263 0.06322663 0.058959592
0002e0 b2 47 25 3d 60 f1 b6 3b 04 7e a4 bd 65 6e a5 bd
       0.040351577 0.0055829734 -0.08031848 -0.08077697
0002f0 f3 31 6f be 40 23 b5 3d f2 0f ba 3d ce 83 5a 3e
       -0.23358898 0.08844614 0.090850726 0.21339342
000300 06 08 4f be 3e 27 18 3b eb 94 32 be 65 17 4a bd
       -0.20217904 0.002321675 -0.1743962 -0.049338717
000310 f1 b3 25 be 74 c2 0a 3e c9 24 2c be 7a b7 7f bd
       -0.16181923 0.1355074 -0.16810907 -0.062430836
000320 ad 05 9c bd fa dc dc 3d 00 a2 54 be 6f 2b fc bd
       -0.0761827 0.107843354 -0.20764923 -0.12312972
000330 bb 83 34 be 12 ce 80 3d 8d d3 c7 bd dd bc 5f 3e
       -0.17628376 0.06289305 -0.09757147 0.2184939
000340 b9 8b 55 3d 9a e6 e1 3d 0c 52 66 bd cc ea b5 bd
       0.052135203 0.11030312 -0.05623059 -0.088826746
000350 b0 ac 2c bd 94 fd c1 bd 79 5c 90 bd c4 ae a1 bc
       -0.042156875 -0.09472194 -0.07048888 -0.019736655
000360 a3 49 40 be 56 16 e6 bc 43 ab bd 3d 6a 29 94 bd
       -0.1877809 -0.028086822 0.09261181 -0.072344616
000370 34 4a 51 bd 7f 19 08 3e b0 8b 30 bc 83 6a a5 bc
       -0.051096156 0.13290976 -0.010775492 -0.02019239
000380 64 66 4c be 7e 93 dd 3c 03 7f 58 be 9d df ff bd
       -0.19960934 0.027047869 -0.21142201 -0.12493823
000390 2d cc d9 bd 16 64 e5 3b 1c 83 51 bd 8a 46 74 3e
       -0.106346466 0.0070004566 -0.051150426 0.23855034
0003a0 2f af 8e bc 67 f8 58 3e cc b1 60 3d f5 fd 1f be
       -0.017417518 0.21188508 0.05485706 -0.1562422
0003b0 d3 6a e0 3b a6 a1 ea bd f9 00 2b be dc e9 06 3d
       0.006848672 -0.11456613 -0.1669959 0.03293787

recurs1.weight_hh f4 [120, 30]
000000 aa 17 df 3d 96 f5 53 3e b0 1b 68 bd 48 58 0e 3d
       0.108931854 0.20699152 -0.05666703 0.03475216
000010 fd d4 8e 3c eb e3 fc bd 36 19 7a 3d ea 2e 55 be
       0.017435545 -0.123481594 0.0610592 -0.20818678
000020 74 c9 52 bd cc 77 c0 bb 8b c0 a2 bc f6 17 c2 3d
       -0.051461652 -0.005873656 -0.019867202 0.094772264
000030 5b 33 f8 3d 0a 62 cb bd 14 1f 95 bd 08 06 0c be
       0.1211917 -0.09930809 -0.07281318 -0.13674176
000040 9e 73 e9 bd 82 58 af ba d0 5f 11 be 22 8e 34 be
       -0.11399005 -0.0013377818 -0.14196706 -0.17632344
000050 6e 4f 17 be 44 72 f7 3c 44 13 8c 3d eb cf 3b 3e
       -0.14776394 0.030205853 0.06839612 0.18341033
000060 dd 7c dd 3d 56 d4 ea bd 8b ed 18 3b f4 bc 00 3e
       0.108148314 -0.11466281 0.0023334946 0.1257208
000070 2d b0 9c 3d 75 da f6 bc 1c 12 f8 bc 2f 5c 1c bd
       0.0765079 -0.030133465 -0.030282073 -0.03817385
000080 e8 8c ef bd c1 20 de 3d 6a 5a e8 bd 17 b4 c8 bd
       -0.116967976 0.10846091 -0.1134537 -0.097999744
000090 9c b2 1c 3e 24 05 28 be ed ef a0 bd 6d be 42 bb
       0.15302509 -0.16408211 -0.07858262 -0.0029715553
0000a0 1c ef ab 3c 4e c5 f8 bd 2d 84 ce bd ce ab aa 3d
       0.02098804 -0.12147008 -0.10083804 0.083335504
0000b0 fe f8 b2 3d 98 9b 32 3e cb 6a ab bd d0 be 88 3d
       0.08738898 0.17442167 -0.083699785 0.066770196
0000c0 63 c2 d6 bd 2b 4d 87 bd b7 61 3c be f6 9c 5f 3d
       -0.10486295 -0.066065155 -0.1839665 0.05459305
0000d0 7b 59 af 3d 2f af 4e bd 62 22 a8 3c 0b d6 36 be
       0.08561989 -0.050460037 0.020524208 -0.17855088
0000e0 f7 52 49 3e c3 6f 18 be 16 89 5e 3d ee a9 8c bd
       0.19660555 -0.14886384 0.054329954 -0.06868349
0000f0 b0 48 e0 bd c4 9a f9 bc b2 e0 2a bd 62 5e be 3d
       -0.10951364 -0.030469306 -0.041718192 0.09295346
000100 1a c2 b5 3d 8c d2 28 be 29 8f a6 3d 18 ec 04 3e
       0.088749126 -0.16486567 0.081327744 0.12980688
000110 53 3f f0 3d bb 8b 93 bd 9b 8f 51 be cb 7f 9f bd
       0.11730828 -0.07204386 -0.20464937 -0.077880464
000120 bc 49 06 3e 8d ca c9 bd de c4 ce 3d 72 88 31 3e
       0.13114065 -0.098530866 0.10096143 0.17337206
000130 a5 10 16 be f7 d6 6a 3d 84 11 01 3e 84 38 ab 3c
       -0.14654787 0.057333913 0.12604338 0.020900972
000140 6c 60 cd bc 4c 60 98 3d 15 2c b5 bd 26 82 22 bd
       -0.025070392 0.07440242 -0.088462986 -0.0396749
000150 84 63 28 3e 83 f9 40 3e 7f c9 02 3e 72 13 d7 bc
       0.16444212 0.18845181 0.12772177 -0.02625439
000160 68 77 0f 3e 97 16 11 bd 2e 75 22 be a7 5b 46 be
       0.14010394 -0.035421934 -0.15865013 -0.193709
000170 06 df 60 3e 12 bd 1c 3e 02 10 c2 bd f6 49 7c 3d
       0.21960077 0.153065 -0.094757095 0.061593972
000180 10 64 2a 3e bb 09 62 3e a4 12 47 3e 37 62 e5 3d
       0.16639733 0.22074024 0.19440705 0.112003736
000190 93 98 93 bd 16 92 bc bd 95 8e 4a 3e 4b a7 8f 3d
       -0.072068356 -0.09207551 0.19780953 0.070143305
0001a0 7a 4a ab bd 81 c8 49 3e 9b 0b 64 3d 00 c9 0a 3e
       -0.08363815 0.19705392 0.05567513 0.13553238
0001b0 72 34 ac bd af 83 30 3d 22 1b ce bd f9 6b 33 3e
       -0.08408441 0.043094333 -0.10063769 0.17521657
0001c0 08 4c 7e 3c 4f ab 20 3d a9 a3 8c 3d 62 85 ac 3d
       0.015521057 0.039225873 0.06867153 0.08423878
0001d0 1a ca 0a bd 1e 8d 66 3d cc 42 be bd d8 22 99 3d
       -0.033884145 0.056286924 -0.09290084 0.07477349
0001e0 53 85 5a bd e4 0d 22 be 90 61 92 bd 5f 11 6e 3e
       -0.053349804 -0.15825611 -0.07147515 0.23248814
0001f0 3b 5e d9 3d 0a fb 7c 3e f9 3c 1a 3e d0 6c 48 be
       0.10613676 0.24705139 0.15062322 -0.19572759
000200 14 e7 2f be 22 ca cd bd ac a6 fc bd 1d df e2 3d
       -0.17177993 -0.100483194 -0.12336478 0.11077712
000210 f0 18 96 bd 7e 90 31 be ea 9a c3 bd 3b f9 8f bd
       -0.07328975 -0.17340276 -0.09551032 -0.07029959
000220 4d 47 e3 3d f6 33 2b 3e 3e a1 8e 3d a6 7b 95 3d
       0.11097584 0.1671904 0.06964348 0.07298975
000230 3b fa 96 3d 86 5c 0c bd 28 c1 ed 3d 81 79 c6 3d
       0.073719464 -0.034267925 0.11609107 0.09691144
000240 b2 bd 16 3e c6 cd d3 3d e0 2d 36 3e 48 27 bf 3d
       0.147208 0.103419825 0.17790937 0.09333664
000250 97 ae 76 bd 5b b6 d0 3d 98 52 9b 3d 54 56 17 3d
       -0.060225096 0.101910315 0.07584113 0.036947563
000260 55 f2 b9 bd 60 62 50 bd 79 9d 60 be e2 4e 3a 3e
       -0.09079424 -0.050875068 -0.21935071 0.18194154
000270 14 45 6e 3d b6 92 a4 bd a7 e0 25 be 52 7b 2c 3e
       0.058171347 -0.080357954 -0.1619898 0.16843918
000280 81 f0 4b 3e b0 f2 ac 3d 2f 77 e0 bd a4 a9 dd 3d
       0.19915964 0.084447265 -0.109602325 0.10823372
000290 71 a1 f2 3d 53 d1 5d be 4f 60 80 3e 60 8d 49 3d
       0.11847199 -0.21661882 0.25073478 0.04920709
0002a0 00 f0 fb bd ac c4 28 3d 01 0a 25 be b6 cf d5 bd
       -0.12301636 0.041203186 -0.16117097 -0.10440008
0002b0 23 4d 02 3e b9 c0 1a 3d 19 c4 90 bd 48 fb f7 bd
       0.12724738 0.03778145 -0.07068653 -0.12108475
0002c0 92 09 23 3c 63 62 29 3d 7f 16 6d bd 1b 6b aa 3d
       0.009951012 0.041353595 -0.057882782 0.0832121
0002d0 38 aa 95 3d 0a ea c1 bd 85 ec 99 3d 7e b7 2a 3e
       0.07307857 -0.094684675 0.07515816 0.16671559
0002e0 2e be bc 3d de 93 ca bd e1 cf 03 bd 39 92 2a be
       0.092159614 -0.09891485 -0.03218067 -0.16657342
0002f0 ce 40 f9 bd 7f 57 0e 3c 93 91 05 be 59 5e 6c 3d
       -0.12170564 0.008687853 -0.13043813 0.057707164
000300 39 f6 5d 3e 5d a5 83 bd e5 14 43 bd a0 db 0c bd
       0.21675958 -0.06428025 -0.04762735 -0.03438914
000310 a7 ce 06 3c 32 eb f9 bd 17 74 08 3d 8d 81 65 be
       0.008227981 -0.12203063 0.033313837 -0.22412701
000320 b8 8d 82 be aa 38 2f be 42 60 97 bb 48 eb 8e 3d
       -0.25498748 -0.1711146 -0.004619629 0.0697847
000330 dc c3 c4 bd 48 43 a7 3d 50 f8 67 38 fc 1c 1e 3d
       -0.0960767 0.0816713 5.530595e-05 0.03860186
000340 7d ab 33 3c 9d 3e 20 be ce f5 4b 3e 30 8d 19 3e
       0.010966179 -0.15648885 0.19917986 0.14995265
000350 00 c6 5c 3e fc f0 0b 3e e3 14 17 be b0 f5 4c 3e
       0.21559906 0.13666147 -0.14754061 0.20015597
000360 9d 4a 3d bc 2f 58 3b 3d 06 2e 42 be 2a 13 b3 bd
       -0.011553434 0.045738395 -0.18962869 -0.0874389
000370 6f fc 17 be eb cf 74 bd 10 7b 84 3d de ae 44 be
       -0.1484239 -0.0597686 0.06468785 -0.19207332
000380 0d de dc 3d af 41 d0 3d c4 92 98 3c 3d 36 01 be
       0.1078454 0.10168778 0.01862467 -0.12618347
000390 88 dd 44 be 8b 33 dd bd 74 a5 05 3d 10 68 22 3e
       -0.19225132 -0.10800847 0.03262849 0.15860009
0003a0 26 46 ee 3d 7d 6a 24 bd 23 c6 e3 3d 78 67 6a be
       0.116344735 -0.040140618 0.11121776 -0.22891033
0003b0 f7 3e d8 bd 26 b5 af 3d 26 bb 0a be 90 5e 80 3d
       -0.105588846 0.08579473 -0.13547954 0.06268036
0003c0 30 72 94 bd a2 8b 57 bc 38 38 de bd 57 66 1a 3e
       -0.07248342 -0.01315585 -0.108505666 0.15078102
0003d0 f5 7d 98 bd 4c 31 4a 3e c7 55 89 3d 9e 79 45 3d
       -0.074458994 0.19745368 0.06705814 0.048211686
0003e0 a2 46 44 bd b8 f9 8b bd 29 c6 9e 3c 4d 4e 84 3d
       -0.047918923 -0.068347394 0.0193816 0.06460247
0003f0 3d c1 d1 3d 50 1d 3f be 4c f4 53 3e c6 1c 26 bd
       0.102419354 -0.18663526 0.2069866 -0.040554784

recurs1.bias_ih f4 [120]
000000 4d 46 fc bd ce 94 b2 bd 93 45 15 3a cd 19 33 3e
       -0.12318096 -0.087197885 0.00056942663 0.17490311
000010 74 66 12 3e 16 11 bf 3d b6 2d 00 3d 77 c4 5d 3e
       0.14296895 0.09329431 0.031293593 0.21656977
000020 2b 98 86 3d 61 10 ef 3d b0 72 bb 3d 73 ba d6 3d
       0.065719925 0.11673046 0.09152734 0.10484781
000030 9e 62 f8 3d 01 87 2e 3e dc 48 ee 3d 79 9d a4 3d
       0.12128185 0.17043687 0.116349906 0.08037848
000040 64 99 0f 3e 40 dc 5a 3c af 3b 2d 3e 9c 3a cf 3d
       0.14023358 0.013358176 0.16917299 0.10118601
000050 57 e8 33 3e 44 e4 4b 3d 7f 20 dd bd 11 b7 df 3d
       0.175691 0.049778238 -0.10797214 0.10923589
000060 7a b9 f5 3d 55 d1 49 3e a7 2e ec 3d 69 ee 03 3e
       0.119982675 0.1970876 0.11532336 0.12883915
000070 ee dd 66 3e 62 17 d9 3c b8 15 4c 3e 91 a5 20 3e
       0.22545597 0.026500408 0.1993016 0.15688159
000080 61 c0 26 3e a5 69 2a 3e c6 ef 89 bd f8 8d 15 3e
       0.16284324 0.16641863 -0.06735186 0.14604938
000090 da eb 77 3e eb aa b0 bd ff 63 13 3d eb e3 69 bd
       0.24211064 -0.0862635 0.035984036 -0.057102125
0000a0 3d d7 1e 3d 0f fa bd 3d e2 c6 20 3e bd 6c bd bc
       0.038779486 0.092762105 0.15700868 -0.02312314
0000b0 9c a9 1f be 74 05 1e 3e 44 9c 2a 3e 8b 33 08 3d
       -0.15592045 0.15431768 0.16661173 0.03325228
0000c0 b8 9b 4d 3e 00 60 41 3e 53 3b 0f bb 88 eb ae 3d
       0.20078933 0.18884277 -0.0021855428 0.08541018
0000d0 e5 16 92 3d f4 c8 15 3d 8e 58 ae 39 14 c7 07 bd
       0.07133273 0.036568597 0.00033253845 -0.03314884
0000e0 83 b1 7a bd c3 f0 16 3e 04 d6 9b 3c 3c 08 29 bb
       -0.061204445 0.14740281 0.019022949 -0.0025792262
0000f0 f2 ed 37 3e 97 9c 5f 3b fb d1 29 3e 3f b8 4c 3e
       0.17961863 0.0034120434 0.16584007 0.1999216
000100 8f 42 90 bc 5e b1 24 3d 5a 69 41 3e 2d 70 e6 bd
       -0.017609863 0.040208213 0.18887845 -0.112518646
000110 a6 84 5b bd 85 6d 32 bc fc f2 ec bc 34 b5 1e 3d
       -0.0535933 -0.010890369 -0.028924458 0.038747028
000120 90 6a fd 3d c0 0e ed bd 2a ee 41 3d c1 fa 43 3e
       0.12373841 -0.11575079 0.04734627 0.19138624
000130 aa 14 08 be dd 8c b9 bd a2 0a ea bd 74 18 ae 3d
       -0.13289133 -0.09060071 -0.11427809 0.08500758
000140 72 07 52 be be 1e 88 bd 52 fe 1f 3e 57 33 04 be
       -0.20510653 -0.066464886 0.15624359 -0.1291021
000150 d3 b2 49 3e 4d 8f c6 bd 98 b4 ae 3d 92 09 22 bc
       0.19697122 -0.09695301 0.08530539 -0.009889977
000160 5e 73 19 3c c0 bf 01 3e 05 9f 48 3e c2 3f 2e bd
       0.009365885 0.12670803 0.19591911 -0.042541273
000170 79 49 16 3e cc 88 ac 3d 87 d7 ae 3d 11 83 96 bd
       0.14676465 0.084245294 0.08537202 -0.07349218
000180 1a 1f 08 3e 0a 86 38 3e a7 70 c9 bd 65 e4 e2 bd
       0.13293114 0.18019882 -0.0983594 -0.11078719
000190 79 bc b6 bd 10 0b f1 3d 5c 87 56 3c 1e 2a e8 bc
       -0.08922667 0.11769688 0.013093796 -0.028340396
0001a0 f1 c4 3c 3e fe 0a 21 3c a5 e6 45 bd 6f d8 b0 3d
       0.18434502 0.009829281 -0.048315663 0.086350314
0001b0 b7 e6 52 bd 73 56 e5 ba fb f5 0b 3e 60 a9 f7 3d
       -0.051489558 -0.0017497077 0.13668053 0.120928526
0001c0 f8 f8 ae bd 66 7b 7c 3e e4 90 2d 3e 5e 3d 97 bd
       -0.08543581 0.24656448 0.16949803 -0.07384752
0001d0 1d 12 fc 3d 7c 4b 0c 3e 7b 0c 50 bd 03 53 18 bd
       0.12308142 0.1370067 -0.050793152 -0.03718854

recurs1.bias_hh f4 [120]
000000 21 20 e5 bd ca b2 1c 3e 42 88 92 3d f7 fb e6 3d
       -0.11187769 0.15302578 0.07154895 0.11278527
000010 1d 37 07 3c 0d db 48 3e 53 ee d2 3d d8 24 c3 bd
       0.008252886 0.19614811 0.10299363 -0.09528512
000020 04 99 93 3c fc d0 17 3e 5f dc 03 3e 95 5b 46 3d
       0.0180173 0.14825815 0.12877034 0.048427183
000030 c9 89 89 bd 13 7a aa bd da c8 2c 3e 09 db 42 bd
       -0.067157336 -0.08324065 0.16873494 -0.04757217
000040 cd 56 49 3e fd 67 ea 3b fa 3d 3d 3d 6b ec 02 be
       0.19662018 0.0071535097 0.046201684 -0.12785499
000050 16 a8 af bc 5f c3 6d 3e ee 88 fb bd 91 fe 28 3e
       -0.021442454 0.2321906 -0.12281977 0.1650336
000060 c2 07 dd bd f8 0a 9c 3d b3 be f7 bd 61 4a aa bd
       -0.10792495 0.076192796 -0.1209692 -0.08314968
000070 7d af 89 bd 96 78 d4 3c 75 f1 80 3d 10 8d 90 bd
       -0.06722925 0.025936406 0.06296054 -0.070581555
000080 e2 8c b2 3d d8 ad 15 3e b9 2d 6c 3e 66 b7 59 3e
       0.087182775 0.14617097 0.23064317 0.21261367
000090 57 e4 44 3e 95 b8 40 bc c3 90 0e 3d 13 0a 5d 3e
       0.1922773 -0.011762758 0.034806024 0.21585874
0000a0 82 db 31 3e 29 61 8c 3c 8e ec 49 3e 8b c9 04 be
       0.17368892 0.017136173 0.19719145 -0.12967508
0000b0 3f 61 31 3e ca ac 21 3e 12 ce 8e bd d4 14 a9 bd
       0.17322253 0.1578857 -0.069728985 -0.08255926
0000c0 92 c3 3f 3e 9f af 69 3e 54 21 5d 3d 04 16 e6 3b
       0.18726948 0.228209 0.053986862 0.0070216674
0000d0 46 91 12 3e 08 6d 1e 3e 8f 89 b8 3c ab 20 48 3e
       0.1431323 0.1547128 0.02252653 0.19543712
0000e0 7a d3 24 3e 65 5c d0 3d 2f 11 2c 3e f5 24 b0 bd
       0.16096297 0.10173873 0.1680343 -0.08600799
0000f0 68 a9 88 bd 62 e9 bc bb 98 89 ab 3d 08 a0 0c 3c
       -0.06672937 -0.005765126 0.08375853 0.008583076
000100 e2 ca 9d 3d 12 7a 8c 3d 47 b5 18 be d8 c3 90 3d
       0.077047125 0.068592206 -0.14912902 0.07068604
000110 9b 68 60 bc 83 68 26 be 55 02 2a bc 8a 4f 60 bd
       -0.013696815 -0.16250806 -0.010376533 -0.054763354
000120 5d c2 8d bd 0e f9 53 be 65 53 3e 3e 5b 66 ad bd
       -0.069218375 -0.20700476 0.185865 -0.084667884
000130 6f c9 a5 bb 6f c6 37 3e b7 63 33 3b 8a 3d 13 be
       -0.005059413 0.1794679 0.0027372667 -0.14378944
000140 49 6b 5b be 42 ae 57 3d 08 55 70 bd fe ae cf bb
       -0.21427645 0.05265642 -0.058674842 -0.0063379994
000150 04 c3 da 3d 21 b6 81 bd a3 8a 38 3e 25 b7 6b bd
       0.106817275 -0.063335665 0.18021636 -0.057547707
000160 b9 bd 71 bd de 9e dc bd bf 1d c5 3d 8d ae 29 bd
       -0.059018824 -0.10772489 0.09624814 -0.04142623
000170 9f 78 a9 3d 2e 82 4b 3c 25 64 5b 3e 54 c1 10 bd
       0.0827496 0.012421174 0.21424921 -0.035340622
000180 ce f7 36 bc 4e 4d c5 3c 2e c0 59 bd 5c 7e 02 3e
       -0.01116748 0.024084713 -0.053161792 0.12743515
000190 3a 8c bf 3c d8 06 1a 3e 95 a1 2f 3e 26 39 0a 3e
       0.023382295 0.15041673 0.17151482 0.13498363
0001a0 88 1a 9d bc a3 c7 1f 3e 60 fb ed bc d9 55 e5 bd
       -0.01917769 0.15603499 -0.029050529 -0.11198015
0001b0 51 61 00 3d f3 23 a5 bd f6 44 cf bd bc 34 00 3e
       0.03134281 -0.080634974 -0.10120575 0.12520117
0001c0 a7 90 48 3e 24 58 6b 3a e5 02 12 3d 2b 3f a7 bd
       0.1958643 0.00089776726 0.03564729 -0.08166345
0001d0 71 8d 9a 3d 15 8b e9 3d 13 c2 55 3d 59 8d 6b 3e
       0.07546509 0.11403481 0.052187037 0.23003139

recurs2.weight_ih f4 [120, 30]
000000 88 00 ed bd 04 25 ab 3c 97 ca 98 bd ac 00 4d 3e
       -0.11572367 0.020891674 -0.07460516 0.20019788
000010 9d f0 db 3d e1 3f 65 3e 9c 6a 01 3e 8e 38 0d 3d
       0.10739253 0.22387649 0.12638324 0.034477763
000020 31 d3 36 be a6 62 e2 bd 1d fc c2 3d 0c ac 00 be
       -0.17854 -0.11053972 0.09520743 -0.1256563
000030 b9 76 f3 3d 63 76 37 3d 65 a1 6f 3d 9a 89 42 be
       0.11887879 0.044790637 0.058503527 -0.18997803
000040 24 98 26 3e 9f f9 4d bd f2 8c ea bd 34 e2 08 3d
       0.16268975 -0.050286885 -0.114526644 0.03341885
000050 3c 0a e8 bc b1 f9 f8 bd a9 8b 35 3d dc fc f0 bd
       -0.028325193 -0.12157 0.044322643 -0.11766979
000060 9b c8 5d 3e 72 f3 eb 3d 69 0c 14 3e c4 e7 03 3e
       0.21658556 0.11521043 0.14457859 0.1288138
000070 4c b0 60 be 05 66 0e be e2 60 39 be 07 8b 1d be
       -0.21942252 -0.13906105 -0.18103364 -0.15385066
000080 c5 09 f0 bd a5 69 33 3e 1d 5b 25 3e d8 60 c3 3d
       -0.117206134 0.17520769 0.16148038 0.09539956
000090 90 86 9c bc 2c 9a 3b 3e da d6 45 3c b1 62 e9 bd
       -0.019107133 0.1832053 0.01207515 -0.11395777
0000a0 f0 d5 17 3d ce 30 69 3d b1 8f 6b bd fc f0 11 3e
       0.03706926 0.05693131 -0.05751008 0.14252084
0000b0 3e b4 20 3c 02 42 f0 3d 7c 69 80 be 07 34 b9 3d
       0.009808598 0.1173134 -0.25080478 0.090431266
0000c0 ce 5a 62 bd d9 c6 ed bd 5d fc ed bd f9 0f 86 3d
       -0.05526238 -0.11610193 -0.116204 0.06546015
0000d0 1c a5 7d bc 58 b2 2c be 90 02 2c 3e 13 09 82 3d
       -0.01548126 -0.16864908 0.16797853 0.06349387
0000e0 c7 68 1c be 9c 7e ff bc ff 96 e0 3d ae 64 9a 3d
       -0.15274344 -0.031188302 0.109663 0.075387344
0000f0 be aa 39 3d 23 ff 89 bd 1e 63 f8 3d 1a ea b5 bd
       0.045328848 -0.067381166 0.1212828 -0.08882542
000100 39 05 90 bc 6b c0 0b 3e ff c9 60 bd f6 f7 04 3e
       -0.017580615 0.1364762 -0.05488014 0.12985215
000110 39 e2 4c 3e af b1 6c be 47 82 0d be ae 57 c3 3d
       0.20008172 -0.23114656 -0.13819228 0.09538208
000120 48 d1 93 3d 5b a0 32 39 9a c1 75 3d eb 42 12 3e
       0.072176516 0.0001703514 0.059999086 0.1428334
000130 8e 01 13 be 98 4f c0 3d a3 5c 1f 3e 4b 1b cc bc
       -0.14356062 0.09390181 0.15562682 -0.024915358
000140 03 ab 52 be c8 a9 02 3e 60 99 70 bc b1 ee c9 bd
       -0.20573048 0.12760079 -0.014685005 -0.0985998
000150 75 af 07 3e ee 64 0c 3d be 8c ae bd 01 69 1a be
       0.13250525 0.03427594 -0.08522938 -0.15079118
000160 ea cb 0c 3d f7 88 ab 3c 9e 0e 00 3c 51 2d 08 be
       0.034374155 0.020939333 0.007815985 -0.13298537
000170 6f 4a 4d 3e dc 40 35 3e b6 41 6e 3d 37 b4 d2 3d
       0.20047925 0.17700523 0.058168136 0.102882795
000180 6d cf 39 3d e8 12 0b 3e 55 37 c9 3c bc e4 17 bd
       0.045363832 0.13581431 0.024562517 -0.037083372
000190 20 af f0 bd ee bb fa 3c 82 0a c6 bd 91 9b a8 bc
       -0.117521524 0.03060719 -0.09669973 -0.020581992
0001a0 10 e2 b0 bd de 36 14 bd c2 4c 66 3d 8a 14 90 bd
       -0.08636868 -0.036185138 0.056225546 -0.070351675
0001b0 d6 3c e2 3d 30 50 2d be f2 eb b7 3d a9 80 a4 3d
       0.1104676 -0.1692512 0.0898055 0.080323525
0001c0 3d 31 17 bd de ed 49 3d 40 4d a6 bd ef 82 39 be
       -0.03691219 0.049299113 -0.08120203 -0.18116353
0001d0 1d 2e 0b bd bc e0 57 bc 40 ce 18 3d 4f d9 07 be
       -0.033979524 -0.013176139 0.03730607 -0.1326649
0001e0 d5 34 61 3e 91 b4 4a 3d e1 f7 67 bd 2f e6 62 3d
       0.2199281 0.049488608 -0.05663288 0.0553953
0001f0 fe 83 07 be 01 53 c3 3d 1b 4b 9b 3c d7 73 c0 bd
       -0.13233945 0.09537316 0.018956712 -0.09397095
000200 d1 fd e5 bc ec aa c9 3d 2e 1a 83 bd ac 1c c5 3a
       -0.02807513 0.09847054 -0.06401478 0.0015038452
000210 83 d0 2c bc da 64 2c be 8f 07 32 3d 91 7f 5b bc
       -0.01054776 -0.16835347 0.04346424 -0.013397113
000220 d3 54 04 be b9 16 44 3c c6 bc 09 3e 99 f4 17 3d
       -0.12922983 0.011968308 0.13450918 0.0370985
000230 25 ca 1e be 2c 3f f1 3d 6b 45 ed bd 18 be e9 bd
       -0.155068 0.11779627 -0.11585506 -0.11413211
000240 fc 1a 08 3e 78 61 ca 3d db 01 6b 3e 93 bb 3e 3e
       0.13291544 0.09881872 0.22949927 0.18626241
000250 cc 45 17 be 3b 63 ab bb e0 61 71 bd d8 9d 89 3b
       -0.14772719 -0.005230335 -0.05893123 0.0041997246
000260 9e 6e 5c 3e d4 6f 2b 3e de a0 25 be b5 a7 2d bc
       0.21526572 0.16741878 -0.16174647 -0.0105990665
000270 24 b1 13 be c0 72 98 3d ee 41 56 bd 39 1f 45 be
       -0.14423043 0.07443762 -0.05230897 -0.19250192
000280 4b fa 7d bd 30 77 30 3d 17 85 ad 3d 18 5d c1 3d
       -0.062006276 0.043082416 0.084726505 0.09441584
000290 0c ce 8f 3d 47 22 b9 3d 79 f9 b4 bd 96 9b 40 3d
       0.07021722 0.09039741 -0.08836646 0.04702338
0002a0 54 b9 30 bd f0 67 cd 3d b4 15 11 bb e7 a8 bf bd
       -0.043145493 0.1002959 -0.002213818 -0.093583874
0002b0 3d 83 fa bd f1 54 69 be 90 44 2c 3c 47 cd 46 bd
       -0.12232063 -0.22786309 0.010514393 -0.04853561
0002c0 09 b6 7f 3e 19 a9 2f bd 85 69 a3 3d 8b c6 d7 3d
       0.24971785 -0.042885873 0.07979111 0.10535916
0002d0 ec ea df bd 13 5d c3 bd 5c af 84 3d 02 be e5 3d
       -0.1093348 -0.09539237 0.0647876 0.11217882
0002e0 09 ea 16 be 19 e8 9c 3d ec f0 72 be c9 df 30 bd
       -0.14737715 0.076614566 -0.23724717 -0.04318217
0002f0 a3 a7 ff 39 ed 00 3a 3d 7a 70 08 3d 76 8e 09 3e
       0.0004876229 0.04541104 0.03331039 0.13433251
000300 51 61 8a bd 52 1f df 3d f0 f6 12 be c4 5e 22 be
       -0.06756843 0.10894646 -0.14352012 -0.15856463
000310 1d 4a ca bd 2d a2 60 be 1c ed b9 3d 0f b2 c2 bd
       -0.09877417 -0.21936865 0.09078428 -0.09506618
000320 45 95 35 be 89 d4 ba bc 57 ba 23 be 23 15 4f 3d
       -0.17732723 -0.022806423 -0.15989052 0.050557267
000330 f0 ff ed 3d 43 70 ae bd d2 3c 11 3e 0a ce bc 3d
       0.11621082 -0.08517506 0.14183357 0.09218986
000340 8c f6 4f be f9 0f cf bc bf 9b 13 3e fc 3e bd 3a
       -0.20308894 -0.025276171 0.14414881 0.0014438326
000350 67 dc 46 3d 42 ca 86 3d f7 07 fc bc b2 39 b3 3d
       0.048550036 0.06581546 -0.030765517 0.08751239
000360 ab b1 5d be 37 fe cf 3d 13 49 39 3d 7a e9 00 3d
       -0.21649806 0.101559095 0.045235705 0.03147266
000370 50 a8 a6 3d 3b a2 dd bd 29 30 3c bd 08 3b 1e bd
       0.08137572 -0.10821959 -0.045944367 -0.038630515
000380 af 85 72 3d 35 17 04 be 25 29 38 3d 9a 60 b1 bd
       0.05920952 -0.12899478 0.044961113 -0.086610034
000390 d9 a6 c9 3d 78 59 59 be 02 8c ba bc 63 93 a5 3d
       0.09846277 -0.21225536 -0.022771839 0.080847524
0003a0 49 27 12 be 68 b7 a3 39 ae 90 01 3e 88 aa 07 3d
       -0.14272799 0.0003122643 0.12652847 0.033121616
0003b0 72 b5 98 3d 21 77 da 3d b8 02 2c be fa 9c e3 3d
       0.07456483 0.10667253 -0.16797912 0.11113925
0003c0 fe a3 bd 3c bc 92 20 3e 8d 7d 80 3d 79 26 0f 3c
       0.023149487 0.15680975 0.06273947 0.0087372
0003d0 7e 03 0c 3d a5 1b 58 3e 1f 8e 10 3e 32 78 3c be
       0.034183018 0.21104296 0.14116715 -0.18405226
0003e0 e2 a5 84 bc d1 36 e9 bd 6e 08 18 3e 32 62 2c 3e
       -0.01619238 -0.113874085 0.14846966 0.16834334
0003f0 c5 25 0d be 33 e7 08 bd bb 28 03 3e 60 9b b0 3d
       -0.13783939 -0.033423614 0.12808506 0.086233854

recurs2.weight_hh f4 [120, 30]
000000 6b e1 b1 3c 79 68 03 3d 8e fd 18 3e 02 a9 4e be
       0.021713933 0.032082055 0.14940473 -0.20181659
000010 bd d3 f1 3d 97 b7 17 be 0a 79 3f 3e 2f 75 22 be
       0.11807964 -0.14816128 0.18698516 -0.15865014
000020 91 cf 59 bd f2 1d 74 3d 8a 39 a9 3c 25 27 b4 3d
       -0.053176466 0.05959887 0.02065732 0.08796529
000030 b4 a4 33 bb 31 71 85 3d c0 03 b1 bd 5a 9b 08 bd
       -0.0027411403 0.0651573 -0.086432934 -0.03335128
000040 96 59 e8 3c 14 bb 20 3e 56 5f 2b be 74 d8 94 bd
       0.02836303 0.15696365 -0.16735587 -0.07267848
000050 80 09 ad bd 71 b3 54 bd 1d bc fb bd ec e9 2b bd
       -0.084490776 -0.05192894 -0.12291739 -0.041971132
000060 92 fc bd 3d 84 56 5a bd 23 65 c6 3c 7a 23 04 bd
       0.092766896 -0.053305164 0.024218148 -0.032260396
000070 7a 13 54 be f2 60 76 3d 4f 01 fd bb da 38 ce bd
       -0.20710555 0.060151048 -0.0077211033 -0.10069437
000080 08 85 18 be 4f 45 d5 3d f5 72 5c bd f6 62 c2 3d
       -0.14894497 0.1041361 -0.05382057 0.094915316
000090 ab aa 2b bc 59 42 64 bd ff 5b b8 bd 44 1d d8 3d
       -0.010477702 -0.055727337 -0.09001922 0.10552457
0000a0 04 e6 4a be 99 55 c2 bd 12 e3 a9 bd 1d fb 41 bd
       -0.19814306 -0.09488983 -0.08295263 -0.04735862
0000b0 75 ed f4 3d 49 82 5a 3e c2 bf 4a 3e ef 8c df bd
       0.11959354 0.21338762 0.19799712 -0.10915553
0000c0 49 dd c2 bd 7e 54 2f 3d 85 d1 09 3e ba a4 f1 bd
       -0.09514863 0.042805187 0.13458832 -0.11798997
0000d0 e9 95 88 bd ff 05 e5 bd 82 fa 88 bd fc f2 a6 bd
       -0.06669218 -0.11182784 -0.066884056 -0.08151814
0000e0 79 4e 31 be 63 b5 ff bc 07 35 11 3c 0c 10 35 3d
       -0.17315091 -0.031214422 0.00886274 0.044204757
0000f0 0a bf c5 bd b7 e9 80 bd dc 3a 42 3e fc 0a dd 3a
       -0.096555784 -0.062945776 0.18967766 0.0016864236
000100 e5 ca e0 3d 2d 59 88 bd 13 5d 27 bd bd de 5f 3d
       0.10976199 -0.06657634 -0.040860247 0.05465578
000110 9e 39 5e 3b d1 c8 55 be 8b c2 d9 3d 6a 1b bf bd
       0.0033908854 -0.20877387 0.10632809 -0.09331401
000120 4a 67 1c bd de 2e e9 3a 2c b8 29 3e ac a2 b8 3d
       -0.03818444 0.0017790457 0.16574162 0.09015402
000130 9d 05 0a 3e 51 f9 5a bd 99 b7 1b 3e b4 6a 39 3d
       0.13478704 -0.053460423 0.15206756 0.045267776
000140 99 46 fc 3d 0b bd 17 bb 86 d1 11 be 5e 62 c5 3d
       0.12318153 -0.002315345 -0.14240083 0.09637903
000150 e4 1f 53 be 0c 56 56 be 18 dd c8 bc 8d 23 ba bc
       -0.20617634 -0.20931262 -0.024519488 -0.02272203
000160 ef b6 af bd 50 0c 2f 3e 96 a2 2d bd a4 c2 8b bc
       -0.08579814 0.1709454 -0.042391382 -0.017060585
000170 eb a2 3d 3e 07 d1 c4 3d 13 d6 c8 bd 78 ba 22 3b
       0.1851918 0.09610181 -0.098064564 0.0024830382
000180 81 8d ab bd 2e 43 22 be 27 3a f9 bc d5 79 b4 bc
       -0.08376599 -0.1584594 -0.030423237 -0.02203075
000190 07 97 15 be 25 5e aa bd 40 ff 5e be 0e 98 55 bd
       -0.14608394 -0.08318738 -0.21777058 -0.052146964
0001a0 02 60 77 3d 82 72 0d 3d a6 90 14 3e 57 0f 18 3e
       0.060394295 0.03453303 0.14508304 0.14849602
0001b0 61 6d c0 3d 71 89 48 ba 85 a0 60 bd 38 4e f1 3c
       0.09395862 -0.0007649875 -0.054840583 0.029456243
0001c0 aa c4 45 be 3a 48 ad bd b9 1b 91 3d 2f 7a 2f bd
       -0.19313303 -0.08461042 0.07085366 -0.042841133
0001d0 c8 d1 bf 3c a7 f6 44 3e 8e 11 f5 3d 17 6e 20 3d
       0.023415461 0.19234715 0.11966239 0.03916749
0001e0 24 47 06 3e 0c d8 13 3e 0a e4 c0 bd 16 c2 13 3c
       0.13113075 0.14437884 -0.09418495 0.009018442
0001f0 25 6f 00 3e 24 69 13 3d 67 16 56 3e f8 af 19 be
       0.12542398 0.03598894 0.20906983 -0.15008533
000200 82 da 9f bb ac 38 29 3e 82 75 2d be 8a 8a 89 bd
       -0.004878343 0.16525525 -0.16939357 -0.06715877
000210 26 7c cb 3d e2 ae 03 3e 65 29 49 3e 41 98 61 bd
       0.09935789 0.12859681 0.19644697 -0.05507684
000220 db 46 bb 3d 42 88 01 be 19 53 10 be 81 12 ae 3c
       0.09144374 -0.12649634 -0.14094199 0.021249058
000230 bb ff a0 bd e0 6f 44 3d 1a 12 cd bd 9d 4f 1a 3e
       -0.07861277 0.047958255 -0.10013218 0.15069433
000240 da 1a d2 bc 3d cf e6 3c 30 6a 07 3c 01 43 49 3e
       -0.02564757 0.02817499 0.008265063 0.19654466
000250 6d 9e fa bc db 8f 1c 3e 8c 67 41 be 39 69 94 bd
       -0.030593121 0.15289252 -0.18887156 -0.07246632
000260 52 f4 1c 3e 6e 4c 0c 3e cc 1e 29 bd 58 74 29 3e
       0.15327576 0.1370103 -0.041289136 0.16548288
000270 10 1a 03 3e 70 0e 26 be 0e 9a b0 3c ad 1e f9 3d
       0.12802911 -0.16216445 0.021557834 0.12164054
000280 9c 0d ee bd 4c 28 0f 3e 76 6a e0 bd 00 39 e3 bd
       -0.116236895 0.13980216 -0.10957806 -0.11094856
000290 a8 f8 9f bd 83 48 3f bd 9d 42 4c 3e 84 7c e9 3d
       -0.07811099 -0.046700012 0.19947286 0.114007026
0002a0 68 92 bb 3d bd 92 81 3d cf 99 88 3d f4 74 4a bd
       0.09158784 0.06326816 0.06669962 -0.04942794
0002b0 63 c2 54 be 57 a1 02 be ec 53 c2 bd f6 04 cb 3d
       -0.20777278 -0.12756859 -0.09488663 0.099130556
0002c0 7c ac c1 bd 92 10 d8 3c aa 44 39 3d 2e f7 5e 3e
       -0.09456727 0.026375089 0.0452315 0.21773979
0002d0 b8 d5 18 bd b5 ff b5 3d 86 55 07 be 3b 19 62 be
       -0.037313193 0.08886663 -0.13216218 -0.22079937
0002e0 4a f6 40 ba a4 39 15 3d 49 91 03 3e 3f f7 43 3d
       -0.00073609187 0.036431924 0.1284839 0.047843214
0002f0 d5 c9 fc 3d 46 d7 bf bd 04 0e 93 3c 8b 21 47 3e
       0.12343184 -0.09367232 0.01795102 0.1944639
000300 2d 99 b9 bd ff 71 11 3e 1b 05 11 be 34 55 9b 3d
       -0.09062419 0.14203642 -0.14162104 0.075846106
000310 e5 94 51 3d 4b 75 36 3e c6 f5 1f bd da 94 6a 3c
       0.051167388 0.17818181 -0.039052747 0.014317716
000320 98 c6 bd bd e3 c9 49 3e 8b 4d d6 bc 43 f0 77 bd
       -0.092663944 0.1970592 -0.026160022 -0.060531866
000330 36 e9 65 3d 17 b1 9b 3d 81 80 89 bd f9 f0 06 be
       0.05613061 0.076021366 -0.06713963 -0.13177861
000340 8d 1a bc bd 50 65 93 3d 1e ec f9 ba f7 f8 a0 bc
       -0.09184752 0.07197058 -0.0019067561 -0.019649966
000350 5b 25 5d 3d 76 b4 24 bd 98 de 2e 3e f2 6a 0c be
       0.053990703 -0.040211163 0.170771 -0.13712671
000360 be 92 48 3e 77 22 85 bc e3 bf e5 3d 70 b2 9c 3d
       0.19587228 -0.016251786 0.1121824 0.07651222
000370 61 b3 35 be d9 b6 24 3e 49 36 9c bd 28 aa d7 bd
       -0.17744209 0.16085376 -0.076275416 -0.105305016
000380 d4 51 f1 3d 0a 06 c8 3b 58 db f5 bd b2 81 8e bd
       0.117831856 0.0061042355 -0.12004727 -0.06958331
000390 89 20 0e 3e 52 6b 35 be 7a c1 87 3d be 05 3c 3d
       0.13879599 -0.1771672 0.066286996 0.045903914
0003a0 50 a7 28 be 57 70 81 3d ca f6 07 be 7e 38 df bc
       -0.16470075 0.06320255 -0.13277736 -0.027248617
0003b0 5c c4 4f bd 5c 28 e5 3d ce 82 98 bd e8 85 04 be
       -0.050724372 0.111893386 -0.07446824 -0.12941706
0003c0 7f 54 da bc 0c 37 2d 3e c8 0d a7 bd 29 b8 00 3e
       -0.026651619 0.1691553 -0.081569254 0.12570252
0003d0 2a 98 fc 3d c3 c0 4e bd c4 05 1b 3c 34 4a 0f 3e
       0.123337105 -0.0504768 0.009461824 0.1399315
0003e0 61 d1 a0 bb 82 96 03 3d b4 c5 8b bc 28 78 22 3d
       -0.0049077724 0.032125957 -0.017062046 0.03966537
0003f0 39 b1 28 be 5a 71 c6 bd 38 70 4b 3e 6a 2d aa 3d
       -0.16473855 -0.09689589 0.19867027 0.08309443

recurs2.bias_ih f4 [120]
000000 1a 02 50 3e 90 3a 3c 3e bf df a7 bd 23 13 65 3d
       0.20313302 0.18381715 -0.08196973 0.055926453
000010 32 53 95 bd 2d d7 87 bc 5b 5e 63 3c 45 15 52 3e
       -0.07291259 -0.016582096 0.013877477 0.20515926
000020 73 1b c0 3c be 7e 12 3e 7e 1c 19 be a5 09 09 3d
       0.023450589 0.14306161 -0.14952275 0.033456463
000030 0e 83 99 3d 9c d0 3b bd 5b 06 1c 3d 87 5d 97 3d
       0.074957 -0.045853242 0.038092 0.07390886
000040 c3 15 4d 3e 2b 32 ec 3c 3e a9 49 3c 26 91 26 3e
       0.20027833 0.028832516 0.012308417 0.16266307
000050 7c 49 02 bd 87 4f 12 3e 3c aa 4c 3e 02 df 8f bd
       -0.03180836 0.1428815 0.19986814 -0.07024957
000060 40 1f c6 3d 1e 31 11 bc 29 0f 47 3e b3 e9 5c 3c
       0.09673929 -0.008861808 0.19439377 0.013483453
000070 65 8b 29 3d 51 2e 1a 3e 7a 29 8a 3d b2 78 22 3e
       0.041392703 0.15056731 0.06746192 0.15866354
000080 72 e6 0b bd 45 0b a8 bd d5 18 94 3d f1 7a 66 3e
       -0.034155317 -0.082052745 0.07231299 0.22507836
000090 60 75 28 3e ee 3b 29 bd 92 7a 41 3e 2c 4b 16 be
       0.16451025 -0.04131692 0.18894413 -0.14677113
0000a0 22 72 48 3e 31 d7 63 3d b8 1e 48 bd 3b 7c 96 3d
       0.19574788 0.055625144 -0.04885742 0.07347914
0000b0 4e 3c 38 3e 21 c8 3c 3e a4 50 bc bc 69 f4 bb 3d
       0.17991754 0.18435718 -0.022987671 0.09177477
0000c0 11 8e d8 3d bf bb 38 3c 4d a6 51 3d 63 22 46 3e
       0.10573972 0.011275231 0.051183987 0.19349055
0000d0 b5 11 c7 bb 15 05 2f 3e 4e 58 ab bd 10 e7 1a bd
       -0.006075109 0.17091782 -0.08366452 -0.037818015
0000e0 82 bf b8 3d d5 ef 25 bd 53 0f 7d bd 1b af d8 ba
       0.09020902 -0.040511925 -0.061782192 -0.0016531678
0000f0 a1 82 89 bd be cd c4 3d e7 90 cf 3d 2e 16 da bd
       -0.067143686 0.09609555 0.1013506 -0.10648762
000100 f9 56 b0 3d 24 b1 fd 3d 45 08 e3 3d 99 c4 cb bd
       0.08610339 0.123873025 0.11085562 -0.099496074
000110 c9 69 fe bd aa b2 c5 bc f8 48 25 3d aa ab 80 3d
       -0.12422521 -0.024133045 0.04035279 0.06282742
000120 2a 36 27 be 1d b1 04 3e a2 f4 4f 3e 5e 94 ed 3a
       -0.16329256 0.12958188 0.20308164 0.0018125882
000130 57 8f 3e 3d a3 4c 7b 3c 9f 2f eb bd b0 74 41 be
       0.04652342 0.015338096 -0.114836924 -0.18892169
000140 c3 c7 0c 3e ee 75 29 3e dc ef 51 3c be a0 1c be
       0.13748078 0.16548893 0.012813535 -0.15295693
000150 20 09 13 bc dc f1 f3 bd e4 b9 50 3d df 9c 21 3e
       -0.008974344 -0.119113654 0.05095853 0.15782498
000160 0c 51 4d 3e 77 08 2d 3e 48 16 ac 3d fa a8 61 3e
       0.20050448 0.1689776 0.08402687 0.22037116
000170 3a cf fa 3b de 60 9a 3d b6 f4 a0 bd 28 e0 1f 3e
       0.007654098 0.07538007 -0.07859175 0.15612853
000180 67 c3 d2 3d fd a6 eb 3d 40 b0 29 3e 8c da 01 3e
       0.10291176 0.1150646 0.1657114 0.12681025
000190 06 d1 10 be b4 e6 a7 3c 3c 6e bf bd 5d c1 38 3e
       -0.14142236 0.02049575 -0.093471974 0.18042512
0001a0 7b b1 eb 3c 93 81 b0 bd a7 dc 1c 3e f8 f2 73 bd
       0.028771153 -0.08618464 0.15318547 -0.059557885
0001b0 eb 47 13 3d 45 bd 1f 3e ce 86 0a 3e 7f 9a 0c 3e
       0.03595726 0.15599544 0.13527986 0.1373081
0001c0 55 cf 32 3d e5 dc 51 3c c9 e7 8b 3d e1 92 15 be
       0.04365476 0.012809013 0.06831319 -0.14606811
0001d0 44 9d 46 bc ae 4a 33 3e 52 cd 2e 3e 11 90 08 be
       -0.012122456 0.17508957 0.17070511 -0.13336207

recurs2.bias_hh f4 [120]
000000 02 f8 b4 3d f3 c9 54 3e df 3a d9 bd af 38 82 3d
       0.08836366 0.20780163 -0.10606932 0.06358468
000010 bd 98 4b bd b9 69 9b 3d 1a d8 3e bd a4 b0 4d 3e
       -0.04970621 0.07588524 -0.04659281 0.20086914
000020 c4 5a 02 3e 51 7f 92 bd 4a ff 01 be 31 85 d7 bc
       0.12729937 -0.0715319 -0.12695041 -0.026308628
000030 14 e4 f3 3c 03 88 b3 3d 01 70 29 bd f3 9d 16 bd
       0.029771842 0.087661766 -0.04136658 -0.036771726
000040 d3 ad 4d 3d 68 bb be bd de 97 a7 3d 1f 55 d8 bd
       0.0502146 -0.09313089 0.08183263 -0.105631106
000050 98 d8 6d 3b a7 9b 03 be c7 58 d3 bc 83 9d 1f 3d
       0.003629243 -0.12852345 -0.025799168 0.038968574
000060 c7 06 6a bc 80 dc a8 bd 83 e8 93 3d 67 67 65 bd
       -0.014283842 -0.08245182 0.072220825 -0.056006815
000070 dc 42 b0 3d 51 43 91 3d 21 29 a2 3c d5 95 f9 bd
       0.086065024 0.07092918 0.019795002 -0.12186781
000080 00 f5 8d bc 1c 39 71 3d 73 eb c4 3d 96 b7 98 bd
       -0.01732874 0.058892354 0.09615221 -0.07456891
000090 27 4f 1d 3e 02 d7 a7 3d 3d 18 45 3d a5 bc b9 bc
       0.15362225 0.08195306 0.04811882 -0.02267296
0000a0 48 1e a9 bb f6 b2 07 3e f0 ee 2f 3e 91 05 72 bb
       -0.0051610805 0.13251862 0.17180991 -0.0036929587
0000b0 75 cd de 3d b3 3c 33 3e 5e 8b 15 3e 5b 47 41 3d
       0.108790316 0.17503624 0.14603946 0.04718719
0000c0 67 43 c9 3d 9a 6c 95 3d 2f 41 15 3e 6c 4d 06 bd
       0.09827309 0.07296105 0.14575647 -0.03278868
0000d0 4d dc 8a 3d 8b 13 73 3d 76 d4 d0 bd 4f a5 9c 3d
       0.067803 0.05934481 -0.10196774 0.076487176
0000e0 f1 b3 a0 bd 84 e3 fa 3d 62 ab 1e 3d f1 ef 9d 3d
       -0.07846821 0.122504264 0.038737662 0.07711781
0000f0 06 a1 fb bd 21 2c d6 3d c9 72 06 3e 4a 78 b3 3d
       -0.12286572 0.10457636 0.13129725 0.08763178
000100 5e c1 20 3d 3c 66 b9 bd 52 d5 20 3e 7b 2b 8b 3d
       0.03924691 -0.09052703 0.15706375 0.067954026
000110 90 19 1b be 1c 8d b0 bc fe 4d 92 bc bf cf 2c 3d
       -0.1514647 -0.021551661 -0.017859455 0.04219031
000120 be 78 33 3c 6e fd fa 3d 88 e1 e6 3b d3 d7 63 bc
       0.01095408 0.12255369 0.0070459284 -0.013906437
000130 09 b0 1c 3c 0a 60 c0 3d 81 f0 0e be 24 79 02 3e
       0.009563454 0.09393318 -0.13958932 0.12741524
000140 1e 97 38 bd 92 27 f1 3d fe b3 d7 bd 8c 74 75 bd
       -0.04506599 0.117751256 -0.10532378 -0.0599256
000150 2a ed 1f bc f2 78 aa bc 1e d2 02 be 8f f6 31 be
       -0.009761134 -0.020809624 -0.12775466 -0.17379211
000160 c2 ef 08 be 6f 20 43 3e 75 1c 08 3e d2 d1 93 bc
       -0.1337271 0.19055341 0.13292105 -0.018044386
000170 68 02 1f 3e f3 5a 68 3d b5 9d 15 3d d5 99 fb bc
       0.15528262 0.05672736 0.036527354 -0.030713001
000180 89 3d a5 bd 6f 64 27 3e cf ec 5d 3e 91 14 59 be
       -0.080683775 0.16346906 0.21672367 -0.21199252
000190 5a 71 5c 3d 09 cc e7 3d f9 70 41 bd 96 d9 20 bd
       0.053819038 0.113182135 -0.04722688 -0.039270006
0001a0 2a dc cf bd a2 d9 00 3e 6a 35 80 3e b4 ec ef 3d
       -0.10149415 0.1258302 0.25040752 0.117150694
0001b0 06 39 20 3c ed 35 d0 3d 18 f9 ad bd 43 ba 8f bd
       0.00977922 0.101665355 -0.084947765 -0.070179485
0001c0 ae 74 d5 3d 29 41 41 3e b2 19 92 3d 99 6d a2 bc
       0.104226455 0.18872513 0.07133807 -0.01982765
0001d0 2b e0 8f 3d 72 80 15 be a8 39 40 3e 0b 85 9f bd
       0.070251785 -0.14599779 0.18771994 -0.07789048

output.weight f4 [2, 30]
000000 a6 62 c1 bd bc 78 e0 bd d5 38 bd 3d 6f fe a7 bd
       -0.09442644 -0.10960528 0.092393555 -0.08202826
000010 3f ba 3d 3d 86 16 e9 bd 7f 92 03 3e da ae 27 be
       0.046320196 -0.11381249 0.12848853 -0.16375294
000020 9f 6d 39 be e6 f4 46 be 7c ea ca 3d 6a 0c c0 3d
       -0.18108223 -0.19429359 0.099080056 0.09377368
000030 dc 56 23 be e1 98 5d bc f5 ee 3f 3e 40 a3 68 3d
       -0.15951103 -0.013525219 0.18743499 0.056796312
000040 58 17 2b 3e 20 ce 81 bc 4f 40 53 bd 64 36 ec 3d
       0.16708124 -0.015845358 -0.051575 0.11533812
000050 be c1 42 3d 53 c6 d0 bd 13 3b 83 bd 3c 33 d2 3d
       0.04754805 -0.10194077 -0.06407752 0.102636784
000060 1a f1 a6 3d 7a 75 97 bd d8 e3 59 be 7e a9 1a 3e
       0.08151455 -0.07395454 -0.21278322 0.15103719
000070 6e dd 4f bd 8d 50 2f 3c 32 db 51 3e 4d 4b 13 3e
       -0.05074828 0.010700357 0.20493773 0.14384194
000080 59 65 d2 3d 08 48 15 3e 97 85 50 bd 6f e3 c6 3d
       0.10273237 0.14578259 -0.05090865 0.09711348
000090 04 c2 f8 bd b4 39 d8 3d db ea 00 3e 1d 3d 15 3d
       -0.121463805 0.10557881 0.1258959 0.036435235
0000a0 7b 4d 02 be ab 38 8d bd a7 8a 93 bd 0d 7c 15 be
       -0.12724869 -0.06895574 -0.0720418 -0.14598103
0000b0 53 97 a2 3d 1d 36 38 3e 1a 28 c2 3d e5 01 0d be
       0.07939019 0.17989393 0.09480305 -0.13770254
0000c0 d4 02 3d 3e b0 85 20 be 78 c3 e3 3d dc 07 18 3d
       0.1845811 -0.15675998 0.11121267 0.03711687
0000d0 f0 30 e6 3d 0c 17 d0 3d 16 08 7f be c4 2c 9f 3d
       0.11239803 0.10160646 -0.24905428 0.0777221
0000e0 62 58 7d bd d1 bc 39 be 51 36 46 3e 30 3f 60 3d
       -0.061851867 -0.18138434 0.19356658 0.05474776

output.bias f4 [2]
000000 58 03 a5 3b aa c0 81 3c
       0.005035799 0.01583894

switch.weight f4 [1, 30]
000000 28 e7 03 3e 5e ac 8b bd ac 4e cb bd 9f b7 68 bd
       0.12881148 -0.06819986 -0.09927115 -0.05681574
000010 96 bd 35 bd 5d fb 9d 3d 79 34 0b bd 0e ad ac 3d
       -0.044370256 0.07713959 -0.03398559 0.08431445
000020 39 93 14 be 4b 84 b9 3c 82 a9 10 3e 09 c6 9e bc
       -0.14509286 0.02264609 0.14127162 -0.01938154
000030 7b 27 16 3e 63 b2 69 3d 68 dc 32 be e1 00 d7 bd
       0.14663498 0.05705489 -0.17466891 -0.104982145
000040 d3 c1 14 3e 5b 1c fa bc dc 1b 32 3e 68 e2 35 be
       0.14527063 -0.030531099 0.1739344 -0.17762148
000050 ef 6b c8 bd b6 85 0e 3e 6b 1e 2c 3e 8e 31 2a be
       -0.09786212 0.13918194 0.16808479 -0.16620466
000060 62 70 72 3d 6e 05 38 be 0e 7e 07 be 1f 10 a8 3d
       0.059189208 -0.17970821 -0.1323168 0.082062
000070 b1 c9 b9 bd b9 a1 61 bc
       -0.09071673 -0.013771468
