checkpoints/VQE-H2-e66c32aa/model.pth (torch, 49793 bytes, 11 tensors)

recurs1.weight_ih f4 [120, 2]
0	0xbdf2150a	-0.11820419
1	0x3ea19050	0.31555414
2	0xbe833067	-0.25622866
3	0xbd50bc59	-0.050960872
4	0xbdf836f0	-0.121198535
5	0xbe0e45f7	-0.13893877
6	0xbdbd233f	-0.09235238
7	0x3da67a2b	0.081287704
8	0xbdc260fd	-0.09491155
9	0x3d7b0997	0.061288442
10	0xbe5040b7	-0.20337187
11	0x3e1f56b9	0.15560426
12	0xbe8fe045	-0.28100792
13	0xbd1af686	-0.03783276
14	0xbdd93333	-0.106054686
15	0x3dff0dc2	0.12453796
16	0xbd15c339	-0.036563132
17	0x3e840482	0.2578469
18	0xbe695292	-0.22785404
19	0xbe8abbbe	-0.2709636
20	0xbd19fcf1	-0.03759474
21	0x3e28175d	0.16415162
22	0xbd748077	-0.059692826
23	0x3e3f762b	0.18697421
24	0xbe48bd85	-0.19603546
25	0xbda5af54	-0.08090082
26	0x3d94de4e	0.07268964
27	0xbd034779	-0.032050584
28	0xbe3d69ad	-0.18497343
29	0x3df818d0	0.121141076
30	0xbdf8089c	-0.12111017
31	0x3cf77aed	0.030209983
32	0xbe2e5a88	-0.17026722
33	0xbe56cfae	-0.20977661
34	0xbe45f795	-0.19332726
35	0xbe73321b	-0.23749582
36	0xbe309b4d	-0.17246743
37	0x3e92a28d	0.2863964
38	0xbd1683d0	-0.0367468
39	0x3e598eb2	0.2124584
40	0xbd66f5ee	-0.05638688
41	0xbdafdbeb	-0.08586868
42	0x3b65b06f	0.003504779
43	0xbe3da69b	-0.18520586
44	0xbe221087	-0.15826617
45	0xbe9b0fa5	-0.30285373
46	0xbc9da6d3	-0.019244587
47	0xbde1c1a5	-0.11023263
48	0xbe0e7133	-0.1391037
49	0x3c9544ac	0.018221222
50	0x3c4357b9	0.01192277
51	0x3ebb4a78	0.36580253
52	0xbc3fc7a1	-0.01170531
53	0x3ddced05	0.107873954
54	0x3e00de94	0.12584907
55	0xbe376ab6	-0.179118
56	0x3ceaee1c	0.028677993
57	0xbdc9d657	-0.09855335
58	0xbe63dbc6	-0.22251806
59	0xbdf13f01	-0.11779595
60	0x3d2fa3ec	0.042880937
61	0x3e935b99	0.2878082
62	0xbe0737e6	-0.13204917
63	0x3e2754c6	0.16340932
64	0x3da7e4ac	0.081979126
65	0xbe46f909	-0.19430937
66	0xbd071efb	-0.03298853
67	0xbd62e9bf	-0.0553987
68	0x3e0b6a07	0.13614665
69	0x3e6ac589	0.22926916
70	0xbe6a4e04	-0.22881323
71	0x3e07169e	0.13192222
72	0x3d7abc68	0.061214834
73	0x3e41e679	0.18935575
74	0x3e4402a6	0.19141635
75	0x3e99e0d3	0.3005434
76	0x3d08c62a	0.03339211
77	0x3d5f9a68	0.054590613
78	0xbc9452b2	-0.018105838
79	0xbe87be3e	-0.2651233
80	0xbe3321fc	-0.17493433
81	0x3e47290c	0.19449252
82	0x3e25bb47	0.16184722
83	0xbe091921	-0.13388492
84	0xbd06b965	-0.03289165
85	0xbe2160a9	-0.15759529
86	0xbdd81952	-0.105517045
87	0x3d5a3948	0.053277284
88	0x3d0e5420	0.034748197
89	0x3d955c74	0.07293025
90	0x3dc6ce8b	0.09707364
91	0xbd4c13e6	-0.049823664
92	0x3e0c6deb	0.13713805
93	0xbd79b3e8	-0.060962588
94	0xbe12b98c	-0.14328593
95	0xbe4ebd1e	-0.2018933
96	0x3deb3515	0.11484734
97	0x3e43a72e	0.19106743
98	0xbe6854f6	-0.2268866
99	0x3d1e4555	0.03864034
100	0x3de73592	0.112895146
101	0x3dd0bf47	0.10192733
102	0xbd069e31	-0.032865707
103	0xbd158d6d	-0.036511827
104	0xbe2035bb	-0.15645497
105	0xbe49d36f	-0.19709562
106	0xbe31a306	-0.17347345
107	0xbeb134ad	-0.346105
108	0xbd841914	-0.06450096
109	0x3dc42761	0.095778234
110	0xbe062ce3	-0.1310306
111	0x3e9441fc	0.28956592
112	0xbe363ca1	-0.17796566
113	0x3e71dc74	0.23619252
114	0x3e3565f5	0.17714675
115	0xbe33a515	-0.17543443
116	0x3c9b237a	0.018937815
117	0x3d5986e4	0.053107157
118	0x3dc2cedb	0.09512111
119	0x3d06eb1a	0.032939054
120	0xbcc24ebc	-0.023719184
121	0x3e48d92e	0.19614097
122	0xbdc29fb0	-0.09503114
123	0x3e8cd296	0.27504414
124	0xbe57cd30	-0.21074367
125	0xbe902899	-0.28155974
126	0xbdf7e9ed	-0.12105165
127	0xbe349a41	-0.17636968
128	0xbd389cf2	-0.04507155
129	0xbebd03d0	-0.3691697
130	0xbe0c1c3c	-0.13682646
131	0x3e751481	0.23933603
132	0xbd4e6bf2	-0.050395913
133	0xbe5b05c9	-0.21388926
134	0x3e1d6a0a	0.15372482
135	0xbe6a0dab	-0.22856776
136	0x3d0788f2	0.033089586
137	0xbe81b115	-0.25330415
138	0x3ddcb00d	0.107757665
139	0x3e9d1328	0.30678678
140	0x3e08b165	0.1334892
141	0x3e99cea0	0.30040455
142	0x3e1984b7	0.14992033
143	0x3e4ab824	0.19796807
144	0xbe2d66f1	-0.169338
145	0xbe7ddd3c	-0.24791425
146	0x3e537da2	0.20653394
147	0xbdbd06da	-0.092298225
148	0xbe24c381	-0.16090204
149	0xbcae34a6	-0.02126534
150	0xbe2d21ab	-0.16907375
151	0xbeb0b7a9	-0.34515122
152	0xbbaf552b	-0.005350729
153	0x3e970ffd	0.29504386
154	0x3d9e5a2f	0.07732045
155	0xbeb8fc61	-0.3613005
156	0x3e01a589	0.12660803
157	0xbea3c1b7	-0.3198373
158	0x3d117b1b	0.035517793
159	0xbe6e5507	-0.23274623
160	0x3d1a59e6	0.03768339
161	0xbd04a130	-0.032380283
162	0xbe33992e	-0.17538902
163	0xbec5237d	-0.38503638
164	0xbda22f06	-0.07919125
165	0xbe585a5b	-0.21128218
166	0xbd746e2f	-0.05967539
167	0x3e9ca2c7	0.3059294
168	0xbe6999c9	-0.2281257
169	0x39bee989	0.0003641362
170	0x3e734237	0.23755728
171	0xbe8300a2	-0.2558642
172	0x3d88b09b	0.0667431
173	0x3e08c307	0.13355647
174	0xbdfa205d	-0.12213204
175	0x3ea473d9	0.32119635
176	0xbc5b37e2	-0.013380023
177	0xbe9d7ae5	-0.30757824
178	0x3e1a8eec	0.15093583
179	0xbec511c0	-0.38490105
180	0xbd955235	-0.0729107
181	0x3e53d292	0.20685795
182	0x3d2f67af	0.04282349
183	0x3e0b789f	0.13620232
184	0x3d28acc2	0.04118038
185	0xbe110c3b	-0.14164822
186	0xbdc0aad9	-0.094075866
187	0xbe2c2cd7	-0.1681398
188	0xbe6148b0	-0.22000384
189	0x3e07ead9	0.13273181
190	0x3d8006f7	0.062513284
191	0x3eb64bda	0.35604745
192	0xbe6a4eb6	-0.22881588
193	0x3dd99713	0.10624518
194	0xbe1f94d3	-0.15584116
195	0x3d7aa232	0.061189838
196	0xbe40d9a5	-0.18833025
197	0x3e90b7f9	0.2826536
198	0xbe31f3dd	-0.17378183
199	0xbe4b8093	-0.19873266
200	0xbd8a3b71	-0.06749619
201	0x3e1ced68	0.15324938
202	0xbe255015	-0.1614383
203	0xbd1c23db	-0.038120132
204	0xbe80a34b	-0.25124583
205	0xbc7b588f	-0.015340938
206	0xbdf94631	-0.12171591
207	0x3e9e5e69	0.30931404
208	0x3d0cddc5	0.034391183
209	0x3e5a39e1	0.21311142
210	0xbcfb9868	-0.030712321
211	0xbe542420	-0.20716906
212	0xbb8d9ba9	-0.0043215347
213	0xbe429d54	-0.19005328
214	0xbd778880	-0.06043291
215	0xbd909a98	-0.070607364
216	0xbe41e325	-0.18934305
217	0x3da00749	0.078138895
218	0x3d39f8fb	0.045403462
219	0x3c1b1e5a	0.009467686
220	0xbda5410d	-0.08069048
221	0x3e21020f	0.15723442
222	0x3d80ed73	0.0629529
223	0xb9d325b3	-0.00040273144
224	0xbe43f732	-0.19137266
225	0xbde291e7	-0.11062985
226	0xbe58de89	-0.2117864
227	0xbe8e915a	-0.2784527
228	0xbdf69695	-0.1204044
229	0x3d6221a2	0.055207856
230	0xbd8e56ce	-0.069501504
231	0x3eb4ee28	0.3533795
232	0xbd2d24f0	-0.042271554
233	0x3e942165	0.28931728
234	0x3dfb7155	0.12277476
235	0xbe53e5cc	-0.2069313
236	0x3dc1feed	0.09472451
237	0xbda62489	-0.08112437
238	0xbe1686bd	-0.14699836
239	0x3cab574a	0.020915646

recurs1.weight_hh f4 [120, 30]
0	0x3e151649	0.14559282
1	0x3e8a08c8	0.26959825
2	0xbcd453fc	-0.025918953
3	0x3d9ed659	0.07755727
4	0x3bd08462	0.0063634375
5	0xbd904011	-0.0704347
6	0x3d535ff7	0.05160519
7	0xbe6fb467	-0.23408662
8	0xbd8a963a	-0.06766935
9	0xbd1988c8	-0.03748396
10	0x3d2c4968	0.042062193
11	0x3d7045ea	0.058660425
12	0x3d0964f4	0.033543542
13	0xbe1ac6bf	-0.15114878
14	0xbcd7eff7	-0.026359541
15	0xbdde8242	-0.108646885
16	0xbe0ce9f4	-0.13761121
17	0xbd04ad1f	-0.032391664
18	0xbe427032	-0.18988112
19	0xbe63cad4	-0.22245342
20	0xbe58fd02	-0.21190265
21	0x3d4dbc6f	0.050228532
22	0x3df798e8	0.120897114
23	0x3e275ad4	0.16343242
24	0x3e1a5d89	0.15074743
25	0xbe348bbb	-0.17631428
26	0x3d6c1f95	0.057647306
27	0x3da29dd6	0.07940261
28	0x3dcd88dc	0.100358695
29	0xbcceabe0	-0.02522844
30	0xba9dce49	-0.0012039627
31	0xbc01f8ba	-0.007932836
32	0xbd86553a	-0.065592244
33	0x3e205e76	0.15661034
34	0xbdfed678	-0.124432504
35	0xbd7f0c41	-0.062267546
36	0x3e14a17c	0.14514726
37	0xbe35339e	-0.17695472
38	0xbdc71d79	-0.09722418
39	0xbd3eeb8a	-0.046611346
40	0x3d463b85	0.048396606
41	0xbdf64df4	-0.12026587
42	0xbdd82298	-0.10553473
43	0x3d2e732b	0.0425903
44	0x3df89be9	0.121391125
45	0x3e4cc0b6	0.19995388
46	0xbdee3d98	-0.11632842
47	0x3da2074a	0.079115465
48	0xbe0a3fe3	-0.13500933
49	0xbdd23e5a	-0.10265799
50	0xbe6fc29d	-0.23414083
51	0x3d5fab03	0.05460645
52	0x3df2d80c	0.11857614
53	0xbdb7ee64	-0.08981016
54	0x3d78c858	0.060737938
55	0xbe5fab9d	-0.21842809
56	0x3e74f61f	0.23922013
57	0xbe397307	-0.18110286
58	0x3d8c5cc3	0.068536304
59	0xbd799c08	-0.06093982
60	0xbe0d9299	-0.13825454
61	0xbdc2dc18	-0.09514636
62	0xbc041b6f	-0.008063181
63	0x3defd0d3	0.11709752
64	0x3e0e66cd	0.13906403
65	0xbe534063	-0.2063003
66	0x3db7e719	0.08979625
67	0x3e1ec593	0.15505056
68	0x3e1482b5	0.14502986
69	0xbdcd99af	-0.100390784
70	0xbe7ace39	-0.2449273
71	0xbdc80524	-0.097666055
72	0x3e33b247	0.17548476
73	0xbdb3a8c8	-0.08772427
74	0x3ddaa4ff	0.10676002
75	0x3e5b4acb	0.2141525
76	0xbe3b4d7c	-0.18291277
77	0x3de0161f	0.10941719
78	0x3e26c996	0.16287836
79	0x3d6796ba	0.05654023
80	0xbd238ab6	-0.039927207
81	0x3dee5698	0.1163761
82	0xbd831b67	-0.06401711
83	0xbd8c33e2	-0.06845833
84	0x3e2b3ce3	0.16722445
85	0x3e756596	0.23964533
86	0x3dd6f8c7	0.10496669
87	0xbd94916b	-0.07254299
88	0x3e31073f	0.1728792
89	0x3c2e09ea	0.010622481
90	0xbdc556bd	-0.09635685
91	0xbe162629	-0.14662994
92	0x3e8b5733	0.27214965
93	0x3e715783	0.2356854
94	0xbe080644	-0.1328364
95	0x3dfc64c7	0.12323909
96	0x3de429fd	0.11140821
97	0x3e2fcd32	0.1716812
98	0x3e12a71b	0.14321558
99	0x3d6cb041	0.057785276
100	0xbd034187	-0.032044914
101	0xbd4e2ef4	-0.050337747
102	0x3e93245e	0.28738683
103	0xbb470c7a	-0.0030372427
104	0xbc1aba1b	-0.009443785
105	0x3e5bbff8	0.21459949
106	0x3d069d3c	0.032864794
107	0x3e11c218	0.14234197
108	0xbe03d0b1	-0.12872578
109	0xbcd1e3fb	-0.025621405
110	0xbe31bcef	-0.17357229
111	0x3e2b3312	0.167187
112	0x3d6184ce	0.055058293
113	0xbac24fca	-0.0014824804
114	0x3e1272e8	0.14301646
115	0x3cc98461	0.024599256
116	0x3d1e0c5f	0.038586017
117	0x3d1524f2	0.036412187
118	0xbdde7e2f	-0.10863911
119	0x3d68be0d	0.05682187
120	0xbcd5eaa0	-0.026112854
121	0xbe075ab3	-0.13218193
122	0xbdb8b621	-0.09019113
123	0x3e61dde6	0.22057304
124	0x3d950068	0.07275468
125	0x3e8fe437	0.28103802
126	0x3df4fbbd	0.11962078
127	0xbe63433f	-0.22193621
128	0xbe4ffa56	-0.2031034
129	0xbdad00f8	-0.084474504
130	0xbdc086d4	-0.094007164
131	0x3e07b8f1	0.13254143
132	0xbdc27342	-0.0949464
133	0xbe553911	-0.2082255
134	0xbd7688e8	-0.060189158
135	0xbdee6433	-0.11640205
136	0x3e15524f	0.1458218
137	0x3e09b2db	0.13447134
138	0x3d0b83c0	0.034061193
139	0x3d4c34ae	0.049854927
140	0x3d682be0	0.056682467
141	0xbd8a78a7	-0.06761294
142	0x3d925719	0.07145519
143	0x3e075536	0.13216099
144	0x3e368b77	0.17826639
145	0x3d8b36c3	0.06797554
146	0x3e55593e	0.20834824
147	0x3e0a90ce	0.13531801
148	0xbdcd067d	-0.10011003
149	0x3d873039	0.066009946
150	0x3df3cb57	0.11904018
151	0x3de80380	0.113287926
152	0xbd321343	-0.0434754
153	0x3c44eed5	0.012019833
154	0xbe4aa03b	-0.19787686
155	0x3e79fb26	0.24412212
156	0x3da9ddec	0.08294281
157	0xbd9fa053	-0.07794251
158	0xbe1b5ac4	-0.15171343
159	0x3e055331	0.13020016
160	0x3e82c1f1	0.2553859
161	0x3d08497d	0.03327321
162	0xbe316166	-0.17322311
163	0x3d25228f	0.04031616
164	0x3e37ab7d	0.17936511
165	0xbe4224af	-0.18959306
166	0x3e60cd6b	0.2195336
167	0x3d0ad373	0.03389306
168	0xbe2975eb	-0.16548888
169	0xbcc5a865	-0.024128148
170	0xbe723fc7	-0.23657142
171	0xbd85bf1e	-0.06530593
172	0x3e37ecd3	0.17961435
173	0x3c19c23c	0.009384688
174	0xbc6773b5	-0.014126708
175	0xbe46f9d7	-0.19431244
176	0x3daa4c28	0.08315307
177	0x3b9814b8	0.0046411417
178	0xbca24f73	-0.019813275
179	0x3db4d60e	0.0882989
180	0x3e0ac0e6	0.13550147
181	0xbc570789	-0.013124355
182	0x3d8902a9	0.066899605
183	0x3e2a1e44	0.16613108
184	0x3cc6071d	0.024173314
185	0xbd21d684	-0.03951122
186	0xbdb42a80	-0.08797169
187	0xbe6ccfb3	-0.23126106
188	0xbe36ac07	-0.1783906
189	0x3cb7d135	0.022438625
190	0xbd1f7f24	-0.03893961
191	0x3da38a99	0.0798542
192	0x3e01c366	0.12672195
193	0xbdfba761	-0.12287784
194	0x3c90eaa7	0.017690016
195	0xbd92c9b1	-0.07167376
196	0x3d2fd2be	0.04292559
197	0xbe4142cf	-0.18873142
198	0xbd20e3aa	-0.039279617
199	0xbe83053d	-0.25589934
200	0xbe922d43	-0.28550157
201	0xbe4375fc	-0.19087976
202	0xbcabbd99	-0.02096443
203	0x3dcd7f3f	0.10034036
204	0xbd7a8323	-0.061160218
205	0x3c8995d5	0.016795078
206	0x3d3e3d4e	0.046445183
207	0x3d5cd1ca	0.053911008
208	0xbcb51f1b	-0.022109559
209	0xbe4c9e95	-0.19982369
210	0x3e62d4fb	0.22151558
211	0x3e34db0e	0.17661688
212	0x3e1a9859	0.15097179
213	0x3dc307af	0.0952295
214	0xbe3e8afc	-0.18607706
215	0x3e60b1d7	0.2194284
216	0xbd2b5b38	-0.04183504
217	0x3cb5ce72	0.022193167
218	0xbe60fedc	-0.21972221
219	0xbcfffb7e	-0.03124785
220	0xbde4228d	-0.111394025
221	0xbd0b8c6f	-0.034069475
222	0xbb83a632	-0.0040176148
223	0xbe539fbe	-0.20666406
224	0x3e035ff0	0.12829566
225	0x3d1eda85	0.038782615
226	0x3d913529	0.070902176
227	0xbe44dd98	-0.19225156
228	0xbe631f44	-0.22179896
229	0xbdd2ee3c	-0.10299346
230	0x3d2fa40f	0.042881068
231	0x3dee94f8	0.11649507
232	0x3d15f951	0.03661472
233	0x3d031c6e	0.032009535
234	0x3de5496f	0.11195647
235	0xbe7bfd01	-0.24608232
236	0xbdd229c7	-0.10261875
237	0x3e09037a	0.13380232
238	0xbe39a39d	-0.1812882
239	0x3baa635f	0.0051998342
240	0xbd365e2a	-0.044523396
241	0x3cd13308	0.025537029
242	0xbdae0cfb	-0.084985696
243	0x3e3f9d86	0.18712434
244	0xbda99096	-0.08279531
245	0x3e784ed8	0.24248827
246	0x3d68a1eb	0.056795042
247	0x3d238c68	0.039928824
248	0xbd86f7ed	-0.06590257
249	0xbdafce5e	-0.08584283
250	0x3d5a24b8	0.053257674
251	0x3d67264f	0.05643302
252	0x3db73fc7	0.089477114
253	0xbe6dd7af	-0.23226808
254	0x3e8089f2	0.25105244
255	0xbd2cfb83	-0.042232048

recurs1.bias_ih f4 [120]
0	0xbd486383	-0.048923027
1	0xbcecdae1	-0.028912963
2	0x3d3815b3	0.04494257
3	0x3e90a5e3	0.28251562
4	0x3e45887c	0.19290346
5	0x3e433f62	0.19067147
6	0x3db73ef7	0.089475565
7	0x3e7ce98c	0.24698466
8	0x3e10be8a	0.14135185
9	0x3e4121db	0.18860571
10	0x3e156123	0.14587836
11	0x3dbf54ae	0.09342323
12	0x3e76db97	0.24107204
13	0x3e8969bc	0.2683848
14	0x3e54e1b2	0.20789221
15	0x3e0dc1e5	0.13843496
16	0x3e3f3b08	0.18674862
17	0x3da7df96	0.081969425
18	0x3e5b05e1	0.21388961
19	0x3e3f858a	0.18703285
20	0x3e73f541	0.23824026
21	0x3d944c88	0.0724116
22	0xbd7ee886	-0.06223347
23	0x3e4e6099	0.20154037
24	0x3e3b750d	0.1830637
25	0x3e88a826	0.26690787
26	0x3e417b69	0.18894733
27	0x3e049d36	0.12950596
28	0x3e6bdd2f	0.23033594
29	0x3dd88081	0.10571385
30	0x3e557461	0.20845176
31	0x3e23dbf6	0.16001877
32	0x3e3761af	0.17908357
33	0x3e771f4a	0.2413303
34	0xbdf913b3	-0.121619605
35	0x3e449378	0.1919688
36	0x3e50ac0d	0.20378132
37	0xbdf2e62c	-0.11860308
38	0x3c0ed523	0.008717808
39	0xbd650d4b	-0.05592088
40	0xbc16618a	-0.009178529
41	0x3d06fa44	0.032953516
42	0x3e486632	0.19570234
43	0x3d3fd4f3	0.046833944
44	0xbddcffbe	-0.107909665
45	0x3ddbea28	0.10738021
46	0x3e03f05b	0.12884657
47	0xbcb74ce2	-0.022375528
48	0x3e28f362	0.16499093
49	0x3e81da80	0.25362015
50	0x3d6f1775	0.05837198
51	0x3c1306b7	0.008973769
52	0x3d84edbd	0.064906575
53	0x3ccd4cf1	0.025061103
54	0x3d625395	0.05525549
55	0xbc0c1880	-0.008550763
56	0xbb6ab7a6	-0.003581503
57	0x3d916a47	0.07100349
58	0xbd990b8e	-0.07472907
59	0xbdb2aa2c	-0.08723864
60	0x3e854eea	0.2603677
61	0x3c8598be	0.016308185
62	0x3e6250d0	0.2210114
63	0x3e9dfb36	0.3085572
64	0xbcd1ec88	-0.025625482
65	0x3dd5b60d	0.10435114
66	0x3e028d83	0.12749295
67	0xbe08eb59	-0.13371028
68	0xbdb2d2cb	-0.08731612
69	0xbda92f2f	-0.08260953
70	0xbba82eda	-0.0051325383
71	0x3d48e55f	0.04904687
72	0x3e0625dc	0.1310038
73	0xbe52d613	-0.20589475
74	0x3e1540d9	0.14575519
75	0x3e46e870	0.19424605
76	0xbe20bf92	-0.15698078
77	0xbdbfda2d	-0.093677856
78	0xbe04693e	-0.12930772
79	0x3c67c30d	0.014145625
80	0xbe8b2190	-0.27174044
81	0xbd713eb2	-0.05889768
82	0x3e715fb1	0.2357166
83	0xbe401f0c	-0.18761843
84	0x3e8ac367	0.27102205
85	0xbe23a519	-0.15980949
86	0x3e2d27ce	0.16909716
87	0xbd0d707e	-0.03453111
88	0x3bd7fd9c	0.006591512
89	0x3e01b8af	0.12668107
90	0x3e85948f	0.26089904
91	0x3b11fbd4	0.0022275345
92	0x3e405b36	0.18784794
93	0x3e2dd1fb	0.16974632
94	0x3e09eb73	0.13468723
95	0xbcadbd1f	-0.021208344
96	0x3e37c5bf	0.17946528
97	0x3e4b7b15	0.19871171
98	0xbd4d69c6	-0.0501497
99	0xbd81d2af	-0.06339013
100	0xbd31c057	-0.04339632
101	0x3de2f21b	0.11081334
102	0x3ddefd0a	0.10888107
103	0x3d04c453	0.032413792
104	0x3e796752	0.2435582
105	0x3d48ccbc	0.049023375
106	0xbd0082f5	-0.03137489
107	0x3e232c30	0.15934825
108	0xbcbcef1e	-0.023063239
109	0x3da61b96	0.0811073
110	0x3e4d6827	0.20059262
111	0x3e00fe82	0.12597087
112	0xbd3bd71a	-0.045859434
113	0x3e97846f	0.29593226
114	0x3e7c3fd7	0.24633728
115	0xbd1487dd	-0.03626238
116	0x3e47bf70	0.19506621
117	0x3dff1934	0.12455979
118	0xbd79b2e9	-0.060961638
119	0x3ca2e24f	0.019883303

recurs1.bias_hh f4 [120]
0	0xbd1a172f	-0.037619766
1	0x3e5861d0	0.21131063
2	0x3ded6897	0.115922146
3	0x3e61affd	0.2203979
4	0x3d6e55e7	0.05818739
5	0x3e9648f0	0.29352522
6	0x3e250b38	0.16117561
7	0xbd84daa2	-0.064870134
8	0x3dbfcb25	0.093649186
9	0x3e616aa7	0.22013341
10	0x3e3b842c	0.18312138
11	0x3d179011	0.037002627
12	0x3d57957c	0.052632794
13	0x3c70f7b9	0.014707499
14	0x3e85430b	0.26027712
15	0x3c2bc65e	0.010484306
16	0x3e78f872	0.24313524
17	0x3d9b2a8a	0.07576473
18	0x3dba335e	0.09091829
19	0xbd2c10ce	-0.042008214
20	0x3d285f8d	0.04110675
21	0x3e827846	0.25482386
22	0xbd9ddcb1	-0.07708109
23	0x3e83c1cd	0.25733796
24	0xbd37ae31	-0.044843856
25	0x3e158478	0.14601314
26	0xbd41ed19	-0.047345255
27	0xbda8ecc7	-0.08248287
28	0xbd7f6214	-0.062349394
29	0x3dd758ce	0.10514985
30	0x3d93aec2	0.07211067
31	0xbd8a2056	-0.06744449
32	0x3dd3cf71	0.10342301
33	0x3e62637d	0.22108264
34	0x3e349bc9	0.17637552
35	0x3e845e6d	0.2585329
36	0x3e1da48b	0.153948
37	0xbd34a4b5	-0.04410239
38	0x3bf7106e	0.0075398004
39	0x3e5e3fbe	0.21704003
40	0x3e00bf9d	0.12573095
41	0xbd2ec93a	-0.042672373
42	0x3e718bde	0.23588511
43	0xbd749ad2	-0.05971796
44	0x3e628afb	0.2212333
45	0x3de338d5	0.11094824
46	0xbddc25ee	-0.10749422
47	0xbe0d80f1	-0.13818718
48	0x3e1b1b3c	0.15147108
49	0x3e960246	0.2929861
50	0x3dea964e	0.114544496
51	0xbd8e294c	-0.069414705
52	0x3e0bfcbb	0.13670628
53	0x3e12a460	0.14320517
54	0x3d9e9dd5	0.07744948
55	0x3e6150ee	0.22003528
56	0x3e5fd50e	0.21858618
57	0x3ccf949e	0.02533942
58	0x3d982146	0.074282214
59	0xbe2ec36b	-0.17066734
60	0x3c65b2a8	0.014019646
61	0x3be9ab38	0.0071310066
62	0x3e0e43a2	0.13892987
63	0x3df01089	0.11721904
64	0x3d8d605c	0.06903145
65	0x3e07ebb9	0.13273515
66	0xbe57911e	-0.21051452
67	0x3d4abaa8	0.049494416
68	0xbd423b11	-0.04741961
69	0xbe6fd947	-0.23422728
70	0x3c5bcc28	0.013415374
71	0xbd361f5b	-0.044463497
72	0xbd7dc269	-0.061952982
73	0xbe9823de	-0.29714864
74	0x3e918c58	0.28427386
75	0xbda78aff	-0.08180808
76	0xbceec9da	-0.029148985
77	0x3e349fc8	0.17639077
78	0xbc4965fd	-0.012292382
79	0xbe5bcd96	-0.21465144
80	0xbe8fd378	-0.28091025
81	0x3d76ad12	0.060223646
82	0x3caa60d9	0.020798134
83	0xbd84d25e	-0.06485437
84	0x3e393589	0.18086828
85	0xbe01387e	-0.12619206
86	0x3e872c0b	0.2640079
87	0xbda852a0	-0.082188845
88	0xbd7d1ad5	-0.061793167
89	0xbddcacff	-0.10775184
90	0x3e2518f6	0.16122803
91	0x3b5b0f39	0.0033425821
92	0x3dfd9c1c	0.12383291
93	0x3dc88b62	0.0979221
94	0x3e86f1e9	0.26356438
95	0x3c8acc87	0.01694323
96	0x3d10dc6b	0.035366457
97	0x3d2e7ab3	0.042597484
98	0xbba24536	-0.0049520982
99	0x3e33073f	0.17483233
100	0x3d8dbf50	0.069212556
101	0x3e12fa5b	0.14353316
102	0x3e88dbd0	0.26730204
103	0x3e486f8c	0.19573802
104	0x3d23fc16	0.04003533
105	0x3e47ea27	0.19522916
106	0xbc4667dc	-0.012109723
107	0xbd1fabc0	-0.038982153
108	0x3d74d075	0.059769113
109	0x3b11a048	0.002222078
110	0xbd18c159	-0.037293766
111	0x3e055e8a	0.13024345
112	0x3e711767	0.23544084
113	0x3d4de363	0.05026568
114	0x3de65f53	0.112486504
115	0xbd348b67	-0.044078257
116	0x3e16fd1c	0.14744991
117	0x3dd00d58	0.10158795
118	0x3d2c1b9a	0.04201851
119	0x3e92ff2b	0.28710303

recurs2.weight_ih f4 [120, 30]
0	0xbcded141	-0.02719939
1	0x3d7911d6	0.060808025
2	0xba3c3676	-0.0007179746
3	0x3e949850	0.29022455
4	0x3dd4e0bb	0.103944264
5	0x3ea1f25c	0.31630218
6	0x3dc496c4	0.09599069
7	0x3be28d66	0.0069138287
8	0xbe50fceb	-0.2040898
9	0xbe38109e	-0.17975089
10	0x3dfebd10	0.124384046
11	0xbe193e12	-0.14965084
12	0x3e444efa	0.19170752
13	0xbd9fad23	-0.07796695
14	0x3e31fb56	0.17381033
15	0xbe023686	-0.12716112
16	0x3dc61a65	0.09673003
17	0x3b043a33	0.002017629
18	0xbe1e3b34	-0.15452272
19	0xbd8c8797	-0.06861799
20	0xbe04af69	-0.12957539
21	0xbda4d6d7	-0.0804879
22	0x3def8013	0.1169435
23	0xbe398053	-0.18115358
24	0x3ea46c1b	0.32113728
25	0x3c8c776b	0.017146787
26	0x3e80d7c1	0.25164607
27	0x3d8468a1	0.06465269
28	0xbe319569	-0.17342152
29	0xbdd69cb6	-0.10479109
30	0xbdf33c59	-0.11876745
31	0xbdcb8598	-0.0993759
32	0xbd13a886	-0.03604939
33	0x3e88d1cf	0.2672257
34	0x3df5f933	0.120104216
35	0x3e23c439	0.15992822
36	0xbd81ccb3	-0.063378714
37	0x3e09dc85	0.13463028
38	0xbd1757b3	-0.03694887
39	0xbe2a9610	-0.16658807
40	0x3db48cbf	0.08815908
41	0x3db23dcc	0.08703193
42	0x3b89a0ee	0.0042000925
43	0x3d7053af	0.058673557
44	0x3dbe729e	0.09299205
45	0x3e014533	0.12624054
46	0xbe8f33ff	-0.27969357
47	0x3d9d2cf7	0.07674592
48	0xbdcdcb45	-0.10048536
49	0xbe3ff9d6	-0.18747649
50	0xbe52eb71	-0.20597626
51	0x3d46607d	0.048431862
52	0x3d5bcf46	0.05366447
53	0xbe5dad95	-0.21648248
54	0x3e7e7639	0.24849786
55	0xbb354537	-0.0027659663
56	0xbd95bd03	-0.07311442
57	0xbd184f45	-0.037184972
58	0x3dbf28bc	0.09333941
59	0x3d36c60e	0.044622473
60	0x3ddc7de3	0.107661985
61	0xbcc94ba7	-0.024572207
62	0x3e4c7d4b	0.1996967
63	0x3c708d6b	0.014682154
64	0xbd361804	-0.044456497
65	0x3e51f731	0.20504452
66	0xbdd044a2	-0.10169341
67	0x3d9cc559	0.076548286
68	0x3e15a512	0.1461375
69	0xbe96c7d1	-0.29449323
70	0xbdcaaad2	-0.09895863
71	0x3e0734b1	0.13203694
72	0x3e2f5d3c	0.1712541
73	0xbdcbe2b1	-0.09955347
74	0x3e24491f	0.16043518
75	0x3e415300	0.18879318
76	0xbe3f959b	-0.18709414
77	0x3dd97100	0.10617256
78	0x3de49270	0.11160743
79	0xbdde7b2f	-0.10863339
80	0xbea17379	-0.3153341
81	0x3dfaa1b3	0.12237873
82	0x3d3f29cc	0.04667072
83	0xbe196d6f	-0.14983152
84	0x3e6dbcef	0.23216604
85	0xbd10b2a6	-0.035326622
86	0x3c06ce15	0.008227845
87	0xbe2a020a	-0.1660234
88	0x3ced9698	0.029002473
89	0x3c3b92f9	0.011448615
90	0x3d41ea03	0.04734231
91	0xbdda02fa	-0.10645099
92	0x3e99c7b0	0.30035162
93	0x3e978dd4	0.29600394
94	0x3d4f507a	0.050613858
95	0x3e11b8e6	0.1423069
96	0x3cd23cb3	0.02566371
97	0x3ddee329	0.10883171
98	0xba5cb96a	-0.0008419963
99	0xbe0d9cc7	-0.13829337
100	0xbdba6d00	-0.09102821
101	0x3d32b17b	0.04362629
102	0xbc2164e7	-0.009850717
103	0xbdaba81d	-0.083816744
104	0xbce0f9c9	-0.027462857
105	0x3c638f18	0.013889097
106	0xba45a4e5	-0.0007539525
107	0xbd54146f	-0.0517773
108	0x3da5f093	0.081025265
109	0xbe61c984	-0.22049528
110	0xbc693881	-0.014234663
111	0x3dafe250	0.085880876
112	0x3d49e2be	0.049288504
113	0xbd05903f	-0.032608267
114	0xbc18d19a	-0.009327317
115	0xbe65441d	-0.22389264
116	0x3d1d9b08	0.038477927
117	0xbd1b57f0	-0.03792566
118	0x3d3351f7	0.04377934
119	0xbe08cfa2	-0.13360456
120	0x3e964428	0.29348874
121	0x3dc10f86	0.09426789
122	0x3c502283	0.012703541
123	0x3e0e9bc1	0.13926603
124	0xbe288e13	-0.16460447
125	0x3e26c771	0.16287018
126	0xbc87b85d	-0.016567403
127	0xbe1d6d03	-0.15373616
128	0xbdabbfa8	-0.08386165
129	0x3d2b78b1	0.041863147
130	0xbcc7150e	-0.024302032
131	0x3c34fd18	0.01104667
132	0xba312b32	-0.0006758451
133	0xbe80ab24	-0.2513057
134	0x3e07e608	0.13271344
135	0x3c6119ed	0.013739091
136	0xbe27bada	-0.16379872
137	0x3c84f9c3	0.016232377
138	0x3dacc86c	0.08436665
139	0xbd6372ca	-0.055529393
140	0xbe7eaacf	-0.24869846
141	0x3def4663	0.11683347
142	0xbd461dc7	-0.04836824
143	0xbe26ddfd	-0.1629562
144	0x3e5c68b1	0.21524312
145	0x3cf7dfbd	0.030258054
146	0x3ea5cf80	0.32384872
147	0x3e165c4a	0.14683643
148	0xbe158fa1	-0.14605571
149	0xbc9b7bba	-0.018979896
150	0xbd2a6d6a	-0.04160825
151	0x3bd0d6ee	0.006373278
152	0x3e976cc7	0.29575178
153	0x3e7a0891	0.2441733
154	0xbe203ff7	-0.156494
155	0x3b4e588a	0.003148588
156	0xbe10fa73	-0.14158039
157	0x3d75a90d	0.059975673
158	0xbd84a780	-0.064772606
159	0xbe81df33	-0.253656
160	0xbd7efa6e	-0.062250547
161	0x3d1ac40d	0.037784625
162	0x3dc7cdba	0.09756036
163	0x3d695610	0.05696684
164	0x3ddf8ca1	0.10915495
165	0x3e090a07	0.13382731
166	0xbe0a5f1b	-0.13512842
167	0x3d816d19	0.06319637
168	0xbd4f9a52	-0.05068428
169	0x3d9ddd78	0.077082574
170	0xbd979067	-0.074005894
171	0xbda250db	-0.07925578
172	0xbd36fae1	-0.04467285
173	0xbe8cb9e7	-0.27485582
174	0x3d30ebfa	0.043193795
175	0xbd8a3ffe	-0.06750487
176	0x3e916b1b	0.28402027
177	0xbd9fb378	-0.07797903
178	0x3dc5726b	0.09640964
179	0x3de8a53c	0.11359641
180	0xbda9a737	-0.08283847
181	0xbdc65280	-0.096837044
182	0x3de5f7d3	0.11228909
183	0x3e2b6657	0.16738258
184	0xbe28fe12	-0.1650317
185	0x3ddaab12	0.1067716
186	0xbe75ce72	-0.24004534
187	0xbd765a8e	-0.060144953
188	0xbca94fce	-0.020667937
189	0x3c79120f	0.015202059
190	0x3d211696	0.03932818
191	0x3dff2a50	0.12459242
192	0xbd28a147	-0.04116943
193	0x3d63bd20	0.055600286
194	0xbdc653e9	-0.09683973
195	0xbdf5df2b	-0.120054565
196	0xbdfe52a3	-0.124181055
197	0xbe5b8d02	-0.21440509
198	0x3dae873a	0.08521886
199	0xbe13f6e0	-0.14449644
200	0xbe79428a	-0.24341789
201	0xbc1a1276	-0.0094038155
202	0xbddb5a66	-0.107106015
203	0x3cb8abfa	0.022542942
204	0x3e29da2b	0.1658713
205	0xbdec4b49	-0.11537797
206	0x3e474a46	0.19461927
207	0x3d80ef9d	0.062957026
208	0xbe3a293c	-0.18179792
209	0xbd037110	-0.032090247
210	0x3e5396af	0.2066295
211	0x3cb9a3fd	0.022661204
212	0x3dfefeda	0.12450953
213	0x3e2610fa	0.16217414
214	0xbcf04f2c	-0.029334627
215	0x3e1cd519	0.15315665
216	0xbe6cc75f	-0.23122929
217	0x3db64186	0.08899216
218	0x3ce27bd7	0.027646942
219	0xbd18895e	-0.03724038
220	0x3dc07867	0.09397965
221	0xbdf62787	-0.12019258
222	0x3c87f4c6	0.01659621
223	0xbe04c7b3	-0.12966804
224	0x3e10aa3b	0.14127438
225	0xbd89829c	-0.06714365
226	0xbcc0d6a2	-0.023539845
227	0xbd0e0873	-0.034676027
228	0x3d9516fe	0.07279776
229	0xbe9a95de	-0.30192465
230	0xbe045d1b	-0.12926142
231	0x3de6f2b9	0.112767644
232	0xbd8e75d1	-0.069560654
233	0xbd6d6de5	-0.05796613
234	0x3e5d446e	0.21608135
235	0xbd03878c	-0.03211169
236	0x3e2e2713	0.17007093
237	0x3d491ce8	0.049099833
238	0xbe069090	-0.13141084
239	0x3e06d3b0	0.1316669
240	0x3de16e71	0.11007393
241	0x3e4c0612	0.1992419
242	0x3e0d9a66	0.1382843
243	0x3deb780e	0.11497508
244	0x3bb97150	0.00565926
245	0x3e9571f1	0.29188493
246	0x3db6d20d	0.08926783
247	0xbe79a674	-0.24379903
248	0xbda286f1	-0.07935894
249	0xbe3a2a8f	-0.18180297
250	0x3e3b4da3	0.18291335
251	0x3e456506	0.19276819
252	0xbd480531	-0.048833076
253	0xbe11a01b	-0.14221232
254	0x3e69b580	0.22823143
255	0x3df689f4	0.12038031

recurs2.weight_hh f4 [120, 30]
0	0x3d515b96	0.051112734
1	0x3dd2b368	0.10288125
2	0x3e6061c3	0.21912293
3	0xbe0beda3	-0.1366487
4	0x3d8a2e0c	0.06747064
5	0xbda97cbc	-0.08275744
6	0x3e26f530	0.16304469
7	0xbdcaa98f	-0.09895622
8	0x3c76d5e5	0.015065645
9	0x3d19eebb	0.037581187
10	0xbd5d9db0	-0.05410546
11	0x3d00d2e8	0.031451136
12	0xbd8b49da	-0.068011954
13	0x3cff42fd	0.031159872
14	0xbc6e69e3	-0.014551613
15	0x3cc9b234	0.024621107
16	0x3df9abf7	0.12191003
17	0x3dd38f25	0.10330037
18	0xbdf59cd5	-0.11992804
19	0xbe176665	-0.14785154
20	0xbc8351b9	-0.01603018
21	0x3c9df2b9	0.019280778
22	0xbd977a2e	-0.07396351
23	0xbcbfb08a	-0.02339961
24	0x3c2ca7c8	0.010538049
25	0xbd394005	-0.04522707
26	0xbd3de08b	-0.04635672
27	0xbd9aded6	-0.07562034
28	0xbe1f1076	-0.15533623
29	0x3e0acd6a	0.13554922
30	0xbd24c578	-0.040227383
31	0xbdd848dc	-0.10560772
32	0xbe26d7e2	-0.1629329
33	0x3d94fa1f	0.07274269
34	0xbcd4753b	-0.025934806
35	0x3d69de17	0.057096567
36	0x3cd09c65	0.0254652
37	0xbda0b519	-0.07847042
38	0xbddc69c6	-0.10762362
39	0x3d3d252a	0.04617802
40	0xbe6fc708	-0.23415768
41	0xbd864a59	-0.065571494
42	0xbd8fdf3f	-0.07025003
43	0xbc86b408	-0.016443267
44	0x3e16efc0	0.14739895
45	0x3e2f1a25	0.17099817
46	0x3e46f2cd	0.19428559
47	0xbdb22114	-0.086977154
48	0xbdf43f1d	-0.119261004
49	0x3d5b60f3	0.053559255
50	0x3e431fb3	0.19055061
51	0xbd7d4cea	-0.06184093
52	0xbe021549	-0.12703432
53	0xbe2773c4	-0.16352755
54	0xbd80d3c3	-0.0629039
55	0xbde9bdcf	-0.11413156
56	0xbe272223	-0.16321616
57	0xbb34a794	-0.0027565705
58	0xbc2480a4	-0.010040436
59	0x3da4797e	0.08030985
60	0xbe2403f5	-0.16017134
61	0xbd9a1763	-0.07523992
62	0x3e2a9ce3	0.1666141
63	0xbd53dde8	-0.0517253
64	0x3e26e80f	0.16299461
65	0xbdfbdf7a	-0.12298484
66	0x3cc670f3	0.02422378
67	0x3b800041	0.0039062803
68	0xbd463de3	-0.048398864
69	0xbe938abe	-0.2881679
70	0x3db7e498	0.08979148
71	0xbd86ffc2	-0.06591751
72	0xbc8ad192	-0.016945634
73	0x3d584f2b	0.052809875
74	0x3e376e58	0.17913187
75	0x3d000345	0.031253118
76	0x3dce6bd2	0.10079159
77	0xbc178759	-0.009248578
78	0x3dc80261	0.09766079
79	0x3dac77c8	0.08421284
80	0x3e16de9b	0.14733355
81	0x3d2b7fe4	0.041870013
82	0xbe593876	-0.21212944
83	0x3d13425d	0.03595196
84	0xbe2ae554	-0.16689044
85	0xbe8d2112	-0.27564293
86	0x3c1d36be	0.009595571
87	0x3d0f81f4	0.035036042
88	0xbdff5fcc	-0.12469444
89	0x3e404d76	0.18779549
90	0xbd9d2154	-0.076723725
91	0xbb24f8f8	-0.002517281
92	0x3e5407fd	0.20706172
93	0x3db85d7d	0.090022065
94	0xbd6c7bf5	-0.057735402
95	0xbc928df2	-0.01788995
96	0xbd36416f	-0.044495996
97	0xbe4a5616	-0.19759402
98	0xbd9cbf00	-0.07653618
99	0xbd8aa7b8	-0.06770271
100	0xbe59b651	-0.21260954
101	0xbda99f57	-0.08282345
102	0xbe72f151	-0.23724867
103	0xbc4af4a2	-0.012387427
104	0x3e03493c	0.12820905
105	0xbc1b7597	-0.009488485
106	0x3dfaafc3	0.12240555
107	0x3e26c50e	0.16286108
108	0x3d59b43b	0.053150397
109	0x3cc93e1e	0.024565753
110	0x3a784573	0.0009470798
111	0x3dd84f86	0.10562043
112	0xbe66b656	-0.22530493
113	0xbe010ad2	-0.12601784
114	0x3dc4095b	0.09572097
115	0xbd9dba18	-0.0770151
116	0x3c1681cb	0.0091862185
117	0x3e648955	0.22318013
118	0x3dcd5c8d	0.10027418
119	0x3dd96369	0.10614664
120	0x3e0be03e	0.1365976
121	0x3e4cffa3	0.20019393
122	0xbcd49469	-0.025949674
123	0x3d918570	0.07105529
124	0x3dc8b590	0.09800255
125	0x3dc2f434	0.09519234
126	0x3e576a2d	0.21036597
127	0xbe09b404	-0.13447577
128	0x3d52a4d6	0.05142673
129	0x3e0504b6	0.12990078
130	0xbe6fe11e	-0.23425719
131	0xbdb001ef	-0.08594119
132	0x3d01828b	0.031618636
133	0x3df3d233	0.11905327
134	0x3e8a3c73	0.26999244
135	0xbb7dd43e	-0.0038731243
136	0x3e280be4	0.16410786
137	0xbe287ba6	-0.16453418
138	0xbdf9defa	-0.122007325
139	0xbd0f37d9	-0.03496537
140	0xbc687419	-0.014187836
141	0x3de856e5	0.11344699
142	0xbd74e159	-0.05978522
143	0x3e1e7933	0.15475921
144	0xbd8b6ce4	-0.068078786
145	0x3c9bb640	0.019007802
146	0xbd554da2	-0.05207599
147	0x3e3cf657	0.18453346
148	0x3c7b2f3d	0.015331087
149	0x3e67cc05	0.22636421
150	0xbe567c37	-0.20945822
151	0xbd124550	-0.035710633
152	0x3e4ca45e	0.19984576
153	0x3e2bf10b	0.1679117
154	0xbc9e3fed	-0.019317592
155	0x3e360692	0.17775944
156	0x3e18d56d	0.14925165
157	0xbe3a0fc4	-0.18170077
158	0xb9c6c1b9	-0.00037909838
159	0x3db50770	0.08839309
160	0xbe40fc64	-0.1884628
161	0x3df3fb94	0.11913219
162	0xbe1f014d	-0.1552784
163	0xbdbc1b8f	-0.09184944
164	0xbb2251dd	-0.0024768033
165	0xbd226322	-0.03964532
166	0x3e5e69c3	0.21720032
167	0x3dd8276d	0.10554395
168	0x3d8ea882	0.06965734
169	0x3d765525	0.060139794
170	0x3e02ac8a	0.12761131
171	0x3c74638f	0.014916315
172	0xbe59954d	-0.2124836
173	0xbe113ed8	-0.14184129
174	0xbdcb3eae	-0.099240646
175	0x3d9bff63	0.076170705
176	0xbdff7192	-0.12472834
177	0x3d368aa2	0.044565804
178	0x3d722281	0.059114937
179	0x3e93d9c6	0.28877085
180	0xbceed1d1	-0.029152783
181	0x3e1769e2	0.14786485
182	0xbd95d7e0	-0.073165655
183	0xbe3f8342	-0.18702415
184	0xbd41b138	-0.04728815
185	0x3d8fcff4	0.07022086
186	0x3e0395bf	0.12850092
187	0x3dc619b4	0.09672871
188	0x3e452029	0.1925055
189	0xbdb0b743	-0.086287044
190	0xbd19f869	-0.037590418
191	0x3e2380db	0.15967123
192	0xbe0d6c7a	-0.13810912
193	0x3df69050	0.12039244
194	0xbdaa77a9	-0.083236046
195	0x3dd49b34	0.10381165
196	0x3e0b582d	0.13607855
197	0x3e16e284	0.14734846
198	0xb895ebd4	-7.1488e-05
199	0xbd4a3e90	-0.04937607
200	0xbd13ad9a	-0.03605423
201	0x3e7f2f89	0.24920477
202	0xbc985f07	-0.0186
203	0xbd7d851d	-0.061894525
204	0xbc7d5649	-0.0154624665
205	0x3d843354	0.064551026
206	0xbdec437b	-0.115363084
207	0xbe178dfd	-0.14800258
208	0xbd6bf530	-0.057606876
209	0x3e02958a	0.12752357
210	0x3bb23531	0.00543847
211	0x3d553b2e	0.05205839
212	0x3e09805d	0.13427873
213	0x3ccaa6df	0.024737773
214	0x3e171165	0.14752729
215	0xbd99fb2c	-0.0751861
216	0x3e488203	0.19580846
217	0x3c0ff120	0.008785516
218	0x3e32c83b	0.17459194
219	0x3d08cb2f	0.033396896
220	0xbe819534	-0.25309145
221	0x3de2744d	0.11057339
222	0xbe1660fa	-0.14685431
223	0xbdf7e480	-0.1210413
224	0x3e49b038	0.19696128
225	0x3d8d66a8	0.06904346
226	0xbd56b7a1	-0.052421216
227	0xbdf0663f	-0.11738252
228	0x3e181851	0.14853026
229	0xbe7133d3	-0.23554926
230	0x3e0b0ec1	0.13579847
231	0x3de38d4d	0.11110935
232	0xbdf5045f	-0.11963724
233	0x3dad9248	0.084751666
234	0xbe411220	-0.1885457
235	0xbd388c80	-0.045055866
236	0xbe012597	-0.12611996
237	0x3dcee7ac	0.10102782
238	0xbcb2565a	-0.021769691
239	0xbd51a56a	-0.05118314
240	0xbd81c4f1	-0.06336392
241	0x3e4635bf	0.1935644
242	0xbd16b346	-0.036792062
243	0x3e20f055	0.1571668
244	0x3e145ca6	0.14488468
245	0xbc9eb15c	-0.01937168
246	0x3d6dd4bc	0.058064207
247	0x3ddab0cd	0.10678253
248	0x3be35ed3	0.006938794
249	0xbd846def	-0.06466281
250	0xbd89f584	-0.067362815
251	0x3d177cc9	0.03698424
252	0xbe53d3e6	-0.20686302
253	0xbd83d987	-0.064379744
254	0x3e8311f7	0.25599644
255	0x3de5dd2e	0.11223827

recurs2.bias_ih f4 [120]
0	0x3ea1c8e9	0.31598595
1	0x3e94ca4d	0.29060593
2	0x3d38f1d9	0.04515252
3	0x3e312ab8	0.17301452
4	0x3d367888	0.04454854
5	0x3da36569	0.07978327
6	0x3db9c6f9	0.09071154
7	0x3ea44fc0	0.32092094
8	0x3e0be25e	0.13660571
9	0x3e7ea14d	0.24866219
10	0x3ac33c54	0.0014895299
11	0x3e0a1b7a	0.13487044
12	0x3e4c4732	0.19949034
13	0x3d7f5af3	0.062342595
14	0x3e33d5ae	0.17561981
15	0x3e2c50e5	0.16827734
16	0x3e97bcc5	0.29636207
17	0x3e02d3d4	0.12776119
18	0x3e035b37	0.12827764
19	0x3e7b8050	0.24560666
20	0x3db5354c	0.08848056
21	0x3e8ebb62	0.27877337
22	0x3e8b05b4	0.2715279
23	0x3d00763d	0.03136276
24	0x3e4b5148	0.19855225
25	0x3dac5888	0.084153235
26	0x3e958a0e	0.2920689
27	0x3e0091dc	0.12555641
28	0x3e09b85f	0.13449238
29	0x3e940ecd	0.28917542
30	0x3e08035d	0.13282533
31	0x3e4957a9	0.19662346
32	0x3c24364c	0.010022711
33	0xbd055ae7	-0.032557394
34	0x3da4a9a4	0.08040169
35	0x3e85c267	0.2612488
36	0x3e488d1e	0.19585082
37	0x3c81ca73	0.015843606
38	0x3e81b044	0.25329792
39	0xbd9338f4	-0.07188597
40	0x3e6e8b9a	0.23295441
41	0x3d09ddea	0.0336589
42	0xbc8aed49	-0.01695885
43	0x3e2b2e79	0.16716947
44	0x3e743807	0.23849498
45	0x3e538a13	0.2065814
46	0x3c336209	0.010948666
47	0x3db0485c	0.086075515
48	0x3e1ca229	0.15296234
49	0x3d84d89c	0.064866275
50	0x3d51fd8c	0.05126719
51	0x3e65e18f	0.22449325
52	0xbb842fd2	-0.004034021
53	0x3e608b79	0.21928205
54	0xbd544af3	-0.05182929
55	0x3ba01a2b	0.004885932
56	0x3e00b8b7	0.12570463
57	0x3c34213e	0.010994254
58	0xbd59db59	-0.0531877
59	0x3d7e923b	0.062151175
60	0xbdb54927	-0.08851843
61	0x3dfd2106	0.12359814
62	0x3e1ab0c8	0.15106499
63	0xbd797911	-0.060906474
64	0x3ded1c6a	0.11577685
65	0x3e26a13f	0.16272448
66	0x3e0e8325	0.13917215
67	0xbdf896f0	-0.12138164
68	0xbe0f1e19	-0.13976325
69	0xbdc746be	-0.0973029
70	0xbbc208a9	-0.0059214425
71	0x3d4bcd1b	0.04975615
72	0xbe638d7c	-0.22221941
73	0x3e2bf8b1	0.16794087
74	0x3e9b30ac	0.3031057
75	0x3d2bbc8b	0.041927855
76	0x3d299cce	0.041409306
77	0x3c80a839	0.015705215
78	0xbdeebd7e	-0.116572365
79	0xbe36930d	-0.17829533
80	0x3e35f666	0.17769775
81	0x3e6d6934	0.23184663
82	0x3cfe5982	0.03104854
83	0xbe1b62fc	-0.15174478
84	0x3c69ab1a	0.014261985
85	0xbe3887b7	-0.18020521
86	0x3ca6aed0	0.020347029
87	0x3e4879f1	0.19577767
88	0x3e510349	0.2041141
89	0x3e678143	0.22607903
90	0x3e4dfd21	0.20116092
91	0x3ea5df07	0.3239672
92	0x3dea0d75	0.11428348
93	0x3e4ffae1	0.20310546
94	0x3c877f85	0.016540298
95	0x3e81f1a0	0.25379658
96	0x3e4d658e	0.20058271
97	0x3e6bcd55	0.23027547
98	0x3e8e9bea	0.27853328
99	0x3e590951	0.2119496
100	0xbc2d1ead	-0.010566396
101	0x3df5919c	0.119906634
102	0x3c021283	0.007938984
103	0x3e9789f1	0.29597428
104	0x3df2f2e6	0.118627355
105	0x3cf96cf3	0.030447459
106	0x3e74bc61	0.23899986
107	0x3d29d008	0.04145816
108	0x3e1c9772	0.15292147
109	0x3e876bca	0.26449424
110	0x3e654d86	0.22392854
111	0x3e73ada8	0.23796713
112	0x3e0a94d2	0.13533333
113	0x3df27c39	0.118401
114	0x3e3b28c5	0.18277271
115	0xbd4af2c3	-0.049547922
116	0x3db52e29	0.08846695
117	0x3e894efb	0.2681807
118	0x3e893ba0	0.26803303
119	0xbc823d34	-0.015898325

recurs2.bias_hh f4 [120]
0	0x3e4e0bc0	0.2012167
1	0x3ea111f9	0.31459025
2	0x3cac772d	0.021052921
3	0x3e390249	0.18067278
4	0x3d8ac31b	0.06775495
5	0x3e306276	0.1722506
6	0x3cf7bc71	0.030241223
7	0x3ea21d71	0.31663087
8	0x3e7639bb	0.2404546
9	0x3d0b8b86	0.034068607
10	0x3cc51d5d	0.024061853
11	0x3d99d0ce	0.075105295
12	0x3e1e0225	0.15430506
13	0x3e488ef9	0.1958579
14	0x3dc4f034	0.096161276
15	0x3d6bea62	0.05759657
16	0x3e15cf51	0.14629866
17	0x3bbdfb57	0.0057977843
18	0x3e4a8ca5	0.19780214
19	0xbcb9db27	-0.022687508
20	0x3dfdc8d3	0.1239182
21	0x3bf17248	0.0073683597
22	0x3d3bd859	0.045860622
23	0x3e0ff475	0.14058097
24	0x3db3426a	0.08752902
25	0x3c2d1166	0.01056323
26	0x3e2df944	0.16989619
27	0x3d65a586	0.05606606
28	0x3e3776f7	0.17916475
29	0x3e569105	0.20953758
30	0x3dae677f	0.08515834
31	0xbdabd7f3	-0.083907984
32	0x3cdbf305	0.02684928
33	0x3dddfa60	0.10838771
34	0x3dd57c44	0.104240924
35	0xbd1d47da	-0.0383986
36	0x3e3d66e5	0.18496282
37	0x3e0e73d1	0.13911368
38	0x3de6580b	0.112472616
39	0x3d55dc67	0.052212145
40	0x3d034212	0.03204543
41	0x3de26950	0.11055243
42	0x3e5098f6	0.2037085
43	0x3db85082	0.08999731
44	0x3e2b626d	0.16736765
45	0x3e49fea5	0.19726045
46	0x3e384b94	0.17997581
47	0x3d29ef30	0.041487873
48	0x3e14fcd1	0.14549567
49	0x3e0196e7	0.12655221
50	0x3e1556fe	0.14583966
51	0xbaea151c	-0.0017859074
52	0x3d8f0a65	0.069844045
53	0x3ddc967c	0.1077089
54	0xbd8fa1a2	-0.07013251
55	0x3df41a81	0.11919118
56	0xbd3003f5	-0.042972524
57	0x3e322fd4	0.17401057
58	0x3d41df61	0.04733217
59	0x3e104deb	0.14092223
60	0xbe13b3bf	-0.14424036
61	0x3e073fb2	0.13207892
62	0x3e395b15	0.18101151
63	0x3e0868f9	0.13321294
64	0x3d8d261b	0.06892034
65	0xbd53a9c9	-0.05167559
66	0x3e3dd45f	0.18538044
67	0x3d3cb250	0.04606849
68	0xbe2b02c5	-0.16700275
69	0xbdc1fd5c	-0.094721526
70	0xbd835885	-0.06413368
71	0x3cee8aef	0.029118983
72	0xbd447f1c	-0.047972783
73	0x3e24c64b	0.16091268
74	0x3ddb4799	0.107070155
75	0x3cd6b3f1	0.02620885
76	0x3b91cb7e	0.004449307
77	0x3dc12084	0.0943003
78	0xbe10b773	-0.1413248
79	0x3e0d5ac5	0.13804157
80	0xbb9ee41d	-0.0048489706
81	0x3e3c8710	0.18410897
82	0xbdb25b9b	-0.087088786
83	0xbd707d90	-0.058713496
84	0x3c5cc70e	0.013475193
85	0xbda7bbc8	-0.08190113
86	0xbe222abf	-0.15836619
87	0xbe0b197d	-0.13583942
88	0xbe053d85	-0.13011749
89	0x3e7d993b	0.24765484
90	0x3e80073a	0.25005513
91	0x3daf35f4	0.085552126
92	0x3e861955	0.26191202
93	0x3e3ce12f	0.18445276
94	0x3e06d1bb	0.13165943
95	0x3d891fae	0.066954955
96	0x3c8b2887	0.016987098
97	0x3e8eaf1f	0.27867982
98	0x3ea8ba29	0.3295453
99	0xbe01e5cb	-0.12685315
100	0x3e3d1b73	0.18467502
101	0x3e59b1fe	0.21259305
102	0x3d5df00c	0.054184005
103	0x3d9c385e	0.07627939
104	0xbc3eace2	-0.011637898
105	0x3e784811	0.24246241
106	0x3eac2537	0.33622143
107	0x3e5f6722	0.21816686
108	0x3e01c906	0.1267434
109	0x3e573549	0.2101642
110	0x3b728a1a	0.0037008584
111	0x3cf9aff5	0.03047941
112	0x3e489b4e	0.19590494
113	0x3e96b0b3	0.29431686
114	0x3e3e41ba	0.1857976
115	0x3d9d10f2	0.07669248
116	0x3e2ef102	0.17084125
117	0xbd58b4a7	-0.05290666
118	0x3e91f1c4	0.28504765
119	0x3d22178b	0.039573234

output.weight f4 [2, 30]
0	0xbdedb611	-0.11606992
1	0xbd858efa	-0.06521411
2	0x3e06de9b	0.13170855
3	0xbd8a9a07	-0.0676766
4	0x3d47eae0	0.04880798
5	0xbdd4b883	-0.10386755
6	0x3e20fb27	0.15720807
7	0xbe2bc2fc	-0.167736
8	0xbe328811	-0.17434718
9	0xbe76b85c	-0.24093765
10	0x3d1401fd	0.03613471
11	0x3d9da283	0.07697012
12	0xbe5404c7	-0.20704947
13	0xbb09484a	-0.0020947629
14	0x3e8008b0	0.25006628
15	0x3d6d3dd7	0.057920303
16	0x3e3fbff2	0.18725565
17	0xbcda7612	-0.026667628
18	0xbd8118ec	-0.063035816
19	0x3dc6f6c4	0.097150356
20	0x3dfec459	0.12439794
21	0xbd0065be	-0.03134703
22	0xbd901fd9	-0.070373245
23	0x3d9cf350	0.07663596
24	0x3d8236ef	0.06358134
25	0xbde3dd84	-0.11126235
26	0xbe75a9c3	-0.2399054
27	0x3e39b8aa	0.1813685
28	0xbd38e552	-0.045140572
29	0x3d8ecc63	0.069725774
30	0x3e9a746f	0.30166957
31	0x3e859ad3	0.26094684
32	0x3e62d072	0.22149828
33	0x3e8c1dbb	0.27366433
34	0xbe250533	-0.16115265
35	0x3e5bde6c	0.21471566
36	0xbe48af82	-0.19598201
37	0x3e58e2d2	0.21180275
38	0x3e74ffb3	0.23925667
39	0x3dc981af	0.09839188
40	0xbe6f8d5d	-0.2339377
41	0xbe40c56b	-0.18825309
42	0xbe401e7c	-0.18761629
43	0xbe7eba52	-0.24875763
44	0x3e3f8e4d	0.18706627
45	0x3e9d6cdf	0.30747125
46	0x3e48cfb0	0.19610476
47	0xbe824404	-0.25442517
48	0x3e92a670	0.28642607
49	0xbe868b3f	-0.2627811
50	0x3e5f651a	0.21815911
51	0x3e11b204	0.14228064
52	0x3e67aaee	0.22623798
53	0x3e5598a5	0.2085901
54	0xbeb5eb94	-0.35531294
55	0x3e16d36e	0.14729092
56	0xbe3e5378	-0.18586528
57	0xbe851c4a	-0.25998145
58	0x3e9c055d	0.30472842
59	0x3e2eb62e	0.17061684

output.bias f4 [2]
0	0x3de99016	0.11404435
1	0x3ca0c0e7	0.019623233

switch.weight f4 [1, 30]
0	0x3dfd3d88	0.12365252
1	0xbd8d46d7	-0.06898277
2	0xbdd5df72	-0.104430094
3	0xbd8b17cb	-0.067916475
4	0xbd3288a5	-0.043587346
5	0x3d936a96	0.07198064
6	0xbcec25da	-0.028826643
7	0x3dab1295	0.083531536
8	0xbe156077	-0.1458758
9	0x3cb31a68	0.021863177
10	0x3e178c5a	0.14799634
11	0xbc985c3f	-0.018598674
12	0x3e1b6fdf	0.15179394
13	0x3d6ce754	0.0578378
14	0xbe3e3a67	-0.18576966
15	0xbdedbd05	-0.11608318
16	0x3e0f796f	0.14011167
17	0xbcf3b288	-0.029748216
18	0x3e314ea0	0.1731515
19	0xbe35152b	-0.17683856
20	0xbdca0668	-0.09864503
21	0x3e13ce1c	0.14434093
22	0x3e26d606	0.16292581
23	0xbe2afecb	-0.16698758
24	0x3d75a553	0.05997212
25	0xbe38d2ab	-0.18049113
26	0xbdf8401f	-0.12121605
27	0x3da9aa98	0.08284491
28	0xbdc45a78	-0.09587568
29	0xbccbc0c0	-0.024872184
