checkpoints/RAND-VC-8a22aac0/model.pth (torch, 49793 bytes, 11 tensors)

recurs1.weight_ih f4 [120, 2]
00000000: 37c2 19be ea2c b53e 095d 23be 16fe a9bc
00000010: 070a 0abe 0059 afbd 4aac c7bd a3ec c43e
00000020: 90a6 9abd ad6e 083e 156e 97be c75f 573e
00000030: e0c6 b7be b705 2a3e f9dc e0bd c795 323e
00000040: 91ab e4bd 65bc b93e 8ef5 24be 78eb 30be
00000050: cf4a 613d 0b9a 793e f672 97bd e2af a33e
00000060: e790 14be eef2 a33c a409 173d e197 723d
00000070: fc90 5dbe 04d3 73be 4d54 38be 9bec 133e
00000080: f75f 38be 6ff9 f5bd cce8 41be 6526 27be
00000090: f38d 5ebe 7523 a03e 572d 123d c4c0 723e
000000a0: c2fe 9dbc f083 dd3c 5644 45ba fd4f 0cbe
000000b0: a055 52be 5a93 b13c 1578 303a 60aa 8ebd
000000c0: e04b 27be d47b 4e3e 301c 3b3d a45e b63e
000000d0: bb84 e73c 4f64 1d3e c3a5 383e a95f bdbd
000000e0: d4fa ad3c 1881 16bc 68bd 41be f8a0 7cbc
000000f0: 1b2a e93d 732c 8f3e fa8a 80bc 0add 4b3e
00000100: f94c ea3d 8b2e 4dbe 55a6 b4bc 700f 9e3e
00000110: 0020 573e fa36 9c3e ecaf e9bd 022f ed3d
00000120: fa22 ec3d cffe a63e 61d5 593e 5dc0 b03e
00000130: 8d43 b23d 70dd 7a3d b7e9 543d 0ae8 30be
00000140: 8ad1 f2bd 9bff 833e b374 753e bf2d c7bc
00000150: c8f8 6d3c 588d a3bc a885 a0bc 2c3b f53d
00000160: e2b8 323d 27e4 8bbe ff70 493e b3fb d03d
00000170: fb26 353e 640c 4d3d d18b 8ebd e34d cdbd
00000180: b999 d63d 2a06 3f3e 0de0 0bbe 0b3e 033d
00000190: d435 3f3e 3c06 713e 80b5 a73c a9c3 c4bc
000001a0: 23d5 84bd 8a49 0a3e 284b 07be b01b 9abe
000001b0: 87ae 113c 81cd 813e 10d7 adbd fb74 813e
000001c0: f69f c1bd 0901 973e 30bd 3d3e 4337 fdbd
000001d0: a7db 393d 668f 123e 2416 0f3e 09f4 2e3e
000001e0: 676c 74bc 5655 723e 5d8e 32bd e8ba 893e
000001f0: d4dd 25be 3c93 aebe d9f1 12be 1760 a83d
00000200: cf22 7bbd 1932 b5be 56ad 00be 5287 a93e
00000210: 739d 883c 36ae 88be 6944 163e cb46 5abe
00000220: 6cc2 023d cad5 82be eeba 923d 43b3 9e3e
00000230: 3861 203e 9233 8a3e 3a47 fc3d 2f59 793e
00000240: 4752 3cbe 59a1 55be 1a86 2a3e 2079 5fbe
00000250: 3c61 f8bd c1ac a2be fac9 32be a365 a5be
00000260: 82d9 d7bc 68a4 8c3e a8c8 2c3d ff29 9bbe
00000270: 1299 f53d 673a a6be 06e7 1abd 7cf4 6abe
00000280: 03da 56bc 5d5a 12be f1fb 43be f100 c4be
00000290: 1da2 39bd 8949 353e 7e9c 48bd 979c 993e
000002a0: 3917 4ebe 097c 3b3e 1ad8 623e f676 86be
000002b0: 689e 1f3e d0e1 4d3e 5c39 13be a577 933e
000002c0: b83c 09bd 573a 88be 0fc9 033e abe0 babe
000002d0: 144b bdbd 08e2 7a3e 7711 213e 93de 463e
000002e0: 2b69 313d dbcf 0cbe 4b0c 17be 2d07 723e
000002f0: 52ec 2fbe 3082 653e bb19 72bb 0120 c73e
00000300: 91d0 6dbe bd64 8c3e 081b 0fbe fa01 d13d
00000310: 107f 78be b552 b23e b61c 01be 9fb5 efbd
00000320: 40d8 433b f9db 753e 564f 26be 76be e63d
00000330: 314e 3bbe 1784 063e 0883 cabd f352 d33e
00000340: db51 3bbc d417 39be c429 96bd 5b06 23bd
00000350: 33ae a7bc 045f b1bd 22b4 98bd 0dce 5a3c
00000360: 9894 51be d056 d63d 222a df3d da8c 493c
00000370: 4d3f 9abb 78c6 a73e c944 803d 4083 513d
00000380: a4cc 2ebe 56aa 883e 79e2 5abe 32eb 85be
00000390: 81dd cfbd f1d3 773e 80c7 bbbc 3467 ae3e
000003a0: 1e8f 053c 98db a13e 8a88 463e 963b 93bd
000003b0: f93c cc3d a3b1 c83c b309 cbbd 0b94 0c3e
-0.15015493 0.3538583 -0.15953459 -0.02075104 -0.13480388 -0.08561897 -0.097496584 0.3846179
-0.075513005 0.1332347 -0.29576173 0.2103263 -0.35893917 0.16603743 -0.10979647 0.17439948
-0.11165536 0.36276546 -0.16109297 -0.17277324 0.055002984 0.24375169 -0.07394974 0.31970125
-0.14508401 0.020013299 0.03687443 0.059226874 -0.21637338 -0.23810965 -0.18000908 0.14445727
-0.18005358 -0.12010466 -0.18936461 -0.1632324 -0.21733837 0.31277052 0.03568777 0.23706347
-0.019286517 0.027040452 -0.00075251365 -0.13702388 -0.20540476 0.021676708 0.0006731761 -0.0696609
-0.16337538 0.20164424 0.04568118 0.3561908 0.028261533 0.15370296 0.18031983 -0.09246761
0.021237768 -0.009186052 -0.18919909 -0.015419237 0.11384984 0.279636 -0.01569127 0.19908538
0.114404626 -0.20037286 -0.02205197 0.30871153 0.21008301 0.30510694 -0.114105076 0.11581232
0.11530109 0.3261628 0.21272804 0.34521762 0.087042905 0.061246336 0.0519807 -0.17276016
-0.11856373 0.2578095 0.23970298 -0.024313806 0.014524646 -0.019964859 -0.019594982 0.11974177
0.04363335 -0.27322504 0.19672011 0.10204258 0.17690651 0.050060645 -0.069602616 -0.10024621
0.10478539 0.18654695 -0.13659687 0.03204159 0.18672878 0.23537534 0.020472288 -0.02401908
-0.06485965 0.13504615 -0.13212264 -0.3009925 0.008891708 0.253521 -0.084882855 0.25284562
-0.09454338 0.29492977 0.185292 -0.12364056 0.045375492 0.14312515 0.1397329 0.1708528
-0.014918423 0.23665366 -0.0435928 0.2690041 -0.16197902 -0.34096706 -0.1435007 0.08221453
-0.061312493 -0.35389784 -0.12566122 0.33111054 0.01667664 -0.26695412 0.14674534 -0.21316068
0.031923696 -0.25553733 0.0716456 0.3099614 0.15662086 0.2699247 0.12318273 0.24350427
-0.18390761 -0.2086233 0.16652718 -0.2182355 -0.12127921 -0.31772426 -0.1745986 -0.32304105
-0.026348833 0.27469182 0.04218355 -0.30305478 0.119920865 -0.32466432 -0.037817977 -0.22944826
-0.0131135015 -0.14292283 -0.19139077 -0.38281968 -0.04532062 0.17703833 -0.048977368 0.3000228
-0.20126046 0.18309034 0.22152749 -0.26262635 0.15587771 0.20105672 -0.1437735 0.2880222
-0.03350517 -0.2660701 0.12869667 -0.36499533 -0.09242836 0.24500287 0.15729319 0.19420843
0.043313187 -0.13751166 -0.14750783 0.2363555 -0.17179993 0.22412944 -0.0036941606 0.38891605
-0.23224093 0.27420607 -0.13975155 0.10205455 -0.2426722 0.34828725 -0.12608609 -0.11704563
0.0029883534 0.24009694 -0.16241202 0.11266796 -0.18291546 0.13136326 -0.098882735 0.41274223
-0.01143309 -0.18075496 -0.07332185 -0.039800983 -0.020468807 -0.08660701 -0.074562326 0.01335479
-0.2046684 0.10465777 0.10896708 0.012301648 -0.004707253 0.32768607 0.0626312 0.05115056
-0.17070252 0.26692456 -0.21375455 -0.26156002 -0.101496704 0.24201943 -0.022922277 0.34063113
0.008151798 0.3161285 0.19388023 -0.071890995 0.09972567 0.024498766 -0.09913959 0.13728349

recurs1.weight_hh f4 [120, 30]
00000000: debd 093e f28a 3e3e 2838 5a3d 7715 453d
00000010: 9894 163d e666 08be e267 933d 2979 5ebe
00000020: deb2 3dbd c7e5 fbbd 582d 3cbd 0517 443d
00000030: 32dd 573d 5f21 1ebe 955a 34bc 3b3e fabd
00000040: 6224 79be 3ec8 b0bc 00a7 4cbe 8ecd 48be
00000050: 4ff3 58be 0a0d e73d d62a 003e bb08 8d3d
00000060: 3472 133e 2f4b 20be 76b1 113d e16f 3d3c
00000070: 418d cd3d 7266 193c f925 60bd 230a 3ebd
00000080: 38c8 5abe a0ed 973d 305c 19be 77f9 03be
00000090: 0ee5 0a3e 42a6 1cbe 513e 65bd 0eb4 ca3d
000000a0: 4020 313d 874a b9bd 01a2 65be 60f9 dd3d
000000b0: 6d36 9d3d 365b fa3d b0f2 6ebc 54e4 003b
000000c0: 5e77 97bd 5955 19bd 3883 1cbe 7710 cc3c
000000d0: 604d ba3d f2fe 3e3d 5b7e 06bb df18 1cbe
000000e0: 3508 2d3e a062 cabd 74c1 203d 9283 e9bd
000000f0: e876 c1bd 2159 26bd 7f34 a73c acaa 833d
00000100: 139a de3d 60ec 32be 9127 e13d d055 d83d
00000110: 1e83 aa3d cf0c 11be 4ef2 81be 616a cfbd
00000120: c11e 033e ee63 e7bd 6860 423e 2b7e 733e
00000130: c403 4dbe 31c2 bf3d ffd2 ae3d 1f48 983d
00000140: e876 b9bc ccd2 c83d c565 22be 2473 c3bd
00000150: 3979 173e 5156 463e fca4 a03d 2952 a2bd
00000160: 5d59 033e ed64 ddbc 308e 53bd 0124 97bd
00000170: dc01 473e 1bf0 3f3e d636 75be 1d7a 203e
00000180: cde9 3d3d ae1f a33d 2fac 863d 39a5 003e
00000190: 21ff 483d e037 9a3c ed26 cbbc 1936 50bc
000001a0: 9a57 02be 5461 e9bb f3ce 4c3e 8339 10be
000001b0: 700f 7bbe 894a 13bd d5ce 39be 8b34 b13d
000001c0: 09b1 4f3d dedf 123e dcc7 003e 0573 09bd
000001d0: dcc0 3d3d e1a9 c93d 69e8 68be c1cc 9ebd
000001e0: a26a 53bd 48f3 debd 29ec 16be 8775 5e3e
000001f0: 9a07 2c3d f71c 7b3e 0e67 b33d 69fc 6ebe
00000200: 0c4e 54be 3803 c1bb b3c3 92bd 4b0b 433e
00000210: cdc3 20be 6a73 30be 4caf f8bd bd3f b5bd
00000220: 124e 333e d01a f83d 110d 423d 2678 b03d
00000230: 4775 a13d e807 e8bd cc7f 103e 15b7 0a3e
00000240: 356e 133e 4ee3 cd3d 1fc4 2d3e 8a92 443e
00000250: 05d8 0fbe 5ea0 5e3c 5e24 643e 81d7 09bb
00000260: 2e73 f13c 3897 0b3d 0126 5bbe 3e21 4a3e
00000270: 60ef a63c 8f39 27be c499 6cbe 0476 cf3c
00000280: dacd 123e 7354 b13c 5cf3 18be 5c4c 6fbd
00000290: c7b8 9c3e 77db 57be 571c 093e 9ead ec3c
000002a0: b940 98be 87cb 71bd 794b a9be 6250 8ebc
000002b0: a014 5c3e ce79 a2bd 37bf 803d 821c 80be
000002c0: db7b 013e 0cea afbd 244e 7fbd e2f0 da3d
000002d0: 110a 293e 4564 64bd 9993 c33d bce7 3d3e
000002e0: b8ec 293c 8f9e c7bd 0999 ffbd 6c79 7ebe
000002f0: 93c4 20be 21ab 3bbc 55d3 59bd 064b ec3d
00000300: 8864 0e3d 1f1d 29be 59b5 9e3c 457e 59be
00000310: ae33 b53d 3886 a1be fcc0 c8bd 7102 94be
00000320: 9893 b2be b7ab 43be a69a adbb 2c09 d73d
00000330: 8d03 f8bc d13d ed3b 9e6f 7c3d 71a9 103d
00000340: 8a25 acbd 5933 7bbe 1709 3f3e c7b6 0d3e
00000350: cfaa 203e 8b95 fa3d e7f1 2fbe c910 3f3e
00000360: 9974 87bc 633d 5f3d 0211 3cbe e53c 99bc
00000370: d72b 0ebe 7db4 22bd 501f a3bd 3be6 3fbe
00000380: f85e 323d cf2d 1d3d 07cd 743d 1d06 64be
00000390: a0d9 3fbe 3220 b8bd 800c 063d 8a01 1d3e
000003a0: 4342 0f3e b221 2a3d 1671 d03d 1b8d 61be
000003b0: 7160 e1bd 5f9b cd3d 21d1 12be 0be5 0d3d
000003c0: a46b fbbb 9ae2 a03c eac0 f6bd 01b1 4c3e
000003d0: ed53 08be 40d3 843e 29f7 0d3c 0e77 99bc
000003e0: 5ef1 ebbd e7d8 88bd 1543 783d c0f0 fa3d
000003f0: 4ca0 d8bc 9aef 88be cf84 8f3e f22c c4bd
0.13451335 0.18607691 0.05327621 0.048116174 0.036762804 -0.13320503 0.071975484 -0.21725906
-0.04631316 -0.12299686 -0.04594168 0.047873516 0.052701183 -0.15442418 -0.011007925 -0.12218901
-0.24330285 -0.021579858 -0.1998558 -0.19609663 -0.21186565 0.11281784 0.1251634 0.06886431
0.14399034 -0.1565368 0.03556963 0.011562319 0.10036708 0.009362804 -0.054723714 -0.046396386
-0.2136544 0.0741837 -0.14976573 -0.12888132 0.1356394 -0.15297797 -0.055967633 0.09897624
0.043243647 -0.09047418 -0.22425081 0.1083858 0.076763965 0.12224428 -0.014584228 0.0019667344
-0.07395814 -0.03743491 -0.15284431 0.024910195 0.09096789 0.046629854 -0.002052209 -0.15243863
0.16897662 -0.098820925 0.03924699 -0.11402048 -0.09446508 -0.040612344 0.020410774 0.064290375
0.10869231 -0.17472982 0.10993875 0.105632424 0.0832579 -0.14165042 -0.25380176 -0.10127712
0.128047 -0.11298357 0.18982089 0.23778598 -0.20020968 0.09363211 0.08536338 0.07435631
-0.022639707 0.09805831 -0.15859134 -0.09543446 0.14792337 0.19368865 0.07843968 -0.07925827
0.12827058 -0.027025664 -0.051649272 -0.07379914 0.19434303 0.18743937 -0.239467 0.15671583
0.046365548 0.07965027 0.0657581 0.12563027 0.049071435 0.018825471 -0.024798835 -0.01270821
-0.1272873 -0.007122198 0.2000082 -0.14084439 -0.24517608 -0.035959754 -0.18145306 0.086526
0.050705943 0.14343211 0.1257624 -0.033556957 0.046326503 0.09846855 -0.22744907 -0.077538975
-0.051615365 -0.10886246 -0.14738525 0.2172452 0.041999437 0.24522768 0.087598905 -0.23338474
-0.20732898 -0.0058902763 -0.07166233 0.19047277 -0.15699692 -0.17231527 -0.1214281 -0.08850048
0.1751025 0.12114489 0.047375742 0.086166665 0.07883697 -0.11329633 0.1411125 0.13546403
0.1439751 0.100531206 0.16969346 0.19196525 -0.14047249 0.013588039 0.22279498 -0.0021032991
0.029473867 0.03407976 -0.21401216 0.19739243 0.020377815 -0.1633055 -0.23105532 0.025324829
0.14336339 0.021646714 -0.14936584 -0.05842243 0.30609724 -0.21079813 0.13389717 0.02889138
-0.2973688 -0.05903199 -0.33065394 -0.017372314 0.21492243 -0.07933389 0.06286471 -0.2502175
0.12644903 -0.08589563 -0.06233038 0.10690476 0.16507746 -0.055759687 0.095496364 0.18545431
0.01037138 -0.097470395 -0.12480361 -0.24851006 -0.15699987 -0.0114543745 -0.053180058 0.11537747
0.034763843 -0.16515015 0.019373583 -0.21239574 0.08847748 -0.31547713 -0.09802434 -0.28908113
-0.3487823 -0.19108473 -0.0052979765 0.10499796 -0.03027513 0.007240035 0.061629884 0.035317842
-0.084055975 -0.24531306 0.18655811 0.13839255 0.15690158 0.12235554 -0.17182122 0.18658747
-0.01653509 0.054501902 -0.18365863 -0.018705795 -0.13883911 -0.03972291 -0.07964957 -0.1874017
0.0435476 0.038373765 0.05976584 -0.22267957 -0.18735361 -0.08990516 0.032726765 0.15332618
0.1399012 0.04153604 0.101778194 -0.22026484 -0.11004723 0.100394 -0.14337589 0.03464226
-0.007672744 0.019639302 -0.12048514 0.19989397 -0.13313265 0.2594242 0.008664885 -0.018733528
-0.115206465 -0.06681996 0.06061085 0.12252951 -0.026443623 -0.267453 0.28031012 -0.09578885

recurs1.bias_ih f4 [120]
00000000: 536f dc3c 469a 92bd c754 c93d ce2c 893e
00000010: 0e51 5a3e 1e56 933e f722 3d3e dd4e 843e
00000020: 8015 513e 31fd 413e 1463 ad3d eefa 1d3e
00000030: c52e 413e a32a a03e 0a1f 803e d3b9 413e
00000040: a723 533e f358 923d c40d 863e 905d 183e
00000050: 3cad 473e c33a df3d 5480 6abc d78d 593e
00000060: 62a9 643e 81de 773e 5f44 133e 2a68 ee3d
00000070: b23d 693e 8007 e63d 3d5a 473e 6e99 cc3d
00000080: cfb8 363e a8a0 353e 2c7b 0dbe 7cef c73d
00000090: d638 2a3e 07cc 00be 4ba6 debb 0a57 9cbd
000000a0: f2f6 2bbd a587 37bc 0f46 1f3e ec3c 93ba
000000b0: c3dc b9bd bacb ad3d 5846 083e 95cd 84bd
000000c0: 6217 333e 258e 443e 154c a5bc 2bb3 bcbc
000000d0: 2ce3 213c 22c6 0c3d 4579 e13c b830 28bd
000000e0: 4504 9fbd 32a3 b73d cd2a 7cbd 6762 b6bd
000000f0: 3ac3 943e 90f1 bc3c 4792 153e fede a03e
00000100: 54ea 82bd 328e dd3d b5b9 fe3c e7b7 2bbe
00000110: a938 12be 0007 66bc 908c 8a3c 45ee eb3d
00000120: f4c7 a93d b10b 1dbe b470 923d f954 103e
00000130: 8a9c 00be 4db5 e0bd 74ce 1ebe 41f5 603d
00000140: 1ca9 5abe 77d9 60bd b8b2 353e 88b2 14be
00000150: cca2 883e b960 1dbe 7770 8b3d b886 a138
00000160: 8a7d c5bc f10d b03d d430 a73e 454a 2fbd
00000170: a53e 7d3e 589c 243e 18ab 103e 8bc1 3a3d
00000180: f3f7 533e adb5 593e 779c 0b3c 69f8 4dbd
00000190: e7d8 cabd fc99 1a3e 78b0 763d 5a8b 6c3d
000001a0: a554 9f3e 81cd e73d abcf 2f3b a477 183e
000001b0: dd21 583c 54ff 343d b8ca 043e ee06 1c3e
000001c0: 3fdd 49bd 43df aa3e cda7 833e 5ac0 84bd
000001d0: 2625 0a3e ff9d df3d 9a3d 7fbd bfa8 0a3d
0.026908552 -0.071583316 0.09830623 0.26791996 0.21319982 0.2877664 0.1847037 0.25841418
0.20418358 0.18944241 0.08466163 0.15427753 0.18865497 0.3128253 0.2502368 0.18918543
0.20619069 0.07145872 0.26182377 0.14879441 0.19499677 0.1089988 -0.014312822 0.21245514
0.2233024 0.24205972 0.1438155 0.116409615 0.22777441 0.11231899 0.19468017 0.09990202
0.17843936 0.17737067 -0.13816518 0.09762475 0.16623244 -0.1257783 -0.006794726 -0.07633789
-0.041983552 -0.011201774 0.15554069 -0.0011233366 -0.0907531 0.084861234 0.13308084 -0.06484524
0.17489389 0.19194849 -0.02017788 -0.023034653 0.009880822 0.03436864 0.027523646 -0.041062087
-0.07764486 0.08966674 -0.061564256 -0.089054875 0.29055196 0.023064405 0.14606582 0.3142013
-0.06392351 0.10818137 0.031094411 -0.16769372 -0.14279427 -0.014039755 0.016912729 0.11520056
0.08290091 -0.15336491 0.07150403 0.14094914 -0.12559715 -0.109720804 -0.15508443 0.054921392
-0.21353573 -0.05489489 0.17743957 -0.1452123 0.26686704 -0.15368928 0.0680856 7.7021716e-05
-0.024107713 0.08596409 0.3265444 -0.04279544 0.24730928 0.16075265 0.14127767 0.045594733
0.20700054 0.2126071 0.008521191 -0.05028573 -0.09904652 0.15097803 0.060226887 0.057750084
0.31119266 0.11318494 0.002682666 0.1488939 0.013191667 0.044188812 0.12967956 0.15237018
-0.049283262 0.3337346 0.2571396 -0.06482001 0.13490734 0.10918807 -0.062314607 0.033852335

recurs1.bias_hh f4 [120]
00000000: fc83 1c3d 01b0 2c3e 4e59 2d3e cbbd 523e
00000010: e6bb a03d 4cff c73e 5c47 833e b6e4 5abd
00000020: 8c3c 203e fc45 623e 2aa9 f93d 4169 c83d
00000030: a223 6239 de44 723d 38f1 9a3e 32d1 7a3d
00000040: 8370 863e e5a3 853d 632f 0e3e 4458 a4bd
00000050: bf07 0cbb ce33 953e c3e1 eebc 6558 893e
00000060: 97e8 96bb 5f25 f83d ad64 bdbd 01bf c3bd
00000070: eeef 84bd ccdf e43d 16f5 6e3d 5e9f 02be
00000080: b87d d23d e2e4 203e 75aa 233e 2b21 283e
00000090: b362 ee3d 8608 52bd 10a0 02bc 8f57 493e
000000a0: ec4f be3d b2d2 b1bd bb6b 483e d184 dcbd
000000b0: 7b1c 743e 681a b53d 097a d3bd 16fe 38be
000000c0: 3c3f 253e c5dd 6c3e 026f 133d f4b6 cfbd
000000d0: 1e48 a73d 562c 1c3e bea4 4b3d 3f06 403e
000000e0: c0fd 133e 343c 343d 6c17 b33d 869f 30be
000000f0: 120f 353d 4787 633c 200a 833d b69f fb3d
00000100: c8c4 fb3c c1d7 0b3e be23 9dbe b521 7e3c
00000110: fbbb d2bd 17a2 29be 303f 113d 91af b13c
00000120: f864 e1bd 5b7d 7abe 1f10 573e fb58 0abe
00000130: 0d75 123b 2e32 243e 7bee 1bbd 730c 32be
00000140: f30c 64be 2989 833d 7383 19bd 3fe5 b7bc
00000150: 48f4 343e 4fe8 f5bd 88e8 263e f9e3 42bd
00000160: ac6c bdbd 3c08 18be 9f51 683e 11b9 2abd
00000170: 7db1 3b3e 2620 b63d be51 8a3e 3783 ab3d
00000180: a8d2 803d 3765 673d 2008 5c3d 7372 403e
00000190: b834 5e3c 4e1b 3c3e 39e5 5f3e 4861 623e
000001a0: 4d82 dc3d dace 843e d9cb b33c 057e 4abd
000001b0: 37a8 c43d dc1d 0ebd 8a9b ddbd fc66 203e
000001c0: d195 6d3e 515d b43d d37e fc3d 28c2 94bd
000001d0: 9fc5 b23d 2592 b03d ed90 263d 0e26 9a3e
0.038211808 0.16864015 0.16928598 0.20580213 0.07848339 0.39061964 0.2564038 -0.053440772
0.15648097 0.2209701 0.121904686 0.097857006 0.00021566314 0.059147708 0.3026216 0.06123466
0.26257715 0.06525401 0.13885264 -0.08024648 -0.0021366922 0.29141086 -0.029160386 0.26825252
-0.0046053636 0.12116503 -0.09247718 -0.095579155 -0.064910755 0.11175498 0.0583392 -0.12756106
0.10277885 0.15712312 0.15982993 0.16418903 0.11639919 -0.05127766 -0.007972732 0.19662307
0.09292588 -0.08682765 0.19572346 -0.1076752 0.2383899 0.08842927 -0.10326011 -0.18065676
0.16137403 0.23131473 0.035994537 -0.101423174 0.08168052 0.15251288 0.049717657 0.18752383
0.14452267 0.044002727 0.08744702 -0.17248353 0.044203825 0.013887233 0.063984156 0.12286322
0.030733481 0.13656522 -0.30691332 0.015510966 -0.10289761 -0.16565739 0.03546065 0.021690162
-0.110055864 -0.24461882 0.21002243 -0.13510506 0.00223476 0.16034767 -0.03806923 -0.17387562
-0.22270565 0.064226456 -0.037478875 -0.02244818 0.17671311 -0.120072 0.16299641 -0.047580693
-0.09249243 -0.14846891 0.22687386 -0.0416804 0.18329425 0.088928506 0.2701549 0.083746366
0.062901795 0.05649301 0.053718686 0.18793659 0.013562374 0.18369791 0.21864785 0.22107422
0.107670404 0.25939065 0.021947788 -0.049436588 0.09602397 -0.034696445 -0.10820682 0.15664285
0.23201682 0.08806861 0.12328877 -0.07263595 0.087290995 0.08621625 0.040665556 0.30107158

recurs2.weight_ih f4 [120, 30]
00000000: 12de f63a 507d 2b3d 2e6c 82bd 2782 9a3e
00000010: 1035 723d 0c6e 873e a691 3d3d 2553 0fbd
00000020: 1549 82be 02df 22be f0b6 dd3d d04f b9bd
00000030: 88b8 9f3d 467a c5bd fbcd f43d 6932 54be
00000040: 20e4 db3d 7b5a 79bd fb20 5ebe 0d3d 74bd
00000050: d29b 35be f186 debd 3646 0b3e 90e5 23be
00000060: 03c2 b33e 9ac5 7a3c 04d1 763e b15d ad3d
00000070: b09d 84be 24a6 1ebe e803 aebd 0d0d 5dbd
00000080: cb45 81bd 2a79 633e de67 3c3d 6f4f 223e
00000090: a019 14be 2229 8a3d 5001 d7bd 3a79 fbbd
000000a0: 2c2d 123e cdbc 253e 420c 3fbe 177f 8b3d
000000b0: 5e67 d03d d220 5e3d 31d9 77be 52dd c5b9
000000c0: 9e50 26be 5a6c 31be 2a9e 3abe 7668 613c
000000d0: ab56 613c 405e 4dbe 16d6 693e 40b9 3dbc
000000e0: 839f a7bd 9775 713b 3dc4 b93b ae60 81bc
000000f0: 6ebf 0b3e 5c48 3b3d 4708 343e 2bf2 1ebc
00000100: f4bf 11be 3f54 413e 754d 2ebe c741 823c
00000110: 6c8a 963d 1bb2 89be 436b ffbc cc86 613e
00000120: 1c49 073c b299 86bd 6285 2d3e 3761 db3d
00000130: 1d64 1bbe be73 323d 07b5 be3d 0e2f b2bd
00000140: f502 8dbe 4183 9a3d 2ee7 233d 7d5c 1cbe
00000150: 9e63 4e3e f45b 1abd 046b 46bc 2911 f7bd
00000160: 8465 b5bd 4d4e 99bd a497 8a3d c743 86bd
00000170: 992e 613e e200 423e 273e 2bbd 00fe d73d
00000180: 8976 40bd 1a06 553d 643d 73bd b741 7fbd
00000190: 1079 48bd 07a5 e43d ff50 39be 548f 88bd
000001a0: a5df 013b f450 debd fc39 223d 3376 16be
000001b0: 86d2 8a3d 9a77 40be 4962 3d3d 36ec 4f3d
000001c0: c704 2fbc 6c08 cb3c 178c 4ebd 1c83 51be
000001d0: 6dbf 1dbb 17bd 74bb 4753 02bd 87c4 4ebe
000001e0: 23d9 8f3e de3a a73d 1885 bfbd a8bf cb3d
000001f0: dd60 2dbe c7b7 113e 9ff1 a2bc a2c8 12be
00000200: 37e0 a5bd 39bd e23d 64b1 1bbd 3e22 cc3c
00000210: 24cf 05be a51f 72be 1841 8c3d c352 3abd
00000220: ccb3 00be 5e64 24bd 2101 973d 5401 29bb
00000230: 303d 63be e37d f73d dd62 fcbc 0832 b0bd
00000240: abbb 403e 194a 3d3d d9bb 943e a0ed 303e
00000250: 6290 31be 383c 02bd 6efb 29bb b1a8 563d
00000260: 3ce1 633e 6576 4d3e beac 68be f71e 1fbc
00000270: 7580 6fbe 3f33 0e3b 4f5f f5bd c509 5abe
00000280: d2ae 33bc 6639 df3d 6783 45bd a27c 323d
00000290: 7a4e 1a3e f5ad b0bb d68a a9bd a8da 7cbd
000002a0: b93b 9fbd 2d7b 843d 1672 52bd 7aab f6bd
000002b0: d7f2 d3bd 8eb8 82be 8642 483d 171d 99bd
000002c0: 8fca 8f3e 030f 1cbd 61bd f13c 34b9 5d3d
000002d0: 0c62 f8bb 412c 88bd e8c9 4a3d 8536 2a3e
000002e0: 894f 5abe 9b72 c43d aa70 91be 29f7 dbbd
000002f0: 84a3 8dbd 8dfe e13c 139f 5e3d d5ee 243e
00000300: 3dba 32be 2378 50bc 1a15 24be 8536 80be
00000310: dc0f b5bd 814a b0be 18b9 123b 7544 23be
00000320: dafc 96be 2a27 ffbc 7ebf 00bd 41e3 483d
00000330: c25c 583e c4ee 18be db4c 643e 8199 903d
00000340: 1eee 6ebe 1832 afbd 86a7 6d3e 1712 183d
00000350: 2d5f c63c 8676 023e 5966 a0bd 64ce 033e
00000360: 53c0 8bbe 8817 243d dfe9 c1bc 779d 7c3c
00000370: 31a3 f13d 67a5 96bd 8a52 02be c38d 12be
00000380: 0135 933d e950 2dbe d860 2d3d a8e7 efbd
00000390: 1af2 c43c 0094 8bbe d5b9 fcbd 382e 9d3d
000003a0: 4987 36bd 49c7 623b 99c1 5d3e d504 27bd
000003b0: 0cf7 183e 493c b83d 2e3c 4bbe fa8d a93d
000003c0: e239 aa3d a713 183e e480 1d3d b306 553d
000003d0: 2f0c 343d 0e32 673e aa78 e53d c6e2 46be
000003e0: ba77 49bd fe66 00be 6c27 173e 786e 253e
000003f0: 6d3f 2bbe 7895 d6bd 4bc4 1f3e 84fc ea3d
0.0018834493 0.041867554 -0.0636829 0.30177423 0.059132636 0.26451147 0.04628148 -0.034991402
-0.25446382 -0.15905383 0.10825908 -0.09048426 0.077988684 -0.096424624 0.1195335 -0.20722355
0.10736871 -0.060877305 -0.21692269 -0.059628535 -0.17735222 -0.10865582 0.13601002 -0.1600554
0.35108957 0.015305901 0.2410317 0.08465136 -0.25901556 -0.15493065 -0.08496839 -0.053967524
-0.0631214 0.22214189 0.045997493 0.15850614 -0.144629 0.06746127 -0.10498297 -0.122789815
0.14275044 0.16185303 -0.1865702 0.0681135 0.10175966 0.05423052 -0.24203946 -0.00037739665
-0.1624169 -0.17326489 -0.18224397 0.013757816 0.013753573 -0.20055485 0.22835574 -0.011579812
-0.08184721 0.003684377 0.0056691454 -0.01579317 0.13647243 0.045723304 0.17581283 -0.009701292
-0.1423338 0.18879794 -0.17021735 0.015900506 0.073506206 -0.26893696 -0.031179076 0.22024077
0.008257177 -0.06572284 0.16945413 0.10711902 -0.15174909 0.04356741 0.09311872 -0.08700381
-0.2754132 0.07544566 0.040015392 -0.15269656 0.20155188 -0.03768535 -0.012110475 -0.1206382
-0.08857253 -0.07485638 0.067672044 -0.06555896 0.21990432 0.1894565 -0.04180732 0.105464935
-0.046988044 0.052007772 -0.05938472 -0.06231853 -0.04894358 0.11164289 -0.18097304 -0.06667963
0.001981714 -0.10855284 0.03960608 -0.14693527 0.067784354 -0.18795624 0.04623631 0.050762378
-0.010682291 0.02478429 -0.05042657 -0.2046017 -0.0024070397 -0.0037344152 -0.0318177 -0.20192157
0.2809535 0.08165525 -0.093515575 0.09948665 -0.16931482 0.14230262 -0.019890605 -0.14334348
-0.08099406 0.110712476 -0.03801097 0.024918672 -0.13067299 -0.23644884 0.06848353 -0.045489084
-0.12568587 -0.04013478 0.07373262 -0.0025788145 -0.2219131 0.12084558 -0.03080886 -0.08603293
0.1882159 0.046213243 0.29049566 0.17278147 -0.17340234 -0.03179571 -0.0025937217 0.05240697
0.22253889 0.20064695 -0.22722146 -0.009711972 -0.23388846 0.0021698026 -0.11981069 -0.2129279
-0.010966973 0.1089962 -0.04822102 0.04357589 0.15068999 -0.005391831 -0.08278434 -0.061731964
-0.07775063 0.064688064 -0.051378332 -0.12044425 -0.103490524 -0.2553143 0.048891567 -0.074762516
0.28084227 -0.038100254 0.029509248 0.0541317 -0.0075800475 -0.06649066 0.04950896 0.1662236
-0.21319403 0.09592172 -0.28406268 -0.107405014 -0.06915954 0.0275872 0.054350924 0.16106732
-0.17453857 -0.012723955 -0.16023675 -0.25041595 -0.088409156 -0.34431842 0.0022388157 -0.15944083
-0.29489785 -0.031146605 -0.03143262 0.04904485 0.21129134 -0.14934832 0.22294943 0.070605285
-0.23333022 -0.085544765 0.23208436 0.037126627 0.024215305 0.12740526 -0.07832021 0.128717
-0.2729517 0.040061504 -0.023671089 0.015418402 0.117987044 -0.07355767 -0.12726799 -0.1431189
0.07187844 -0.16925396 0.042328686 -0.11714107 0.024041224 -0.27261353 -0.12340132 0.07674831
-0.04456261 0.0034603646 0.21655883 -0.040776093 0.14937991 0.089958735 -0.19847175 0.08279033
0.083118215 0.14851247 0.038452998 0.052008342 0.04395693 0.22577688 0.112046555 -0.19422445
-0.049186446 -0.12539288 0.14761132 0.16155422 -0.16723414 -0.10477728 0.15602224 0.11473945

recurs2.weight_hh f4 [120, 30]
00000000: 9071 a73c 35b3 b33d 168c 433e c760 24be
00000010: 482d ca3c 1955 e8bd 4d2d 153e b7e2 8ebd
00000020: 7f87 453d a2af da3d 957c 86bc eb47 6d3d
00000030: 7354 d9bc 35c9 013d 6f72 bb3b 40f1 c63a
00000040: 1339 193e 9ad6 da3d 1d1c febd 80da 27be
00000050: b967 1ebd ccc9 24be 5b2f b8bd f277 96bd
00000060: f8be 50bc 593d 85bd 580e 043c 91b7 aebd
00000070: c231 0ebe 38b5 2c3e d440 1cbd 10ef fcbd
00000080: 74d8 3fbe 0615 9d3c e41c 9fbd 7258 84bc
00000090: 32a6 03bd 947e 843b 4da3 abbc 53f6 123e
000000a0: 68c4 1dbe fcf0 b1bc b255 08bd bfd8 58bd
000000b0: 8620 0d3e 5358 e33d 3324 773e 2728 babd
000000c0: f59a 6abd 934c 193d 4597 e43d 047c 3bbe
000000d0: 9155 03be 3d51 1cbe 1a01 50bd 4d8b f8bd
000000e0: 8ea1 14be 4c7d e2bc 4257 45bd 8d7b 9d3d
000000f0: 7f8b 14be 97b6 cdbd eb4c 393e 2e91 7fbd
00000100: aa8b 033e 4d8c 1fbe 006b 19bc 02b7 7d3d
00000110: 8bb7 273d 2bec 42be 78a7 f33d d597 4bbc
00000120: ccc8 2ebc 0ffd 503c a13c 503e 2d61 593c
00000130: 4ea9 0c3e 5671 90bb 406c 123e a655 a03d
00000140: 7cf7 053e 4fa1 42bc 7fa0 54be 1eae 313d
00000150: c256 2fbe 7265 82be 02cb fb3a 169a 0a3d
00000160: ee75 2ebe d71e 713e 1e42 d7bc 21f7 1fbc
00000170: 613f 503e 06d0 b13d 1c13 febd e535 f2bc
00000180: 7a36 cbbd 00de dabd 62a9 213d 3254 2f3d
00000190: d313 19be 249f 64bd cbf7 57be 3c00 9abd
000001a0: dc0a fd3d aebf 8bba ecc4 2b3e bb3b 103e
000001b0: 1490 e13d 9691 a53c 71aa 3bbd 68a7 4ebd
000001c0: cb1d 3abe e017 adbd e853 8e3d d035 4bbd
000001d0: 4621 cd3c 99a8 403e 3361 c83d a621 7e3d
000001e0: af76 fa3d 1664 1c3e 6e22 99bd e84f cf3c
000001f0: 2709 dc3d 4839 993d 0fa0 6e3e 50ba 0ebe
00000200: af40 c43c 62fb 3c3e 4233 20be 8f34 a7bd
00000210: 4473 d43d ed11 053e 7524 663e 0f4b abbc
00000220: e4fe 1c3e 213d 02be e2fa 1cbe d938 b13c
00000230: 4d1e c6bd 1474 403b f47f d3bd d326 e93d
00000240: bc8f 70bd 34d4 f23b ad08 e13c e6e3 563e
00000250: 3995 82bc b2ea 3d3e 3939 29be 2513 78bd
00000260: 5091 353e d329 033e 7dcb 7dbd 0cdc 1b3e
00000270: 2da3 de3d 90ca febd 7624 993d 92a7 2f3e
00000280: 89cd f7bd 53e8 143e 0c71 debd 8e31 05be
00000290: f658 99bc a5ef 89bd 27d9 5c3e 4227 ca3d
000002a0: f1ba cf3d b960 b23d 5fde a23d 9ef5 e6bd
000002b0: 6d8d 3fbe 8595 eebd 0fab bdbd 6ec9 de3d
000002c0: e01d b5bd 2f8c 9c3a 84dd 0d3d 9225 7b3e
000002d0: 22ac f4bc 8647 2b3e 06fc babd 208c 29be
000002e0: 1926 9cbd d96b c03d ba49 de3d 41eb 083e
000002f0: 7db6 823e e000 61bd 4e49 6bbc aea2 303e
00000300: b90f 0bbe 9138 f33d cd43 3abd cf03 f43d
00000310: 7252 543e 1933 003e 5468 52bc 9c3b 9ebd
00000320: c529 96bd d31d 923d 29d3 0ebb 431d 92bd
00000330: ef20 38bd 4a79 943d 07fe babd cd03 3cbe
00000340: c253 cdbc ee53 163e 77a1 1cbd e81b 86bb
00000350: 8f94 813d 92d5 9abc bead 2e3e 3ee8 d8bd
00000360: d5c5 723e 2cd4 7cbc a6bc 083e 1760 a73d
00000370: 4065 3bbe 1601 133e a4f8 96bd 294f 8abd
00000380: 4cfb 2f3e 9575 333d ff1c 47bd f091 64bd
00000390: 07b9 d83d bd21 3dbe c4df 303d 8b80 96bb
000003a0: 8eab 32be 2fee 453c e6a7 27be 45de 8abd
000003b0: 1844 35bd 6ba4 023e 1d03 5bbd feb0 70bd
000003c0: d37a 02bd 9fd0 3c3e 80fc 91bd a128 1a3e
000003d0: e52c e73d e9d3 f3bc ff5a 733c 72e5 163e
000003e0: 4eba 2a3c 0938 833d f906 18bd 2274 873c
000003f0: 1aec 1cbe 0794 bebd 5a30 7c3e f8a0 de3d
0.020439893 0.087744154 0.19096407 -0.16052543 0.024679795 -0.11344356 0.14568062 -0.06976836
0.048224922 0.106780306 -0.016416827 0.057929914 -0.026529526 0.031686027 0.0057204287 0.0015178099
0.14963178 0.10685463 -0.12407706 -0.16391945 -0.038673136 -0.16092604 -0.08993407 -0.073470965
-0.012740843 -0.06505842 0.00806006 -0.08531106 -0.13886169 0.16866004 -0.038147762 -0.12350285
-0.18734914 0.019175064 -0.07769182 -0.016155455 -0.032140918 0.0040434096 -0.020951891 0.14351778
-0.15406954 -0.021721356 -0.03328485 -0.05294108 0.13781938 0.11100831 0.24134903 -0.0908969
-0.057276685 0.037426542 0.11161665 -0.18309027 -0.1282561 -0.15265365 -0.0507823 -0.121359445
-0.14514753 -0.027647637 -0.04817892 0.07689581 -0.14506339 -0.10044592 0.18095748 -0.062394314
0.12846246 -0.15580864 -0.00936389 0.061942108 0.040946525 -0.19035403 0.118971765 -0.012426336
-0.010667991 0.012755646 0.20335628 0.013267797 0.1373646 -0.004408042 0.14299107 0.07828836
0.13082689 -0.011879279 -0.2076435 0.04337894 -0.17122939 -0.25468022 0.0019210281 0.033838354
-0.17037174 0.2354692 -0.026276644 -0.00976351 0.20336677 0.086822554 -0.124059886 -0.029566715
-0.099225 -0.106868744 0.039468177 0.042804904 -0.14948969 -0.05581583 -0.2109062 -0.07519576
0.12355587 -0.0010661983 0.16774338 0.14085285 0.11013809 0.020211022 -0.045816842 -0.05045262
-0.18175428 -0.084518194 0.069495976 -0.049611866 0.02504028 0.18814315 0.09784164 0.06204381
0.12229668 0.15272555 -0.0747727 0.025306657 0.10743933 0.07481629 0.23303245 -0.1393826
0.023956625 0.1845527 -0.15644553 -0.08164322 0.10373548 0.1299512 0.22474845 -0.020909814
0.15331608 -0.12718631 -0.15330079 0.021633552 -0.09673748 0.0029366063 -0.103271395 0.11384358
-0.058730826 0.0074105505 0.027469957 0.20985374 -0.015940296 0.1854656 -0.16525735 -0.060565133
0.17731214 0.12808923 -0.06196164 0.1522066 0.10870967 -0.124409795 0.074776575 0.17153767
-0.120997496 0.1454175 -0.10861406 -0.13007185 -0.018719178 -0.06735162 0.21567212 0.09870769
0.10143078 0.08709855 0.0795257 -0.112773165 -0.18706293 -0.11649612 -0.092611425 0.108782634
-0.08843589 0.0011943633 0.034635082 0.2452605 -0.029867236 0.16726503 -0.09130101 -0.1655736
-0.07624454 0.0939557 0.10853906 0.13370992 0.25529853 -0.054932475 -0.014360739 0.17249557
-0.13580216 0.118760236 -0.045474816 0.11914789 0.20734575 0.12519492 -0.012842257 -0.07726213
-0.07332186 0.07134595 -0.0021793342 -0.071344875 -0.044953283 0.072496966 -0.09130483 -0.18360825
-0.025064353 0.14680454 -0.038239922 -0.004092682 0.063271634 -0.018900666 0.17058465 -0.10591172
0.2370828 -0.015431445 0.13353214 0.081726246 -0.18300343 0.14355883 -0.07371643 -0.0675338
0.17185706 0.043813307 -0.048611637 -0.05580324 0.10582166 -0.18469901 0.04318215 -0.0045929602
-0.17448255 0.012080713 -0.16372642 -0.06780676 -0.044254392 0.12758033 -0.053469766 -0.058762543
-0.031855416 0.18438958 -0.07128239 0.15054561 0.1128786 -0.029764133 0.014853238 0.14735964
0.010420395 0.06407172 -0.037116025 0.016534869 -0.1532444 -0.09305578 0.2462782 0.10870546

recurs2.bias_ih f4 [120]
00000000: b86b b13e d581 873e 5a97 cd3b 255e 143e
00000010: 3dfc 4d3c 4af4 7e3d bf9f ee3d aaa8 a03e
00000020: d131 033e ddbd b63e 93a0 38bd 25ef 033e
00000030: 9fae 203e 9de2 8a3d df0e 033e 1c78 393e
00000040: 7eec 923e 297c 023e 9be5 223e ee1e 913e
00000050: 915d 893d ad34 883e 58ec 923e c85a 1d3d
00000060: c90c 363e 7536 ad3d e7a6 a33e 3f87 ed3d
00000070: fbb2 fd3d 0a73 8d3e 5f45 d23d 3389 183e
00000080: 1414 0bbb 3df5 84bc 2c0b ff3d cdc5 983e
00000090: efc5 543e f641 3a3d 7470 983e e9e9 02bd
000000a0: 64cf 843e 232e c43c 3343 063c 3836 d03d
000000b0: de85 643e dddc 7e3e 2e29 c23d 1667 0d3e
000000c0: b8cb 213e 4dcb a23d 2473 bc3d c374 913e
000000d0: 2264 5d3c baa3 333e ee38 16bd e36e 22bd
000000e0: ab4f f83d a270 8f3c 7340 d7bd 7c30 8b3d
000000f0: 6d51 04bd 06ca fc3d 4788 3f3e b9ba 1bbd
00000100: 8c53 d93d 8cee 203e 512e d03d e8bf eabd
00000110: 841e 9bbd 950f d03c 0da8 cbbc 8630 ec3c
00000120: 32d4 41be 6636 0b3e 0b29 a33e e8aa 9c3d
00000130: 7bb9 063d 4221 ed3c b4c9 dabd 4c1b 1bbe
00000140: 4e51 3a3e bc90 d23d 76c3 ce3c f836 06be
00000150: 441d 97bb a6ac 06be ae6b 073d e98b 3c3e
00000160: 7502 453e f6b3 a33e caa1 553e 8f77 933e
00000170: 8d89 d93d b354 0c3e 5f0c aebc f14b 493e
00000180: 8808 523e c94a 5b3e 7fd0 6b3e 7024 8e3e
00000190: 4d05 05bd 690f a73d 41bb 15bd 7f0b 893e
000001a0: ec9c cf3d 70d6 a9bc db60 7c3e 5bda 6b3b
000001b0: b4d2 143e 6c8a 7e3e 3e15 6b3e 6e9d 673e
000001c0: f398 e73d 3643 9e3d 539b 043e b989 acbd
000001d0: 8e48 ac3d 063f 583e 2d19 5b3e 4dce 8ebd
0.34652495 0.2646624 0.006274146 0.14489038 0.012572345 0.06224469 0.11651563 0.3137868
0.12811972 0.3569173 -0.04507501 0.12884195 0.15691613 0.06781504 0.12798642 0.18112224
0.28696054 0.12742676 0.159079 0.2834391 0.067072995 0.26602688 0.2869594 0.038416654
0.17778315 0.084576525 0.31963274 0.11598062 0.123876534 0.2762683 0.10267138 0.14896087
-0.0021221684 -0.01623022 0.12453303 0.2983841 0.2077863 0.04547306 0.29773295 -0.031961355
0.25939476 0.023947781 0.0081947325 0.101665914 0.22316691 0.2488894 0.09480511 0.13808855
0.15800369 0.07948933 0.09201649 0.28409395 0.013512643 0.17542925 -0.036675386 -0.03965653
0.121245705 0.017509762 -0.105103396 0.06796357 -0.032304216 0.123432204 0.1870433 -0.03801987
0.106116384 0.15715998 0.10165084 -0.114623845 -0.0757418 0.025398055 -0.024860406 0.028831732
-0.18928602 0.1359497 0.3186725 0.07649785 0.03289173 0.028946523 -0.10683003 -0.15147132
0.18195078 0.10281512 0.025239687 -0.13106906 -0.004611643 -0.13151798 0.033061676 0.18412746
0.19239219 0.31973237 0.20862499 0.28802153 0.10621939 0.13704185 -0.021246133 0.19657876
0.20511067 0.21415247 0.23028754 0.27762175 -0.03247576 0.08157236 -0.036555532 0.26766583
0.10137352 -0.020732135 0.24646322 0.0035988304 0.14533502 0.24857491 0.22957322 0.22618648
0.113084696 0.07727663 0.12949876 -0.08424706 0.08412276 0.21117792 0.21396323 -0.069729425

recurs2.bias_hh f4 [120]
00000000: 8651 6d3e 7bc9 933e a306 92bc b435 1c3e
00000010: bd8c 123d e46c 1e3e b28f 653d 5b76 9e3e
00000020: 2489 6d3e 95bd 113e 4a57 b8bc 1b78 8d3d
00000030: 2bd3 e43d 8a29 4e3e fbc4 463d ad43 903d
00000040: d42e 0c3e 9f04 b33b fe16 6a3e 4123 783c
00000050: 24f1 d13d 033b b0bb fc0d 7b3d 9c2d 173e
00000060: 51b9 883d 7d00 343c 0d33 4a3e 8b6c 3e3d
00000070: 1098 2c3e 6b59 493e 3b4c 613d 62ba 06be
00000080: 8fea 703c 8a6a ff3d e9ee 173e 1c8f a5ba
00000090: b79f 493e f8ca 2c3e 5bac 203e 3ab2 bc3d
000000a0: ca8e 6f3d f885 ce3d d65a 6a3e ffa6 c83c
000000b0: 48b0 1b3e 6a51 753e 0b15 873e 727d bf3d
000000c0: 6326 1a3e 3b90 103e 2d11 3f3e 2acf 6c3d
000000d0: e8f9 b23d 17c7 823d 4331 61bd 69e1 983d
000000e0: 8647 42bd ccdb 383e 9932 96bb 9a41 163e
000000f0: 0347 b4bd 3614 073e 9d32 5e3e 94d8 1f3e
00000100: 8eba 723d 8f74 6abd 5e68 173e 5e60 583d
00000110: e2e7 d2bd 2335 e53c 0022 aabd f142 063c
00000120: f667 76bc 0104 043e 3329 fb3d 3cf3 783d
00000130: b24e 85bb c93e dc3d 8abd 06be 88d2 283e
00000140: 9f3a 1cba b998 613d 1241 bebd 7bcd 1bbd
00000150: 4ce5 b0bb 6a0b 08bd ab25 15be 8307 17be
00000160: 593e 11be ecbf ae3e 8bd9 833e dd2f 4b3d
00000170: 61f8 813e fc75 f23d 7e40 c03d 8788 1f3c
00000180: 5140 b03c da6d 863e 8406 903e e798 7abd
00000190: 16ac 263e ea70 323e 15c1 1e3c cb7c 443d
000001a0: b8ae ecbc 9edf 433e 72f7 af3e 8fa2 383e
000001b0: 8d08 f43d 25e8 463e c31d 193c 1e2e 993c
000001c0: f6d2 313e 80a2 813e 48b4 073e 4101 2c3d
000001d0: 3b7e 2a3e 3018 e1bd 8585 6c3e bc9a 69bc
0.2317563 0.28864655 -0.01782543 0.15254861 0.03577875 0.15471226 0.05604524 0.30949673
0.23196846 0.14232476 -0.02250256 0.06907674 0.111730896 0.20133033 0.0485277 0.07044158
0.13689739 0.0054631974 0.22860333 0.015145124 0.10251072 -0.0053781285 0.061292633 0.14763492
0.06675971 0.010986445 0.19746037 0.046490233 0.16854882 0.19663016 0.05500434 -0.13157037
0.014704361 0.124714926 0.1483723 -0.0012631151 0.19689833 0.16874301 0.15690748 0.092136815
0.058485784 0.10084146 0.22886214 0.024493692 0.15203965 0.23956838 0.26383242 0.09350099
0.15053706 0.1411752 0.18658896 0.057814755 0.08739072 0.063856296 -0.05497862 0.074648686
-0.04743149 0.18052596 -0.0045836684 0.14673463 -0.08802607 0.13191304 0.21698995 0.15609962
0.059259944 -0.057240065 0.14785907 0.052826278 -0.102981344 0.02797944 -0.08307266 0.008194671
-0.015039435 0.12892152 0.122637175 0.06077884 -0.004068219 0.10754163 -0.13158241 0.16486561
-0.0005959663 0.05507729 -0.09289755 -0.03803776 -0.005398428 -0.03321401 -0.1456515 -0.14748959
-0.1418394 0.341308 0.2575191 0.049606193 0.2538481 0.1183891 0.09387301 0.0097371405
0.021515043 0.26255685 0.2812997 -0.061180975 0.16276583 0.17425886 0.009689589 0.047970574
-0.028891906 0.19128272 0.34368473 0.18030761 0.119156934 0.19424494 0.009345475 0.018698748
0.17365631 0.2531929 0.13252366 0.041993383 0.16649716 -0.109909415 0.23097809 -0.014258083

output.weight f4 [2, 30]
00000000: 52d8 1abe ecb8 37be df33 afbc cb74 3fbe
00000010: 100a c23d c7bb 71be f442 3b3e e4b9 4fbe
00000020: 7b06 60be 7dd7 4abe 7272 3b3e bab3 433e
00000030: 4bc6 1cbd 2958 083d 9789 233e 5463 adbd
00000040: f264 d43d 96ae 803d 5657 c2bd a4cf 4a3e
00000050: b3e9 19bd e0c9 9fbd 1e11 0ebe b62c 973c
00000060: 76ee 193e edd0 1bbe 2dfd 8ebd cc41 653e
00000070: e659 09be 3545 9a3d a89e 973e 4458 613e
00000080: 9eea 4e3e cbac 6e3e 9148 0ebe 83b6 2b3e
00000090: abf3 5fbe 8e81 453e 2062 5e3e f062 593e
000000a0: 3372 7fbe 551e 16be 5618 1fbe 1912 7bbe
000000b0: 8f9e 333e a9ed 873e 74c6 2d3e c28d 5fbe
000000c0: 1f72 8e3e c901 67be 151b 673e a721 f0bd
000000d0: 38ea 4a3e 92a0 413e 5e55 9fbe a04a 273e
000000e0: 4a18 31be 6f72 6cbe d3f8 853e 7350 86bd
-0.15121582 -0.17941636 -0.021387039 -0.18696897 0.094745755 -0.23606788 0.1828726 -0.20285755
-0.21877472 -0.19808765 0.18305376 0.19111529 -0.038275044 0.0332872 0.15970455 -0.08466211
0.10370816 0.062832996 -0.09489314 0.19805771 -0.03757639 -0.078021765 -0.13873717 0.018453937
0.15032372 -0.15216418 -0.06981883 0.22388381 -0.134132 0.075327314 0.29613233 0.22006327
0.20206687 0.23308103 -0.1389487 0.16768841 -0.21870296 0.19287702 0.21717119 0.21229148
-0.24945907 -0.14660008 -0.15536627 -0.24518622 0.17540954 0.26548508 0.16970235 -0.2183142
0.27821442 -0.22559275 0.22568925 -0.11725169 0.1981591 0.18908909 -0.31119817 0.16337061
-0.17294422 -0.23090528 0.261664 -0.06558313

output.bias f4 [2]
00000000: 7460 b73d 532e ae3c
0.08953944 0.021262323

switch.weight f4 [1, 30]
00000000: 1db1 0e3e ad41 6cbd 8da3 b5bd 7498 3dbd
00000010: 54ca 60bd 2a80 b33d f248 36bd b732 c23d
00000020: f8d0 09be f0db 073d dae7 053e 2fc5 ccbc
00000030: cb64 0b3e 79a6 3e3d 9210 28be 0972 c1bd
00000040: 7583 1f3e d81d 28bd 12e0 3c3e 4ba5 40be
00000050: b034 b2bd 7cc3 033e 30e5 363e 626c 1fbe
00000060: dc63 473d 973e 2dbe e243 0dbe 2e8a 923d
00000070: fd39 a4bd 3ef1 c6bc
0.13934751 -0.05767982 -0.088690855 -0.04628797 -0.054880455 0.0876468 -0.04450316 0.09482329
-0.13458622 0.033168733 0.13076726 -0.024996368 0.13612668 0.04654548 -0.16412571 -0.094455786
0.1557749 -0.041044086 0.18444851 -0.18813054 -0.087014556 0.1286754 0.17860866 -0.15568689
0.048679218 -0.16918407 -0.13795426 0.07155262 -0.08018873 -0.024284955
