checkpoints/REUPLOAD-e2a1831d/model.pth (torch, 49793 bytes, 11 tensors)

recurs1.weight_ih f4 [120, 2]
00000000: 2fe2 9dbd 76ea a03e 5fea 21be 0273 9ebc
00000010: 2ed3 90bd edd9 25bd 674c d5bc ed30 953d
00000020: b59a 9fbc 8ff8 f83d d468 15be 8354 0f3e
00000030: 07e8 50be d9d2 7b3d d6df 92bd 3626 173e
00000040: 0bac 123d f365 813e 5674 0dbe 91a3 21be
00000050: 4161 513d ec88 843e 4466 96bb 1e1f 8d3e
00000060: 00c3 d2bd 7a79 cd3c e1b0 7f3d 3efb ac3c
00000070: e721 03be ca80 27be f270 9cbd 1347 503e
00000080: b6a2 f2bd 1fe2 a9bd 088f 09be c694 16be
00000090: 3914 24be cbbb 8e3e a717 233d 9662 5f3e
000000a0: 9902 0ebd 0124 9f3c b011 843d b9a8 c9bd
000000b0: d667 0abe 5c67 3e3c 1ff0 8e3d de7c c8bc
000000c0: 4f91 fcbd 5844 223e f922 ea3c fbe0 a53e
000000d0: c205 023d c0d3 133e c311 3e3e e013 a9bd
000000e0: 64b0 5c3d 1967 19bc cd73 11be 2073 5fbd
000000f0: d418 fa3d e30c 833e 39fa a6bd 7c3c 303e
00000100: 64fd d23d ba75 24be 6a86 233c ce3d f6bc
00000110: a4fe 2b3e 35d6 943e 3650 d5bd 5f4d 0f3e
00000120: 6b76 ea3d 4d08 923e 880f 4d3e 47c6 9c3e
00000130: 54a1 643d 442c 6a3c 77dc 373d f5f3 4cbe
00000140: c1ae 21be f25a 823e 844d 4f3e b54f 36bd
00000150: 2b57 683d a25a 44bd 121e 83bc 9d74 ce3d
00000160: e7c5 bf3d efc4 73be 6eb2 2b3e 4ac8 273e
00000170: 5eb0 353e e93e a73d 55d0 abbd 500f aabd
00000180: 639d d83d 285b 213e 9e91 1abe b86c 133c
00000190: 05b1 283e 29bd 693e 0f91 55bd bfc2 2b3c
000001a0: 9b40 fdbd b8a3 f73d bbfb 02be ea63 96be
000001b0: 16b3 f3ba c659 6c3e 3377 e5bd 1ca3 723e
000001c0: 154e d9bd 5710 913e 30b4 2e3e b528 efbd
000001d0: 131d 513c 7725 053e 1c70 d93d d2a1 cc3d
000001e0: 0aaa 71bc 0bed 583e 959e aebd fe0b 673e
000001f0: 78a5 fdbd aa83 86be 631c 6ebd 03ed 3abe
00000200: 8905 85bc 9f94 9ebe e380 05be 3cf6 733e
00000210: 829a 08bd d320 4fbe 059a 363e 318c 27be
00000220: 7eb4 5f3d 8d64 47be 2bab 433d 7f24 823e
00000230: 7ace e03d c200 703e 2467 f53d 9eea 2b3e
00000240: 100f 1ebe 4b74 46be 2bff 493e 4db5 53be
00000250: 4887 97bd 2774 8ebe 84d0 0abe 937b 93be
00000260: 8866 3bbd 1ea0 6e3e b81a a23d 1c35 90be
00000270: 7e4a f93d 5a96 8fbe 60ac 86bc 073c 44be
00000280: c3d1 923c 8413 0ebe 15bc 1fbe 97f8 a0be
00000290: c5dd aebd 0668 1a3e d6c7 c6bd a26b 7c3e
000002a0: f9ca 3fbe b885 2b3e 47b8 763e 74a4 60be
000002b0: ebb3 0f3e c83f 3e3e 6de9 33be b662 713e
000002c0: 590e 1c3c 8963 6bbe d294 203e f8c9 9cbe
000002d0: 7b33 06bd 4623 3c3e 94b7 113e 9b8f 363e
000002e0: 8454 a33d acf3 81bd f1b5 36bd 0d50 15be
000002f0: 0597 0cbe 0eca 4a3e d3a7 de3d 614f ad3e
00000300: 047b 0cbe c5e5 473e 09dc e5bd 091f 763d
00000310: a12c f7bd 6bc6 833e 247f d7bd b090 ddbd
00000320: a06f cfba 08ef 733e b722 e7bd 3808 1e3d
00000330: bc0f 15be baa9 cc3d 8b25 cfbd a3b3 bc3e
00000340: 23af 8b3d 873a dfbd 287a 153d a24a 0b3d
00000350: c745 2f3d d73a 26bd 191c c53b 0e1f 2f3d
00000360: 80de 27be 2b47 3f3d e09d f13d 9029 28bc
00000370: feec b3bc 241a a03e 20da ca3d 04cb a83d
00000380: 7cee 0cbe ee79 613e 72d0 17be f820 53be
00000390: e1b2 9dbd c29b 353e 8516 efbc ece8 9b3e
000003a0: 35f3 4c3c 360e 973e 563d 303e 6b1c a0bd
000003b0: 2bd1 dd3d 1a6f 193c 4991 91bd 312a a13d
-0.07709157 0.3142888 -0.15812062 -0.01934195 -0.07071529 -0.040491033 -0.026037408 0.072847225
-0.01948295 0.12156784 -0.1459077 0.13997082 -0.20401011 0.061480377 -0.071715996 0.1476067
0.035808604 0.25273094 -0.1381391 -0.15785052 0.05111814 0.25885713 -0.0045898277 0.27562803
-0.102910995 0.025082339 0.062424544 0.021115895 -0.12805901 -0.16357723 -0.0763873 0.20339613
-0.11847441 -0.08295082 -0.13433468 -0.1470519 -0.1602334 0.2787765 0.03981748 0.21814951
-0.034670446 0.019426348 0.06448686 -0.098466344 -0.13516173 0.0116213225 0.06979393 -0.024473604
-0.12332403 0.15846384 0.02858113 0.3239821 0.031743772 0.14436245 0.18561463 -0.08255744
0.053879157 -0.009362959 -0.1420433 -0.05455315 0.12211767 0.2559577 -0.08153195 0.17210573
0.10302237 -0.16060534 0.009980777 -0.030058768 0.16796356 0.29069677 -0.1041569 0.13994358
0.11448368 0.28521958 0.20025456 0.30620024 0.055817917 0.01429278 0.044887986 -0.20014937
-0.1578932 0.2546001 0.20244414 -0.04450961 0.056723755 -0.047937997 -0.01600555 0.10080836
0.09363919 -0.23805593 0.16767284 0.16384998 0.1774306 0.08166296 -0.083893456 -0.08303702
0.10576894 0.1575743 -0.15094611 0.008998089 0.16473778 0.22826065 -0.05214029 0.010483443
-0.12365838 0.12091774 -0.1279134 -0.29373103 -0.00185928 0.23081121 -0.11204376 0.23695034
-0.10610596 0.2833278 0.17060924 -0.11677686 0.0127632795 0.13002573 0.10617086 0.09991802
-0.014750013 0.21184175 -0.08526341 0.22563168 -0.12385076 -0.26272327 -0.05813254 -0.18254475
-0.01623799 -0.30972764 -0.13037448 0.238244 -0.033350475 -0.20227365 0.17832191 -0.16362073
0.05461549 -0.19471951 0.04777066 0.2541847 0.10976882 0.23437789 0.11982563 0.16788718
-0.15435433 -0.193803 0.19726245 -0.2067463 -0.0739885 -0.27822992 -0.13556105 -0.28805217
-0.04575208 0.23303267 0.079152524 -0.2816552 0.121724114 -0.28044397 -0.016439617 -0.19163524
0.017922288 -0.13874632 -0.15599091 -0.3143966 -0.08538393 0.15078744 -0.097060844 0.24650434
-0.18729772 0.16750228 0.24093734 -0.21937734 0.14033477 0.18579018 -0.17569514 0.23572811
0.009524905 -0.22987188 0.1568177 -0.3062284 -0.03276394 0.18372831 0.14230186 0.17828219
0.079751045 -0.06345305 -0.044607107 -0.14581318 -0.13729484 0.1980364 0.10871854 0.33849624
-0.13718802 0.19521244 -0.11223609 0.06008819 -0.12069059 0.25737318 -0.10522297 -0.108186126
-0.0015826114 0.23821652 -0.11285918 0.038582057 -0.14556783 0.0999331 -0.10114583 0.36855802
0.06820514 -0.10899835 0.03649345 0.034006722 0.042791154 -0.040583458 0.0060153124 0.042754225
-0.16393471 0.04669873 0.117976904 -0.0102638155 -0.021963593 0.31269944 0.09904885 0.08241847
-0.1376285 0.22019169 -0.1482561 -0.20618045 -0.07700134 0.17735198 -0.029185543 0.30451143
0.012509157 0.2950303 0.17210898 -0.0781792 0.10830911 0.009364868 -0.07107789 0.078693755

recurs1.weight_hh f4 [120, 30]
00000000: 99c2 aa3d 82b7 453e 3851 28bd c1da 133d
00000010: c5b7 f73c 48f2 f9bd 9e30 df3d 1e98 48be
00000020: 4ed9 18bd af65 43bd c98f edbc 96a3 0b3d
00000030: 67e1 87bc 8d4e c1bd fd08 7ebd 6b85 19be
00000040: 3206 1fbe 232a 67bd f0f7 27be b54f 31be
00000050: 2e4c 33be 2af5 a03d cb5a 063e 6aed 063e
00000060: 85f3 c33d 1e0d 09be f421 ec3c e729 783d
00000070: f444 d03d 9730 1fbd 6a27 47bd 1989 37bd
00000080: 184a 18be 9ccb b73d e7f3 1abe 18ed fdbd
00000090: ca32 053e c8b5 1ebe f257 72bd e325 063d
000000a0: 8468 553d bc7b bcbd eabf 2bbe 15e3 d43d
000000b0: f832 d23d 9010 e13d fa90 36bd c43e 54bb
000000c0: d1c8 afbd eb7d 44bd cbc6 24be 69f6 ca3c
000000d0: e718 b73d d728 8cbd 5c6b 4e3a 564e 22be
000000e0: e7c9 353e d310 dbbd c2ca 153d a7eb e9bd
000000f0: 5ebc abbd abfb e4bc 9e70 4f3a 6a5d e03d
00000100: eee1 c53d abb2 17be 05f8 f13d 38f7 b23d
00000110: 86be 7f3d e817 e8bd 88f3 59be 6005 b4bd
00000120: cf44 e13d 4092 c1bd ed1b 213e 0b84 4e3e
00000130: e994 30be baea 883d 0357 953d 9bf1 9f3d
00000140: c015 29bb 5fad b63d e852 2cbe 9590 8dbd
00000150: 2dd4 163e 678b 353e 5ca9 e03d 7d2a 45bd
00000160: 7d1f 083e dea6 f4bc 9fda cebd ed66 1cbe
00000170: fdaa 743e 9058 3a3e fb68 f8bd 57e0 d63d
00000180: 3f6a 0a3e 9357 1a3e c5c2 fb3d ba11 a63d
00000190: 41b6 26bd 1b8f 8cbd e17e 4f3e dcb2 de3c
000001a0: 1e92 3cbd 45af 333e e476 383d ae81 fa3d
000001b0: 3705 0ebe fc07 fc3c 2269 10be 4846 323e
000001c0: 8f52 98bc 66ff 593c 849b cf3d b0fa ac3c
000001d0: d829 99b8 9663 513d ac36 f5bd 63a9 403d
000001e0: 00bb 8bbd b102 fbbd 0684 01be a593 633e
000001f0: eec6 503d fade 663e eee9 e73d e872 5dbe
00000200: c054 39be 9e5b 98bd b324 7abd e805 2f3e
00000210: f0b1 02be 7e7a 1bbe de9b cdbd 80cd f5bd
00000220: 2b5e 103e f5ab 053e b3e4 803d 6faf bc3d
00000230: 81d9 c53d 74cb bbbd 38dc f53d 583c ab3d
00000240: 439d f83d 9479 f53d ff9d 283e 9748 0d3e
00000250: 526c 04be 692d 4d3d bfdf b43d a647 a23a
00000260: 0a6f 0abd 3e66 b53c d448 42be 9d75 2b3e
00000270: 26cd 003e 2c5f 56bd 3337 05be a42a b63d
00000280: b150 423e b8fb b0bb 5d6c 77be 7c67 c63d
00000290: 5ee3 563e c032 45be fb44 303e 3264 aa3c
000002a0: 6ad0 1abe 56c9 f43c a998 55be 0e43 d8bc
000002b0: ee30 293e 6f91 90bd 288c 32bd ca1e 1ebe
000002c0: fb7d 603d 8f68 1fbd b7b2 06bb 7f70 ea3d
000002d0: 1c0c c13d 1cce f8bc 34e4 453d f9b2 103e
000002e0: 0c96 48bc a541 9cbd 1fe7 a5bd 110e 5fbe
000002f0: e887 1ebe b66e 313d 2d12 08bd 3a72 ff3d
00000300: ebab 89bc 1404 b0bd 865b 78bd 9482 38be
00000310: b4fa fe3d a816 93be 8ee2 7ebc 13d9 76be
00000320: 58a1 90be 86e0 80be 8a90 043d d40a ab3d
00000330: 66fa a1bd 919d 513d f135 1b3d 618f f73d
00000340: c25a a7bd 70ec 98be 25ff 3c3e 74d2 0a3e
00000350: 3e37 e63d 74c8 c53d d21c 2ebe 1542 453e
00000360: 160f 61bc eb8e 4e3d ea9d 3dbe 9204 bb3c
00000370: bdb6 09be d8e5 1ebd 4639 8fbd 1eae 3fbe
00000380: 0e56 5b3c e4cc 0b3d d477 c43d 7c1d 60be
00000390: 7f01 3fbe 19d8 b3bd a4df 093d 0e54 0b3e
000003a0: 261b 0f3e fc09 6b3d 2256 d53d 4162 66be
000003b0: 3b89 d9bd 738d 0d3e 1965 1bbe a684 6c3c
000003c0: 21c6 85bd a5e5 c1bc 4564 3bbe 3b97 343e
000003d0: d113 c5bd 2f6d 4d3e d5b0 963d 5e06 2a3d
000003e0: ab68 5abd 3b06 00bd e035 093d a067 8c3d
000003f0: 69e4 b8bb e0ca 4abe 4dba 643e 3411 dcbd
0.08337898 0.19308284 -0.04109308 0.03609729 0.030238995 -0.122044146 0.10897945 -0.19589278
-0.037316613 -0.047704395 -0.028999226 0.034091555 -0.016586972 -0.094388105 -0.06202029 -0.14992301
-0.15529707 -0.05643667 -0.16403174 -0.17315562 -0.17509529 0.07859261 0.13120572 0.13176504
0.09567932 -0.1338391 0.028824784 0.060586836 0.10169402 -0.0388647 -0.048621573 -0.04480848
-0.14872015 0.08974382 -0.15132104 -0.12398738 0.13007656 -0.15499032 -0.059165902 0.032750975
0.052101627 -0.09203288 -0.16772428 0.10394875 0.10263628 0.10989487 -0.044571854 -0.0032386044
-0.085832246 -0.047971647 -0.16091458 0.0247757 0.089402966 -0.06843727 0.0007874274 -0.15850195
0.17752801 -0.10696568 0.036570318 -0.114219 -0.083855376 -0.027952036 0.00079132046 0.10955317
0.09662233 -0.1481425 0.11814884 0.087385595 0.062437557 -0.11332685 -0.21284306 -0.08790088
0.10999452 -0.09451723 0.15733309 0.20167558 -0.17244305 0.066853955 0.07291987 0.078097545
-0.0025800318 0.08919787 -0.16828501 -0.069123425 0.14729376 0.17728959 0.10969803 -0.048136223
0.13293262 -0.029864725 -0.101002924 -0.15273638 0.23893352 0.18197846 -0.121293984 0.10492008
0.13517092 0.1507247 0.12293009 0.0810885 -0.040701155 -0.06863233 0.20263244 0.027184896
-0.046037786 0.17547329 0.045035258 0.12231766 -0.13869177 0.030765526 -0.14102605 0.17409623
-0.018594055 0.013305521 0.10137084 0.02111563 -7.3034025e-05 0.051120363 -0.119733185 0.04703654
-0.06822777 -0.12256373 -0.12648019 0.2222429 0.050970964 0.22545996 0.113239154 -0.21625865
-0.18098736 -0.074393496 -0.061070155 0.17092097 -0.1276319 -0.15183446 -0.10039495 -0.12002087
0.14098422 0.13053878 0.06293621 0.09213149 0.09660626 -0.09169665 0.12004894 0.08361119
0.1213937 0.1198608 0.1646652 0.13797222 -0.12931946 0.050092135 0.08831739 0.0012380972
-0.0337973 0.02214348 -0.18973094 0.16744085 0.12578258 -0.052336857 -0.13009338 0.08894852
0.18976094 -0.005401101 -0.24162431 0.09687707 0.20985171 -0.19257641 0.17213814 0.02079973
-0.15118566 0.02988116 -0.20859016 -0.026399162 0.16522571 -0.07058989 -0.043590695 -0.15441433
0.054807644 -0.038918074 -0.00205533 0.11447238 0.09426138 -0.030371718 0.048313335 0.14130773
-0.012242805 -0.07629708 -0.081007235 -0.2178271 -0.15481532 0.043318473 -0.03322046 0.12472959
-0.01680561 -0.08594528 -0.06063416 -0.18018562 0.124501616 -0.28728223 -0.0155569445 -0.24106245
-0.28248096 -0.25171298 0.032364406 0.08351675 -0.07909088 0.051175658 0.03789324 0.12087894
-0.081716076 -0.29867887 0.18456705 0.13556844 0.11241005 0.09657374 -0.17003182 0.1926349
-0.013736507 0.050429266 -0.1851727 0.022829328 -0.13448615 -0.038793415 -0.06993346 -0.18718764
0.013387216 0.034130946 0.09593168 -0.21886247 -0.18652914 -0.08781452 0.033660546 0.13606283
0.139752 0.05738257 0.10416819 -0.22498418 -0.10621878 0.1382349 -0.15175284 0.014435923
-0.06531931 -0.023669073 -0.18299969 0.17635815 -0.0962292 0.20061181 0.07357947 0.04150998
-0.053322475 -0.03125594 0.033498645 0.068557024 -0.005642463 -0.19803953 0.22336693 -0.10745469

recurs1.bias_ih f4 [120]
00000000: 31a0 71bd d6ce b1bd 3b5a 123d 8add 5c3e
00000010: 4529 193e 4a90 2f3e 8ddc 883d f195 633e
00000020: 42fa da3d 5a12 133e 3360 ad3d 45d7 c33d
00000030: e172 323e 5582 8a3e 05fe 423e fb98 f13d
00000040: ad96 203e 1aa6 213d 17de 573e d3cd 073e
00000050: 3b03 4d3e 2ea1 5c3d 41d7 8dbd 4b9a 143e
00000060: 75e9 273e 2a3b 783e 0c71 123e 1505 e63d
00000070: 5ab8 593e 8274 663d f8b2 1e3e 8beb f33d
00000080: 0691 2d3e 04f6 443e 9966 fcbd bc4d ed3d
00000090: 5a35 2b3e 2755 00be 2929 a93c 2bae a9bd
000000a0: b077 14bc 002d 6a3c 86ca 083e 2287 0abd
000000b0: 7812 f3bd 3829 a03d e2d0 033e 57dd acbc
000000c0: 0518 353e 6531 3b3e 1c9b bbbc 2c77 de3c
000000d0: 7f0f 383d c708 b13c b44b f7bc 48a7 0bbd
000000e0: abc7 86bd 5e96 bd3d 0325 5cbd ddac 66bd
000000f0: 27c2 7c3e 7e8c c73c a67e 0c3e 966e 6e3e
00000100: e62f 60bd 1dea b13d 6183 eb3d dd46 24be
00000110: bf40 bdbd 742d 02bc d642 063d eca7 a93d
00000120: c33c ac3d 0a01 04be b714 513d 703d 0d3e
00000130: fd2e e5bd d72e f0bd e043 05be a2c7 9a3d
00000140: 8852 61be 3639 82bd 19dd 393e 570d 1fbe
00000150: 5470 593e 0d84 15be d03b a03d ccaa 153c
00000160: 6278 58bc da46 de3d e9f7 753e be1b 57bd
00000170: bdae 393e 0180 f93d 3d85 a33d eee9 27bd
00000180: 43cd 083e a778 3c3e ea6d 9bbd b2a6 bcbd
00000190: 9a61 d9bd 18e4 d33d efe3 5b3d a36a f03b
000001a0: 00da 803e 1c1a 1b3d 0705 19bd 5103 e13d
000001b0: fc87 ccbc 0387 d13c df16 003e 984a e13d
000001c0: 4378 a1bd 1e73 8d3e b1dd 3b3e dd4e 63bd
000001d0: 486d 0b3e 2e3c ed3d 2cba 94bd ef49 6bbc
-0.05899066 -0.08682029 0.03573058 0.21568885 0.1495715 0.17144886 0.06682692 0.22225167
0.10692264 0.1436247 0.08465614 0.09562544 0.17426635 0.2705256 0.19042213 0.11796757
0.15682478 0.039465047 0.21080814 0.1326211 0.20020764 0.05386465 -0.06925822 0.14511983
0.1639765 0.2424132 0.14300936 0.11231438 0.21261731 0.056263454 0.15497959 0.11910161
0.16949853 0.19234473 -0.123242564 0.11587092 0.16719571 -0.12532483 0.02064951 -0.08285173
-0.009061739 0.014292955 0.13358507 -0.03382028 -0.11868757 0.07820362 0.12872651 -0.021101637
0.17684944 0.18280561 -0.02290111 0.027156435 0.044936653 0.02161063 -0.030187465 -0.03409508
-0.065810524 0.09257196 -0.053746235 -0.0563172 0.24683438 0.024358984 0.13720188 0.23284373
-0.05473318 0.08687232 0.11499668 -0.16042657 -0.09240865 -0.007945407 0.032778583 0.08283982
0.08410027 -0.12891021 0.051045146 0.13792968 -0.11190603 -0.11727684 -0.13014174 0.07557608
-0.2200414 -0.06358568 0.18150748 -0.15532432 0.21234256 -0.14601155 0.07823908 0.009134959
-0.013212295 0.108533576 0.24020351 -0.05251669 0.18133064 0.12182618 0.079843976 -0.040994577
0.13359551 0.184054 -0.07589324 -0.09211482 -0.10614319 0.1034624 0.05368417 0.007336931
0.2516632 0.037866697 -0.03735831 0.10986961 -0.024967186 0.025577074 0.12508725 0.11000556
-0.07884266 0.2762689 0.18346287 -0.05549513 0.13615906 0.11583744 -0.07262072 -0.014360889

recurs1.bias_hh f4 [120]
00000000: df53 43bd c715 1d3e de8a da3d b641 1d3e
00000010: d063 733c 5d71 8c3e 09da 0d3e f481 b7bd
00000020: 9890 723d 245b 333e 49a6 f93d 0995 203d
00000030: 3735 68bc e004 8a3c 71a2 783e 6290 23bc
00000040: 1f54 5a3e 073c 083d ade3 b33d ba77 c5bd
00000050: 3476 493b abf2 713e af3f acbd 51bd 4d3e
00000060: 52ee 82bd 8ade f83d 420b bfbd 1122 ccbd
00000070: 9efa a3bd 1c25 643d e4af 983c a9ec ddbd
00000080: 1a2e c03d 403a 303e 4cf2 323e 4bd0 3a3e
00000090: a75b f03d d82c 50bd b782 9f3c 01ac 423e
000000a0: 42de 003e 5038 7bbd 2ef0 313e b3bd 0fbe
000000b0: 9981 573e e277 a73d d664 dcbd f432 0cbe
000000c0: df3f 273e 0581 633e 7947 083d bfd8 51bd
000000d0: 6813 ef3d e01b 0f3e 0af7 02bc 9c28 473e
000000e0: 091c 203e 8122 403d 571a c33d 8f19 0fbe
000000f0: b8f4 fe39 19bd 783c d7c5 613d 4301 2a3d
00000100: 2487 233d 850b ec3d ef5c 64be 0a99 ba3c
00000110: f416 57bd 7a64 23be c03b 523d 74d3 2ebc
00000120: 29f0 debd b372 61be 061d 423e 8070 0dbe
00000130: f176 823c 7875 1c3e 6d10 57bc f7e5 1cbe
00000140: 5fb6 6abe 5b79 633d ecd9 08bd cd5d 05bd
00000150: 103e fa3d f12e e6bd 3f4e 313e 05ca 1dbd
00000160: 5b1c a7bd c4eb 00be cae7 0f3e 8a8a 52bd
00000170: 2943 f03d f3ce 4c3d 00bb 553e c251 3abb
00000180: 9215 2cbc 25e2 e43c 8f75 fbbc 3c9d 153e
00000190: acde d33b 5973 0b3e 1e32 593e c4c1 2e3e
000001a0: 182f 453d 857d 3c3e 2838 94bc e92a b5bd
000001b0: 0704 6d3d 9959 5abd 2e03 e7bd b40a ea3d
000001c0: 0351 4f3e 98b1 fa3c 0c36 4b3d 35a9 81bd
000001d0: ed55 b53d 4b30 be3d 30b4 f83c bc76 813e
-0.047687408 0.15340339 0.10671018 0.15357098 0.01485534 0.2743024 0.13852705 -0.089603335
0.059219927 0.17515236 0.121899195 0.03920463 -0.014172844 0.016848028 0.24280716 -0.009983154
0.21321152 0.03326037 0.0878366 -0.09641977 0.003074062 0.23627727 -0.08410584 0.2009175
-0.06393112 0.12151821 -0.09328319 -0.09967435 -0.08006786 0.055699453 0.018638559 -0.10836155
0.09383793 0.1720972 0.17475241 0.1824352 0.11736231 -0.050824016 0.01947151 0.19010927
0.12584785 -0.061333 0.17376778 -0.14037208 0.21045531 0.08177163 -0.107614204 -0.13691312
0.16332959 0.22217186 0.033271287 -0.051232096 0.11673623 0.13975477 -0.007993469 0.19449085
0.15635695 0.046907905 0.09526508 -0.13974594 0.00048628985 0.015181803 0.055120315 0.04150511
0.039923802 0.11525635 -0.22301076 0.022778053 -0.052512124 -0.15956298 0.051326513 -0.010670532
-0.10885651 -0.2201641 0.18956384 -0.13812447 0.015925856 0.15279186 -0.013126475 -0.153221
-0.22921132 0.055535655 -0.03341095 -0.03256016 0.12218869 -0.11239422 0.17315005 -0.03852274
-0.08159705 -0.12589937 0.14053264 -0.051401652 0.1173156 0.05000205 0.20872116 -0.002843008
-0.01050319 0.027939865 -0.030695705 0.14610761 0.0064657535 0.1361822 0.21210524 0.17066103
0.048140615 0.18407257 -0.018093184 -0.08846075 0.05786517 -0.053308103 -0.11279903 0.11427823
0.20245747 0.030602261 0.04961209 -0.06331102 0.0885428 0.09286555 0.030359358 0.252859

recurs2.weight_ih f4 [120, 30]
00000000: d56b 8ebd edbf 2a3d 64df 99bd cb11 8b3e
00000010: eb39 b73d ea7c 803e e8ee d53d c770 3ebb
00000020: cccf 5abe 7e0e 1ebe fc43 023e f01e 03be
00000030: e741 913d 6107 64bc 69b5 e13d b004 44be
00000040: 3b60 0a3e be5e 60bd 53af 23be b6af 20bc
00000050: b9be cdbd 956c e1bd 4234 b73d 6af2 23be
00000060: cc66 843e 8455 4e3d bdd8 523e aa65 c43d
00000070: e4ad 5fbe 7502 15be 373d 1bbe f89b b6bd
00000080: 8e4c 8bbd b7a9 553e f17d b73d 50c4 ed3d
00000090: 0b61 a5bd 0748 013e fca7 29bd 486d 07be
000000a0: adfc d33d dd61 ff3d 2fc6 e8bd 0e03 163e
000000b0: ed6a 7d3d 94d0 8c3d d1f8 76be ba69 173d
000000c0: 3241 bcbd 30d5 e3bd fb9d d6bd f417 8d3c
000000d0: a207 0fbd 3679 54be d62f 2d3e 28fc 3d3d
000000e0: 5253 13be 791c 0fbc 5073 4e3d 05f9 b13c
000000f0: 0cfb d73d e8c8 7cbc 2aa2 233e 79e9 24bd
00000100: 9472 a6bd a250 2a3e 428b fdbd 3e32 603d
00000110: 7c35 fa3d 6fb6 82be cd5c a3bd cfbd 2e3e
00000120: 0c64 de3c 502a 0fbd ca33 f73d 77fe cc3d
00000130: 642e 12be 66f3 7b3d 6987 df3d bdc9 3fbd
00000140: abd8 73be f895 9c3d 9061 bdbb d663 02be
00000150: d5ff 293e dd6c e7bb 541f 7cbd 512e 0dbe
00000160: e009 d7bc 9949 fbbc a26c ae3c e108 92bd
00000170: 2f5f 5a3e a7e3 4a3e ff56 1bbc 2a04 c63d
00000180: 09b6 a0bc fc1c 9e3d 2912 b4bc c204 83bd
00000190: d2c3 3cbd c476 c83d c4a7 42be 40bc 88bc
000001a0: 501d 52bd e758 91bd e552 633d 5a0b 0ebe
000001b0: cab3 b83d 6034 19be 451b cf3d 1ed1 263d
000001c0: d526 2cbd 3428 583c 9097 bebd b1b7 2cbe
000001d0: 56e2 4fbd c84e cdba a79c aebc 9c7c 37be
000001e0: 0238 8b3e de2e a53d 9b4d c6bd efc3 a73d
000001f0: e054 28be c899 0d3e 960e 49bc dbb5 0fbe
00000200: 9e2d a2bd 333e e23d 0370 fcbc 1c4a ca3c
00000210: 4557 d1bd ca99 61be 2a3a ae3d 4bb9 4bbd
00000220: f14f f8bd d7a9 7cbc 03fa b83d 250c ca3b
00000230: 4c81 46be a469 d83d 24c6 2abd 95fb ddbd
00000240: e391 333e 40d8 563d 76d5 8a3e 5e94 453e
00000250: 1091 2ebe 35ce c3bc 5209 12bd 362d 953d
00000260: 8aaf 6a3e e860 253e 325f 6abe 0dc6 bcbb
00000270: bd8b 59be fa4f 3d3c 1a7c c8bd 80cc 57be
00000280: 875a 653c 662a ec3d 3c6e 29bd ff2b b33d
00000290: e4c5 ad3d 944c 0c3d 406d 81bd 2d74 20bd
000002a0: 8618 89bd b6e4 b13d 2ba6 2cbc 8d1a 0abe
000002b0: 3bcc d9bd 189b 81be af6d 953c 4d7a 5cbd
000002c0: e6f1 823e 878f a7bc 71cd 2c3c f4d0 2f3d
000002d0: 3727 b7bd c611 8fbd c0ee 273d b8e6 f83d
000002e0: ec26 44be 100b d63d bf3b 7dbe c959 a0bd
000002f0: 4749 07bd 9275 183d 99bc 753d 99a1 0c3e
00000300: 07db 3cbe 64d4 983d 557b 2ebe 4a51 48be
00000310: a00c afbd 9b64 98be 32a3 643d 2bd7 f6bd
00000320: 39d4 60be f949 9ebc 2082 72bd 7529 343d
00000330: c06b 133e 50ee fdbd 2ed3 3e3e 04f7 a23d
00000340: 0dcd 57be d14e 8fbd 8105 3c3e 0e41 d13c
00000350: b227 a63c f772 c03d 4b60 6dbd 1f48 fd3d
00000360: 93d1 77be 283e 713d d913 b2ba 9b7a b73c
00000370: 2cad e03d 641e bebd 9f6b 0cbe bff4 bcbd
00000380: 7459 c63d 0336 12be 3495 1a3d b980 ccbd
00000390: edf1 853d a672 78be 4faa 90bd 7db2 ab3d
000003a0: f8a1 9dbd ebca 6fbc 391c 1f3e 9f87 31bc
000003b0: fa1f ec3d c433 ba3d 449d 34be 21a2 c73d
000003c0: b195 5e3d 21d2 2c3e a1e2 e63c 07be d63c
000003d0: b213 b93c 9b71 763e 8001 e83d 4297 5dbe
000003e0: 3e51 62bd ba1c fcbd f5d4 253e 215f 3c3e
000003f0: 070b 29be 2950 a3bd 723f 1a3e 9e58 a93d
-0.06954161 0.04168694 -0.075133115 0.27162012 0.08946594 0.25095302 0.104459584 -0.002905892
-0.2136833 -0.15435216 0.12721246 -0.1280477 0.07092648 -0.013917775 0.11020929 -0.19142413
0.13513272 -0.054777853 -0.1598485 -0.009807518 -0.10046143 -0.110070385 0.08945514 -0.16010442
0.25859678 0.050374523 0.20590492 0.095897034 -0.21843678 -0.14551719 -0.1516007 -0.089164674
-0.06801711 0.20865522 0.08959568 0.11609709 -0.0807515 0.12625133 -0.041419968 -0.13225281
0.103509285 0.12469838 -0.113659255 0.14649603 0.06186955 0.068757206 -0.24118353 0.036966063
-0.091921225 -0.11124647 -0.10479351 0.017223336 -0.03491939 -0.20749363 0.16912779 0.046383053
-0.14387253 -0.008734816 0.05040294 0.021725187 0.1054593 -0.015428759 0.1597983 -0.04026172
-0.08127323 0.16632321 -0.12380077 0.054735415 0.122172326 -0.2552981 -0.07976685 0.17064594
0.027147315 -0.03495246 0.12070425 0.10009473 -0.14275509 0.06151142 0.10914499 -0.046823252
-0.23813121 0.07645792 -0.0057794526 -0.12733397 0.16601498 -0.007062538 -0.061553314 -0.137872
-0.026249826 -0.030674743 0.021292035 -0.071306 0.21325372 0.19813405 -0.009481191 0.09668763
-0.019618051 0.07720372 -0.021981316 -0.06397392 -0.046085186 0.09788278 -0.1900931 -0.016691327
-0.051297486 -0.07097035 0.055498976 -0.13871518 0.09018667 -0.14961386 0.10112623 0.040726773
-0.04202922 0.013193179 -0.09306252 -0.16866948 -0.05075296 -0.0015663737 -0.021314932 -0.17918628
0.27191168 0.0806558 -0.09682771 0.08191668 -0.16438627 0.13828194 -0.012271544 -0.14034216
-0.07918857 0.1104702 -0.03081513 0.024693541 -0.102217235 -0.22031322 0.08507188 -0.049737256
-0.121246226 -0.015421352 0.09032061 0.0061659985 -0.1938526 0.10567024 -0.041692868 -0.10839001
0.1753612 0.052452326 0.27115983 0.19294879 -0.17047524 -0.023902038 -0.03565342 0.07284014
0.22918525 0.16150248 -0.22887877 -0.005760914 -0.21244712 0.011554712 -0.097892955 -0.21074104
0.013998634 0.11531524 -0.041364893 0.08748626 0.0848501 0.034252718 -0.06319666 -0.039173294
-0.066941306 0.08686201 -0.010537664 -0.13486691 -0.10634657 -0.2531364 0.018240778 -0.053827573
0.2557518 -0.020454181 0.010547028 0.042923883 -0.089430265 -0.06985812 0.040999174 0.12153381
-0.19155473 0.10451329 -0.24729823 -0.07829625 -0.033028867 0.0372215 0.059994314 0.1373352
-0.18442927 0.07462385 -0.17039235 -0.1956226 -0.0854733 -0.29764256 0.055819698 -0.12052759
-0.21955957 -0.019322382 -0.059206128 0.04398485 0.14396572 -0.1239897 0.18635246 0.07957271
-0.21074314 -0.06997455 0.18361475 0.025543716 0.0202826 0.09396928 -0.05795316 0.12367272
-0.2420104 0.058897167 -0.0013586237 0.02239733 0.1097053 -0.0928314 -0.13712929 -0.09226369
0.096850306 -0.14278416 0.037739947 -0.099854894 0.06540284 -0.24262485 -0.07063734 0.08383653
-0.07696909 -0.014635782 0.1553811 -0.010835557 0.115295365 0.09091905 -0.17638117 0.097477205
0.054341976 0.16877033 0.028184237 0.026213659 0.0225924 0.24066775 0.11328411 -0.21639732
-0.05525326 -0.12310167 0.16194518 0.18395664 -0.16508113 -0.07974274 0.15063265 0.082688555

recurs2.weight_hh f4 [120, 30]
00000000: d883 1d3d 6cb6 b13d f6b4 4e3e b52b 25be
00000010: 29c0 d13d 257d d9bd 85a4 413e 8451 fdbd
00000020: 739b 03bd bcaf c43d 9f6c 03bd acb3 673d
00000030: b74f 12bd c9e8 6f3d 518b a2bc 191a de3a
00000040: ff5c 8f3d eecc 1e3e c736 51be 8a09 d4bd
00000050: a79d 24bd 303a f5bd 732b ccbd 166e 31bd
00000060: 0217 6c3d 6568 a0bd 4887 88bb d325 7bbd
00000070: 9882 2ebe 5acc f53d 1927 a7bc fa0b c5bd
00000080: cd06 08be d347 753d c7db 5fbd f8e0 733d
00000090: 6a1d f0bb d7ef 50bd fdd0 a7bd 7114 e03d
000000a0: 7270 5ebe d801 19bd ab3a 8bbd 7e00 26bd
000000b0: a110 153e 989c 2e3e dd49 543e fa58 98bd
000000c0: 8f68 b5bd ef06 953d cb02 1f3e 0f16 06be
000000d0: f286 dfbd 59af 00be c992 4ebd 76fc 96bd
000000e0: b21a 30be b20c c13a f52a c5bc 739f a93d
000000f0: b1ed 14be 5dde 38bd ffb6 5a3e 645d 1cbd
00000100: 57cf 143e 4be2 d1bd c011 87bc 2cc5 023d
00000110: a245 d7bb acf5 6abe 31b9 a83d 65a2 93bc
00000120: 568e e8bc fd78 1f3d 261b 533e eeae 3e3d
00000130: 67d8 fa3d 57b4 e23c a258 fc3d d886 b63d
00000140: b5c0 1e3e fb29 4e3c f05d 62be 3ad1 673d
00000150: 697c 2cbe 4f6d 6ebe af6b b1bc 9edc c73c
00000160: 95bc 0ebe 0cc6 5a3e b2bb 23bd 2668 3b3c
00000170: 9eb8 513e a12e 883d 69d2 ebbd 0744 e3bc
00000180: d3a4 cfbd e51d 05be 4c07 083c e2f2 893c
00000190: f7d6 30be 7bff 14bd e06c 5fbe d475 6dbd
000001a0: 93ad c73d c004 58bc 1394 303e 4fcb 2b3e
000001b0: 2ce9 f93d 7cb1 c43c 7a77 fcbc fcd1 cabc
000001c0: fe08 52be 8e00 91bd d4e7 b63d 44f5 d7bc
000001d0: 0fca ef3c ea94 403e 8009 af3d 66b0 933d
000001e0: d28a d03d 103b 333e bdf4 9dbd e12f 5dbb
000001f0: 85ef 103e 2b3e 103d 43e7 803e c1e1 2ebe
00000200: 9923 b5bc e2cd 393e 3ac8 3ebe 66ba 8dbd
00000210: 3d31 e53d ee56 213e aa50 683e d6bb 85bd
00000220: cc73 e83d 01ea d6bd cc39 36be 9985 173d
00000230: b778 61bd e472 223d bd9c e6bd 184a e23d
00000240: aa1c f2bc bf0f 38bb 1f64 093d 6ebb 473e
00000250: 04da 01bd 38bf 403e 7246 40be 7f50 17bd
00000260: 6df0 3e3e 3636 cf3d 440f 45bd d11f 0f3e
00000270: 9ec2 003e 9938 1abe 71ff 363d 416c 0f3e
00000280: 47eb 14be d6b2 3c3e f08a e4bd 22df e4bd
00000290: bb06 01bd 7265 b6bd ca7a 5b3e 8f7f 093e
000002a0: 6446 c93d 9cfd d23d a356 c13d 980a 9ebd
000002b0: e9ff 5dbe e8cf fbbd fc2f 85bd 585f d63d
000002c0: cb15 b5bd bdc9 c63c 9f0b 123c 13fe 7f3e
000002d0: 66ea ecbc 42b3 073e 636c bebd 9c0f 46be
000002e0: 0f16 01bc e6f3 823d 89e4 033e fd63 8d3d
000002f0: 0720 143e ee27 83bd f9be 47bb 0a18 2f3e
00000300: e978 f4bd 1092 0c3e 32b1 afbd 58b5 c63d
00000310: 6d6e d23d e9d8 373e ea38 33bd b397 99bc
00000320: ba07 a8bd ead4 203e ac86 66bc 818d 81bd
00000330: 1468 a83c 93c1 8a3d 51bd afbd 940d 14be
00000340: b5d3 6cbd 6d38 ce3d 23d5 62bc 2528 303c
00000350: 28a5 8d3d ec5a 08bd fd23 393e 622c 00be
00000360: c461 5f3e ff0a 90bc ac20 e43d bbd6 bc3d
00000370: 2fa4 50be 8b05 1b3e cf43 93bd 426f c3bd
00000380: 03f7 193e 8a93 d43b 60b9 b8bd df36 5cbd
00000390: dff1 d53d 1ccb 3bbe 1b26 9e3d b9f1 5f3c
000003a0: 3694 34be 669f 273d f14c 15be 48a4 8cbd
000003b0: 5a0a 27bd 411c f43d 220b 87bd d84d d5bd
000003c0: 09ce 4fbd 12c4 323e 84f8 a3bd 898d 023e
000003d0: 49bb 173e b0b7 38bd 43c2 353d 9b1d 013e
000003e0: 6fd4 81bc bddb 523d 3599 a1bc bc07 363d
000003f0: 8f5f 1cbe 92d8 92bd e5e7 5e3e a132 973d
0.038455814 0.08677372 0.20186219 -0.16129954 0.1024173 -0.106195726 0.18910415 -0.123690635
-0.03213067 0.09603831 -0.03208601 0.056567833 -0.035720553 0.05857161 -0.019841822 0.0016945034
0.070001595 0.15507862 -0.20431052 -0.10353382 -0.04018941 -0.11973989 -0.09969225 -0.043317877
0.05763913 -0.07832412 -0.0041665174 -0.06131537 -0.17042005 0.120018676 -0.020404385 -0.09621425
-0.13283844 0.05988295 -0.054652955 0.05954072 -0.007327725 -0.05100998 -0.08194158 0.10941399
-0.21722582 -0.037355274 -0.067982994 -0.040527813 0.14557125 0.17051923 0.20731302 -0.07438846
-0.088578336 0.07276713 0.15528409 -0.13094352 -0.10914411 -0.1256689 -0.050432954 -0.07372372
-0.17197683 0.0014728515 -0.024068335 0.08282366 -0.14543797 -0.045133937 0.2135887 -0.038175
0.14532219 -0.1024824 -0.016487956 0.03192632 -0.00656958 -0.22945279 0.082384475 -0.018021772
-0.028388184 0.038933743 0.20615825 0.046553545 0.12248307 0.027673883 0.12321593 0.08912438
0.155032 0.012583251 -0.22106147 0.05659602 -0.16844334 -0.23283885 -0.021657793 0.02439719
-0.13939126 0.21364611 -0.039973922 0.011438405 0.20480582 0.06649519 -0.11514742 -0.027742399
-0.101388596 -0.12999685 0.008302521 0.016839448 -0.17269503 -0.036376458 -0.21818876 -0.057973698
0.097499035 -0.013184726 0.17243986 0.16776775 0.12202677 0.024010412 -0.03081869 -0.024758331
-0.20511243 -0.07080184 0.089309365 -0.026362069 0.029271154 0.18806806 0.08546734 0.0721138
0.10182728 0.17503 -0.07712696 -0.0033750462 0.1415387 0.035215538 0.2517644 -0.17078306
-0.0221117 0.18144944 -0.18631068 -0.06920318 0.11191032 0.15755817 0.22687021 -0.065299675
0.113502115 -0.104938515 -0.17795485 0.036992643 -0.055046763 0.03966035 -0.11260364 0.110492885
-0.029554684 -0.0028085557 0.03354275 0.19505093 -0.031702057 0.18822944 -0.18776873 -0.036942
0.18646403 0.10117762 -0.04811026 0.13976981 0.1257424 -0.15060653 0.0446772 0.1400614
-0.14542876 0.18427595 -0.11159313 -0.11175372 -0.03150056 -0.08906068 0.21433559 0.13427566
0.09827879 0.103022784 0.09440353 -0.07716864 -0.21679653 -0.12295514 -0.06503293 0.10467404
-0.08842047 0.024266118 0.0089139035 0.24999265 -0.028920364 0.13251975 -0.09298017 -0.19341892
-0.007878794 0.06394176 0.12880148 0.06903837 0.14465342 -0.064041 -0.0030478819 0.17099014
-0.11937124 0.13727593 -0.08578719 0.09702557 0.10274968 0.17953838 -0.04375545 -0.018749094
-0.08204599 0.1570622 -0.014070194 -0.06325818 0.02055744 0.067752026 -0.08581031 -0.14458305
-0.057819087 0.10069356 -0.013844761 0.010751759 0.06916267 -0.033289835 0.18080135 -0.1251693
0.21814638 -0.017583368 0.11139044 0.09220644 -0.20375131 0.15138833 -0.07190668 -0.09542705
0.15035634 0.0064873146 -0.090197325 -0.053763267 0.10446524 -0.18339199 0.07722112 0.013668471
-0.17634663 0.0409235 -0.14580132 -0.06867272 -0.040781356 0.119194515 -0.0659392 -0.10415238
-0.0507336 0.17457607 -0.08006385 0.12749304 0.14817537 -0.045097053 0.044374716 0.1260895
-0.015848367 0.05147909 -0.019726375 0.04444097 -0.15270828 -0.07170214 0.21768148 0.073827036

recurs2.bias_ih f4 [120]
00000000: 98cb 8f3e cf69 5c3e 058d 1cbd 4722 af3d
00000010: 0053 d7bc 9900 d0ba d4ea 5c3d 2d20 843e
00000020: 917f 903d 0ba5 8e3e 67b2 bbbd 3bd6 9e3d
00000030: a3b8 e23d 9568 83bc d22a 953d d4da da3d
00000040: ed3a 713e d39c c23d 3baa 9e3d 458c 543e
00000050: 3915 623c 7e76 523e ba00 7a3e db19 21bc
00000060: 4779 0c3e 8fa0 093d c390 813e 77cf 903d
00000070: f644 af3d 7249 563e 6724 803d 721b 2a3e
00000080: 5ed8 fabc 253e 69bd bdbb ea3d b23e 843e
00000090: 0d8b 1f3e 82e9 84bc 3499 843e 9eaa bcbd
000000a0: b640 5b3e e9a2 263d d9f9 1ebd cea4 8e3d
000000b0: 3503 3d3e 99ef 593e cc59 eb3c 8c7a e23d
000000c0: e8b3 e83d 290e 123d c301 983d a2d6 6b3e
000000d0: e67e 593c 9835 203e 43f0 17bd 34b4 febc
000000e0: 3f2c cb3d 39bb 2dbd 0f83 27bd 4aa2 e93c
000000f0: 65e8 8dbd 5288 023e cc2e 143e 1c1f 9abd
00000100: 6eb7 ee3d a295 0d3e 9c64 063e 1095 08be
00000110: a8e6 0bbe 5827 a63b bebc 5abc c5a1 8c3d
00000120: be96 3bbe b29c 1e3e 4f83 853e bc63 dd3c
00000130: c296 0c3d 61c7 2f3d 2a5a 09be 1c07 2cbe
00000140: 5a0d 233e b1be 283e fb64 0c3c 7df4 36be
00000150: f5b6 063c eeb7 26be 01cb 0e3d cd48 4d3e
00000160: 0658 323e 1315 5e3e 7988 f73d 670f 853e
00000170: 1f8e 6a3d cc96 e43d aacb 57bd b265 3d3e
00000180: 9b1c 033e e381 0d3e 11e2 3a3e b944 5e3e
00000190: bf3c c0bd bfce 3b3d fc2f 5fbd 3f66 5a3e
000001a0: 5795 7f3d 57a5 3dbd e3a5 403e eb47 f6bc
000001b0: 0660 483d 8d8c 3d3e 2084 473e ed51 353e
000001c0: d929 aa3d 04f6 b73c ff23 c33d a89f f7bd
000001d0: bc15 193d 81e7 3b3e ed45 403e 61cd a0bd
0.28085017 0.21524738 -0.038220424 0.0855146 -0.026284695 -0.0015869319 0.053934887 0.25805798
0.07055581 0.27860293 -0.09164887 0.07755705 0.11070373 -0.01604108 0.07283558 0.106862694
0.23557635 0.09502568 0.07747313 0.20756634 0.013799005 0.20553014 0.2441434 -0.009832825
0.13718139 0.033600386 0.25305757 0.07070821 0.08558075 0.20926455 0.06256943 0.16612032
-0.03062075 -0.05694403 0.114615895 0.25829083 0.15580387 -0.016224626 0.25898135 -0.0921223
0.21411404 0.040682707 -0.038812492 0.06965028 0.18458255 0.21282806 0.028729342 0.1105853
0.113624394 0.035658035 0.07422211 0.23031095 0.013274884 0.15645444 -0.037094366 -0.031091787
0.09920549 -0.042414878 -0.04089647 0.028519768 -0.06929091 0.12747315 0.14470977 -0.07525465
0.1165608 0.13826612 0.13124317 -0.13338113 -0.13662207 0.005070608 -0.013350664 0.068667926
-0.18319222 0.15489462 0.26076743 0.027025096 0.03432346 0.042914752 -0.13413301 -0.16799587
0.15923062 0.16478993 0.0085689975 -0.17866702 0.008222331 -0.16281101 0.03486157 0.20047303
0.17416391 0.21687727 0.12086577 0.25988314 0.057264443 0.11161575 -0.052684464 0.18495825
0.12803881 0.13819079 0.182503 0.21705903 -0.093865864 0.045851465 -0.05448912 0.21328066
0.06239828 -0.04630026 0.18813281 -0.03006359 0.0489197 0.18510647 0.19483995 0.17707033
0.08308763 0.022456177 0.0952835 -0.12090999 0.037374243 0.1835003 0.18776675 -0.07851673

recurs2.bias_hh f4 [120]
00000000: 2011 2a3e 32f9 743e 2b43 7fbd 6ad1 be3d
00000010: cbbd 49bb 8e1f ba3d e226 d6bb dbed 813e
00000020: 1997 323e 6317 833d ff77 8dbd 76c0 913c
00000030: 972e 863d 3596 f03d 1106 d9bb b137 7abb
00000040: 3121 af3d a5ac dcbc 8186 163e aebd 78bd
00000050: 59ac 493d 65e9 86bd 0d5b 973c 878a cb3d
00000060: 8249 d63c 31cc 23bd a706 063e 32a3 9f3a
00000070: 1261 053e d5bc 043e ba29 743c 5b50 eabd
00000080: 0c01 62bc ba08 ac3d 2ac7 0d3e 5b65 29bd
00000090: d764 143e 9c3a db3d b3fb f13d 28f9 023d
000000a0: 315a 583c cecb f03d 3938 3a3e de79 f6bb
000000b0: 2d5b e83d 2964 503e a880 4a3e d029 873d
000000c0: 3e69 d93d 405c c73d 7cd8 2c3e 621e 843b
000000d0: 467d b23d 7ed5 373d 9de8 62bd c96b aa3d
000000e0: 3147 8ebd d6fd f63d 9f37 743d 43bb db3d
000000f0: 6803 00be 8737 0b3e 26d9 323e 626f f33d
00000100: 2ac1 8e3d 18ec 9bbd ccb5 353e d78b 0b3d
00000110: 54cb 27be acbd fa3b 958f 92bd 09bc 443d
00000120: aa90 12bc 4c6a 173e 2692 843d fd3c 393c
00000130: 0bc9 2cbb 27da f83d dcb2 22be b8e6 173e
00000140: af01 bfbc 12b9 ef3d 5965 e0bd c761 afbd
00000150: e1a5 f33b 451c 84bd d14d 13be a04a 06be
00000160: c8e8 23be 0b2d 743e 90d5 2d3e a9dc af3c
00000170: 81cf 513e 6563 be3d 6dbb 7f3d 66da f6ba
00000180: 788f 63bd d612 3f3e 9f1e 6f3e d554 f9bd
00000190: f79d cf3d e4dc 0d3e 1412 07bc 4631 d2bb
000001a0: e3fd 8abd 10b1 293e 071a 923e 1f2a 163e
000001b0: bb4c ba3c 3eea 053e 13fa cfbc 652d f9bc
000001c0: 6b1b 133e 1822 4b3e ea55 c93d 24ac ae3b
000001d0: c03e f53d 9fe3 0cbe 43b2 513e 80c9 bcbc
0.16608095 0.23923185 -0.062319916 0.09317286 -0.0030783291 0.0908805 -0.006535397 0.25376782
0.17440452 0.06400945 -0.06907653 0.017791968 0.06551855 0.117474 -0.0066230376 -0.0038180167
0.08551253 -0.026937792 0.14699747 -0.060727768 0.04923663 -0.06587485 0.018476034 0.09938531
0.026158098 -0.039989654 0.13088475 0.0012179373 0.1302531 0.12962659 0.0149025265 -0.11441108
-0.013794195 0.08400102 0.13845506 -0.041356426 0.14491592 0.10704538 0.11815586 0.031975895
0.013205097 0.11757623 0.1818551 -0.007521852 0.113455154 0.20350708 0.19775641 0.06599772
0.106157765 0.09734392 0.16879457 0.004031942 0.087153 0.044881336 -0.05539762 0.0832134
-0.069471724 0.12060134 0.059623357 0.10729077 -0.125013 0.13595401 0.17465648 0.11886479
0.06970437 -0.07613391 0.17745131 0.03406891 -0.16386157 0.007652005 -0.07156292 0.048030887
-0.008945623 0.14786643 0.06473188 0.011306045 -0.0026364948 0.12150984 -0.15888542 0.14834106
-0.023316232 0.11705221 -0.109568305 -0.085635714 0.007435546 -0.064507045 -0.14385153 -0.13114405
-0.16006768 0.23845308 0.16975999 0.021467524 0.20489313 0.09296302 0.062434603 -0.0018833398
-0.055556744 0.18659529 0.23351525 -0.121743836 0.10137551 0.13853794 -0.008244056 -0.0064145653
-0.06786706 0.1657145 0.28535482 0.14664505 0.022741666 0.13077638 -0.0253878 -0.030417154
0.14365928 0.19837224 0.0983084 0.0053305794 0.11974859 -0.13758706 0.20478158 -0.023045301

output.weight f4 [2, 30]
00000000: 224d edbd 1f67 d8bd 99d1 933d a54e fcbd
00000010: dc99 973d b6b1 1cbe 3efc 133e b28e 36be
00000020: 8650 45be 466a 24be 583f 573d 5c1e 023e
00000030: c3b9 e1bd a73c 933b ca66 643e dfc7 043c
00000040: 68b6 033e 17cb d43c abfb aabd 9548 2b3e
00000050: 6cce 983d 3ec3 fabd ea5d c0bd 60a0 ae3d
00000060: 6e02 fb3d 51a2 e1bd bd01 1bbe 5185 323e
00000070: 1ee3 b8bd c6ea 073d cd47 6d3e 0430 463e
00000080: 98cf 1e3e 21f1 3d3e dd3a bbbd 79be 043e
00000090: c987 16be c795 fc3d abd8 173e 2372 0c3e
000000a0: fe16 3bbe 2af2 c9bd cf9c f2bd 8023 3bbe
000000b0: 32f0 043e e148 5d3e fcd8 013e e90a 3bbe
000000c0: d091 4d3e d917 3fbe c053 3d3e 606e 60bd
000000d0: 3f70 1e3e c6a0 f13d a5ec 8bbe 06b9 df3d
000000e0: 098e f1bd 1fe1 36be b536 633e adfe 023e
-0.115869775 -0.10566544 0.07217712 -0.12319688 0.07402393 -0.15302166 0.14451692 -0.17827871
-0.19268999 -0.16056165 0.052550644 0.12706894 -0.11021759 0.0044933143 0.22304836 0.008104294
0.12862551 0.025975747 -0.08348783 0.16726907 0.07461247 -0.12244271 -0.09392913 0.08526683
0.12256323 -0.110172875 -0.15137382 0.17433669 -0.09027694 0.03318288 0.23171921 0.19354254
0.15508878 0.18549015 -0.09142087 0.12963285 -0.14700235 0.12333255 0.14828746 0.13715415
-0.1827049 -0.09860642 -0.11846315 -0.18275261 0.12982252 0.21609832 0.12680429 -0.1826588
0.20075154 -0.18661441 0.1848898 -0.05479276 0.15472506 0.11798243 -0.27328983 0.10923962
-0.11794669 -0.17859314 0.22188838 0.12792464

output.bias f4 [2]
00000000: 6c0f 1a3d 7345 963c
0.037612364 0.018343663

switch.weight f4 [1, 30]
00000000: 28e7 033e 5eac 8bbd ac4e cbbd 9fb7 68bd
00000010: 96bd 35bd 5dfb 9d3d 7934 0bbd 0ead ac3d
00000020: 3993 14be 4b84 b93c 82a9 103e 09c6 9ebc
00000030: 7b27 163e 63b2 693d 68dc 32be e100 d7bd
00000040: d3c1 143e 5b1c fabc dc1b 323e 68e2 35be
00000050: ef6b c8bd b685 0e3e 6b1e 2c3e 8e31 2abe
00000060: 6270 723d 6e05 38be 0e7e 07be 1f10 a83d
00000070: b1c9 b9bd b9a1 61bc
0.12881148 -0.06819986 -0.09927115 -0.05681574 -0.044370256 0.07713959 -0.03398559 0.08431445
-0.14509286 0.02264609 0.14127162 -0.01938154 0.14663498 0.05705489 -0.17466891 -0.104982145
0.14527063 -0.030531099 0.1739344 -0.17762148 -0.09786212 0.13918194 0.16808479 -0.16620466
0.059189208 -0.17970821 -0.1323168 0.082062 -0.09071673 -0.013771468
