checkpoints/VQE-H2-13b98ead/.pth (torch, 49793 bytes, 11 tensors)

recurs1.weight_ih f4 [120, 2]
000000 c4 f1 4c bd 53 b1 60 3e 57 ea 6b be c3 bd bf bd
       -0.050035253 0.21942644 -0.23038612 -0.09362366
000010 fe 4b dc bd 94 64 25 bd 0b ff 32 bd fd 23 af 3d
       -0.10756682 -0.040379122 -0.04370026 0.08551786
000020 4f 6b dc bd 4e c8 5c 3d c6 d7 ff bd 66 71 ae 3d
       -0.10762655 0.053901963 -0.124923274 0.08517723
000030 bf f6 79 be fb fd e7 bd 21 8c ee bd 9b 79 71 3d
       -0.24410532 -0.1132774 -0.11647821 0.058953863
000040 5a af a1 3b 0b 9b 4a 3e a3 aa 3f be d1 12 28 be
       0.0049342336 0.19785707 -0.18717436 -0.16413428
000050 08 34 ed bc 78 fa 1a 3e 16 ff c9 bd 88 ef 11 3e
       -0.028955474 0.15134609 -0.09863107 0.1425153
000060 a6 46 ef bd d0 8d 79 bd 62 43 fe 3d 10 58 90 bd
       -0.11683397 -0.06092626 0.12415196 -0.070480466
000070 52 4b 07 be ad 85 95 3d 82 8f fd bd 90 8a be 3d
       -0.13212326 0.07300887 -0.123808876 0.093037724
000080 a9 2a 38 be df 42 1b be 99 ec 56 be ec 48 68 be
       -0.17985024 -0.15162228 -0.20988692 -0.22684067
000090 b8 cd 22 be e3 b4 6b 3e 1e 9d a5 3c 82 ce 41 3e
       -0.15898788 0.23018222 0.02021652 0.18926433
0000a0 4a 4f e6 bc b7 4a df bd a1 75 21 bd 05 1e 36 be
       -0.02811398 -0.109029226 -0.03941882 -0.17784889
0000b0 b6 9f 26 be f7 7e 3a be bf f9 ba 3c 7e 9c b0 3b
       -0.16271862 -0.18212496 0.022824166 0.005389749
0000c0 c1 68 05 be 81 42 9f 3c 06 7d 68 3d f3 bf 99 3e
       -0.13028242 0.019440891 0.056759857 0.30029258
0000d0 39 11 d2 3c a8 8c bd 3d 9b 06 94 3d 51 9d 12 be
       0.025642978 0.09255344 0.072278224 -0.14317824
0000e0 27 e1 17 bd 1d 6c e1 bd fc b8 67 be d4 c4 e4 bd
       -0.037079956 -0.11006949 -0.2262916 -0.111703545
0000f0 1e 8e 20 3d 17 40 47 3e 59 12 30 be 70 78 cc 3d
       0.039198034 0.19458042 -0.17194499 0.09983909
000100 5c ca 6b 3d 99 42 f3 bd ff 32 b5 bc d3 e1 dd bc
       0.05756603 -0.11877937 -0.022119043 -0.02708522
000110 43 dc 3d 3d bd 28 3f 3e e1 bb 49 be 77 b3 5e 3d
       0.046352636 0.18667884 -0.19700576 0.05437037
000120 c2 3a 94 3c 21 cd 1e 3e 64 38 06 3e bd 0a 65 3e
       0.018094424 0.15507938 0.13107449 0.22367378
000130 ab 18 4b bc d8 24 7a bd ea 45 fd bc ad 89 4f be
       -0.012396018 -0.061070293 -0.030917127 -0.20267363
000140 36 fa 71 be 01 98 2c 3e 7f 64 b5 3d a9 49 2a be
       -0.23630604 0.1685486 0.08857059 -0.16629662
000150 6e 63 06 bd f1 d2 06 be 79 51 88 bd 97 cf d4 3b
       -0.032809667 -0.13166405 -0.06656165 0.006494473
000160 48 35 6f 3d 3e dc 43 3c 96 be f9 3c f2 8c c4 3c
       0.058400422 0.011954365 0.030486386 0.02399299
000170 2c 84 ae 3d 1c c2 11 ba 9d ec 6f be 17 77 3a be
       0.085213035 -0.00055602356 -0.23430105 -0.18209492
000180 5c c3 5a 3d fd 52 02 3e ac c2 49 be c1 7c 13 bb
       0.053408965 0.1272697 -0.19703168 -0.002250478
000190 99 58 08 3e 41 71 da 3d e1 e9 0d be 9a 47 54 bd
       0.13315047 0.10666133 -0.13858749 -0.051826097
0001a0 4a a9 49 be 24 da b7 bd e9 82 56 be 7e d9 78 be
       -0.19693485 -0.08977154 -0.20948376 -0.24301717
0001b0 01 ce 71 bd ea 50 a8 3d b0 98 01 be 89 10 68 3e
       -0.05903435 0.08218558 -0.12655902 0.22662558
0001c0 7a 87 1f be 0f 98 72 3e a6 21 bb 3d 88 f8 37 be
       -0.15579024 0.23690818 0.09137277 -0.17965901
0001d0 35 8e d1 bd 18 3d 17 3d 28 e7 36 bd ab 92 b8 3c
       -0.10232202 0.036923498 -0.04465404 0.022530874
0001e0 d8 16 0c 3d 55 00 06 3e 28 5b a0 bd 96 c1 4b 3e
       0.034201473 0.13086064 -0.07829887 0.19898066
0001f0 d5 9e 4d be f9 91 49 be 36 34 a2 bd 25 82 1b be
       -0.20080121 -0.1968459 -0.07920115 -0.15186365
000200 9e a2 6a bd 5d 09 8a be 60 00 9c bd 4e c9 1f 3e
       -0.05728399 -0.2696027 -0.07617259 0.15604135
000210 3f f4 e4 bd cf 1c fe bd 1a 5d 03 3e f0 0c 03 be
       -0.11179399 -0.124078386 0.12828484 -0.12797904
000220 0d 7f 9b 3c 63 0f 0c be fa b9 95 3d 57 8c 5c 3e
       0.018981481 -0.13677745 0.07310863 0.2153791
000230 63 59 27 3e d1 a3 71 3e c0 1a 2d 3e ed 99 d0 3d
       0.16342692 0.23597647 0.16904736 0.10185609
000240 b7 ed 38 be 90 c0 4a be 2e 6e 2b 3e 12 21 8d bd
       -0.18059431 -0.1980002 0.16741249 -0.06891073
000250 b0 90 01 be 81 a4 2a bd 42 17 38 be 44 2d 7d be
       -0.1265285 -0.04166079 -0.17977622 -0.24724299
000260 12 0e 0b bc 94 fc 51 3e 99 93 9a 3d 61 64 8d be
       -0.008487241 0.20506507 0.07547683 -0.27615646
000270 f5 1d e0 3d bb b9 80 be a2 04 10 bc f8 68 39 be
       0.10943214 -0.251417 -0.008790167 -0.18106449
000280 c7 f5 16 3b 26 06 ab bc 13 e7 3e be e3 4f 8b be
       0.0023034678 -0.020876955 -0.18642835 -0.27209386
000290 25 1e 8b bd 05 d6 e4 bd 37 02 93 bd 20 55 3f 3e
       -0.06792859 -0.111736335 -0.07178157 0.18684816
0002a0 01 73 5c be 95 51 10 3c ac 8c 39 3e 9e 7a 45 be
       -0.21528246 0.008808513 0.18120068 -0.19285056
0002b0 34 e6 dc 3d 17 9a d2 3d 46 25 0c be fc 95 5a 3e
       0.10786095 0.102832966 -0.13686094 0.21346277
0002c0 13 ea ad bc 50 27 4b be 24 21 17 3e ca 2e 89 be
       -0.02122978 -0.19839215 0.14758736 -0.2679351
0002d0 b2 c4 01 bd ed c2 b0 3d 44 84 70 3d bb 16 a9 3d
       -0.031681724 0.08630929 0.05871989 0.082562886
0002e0 d3 73 3d 3d c3 d0 e2 bc 6d bb a2 bd 3d ad e9 bd
       0.046253037 -0.027687436 -0.07945905 -0.11409996
0002f0 5a dd 72 be af 88 e2 3d 8a c6 ac 3d 0b 46 7f 3e
       -0.23717251 0.110612266 0.08436306 0.24929063
000300 09 5d 45 be 29 03 8c 3c f8 4b 2c be ba a6 1f bd
       -0.19273771 0.01709135 -0.16825855 -0.038977362
000310 43 6b 2b be e4 51 23 3e be 23 27 be 28 ed c5 bd
       -0.16740136 0.15949208 -0.16322228 -0.096643746
000320 fd 72 a0 bd d7 26 05 3e 2b 5e 49 be 40 54 dc bd
       -0.07834432 0.13003097 -0.19664828 -0.10758257
000330 89 21 48 be ff 04 fa 3c cd 7e ca bd a0 6b 80 3e
       -0.19544043 0.03051996 -0.098874666 0.2508211
000340 53 53 62 3d 96 68 13 3e 24 4c 4a bd 82 4a d9 bd
       0.055255245 0.14395365 -0.04938902 -0.10609914
000350 ce ea 09 bd 7b 75 f0 bd e8 5f a9 bd d4 95 34 bd
       -0.033671193 -0.117411576 -0.08270246 -0.0440882
000360 45 43 44 be b7 69 37 3b 43 8f aa 3d c3 04 31 bd
       -0.19166286 0.0027986595 0.08328106 -0.04321743
000370 e2 86 5b bd b1 2c 1b 3e 35 bc 3f ba 30 ad 1d bc
       -0.05359543 0.15153767 -0.0007314117 -0.009623811
000380 a4 c8 3e be f6 84 f6 3b dd 0a 54 be 89 e9 23 be
       -0.18631226 0.0075231744 -0.20707269 -0.16007055
000390 03 63 e1 bd ad da 6b 3c 44 4f 63 bd d8 dd 8b 3e
       -0.11005213 0.014395398 -0.055495515 0.2731769
0003a0 a3 99 af bc c5 5d 6f 3e ec 7a 85 3d 91 49 22 be
       -0.021435564 0.23375614 0.06517586 -0.15848376
0003b0 ea 04 75 3c 25 39 c7 bd 46 3a 30 be 44 60 db 3c
       0.014954785 -0.09727696 -0.1720973 0.026779301

recurs1.weight_hh f4 [120, 30]
000000 e0 54 f4 3d 31 1a 64 3e 86 68 84 bd 3c 07 11 3d
       0.11930251 0.22275616 -0.06465249 0.03540729
000010 1b 8e c0 3a bb 95 e3 bd c9 0d 65 3d a8 6e 5f be
       0.0014690788 -0.11112543 0.05592135 -0.21819556
000020 a6 99 80 bd 73 1a c0 3b 46 34 92 bb 59 c4 cf 3d
       -0.06279306 0.005862528 -0.004461798 0.10144872
000030 5f bc af 3d 2e fb e2 bd 6b 3f 7c bd 4c 44 16 be
       0.08580851 -0.11083065 -0.061583918 -0.1467449
000040 0c fd cf bd 5d 60 20 bd fb e6 1d be d5 aa 40 be
       -0.10155687 -0.0391544 -0.15420143 -0.18815167
000050 79 0e 22 be 50 5a ac 3c 6b 6f 87 3d 0f be 54 3e
       -0.15825833 0.021039158 0.06613048 0.20775627
000060 d7 31 ef 3d 0c 57 03 be 01 34 7b 3c 14 ba 0a 3e
       0.11679428 -0.12826174 0.015332223 0.13547546
000070 a2 60 8a 3d c4 9d 59 bd a0 f8 8b bc 8f 0f f9 bc
       0.067567125 -0.053128973 -0.017086327 -0.030402927
000080 bc 30 cf bd 4b dc fa 3d 04 e7 ee bd b2 63 ad bd
       -0.10116717 0.12249049 -0.116651565 -0.08466281
000090 bb 33 20 3e 14 83 27 be a3 c4 aa bd 0d 27 a9 bc
       0.15644734 -0.16358596 -0.08338287 -0.020648504
0000a0 67 2d fc 3c 90 a5 fb bd a6 60 f5 bd a8 c2 8c 3d
       0.030783368 -0.12287438 -0.11981325 0.06873065
0000b0 a1 a9 cb 3d 38 dd 2d 3e b7 ed b8 bd e3 40 3d 3d
       0.099444635 0.1697892 -0.090297155 0.04620446
0000c0 3b ee ea bd a4 90 9f bd de 7b 4d be 7f c2 3e 3d
       -0.1147122 -0.0779126 -0.20066783 0.046572205
0000d0 ff da c8 3d 89 3b 72 bd 8c f8 0c 3d f0 d6 46 be
       0.09807395 -0.05913881 0.03441672 -0.1941793
0000e0 60 2d 5b 3e 6f a5 17 be 50 7d 68 3d eb 54 97 bd
       0.21404028 -0.14809202 0.056760132 -0.07389244
0000f0 d5 c5 e5 bd a2 d3 62 bd 45 54 23 bd 84 1a bb 3d
       -0.11219374 -0.05537761 -0.039875288 0.09135917
000100 af b7 cb 3d 80 0c 37 be ff cd a9 3d 3d 94 0c 3e
       0.09947144 -0.17875862 0.08291244 0.13728423
000110 7e 73 01 3e e7 ac 9b bd c1 72 62 be d2 a4 a0 bd
       0.12641713 -0.07601338 -0.22114088 -0.07843937
000120 4f 91 16 3e e0 1c c2 bd 81 7c ca 3d c2 aa 36 3e
       0.14703868 -0.09478164 0.098870285 0.17838576
000130 a0 b0 1b be 5b 7f 92 3d b0 2b 0d 3e 6b b6 23 3d
       -0.15204096 0.071531974 0.13786197 0.03996889
000140 9a 8e b5 bc 73 02 a7 3d 5f 6c b2 bd 79 b9 33 bd
       -0.022162724 0.08154764 -0.087120764 -0.043878052
000150 4e 18 28 3e 41 f8 60 3e 29 11 f1 3d 3f b2 01 bd
       0.16415522 0.21969701 0.11770851 -0.03166413
000160 f8 15 15 3e 8c b1 d0 bc d3 38 07 be 36 63 42 be
       0.14559162 -0.025475286 -0.1320527 -0.18983158
000170 c5 0e 64 3e 18 a4 26 3e 73 da c6 bd 49 63 9f 3d
       0.22271259 0.16273534 -0.09709635 0.07782609
000180 f7 f3 24 3e 16 c3 50 3e 9e 5b 38 3e 24 89 e1 3d
       0.1610869 0.2038692 0.18003699 0.110124856
000190 c9 f5 8c bd 18 28 b2 bd 9e 16 54 3e bd fa 53 3d
       -0.06882817 -0.086990535 0.20711753 0.051752795
0001a0 b6 e1 7d bd f6 47 4a 3e ec 8a 57 3d cb f3 13 3e
       -0.061982833 0.19754013 0.05262272 0.14448468
0001b0 45 6a bc bd 6e 50 f0 3c ee 18 e1 bd 32 64 2f 3e
       -0.09199957 0.029335227 -0.10991083 0.17128065
0001c0 04 af 84 3c 67 f7 0c 3d c5 de aa 3d 13 8f 98 3d
       0.016196735 0.03441563 0.08343271 0.07449164
0001d0 27 7d 9e bc aa fd 69 3d 00 7a c8 bd 83 db 97 3d
       -0.019346787 0.05712668 -0.09788895 0.074149154
0001e0 82 32 11 bd 8a 90 17 be 3b a2 87 bd 4e 36 76 3e
       -0.03544856 -0.14801231 -0.0662274 0.24044153
0001f0 78 38 b8 3d 19 b3 87 3e 62 16 0b 3e dc 90 53 be
       0.089951456 0.26503828 0.13582757 -0.20660728
000200 ca df 39 be 9b ae de bd fa 47 da bd 39 83 02 3e
       -0.18151775 -0.10873147 -0.1065826 0.1274537
000210 b9 b7 ab bd 27 95 3f be ec 09 9d bd 2c 25 b0 bd
       -0.08384652 -0.18709241 -0.07667908 -0.0860084
000220 60 57 e6 3d ce c3 1f 3e 6a 7e 5e 3d ec 80 7d 3d
       0.11247134 0.15602037 0.054319777 0.061890528
000230 f4 b3 78 3d 0f 50 36 bd c9 fe e2 3d b1 3e bc 3d
       0.06071849 -0.044509944 0.11083753 0.09191645
000240 0f 61 22 3e d4 7d b4 3d 73 5b 45 3e 8a 56 d0 3d
       0.15857337 0.08813062 0.19273166 0.10172756
000250 ee 1d 9b bd 9e e6 a4 3d 1a 6e b7 3d f2 fa 67 3d
       -0.07574068 0.08051799 0.08956547 0.056635804
000260 72 e3 ba bd 6c e1 48 bd 16 c1 73 be 71 07 47 3e
       -0.09125413 -0.049043104 -0.23804125 0.19436432
000270 77 be 69 3d ce f3 bb bd e0 db 33 be 42 07 3b 3e
       0.057066407 -0.091773614 -0.17564344 0.18264487
000280 f3 6f 5f 3e cd 93 ac 3d 08 3e 17 be 31 e7 c1 3d
       0.21820049 0.08426628 -0.14769757 0.094679244
000290 fd 6c 04 3e 45 cf 62 be cd b1 82 3e da cf 6d 3c
       0.129322 -0.2214938 0.25526276 0.014514888
0002a0 40 b0 0e be 6c 97 d8 3c 6c 0d 37 be 07 07 ea bd
       -0.13934422 0.026439391 -0.17876214 -0.114271216
0002b0 22 35 01 3e 46 fd 57 3d 0a 15 79 bd 37 1f 0a be
       0.12617925 0.052731775 -0.06081108 -0.1348847
0002c0 1b 4e d8 3c c2 3f 28 3d d2 f1 89 bd ee 22 67 3d
       0.026404431 0.04107643 -0.06735577 0.056429796
0002d0 b6 4a a2 3d 94 6a b7 bd a6 09 75 3d 8b df 1f 3e
       0.07924406 -0.08955875 0.059823655 0.15612619
0002e0 b6 7e 92 3d fe c4 bb bd e1 ba 2f bd f5 65 31 be
       0.071530744 -0.09168433 -0.04290283 -0.1732405
0002f0 c4 40 f9 bd 07 a9 b7 3c b5 92 de bd 66 ef 8e 3d
       -0.12170556 0.022419466 -0.10867826 0.069792554
000300 eb 37 48 3e 3a ef 7f bd 87 5a 2f bd 52 96 6b bd
       0.19552581 -0.062484004 -0.042810943 -0.057516403
000310 ec ae c1 3c 66 da 1b be 8d 67 e4 3c f2 07 64 be
       0.02364298 -0.15220031 0.027881408 -0.22268656
000320 96 a5 7e be c0 92 37 be 78 63 18 bc 4b 47 b0 3d
       -0.24867854 -0.17927074 -0.009301059 0.08607348
000330 5e a5 d3 bd 5e 7c 9c 3d 41 00 15 3b 34 00 4c 3d
       -0.10334276 0.07640909 0.0022735747 0.04980488
000340 80 24 67 37 e2 4c 3e be ca 98 52 3e 02 7d 1b 3e
       1.3777171e-05 -0.18584016 0.20566097 0.15184405
000350 e9 70 50 3e ec ab 05 3e 80 f1 18 be 64 0b 50 3e
       0.20355572 0.13053864 -0.14935875 0.20316845
000360 cd 7f 1d bc 3c 8c 55 3d 28 9a 44 be d6 55 9c bd
       -0.00961299 0.05213569 -0.19199431 -0.076335594
000370 a6 17 1a be 9a 7f 5f bd 26 71 2f 3d 18 44 47 be
       -0.15048084 -0.05456505 0.042832516 -0.1945957
000380 9b 5b e6 3d b2 3f a7 3d ae a3 f7 3c 6c 44 1d be
       0.11247941 0.08166446 0.030229416 -0.15358132
000390 af 90 47 be e3 a7 dc bd 35 9e 10 3d 73 99 1e 3e
       -0.19488786 -0.10774209 0.035307128 0.15488224
0003a0 33 05 e1 3d 91 2a aa bc e9 b2 e0 3d 85 1f 6c be
       0.1098732 -0.02077225 0.109716244 -0.23058899
0003b0 e4 c4 db bd 30 85 be 3d 5f 36 09 be 41 6d 4a 3d
       -0.10730913 0.09302747 -0.13399647 0.0494206
0003c0 73 86 66 bd 14 b7 3c b9 eb 25 dc bd 7f 4d 29 3e
       -0.056280565 -0.00017997279 -0.1074942 0.16533469
0003d0 18 5c a1 bd 93 d1 5b 3e c1 cf 81 3d 8e 0d 26 3d
       -0.078788936 0.21466665 0.06338454 0.04054027
0003e0 94 e1 77 bd c6 d0 8e bd 42 4a ce 3c 1a 44 8f 3d
       -0.060517862 -0.06973414 0.025181893 0.06995411
0003f0 c8 c5 98 3d 1d 2c 51 be b2 20 66 3e 79 aa 59 bd
       0.07459599 -0.20426984 0.2247341 -0.05314109

recurs1.bias_ih f4 [120]
000000 d5 46 e4 bd ad af 8e bd bf 06 80 3a 4b c7 42 3e
       -0.11146323 -0.06967101 0.0009767635 0.19021337
000010 38 4e 21 3e 85 03 d5 3d 1b 37 01 3d 06 e4 5a 3e
       0.15752494 0.10401062 0.031546693 0.21376047
000020 a3 42 af 3d 2c 17 07 3e 25 61 dc 3d fe 3f cf 3d
       0.08557632 0.13192433 0.10760716 0.101196274
000030 33 87 19 3e 1e 16 3a 3e 9b c1 ea 3d e7 4b b3 3d
       0.1499298 0.181725 0.114627086 0.087547116
000040 50 da 16 3e 19 c1 1f 3d f1 3d 3a 3e c3 53 f1 3d
       0.14731717 0.03900251 0.18187691 0.117835544
000050 81 43 3e 3e 24 eb 63 3d 9a d7 e3 bd b2 69 02 3e
       0.18580438 0.05564417 -0.11125107 0.12735632
000060 8e 8e 05 3e 8f 74 51 3e f5 02 04 3e 34 a9 03 3e
       0.13042662 0.2045462 0.12891753 0.12857515
000070 3a da 68 3e 9c f8 53 3d 87 bb 50 3e 02 c8 27 3e
       0.22739497 0.051750764 0.20384036 0.1638489
000080 51 89 22 3e 78 ff 2e 3e 53 71 8f bd e8 30 17 3e
       0.15872695 0.17089641 -0.07004037 0.1476475
000090 14 ac 69 3e f5 13 c2 bd 95 f0 1e 3d a1 e8 84 bd
       0.22819549 -0.09476463 0.038803656 -0.06489683
0000a0 ea 21 0b 3d 5a 7d a8 3d 6c 4f 2d 3e 92 a8 66 bc
       0.03396789 0.08227034 0.16924828 -0.014078276
0000b0 ce de 1d be a5 56 15 3e 90 50 23 3e 8d ce 1c 3d
       -0.15417024 0.14583834 0.15948701 0.03828292
0000c0 f7 58 4e 3e 5d b8 4d 3e cb f4 29 3c 28 fd 96 3d
       0.20151125 0.2008986 0.010373305 0.073725045
0000d0 ed 3d 81 3d 7d 60 05 3d 43 7d 28 3c 1a 73 01 bd
       0.063106395 0.03256272 0.010283771 -0.03160391
0000e0 ba bf 4c bd e6 b1 09 3e 2e 1e fb 3b 71 6c e6 bb
       -0.049987532 0.13446769 0.00766351 -0.00703197
0000f0 1a 36 4a 3e 0f 5f 93 3b b1 2c 2d 3e 64 6c 57 3e
       0.197472 0.004497416 0.1691158 0.21037441
000100 3f 4f 83 bc 0c d1 62 3d 4d 3a 3e 3e 49 2b dd bd
       -0.016028998 0.055375144 0.18576927 -0.107992716
000110 6c 2a 5f bd a2 30 c9 bc 46 29 ab bc 35 f2 16 3d
       -0.054483816 -0.024559323 -0.020893704 0.03685208
000120 ca 2f 00 3e c2 62 01 be 5d c6 66 3d 20 6e 43 3e
       0.1251823 -0.1263533 0.056341518 0.19084978
000130 f6 ea 10 be 0d 20 b8 bd 95 36 ea bd c7 f9 99 3d
       -0.1415213 -0.08990488 -0.11436192 0.07518344
000140 43 5c 5b be a5 54 6a bd c5 58 2e 3e e6 de 0c be
       -0.21421914 -0.05720963 0.1702605 -0.13756904
000150 58 a2 53 3e bf dc c4 bd 48 33 ca 3d 01 4f 84 bc
       0.20667398 -0.096124165 0.09873062 -0.016150953
000160 4e b5 31 3c 68 94 02 3e 89 13 53 3e 86 9a ef bc
       0.010846449 0.12751925 0.20612921 -0.029248487
000170 ff 89 15 3e da 82 bc 3d 44 95 ca 3d 46 21 8a bd
       0.14603423 0.092046455 0.098917514 -0.06744628
000180 7b 5a 02 3e be e3 38 3e 22 67 ac bd 0f f9 d5 bd
       0.12729828 0.18055627 -0.084181085 -0.10447895
000190 ce 22 a0 bd 77 25 e7 3d 72 05 25 3d 25 c6 b5 bc
       -0.078191385 0.11286443 0.040288396 -0.02218921
0001a0 eb 80 38 3e 50 d7 23 3c a9 81 40 bd e7 df e1 3d
       0.18017928 0.010000065 -0.046998654 0.11029034
0001b0 0d c6 2a bd 88 1b 67 3c 30 9a 15 3e 12 32 fa 3d
       -0.041692782 0.014105685 0.14609599 0.122165814
0001c0 dc 59 bb bd 07 cb 82 3e 0d 1d 38 3e 3b b3 87 bd
       -0.09147999 0.25545523 0.17979832 -0.066259824
0001d0 05 5c 09 3e a4 91 09 3e 09 5e 4e bd 98 e9 83 bc
       0.13414009 0.13434464 -0.050382648 -0.016102597

recurs1.bias_hh f4 [120]
000000 9d 20 cd bd 52 a5 2e 3e d7 5d 93 3d 78 2b 03 3e
       -0.10015986 0.17055252 0.07195633 0.12809551
000010 75 d9 ba 3c 43 d4 53 3e 09 73 d3 3d c0 e5 c8 bd
       0.02280877 0.2068644 0.103246756 -0.09809446
000020 6b 21 1b 3d f4 5f 27 3e 99 53 14 3e a9 66 37 3d
       0.037873667 0.16345197 0.14485015 0.04477564
000030 0b bc 1d bd e5 5b 93 bd 39 05 2b 3e 39 7e 25 bd
       -0.03850941 -0.07195262 0.16701211 -0.04040358
000040 c2 97 50 3e 04 57 06 3d 01 47 71 3d a8 bf e3 bd
       0.20370391 0.03279783 0.058905605 -0.1112054
000050 d6 9d 39 bc 1b c5 73 3e 04 20 01 be ba 8c 3b 3e
       -0.011329135 0.23805659 -0.12609869 0.18315402
000060 27 a4 c7 bd 64 51 ab 3d 73 e7 db bd bf d4 aa bd
       -0.097481064 0.083651334 -0.10737505 -0.08341359
000070 e3 b6 85 bd 36 a9 51 3d 18 3d 8a 3d 26 48 82 bd
       -0.065290235 0.051186763 0.06749934 -0.063614175
000080 c3 1e aa 3d b1 43 1a 3e f8 6c 69 3e 56 5a 5b 3e
       0.083066486 0.15064885 0.22795475 0.21421179
000090 92 a4 36 3e 56 00 a6 bc 5b 1d 1a 3d c6 0e 55 3e
       0.17836216 -0.020263832 0.03762565 0.20806417
0000a0 31 ee 2c 3e e4 b8 d9 3b 18 75 56 3e f8 0c f7 bd
       0.16887738 0.006644355 0.20943105 -0.120630205
0000b0 0e 2c 33 3e fb fd 18 3e 97 65 9d bd 4d c7 9e bd
       0.17497274 0.14940636 -0.07685392 -0.07752857
0000c0 d1 80 40 3e fd 07 76 3e 20 49 88 3d 25 d0 98 bb
       0.1879914 0.24026485 0.066545725 -0.0046634846
0000d0 cd 24 0a 3e f3 52 1a 3e 68 07 05 3d a0 b5 49 3e
       0.13490601 0.15070705 0.032477766 0.1969819
0000e0 ec 4f 30 3e ab de b5 3d 5f 6f 20 3e 75 43 b9 bd
       0.17217988 0.08880361 0.15667485 -0.090460695
0000f0 46 32 48 bd a8 58 99 bb 0e 3f b2 3d 14 f1 9b 3c
       -0.04887607 -0.004679758 0.08703433 0.019035853
000100 b1 07 a1 3d e8 89 ab 3d 55 e4 1b be b9 08 9a 3d
       0.07862795 0.08375913 -0.1522382 0.07521195
000110 97 ff 6e bc ba 67 34 be ec bb 19 bb 89 12 68 bd
       -0.014587305 -0.17617694 -0.0023457957 -0.0566583
000120 56 cd 8a bd 71 d4 5e be 6f 89 47 3e ac 7f ae bd
       -0.06777446 -0.21760727 0.1948602 -0.08520445
000130 69 49 60 bc e7 7c 38 3e 68 e3 2d 3b df 4c 1d be
       -0.013689377 0.18016396 0.002653325 -0.15361355
000140 1b c0 64 be 1d 97 7d 3d 35 eb 36 bd 61 90 72 bc
       -0.22338907 0.06191169 -0.044657905 -0.01480493
000150 0a a2 ee 3d 8f 03 80 bd f5 49 46 3e 1e ae 82 bd
       0.11652 -0.06250679 0.1936415 -0.063808665
000160 45 ad 6b bd 91 f5 da bd cc 06 da 3d 1f 78 e6 bc
       -0.05753829 -0.10691369 0.10645828 -0.02813345
000170 b2 f9 a7 3d 55 a9 a5 3c 02 43 69 3e 80 fb ef bc
       0.082019225 0.020222345 0.22779468 -0.02929473
000180 ea a0 89 bc c3 3a c8 3c 30 ad 1f bd 0c f4 08 3e
       -0.016800363 0.024442082 -0.038983524 0.13374346
000190 6e f9 0c 3d 10 14 15 3e 76 7a 4b 3e a6 85 10 3e
       0.034417562 0.14558434 0.19870934 0.14113483
0001a0 a5 3a bf bc 68 f4 1f 3e 6f 31 e3 bc 5d 4e b4 bd
       -0.023343394 0.15620577 -0.027733533 -0.08804009
0001b0 f4 81 28 3d 21 ab 84 bd 8e fc bb bd 18 79 01 3e
       0.041139558 -0.06477953 -0.0917903 0.1264385
0001c0 3d 60 42 3e 43 60 20 3c 8a 33 3c 3d 06 b5 97 bd
       0.18982024 0.009788576 0.04594759 -0.07407574
0001d0 57 33 b1 3d 6a 17 e4 3d 93 70 57 3d 72 92 80 3e
       0.086523704 0.111372784 0.052597594 0.2511173

recurs2.weight_ih f4 [120, 30]
000000 55 ea c1 bd e3 ea 18 3c 07 2b 52 bd 0c 09 66 3e
       -0.094685234 0.009333345 -0.051310565 0.22464389
000010 00 3a e8 3d 75 0a 7f 3e 70 f7 09 3e 28 25 0b 3d
       0.113391876 0.24906333 0.13473296 0.03397098
000020 2a 63 37 be c9 54 09 be f2 6e b0 3d 4e 95 0e be
       -0.17908922 -0.13411249 0.08614911 -0.13924143
000030 40 dc 10 3e 71 9e 9a 3c 02 ee a8 3d a5 f0 2e be
       0.14146519 0.018874379 0.082485214 -0.17083986
000040 a1 65 12 3e 7e 87 00 bd e5 3e ee bd 63 82 05 3c
       0.14296581 -0.031379215 -0.1163309 0.008148762
000050 5f 42 4c bd eb 53 e0 bd 69 14 8c 3d 43 48 11 be
       -0.049867984 -0.10953506 0.068398304 -0.14187722
000060 6a 78 74 3e 94 e5 bf 3d 8b 2c 2e 3e 4f df e0 3d
       0.2387406 0.093699604 0.1700918 0.10980093
000070 a7 6a 4e be f4 9c 00 be de 8f 1b be 52 8c 05 be
       -0.20157872 -0.12559873 -0.151916 -0.13041809
000080 fd 4d e2 bd a4 73 43 3e 3b 42 0f 3e b4 67 f0 3d
       -0.11050031 0.19087082 0.13990109 0.1173853
000090 7f 7f 21 bd cd eb 22 3e 35 64 1b bc 9c 19 e9 bd
       -0.03942823 0.15910263 -0.00948434 -0.11381838
0000a0 a4 12 6a 3d e9 91 97 3d 3a 01 4e bd 9b c3 ee 3d
       0.057146683 0.07400877 -0.05029414 0.116584025
0000b0 33 f2 0a 3d fe b4 dc 3d 97 cb 7c be 19 f4 a3 3d
       0.033922385 0.10776709 -0.24687038 0.08005542
0000c0 17 8a 91 bd 96 d0 0f be e0 4a 0b be 5d 86 55 3d
       -0.07106417 -0.14044413 -0.13602781 0.052130092
0000d0 1b 74 12 bc 3e 21 2c be fb 75 42 3e 85 8f 3d 3d
       -0.0089388145 -0.16809556 0.18990318 0.04627945
0000e0 f1 6f f9 bd 6e db af bc 52 3a c8 3d f4 2f 5c 3d
       -0.12179554 -0.021466937 0.09776749 0.05375667
0000f0 8b 4a 89 3d 2b dd 5c bd fb c8 08 3e b4 6a 99 bd
       0.06703671 -0.05392186 0.13357918 -0.07491055
000100 1a 8b fb bc c9 25 1f 3e d7 69 8c bd c9 53 e2 3d
       -0.030705977 0.15541758 -0.06856125 0.11051137
000110 d3 15 3d 3e d0 87 6d be 4a 2f 01 be 23 01 e0 3d
       0.18465357 -0.2319634 -0.12615696 0.10937717
000120 73 46 ad 3d c5 96 be bc 90 60 a8 3d 94 e7 10 3e
       0.08460703 -0.023265252 0.08221543 0.1415084
000130 f9 1e 18 be 49 f1 b6 3d c9 01 0f 3e 00 d3 35 bd
       -0.14855565 0.0893274 0.13965525 -0.04439068
000140 6f 08 65 be e8 c0 f1 3d 2e fd 3d bc 02 6b c2 bd
       -0.22366498 0.11804372 -0.011596007 -0.09493066
000150 99 0b 1e 3e 1d c0 a9 3c 02 2f 7d bd a6 3a 18 be
       0.15434112 0.02072149 -0.06181241 -0.14866123
000160 ef d8 c4 3c 00 4f 01 3c ff f0 00 3d de 65 ee bd
       0.024029223 0.00789237 0.03147983 -0.116405234
000170 66 e7 62 3e d7 f6 4b 3e 94 c1 1a 3d 4f dd ff 3d
       0.22158584 0.1991838 0.037782267 0.12493383
000180 4a 27 fe 3c 89 55 f0 3d 2c c5 4e 3b 4b 51 53 bd
       0.031024594 0.117350645 0.003155063 -0.0515912
000190 e7 6b cc bd 53 55 33 3d 14 b4 b4 bd 8f 12 46 bd
       -0.09981518 0.043782543 -0.0882341 -0.048357543
0001a0 ef de 7b bd e0 93 07 bd 31 96 44 3d c3 16 9b bd
       -0.061491903 -0.03310001 0.047994796 -0.07572701
0001b0 55 8c bc 3d 2e b8 44 be da 3b 83 3d 34 8f 8e 3d
       0.09206454 -0.19210884 0.064079 0.069609076
0001c0 75 2f b7 bc c5 52 2b 3d e0 37 64 bd 4e bf 4c be
       -0.022361496 0.041826982 -0.05571735 -0.19994852
0001d0 a6 68 c7 bb 0e 75 4b bc d1 29 d7 3c fd c4 16 be
       -0.006085473 -0.012418045 0.026265057 -0.14723583
0001e0 4c d2 78 3e 69 32 4a 3d 9c 90 20 bd 86 d0 95 3d
       0.24298972 0.04936448 -0.03920041 0.07315163
0001f0 2c d1 12 be 3c ba ed 3d 1a 21 69 3c 2a 5e dd bd
       -0.14337605 0.11607787 0.014229083 -0.10808976
000200 23 13 49 bd 51 66 b1 3d 8e 38 6d bd 59 59 18 3c
       -0.049090516 0.086620934 -0.057915263 0.009298646
000210 1e 37 65 ba eb 4a 45 be 50 79 88 3d 50 f9 51 bc
       -0.000874387 -0.1926686 0.066637635 -0.012815788
000220 f5 09 0a be 57 c2 87 3c b2 d3 f1 3d db ea 59 3c
       -0.13480361 0.01657216 0.11807956 0.013300623
000230 59 c3 30 be b8 72 e1 3d d1 ed dd bd df 58 00 be
       -0.17262019 0.11008209 -0.108363755 -0.12533902
000240 7b 68 1a 3e 62 15 9c 3d 68 d5 81 3e ad c7 3a 3e
       0.15078919 0.07621266 0.2535813 0.18240233
000250 14 ae 19 be f3 3d 57 bc eb 54 1a bd 89 40 b2 3c
       -0.15007812 -0.013137328 -0.03767864 0.021759288
000260 93 1c 6b 3e ab 3a 3c 3e 87 0d 3a be a0 31 ec 3b
       0.22960119 0.18381755 -0.18169223 0.007208064
000270 ed 84 1e be 9d 6e 55 3d 94 f3 8d bd a1 d1 4a be
       -0.15480395 0.052107442 -0.069312245 -0.1980653
000280 82 e3 2e bd 64 40 62 3d ba e3 a9 3d e4 8b 8d 3d
       -0.042697437 0.05523719 0.082953885 0.06911448
000290 7d 49 be 3d 9c f2 ae 3d a4 0e b1 bd 4a 6e 16 3d
       0.092913605 0.08542368 -0.086453706 0.036726274
0002a0 8e f8 4c bd d4 8e a0 3d 01 29 c4 bc cd 5e d9 bd
       -0.050041728 0.07839742 -0.023945333 -0.10613785
0002b0 b8 25 e1 bd 66 35 6c be 3a ea 05 3d 9e 19 8e bd
       -0.109935224 -0.23067245 0.03269408 -0.0693848
0002c0 be ad 8c 3e c0 b7 1c bd ed f2 91 3d a5 b1 ae 3d
       0.27476305 -0.038261175 0.071264125 0.08529977
0002d0 f9 3c b7 bd 4f b2 b0 bd 0f eb ac 3d cc 31 03 3e
       -0.089471765 -0.0862776 0.08443271 0.12811965
0002e0 9b 14 22 be 43 e5 ac 3d 02 c8 77 be 2b 93 6c bd
       -0.15828173 0.08442166 -0.2419739 -0.057757538
0002f0 71 6e 85 bc 0b 9b eb 3c 97 ae 37 3d c4 f0 0e 3e
       -0.016288014 0.028760454 0.044844236 0.13959032
000300 ef 5b 50 bd 41 e9 be 3d 52 f7 00 be 25 c9 16 be
       -0.050868925 0.093218334 -0.12594345 -0.14725168
000310 9a 32 e0 bd dd 1d 56 be 89 37 9e 3d 95 50 ed bd
       -0.109471515 -0.2090983 0.07725436 -0.115876354
000320 bb 8d 46 be 2d bf da bc 52 48 0e be 1e 29 1c 3d
       -0.19390003 -0.026702488 -0.13894776 0.03812515
000330 35 6a 09 3e e1 bc cd bd 24 93 23 3e 97 62 ab 3d
       0.13419421 -0.100457914 0.15974098 0.08368414
000340 bb 9f 49 be 41 99 de bc ad d2 26 3e f7 d8 c3 bb
       -0.19689839 -0.027172687 0.16291304 -0.005976792
000350 01 75 8e 3d a7 c6 ae 3d ff 56 08 bd 32 6c d3 3d
       0.069559105 0.08533984 -0.03328609 0.10323371
000360 fb 23 5a be 66 7b cf 3d 7f 06 3a 3d ab cf 3e 3c
       -0.21302788 0.10130958 0.04541635 0.011646192
000370 57 44 a3 3d 73 c1 e4 bd 0d f0 e3 bc 47 8b 6b bd
       0.07972019 -0.1116971 -0.027824426 -0.057505872
000380 95 77 9b 3d 69 70 e9 bd 2f be f6 3c ce 18 91 bd
       0.07591168 -0.11398394 0.030119983 -0.07084809
000390 82 b3 cc 3d af d2 6a be 38 8d 28 bd 1d fb af 3d
       0.09995176 -0.22931932 -0.0411503 0.08592818
0003a0 09 5e f0 bd e1 16 9b bc e0 b1 12 3e 90 b0 a5 3c
       -0.11736686 -0.018931808 0.14325666 0.020225793
0003b0 27 82 c2 3d 7c 66 b6 3d 1d af 1e be 04 47 f6 3d
       0.09497481 0.08906266 -0.15496488 0.12025264
0003c0 3d dc 40 3d 66 22 1a 3e b9 0a af 3d cf f1 fa 3c
       0.047085036 0.15052184 0.08546967 0.030632881
0003d0 61 ba 03 3d 09 fa 64 3e 66 7b 13 3e af 71 43 be
       0.032160167 0.22361006 0.14402542 -0.19086336
0003e0 c6 66 cd bc 8f b7 05 be 02 cd 17 3e 62 49 2a 3e
       -0.02507342 -0.13058303 0.14824298 0.16629556
0003f0 b6 bb f5 bd 24 03 51 bd 9a 11 19 3e 67 6d cd 3d
       -0.11998694 -0.051028386 0.1494812 0.100306325

recurs2.weight_hh f4 [120, 30]
000000 29 04 84 3c 2f 65 59 3d bc d3 30 3e 9f a3 38 be
       0.016115265 0.05307501 0.1726827 -0.18031166
000010 92 00 ec 3d ee 07 02 be 0a c4 46 3e 46 8f 1e be
       0.11523546 -0.12698337 0.1941072 -0.15484342
000020 90 1b 39 bd 13 45 22 3d 40 62 b4 ba f5 b3 8f 3d
       -0.0451923 0.039616656 -0.0013762191 0.07016746
000030 2e 37 d7 bc 46 e3 8a 3d 8c d3 85 bd 6b 05 3c bc
       -0.026271429 0.0678163 -0.0653449 -0.011475901
000040 32 3f 52 3d 11 7c 12 3e d1 b6 33 be df 30 bb bd
       0.0513298 0.1430514 -0.17550208 -0.09140181
000050 93 d2 81 bd d8 8a 07 bd 82 00 d8 bd 63 40 42 bd
       -0.06338992 -0.033091396 -0.10546972 -0.047424685
000060 eb 9a 99 3d 48 a8 79 bd a8 6e 1a 3b 83 d6 e8 bc
       0.075002514 -0.0609515 0.0023564491 -0.0284226
000070 7f de 42 be e8 67 a9 3d 1c 2b f9 bc 5c e1 d2 bd
       -0.19030188 0.08271772 -0.030416064 -0.1029689
000080 8e 00 19 be fb 7e c0 3d 3f 4b 02 bd be 38 ac 3d
       -0.14941618 0.093992196 -0.03181004 0.0840926
000090 7f ba 48 3c 60 28 9e bd a3 ca e7 bd b9 c9 a9 3d
       0.012251495 -0.07722545 -0.11317947 0.08290429
0000a0 8f d6 49 be db 30 a8 bd 6d 06 a9 bd 9b 30 bf bc
       -0.19710754 -0.082124434 -0.08253179 -0.023338607
0000b0 04 0c ff 3d ae 57 4f 3e d9 8d 3e 3e e4 c0 b8 bd
       0.12453464 0.20248291 0.18608798 -0.09021166
0000c0 25 03 f4 bd d6 ea 65 3d a5 52 09 3e 26 47 ec bd
       -0.11914662 0.05613216 0.13410433 -0.11537008
0000d0 fb 9b b2 bd a6 3f 09 be f4 de 57 bd 8a 19 d2 bd
       -0.08721157 -0.13403186 -0.05270286 -0.102587774
0000e0 b7 f5 2c be 3b 6f 4e bc b9 5a 9e bb 8e 53 47 3d
       -0.16890608 -0.012599762 -0.0048325923 0.04866367
0000f0 c3 cd fd bd c0 9b 97 bd 90 2b 38 3e 4c 87 9e bc
       -0.123927616 -0.07402754 0.17985368 -0.019351624
000100 fc 79 0f 3e ba 75 b5 bd 07 55 57 bc 64 75 d2 3c
       0.14011377 -0.08860345 -0.013142831 0.025690742
000110 08 05 c7 bc 46 fa 6d be 13 0e e0 3d 72 d5 9d bd
       -0.024294391 -0.23240003 0.109401844 -0.07706727
000120 d4 6e d1 bc da 38 f5 3c 55 12 24 3e 0a fe 91 3d
       -0.025565542 0.029934336 0.16022618 0.07128532
000130 10 4f e0 3d 30 04 e7 bc db 5d 01 3e 3f ca 8c 3d
       0.1095258 -0.028200239 0.1263346 0.06874513
000140 e1 a9 f3 3d 70 49 58 bb f0 43 2e be 13 3f 8c 3d
       0.11897636 -0.0033002757 -0.17018104 0.06847968
000150 26 c9 3c be be 95 6e be d7 2f 1c bc 24 3c 8d 3a
       -0.18436107 -0.2329931 -0.00953289 0.001077537
000160 62 dc dd bd 2e 16 2a 3e 9a 8b 81 bd 9c de 8a bb
       -0.1083305 0.16610023 -0.06325455 -0.004237963
000170 33 db 4a 3e f6 c2 c7 3d c8 cc 9a bd ae 1d 50 3a
       0.1981018 0.09753983 -0.0755859 0.0007938993
000180 8d 81 7a bd 26 3f 37 be 8e b1 55 bd b3 c7 2a bd
       -0.061158706 -0.17895183 -0.052171282 -0.041694354
000190 37 dd 29 be 7a 29 92 bd 11 77 6b be 5a 27 f3 bc
       -0.16588293 -0.07136817 -0.22994639 -0.02968185
0001a0 b6 45 a8 3d 15 ac c4 3c 52 33 10 3e 0b fb 22 3e
       0.08216421 0.024007836 0.14082077 0.15916078
0001b0 88 90 96 3d a4 bd 38 3c 16 bb 1f bd 2e 43 4d 3d
       0.07351786 0.011275683 -0.03899678 0.050112896
0001c0 25 91 54 be d3 e2 d6 bd df 42 ac 3d 15 dc 75 bd
       -0.20758493 -0.10492482 0.08411192 -0.06002434
0001d0 8e 31 8c 3c 19 c4 55 3e 18 ff d8 3d 87 4f 76 3d
       0.017113473 0.20875587 0.1059553 0.060134437
0001e0 6b 11 00 3e bf 34 24 3e 57 e3 90 bd 8b 5e e9 3c
       0.12506644 0.16035746 -0.07074612 0.028487464
0001f0 54 30 01 3e 6a ff 6a 3d 39 ef 5d 3e a8 8b 17 be
       0.12616092 0.057372488 0.21673287 -0.14799368
000200 80 2b 46 bb f3 eb 1e 3e d6 30 41 be b6 f2 9a bd
       -0.003023833 0.15519695 -0.18866286 -0.07565825
000210 25 17 9b 3d 5e 23 0a 3e fa 2b 63 3e 8e 31 11 bd
       0.07572774 0.13490054 0.22184744 -0.03544765
000220 e5 67 ee 3d 6d 45 08 be d4 71 19 be 8d 94 ed 3b
       0.1164091 -0.13307734 -0.14984828 0.0072503746
000230 41 90 81 bd bf cc 83 3d 85 ed b0 bd b4 ae 14 3e
       -0.063263424 0.064355366 -0.08639053 0.14519769
000240 96 cc 12 bd 7a cd a8 3c 8e de 4d bc 43 e9 4b 3e
       -0.03583964 0.020605791 -0.012565268 0.19913201
000250 6f 00 8d bc 4d 8a 34 3e d9 48 55 be 6c ff 82 bd
       -0.01721212 0.17630883 -0.2082857 -0.06396374
000260 a9 09 27 3e 62 fd 05 3e c2 ba d1 bc da 09 25 3e
       0.16312279 0.13084939 -0.025601748 0.1611704
000270 fe 50 18 3e 72 25 39 be e9 c0 34 3b bb 50 d5 3d
       0.14874646 -0.1808069 0.0027580804 0.10415789
000280 2e c7 00 be 90 6b 17 3e 4f 18 f0 bd b3 62 bc bd
       -0.12575981 0.14787126 -0.117233865 -0.09198513
000290 a1 61 7c bd 5a c2 5b bd 9c 05 48 3e 14 6d 00 3e
       -0.061616544 -0.053652145 0.1953339 0.1254161
0002a0 6f 77 93 3d 38 d5 94 3d ee db 8e 3d 09 01 21 bd
       0.072005145 0.07267231 0.06975542 -0.039307628
0002b0 27 59 63 be c0 32 17 be 6b af b2 bd c9 6c a8 3d
       -0.22201978 -0.14765453 -0.087248646 0.08223874
0002c0 da 13 c4 bd e3 23 01 3d 34 39 19 3d 57 45 71 3e
       -0.09574099 0.031528365 0.03740807 0.23561607
0002d0 c7 2b 4e bd cd b0 d7 3d de c1 e8 bd 57 23 53 be
       -0.050334718 0.10531769 -0.11365102 -0.2061895
0002e0 12 9b be 3b 58 ff 4c 3d f4 c5 11 3e 94 eb 2b 3d
       0.0058168257 0.050048202 0.1423567 0.04197271
0002f0 a9 01 f6 3d 5c 15 d5 bd 77 aa 01 bb f6 ea 40 3e
       0.120120354 -0.104044646 -0.0019785443 0.1883963
000300 db 45 e1 bd 0f 02 1d 3e 85 67 f6 bd 09 ad b1 3d
       -0.10999652 0.15332817 -0.120314635 0.08675582
000310 9b ad 7a 3d 8d 32 34 3e 5a f4 59 bd 7e 39 ba 3b
       0.06120072 0.17597409 -0.053211547 0.005683123
000320 cd e6 9c bd 85 22 5a 3e 33 e8 ce bc 37 f2 93 bd
       -0.07661209 0.2130223 -0.025257206 -0.07223933
000330 8e 50 56 3d 1c 4c 7a 3d 72 e7 ad bd e2 7a f3 bd
       0.052322917 0.06110774 -0.0849141 -0.118886724
000340 15 10 b4 bd af 1e c2 3d 42 af a2 bb d8 4a e5 bb
       -0.0879213 0.09478509 -0.00496474 -0.0069974475
000350 d2 87 8f 3d f1 96 b2 bc 20 c4 2f 3e fd 2b ec bd
       0.070083275 -0.02180049 0.1716466 -0.115318276
000360 cb e3 53 3e 67 03 62 bc 02 e4 e7 3d 03 80 83 3d
       0.20692365 -0.0137947565 0.11322786 0.06420901
000370 02 6b 48 be 23 1c 1a 3e bc f6 c0 bd 3c f3 d0 bd
       -0.1957207 0.15049796 -0.09422061 -0.10202643
000380 4a 24 0e 3e b3 5e de 3c 5b 23 cf bd 98 13 a0 bd
       0.1388103 0.027144765 -0.101141654 -0.07816237
000390 aa c2 02 3e 0d 8e 47 be 23 0a a7 3d 1c 35 82 3d
       0.12769571 -0.19487782 0.0815623 0.06357786
0003a0 af f2 1b be e9 36 7a 3d cb c4 12 be 32 c7 1b bd
       -0.15229295 0.061087523 -0.14332883 -0.038031764
0003b0 83 75 8a bd f2 50 ea 3d f9 ab 84 bd 87 e7 e0 bd
       -0.06760695 0.1144122 -0.06478114 -0.1098166
0003c0 00 3a 34 bd 90 26 3b 3e 45 ce 77 bd 5e 2b 14 3e
       -0.044000626 0.18276429 -0.06049945 0.14469668
0003d0 f3 57 04 3e 92 26 eb bc c4 2b ba 3c ab 2d 0b 3e
       0.12924175 -0.028704915 0.022725947 0.1359164
0003e0 70 b3 1b bc 04 d3 6b 3c 23 08 0f bd 55 91 e1 3c
       -0.00950323 0.014393572 -0.03491987 0.02753512
0003f0 cf f1 3b be 4a 2c af bd 83 d6 60 3e 3f c1 d2 3d
       -0.18353961 -0.08553369 0.2195683 0.10290765

recurs2.bias_ih f4 [120]
000000 2b 51 64 3e b4 cd 53 3e 77 fd 73 bd fa 7e a6 3d
       0.22296588 0.20683938 -0.059567895 0.081296876
000010 e7 3b 55 bd 5f 97 b9 3b 31 7d fe 3c 53 a7 67 3e
       -0.05205908 0.005663797 0.031065555 0.22622423
000020 38 cc 45 3d b5 ea 2d 3e cb 8e f4 bd 6b 41 5f 3d
       0.04829046 0.16984065 -0.11941298 0.054505747
000030 57 6f c3 3d b1 e1 d1 bc ad c7 76 3d a2 04 cf 3d
       0.09542721 -0.025620313 0.06024902 0.101083055
000040 81 b6 5f 3e 79 39 43 3d 0d 0a 02 3d 88 b7 3c 3e
       0.21846963 0.047662232 0.031747866 0.18429387
000050 20 97 11 bb d8 42 2d 3e 65 18 62 3e 49 2b 50 bd
       -0.0022215322 0.1692003 0.22079618 -0.05082253
000060 8a f0 f4 3d ac 87 33 3c 95 6b 56 3e 32 fe 06 3d
       0.11959942 0.01095764 0.20939477 0.032957263
000070 3a 39 82 3d f1 6e 39 3e 4a e8 aa 3d b8 b9 28 3e
       0.06358571 0.18108727 0.08345087 0.16477096
000080 1b 99 04 bd 4d e7 8b bd f3 eb 8f 3d 46 58 6e 3e
       -0.032372575 -0.068312265 0.070274256 0.23275861
000090 66 ac 36 3e d8 9d ff bc 82 fc 49 3e 78 92 f7 bd
       0.17839202 -0.031203195 0.1972523 -0.120884836
0000a0 8a cf 4a 3e 14 fc 5c 3d 2e 5f 40 bd e8 c7 b0 3d
       0.19805732 0.053951338 -0.04696577 0.08631879
0000b0 15 b8 38 3e 41 1d 44 3e 74 c0 ad bc 5b 1e ca 3d
       0.18038972 0.19151784 -0.021209933 0.09869071
0000c0 39 85 ec 3d af 62 d0 3c 89 cb 54 3d 7d db 4a 3e
       0.11548848 0.025437681 0.05195192 0.1981029
0000d0 43 c8 3b bb b7 ea 3d 3e 36 b9 9c bd 25 8b fc bc
       -0.00286533 0.18546568 -0.07652514 -0.030828068
0000e0 70 ca c2 3d 1e 90 f1 bc f8 93 61 bd 62 6a f5 3b
       0.09511268 -0.029487666 -0.055072755 0.0074894885
0000f0 a8 c1 9c bd 28 fd cf 3d b1 ab e5 3d a1 2b c5 bd
       -0.076541245 0.101557076 0.11214388 -0.09627462
000100 7a 11 e6 3d 6a 71 01 3e 44 a8 04 3e 89 85 f3 bd
       0.11233802 0.1264092 0.12954813 -0.11890704
000110 72 78 06 be 8f bc 2d bd af 46 e6 3c b3 7a 83 3d
       -0.13131884 -0.04241615 0.028109876 0.064198874
000120 01 64 37 be 32 8d 14 3e d5 08 67 3e 32 04 0d 3c
       -0.17909242 0.14506987 0.22561963 0.008606957
000130 74 fb 41 3d 16 d8 c8 3c 9c 71 ec bd e9 ca 3b be
       0.047358945 0.0245171 -0.11545107 -0.18339123
000140 e3 fd 11 3e 51 ed 30 3e d7 b0 8b 3b 35 5d 30 be
       0.14257006 0.17278029 0.0042630243 -0.17223056
000150 f9 85 a3 ba 43 7c 14 be 6b 4d 41 3d a1 0d 35 3e
       -0.001247584 -0.14500527 0.047192972 0.1768098
000160 64 09 46 3e 11 ee 3b 3e ea d0 d2 3d 6a fb 74 3e
       0.1933952 0.18352534 0.102937534 0.23924032
000170 53 0a c2 3c 75 d6 c2 3d 23 24 7b bd 73 eb 31 3e
       0.023686564 0.09513561 -0.06131376 0.17374973
000180 c5 ad f7 3d a6 8e 09 3e 5e ad 3c 3e 5d 85 19 3e
       0.12093691 0.13433322 0.1842551 0.1499228
000190 23 bd ff bd 10 d0 24 3d 77 46 a2 bd f6 12 4d 3e
       -0.12487247 0.040237486 -0.07923596 0.20026764
0001a0 a7 c1 26 3d 53 b6 88 bd 04 df 2e 3e c6 7f 1d bd
       0.040712025 -0.066754006 0.17077261 -0.038451932
0001b0 f4 f3 5f 3d c7 9b 36 3e a3 ca 1a 3e e1 46 1d 3e
       0.05467601 0.17832862 0.15116362 0.1535907
0001c0 1b 9e 7e 3d 06 cd 03 3d 88 5a b7 3d b1 dc 01 be
       0.0621625 0.032177947 0.08952814 -0.12681843
0001d0 9c 78 71 3b f1 25 48 3e 92 2b 44 3e 82 56 ee bd
       0.003684557 0.19545723 0.19157246 -0.11637594

recurs2.bias_hh f4 [120]
000000 23 96 dd 3d 17 5d 6c 3e e0 59 ab bd 18 2e b6 3d
       0.10819652 0.23082386 -0.08366752 0.088955104
000010 78 5c ec bc fc f8 c8 3d 2b e2 f0 bc b1 42 63 3e
       -0.028852686 0.09813115 -0.02940472 0.2219341
000020 63 ca 1b 3e c3 4e 37 bd 65 54 c6 bd 73 56 ac bb
       0.15213923 -0.044752847 -0.09684066 -0.005259329
000030 9c ca 4d 3d e7 f7 dc 3d 67 5d 9d bc 41 3f 1d bc
       0.05024205 0.10789471 -0.019209577 -0.0095976
000040 5d 18 8c 3d 35 2b 98 bd bb 67 cf 3d 51 08 ac bd
       0.068405844 -0.07430116 0.10127207 -0.08400024
000050 9d 0d 08 3d a3 50 d1 bd 60 9d 9f bb 2d 30 6f 3d
       0.033216108 -0.10220458 -0.0048710555 0.058395553
000060 41 83 0c 3c 6b 45 80 bd 51 a1 b2 3d 95 a3 15 bd
       0.008576215 -0.062632404 0.08722175 -0.036532957
000070 65 b6 dd 3d 84 c4 cf 3d 2d 92 12 3d ca 13 ed bd
       0.108258046 0.10144904 0.035783935 -0.1157604
000080 d7 b4 7e bc 7f c0 94 3d 8e be c0 3d ea fc 88 bd
       -0.015546045 0.07263278 0.094113454 -0.066888645
000090 2c 86 2b 3e 7f 8d bc 3d fe 1f 67 3d 95 97 52 3b
       0.16750401 0.09206676 0.056426995 0.0032133807
0000a0 60 e2 3a bb 30 fc 05 3e d5 de 31 3e f2 db 15 3c
       -0.0028516278 0.13084483 0.1737016 0.009146677
0000b0 f6 c4 df 3d d0 91 3a 3e 63 5d 17 3e 3b 9b 5d 3d
       0.10926239 0.18219686 0.14781718 0.054103117
0000c0 8f 3a dd 3d d0 6d b2 3d 84 0a 16 3e 2c d2 e6 bc
       0.10802185 0.08712351 0.14652449 -0.02817639
0000d0 27 6f 91 3d 0e 55 97 3d 60 35 c2 bd 08 f6 aa 3d
       0.07101279 0.0738927 -0.09482837 0.08347708
0000e0 04 a9 96 bd b7 bb 08 3e b9 26 3a 3d 56 a9 b0 3d
       -0.07356456 0.13352858 0.045447085 0.08626048
0000f0 03 70 07 be 8c 5b e1 3d 34 80 11 3e dd 62 c8 3d
       -0.13226323 0.11003789 0.14209062 0.09784482
000100 2e 1b 86 3d 90 34 b4 bd 70 f9 33 3e 25 d5 46 3d
       0.06548153 -0.08799088 0.17575622 0.048543114
000110 1e 5d 22 be c9 29 23 bd 35 99 f6 bc d7 6d 32 3d
       -0.15855834 -0.03983477 -0.030102352 0.043561783
000120 5e c9 9e bb cc 5a 0d 3e 23 5a f2 3c 56 0c e9 bb
       -0.004845782 0.13804168 0.029583996 -0.0071120663
000130 72 60 2a 3c 78 2c d3 3d 82 91 0f be eb 22 08 3e
       0.010398971 0.10311216 -0.1402035 0.1329457
000140 aa be 23 bd 23 0b 00 3e ed 36 e9 bd 3b 33 a2 bd
       -0.039976753 0.12504248 -0.113874294 -0.07919928
000150 27 53 05 bb cd 49 3f bd 3a ad 06 be cc 85 1e be
       -0.0020343752 -0.04670124 -0.13152018 -0.15480727
000160 6a 37 10 be 0b 06 52 3e c7 79 1b 3e 8f 37 58 3a
       -0.14083639 0.20510118 0.15183173 0.0008248025
000170 3c 6d 2f 3e 0e a3 9c 3d fd 62 5c 3d 0f 7f 56 bc
       0.17131513 0.07648288 0.05380534 -0.013091817
000180 2c 53 80 bd 93 1f 3b 3e ed e9 70 3e ca 69 41 be
       -0.06265864 0.18273763 0.23526736 -0.18888012
000190 97 1d 90 3d 31 1d 08 3e 83 21 07 bd 70 26 9f bc
       0.07036894 0.13292386 -0.032990944 -0.019427508
0001a0 ba 67 b7 bd 45 bf 14 3e 98 36 89 3e 29 93 0d 3e
       -0.08955331 0.14526089 0.26799464 0.13825668
0001b0 a2 74 e9 3c fd f2 fd 3d 6d 71 8d bd ee c2 5c bd
       0.028497998 0.12399862 -0.069064 -0.053896837
0001c0 14 5c fb 3d 98 16 55 3e 70 8c bd 3d 7b 86 17 ba
       0.12273422 0.208094 0.09255302 -0.0005780232
0001d0 9a 3f b0 3d 2f a5 00 be e6 97 55 3e d5 76 79 bd
       0.08605881 -0.12563013 0.20858726 -0.060904343

output.weight f4 [2, 30]
000000 69 39 ed bd 82 8a c1 bd dc 04 d9 3d b1 a3 90 bd
       -0.11583216 -0.094502464 0.1059663 -0.07062472
000010 e7 0d 6e 3d 8e de d9 bd 27 49 1d 3e e6 df 35 be
       0.058118727 -0.10638152 0.15359937 -0.17761192
000020 e4 ca 43 be 5b 14 5a be cb 6a a3 3d 81 1e ae 3d
       -0.19120365 -0.21296827 0.079793535 0.08501912
000030 a4 6f 30 be f2 22 04 3b 09 df 54 3e 4b a1 70 3d
       -0.17230088 0.002016243 0.20788206 0.05874757
000040 b3 5c 2c 3e e3 c6 9f bc fb a8 9b bd e3 a5 e6 3d
       0.16832237 -0.019504016 -0.0760059 0.11262109
000050 41 22 88 3d 98 0c aa bd ee 4e 80 bd b0 b0 a6 3d
       0.066471584 -0.08303183 -0.06265055 0.08139169
000060 02 3c 9c 3d 7c 8f cb bd d1 7f 65 be 02 65 2d 3e
       0.07628633 -0.09939477 -0.2241204 0.16933063
000070 2c a3 33 bd 19 f0 e3 3c 72 e3 66 3e 7e 2c 28 3e
       -0.043856785 0.027824448 0.22547701 0.16423222
000080 eb f3 fb 3d dc ef 2a 3e 71 bb 90 bd a6 f5 f1 3d
       0.12302383 0.16693062 -0.070670016 0.11814432
000090 74 16 0e be 00 3b 00 3e f1 06 17 3e 90 8b 55 3d
       -0.13875753 0.12522507 0.14748742 0.05213505
0000a0 02 55 17 be be bb ba bd 66 f3 ba bd d6 e3 2a be
       -0.14778522 -0.0911784 -0.09128456 -0.16688475
0000b0 ce e1 ca 3d ba 94 4e 3e e9 aa ed 3d 26 03 23 be
       0.0990635 0.20173922 0.11604864 -0.1591917
0000c0 1f 5c 53 3e d7 98 38 be 03 cc 05 3e 38 c4 71 3d
       0.2064061 -0.18027054 0.13066106 0.05902502
0000d0 6b 4c 09 3e 58 17 fa 3d 1d df 8a be 6a 16 cc 3d
       0.13408057 0.12211484 -0.27123347 0.09965213
0000e0 6e 07 a7 bd c2 f4 50 be 83 da 5c 3e 65 9d 9b 3d
       -0.08155714 -0.20405868 0.2156773 0.0759838

output.bias f4 [2]
000000 d6 5b db 3c 02 cb 24 3c
       0.02677719 0.010058166

switch.weight f4 [1, 30]
000000 28 e7 03 3e 5e ac 8b bd ac 4e cb bd 9f b7 68 bd
       0.12881148 -0.06819986 -0.09927115 -0.05681574
000010 96 bd 35 bd 5d fb 9d 3d 79 34 0b bd 0e ad ac 3d
       -0.044370256 0.07713959 -0.03398559 0.08431445
000020 39 93 14 be 4b 84 b9 3c 82 a9 10 3e 09 c6 9e bc
       -0.14509286 0.02264609 0.14127162 -0.01938154
000030 7b 27 16 3e 63 b2 69 3d 68 dc 32 be e1 00 d7 bd
       0.14663498 0.05705489 -0.17466891 -0.104982145
000040 d3 c1 14 3e 5b 1c fa bc dc 1b 32 3e 68 e2 35 be
       0.14527063 -0.030531099 0.1739344 -0.17762148
000050 ef 6b c8 bd b6 85 0e 3e 6b 1e 2c 3e 8e 31 2a be
       -0.09786212 0.13918194 0.16808479 -0.16620466
000060 62 70 72 3d 6e 05 38 be 0e 7e 07 be 1f 10 a8 3d
       0.059189208 -0.17970821 -0.1323168 0.082062
000070 b1 c9 b9 bd b9 a1 61 bc
       -0.09071673 -0.013771468
