checkpoints/VQE-H2-13b98ead/model.pth (torch, 49793 bytes, 11 tensors)

recurs1.weight_ih f4 [120, 2]
-0.08586843 0.3083785 -0.23332277 -0.06781478 -0.11596997 -0.11710207 -0.089576885 0.0765336
-0.08485522 0.07231908 -0.18242666 0.14835931 -0.23997134 -0.037396483 -0.07815976 0.101918235
-0.007664142 0.2316558 -0.22231017 -0.2631814 -0.014017111 0.16176145 -0.05112877 0.18288577
-0.19428495 -0.0760663 0.08437897 -0.03801255 -0.17592525 0.1213258 -0.12507594 0.028076911
-0.17561284 -0.2213595 -0.19368708 -0.24349311 -0.15757608 0.26697662 -0.020470815 0.19699626
-0.047432505 -0.09648256 0.022764668 -0.17794104 -0.16086023 -0.28628707 -0.02296261 -0.10669192
-0.13102145 0.005042479 0.02755646 0.33740896 -0.0020582145 0.08425481 0.1175779 -0.18063527
0.039657816 -0.103000455 -0.20259888 -0.11152896 0.037920557 0.27270502 -0.11988472 0.15080912
0.08278633 -0.20241626 -0.029087273 -0.037877284 0.14123267 0.23728232 -0.22921546 0.10843548
0.06784392 0.19123644 0.18431088 0.28332293 0.034851804 0.031017972 -0.011205823 -0.29159588
-0.1620029 0.20038137 0.15219426 -0.12840772 -0.026343286 -0.16593952 -0.08990315 0.037494197
0.029345214 0.05979256 0.0880984 -0.048270136 0.13475062 -0.0709243 -0.17246054 -0.22372898
0.11180967 0.1643409 -0.21635312 0.009403637 0.13027239 0.1028599 -0.038558044 -0.03705741
-0.14441611 -0.1920596 -0.18853416 -0.3473776 -0.052095946 0.090602815 -0.1284304 0.26668698
-0.15901005 0.22916599 0.15429541 -0.17384906 0.021436417 0.038635887 0.100213625 0.039063632
-0.013410147 0.18912707 -0.07721255 0.26932493 -0.20003907 -0.28454596 -0.11510335 -0.1748005
-0.056834716 -0.3675459 -0.13312204 0.23213819 -0.06616812 -0.2125242 0.1302217 -0.21246584
0.015952814 -0.23318814 0.09675917 0.31460047 0.15022159 0.2981952 0.15866418 0.18837965
-0.1706489 -0.25177845 0.18937074 -0.08408172 -0.1512124 -0.030090367 -0.17626986 -0.33644587
0.007206875 0.29915166 0.06301659 -0.34685418 0.12226118 -0.30550316 0.021250848 -0.20567976
0.030388484 -0.03359237 -0.19247562 -0.38045067 -0.09143953 -0.21434806 -0.060778867 0.30729052
-0.21806738 -0.008528115 0.21798705 -0.2421551 0.07753517 0.09587133 -0.11871481 0.3057386
-0.014496074 -0.30254695 0.14620207 -0.38166976 -0.048375957 0.18801159 0.06369211 0.13760068
0.048705127 -0.12254452 -0.09424494 -0.15327938 -0.22206819 0.14978433 0.07717909 0.34645322
-0.19490916 0.09394098 -0.13889988 0.032346345 -0.17004885 0.26540968 -0.16654906 -0.21349522
-0.05215847 0.17403251 -0.16174546 -0.046576418 -0.24019721 -0.017927974 -0.110403284 0.29854158
0.037058666 0.21094309 -0.02883746 -0.19991001 -0.009451231 -0.20233873 -0.059464626 -0.08641943
-0.18418276 0.06263971 0.05780248 -0.007992312 -0.057739425 0.14725333 0.07621633 0.0008511207
-0.17373498 -0.104445525 -0.2088537 -0.28134325 -0.11457613 0.043099046 -0.05784471 0.34100628
-0.029841406 0.25105688 0.11147362 -0.20135756 0.09883229 -0.09965901 -0.12989707 0.0058477903
00000000: cadb afbd c9e3 9d3e 2aec 6ebe 7ae2 8abd
00000010: aa81 edbd 36d3 efbd 1674 b7bd a6bd 9c3d
00000020: 93c8 adbd 071c 943d 0ece 3abe 81eb 173e
00000030: 0cbb 75be 0e2d 19bd 3912 a0bd 82ba d03d
00000040: 7c23 fbbb 2e37 6d3e 47a5 63be b6bf 86be
00000050: 06a8 65bc cba4 253e 676c 51bd 6846 3b3e
00000060: a2f2 46be a6c8 9bbd e2ce ac3d 0cb3 1bbd
00000070: c025 34be a979 f83d e813 00be 8d01 e63c
00000080: dad3 33be 11ac 62be e855 46be 4256 79be
00000090: a05b 21be 29b1 883e 69b2 a7bc 63b9 493e
000000a0: 9648 42bd a698 c5bd f87c ba3c 2d36 36be
000000b0: 8bb8 24be 3894 92be 151c bcbc 4b81 dabd
000000c0: 7d2a 06be 613b a53b 16be e13c dec0 ac3e
000000d0: 1ce3 06bb c98d ac3d afcc f03d 74f8 38be
000000e0: 3c70 223d e7f1 d2bd 1576 4fbe 4c69 e4bd
000000f0: 9652 1b3d fe9f 8b3e 1f86 f5bd b56d 1a3e
00000100: e18b a93d 3546 4fbe 6f48 eebc 3625 1bbd
00000110: 4c9f 103e 23fa 723e 75b7 6abe 6c13 de3d
00000120: c1f1 8a3d 7cd3 433e febb 3c3e b40f 913e
00000130: c4c0 0e3d 6719 fe3c a198 37bc 0e4c 95be
00000140: 17e4 25be c630 4d3e d0d8 1b3e 507d 03be
00000150: e0cd d7bc 0dec 29be 251f b8bd 8493 193d
00000160: 6065 f03c 0be9 743d ef6c b43d e8b6 45bd
00000170: 11fc 093e c240 91bd 7f99 30be 3619 65be
00000180: 78fc e43d fb48 283e ac8b 5dbe b611 1a3c
00000190: 2066 053e 36a8 d23d 0aef 1dbd 83c9 17bd
000001a0: d1e1 13be 46ab 44be 190f 41be 7adb b1be
000001b0: 8f62 55bd f88d b93d 4283 03be 328b 883e
000001c0: 88d3 22be 7daa 6a3e 9eff 1d3e 7d05 32be
000001d0: 6d9b af3c aa40 1e3d cd3c cd3d 3001 203d
000001e0: 3cb6 5bbc 87aa 413e 9d21 9ebd f5e4 893e
000001f0: 0bd7 4cbe 02b0 91be 4ebb ebbd e7fe 32be
00000200: 85cb 68bd fa2e bcbe 2551 08be a2b5 6d3e
00000210: 2783 87bd f29f 59be d658 053e a590 59be
00000220: 7aaf 823c dfc8 6ebe ac29 c63d 5013 a13e
00000230: b0d3 193e 0bad 983e dd78 223e 98e6 403e
00000240: 96be 2ebe 1be9 80be 67ea 413e 0933 acbd
00000250: 6cd7 1abe 1380 f6bc 1680 34be a242 acbe
00000260: a627 ec3b 682a 993e d80e 813d df96 b1be
00000270: 1264 fa3d e96a 9cbe 4216 ae3c b79d 52be
00000280: 45f1 f83c 2798 09bd 5418 45be 6eca c2be
00000290: a644 bbbd 0f7e 5bbe 43f3 78bd 2f55 9d3e
000002a0: 0e4d 5fbe 82b9 0bbc ff37 5f3e 82f7 77be
000002b0: c2ca 9e3d 3058 c43d c020 f3bd c589 9c3e
000002c0: f180 6dbc 6fe7 9abe ffb5 153e 386a c3be
000002d0: de25 46bd 1c86 403e 0271 823d 31e7 0c3e
000002e0: 077f 473d 9ff8 fabd 7e03 c1bd 45f5 1cbe
000002f0: d865 63be 1061 193e 1210 9e3d 5162 b13e
00000300: 4496 47be 2164 c03d c53b 0ebe 9a7d 043d
00000310: 4921 2ebe c7e3 873e d68b 2abe 7e9e 5abe
00000320: 1fa4 55bd 9435 323e 9aa0 25be eac6 3ebd
00000330: 42f6 75be b0dd 92bc 1e1b e2bd 71da 983e
00000340: d4ca 173d 7701 583e 893c ecbc 36b5 4cbe
00000350: 56d9 1abc e231 4fbe 2e91 73bd acfc b0bd
00000360: 689a 3cbe 4049 803d 4bc2 6c3d 30f2 02bc
00000370: 2d80 6cbd 94c9 163e 4f17 9c3d be1d 5f3a
00000380: 95e7 31be 89e7 d5bd bfdd 55be 390c 90be
00000390: e4a6 eabd a088 303d 93ee 6cbd 6098 ae3e
000003a0: f775 f4bc 878a 803e 484c e43d ad30 4ebe
000003b0: 9568 ca3d 061a ccbd bd03 05be d29e bf3b

recurs1.weight_hh f4 [120, 30]
0.14611588 0.25462463 -0.043498788 0.062120788 -0.017776478 -0.073539965 0.049043737 -0.22875066
-0.07384927 -0.009200188 0.027138824 0.085880734 0.04932553 -0.14488676 -0.034092758 -0.12806848
-0.11793531 -0.04747023 -0.1857302 -0.21709792 -0.19489536 0.029669032 0.096230134 0.19986944
0.14548898 -0.16563505 0.04884466 0.10862714 0.07926531 -0.036567096 -0.002796759 -0.019145686
-0.066807605 0.1390083 -0.11942589 -0.06944643 0.14952281 -0.16908672 -0.090837814 -0.042326774
0.042729106 -0.12527052 -0.120743416 0.049540482 0.117434695 0.18751714 -0.12016677 0.07057757
-0.13144681 -0.09229413 -0.21978137 0.059794016 0.13007891 -0.07870824 0.055999823 -0.20947227
0.2325964 -0.16985598 0.070534594 -0.06346591 -0.13685425 -0.09792905 -0.012089545 0.110173725
0.1257373 -0.20621544 0.10540677 0.16160402 0.14118716 -0.103092 -0.25407985 -0.1052992
0.16906421 -0.08537254 0.10415278 0.20895596 -0.18003681 0.09894952 0.17498057 0.06308506
-0.03087106 0.12024567 -0.06220881 -0.07240869 0.15851043 0.2499736 0.10171401 -0.06268036
0.18164456 0.006110135 -0.07326528 -0.13740245 0.26167414 0.23377271 -0.1335085 0.14144686
0.1145959 0.15687218 0.13546151 0.069858216 -0.029106963 -0.05357069 0.28510588 -0.020735804
0.010394821 0.21245244 0.035240617 0.13270174 -0.13806169 -0.03815472 -0.18016826 0.14501433
0.04552711 0.0039334223 0.1556998 0.010441986 0.052272264 0.056373276 -0.12613125 0.040722456
-0.018651454 -0.13862514 -0.10577565 0.21877591 0.07060857 0.27863368 0.12044655 -0.22501837
-0.20363942 -0.077824116 -0.092883185 0.14309181 -0.08349006 -0.20579869 -0.056392364 -0.1385949
0.15432866 0.13492903 0.037730243 0.052097548 0.055632893 -0.067998715 0.05531667 0.12439266
0.17583477 0.07301858 0.20464197 0.15928185 -0.103946194 0.057056922 0.12922788 0.09709805
-0.031218097 0.0061703343 -0.21682873 0.24514717 0.08948217 -0.06423971 -0.14217855 0.13202852
0.24896431 0.040663004 -0.1587801 0.040905118 0.17986263 -0.18419667 0.21698543 0.034677528
-0.17312063 -0.021752942 -0.24112752 -0.075691044 0.185066 0.015228023 -0.01104865 -0.1868431
0.081438385 -0.00019988389 -0.0337019 0.083345674 0.110742055 -0.054967668 0.03380582 0.13928528
0.03308735 -0.06150977 -0.07514222 -0.20409274 -0.15308703 0.054000676 -0.06774311 0.08501827
0.13822842 -0.092731476 -0.010054318 -0.08692401 0.0556098 -0.19202371 -0.010416304 -0.23639145
-0.24222885 -0.20364922 -0.034480914 0.12222169 -0.08431699 0.045051184 0.02028664 0.06872177
-0.018697858 -0.20392394 0.21841724 0.16258642 0.13866447 0.083483785 -0.17240703 0.21497628
-0.025518835 0.033456054 -0.21211293 -0.002797925 -0.1335302 -0.031810243 0.013027859 -0.20400348
0.12713069 0.028876277 0.07837936 -0.19005577 -0.21239655 -0.102150925 0.060220867 0.12778082
0.03696271 0.043045145 0.114224404 -0.24266973 -0.10692273 0.136476 -0.16523361 0.023714524
-0.048409518 0.0035944607 -0.10717884 0.17751728 -0.074948214 0.22848353 0.060231734 0.041434515
-0.07690088 -0.08449377 0.03155318 0.07334265 0.08880723 -0.21626514 0.23613803 -0.056648508
00000000: 679f 153e 295e 823e c92b 32bd 5e72 7e3d
00000010: fa9f 91bc 1f9c 96bd 16e2 483d 9d3d 6abe
00000020: 493e 97bd 63bc 16bc 3d52 de3c 3de2 af3d
00000030: 9109 4a3d 325d 14be d9a4 0bbd 6224 03be
00000040: 1188 f1bd 2570 42bd 0f30 3ebe eb4e 5ebe
00000050: a692 47be 780c f33c 4e14 c53d 93aa 4c3e
00000060: 10fb 143e 3c9c 29be 5711 483d e877 de3d
00000070: da55 a23d 61c7 15bd d449 37bb 6ad7 9cbc
00000080: 6dd2 88bd 3158 0e3e 9095 f4bd ee39 8ebd
00000090: 821c 193e 1225 2dbe 2d09 babd d75e 2dbd
000000a0: b704 2f3d ea46 00be 5348 f7bd f6ea 4a3d
000000b0: 9a81 f03d 7e04 403e ff19 f6bd f98a 903d
000000c0: fe99 06be b404 bdbd 5e0e 61be 92ea 743d
000000d0: 6833 053e c931 a1bd 1260 653d e67f 56be
000000e0: c02d 6e3e baee 2dbe 7174 903d 6afa 81bd
000000f0: 8523 0cbe 078f c8bd 3a13 46bc c3a2 e13d
00000100: 47c1 003e 242a 53be 81df d73d 867b 253e
00000110: 5e93 103e e621 d3bd c116 82be 1ba7 d7bd
00000120: 2b1f 2d3e ccd7 aebd 0d4e d53d 8df8 553e
00000130: 925b 38be 0ca6 ca3d 1b2e 333e bd32 813d
00000140: 4ee5 fcbc 5d43 f63d aace 7ebd 024b 94bd
00000150: 8f50 223e 14f9 7f3e 6f4f d03d 905e 80bd
00000160: 0801 3a3e 8737 c83b 1b0c 96bd 3ab3 0cbe
00000170: 27fa 853e 1d62 6f3e 74b6 08be 72d7 103e
00000180: 41b1 ea3d 1aa3 203e 6cb6 0a3e d311 8f3d
00000190: ba71 eebc f16c 5bbd 66f9 913e 22de a9bc
000001a0: 0a4f 2a3c 228d 593e 7758 103d f7e2 073e
000001b0: 0b60 0dbe 2048 1cbd 077e 38be a37e 143e
000001c0: a37a 3a3d f0e3 803b c56f 1f3e dd14 2b3c
000001d0: 711b 563d aae7 663d 8d28 01be 97cc 263d
000001e0: efca 98bc c0f3 0dbe e7a0 d8bd cb06 603e
000001f0: 3a9b 903d 13a9 8e3e aeac f63d 376b 66be
00000200: da86 50be 4062 9fbd 8a39 bebd a986 123e
00000210: d6fc aabd e4bc 52be aefb 66bd d2eb 0dbe
00000220: 5508 1e3e d62a 0a3e 078b 1a3d 3d64 553d
00000230: 51df 633d e942 8bbd bc93 623d 94c1 fe3d
00000240: 080e 343e c48a 953d aa8d 513e c81a 233e
00000250: bee1 d4bd 85b4 693d 5054 043e 58db c63d
00000260: 18bd ffbc 8430 ca3b 5a08 5ebe dc07 7b3e
00000270: 6e42 b73d 1c90 83bd 4197 11be 7c32 073e
00000280: 80f0 7e3e 408e 263d 4097 22be 208c 273d
00000290: e92d 383e 0d9e 3cbe 6e31 5e3e 060a 0e3d
000002a0: 8946 31be 3a33 b2bc 22ea 76be e803 9bbd
000002b0: f181 3d3e f57e 793c 6605 35bc cc53 3fbe
000002c0: 2bc9 a63d ec97 51b9 010b 0abd 23b1 aa3d
000002d0: bbcc e23d c725 61bd f977 0a3d cda0 0e3e
000002e0: 9a86 073d abf1 7bbd 2ae4 99bd b0fd 50be
000002f0: d9c2 1cbe d02f 5d3d e6bc 8abd 0f1e ae3d
00000300: c08b 0d3e 00ea bdbd deba 24bc 3705 b2bd
00000310: 1ac7 633d dda1 44be 25a9 2abc 9a10 72be
00000320: d70a 78be 6c89 50be dc3b 0dbd 5e4f fa3d
00000330: 63ae acbd 9787 383d 2b30 a63c 00be 8c3d
00000340: 402c 99bc 70d1 50be c5a8 5f3e 0e7d 263e
00000350: 0ffe 0d3e 8cf9 aa3d 788b 30be be22 5c3e
00000360: e00c d1bc 3709 093d 2234 59be 645d 37bb
00000370: 24bc 08be 754b 02bd cd72 553c 4ae6 50be
00000380: 8c2e 023e f18d ec3c 5c85 a03d fb9d 42be
00000390: 7b7e 59be 8134 d1bd 28aa 763d fad8 023e
000003a0: 3666 173d 1b50 303d 7cee e93d 6a7e 78be
000003b0: 4efa dabd 5dc0 0b3e 0033 29be f644 c23c
000003c0: 0f49 46bd 0b91 6b3b 9480 dbbd 17c7 353e
000003d0: 737e 99bd 96f7 693e 8db5 763d 3db7 293d
000003e0: 357e 9dbd 120b adbd e83d 013d ac34 963d
000003f0: 91e0 b53d 9c74 5dbe 2bce 713e 4408 68bd

recurs1.bias_ih f4 [120]
-0.058519166 -0.033411376 0.03762502 0.27472377 0.20504868 0.17999306 0.0645135 0.23469913
0.12113292 0.18909986 0.13979605 0.08995149 0.2366127 0.26298478 0.19108725 0.14523645
0.19379327 0.09123193 0.20533632 0.1920913 0.2522378 0.08260722 -0.07623291 0.1964993
0.17517875 0.25070068 0.19575538 0.120832905 0.23564151 0.11535609 0.21825458 0.15966702
0.16394933 0.22971894 -0.10609541 0.19213471 0.18963479 -0.10699096 0.017579885 -0.069097914
-0.018818283 0.041865073 0.18526006 0.053763833 -0.08980577 0.11578833 0.13558927 0.0005685084
0.1761311 0.26050878 0.05290191 -0.008134661 0.07141771 0.02634652 0.050382525 -0.018810779
3.1870237e-05 0.09348709 -0.07561391 -0.10236211 0.26003113 0.0140825445 0.20785299 0.28836498
-0.024932452 0.122057 0.14578836 -0.12526341 -0.0655996 -0.06142832 -0.010833004 0.051547535
0.13878046 -0.20234033 0.11619527 0.19506066 -0.15747544 -0.08468216 -0.12907507 -0.00088909536
-0.29016593 -0.053914055 0.23278886 -0.17243078 0.2615494 -0.1431061 0.17096607 -0.033036176
0.0082063405 0.12567444 0.24728262 -0.002188959 0.18241052 0.15240707 0.1481005 -0.032344814
0.16708896 0.19884893 -0.049265545 -0.068471305 -0.056041177 0.11677623 0.110598415 0.041947626
0.24491312 0.03942448 -0.031571016 0.14594844 -0.021463765 0.074214734 0.19441201 0.14838816
-0.053080227 0.29084548 0.23282665 -0.035259407 0.18917699 0.13040659 -0.045942172 0.034370843
00000000: cbb1 6fbd 5eda 08bd b11c 1a3d 98a8 8c3e
00000010: 48f8 513e 1a50 383e a71f 843d f854 703e
00000020: 8914 f83d 65a3 413e b226 0f3e 7d38 b83d
00000030: 9a4a 723e f1a5 863e 60ac 433e ddb8 143e
00000040: be71 463e ced7 ba3d af43 523e 95b3 443e
00000050: 5025 813e f92d a93d 0020 9cbd 1d37 493e
00000060: 0f62 333e d75b 803e 1974 483e 3e77 f73d
00000070: 024c 713e d03f ec3d 217e 5f3e c07f 233e
00000080: 55e2 273e 713b 6b3e 8d48 d9bd f6be 443e
00000090: 9f2f 423e 141e dbbd b103 903c 3583 8dbd
000000a0: cd28 9abc b67a 2b3d d0b4 3d3e 7737 5c3d
000000b0: 16ec b7bd 6f22 ed3d ead7 0a3e f407 153a
000000c0: b65b 343e 6861 853e acaf 583d 3e47 05bc
000000d0: 7343 923d a8d4 d73c e85d 4e3d 1019 9abc
000000e0: 68ac 0538 2976 bf3d 77db 9abd 3aa3 d1bd
000000f0: cd22 853e 79ba 663c 6ad7 543e 93a4 933e
00000100: 243f ccbc 05f9 f93d 8b49 153e 0d45 00be
00000110: 1559 86bd 439c 7bbd e97c 31bc 8223 533d
00000120: 771c 0e3e 4e32 4fbe c9f7 ed3d fbbd 473e
00000130: 3e41 21be d76d adbd 412c 04be 2e12 69ba
00000140: a190 94be fcd4 5cbd 3460 6e3e b291 30be
00000150: cee9 853e 688a 12be bb11 2f3e f150 07bd
00000160: e373 063c cdb0 003e a837 7d3e a374 0fbb
00000170: d3c9 3a3e 9910 1c3e a8a7 173e ff7b 04bd
00000180: 5e19 2b3e 0e9f 4b3e abca 49bd af3a 8cbd
00000190: 6f8b 65bd 6028 ef3d 6c81 e23d 46d1 2b3d
000001a0: 81ca 7a3e 907b 213d 9c50 01bd 8273 153e
000001b0: c7d4 afbc e5fd 973d f113 473e 11f3 173e
000001c0: a76a 59bd b3e9 943e 1c6a 6e3e 2b6c 10bd
000001d0: 9db7 413e 4e89 053e dc2d 3cbd 71c8 0c3d

recurs1.bias_hh f4 [120]
-0.047215775 0.20681217 0.108604655 0.21260601 0.07033248 0.28284675 0.1362136 -0.07715584
0.07343018 0.2206275 0.17703898 0.03353082 0.04817334 0.009307087 0.24347228 0.017285734
0.25018 0.08502723 0.08236499 -0.03694974 0.055104196 0.26501945 -0.09108053 0.25229698
-0.052728932 0.1298058 -0.040537264 -0.09115584 -0.057043597 0.11479209 0.08191357 -0.06779607
0.088288985 0.20947136 0.19189973 0.25869903 0.13980146 -0.03249017 0.016401883 0.20386317
0.11609123 -0.033760898 0.22544283 -0.05278801 0.23933727 0.11935634 -0.10075174 -0.11524296
0.16261125 0.29987472 0.109074414 -0.086523205 0.1432172 0.14449096 0.07257656 0.2097751
0.2221993 0.047822982 0.07339732 -0.1857909 0.013682999 0.0049053654 0.12577158 0.09702669
0.0697245 0.15044105 -0.19221912 0.057941243 -0.025703104 -0.21304595 0.007714894 -0.04196284
-0.054176275 -0.29359412 0.254714 -0.08099355 -0.02964356 0.18538667 -0.012059854 -0.2296861
-0.2993359 0.065207236 0.01787033 -0.049666557 0.17139547 -0.10948867 0.26587686 -0.08069387
-0.06017841 -0.1087585 0.14761174 -0.0010739208 0.118395455 0.08058293 0.2769774 0.0058067422
0.022990376 0.042734798 -0.004068 0.16975115 0.056567725 0.14949611 0.26901942 0.20527175
0.0413903 0.1856304 -0.012305872 -0.052382056 0.06136855 -0.0046705143 -0.043474346 0.15266083
0.22821997 0.04517905 0.09897589 -0.0430753 0.14156064 0.10743477 0.05703807 0.30159038
00000000: 5465 41bd 92c6 533e 1e6c de3d 64b5 593e
00000010: 7a0a 903d 4ad1 903e 947b 0b3e e203 9ebd
00000020: 9062 963d 2dec 613e b549 353e 9d57 093d
00000030: 6851 453d c17c 183c cc50 793e d09a 8d3c
00000040: 9817 803e c222 ae3d faae a83d 9c58 17bd
00000050: f0b4 613d a1b0 873e 6e88 babd 122d 813e
00000060: 4bfa 57bd d0eb 043e 670a 26bd eaaf babd
00000070: 8ca6 69bd 1e18 eb3d 4dc2 a73d aad8 8abd
00000080: dbd0 b43d a97f 563e 5d81 443e 3374 843e
00000090: 1d28 0f3e 6a14 05bd 3e5d 863c 82c1 503e
000000a0: 3dc1 ed3d de48 0abd 7cda 663e 3e38 58bd
000000b0: d414 753e 1971 f43d ee56 cebd 8004 ecbd
000000c0: 9083 263e 2e89 993e 6862 df3d 1433 b1bd
000000d0: 88a7 123e 70f5 133e 05a3 943d 49cf 563e
000000e0: 3788 633e 08e2 433d 5651 963d f83f 3ebe
000000f0: a82e 603c 30bd a03b 44ca 003e eeb5 c63d
00000100: b8cb 8e3d 380d 1a3e 17d5 44be cc53 6d3d
00000110: 518f d2bc b828 5abe 39cd fc3b 3ae1 2bbd
00000120: f1e7 5dbd f851 96be e069 823e f2df a5bd
00000130: 0dd7 f2bc 01d6 3d3e b296 45bc d532 6bbe
00000140: 8e42 99be 5f8b 853d cc64 923c 296f 4bbd
00000150: 4b82 2f3e 993b e0bd 0321 883e d442 a5bd
00000160: a37d 76bd c7bc debd 8827 173e cdc2 8cba
00000170: 5179 f23d aa08 a53d fbcf 8d3e 7c46 be3b
00000180: 5056 bc3c af0a 2f3d db4c 85bb 3fd3 2d3e
00000190: 8fb3 673d 8215 193e eabc 893e c232 523e
000001a0: e088 293d e515 3e3e 919e 49bc 918e 56bd
000001b0: 975d 7b3d 1d0b 99bb 2812 32bd 1f53 1c3e
000001c0: 7fb2 693e ab0d 393d dfb3 ca3d ba6f 30bd
000001d0: 46f5 103e c306 dc3d c0a0 693d 0e6a 9a3e

recurs2.weight_ih f4 [120, 30]
-0.030093482 0.05820981 -0.01668905 0.2766196 0.11392973 0.31151152 0.11548189 0.026200382
-0.19136162 -0.16352075 0.1113458 -0.15320852 0.17354684 -0.06806778 0.16309814 -0.14124416
0.11654096 -0.0071078897 -0.13690808 -0.06535256 -0.12015803 -0.094845735 0.10407253 -0.17026752
0.3150103 0.028691249 0.24352445 0.0804377 -0.18503639 -0.111093104 -0.11330637 -0.106036015
-0.062489517 0.25934592 0.11884464 0.15659183 -0.060259588 0.13315913 -0.038209837 -0.15352787
0.07782134 0.09194887 0.016258325 0.059296105 0.09377041 0.121018596 -0.27092835 0.09077948
-0.09214495 -0.18621776 -0.20412679 0.04651126 0.031368066 -0.20210955 0.24736717 0.0091564525
-0.066838674 -0.037465286 0.091730334 0.044164225 0.092347406 -0.042804994 0.1913931 -0.0022285446
-0.044333838 0.19768324 -0.0800128 0.09039096 0.16310611 -0.2804629 -0.11985864 0.12627852
0.15826355 -0.08804678 0.14100684 0.17526843 -0.17834926 0.099466436 0.13200063 -0.0992503
-0.30066535 0.11959062 0.030770214 -0.1363893 0.22136189 -0.021226708 0.005449307 -0.16194262
0.022983786 0.0019209345 0.060691904 -0.09808423 0.30286703 0.2894573 0.028100878 0.15341955
0.017762138 0.10351322 -0.011195416 -0.12886736 -0.0827797 0.05542252 -0.017576678 -0.098116666
-0.011326692 0.006885562 -0.0058771055 -0.052973952 0.07029089 -0.23068212 -0.020709433 0.07287679
0.05188591 -0.023444625 -0.0031102032 -0.22956891 0.04979063 -0.047903303 0.026763417 -0.14567441
0.30994278 0.09946869 0.011475115 0.14601897 -0.16003264 0.19156459 -0.012197092 -0.13332306
-0.0841189 0.048992503 -0.020992529 0.021429466 0.009772454 -0.28049755 0.14773048 0.0007911574
-0.15668222 0.037423406 0.07755031 -0.06916359 -0.25823125 0.10586719 -0.06868665 -0.14606442
0.23673894 0.00090658606 0.34054357 0.16623622 -0.15286288 -0.024809685 -0.025717515 0.01875854
0.3012291 0.25919104 -0.1727323 0.01847776 -0.15850872 0.04961883 -0.07444454 -0.26175398
-0.050400473 0.05101428 0.10496117 0.037287716 0.12119067 0.12471614 -0.13045801 0.061888047
-0.056688514 0.06471998 -0.10723168 -0.0885854 -0.049687155 -0.27797028 0.0643444 -0.08087231
0.32530296 -0.06797578 0.08659153 0.09753658 -0.061726343 -0.07245659 0.09939895 0.16346532
-0.16578084 0.11361077 -0.2436828 -0.065291986 -0.028345393 0.02783478 0.047817376 0.1212422
-0.041110516 0.044013135 -0.08014575 -0.15166776 -0.106327556 -0.22769164 0.082927644 -0.15309301
-0.24354629 -0.01892734 -0.12650388 0.037058715 0.17350487 -0.1322684 0.19830383 0.08370835
-0.19047351 -0.027987696 0.2216015 0.030963078 0.116337925 0.15391901 -0.027471196 0.16843937
-0.22988762 0.086919665 0.035586 -0.02556017 0.09682419 -0.12405481 0.012210514 -0.14266466
0.1501521 -0.08146747 -0.01010667 -0.043374304 0.06937738 -0.32040727 -0.12651627 0.106366165
-0.08104425 -0.05186258 0.23341447 -0.04347619 0.18202204 0.060206562 -0.13398345 0.13998465
0.115647465 0.18272014 0.12017302 0.09354078 0.016669586 0.28692058 0.11051532 -0.22583857
-0.06447937 -0.1625026 0.16592261 0.188334 -0.067424215 -0.13465591 0.23119748 0.114225164
00000000: 9b86 f6bc 696d 6e3d 79b7 88bc 16a1 8d3e
00000010: fe53 e93d 707e 9f3e c581 ec3d 2fa2 d63c
00000020: 4df4 43be fc71 27be 4409 e43d b2e2 1cbe
00000030: 43b6 313e 1f67 8bbd 3303 273e 4fa2 10be
00000040: 07ad ee3d 4de9 e8bb a231 0cbe 90d7 85bd
00000050: 6a15 f6bd 7b3e c2bd fb23 d53d 9c5a 2ebe
00000060: 0849 a13e e909 eb3c 795e 793e 85bc a43d
00000070: 2e7a 3dbe c884 e3bd 2c0d e8bd 6929 d9bd
00000080: 02f5 7fbd fdc8 843e d264 f33d 9c59 203e
00000090: c2d2 76bd de5a 083e eb81 1cbd 6936 1dbe
000000a0: cb60 9f3d b04f bc3d 2e30 853c 79e0 723d
000000b0: b30a c03d 99d8 f73d 1fb7 8abe 98ea b93d
000000c0: 7eb6 bcbd deaf 3ebe 9d06 51be 9782 3e3d
000000d0: cd7b 003d cef5 4ebe d24d 7d3e f204 163c
000000e0: b7e2 88bd 3375 19bd 1ddd bb3d 8ce5 343d
000000f0: a320 bd3d 4a54 2fbd 8efc 433e c60c 12bb
00000100: 6697 35bd 7a6d 4a3e c0dd a3bd e51e b93d
00000110: 4a05 273e d598 8fbe 7278 f5bd 284f 013e
00000120: d70f 223e df51 b4bd 1964 103e 9179 333e
00000130: 30a1 36be 0fb5 cb3d 2c2b 073e be43 cbbd
00000140: cff0 99be edeb f43d d111 fc3c a3a9 0bbe
00000150: b1ac 623e a2e3 adbc 1a90 b23b 49d4 25be
00000160: 7e48 bc3c dec7 fb3a 1398 783d 63e0 c8bd
00000170: 6311 9b3e bf33 943e d033 e63c 041a 1d3e
00000180: e781 913c bdfe d33d fa6c 37bc cef5 03be
00000190: 6788 a9bd b902 633d f7fc 8fbc 64f1 c8bd
000001a0: 9793 39bc 48a0 e13b bc94 c0bb 37fb 58bd
000001b0: acf4 8f3d ef37 6cbe d4a6 a9bc 6d40 953d
000001c0: 5286 543d f10e c0bc 8dd4 4bbb 1d14 6bbe
000001d0: 42f1 4b3d 4136 44bd f43e db3c ac2b 15be
000001e0: d2b0 9e3e 3eb6 cb3d 1f02 3c3c ff85 153e
000001f0: 99df 23be 8229 443e 50d6 47bc d785 08be
00000200: 8846 acbd 5dac 483d 86f8 abbc d98c af3c
00000210: a51c 203c 609d 8fbe a946 173e ad65 4f3a
00000220: 4e71 20be 4949 193d b2d2 9e3d a4a5 8dbd
00000230: e336 84be e6d0 d83d 96ab 8cbd e991 15be
00000240: b16b 723e f6a7 6d3a ba5b ae3e d439 2a3e
00000250: 1688 1cbe ae3d cbbc 8aad d2bc 82ab 993c
00000260: b33a 9a3e b0b4 843e bce0 30be ac5e 973c
00000270: 1c50 22be 1d3d 4b3d 6176 98bd 9e04 86be
00000280: ba70 4ebd 5af4 503d e2f5 d63d 01bb 183d
00000290: d032 f83d 2d6b ff3d c996 05be 527e 7d3d
000002a0: 3732 68bd e98b 843d 489c dbbd 436c b5bd
000002b0: c284 4bbd 1f52 8ebe ffc6 833d 62a0 a5bd
000002c0: 1c8e a63e e336 8bbd e656 b13d 42c1 c73d
000002d0: c3d4 7cbd 1f64 94bd ad91 cb3d 7463 273e
000002e0: 74c2 29be c3ac e83d fc87 79be ceb7 85bd
000002f0: 9934 e8bc c405 e43c 27dc 433d d54d f83d
00000300: 8063 28bd 1e47 343d 7423 a4bd cb4e 1bbe
00000310: 43c2 d9bd ff27 69be f8d5 a93d 6ac4 1cbe
00000320: 3364 79be 820d 9bbc 3c8a 01be e1ca 173d
00000330: 43ab 313e 5e71 07be 2910 4b3e 496f ab3d
00000340: 7d0b 43be 7446 e5bc 81eb 623e 48a6 fd3c
00000350: 9442 ee3d f29c 1d3e 460b e1bc 5f7b 2c3e
00000360: a967 6bbe f002 b23d a0c2 113d 9063 d1bc
00000370: c34b c63d 7310 febd 9c0e 483c af16 12be
00000380: 79c1 193e 6bd8 a6bd 7296 25bc 41a9 31bd
00000390: ba15 8e3d 6c0c a4be 7b8d 01be 81d6 d93d
000003a0: 87fa a5bd db6d 54bd 3404 6f3e 1714 32bd
000003b0: fc63 3a3e 289b 763d f532 09be 2358 0f3e
000003c0: 94d8 ec3d fd1a 3b3e 461d f63d 4f92 bf3d
000003d0: a88e 883c 41e7 923e db55 e23d 3a42 67be
000003e0: c30d 84bd 1567 26be 9ee7 293e a1da 403e
000003f0: b515 8abd 3de3 09be 08bf 6c3e e2ee e93d

recurs2.weight_hh f4 [120, 30]
0.026531003 0.093206115 0.20260668 -0.15187706 0.07062646 -0.103004314 0.18289949 -0.109448954
0.01861402 0.02711 -0.031971414 0.04181312 -0.054952215 0.052199494 -0.031283457 0.007726209
0.11725518 0.115968846 -0.13811053 -0.14335586 -0.030266905 0.010220997 -0.0876547 -0.04140021
0.025825825 -0.062146723 -0.029117616 -0.058781512 -0.16774404 0.118208505 -0.042537816 -0.102812134
-0.16100566 0.05963256 -0.028043136 0.04739869 0.038837794 -0.082588084 -0.11314593 0.04245491
-0.21421008 -0.06748541 -0.07430153 -0.009269842 0.13360922 0.15978354 0.17990091 -0.07668133
-0.121277 0.05562794 0.16907535 -0.07852787 -0.13226473 -0.16760127 -0.05639998 -0.12880279
-0.14726155 0.004585296 -0.015568523 0.065509334 -0.1483662 -0.08372265 0.16957788 -0.054379392
0.16645657 -0.12623331 0.016343411 0.001475136 -0.048049785 -0.26867148 0.0864896 -0.0650301
-0.014099833 0.053812485 0.18157496 0.032513235 0.10569527 -0.00942233 0.1024784 0.08526816
0.14636028 0.031376436 -0.21223302 0.029954975 -0.17472105 -0.2656453 0.01214535 0.020368943
-0.12365298 0.18508367 -0.07974526 0.0048751626 0.20955317 0.10613803 -0.05725831 -0.029376468
-0.039596975 -0.19958608 -0.07398666 -0.07306789 -0.22838838 -0.068021886 -0.24190591 -0.014859513
0.1430036 -0.0031382916 0.13086459 0.16680102 0.05454419 0.021015787 -0.00015481771 0.10880808
-0.22175068 -0.12082752 0.09040029 -0.079703666 0.010940821 0.22280903 0.10681831 0.11857099
0.1263396 0.18987279 -0.044286408 0.040997997 0.10893106 0.061567105 0.22736067 -0.1415819
0.047136914 0.08602188 -0.21134616 -0.08692217 0.052343 0.14123392 0.26921633 -0.02779575
0.16500767 -0.1525979 -0.14488783 -0.008162298 -0.035604686 0.1108048 -0.08683709 0.14455752
-0.05226053 0.001415873 -0.027938664 0.19719082 -0.009552108 0.22347653 -0.21341114 -0.047465924
0.1818833 0.14125912 -0.019700537 0.18583524 0.16069418 -0.18554258 -0.0012249126 0.087184004
-0.17344998 0.14043878 -0.13638303 -0.08863742 -0.012219041 -0.04769108 0.2154833 0.12149322
0.06122382 0.062304847 0.11012063 0.018977186 -0.22626261 -0.15356177 -0.099002756 0.07153156
-0.10751052 0.03375283 0.044192117 0.28482497 -0.028243236 0.13419954 -0.09715079 -0.19928174
-0.046166368 0.0573944 0.12445494 0.0902787 0.19027804 -0.100617655 -0.019198205 0.16780455
-0.12767948 0.12408778 -0.09870781 0.09084026 0.13213441 0.15777831 -0.0039981385 -0.042495463
-0.05491255 0.23642074 -0.021370092 -0.062060174 0.010117045 0.07258107 -0.09626625 -0.15032227
-0.07672346 0.11645808 0.008510314 0.03510292 0.10895839 -0.0012378609 0.14004855 -0.09841301
0.20241039 0.010060036 0.16799246 0.007916914 -0.23452328 0.12432672 -0.12638232 -0.12075601
0.17655213 0.04498671 -0.05323782 -0.10631935 0.15116964 -0.22910424 0.12416121 0.115863115
-0.13883036 0.07853004 -0.17238961 -0.042522863 -0.10246392 0.10439766 -0.0374075 -0.06955833
-0.07540437 0.1826455 -0.04951367 0.14395411 0.16158332 -0.03023793 0.0668744 0.109593004
-0.0007703979 -0.081997365 -0.050089486 0.0436492 -0.18972358 -0.06055629 0.24279042 0.10094172
00000000: 8c57 d93c d9e2 be3d 2078 4f3e a985 1bbe
00000010: 9ba4 903d edf3 d2bd 014a 3b3e c626 e0bd
00000020: 6e7c 983c ca15 de3c 75f4 02bd 3c44 2b3d
00000030: 9315 61bd 23cf 553d 1523 00bd 232c fd3b
00000040: 7c23 f03d 1381 ed3d d96c 0dbe e1cb 12be
00000050: 4df2 f7bc f875 273c 4f84 b3bd 4493 29bd
00000060: ae90 d33c 908d 7ebd 1188 eebc e2c4 70bd
00000070: 18c5 2bbe 4d17 f23d 223c 2ebd 2b8f d2bd
00000080: abde 24be 4541 743d b8ba e5bc 2125 423d
00000090: 6114 1f3d f123 a9bd 0eb9 e7bd 33e5 2d3d
000000a0: e359 5bbe ca35 8abd 672b 98bd 89e0 17bc
000000b0: dbd0 083e 4c9e 233e f237 383e 1a0b 9dbd
000000c0: 1360 f8bd 1fda 633d 1722 2d3e 38d3 a0bd
000000d0: 6870 07be ab9f 2bbe aa03 67bd e1e4 03be
000000e0: bbcb 16be 4040 963b 1e13 7fbc c229 863d
000000f0: 4fed 17be c876 abbd d3a5 2d3e edbc 5ebd
00000100: 9773 2a3e 4e43 01be 9ee2 853c 5a59 c13a
00000110: dacf 44bd 4f8f 89be 7621 b13d 802e 85bd
00000120: fc02 67bc 7b6a 5c3d c9ee 393e 992c 053d
00000130: c376 d83d 1e60 1abc 32e0 d13d 13a1 ae3d
00000140: 78df 153e 9484 003d 9d53 59be 2364 f53c
00000150: 13ea 32be a902 88be 4afd 463c c5dc a63c
00000160: c63d fdbd 9386 3d3e 7c51 a3bd d4bf 9f3b
00000170: 1b95 563e e55e d93d b187 6abd eba6 f0bc
00000180: 7030 22bd 4b60 4cbe 5186 97bd 9ea4 95bd
00000190: a5de 69be 0f4f 8bbd 2fb6 77be 5175 73bc
000001a0: 896f 123e ccab 4dbb 5e01 063e e3cd 2a3e
000001b0: bb69 5f3d 4d29 ac3c 9056 22b9 c5d6 de3d
000001c0: 9c12 63be 6b74 f7bd ca23 b93d ad3b a3bd
000001d0: 2141 333c 0d28 643e 8fc3 da3d 59d5 f23d
000001e0: 2b5f 013e 036e 423e aa65 35bd 84ed 273d
000001f0: 3f17 df3d ca2d 7c3d 3cd1 683e d8fa 10be
00000200: a312 413d 3d2c b03d 216b 58be 4004 b2bd
00000210: 9d65 563d a09f 103e b9d6 893e eab3 e3bc
00000220: c5f7 283e a042 1cbe 7a5d 14be 29bb 05bc
00000230: 38d6 11bd a1ed e23d a5d7 b1bd e306 143e
00000240: 230f 56bd d094 b93a a0df e4bc 64ec 493e
00000250: 7280 1cbc 08d7 643e 7388 5abe a16b 42bd
00000260: 9e3f 3a3e 3ba6 103e 0563 a1bc 984b 3e3e
00000270: 048d 243e e0fe 3dbe 3f8d a0ba 878d b23d
00000280: df9c 31be 2fcf 0f3e fea7 0bbe 8987 b5bd
00000290: 5f32 48bc b957 43bd a7a7 5c3e 70d1 f83d
000002a0: d4c5 7a3d 5e33 7f3d ed86 e13d 0b76 9b3c
000002b0: 63b1 67be 4c3f 1dbe f5c1 cabd 237f 923d
000002c0: 7a2e dcbd 6840 0a3d cb02 353d 94d4 913e
000002d0: 5c5e e7bc 9b6b 093e fef6 c6bd 8310 4cbe
000002e0: f218 3dbd 6416 6b3d 3be2 fe3d 0ae4 b83d
000002f0: 3fd8 423e a110 cebd 8e45 9dbc f5d4 2b3e
00000300: 69be 02be bc21 fe3d 5227 cabd 750a ba3d
00000310: 3e4e 073e a390 213e d102 83bb b90f 2ebd
00000320: fbeb 60bd 4718 723e 5510 afbc cf32 7ebd
00000330: f6c1 253c 62a5 943d 3d27 c5bd 15ee 19be
00000340: 3021 9dbd 9381 ee3d d86e 0b3c 14c8 0f3d
00000350: 9425 df3d b83f a2ba e368 0f3e c38c c9bd
00000360: ab44 4f3e d9d2 243c 3706 2c3e f2b5 013c
00000370: df26 70be 029f fe3d 5e6a 01be ed4e f7bd
00000380: 15ca 343e fc43 383d e60f 5abd f6bd d9bd
00000390: 37cc 1a3e 4d9a 6abe 3c48 fe3d a449 ed3d
000003a0: 8c29 0ebe 5cd4 a03d e786 30be 742c 2ebd
000003b0: 9bd8 d1bd 71ce d53d 9b38 19bd 9974 8ebd
000003c0: 9b6d 9abd 6c07 3b3e d9ce 4abd b568 133e
000003d0: 1976 253e 89b5 f7bc 72f5 883d 4c72 e03d
000003e0: 87f4 49ba 3cee a7bd a22a 4dbd 81c9 323d
000003f0: e646 42be df09 78bd 0d9e 783e 88ba ce3d

recurs2.bias_ih f4 [120]
0.30485278 0.29088563 0.029675405 0.17878224 0.039284546 0.10585145 0.09531163 0.31966946
0.12381468 0.23557705 -0.0046859784 0.13724425 0.19161847 0.05522037 0.1727304 0.17247316
0.2920219 0.12110458 0.12161628 0.2427933 0.07873988 0.28863207 0.2866252 0.021635074
0.19460854 0.07981035 0.29531628 0.11287218 0.15196252 0.29907653 0.13322821 0.18993269
0.0032281966 -0.03137556 0.10020929 0.27809283 0.21469241 0.033457734 0.26572978 -0.076413736
0.22673006 0.022426294 -0.009768151 0.14416851 0.2404643 0.21476017 0.03999733 0.07932883
0.15837446 0.08923694 0.053826667 0.21885781 0.022589596 0.22450545 -0.043073624 0.003987015
0.1300119 0.023237081 -0.06231643 0.058221254 -0.09414302 0.12268925 0.15188994 -0.06587753
0.14431693 0.14366587 0.13970187 -0.13101502 -0.13294259 -0.118925214 -0.0005073384 0.056033902
-0.21610932 0.16431098 0.29101712 0.025907826 0.04099866 0.019758563 -0.12571177 -0.1628988
0.16960259 0.22944957 0.017870944 -0.16715811 0.015850091 -0.180921 0.032013074 0.19605498
0.1966386 0.22037727 0.1919603 0.31736916 0.102097616 0.18755047 0.030646808 0.25317466
0.19889462 0.22958794 0.2902247 0.20890063 -0.02264702 0.12007803 -0.005720029 0.2860015
0.10620474 0.021238273 0.25425464 0.039901514 0.15055966 0.2602786 0.22127755 0.23961477
0.13415246 0.09881558 0.17732784 -0.05892196 0.085236214 0.2698202 0.26607403 -0.028512252
00000000: aa15 9c3e f6ee 943e d619 f33c b112 373e
00000010: d5e8 203d a5c8 d83d be32 c33d b7ab a33e
00000020: 8d92 fd3d 1c3b 713e d68c 99bb c289 0c3e
00000030: a237 443e c12e 623d 3de0 303e ce9c 303e
00000040: e583 953e ae05 f83d f511 f93d cf9e 783e
00000050: 6042 a13d 95c7 933e 8ac0 923e 0a3c b13c
00000060: 7647 473e 9c73 a33d b233 973e 8829 e73d
00000070: 109c 1b3e 8f20 993e fa6c 083e b77d 423e
00000080: 2790 533b a983 00bd 873a cd3d 2f62 8e3e
00000090: 54d8 5b3e fa0a 093d bc0d 883e ce7e 9cbd
000000a0: ed2b 683e 59b7 b73c 980a 20bc e9a0 133e
000000b0: 463c 763e 17ea 5b3e 3ed4 233d 2777 a23d
000000c0: ea2c 223e dbc1 b63d 5a79 5c3d 431c 603e
000000d0: d10d b93c c2e4 653e f86d 30bd 82a5 823b
000000e0: d721 053e b15b be3c 833f 7fbd 6979 6e3d
000000f0: 0ece c0bd 8044 fb3d 0989 1b3e ccea 86bd
00000100: d1c7 133e 251d 133e 020e 0f3e cd28 06be
00000110: 1a22 08be 108f f3bd e7fe 04ba ce83 653d
00000120: c34b 5dbe 2341 283e 3200 953e a63c d43c
00000130: 36ee 273d b6dc a13c 96ba 00be f1ce 26be
00000140: 4dac 2d3e d4f4 6a3e 1666 923c 7f2b 2bbe
00000150: 0dd8 813c 5b43 39be 2420 033d a3c2 483e
00000160: a15b 493e 94aa 613e 3e91 443e 367e a23e
00000170: 8e18 d13d 3b0d 403e 040f fb3c 1ca0 813e
00000180: 08ab 4b3e 1a19 6b3e 5598 943e 0cea 553e
00000190: 3e86 b9bc 78eb f53d 156f bbbb ca6e 923e
000001a0: df81 d93d e3fb ad3c aa2d 823e c56f 233d
000001b0: 502c 1a3e 3d43 853e 9596 623e 935d 753e
000001c0: 435f 093e d35f ca3d 6e95 353e 2758 71bd
000001d0: 5390 ae3d e025 8a3e db3a 883e 8792 e9bc

recurs2.bias_hh f4 [120]
0.19008368 0.31486982 0.0055758012 0.18644048 0.06249096 0.19831887 0.034841362 0.3153794
0.22766343 0.020983579 0.017886339 0.07747909 0.14643325 0.18873559 0.0932717 0.061792392
0.14195831 -0.00085888035 0.19114053 -0.025500879 0.114177555 0.017227165 0.060958117 0.13085333
0.083585285 0.00622031 0.17314361 0.04338192 0.19663487 0.2194385 0.08556125 -0.09059866
0.020054718 0.10956958 0.124048494 -0.021554375 0.2038044 0.15672776 0.124904424 0.04768453
0.025821118 0.09931981 0.21089932 0.06699633 0.16933696 0.20543918 0.20902444 0.034741256
0.15090784 0.1509228 0.1483992 -0.007421518 0.096467674 0.1129324 -0.061376862 0.11829221
-0.03866538 0.18625338 0.038203415 0.13699222 -0.14986494 0.13117011 0.18183671 0.12824193
0.09746054 -0.070734255 0.18590994 0.036435127 -0.16018209 -0.11634384 -0.05871952 0.035396833
-0.041862737 0.15728278 0.094981484 0.010188789 0.0040386617 0.09835361 -0.15046415 0.15343814
-0.012944259 0.18171176 -0.10026644 -0.07412688 0.0150633 -0.08261699 -0.1467001 -0.13556209
-0.13759299 0.24195309 0.24085444 0.07895412 0.24972618 0.16889776 0.14576595 0.06633312
0.015298921 0.27799213 0.34123674 -0.12990229 0.1725944 0.21276447 0.04052502 0.06630653
-0.024060575 0.23325326 0.35147583 0.21661015 0.12438155 0.20594856 0.0010498932 0.03212713
0.19472426 0.27473158 0.1803527 0.067318335 0.1676105 -0.05126689 0.28308868 0.026959332
00000000: 4ca5 423e 9e36 a13e 36b5 b63b 41ea 3e3e
00000010: 85f6 7f3d 1a14 4b3e d1b5 0e3d 6979 a13e
00000020: 9a20 693e c1e5 ab3c 5f86 923c 5bad 9e3d
00000030: 99f2 153e e743 413e 3c05 bf3d 051a 7d3d
00000040: 855d 113e 7c26 61ba 58ba 433e 38e7 d0bc
00000050: ecd5 e93d fc1f 8d3c 38af 793d 6afe 053e
00000060: c32e ab3d bed3 cb3b 8f4c 313e 3db1 313d
00000070: a75a 493e 7cb4 603e bd3a af3d ca8b b9bd
00000080: cb49 a43c 0466 e03d 230d fe3d cd92 b0bc
00000090: 1ab2 503e 3e7d 203e e4cd ff3d db50 433d
000000a0: cf86 d33c 2f68 cb3d fef5 573e 5f35 893d
000000b0: ab66 2d3e a65e 523e 810a 563e d94c 0e3d
000000c0: 9687 1a3e 828b 1a3e f6f5 173e 3530 f3bb
000000d0: d890 c53d 1a49 e73d 4e66 7bbd 3043 f23d
000000e0: 975f 1ebd 35b9 3e3e 2f7b 1c3d b047 0c3e
000000f0: 3276 19be 7551 063e 6733 3a3e da51 033e
00000100: 6499 c73d 1fdd 90bd 2d5f 3e3e 003d 153d
00000110: c606 24be ae45 eebd e183 70bd 45fc 103d
00000120: 4378 2bbd bd0e 213e a785 c23d e1ee 263c
00000130: c056 843b 9e6d c93d 4613 1abe e31e 1d3e
00000140: 2814 54bc a612 3a3e 7e58 cdbd d5cf 97bd
00000150: 0fcc 763c 1933 a9bd 8d38 16be cad0 0abe
00000160: 2de5 0cbe 8dc2 773e 8ca2 763e b3b2 a13d
00000170: 38b8 7f3e 89f3 2c3e ab43 153e a9d9 873d
00000180: 53a8 7a3c fc54 8e3e 95b6 ae3e 1b05 05be
00000190: 96bc 303e eede 593e 90fd 253d b8cb 873d
000001a0: af1a c5bc f1d9 6e3e a4f4 b33e 0dcf 5d3e
000001b0: c1bb fe3d 2ee4 523e 929c 893a bd97 033d
000001c0: cc65 473e 9ea9 8c3e 61ae 383e 32de 893d
000001d0: 16a2 2b3e 3bfd 51bd 00f1 903e d1d9 dc3c

output.weight f4 [2, 30]
-0.11788735 -0.05095654 0.14502457 -0.06227967 0.045646947 -0.10171159 0.18204954 -0.16413492
-0.16651508 -0.25089738 0.0417857 0.07741062 -0.21312732 0.0023935349 0.24963537 0.05766239
0.20152694 -0.028294234 -0.06524666 0.09540636 0.113921985 -0.036779832 -0.065747656 0.06610728
0.061254982 -0.13589555 -0.24249491 0.19602011 -0.038188484 0.06553611 0.3087235 0.24454275
0.20161268 0.2593198 -0.16846746 0.20572114 -0.2065253 0.21699665 0.25189057 0.09631407
-0.22422406 -0.1739135 -0.16773166 -0.2520554 0.17457728 0.2978747 0.20801349 -0.24270937
0.2902513 -0.26853624 0.19853425 0.1304387 0.21488626 0.19634575 -0.3594255 0.16062757
-0.16838709 -0.2725454 0.29590076 0.15758854
00000000: ec6e f1bd ceb7 50bd 5281 143e f818 7fbd
00000010: 4bf8 3a3d 2b4e d0bd 326b 3a3e fc12 28be
00000020: ee82 2abe 9f75 80be 7b27 2b3d 7689 9e3d
00000030: 0c3e 5abe dadc 1c3b 6aa0 7f3e 662f 6c3d
00000040: 145d 4e3e 4fc9 e7bc 0aa0 85bd 6964 c33d
00000050: ee4f e93d 73a6 16bd b5a6 86bd 4163 873d
00000060: 81e6 7a3d 3428 0bbe 9650 78be 7fb9 483e
00000070: 876b 1cbd cc37 863d 0211 9e3e 6a69 7a3e
00000080: 8e73 4e3e 91c5 843e bc82 2cbe 90a8 523e
00000090: 5e7b 53be 5f34 5e3e cdf7 803e 5040 c53d
000000a0: fe9a 65be 6116 32be d9c1 2bbe 680d 81be
000000b0: 63c4 323e 0883 983e 7d01 553e ce88 78be
000000c0: d29b 943e 957d 89be 904c 4b3e b991 053e
000000d0: 250b 5c3e dc0e 493e 9e06 b8be 8e7b 243e
000000e0: aa6d 2cbe 128b 8bbe 4e80 973e e45e 213e

output.bias f4 [2]
0.1058227 0.004910605
00000000: 92b9 d83d 24e9 a03b

switch.weight f4 [1, 30]
0.12484203 -0.06779309 -0.103240535 -0.06078512 -0.044776823 0.07317016 -0.030016173 0.08034501
-0.14906234 0.01867667 0.14524086 -0.019792384 0.15060438 0.05664825 -0.17863803 -0.108951606
0.14130114 -0.030938113 0.17434104 -0.17365204 -0.097455494 0.14753903 0.16411538 -0.16579805
0.05878262 -0.18367766 -0.12834767 0.08603144 -0.09468613 -0.017740417
00000000: 2ead ff3d 1bd7 8abd c66f d3bd d1f9 78bd
00000010: e767 37bd 3dda 953d 7ae4 f5bc ed8b a43d
00000020: cca3 18be d1ff 983c 05ba 143e a323 a2bc
00000030: 0938 1a3e ff07 683d e3ec 36be 0522 dfbd
00000040: 3fb1 103e ed71 fdbc 7586 323e d7d1 31be
00000050: bf96 c7bd 7914 173e dd0d 283e f7c6 29be
00000060: 0bc6 703d ff15 3cbe 926d 03be 4031 b03d
00000070: cdea c1bd 5a54 91bc
