checkpoints/RAND-VC-ca91f1a9/model.pth (torch, 50130 bytes, 11 tensors)

recurs1.weight_ih f4 [120, 2]
000000 dc 11 6b 3b 73 bb d2 3d 71 be 19 be d0 ff 08 be
       0.00358688 0.10289659 -0.15014054 -0.13378835
000010 68 1d 94 bd 2c 6d 40 3d 7b 44 9d 3a f7 2b 19 3e
       -0.07232171 0.046979114 0.0011998558 0.14958178
000020 a4 85 ad bc 89 73 31 3d 31 fa 4d bd 7f db fd bc
       -0.021181889 0.043323074 -0.05028743 -0.030988453
000030 7d a9 32 be a0 ea f7 bd e3 40 a4 bd 76 88 ec 3a
       -0.17447467 -0.12105298 -0.08020189 0.001804604
000040 b2 bf 9d 3d 49 3f ea 3d 7a ad f3 bd ab 01 99 bd
       0.077025786 0.11437852 -0.118983224 -0.07471021
000050 34 38 7b 3d e8 21 16 3e 71 80 1c bd 74 35 0b 3e
       0.061332896 0.14661372 -0.03820843 0.1359461
000060 c1 89 ca bc e6 da c4 3c 24 84 2c 3e b7 17 2a be
       -0.02472389 0.02403016 0.16847283 -0.16610609
000070 70 b4 e1 bd ca ee 29 bd ba c5 87 bd 18 85 26 3e
       -0.11020744 -0.041487493 -0.0662951 0.16261709
000080 0b 0b e9 bd 2e ce a2 bd 6f 2f fb bd f0 11 2a be
       -0.113790594 -0.07949482 -0.122649066 -0.16608405
000090 a5 7b e4 bd ca 94 1b 3e 43 f3 af 3d 43 89 be 3d
       -0.11156396 0.15193477 0.0859132 0.09303524
0000a0 8a 5f 96 3b 9a f9 c9 bd 0b 74 d7 3c e5 49 33 be
       0.004589026 -0.09862061 0.02630045 -0.17508657
0000b0 1d 42 02 be ea ec b6 bd 31 a5 e1 3d 24 f5 d0 3d
       -0.12720533 -0.089319065 0.11017836 0.10203007
0000c0 f2 c3 9b bd 54 b1 db ba 77 15 f9 3d e3 d7 3e 3e
       -0.07605733 -0.0016761222 0.12162297 0.18637042
0000d0 3e 7c 8a 3d f2 1e a2 3c 8f 6f 02 3e d5 fc d1 bd
       0.067619786 0.019790146 0.12737869 -0.10253302
0000e0 0f 70 13 3d 18 64 0e be 27 b7 06 be e0 70 cb bd
       0.03599554 -0.1390537 -0.13155805 -0.099336386
0000f0 1c 3f b3 3d 03 74 a0 3d 1a bb de bd 18 e0 60 3d
       0.087522715 0.078346275 -0.108755305 0.054901212
000100 f3 07 c4 3d 16 ec e1 bc b1 ed 42 3c 32 7a 41 3d
       0.09571829 -0.027578395 0.01189749 0.047235675
000110 87 fd dd 3d 6f 83 2e 3e 60 1c 0b be 56 2b 7e bd
       0.10839372 0.17042325 -0.13585043 -0.062053047
000120 6a 46 91 3d 2d 8e 1a 3e 33 9a 1d 3e 3b d7 1f 3e
       0.070935085 0.15093298 0.15390854 0.15609448
000130 93 22 29 3d 3f 7d 1d be 3b 7f b1 3c a1 ef df bd
       0.04129274 -0.15379809 0.021667114 -0.109343775
000140 e4 4e 33 be d9 02 21 3e de 18 0d 3e a3 b6 3b be
       -0.17510563 0.15723743 0.13779017 -0.18331389
000150 e5 74 1f 3d 25 ec d4 bc 58 40 dc bc b5 57 a4 bd
       0.03892984 -0.025991509 -0.02688615 -0.08024541
000160 87 dd 99 3d 28 62 d3 bd 83 35 93 3d 15 3b c7 3d
       0.07512956 -0.10321456 0.07187941 0.09728066
000170 6f 96 0a 3e c8 51 95 3d 98 fe 33 be 16 75 e8 bd
       0.13533948 0.07290989 -0.17577589 -0.11350457
000180 7f bd b0 3d a9 89 08 3d 1c fb 0e be 1e a5 ce bd
       0.086298935 0.033334408 -0.13962978 -0.10090087
000190 22 d2 2a 3e 0e d2 f1 3d fa 9d ac bd 09 7b 4f bd
       0.16681722 0.11807643 -0.08428569 -0.050654445
0001a0 44 7d 2d be c5 58 ad 3a b3 d1 11 be ab 3e 15 be
       -0.16942316 0.0013225308 -0.1424015 -0.14574687
0001b0 22 03 a7 bb 1f 9e 04 3d 15 1e 8f bd 0f e9 e7 3d
       -0.005096809 0.03237736 -0.069881596 0.11323749
0001c0 15 21 ed bd 54 cc 24 3e a1 27 05 3e f7 9d 18 be
       -0.115785755 0.1609357 0.13003398 -0.14904009
0001d0 07 46 37 bd 77 04 17 3c c5 a3 b1 3c 70 0d 1d 3d
       -0.044744518 0.009217373 0.021684537 0.038342893
0001e0 e4 e6 9c 3d 1f 41 82 3c 27 8b be bd d4 b9 a8 3d
       0.076612264 0.015900193 -0.09303885 0.08238569
0001f0 de 82 35 be 15 f0 e1 bd 8d 39 27 bd d5 26 ac bd
       -0.17725703 -0.1103212 -0.04082637 -0.08405844
000200 46 0a 8d bd c9 59 1e be 63 1f 0b bd f7 cb 33 3d
       -0.06886725 -0.15463938 -0.03396548 0.043895688
000210 57 d0 f2 bd ff 02 aa bb 35 f7 0a 3e b3 60 61 bc
       -0.11856144 -0.0051883454 0.13570864 -0.013755965
000220 80 31 c9 38 cf cd a9 bc 6c b1 03 3d 74 ed e3 3d
       9.593647e-05 -0.02072802 0.032151625 0.11129275
000230 fc 39 36 3e ed b8 f7 3d 9b 38 32 3e 3e 24 4c bc
       0.17795557 0.12095819 0.17404406 -0.012459813
000240 67 1d 23 be 06 9b a7 bd f9 0d f8 3d 38 b0 92 bb
       -0.15929185 -0.08183865 0.1211204 -0.0044765733
000250 cc 22 b0 bd 95 68 0a be 6d ea 29 be 0b bf 18 be
       -0.08600387 -0.13516457 -0.16593333 -0.14916627
000260 17 82 2a bd c8 aa c3 3d c2 42 d4 3d ad 40 2f be
       -0.04162797 0.09554058 0.103642955 -0.17114516
000270 e8 7e f3 3d 8c 2a 0d be a4 91 31 bd 25 56 a1 bd
       0.1188944 -0.13785762 -0.043351784 -0.07877759
000280 85 fa f6 bc 1a 8c fc bc 74 8c 2c be c2 34 26 be
       -0.030148754 -0.030828524 -0.16850454 -0.16231063
000290 89 14 09 bd ae 32 26 bb 0f 95 9f bd e7 20 97 3d
       -0.03346685 -0.0025359797 -0.077921025 0.073793225
0002a0 0f 34 23 be cb 99 f1 bb d2 6b 1f 3e e7 7f a2 bd
       -0.15937828 -0.00737307 0.15568474 -0.07934552
0002b0 0e c7 23 3e 2f a4 7a 3d 8f cd 2d be 3b 69 e2 3d
       0.15993902 0.061191734 -0.16972946 0.11055227
0002c0 1e a3 ac bc c9 fd a6 bd 8a 5c 10 3e 6b 37 1c be
       -0.021073874 -0.081538744 0.14097801 -0.15255515
0002d0 da 23 c9 3c ff 38 08 bd 22 55 05 3e 0d e5 51 3d
       0.024553228 -0.03325748 0.13020757 0.05124383
0002e0 ea 65 af 3d fc a8 7f 3d 39 b4 1f bd fc 20 09 bd
       0.085643604 0.062417015 -0.038990233 -0.033478722
0002f0 ae 22 1f be ab 72 c0 3d 08 77 19 3e b5 f3 04 3e
       -0.15540573 0.09396871 0.14986813 0.12983592
000300 5e 65 04 be 12 05 f2 3b 00 e2 08 be d9 0d d8 bd
       -0.12929294 0.0073858583 -0.13367462 -0.10549516
000310 23 c6 cf bd aa df 89 3d 07 d2 d4 bd 65 1c 6c 3a
       -0.101452135 0.06732114 -0.10391622 0.00090069167
000320 07 e1 2f 3b 6f c6 e6 3d 6b a3 0e be f9 bc 01 be
       0.0026837008 0.11268317 -0.13929527 -0.12669744
000330 5e 5d cf bd c7 bc 07 3e 5f fb 7e bd e3 43 21 3e
       -0.1012523 0.13255607 -0.062251445 0.15748553
000340 89 0e 91 3d 3a cd e4 3c f2 50 6b 3b f0 1a ff bc
       0.070828505 0.02792989 0.0035906401 -0.031140774
000350 0b 1f e1 3c cf 0a 18 bd fa f1 6f 3b 2b 5c e7 3c
       0.027480623 -0.037119683 0.0036612735 0.028242191
000360 1e 4e 17 be e9 23 ce bd 70 72 1b 3e eb 25 13 be
       -0.14775893 -0.10065443 0.15180373 -0.14369933
000370 55 42 94 bc 1d d5 33 3e eb 73 7b 3d b1 dd 18 3a
       -0.018098036 0.17561765 0.061389845 0.00058313744
000380 1b 3b 1d be 39 f7 c2 3d 01 44 0a be 33 b2 68 bd
       -0.15354578 0.0951981 -0.13502504 -0.05681057
000390 e8 97 66 bd fb dc b4 bc a8 09 e2 3b e8 3a 1f 3e
       -0.056297213 -0.022078028 0.006898124 0.15549815
0003a0 43 89 93 3c a8 86 22 3e fe eb ee 3d 9c 30 e2 bd
       0.018009787 0.1587168 0.11666106 -0.11044428
0003b0 21 c0 aa 3d b2 3c 02 be 25 bb a8 bd 27 6c 47 3d
       0.08337427 -0.12718466 -0.0823882 0.048687126

recurs1.weight_hh f4 [120, 30]
000000 dc df 62 3d 7f f4 09 3e d0 8a 82 bd ba 81 98 bb
       0.05538927 0.13472174 -0.06374133 -0.0046541365
000010 2c 4f b6 3d 00 c3 39 be 69 82 09 3e ae 7c 15 be
       0.089018196 -0.18140793 0.13428654 -0.14598343
000020 2b 2e f3 3b 26 da d5 bc 81 bb ba bd 13 45 ec 3c
       0.007421275 -0.026104998 -0.09117795 0.02884153
000030 21 95 15 3e c8 4d 46 bd f8 21 e8 bd 47 6b 94 bd
       0.1460767 -0.04841402 -0.11334604 -0.07247024
000040 8e 3d 34 be 2e ad 9e 3d 92 95 a9 bd 93 c0 f0 bd
       -0.17601606 0.07747875 -0.082804814 -0.117554806
000050 57 3d cd bd 2e cb cc 3d 9f 59 cf 3d de 8a 14 3e
       -0.10021465 0.09999691 0.10124516 0.14506099
000060 6c f8 7a 3d 0d 91 65 bd fb 3a 65 bd 48 07 71 3d
       0.06127207 -0.056046534 -0.05596445 0.058844835
000070 f3 ba 15 3e 39 03 37 3d 52 db a9 bd fa 43 ab bd
       0.14622097 0.044680808 -0.08293785 -0.08362575
000080 d9 d0 2c be 8d 3b 31 3d 85 fd ca bd 3d 66 23 be
       -0.16876544 0.043269683 -0.09911636 -0.1595697
000090 82 3c 22 3e a9 b1 f7 bd 06 44 bf bc 2d 46 46 3d
       0.15843394 -0.12094433 -0.023347866 0.04840677
0000a0 de c8 39 3b 12 70 00 be db 64 13 be 2d 65 11 3e
       0.0028348486 -0.12542751 -0.14393942 0.14198752
0000b0 6f 2b 0a 3d ec e0 1e 3e 91 d8 84 bd f1 6b 6b 3d
       0.033732828 0.15515488 -0.06486619 0.057475988
0000c0 ad 5d 39 bd 5f da 37 bc d5 32 eb bd ec d9 84 3d
       -0.04525535 -0.011221497 -0.11484305 0.06486878
0000d0 92 29 61 3d 24 81 f7 bb 95 e1 18 bd 4f 6b ed bd
       0.054971285 -0.0075532366 -0.037324507 -0.11592733
0000e0 fe 4e 04 3e b0 16 0f be 72 fe 99 3d 14 da 6d bd
       0.12920758 -0.13973498 0.07519235 -0.058069304
0000f0 bc 0e ab bd 9d 23 18 3d fa 07 b9 bd 3a d2 3e 3d
       -0.0835242 0.03714334 -0.090347245 0.046587206
000100 db fa 24 3d f3 2d 06 be f0 a7 d5 3c 15 e8 96 3d
       0.040278297 -0.13103466 0.026081055 0.07368485
000110 1e db 8a 3d 47 68 e1 bc 45 be 1d be 1f bc 05 bd
       0.067800745 -0.027515544 -0.15404613 -0.03265011
000120 b4 2f 8b 3d a9 95 91 bd 0f 31 97 3d aa 1f 01 3e
       0.06796208 -0.071086235 0.07382404 0.12609735
000130 89 7f cc bd 9c 6d cf 3b 70 64 91 3d 85 30 1e 3c
       -0.09985263 0.006330205 0.07099235 0.009655123
000140 26 a5 30 3c 25 ba de 3c ad c0 17 be 34 3c 21 3c
       0.010781562 0.02718837 -0.14819594 0.009841014
000150 67 13 06 3e 86 d3 23 3e b3 d6 e4 3d d3 03 a3 3c
       0.13093339 0.15998659 0.11173763 0.019899284
000160 72 7c b4 3d 00 c3 ac bd f7 e7 1f be 49 cc 22 be
       0.088127986 -0.08435631 -0.15615831 -0.15898241
000170 ee 71 35 3e f6 46 e3 3d bd 4c 06 be c4 71 88 3d
       0.17719242 0.11097519 -0.13115211 0.06662324
000180 1f 2a 0f 3e 28 f2 3f 3e 84 71 28 3e 20 e0 15 3e
       0.13980912 0.18744719 0.16449553 0.14636278
000190 e0 28 17 bd e3 8e 73 bd c7 83 14 3e aa 9a db 3d
       -0.036904216 -0.05946244 0.14503394 0.10722859
0001a0 9a 1b eb bd 2f 0a 23 3e 5d b8 be 3d 6c c8 c1 3d
       -0.11479874 0.15921853 0.09312508 0.094620556
0001b0 ce 6d e0 bd 2d 60 5f 3d 8e e6 71 bd fd 02 0d 3e
       -0.109584436 0.05453508 -0.059057765 0.13770671
0001c0 2c 5d e9 bc 39 a2 9b 3d 94 58 e1 3c 5b 1d a9 3d
       -0.02848681 0.07599301 0.027508058 0.08257552
0001d0 76 28 89 bd 9a 4c c0 3d f6 80 06 be bd aa 14 3d
       -0.066971704 0.093896106 -0.13135132 0.03629564
0001e0 fc 2f f3 bd 1f 23 36 be 6a 2b 11 be 11 91 18 3e
       -0.11874387 -0.17786835 -0.14176717 0.14899088
0001f0 6e 3e d4 3d a6 40 34 3e f1 7d 13 3e 25 ea 2b be
       0.1036347 0.17602786 0.14403512 -0.16788538
000200 67 95 04 be 92 9c 0c bd 40 bf fc bd e0 4c fa 3d
       -0.12947617 -0.034329005 -0.123411655 0.12221694
000210 56 6e 08 be b6 77 c0 bd 36 a6 2f be d9 52 ca bd
       -0.1332334 -0.09397833 -0.17153248 -0.09879083
000220 6d c9 14 3e 52 09 1e 3e aa 09 01 3e 2e c9 0d 3e
       0.14529963 0.15433243 0.12601343 0.13846275
000230 aa 46 21 3e bd 9e 2b bd a2 65 9b 3d 0b ac 21 3e
       0.15749612 -0.04189943 0.07587744 0.15788285
000240 cb af 85 3d 80 f8 35 3e b9 b3 cb 3d 74 a0 de 3d
       0.065276705 0.17770576 0.09946389 0.10870448
000250 d0 d8 76 bd f7 48 bd 3d 33 77 84 3c a4 f4 3b bd
       -0.060265362 0.092424326 0.01617012 -0.045887604
000260 88 d4 dc bd 49 cd db bd 4c e4 14 be 8a 4b f1 3d
       -0.107827246 -0.107325144 -0.14540213 0.11781986
000270 f3 35 07 3e 2a dd 81 bc 4e 88 ce bd b7 7b 15 3e
       0.13204174 -0.01585253 -0.10084592 0.14597975
000280 93 2c f9 3d 28 ac 94 3c bb 66 ba bd fa d4 30 3e
       0.12166705 0.018148497 -0.091016255 0.17268744
000290 ae e4 8e 3d 53 ec 12 be dc eb 37 3e 96 fd 08 3e
       0.06977211 -0.14347963 0.17961067 0.13377985
0002a0 52 e0 7c bd 72 79 da 3d 80 67 ca bd ff 4e 09 bd
       -0.061737366 0.10667695 -0.09883022 -0.033522602
0002b0 9d 41 23 3e 5a 53 4b 3c f0 38 09 be 00 1b 66 bd
       0.15942998 0.012410009 -0.13400626 -0.056178093
0002c0 09 f1 5e bd 25 fb f8 bc d3 78 62 3c 7b e4 27 3e
       -0.054429088 -0.030393193 0.013822752 0.16395752
0002d0 54 04 2e 3c 7c 5c e4 bd d0 ce 23 3c bd ab b4 3d
       0.010621149 -0.111504525 0.009998038 0.08821819
0002e0 ac ee ba 3d af e3 29 be 0b 27 0a bd f6 d2 0b be
       0.09127554 -0.1659076 -0.03372864 -0.13654694
0002f0 55 3f a1 bd 61 51 85 3d e8 9a 05 be d6 b5 88 3d
       -0.07873408 0.065096624 -0.13047373 0.066753075
000300 a6 88 1f 3e 47 0f 39 3c 28 ef f7 bd 8b 82 84 bd
       0.15579471 0.011295146 -0.12106162 -0.064702116
000310 84 5e 20 3d 5b c6 0d be dd 00 b8 3d b4 ee 2a be
       0.039152637 -0.13845198 0.0898454 -0.1669262
000320 5c 61 34 be d6 d8 34 be c6 ea 1b bd fc 08 fa 3d
       -0.17615265 -0.17660841 -0.038065694 0.12208745
000330 a9 3e 30 be d1 87 1a 3e 5f d9 93 bd 27 08 58 3d
       -0.17211403 0.15090872 -0.072191946 0.05274215
000340 d7 39 07 3c 9d d0 27 be 5d 09 20 3e ab 95 cd 3d
       0.008253536 -0.16388173 0.15628572 0.100383125
000350 23 e9 3e 3e 4b 11 c7 3d 37 af ec bd ed f4 20 3e
       0.18643622 0.09720095 -0.11556857 0.15718432
000360 7d c4 03 3c e3 73 a7 3d 7c e0 1a be 1e 5a 6b bd
       0.008042452 0.081764005 -0.15124696 -0.05745899
000370 b7 96 3c be 4c d9 9a bd 16 65 35 3d b2 e2 17 be
       -0.18416868 -0.07560977 0.044285856 -0.14832571
000380 90 5c 81 3d 8e e1 d2 3d 66 b9 a7 3c 35 09 f0 bd
       0.06316483 0.102969274 0.020474147 -0.11720506
000390 62 d3 15 be 4a 7f 70 bd 8c fc 99 3d 40 74 3d 3e
       -0.14631417 -0.058715142 0.075188726 0.18501377
0003a0 cf 58 ce 3d cf 88 d0 bc e4 47 8d 3d 43 6c 3c be
       0.10075533 -0.02545586 0.06898478 -0.18400674
0003b0 07 b8 1a be 6e 6c a4 3d e0 78 cd bd 3d f3 bd 3d
       -0.15109263 0.08028494 -0.10032821 0.0927491
0003c0 73 01 09 be 0f 49 bd bd ae 14 1f be e9 fc b8 3d
       -0.13379459 -0.092424504 -0.15535232 0.09032614
0003d0 bc 10 c1 bc 2e e6 0a 3e 36 29 eb 3d 87 fa d8 3d
       -0.02356755 0.13564369 0.1148247 0.10594659
0003e0 0c aa 2f 3c 9a ef 52 bd aa 47 0e bd 70 25 ed 3c
       0.010721695 -0.051498033 -0.034736313 0.028948516
0003f0 10 48 af 3d b3 df fb bd c9 d4 17 3e 62 1a cb bc
       0.08558667 -0.122985266 0.14827265 -0.024792854

recurs1.bias_ih f4 [120]
000000 14 74 2b be 63 4c 23 be ac 55 18 bd f7 ae 09 3e
       -0.16743499 -0.15947108 -0.037191078 0.1344565
000010 21 c4 73 3d 82 e6 f1 3c c4 a1 45 bd 62 3d 2f 3e
       0.059513215 0.02952886 -0.048249975 0.1711326
000020 35 ef 49 bb 4b de 68 3d 60 5c 01 3c 19 ee ee 3c
       -0.0030812745 0.05685262 0.007895559 0.029166268
000030 d3 13 66 3d 23 20 0c 3e 15 88 cd 3d 13 7e 97 3c
       0.05617125 0.13684134 0.10035721 0.018492734
000040 e1 2b 8c 3d 14 ff 74 bd cd ea 04 3e 43 4e 3f 3d
       0.06844307 -0.059813574 0.12980194 0.046705496
000050 f3 3a 12 3e dd b0 c3 bc 4d 90 1d be 7a 47 28 3d
       0.142803 -0.023888046 -0.15387078 0.04108379
000060 7d 04 8e 3d 83 14 12 3e 58 e8 9a 3d 37 f5 7f 3d
       0.0693445 0.14265637 0.07563847 0.062489714
000070 3a 39 12 3e fb 6d 6c bd 3f 07 20 3e eb 39 c0 3d
       0.14279643 -0.057722073 0.15627764 0.09386047
000080 3a 80 01 3e cf 48 00 3e 75 bd 13 be fa cf b8 3d
       0.12646571 0.12527774 -0.14427741 0.090240434
000090 4b 77 2e 3e 54 70 fc bd db dc a8 bc 6a 2e ee bd
       0.17037694 -0.123261124 -0.020613125 -0.116299465
0000a0 a8 2f 20 bd 68 a6 e8 3c 0c 40 be 3d cc bd 66 bd
       -0.03910795 0.028399661 0.0928956 -0.05633335
0000b0 63 13 36 be 16 c2 bf 3d 34 44 c8 3d 68 c4 1b bd
       -0.17780833 0.09363191 0.09778634 -0.038029104
0000c0 5f 0b 25 3e 04 cb 0b 3e 96 91 10 bd 59 92 40 3c
       0.16117619 0.13651663 -0.03529509 0.011753642
0000d0 df bd e1 3c 17 ce fc bc 7d 92 4c bd ba d2 b2 bd
       0.027556358 -0.03085999 -0.04994439 -0.08731599
0000e0 5d f5 ca bd 3f a8 b0 3d d3 11 62 bd 4f 39 a9 bd
       -0.099100806 0.086258404 -0.05519278 -0.08262884
0000f0 fd 9a 1f 3e a7 f9 07 3d 3e 0d 09 3e fc 60 25 3e
       0.15586467 0.03319707 0.13383958 0.16150278
000100 6e c0 a9 bc 25 35 b7 3c 78 0d 29 3e ea c3 05 be
       -0.02072164 0.022364208 0.16509044 -0.13063017
000110 7b d4 4b bd 30 1c fc 3c f9 89 8e bc 02 0d 44 3d
       -0.049763184 0.03077516 -0.017399775 0.047863968
000120 ac f4 ba 3d 15 17 93 bd 2f 30 1b 3c 7b 18 24 3e
       0.09128699 -0.07182137 0.009471937 0.16024964
000130 d8 30 ca bd 64 d5 03 be 65 81 14 be 0e 3c e9 3d
       -0.098725975 -0.12874371 -0.14502485 0.11388408
000140 fa 9e 30 be 72 45 ac bd 99 48 03 3e e0 6d ea bd
       -0.17248145 -0.08411683 0.12820663 -0.11446738
000150 db f7 12 3e 75 ce a4 bd e4 7d 0a 3d 57 6e ec 3c
       0.14352362 -0.08047191 0.033811465 0.028861208
000160 18 8d 91 bb 5a 2a f3 3d e0 b2 19 3e 47 07 ea bd
       -0.0044418685 0.11873312 0.15009642 -0.11427169
000170 2d ec d5 3d 87 aa 33 3d 7c ed cb 3a ce c0 07 be
       0.104454376 0.0438638 0.0015558447 -0.13257143
000180 fd ee 60 3d 77 cf 0c 3e 68 84 25 be 45 aa 31 be
       0.054915417 0.13751017 -0.1616379 -0.17350109
000190 34 aa 32 be 04 5b 32 3d 04 66 6a bd 13 93 76 bd
       -0.1744774 0.04354383 -0.057226196 -0.060198855
0001a0 ad 28 29 3e bb 05 53 bd bd cf f6 bd ee 04 3c 3c
       0.16519423 -0.051519137 -0.12051342 0.011475785
0001b0 85 10 c3 bd e3 68 6d bd 00 bc cf 3d b5 60 3f 3d
       -0.09524635 -0.057961356 0.1014328 0.046723086
0001c0 7c 29 05 be d9 17 37 3e ac d1 f2 3d f3 78 04 be
       -0.13004106 0.17880191 0.11856398 -0.12936763
0001d0 50 ba ac 3d f4 71 8f 3d 60 12 08 be a4 84 fc bd
       0.08433974 0.07004157 -0.1328826 -0.12329987

recurs1.bias_hh f4 [120]
000000 fc e0 1f be 90 61 a5 3d c4 65 0a 3d 4b 26 94 3d
       -0.15613168 0.08075249 0.033788458 0.07233866
000010 ff 03 9a bd 4c 8f 07 3e 61 1a c0 3c 83 19 10 be
       -0.075202934 0.13238257 0.023450078 -0.14072232
000020 c6 02 50 bd bb 00 b5 3d 42 e3 38 3d 7d 44 df bc
       -0.050783895 0.0883803 0.045138605 -0.027254337
000030 3f 71 07 be d1 47 ef bd 75 68 1c 3e 77 2b e0 bd
       -0.13226794 -0.1168362 0.15274222 -0.1094579
000040 b9 a6 ff 3d 94 34 87 bd 1e d3 df 3b 25 b6 3a be
       0.12482972 -0.06601825 0.006830587 -0.18233545
000050 a8 89 5e bd 32 54 22 3e 85 c4 2c be c4 69 c6 3d
       -0.054330498 0.1585243 -0.16871841 0.09688142
000060 64 5e 22 be 4a 45 b2 3c 80 82 24 be 49 16 19 be
       -0.1585632 0.021761555 -0.16065407 -0.14949907
000070 70 7c 19 be 61 bd 6e bd 31 52 a3 3c 1b cf 08 be
       -0.14988875 -0.058286075 0.019936653 -0.13360254
000080 30 19 50 3d 0e 1a d7 3d 29 68 1d 3e 6c 91 20 3e
       0.05080527 0.105030164 0.15371765 0.15680474
000090 91 df f6 3d f1 b8 47 bd 50 83 b2 bc da 6b 20 3e
       0.12054361 -0.04876036 -0.02179113 0.15666142
0000a0 94 33 c4 3d 5d 70 41 bd b3 45 08 3e 68 cb 26 be
       0.0958015 -0.0472263 0.13307838 -0.16288531
0000b0 79 f7 1a 3e c1 10 c7 3d 37 e1 0d be 64 88 1d be
       0.15133466 0.097199924 -0.13855444 -0.1538406
0000c0 39 33 17 3e a3 1a 34 3e e2 06 ab 3c df 77 88 bd
       0.14765634 0.17588286 0.020877305 -0.066634886
0000d0 20 7b cb 3d 13 c2 b2 3d ca 54 e3 bc 12 a9 10 3e
       0.099355936 0.08728423 -0.027750392 0.14126995
0000e0 57 0a fc 3d 36 46 26 3d ef 23 c0 3d ff 0a 2a be
       0.1230666 0.040594302 0.09381854 -0.16605757
0000f0 50 4f b9 bd 62 c5 c4 3c 36 00 54 3d 0a 6a f4 bc
       -0.09048331 0.0240199 0.051758014 -0.02983572
000100 69 6b 97 3d 51 dd 4f 3d 29 11 31 be 62 58 57 3d
       0.07393534 0.050748173 -0.17291702 0.052574523
000110 ed a7 21 bc 42 7c f7 bd 22 7d 96 3a bc f7 3a bd
       -0.009866697 -0.12084247 0.0011481384 -0.045646414
000120 40 38 d0 bd 37 fd 26 be d8 8a 17 3e ea 2a ed bd
       -0.10166979 -0.16307531 0.14799058 -0.11580451
000130 98 6f ee 3c 7d b7 10 3e 4b 74 e5 bc 77 57 eb bd
       0.029105946 0.14132495 -0.028009554 -0.11491292
000140 d1 02 3a be e4 60 0f 3d ef 95 b1 bd f9 ee 07 3c
       -0.18165137 0.03500451 -0.08671176 0.008296722
000150 30 9a 5a 3d 94 ea 3f bd cd cf 03 3e 26 fb 99 bc
       0.0533697 -0.04685457 0.12872238 -0.018796515
000160 1c 26 95 bd 07 f4 ec bd f3 8a 4e 3d ad be e7 bd
       -0.072826594 -0.11569982 0.05042548 -0.113156654
000170 bc a3 25 3d f8 0c e5 bc 3e 90 05 3e 3a 5f c1 bd
       0.040439352 -0.027960286 0.13043305 -0.09441991
000180 ac a5 b6 bd 4c 67 98 bc 3f 78 ee bd a0 8c 84 3d
       -0.08918318 -0.018603943 -0.11644029 0.064721346
000190 bc 69 7d bd 26 30 9c 3d 34 3f cf 3d 47 33 d3 3d
       -0.061868414 0.07626371 0.10119477 0.10312515
0001a0 49 fe 1c bd 08 eb c1 3d 44 5b cf bd d5 56 3f be
       -0.038328443 0.09468657 -0.101248294 -0.18685468
0001b0 19 64 4b bc 84 21 0c be 7a ba 0b be eb e0 50 3d
       -0.012414002 -0.1368466 -0.13645354 0.05099575
0001c0 ad e3 1a 3e 63 f0 88 bd 29 75 7a bc da 79 0c be
       0.15125914 -0.06686475 -0.015286722 -0.13718358
0001d0 49 6b 16 3d 26 cc 40 3d e1 f5 f4 bc bd 5f 13 3e
       0.03672341 0.04706969 -0.0299024 0.1439199

recurs2.weight_ih f4 [120, 30]
000000 6b 90 1b be ce c5 db bc 8f cc d9 bd 12 0c 1f 3e
       -0.1519181 -0.026827719 -0.106347196 0.15531948
000010 f9 39 19 3e 22 d5 32 3e e2 6d 2e 3e ef 55 9e 3d
       0.14963521 0.17464116 0.17034104 0.07731234
000020 cb 1a 0a be 87 67 f3 bd 6e cc 47 3d 6e e6 21 be
       -0.13486783 -0.11884981 0.048778944 -0.15810558
000030 4b 86 e2 3d 16 c0 ac 3d 8b f5 1d 3d 75 49 28 be
       0.110607706 0.08435075 0.038564246 -0.16434272
000040 e4 1a 0d 3e 63 22 c7 bc d4 bb 92 bd 10 8e cc 3d
       0.13779789 -0.024308389 -0.071647316 0.09988034
000050 23 67 a7 3c bc 96 b0 bd fe 90 42 3d 69 1c ef bd
       0.020434922 -0.086225 0.047501557 -0.11675341
000060 8b a7 28 3e 2f fa 28 3e 04 30 a2 3d d5 03 d0 3d
       0.16470163 0.16501687 0.079193145 0.10156981
000070 e7 b4 3d be 29 1c da bd da c8 2e be de 6a be bd
       -0.1852604 -0.106499024 -0.17068806 -0.09297727
000080 cd db 15 be 04 c0 0e 3e 33 03 d4 3d e8 5d e6 3d
       -0.14634629 0.13940436 0.10352173 0.1124838
000090 29 85 aa bd f2 61 09 3e 2a 72 00 bd 02 4a 56 bd
       -0.083261795 0.1341627 -0.031358875 -0.052316673
0000a0 0b 0c bf 3d 19 a6 ed 3d a7 40 01 be 21 dc 2c 3e
       0.09328469 0.11603946 -0.12622319 0.16880848
0000b0 f7 ae 5b bc 04 b8 5b 3d 15 4b 3f be b5 92 cf 3c
       -0.013408414 0.053642288 -0.18680985 0.02533851
0000c0 0b 2e c3 bd f8 3b f3 bd 9f 66 a6 bd c4 9f 88 3b
       -0.095302664 -0.118766725 -0.08125042 0.004169436
0000d0 69 6d 68 bd 86 c4 f9 bd fa fd 0a 3e c3 f3 49 3d
       -0.056744967 -0.12195687 0.13573447 0.049304735
0000e0 4a dd 28 be 6c 63 08 3d 44 1b 47 3d 34 22 40 3c
       -0.16490665 0.03329794 0.048609987 0.011726905
0000f0 7b 06 4a 3d 57 18 55 bc 5a ce ad 3d ac f5 fc bd
       0.049322587 -0.013006291 0.08486624 -0.12351546
000100 b6 25 95 bd a8 1e 11 3e d9 58 ec bd d9 32 ad 3d
       -0.072825834 0.1417185 -0.11540384 0.08456964
000110 0e e1 27 3e e6 14 30 be 1d 18 ae bd 3e 8e 1a 3e
       0.16394445 -0.17195472 -0.08500693 0.15093324
000120 51 44 c6 bb bc 31 fe 3c ad f0 fd 3c 5d 5b a4 3d
       -0.0060506244 0.031029575 0.030998552 0.08025239
000130 f7 53 a4 bd 0f 33 eb 3c ce 96 f4 3d a5 34 a3 bc
       -0.080238275 0.02871087 0.11942826 -0.019922564
000140 73 a9 30 be c9 86 8b 3d cc 61 52 bd 87 36 32 bd
       -0.1725214 0.068128176 -0.051362798 -0.043509033
000150 32 47 cd 3d 08 1d dd 3c c1 f6 d7 bd 95 c5 b6 bd
       0.10023345 0.026991382 -0.105451114 -0.089244045
000160 e7 22 c4 bc 0a 3a 24 bd 24 21 0a bd 9a 66 f6 bd
       -0.023942424 -0.040094413 -0.03372301 -0.120312884
000170 4a 7b 0c 3e 09 09 cc 3d 4a b6 27 3d bb 50 3d 3d
       0.13718906 0.09962661 0.04094533 0.04621957
000180 07 2f 8a 3c 65 cc 06 3e 57 d8 14 3d 7b 77 bb 3c
       0.016868128 0.13163908 0.03633913 0.022884121
000190 ed 96 d7 bd 50 a6 65 3d c5 dd 29 be ee 8e 57 3d
       -0.10526834 0.05606681 -0.16588505 0.052626543
0001a0 4f ff 1c be d8 9f 90 bd a0 44 bb 3d 5a 96 d4 bd
       -0.15331767 -0.07061738 0.091439486 -0.1038024
0001b0 33 e8 0f 3e d5 56 d8 bd 67 0c 2c 3e 57 99 7a 3d
       0.1405342 -0.10563437 0.16801606 0.061181393
0001c0 dc fa ab bd 2a 07 da 3d 49 7f 20 be e2 f9 f6 bd
       -0.08397457 0.10645898 -0.15673555 -0.1205938
0001d0 c5 46 e0 bd 66 8c 9c 3c dc fd b0 3c cf c6 1b be
       -0.10950998 0.019109916 0.021605425 -0.15212558
0001e0 4d 39 30 3e 0f a6 16 ba 3e e7 cf bd de f2 a2 39
       0.17209359 -0.00057467906 -0.10151528 0.00031079998
0001f0 dd ab a8 bd fc 90 3d 3d 9a 26 88 3d f4 a4 44 bd
       -0.08235905 0.046280846 0.06647988 -0.048008874
000200 e3 68 6e 3c ce d2 e6 3d 57 1d eb bd dd 36 17 bd
       0.014551374 0.112706766 -0.114802055 -0.036917556
000210 8d 33 fe bc e6 3d ef bd 18 47 31 3c 27 78 2f 3b
       -0.03103044 -0.11681728 0.010820173 0.0026774497
000220 f5 df 12 be 62 c6 08 3d 8b 8b 36 3e 35 bb c9 3d
       -0.14343245 0.033392318 0.17826669 0.0985016
000230 65 94 c2 bd 32 11 27 3e 0e 49 f9 bd 2f c6 b5 bd
       -0.0950096 0.16315153 -0.12172137 -0.08875691
000240 9a b3 9c 3d c5 df 18 3e e2 4c 2e 3e 70 26 25 3e
       0.07651444 0.14929111 0.17021516 0.16127944
000250 6a 89 d4 bd 99 a5 1a 3d c4 c9 e0 bd 99 22 d2 3b
       -0.10377772 0.037755582 -0.10975984 0.006412816
000260 e9 ec 1f 3e 41 33 c2 3d 48 9a 27 be 5f 06 97 bd
       0.15617718 0.09482432 -0.16367447 -0.07374262
000270 7d 38 20 be 72 2e a6 3d 35 61 e6 bc 8d b1 0d be
       -0.15646549 0.081143275 -0.028122524 -0.13837261
000280 86 80 81 bd ad 36 62 3d aa 7e b2 3c 26 59 2a 3e
       -0.06323342 0.055227924 0.021788914 0.1663557
000290 f7 b2 23 3b 84 71 7f 3d 6c c0 76 bd 4b d1 da 3c
       0.0024978498 0.062364116 -0.0602421 0.026711127
0002a0 fb 99 e8 3a b8 0e 1c 3e 0b 9f 92 3d 54 0c cb bd
       0.0017746085 0.1523999 0.07159241 -0.09914461
0002b0 13 e3 2a be 48 d9 36 be e5 54 7b bd 58 3c 99 3c
       -0.16688184 -0.17856324 -0.06136026 0.018705532
0002c0 23 d6 34 3e 6c f7 ba bc 77 81 99 3d bb 09 c8 3d
       0.17659812 -0.022823058 0.074953966 0.09767481
0002d0 85 4e 14 be 61 d9 1c be 9d 75 83 3d 33 17 a4 3d
       -0.14483078 -0.15317298 0.06418917 0.080122374
0002e0 54 52 b8 bd 99 bf c1 3c 24 d9 34 be 73 db ed 3b
       -0.09000078 0.023650931 -0.17660958 0.0072588264
0002f0 33 52 4b 3d 07 14 dc 3b 92 84 c4 bc cd a7 a5 3d
       0.04963894 0.0067162546 -0.023988996 0.08088646
000300 ee f1 61 bd 21 3a 10 3e 72 22 26 be 32 dd df bd
       -0.055162363 0.14084674 -0.16224077 -0.109308615
000310 0f fe 16 be f9 2c 2e be 7e b3 0f 3e 4b f2 26 bd
       -0.14745353 -0.17009343 0.14033315 -0.040758412
000320 e1 be 0d be 32 ad 06 3d 0c bb 08 be 2b a2 6c 3c
       -0.13842346 0.032880016 -0.13352603 0.014442961
000330 d1 97 a7 3d a7 b5 09 bd 60 f4 b5 3d 6c e8 2d 3d
       0.081832536 -0.033620503 0.088845015 0.042457983
000340 b5 da 19 be eb 64 fd 3c 67 e7 e6 3d 19 2b 37 bd
       -0.15024836 0.03093191 0.11274605 -0.044718836
000350 ec 05 49 3c 2e 1f 96 3c 8c 7c 2f 3c d2 3f 2e 3d
       0.012269478 0.018325415 0.010710847 0.042541333
000360 0f 79 30 be 18 f6 12 3e 34 1c ad 3d dc 65 e1 3c
       -0.1723368 0.1435169 0.08452645 0.02751439
000370 53 88 1c 3d dc c8 11 be ce c9 69 bd 69 ce 43 bb
       0.038215946 -0.14236778 -0.05707722 -0.0029877669
000380 d5 64 1d 3d 6b 46 d7 bd 05 4f c7 3c ea 64 7c bd
       0.03842624 -0.10511478 0.024329672 -0.061619677
000390 5e 28 0d 3e d1 d0 1b be 43 31 c5 3c 74 1a f3 3d
       0.1378493 -0.15216376 0.024071341 0.1187028
0003a0 63 59 0c be a8 28 85 b9 c5 9f a2 3d d3 0c a1 3d
       -0.13705973 -0.00025398028 0.0794063 0.07863774
0003b0 ee 02 87 3c d2 4c a1 3d 52 2f 06 be be 9a 16 3e
       0.01648089 0.078759804 -0.13103989 0.14707467
0003c0 7e ec 6c ba 5d 2f ed 3d 86 f0 10 3d ac 42 cf bc
       -0.00090379256 0.115812995 0.03538563 -0.025300346
0003d0 82 e9 95 3d bc 69 2c 3e e8 ad 3a 3e 74 42 18 be
       0.07319929 0.1683721 0.18230402 -0.148691
0003e0 7d 0b 83 3c 4f 31 01 be 82 1d e4 3d 1b 34 0b 3e
       0.015996689 -0.12616466 0.11138441 0.13594095
0003f0 13 60 08 be 84 ed b6 bb 59 82 f8 3d d8 0f ed 3d
       -0.133179 -0.0055825133 0.12134237 0.115752876

recurs2.weight_hh f4 [120, 30]
000000 ec 9d 35 3d 05 8a f9 3a ec d3 f0 3d bd b3 3c be
       0.04434006 0.0019038325 0.11759171 -0.1842794
000010 8b e0 b2 3d 44 22 04 be f8 4b 28 3e 0a d6 0c be
       0.087342344 -0.12903696 0.1643523 -0.13753524
000020 6e 9a 10 bd a3 bd 85 3d 49 b2 85 3d 7c 54 66 3d
       -0.035303526 0.06530311 0.06528146 0.056232914
000030 f6 33 4a 3c e9 eb 38 3d 02 f3 02 be 8e 16 7e bc
       0.01234149 0.045146856 -0.12788013 -0.015508307
000040 74 1d 3c 3d 63 eb 10 3e d9 1b 13 be 23 f4 89 bd
       0.045926526 0.14152293 -0.14366092 -0.067360185
000050 d1 65 02 be 5e 6a cb bd 58 5b d0 bd 57 68 bb bc
       -0.12734152 -0.09932397 -0.101736724 -0.022876902
000060 2b 33 8c 3d b2 2a fa bc 38 12 2a 3d 78 b7 44 bd
       0.06845697 -0.030537937 0.04152128 -0.048026532
000070 8d 6a 38 be 1e 72 95 3c 88 29 46 3b ff b2 f3 bd
       -0.18009396 0.018242892 0.0030237157 -0.11899375
000080 77 ee 2e be 7c 29 4c 3d eb 73 39 bd db dd 29 3d
       -0.17083155 0.04984425 -0.045276564 0.041471343
000090 ce fb 0e bd df 6c 4c bd 87 1d a0 bd 49 8e 2e 3e
       -0.03490811 -0.049908515 -0.07818132 0.17046465
0000a0 72 1c 2b be 5e f0 25 bd fe 13 60 bd f0 d6 72 bd
       -0.1671007 -0.040512435 -0.054706566 -0.05928701
0000b0 ce c4 c7 3d 01 f5 2a 3e dd 3f 1f 3e 09 bf ab bd
       0.097543344 0.16695024 0.15551706 -0.083860464
0000c0 63 54 ad bd 95 f9 8a 3d fd c7 d2 3d bf a5 17 be
       -0.08463361 0.06785885 0.10292051 -0.14809321
0000d0 fb b2 b3 bd 62 79 ba bd 72 84 a5 bc 34 a6 8d bd
       -0.08774372 -0.09105183 -0.020204756 -0.06916466
0000e0 03 8b 15 be e4 5a d3 bc fb cd 1a bd 3c 77 9b 3c
       -0.1460381 -0.025800176 -0.037794095 0.018977754
0000f0 a5 af 98 bd 78 50 a4 bd 5d 02 2c 3e 36 ef 43 bd
       -0.074553765 -0.08023161 0.16797777 -0.04783555
000100 73 dc e8 3d ee 84 ea bd bf dc 97 bd 2f 05 8e 3d
       0.11370172 -0.114511356 -0.07415151 0.069345824
000110 5f bf fe 3c bf 11 12 be 14 e7 0b 3e ea c8 37 bd
       0.031097112 -0.14264582 0.13662368 -0.04486934
000120 6f a8 a3 bb ce f1 a2 bc b8 e0 13 3e b2 07 48 3d
       -0.004994444 -0.019890692 0.14441192 0.048835464
000130 5f 56 b8 3d c2 43 0e bd af 51 35 3e 2a 04 88 3d
       0.09000849 -0.034732588 0.17706941 0.06641419
000140 0a a4 c2 3d 15 66 f9 bc 8e d8 1f be c9 fe 01 3e
       0.09503944 -0.030444184 -0.15609953 0.12694849
000150 17 fb 28 be c2 ec 3d be ab c9 4b 3c 1c 64 f9 bc
       -0.16502033 -0.18547347 0.012438218 -0.030443244
000160 91 25 02 be cb fc 14 3e 27 ff 5c 3c 8a 3b a3 bd
       -0.12709643 0.14549558 0.013488567 -0.079703405
000170 fb 79 fa 3d 40 10 8e 3d 64 ef 0c be f1 d2 cf bc
       0.12230297 0.06936693 -0.13763195 -0.02536914
000180 0f 04 1c be 35 6f da bd 91 69 e5 3c 65 f8 3a 3d
       -0.15235923 -0.10665742 0.02800444 0.045647044
000190 ab e9 99 bd 60 a8 73 bd 3f a3 24 be 2c 16 dd bd
       -0.07515272 -0.059486747 -0.16077898 -0.107952446
0001a0 8f 0b dc bb e9 eb 35 3c bd 4f dc 3d 74 4c 01 3e
       -0.006715245 0.011103609 0.10757396 0.12626821
0001b0 9d 1e 1e 3e 9f 82 fd 3c fa 60 05 be 44 3d 3f bd
       0.15441366 0.030946074 -0.13025275 -0.046689287
0001c0 a3 90 29 be 57 78 9b bc cb 39 bf 3d 0e a6 82 3c
       -0.16559081 -0.018978281 0.09337195 0.015948322
0001d0 73 d1 a0 3d d5 cf 22 3e 0a c8 cb 3d 36 71 07 bd
       0.07852449 0.15899594 0.09950264 -0.03306695
0001e0 77 89 2e 3e 65 09 c7 3d 73 e5 0e be 70 4c b9 3c
       0.17044626 0.09718589 -0.13954715 0.022619456
0001f0 f0 f2 ab 3d 12 f1 5f 3d 5a ca 2f 3e 4e f9 ec bd
       0.08395946 0.054673262 0.17167035 -0.115709886
000200 da 49 f4 3c bd 66 39 3e f8 ab e7 bd ed 2d d0 bd
       0.029820371 0.18105598 -0.11312097 -0.1016501
000210 05 cb 02 3e e2 f9 b3 3d e1 04 0f 3e 1e 8e 0e bd
       0.12772758 0.08787896 0.13966705 -0.034803502
000220 76 86 d5 3d e1 d0 24 be de 2e cf bd 83 9f 04 3d
       0.10426037 -0.16095306 -0.10116361 0.032378685
000230 d6 b7 08 be d6 a7 ed bb 82 1b 83 bd 01 03 3d 3e
       -0.13351378 -0.0072526736 -0.06401731 0.18458177
000240 0f 17 5f bd ca 84 8a 3d 78 fc 1f 3d ff 0a 30 3e
       -0.05446535 0.06763609 0.039059132 0.17191695
000250 60 ce 86 ba 39 16 cc 3d 2e d5 03 be cc ea 01 be
       -0.0010284893 0.09965176 -0.1287429 -0.12687224
000260 d8 6a cb 3d ab a8 f1 3d 72 70 b3 bd 00 95 1a 3e
       0.09932488 0.11799749 -0.087616816 0.15095901
000270 bd 4a 85 3d 1e ce dd bd 2b 6c aa 3d f2 ef 34 3e
       0.06508396 -0.10830329 0.08321413 0.17669657
000280 8d 30 51 bd 7c 04 16 3e b2 66 7a bd e2 83 2a be
       -0.051071692 0.14650148 -0.061133094 -0.16651872
000290 58 ce 0e be a8 bd 69 bd 18 b2 35 3e 90 3c a7 3d
       -0.13945901 -0.057065636 0.17743719 0.08165848
0002a0 4c 3e 1c 3e a8 9a b4 3d 39 ec 0b 3b 10 1b ed bd
       0.1525814 0.08818561 0.0021350516 -0.115774274
0002b0 97 e0 2e be a4 2c 87 bd 24 55 a9 bd c3 45 23 3e
       -0.17077862 -0.066003114 -0.082681924 0.1594458
0002c0 d5 15 48 bd 8e ec 8d bc c0 a7 19 3d 74 67 1e 3e
       -0.048848946 -0.017324712 0.037513494 0.15469152
0002d0 05 41 62 bc 53 d2 b9 3d ef 18 06 be 55 0f 37 be
       -0.013809447 0.09073319 -0.13095449 -0.17876942
0002e0 06 0f 07 bd 8d 24 a1 3d b0 ff df 3d 26 7d 92 3d
       -0.03297331 0.078683 0.109374404 0.071527764
0002f0 ac c8 12 3e a4 aa d1 bd a7 b0 3a 3d e1 a8 16 3e
       0.14334363 -0.10237625 0.045578625 0.1471286
000300 01 3a dd bd 77 91 f8 3d 09 91 1c be fb 8f e9 3d
       -0.10802079 0.1213712 -0.15289702 0.11404415
000310 3a b8 b8 3d 4b 49 1e 3e 91 e5 71 bc f4 34 af bb
       0.090195134 0.15457647 -0.014764206 -0.0053468887
000320 7e d0 ea bd 57 4f 26 3e 0e 80 b1 ba 75 ea 2d bd
       -0.11465548 0.16241203 -0.0013542192 -0.042459924
000330 06 ce 6c 3c ce 9d cc 3d 68 89 b3 bd e6 d9 19 be
       0.014453417 0.09991036 -0.087664425 -0.15024528
000340 9b b9 47 bd f2 64 4d 3d 71 04 bf 3c 24 60 5b bd
       -0.04876099 0.050145097 0.023317548 -0.053558484
000350 bb c2 99 3c 5f 3d a1 bc 24 d1 0b 3e 4b dc e5 bd
       0.018769613 -0.019682584 0.13654 -0.11223658
000360 e1 33 2f 3e 93 4b da 3b 93 5f 08 3e 46 ab a0 3d
       0.17109634 0.006661841 0.13317709 0.07845168
000370 6a ee 07 be 36 28 01 3e b7 74 71 bd 95 d2 02 be
       -0.13274541 0.12612996 -0.0589492 -0.12775643
000380 50 6c 99 3d 7c 03 f4 3c 2b 41 c6 bd 20 b2 b9 bd
       0.07491362 0.029786818 -0.096803986 -0.09067178
000390 fb 85 28 3e e7 14 36 be 29 5b ad 3c f0 df a5 ba
       0.1645736 -0.17781411 0.021161633 -0.001265524
0003a0 b8 36 10 be be b3 ac 3d c6 67 25 be ef 41 03 ba
       -0.14083374 0.084327206 -0.16152868 -0.0005007078
0003b0 34 a8 09 bd 9f 5f c8 3d 28 54 33 bd 31 0c 32 be
       -0.033607677 0.09783863 -0.04378143 -0.17387463
0003c0 9e 5c 12 bc a6 13 0e 3e 7e 93 e1 bd 7a a2 18 3e
       -0.0089332145 0.13874683 -0.1101446 0.1490573
0003d0 60 ff c5 3d ae 2d d3 bc 62 82 2e bc 73 e6 1f 3e
       0.096678495 -0.025778618 -0.010651203 0.15615253
0003e0 81 7c 01 3c 91 92 f3 3c 3e df 9f 3c f9 5e 12 3c
       0.007903219 0.029732974 0.01951563 0.008933776
0003f0 42 30 1d be 84 1f e2 bd c2 6e 27 3e b0 22 d5 3d
       -0.1535044 -0.110411674 0.16350845 0.10407007

recurs2.bias_ih f4 [120]
000000 fe 0d 1f 3e d3 54 18 3e 93 b1 ed bd 0b 25 ac bc
       0.15532681 0.14876108 -0.11606135 -0.021013757
000010 dc 50 00 be 28 98 b8 bd 2e 6b c5 bc bf 12 23 3e
       -0.12530845 -0.090133965 -0.024098959 0.1592512
000020 c1 d6 65 bc 43 72 32 3e 06 36 34 be b1 66 14 bd
       -0.014028252 0.174264 -0.17598733 -0.036230747
000030 5a fe fc 3c 77 03 b7 bd 74 07 2f 3c 5c fa 70 3b
       0.030883003 -0.08936208 0.010682929 0.003677032
000040 87 d8 07 3e 17 e1 e5 bc e9 b4 0a bd d9 82 df 3d
       0.13266192 -0.028061433 -0.033863936 0.10913629
000050 43 d0 7b bd aa 85 e9 3d ec be 18 3e 97 bd e5 bd
       -0.06147791 0.114024475 0.14916581 -0.11217802
000060 b7 ae da 3c 23 de 50 bd 8d 4b 17 3e c8 bd e6 bc
       0.026694639 -0.050993096 0.14774914 -0.028166667
000070 3f ab f7 bc d1 04 fd 3d 03 6c bf 3c d6 fd 00 3e
       -0.030233024 0.12354434 0.023366934 0.1259683
000080 97 d3 82 bd e4 54 1e be e2 4a d5 3c 73 f4 20 3e
       -0.06388014 -0.1546207 0.026036683 0.1571825
000090 f3 07 08 3e 4e 6d ab bd d3 89 20 3e 1b 7c f2 bd
       0.13284282 -0.083704576 0.15677576 -0.118400775
0000a0 4d 9f 33 3e c3 58 d9 bb 46 6c b5 bd a9 5c 0f 3d
       0.17541237 -0.0066328957 -0.08858542 0.035000477
0000b0 62 d3 1d 3e c2 79 f6 3d f3 b5 b6 bd e6 ed 25 3d
       0.15412667 0.12034942 -0.08921423 0.04051008
0000c0 41 e3 86 3d 25 bb 20 bd 4c ce d1 3c 61 c1 2b 3e
       0.06586314 -0.039240975 0.025611065 0.16772987
0000d0 6e b7 5a bd 6c c3 0b 3e 7e 9c 1c be 4d 5e 95 bd
       -0.05339759 0.13648766 -0.15294072 -0.07293377
0000e0 2e 10 41 3d 04 34 9e bd f8 a0 07 be 5d 4a ce bc
       0.04713457 -0.07724765 -0.13244998 -0.025181944
0000f0 5f ef a7 bd a7 5a a1 3d fa e5 bd 3d 59 cb fd bd
       -0.08199953 0.07878619 0.0927238 -0.12392301
000100 5a 90 c5 3d cc 60 e9 3d 55 61 e6 3d c8 f6 e4 bd
       0.096466735 0.11395416 0.11249033 -0.11179882
000110 1c 26 0f be ba cc a3 ba 12 2d 6f 3d a0 60 b3 3d
       -0.13979381 -0.0012496926 0.05839259 0.08758664
000120 8f d8 14 be 39 98 14 3e 30 20 3a 3e 04 0a 19 bc
       -0.14535736 0.14511193 0.18176341 -0.009340767
000130 08 0f 0b 3d 6a da db 3c 85 8a 05 be 73 04 37 be
       0.03394988 0.026837546 -0.13041122 -0.17872791
000140 29 9e f1 3d 3a 28 12 3e fc 45 91 39 1b 79 1d be
       0.11797745 0.14273158 0.00027708698 -0.1537823
000150 ee 88 23 3b 98 a1 ea bd c4 88 6b 3d 6b c5 25 3e
       0.0024953443 -0.11456603 0.057503477 0.1618859
000160 c6 df 3f 3e 68 3d 1f 3e 1f 3b 17 3d 38 bf 3c 3e
       0.18737707 0.15550768 0.036921617 0.18432319
000170 00 1b f8 bc 23 c1 95 ba b4 ad 04 be 37 97 a5 3d
       -0.030286312 -0.0011425357 -0.12956887 0.080854826
000180 ec dd 87 3d da 42 8d 3d 0b 7e 01 3e 3c 99 1c 3e
       0.06634125 0.068975165 0.12645738 0.1529283
000190 0b e1 2b be 6e 19 4f bd fa 64 10 be 3e f5 08 3e
       -0.16785066 -0.05056136 -0.1410102 0.13374802
0001a0 88 c3 37 ba af 58 21 be 54 ea a8 3d fd 33 ef bd
       -0.00070100324 -0.15756486 0.082478195 -0.11679838
0001b0 a7 5d 09 bc 25 35 d1 3d 82 31 da 3d 24 f1 de 3d
       -0.008384145 0.10215215 0.10653974 0.10885838
0001c0 4e c0 07 bc 98 9e ba bc 50 99 b4 bb 1d 55 3d be
       -0.008285595 -0.022780702 -0.0055114403 -0.184895
0001d0 fa 8d 75 bd 0f 37 09 3e 68 7e c8 3d 58 ee 25 be
       -0.059949853 0.1339991 0.09789735 -0.16204202

recurs2.bias_hh f4 [120]
000000 91 1f 26 3d 36 e4 30 3e 58 86 0f be 2c d1 5a bc
       0.040557448 0.17274556 -0.14016092 -0.0133555345
000010 e3 1a d1 bd 6e eb 18 3b a5 32 ad bd 1e ae 1e 3e
       -0.10210206 0.0023333686 -0.08456925 0.15496108
000020 d3 f3 b7 3d 9a 30 25 bd d1 18 1d be 76 99 c4 bd
       0.08982053 -0.040329553 -0.15341498 -0.09599583
000030 84 53 6a bc b6 d9 34 3d 40 da 8c bd b1 24 db bd
       -0.014302138 0.044152938 -0.068775654 -0.10700358
000040 39 8e 8e bc 1f a0 19 be 80 10 12 3d 45 fa 22 be
       -0.017401801 -0.15002488 0.035660267 -0.15915783
000050 6c 52 d5 bc 54 28 21 be c7 ac 9c bd e4 fa 41 bb
       -0.026040278 -0.1573804 -0.07650142 -0.0029599005
000060 74 b4 ac bd 6e 25 ff bd 15 85 d1 3c 5d 00 c8 bd
       -0.08432856 -0.12458311 0.025576154 -0.09765694
000070 bd 92 6c 3c 01 d7 33 3d bd 10 c7 bc c9 45 1e be
       0.014439282 0.043906216 -0.024299974 -0.15456308
000080 42 bb 40 bd ba 0f 60 bc a6 4a 4c 3d 49 e2 11 be
       -0.047053583 -0.0136756245 0.049875878 -0.14246477
000090 74 c3 f9 3d 4d 0f 22 3d 98 aa 82 3c 6e b1 ba 3b
       0.12195483 0.039565373 0.015950486 0.005697421
0000a0 08 de d0 bc cc e4 8f 3d 7b 40 07 3e 2a bc 2c bd
       -0.025496498 0.070260614 0.13208191 -0.042171635
0000b0 9e fb a9 3d e3 62 e3 3d f0 74 a3 3d 1e 9c 85 bb
       0.08299945 0.111028455 0.079812884 -0.0040774485
0000c0 2d 31 6f 3d 34 de b7 3c cc 22 f6 3d 69 d1 6f bd
       0.058396507 0.022444822 0.12018356 -0.05854932
0000d0 bc c6 a7 3c dc 19 cc 3c 94 5a 2f be 12 75 29 3d
       0.020480506 0.024914674 -0.17124397 0.041371413
0000e0 54 eb f8 bd 6b a7 af 3d 37 c9 02 bd 2e 80 5b 3d
       -0.1215426 0.08576854 -0.031930175 0.05358904
0000f0 e2 06 0d be 0a b9 b2 3d ac 3a fb 3d 1f c3 8f 3d
       -0.13772157 0.087267 0.1226705 0.07019638
000100 22 34 4b 3d 94 b6 cd bd d8 81 22 3e 96 f2 63 3d
       0.049610265 -0.1004459 0.15869844 0.05565127
000110 c9 0a 2b be 21 8c ae 3a 00 21 3d 39 dc 1c 89 3d
       -0.16703333 0.0013316908 0.00018036738 0.066949576
000120 01 a9 ec 3c d3 65 0d 3e 53 d6 69 bc 32 4a cd bc
       0.028889181 0.13808374 -0.01427229 -0.025059793
000130 f4 44 45 bb 16 ed d7 3d 39 e3 1e be 61 e9 0c 3e
       -0.0030100914 0.105432674 -0.15516366 0.13760902
000140 ea 3c 84 bd 22 8c c2 3d b2 60 f1 bd fb d5 78 bd
       -0.06456931 0.094993845 -0.11786021 -0.060750943
000150 a5 f1 df 3a ec 37 85 bc c7 3c f8 bd 02 ce 2d be
       0.0017085565 -0.016262017 -0.12120967 -0.16973117
000160 08 61 16 be 61 55 35 3e 36 c0 af 3d ec 8f 5d bd
       -0.14685452 0.1770835 0.08581583 -0.054092333
000170 20 51 f0 3d a5 29 a2 bc 8a be 6c bc 8f 0f d9 bd
       0.11734223 -0.019795248 -0.014449725 -0.10598671
000180 05 23 f0 bd bb 64 f0 3d 99 ba 35 3e e9 55 3e be
       -0.117254294 0.11737963 0.17746963 -0.1858746
000190 95 62 e0 3c 42 8b 2c 3d 30 14 c2 bd 0b 05 b0 bd
       0.027390758 0.042124994 -0.09476507 -0.08594712
0001a0 0d 1c 06 be f3 06 5f 3d 5d 03 38 3e 64 64 75 3d
       -0.13096638 0.054449987 0.17970033 0.059910193
0001b0 14 91 0d bd 15 e1 43 3d 30 d5 e8 bd 18 fe c9 bd
       -0.034562185 0.047822077 -0.11368787 -0.09862918
0001c0 ec 29 56 3d 88 cf 1c 3e 92 f5 22 bb af 3f 70 bd
       0.052286074 0.15313542 -0.002486561 -0.058654483
0001d0 5e b3 b7 3c 11 94 3f be 13 57 eb 3d 9e 41 da bd
       0.022424396 -0.18708827 0.114912175 -0.10657047

output.weight f4 [2, 30]
000000 9a 68 67 bd 0b ed 1f be 61 f4 47 3d 4a 79 ac bd
       -0.05649624 -0.15617768 0.048817042 -0.084215716
000010 aa 6a 09 3c 41 f5 ed bd 40 b7 b6 3d 3b d3 02 be
       0.008387247 -0.11619044 0.08921671 -0.1277589
000020 c9 4f 16 be 0f 30 2b be 7c 8f 27 3e 9d 06 a6 3d
       -0.14678873 -0.16717552 0.16363329 0.0810673
000030 e4 e0 fb bd 73 b4 4c bd 5a 2e 0a 3e 79 7a 51 3d
       -0.12298754 -0.049976777 0.13494244 0.05114219
000040 ae 83 24 3e 9d 83 02 bd e6 b3 4f bc e0 47 10 3e
       0.16065857 -0.031863797 -0.0126771685 0.14089918
000050 29 c4 4c bc 40 45 24 be 6e ea 15 bd b1 99 0f 3e
       -0.01249794 -0.16042042 -0.036600523 0.14023472
000060 75 ee 9f 3d e2 ec 03 bd de 08 32 be 02 57 04 3e
       0.07809154 -0.03220833 -0.17386195 0.12923816
000070 9d 0a 35 bd f7 5f 31 bd 4e b5 24 3e df 09 d6 3d
       -0.044199575 -0.04330441 0.16084787 0.104511015
000080 92 cd 7b 3d d4 8b 88 3d ed e5 09 3c 07 02 9a 3c
       0.061475344 0.06667295 0.008416635 0.018799795
000090 65 b9 b8 bd 5d b0 74 3d ed 6f ae 3d fb 3e c0 3d
       -0.09019736 0.059738506 0.08517442 0.093870126
0000a0 6c e2 c6 bd 10 17 7c 3c 3c 42 88 bc 36 b3 cf bd
       -0.09711155 0.015386358 -0.016633146 -0.10141604
0000b0 3e b6 36 3d 95 6d d9 3d 0f 2a ac 3c 05 5a a0 bd
       0.044607393 0.10616604 0.021016149 -0.0782967
0000c0 a7 c8 10 3e f7 55 ce bd a8 ff 9b 3d 9b 73 d5 3b
       0.14139043 -0.1007499 0.07617122 0.0065140254
0000d0 fa 25 71 3d b2 52 86 3d a6 a5 31 be ff 0f 22 3d
       0.058874108 0.06558742 -0.17348346 0.039566036
0000e0 46 ad a7 bb 2a 2a 11 be b5 e6 f3 3d 0d c5 b4 3c
       -0.0051170914 -0.1417624 0.11909238 0.022066617

output.bias f4 [2]
000000 92 a1 6b bd 7f 71 4c bb
       -0.057527132 -0.0031195579

switch.weight f4 [1, 30]
000000 28 e7 03 3e 5e ac 8b bd ac 4e cb bd 9f b7 68 bd
       0.12881148 -0.06819986 -0.09927115 -0.05681574
000010 96 bd 35 bd 5d fb 9d 3d 79 34 0b bd 0e ad ac 3d
       -0.044370256 0.07713959 -0.03398559 0.08431445
000020 39 93 14 be 4b 84 b9 3c 82 a9 10 3e 09 c6 9e bc
       -0.14509286 0.02264609 0.14127162 -0.01938154
000030 7b 27 16 3e 63 b2 69 3d 68 dc 32 be e1 00 d7 bd
       0.14663498 0.05705489 -0.17466891 -0.104982145
000040 d3 c1 14 3e 5b 1c fa bc dc 1b 32 3e 68 e2 35 be
       0.14527063 -0.030531099 0.1739344 -0.17762148
000050 ef 6b c8 bd b6 85 0e 3e 6b 1e 2c 3e 8e 31 2a be
       -0.09786212 0.13918194 0.16808479 -0.16620466
000060 62 70 72 3d 6e 05 38 be 0e 7e 07 be 1f 10 a8 3d
       0.059189208 -0.17970821 -0.1323168 0.082062
000070 b1 c9 b9 bd b9 a1 61 bc
       -0.09071673 -0.013771468
