checkpoints/VQE-H2-b7bfb3b9/.pth (torch, 49793 bytes, 11 tensors)

recurs1.weight_ih f4 [120, 2]
0	0xbd583b18	-0.05279073
1	0x3e708ae6	0.23490486
2	0xbe715128	-0.23566115
3	0xbdb9557c	-0.09049508
4	0xbdeb3f06	-0.1148663
5	0xbd5b3f3c	-0.053527102
6	0xbd157fa3	-0.036498677
7	0x3dac32d9	0.08408136
8	0xbdd082be	-0.10181187
9	0x3d5c9b8f	0.05385929
10	0xbe1017a3	-0.14071517
11	0x3dc84ca7	0.09780245
12	0xbe786801	-0.24258424
13	0xbde52822	-0.11189295
14	0xbde740fd	-0.112916924
15	0x3d798f77	0.060927834
16	0xbb300102	-0.002685607
17	0x3e433752	0.19064072
18	0xbe45559a	-0.19270936
19	0xbe34dc78	-0.17662227
20	0xbcda02bd	-0.026612634
21	0x3e20fde2	0.15721849
22	0xbdc3bdf8	-0.09557718
23	0x3e0ea45b	0.13929884
24	0xbe04174c	-0.12899512
25	0xbd94db1f	-0.072683565
26	0x3def53b4	0.11685887
27	0xbd9e2856	-0.07722537
28	0xbe1267e2	-0.1429744
29	0x3daacc27	0.0833972
30	0xbdf13fa5	-0.11779717
31	0x3db53b25	0.088491715
32	0xbe314c5f	-0.1731429
33	0xbe202d4b	-0.15642278
34	0xbe540549	-0.20705141
35	0xbe6e44d7	-0.23268448
36	0xbe2ab025	-0.16668756
37	0x3e73f286	0.23822984
38	0x3c59366f	0.013257607
39	0x3e3eecb0	0.18644977
40	0xbd13a10d	-0.036042262
41	0xbdd6733a	-0.104711965
42	0xbd166af5	-0.036723096
43	0xbe39201f	-0.1807866
44	0xbe2f9409	-0.17146315
45	0xbe479f8a	-0.19494453
46	0x3c842fcc	0.016136073
47	0xbc040939	-0.0080588395
48	0xbdf7cef1	-0.12100018
49	0x3c71bf97	0.014755151
50	0x3d3a0b0e	0.0454207
51	0x3ea2f29e	0.31825727
52	0x3cb74f84	0.022376783
53	0x3d95fd52	0.07323708
54	0x3d9dfe27	0.07714491
55	0xbe127cf2	-0.14305475
56	0xbd0cd25e	-0.03438031
57	0xbddb8492	-0.10718645
58	0xbe622dbe	-0.22087762
59	0xbdd3be76	-0.10339062
60	0x3d284394	0.041080073
61	0x3e579c70	0.2105577
62	0xbe2ae2d4	-0.1668809
63	0x3dce7cf3	0.10082426
64	0x3d6c14e9	0.05763713
65	0xbe098ed7	-0.13433395
66	0xbc671933	-0.014105129
67	0xbd1f97b0	-0.03896302
68	0x3d59fca2	0.053219445
69	0x3e3cae6a	0.18425909
70	0xbe51a4fc	-0.20473093
71	0x3d95efef	0.07321154
72	0x3cc09840	0.023510098
73	0x3e1da7f6	0.15396103
74	0x3e0b0256	0.1357511
75	0x3e6028aa	0.21890512
76	0xbc3a1a4c	-0.011358809
77	0xbd5e5a3d	-0.054285277
78	0xbcf91462	-0.030405227
79	0xbe5e650a	-0.21718231
80	0xbe6c1ba2	-0.23057416
81	0x3e2d99c5	0.1695319
82	0x3dc10df2	0.09426488
83	0xbe2ceac5	-0.16886432
84	0xbd058de5	-0.032606024
85	0xbe16563f	-0.14681338
86	0xbd90c0e9	-0.07068045
87	0x3bfac859	0.007653278
88	0x3d5b8b89	0.053599868
89	0x3c9f67e7	0.019458724
90	0x3d136332	0.035983272
91	0x3cb932cd	0.022607232
92	0x3db9cda9	0.0907243
93	0xbab8adb2	-0.0014089851
94	0xbe6cf256	-0.23139319
95	0xbe40fff6	-0.18847641
96	0x3d6e414c	0.05816774
97	0x3e0051dd	0.12531228
98	0xbe4ca32b	-0.19984119
99	0x3b9209e3	0.004456745
100	0x3e000766	0.12502822
101	0x3de31e14	0.11089721
102	0xbe08666f	-0.13320325
103	0xbd6366b5	-0.05551787
104	0xbe4f7c3e	-0.20262238
105	0xbdd6e697	-0.104932
106	0xbe57178a	-0.21005073
107	0xbe84b52a	-0.25919467
108	0xbd4a4109	-0.04937843
109	0x3da0f316	0.07858865
110	0xbe083377	-0.13300882
111	0x3e7b28f7	0.24527346
112	0xbe227fff	-0.15869139
113	0x3e649824	0.22323662
114	0x3dc01af0	0.09380138
115	0xbe3e3a1d	-0.18576856
116	0xbdc6070b	-0.09669312
117	0x3cb3d76a	0.021953303
118	0xbd1fdd7c	-0.039029583
119	0x3ce88291	0.028382571
120	0x3cdc31a2	0.026879136
121	0x3e16ae5c	0.1471495
122	0xbdaee066	-0.08538894
123	0x3e5c996c	0.21542901
124	0xbe4cd7cf	-0.200042
125	0xbe5886ff	-0.21145247
126	0xbd92be6b	-0.071652256
127	0xbe1fbfce	-0.15600511
128	0xbd447da9	-0.0479714
129	0xbe92c803	-0.28668222
130	0xbdafd9e2	-0.0858648
131	0x3e2ac573	0.16676883
132	0xbdd754e9	-0.10514242
133	0xbe0e594f	-0.13901256
134	0x3e0de407	0.13856517
135	0xbe147b22	-0.14500096
136	0x3ce058c4	0.027386077
137	0xbe1cc0ee	-0.15307972
138	0x3d80359f	0.062602274
139	0x3e6af3ce	0.22944567
140	0x3e1df810	0.1542666
141	0x3e814fa9	0.25256088
142	0x3e21a847	0.15786849
143	0x3df072ec	0.117406696
144	0xbe3406a7	-0.17580663
145	0xbe5ae1bf	-0.21375178
146	0x3e317f34	0.1733368
147	0xbd8880d2	-0.066651955
148	0xbe10a547	-0.14125548
149	0xbd15eb30	-0.036601245
150	0xbe2ee420	-0.1707921
151	0xbe871c2e	-0.26388687
152	0xbc8145c3	-0.015780335
153	0x3e634df8	0.22197711
154	0x3da0acb2	0.07845439
155	0xbe9642af	-0.2934775
156	0x3df6faee	0.1205958
157	0xbe89452f	-0.26810595
158	0xbb9c418a	-0.004768555
159	0xbe3e85f4	-0.18605787
160	0x3c1516c1	0.009099663
161	0xbcda43a5	-0.026643584
162	0xbe3a6d94	-0.18205863
163	0xbe93afab	-0.28844962
164	0xbd8bf03f	-0.06832933
165	0xbe02584d	-0.12728997
166	0xbd9fc196	-0.078005955
167	0x3e4cb196	0.19989619
168	0xbe538665	-0.20656736
169	0x3bb9a4fc	0.0056654196
170	0x3e477f4f	0.19482158
171	0xbe55aa8e	-0.20865843
172	0x3dd35fc2	0.10320999
173	0x3dbb2011	0.091369756
174	0xbe0d68d9	-0.13809527
175	0x3e6bda00	0.23032379
176	0xbc9ea396	-0.019365113
177	0xbe5c27cf	-0.21499561
178	0x3e1ddded	0.15416689
179	0xbe91e836	-0.28497475
180	0xbd03691d	-0.032082666
181	0x3dd19c04	0.10234836
182	0x3d587b6b	0.052852076
183	0x3db9678b	0.090529524
184	0x3d255b1b	0.040370088
185	0xbd304479	-0.04303405
186	0xbd9c5695	-0.07633702
187	0xbe05acbb	-0.13054173
188	0xbe71c3e3	-0.23609881
189	0x3de3e4db	0.11127635
190	0x3da5fae7	0.081044964
191	0x3e893a6a	0.2680238
192	0xbe405673	-0.18782978
193	0x3c66e4a1	0.014092595
194	0xbe28262e	-0.16420814
195	0xbd27e556	-0.040990196
196	0xbe2f7c34	-0.17137223
197	0x3e280efb	0.16411965
198	0xbe2bd3ed	-0.16780062
199	0xbde51431	-0.11185492
200	0xbd9a41ec	-0.07532105
201	0x3e072736	0.13198552
202	0xbe451fb7	-0.1925038
203	0xbde58e1d	-0.112087466
204	0xbe4a9634	-0.1978386
205	0x3c6f25fd	0.014596459
206	0xbdd434fe	-0.1036167
207	0x3e7fa3f5	0.24964888
208	0x3d539a4b	0.051660817
209	0x3e20823d	0.15674682
210	0xbd238e58	-0.03993067
211	0xbdddcbfb	-0.10829922
212	0xbcdc44f3	-0.026888346
213	0xbdfdf975	-0.12401096
214	0xbd9c06ac	-0.0761846
215	0xbd504ec0	-0.05085635
216	0xbe4c54b5	-0.19954188
217	0x3bf5b4b2	0.007498347
218	0x3d968771	0.07350052
219	0xbd114c4c	-0.035473153
220	0xbd853291	-0.065037854
221	0x3e1a3b6f	0.15061735
222	0x3b7ba660	0.0038398728
223	0xbc5b40cd	-0.013382149
224	0xbe4dacb6	-0.20085415
225	0xbbed1f9a	-0.007236433
226	0xbe5838e6	-0.21115455
227	0xbe34856d	-0.17629023
228	0xbdcfc1a7	-0.10144358
229	0x3c2098ec	0.009802084
230	0xbd80467d	-0.062634446
231	0x3e956f95	0.29186693
232	0xbcc0eaf0	-0.023549527
233	0x3e6363aa	0.22205988
234	0x3d921072	0.07132043
235	0xbe26fee8	-0.16308177
236	0x3c9f51a4	0.019448109
237	0xbdcc3854	-0.09971681
238	0xbe2a12de	-0.1660876
239	0x3ccaf29f	0.024773894

recurs1.weight_hh f4 [120, 30]
0	0x3dee6d08	0.1164189
1	0x3e65a93b	0.22427838
2	0xbd8fdb89	-0.07024295
3	0x3d15e331	0.03659362
4	0x3b55a028	0.0032596681
5	0xbde355fb	-0.11100384
6	0x3d717bc5	0.058955926
7	0xbe5fbd7f	-0.21849631
8	0xbd7bbdcb	-0.061460298
9	0xbb77c07f	-0.0037803946
10	0xbb966f08	-0.0045908727
11	0x3dcc0a7a	0.09962936
12	0x3d9257f6	0.071456835
13	0xbddc0525	-0.10743169
14	0xbd804d80	-0.06264782
15	0xbe11e04b	-0.14245717
16	0xbdd9cd2d	-0.10634837
17	0xbd261b2f	-0.040553268
18	0xbe1d978a	-0.15389839
19	0xbe3e666c	-0.18593758
20	0xbe2115d7	-0.15730987
21	0x3cb0e1eb	0.021592101
22	0x3d86e0c9	0.06585843
23	0x3e4003ca	0.18751445
24	0x3de64c36	0.11245005
25	0xbe03a118	-0.12854421
26	0x3c454d62	0.012042375
27	0x3e06af01	0.13152696
28	0x3d8fcee2	0.07021882
29	0xbd4c1edb	-0.049834114
30	0xbcb8bad8	-0.022550032
31	0xbd26216f	-0.04055923
32	0xbdb62331	-0.08893431
33	0x3e049dd7	0.12950836
34	0xbde5e107	-0.11224561
35	0xbdaf408a	-0.08557232
36	0x3e28e64b	0.164941
37	0xbe1a83ff	-0.15089415
38	0xbd932b99	-0.0718605
39	0xbce73dd8	-0.028227732
40	0x3cccfc47	0.025022639
41	0xbe0bd5d0	-0.13655782
42	0xbe02efa7	-0.12786733
43	0x3d862b85	0.065512694
44	0x3dcd2984	0.10017684
45	0x3e368d83	0.1782742
46	0xbdcf5a08	-0.10124594
47	0x3d49cc21	0.049266938
48	0xbde32183	-0.11090376
49	0xbda0ebc0	-0.07857466
50	0xbe544669	-0.20729984
51	0x3d720d20	0.05909455
52	0x3ddc5393	0.10758128
53	0xbd88ac6a	-0.066735104
54	0x3d1861b3	0.03720255
55	0xbe46eab7	-0.19425474
56	0x3e63c94d	0.22244759
57	0xbe220d32	-0.15825346
58	0x3d8cdf63	0.06878545
59	0xbd84c4e3	-0.06482866
60	0xbdefb07c	-0.117035836
61	0xbd7b1402	-0.061298378
62	0xbd10bafe	-0.03533458
63	0x3dcb33b1	0.09921969
64	0x3dcaad73	0.09896364
65	0xbe41e6e6	-0.18935737
66	0x3daddf54	0.08489862
67	0x3e0fe877	0.14053522
68	0x3e02c319	0.12769736
69	0xbda4e4be	-0.080514416
70	0xbe63833f	-0.22218035
71	0xbda420c8	-0.08014065
72	0x3e19c576	0.15016732
73	0xbdc34945	-0.095354594
74	0x3dce6aea	0.10078986
75	0x3e3b6019	0.18298377
76	0xbe208f96	-0.15679774
77	0x3d9a8ae6	0.07546024
78	0x3e14ea7c	0.14542574
79	0x3d48492f	0.04889792
80	0xbcd8787d	-0.02642464
81	0x3dac7f44	0.084227115
82	0xbdad5ecc	-0.08465347
83	0xbd4577a7	-0.048209812
84	0x3e25875b	0.16164915
85	0x3e6bd06a	0.23028722
86	0x3df09617	0.11747377
87	0xbd14cdfa	-0.036329247
88	0x3e14eed2	0.14544228
89	0xbcbfc8f9	-0.02341126
90	0xbe1d0472	-0.15333727
91	0xbe5ef3eb	-0.21772735
92	0x3e71052d	0.2353713
93	0x3e242cb7	0.16032682
94	0xbdab1808	-0.08354193
95	0x3d761221	0.060075883
96	0x3e3a2dc5	0.18181522
97	0x3e6947ca	0.22781292
98	0x3e4fcf2b	0.20293872
99	0x3dc81e17	0.09771364
100	0xbdb2c0a7	-0.08728152
101	0xbddb99d5	-0.107227005
102	0x3e55013c	0.20801252
103	0x3d781dbe	0.06057524
104	0xbd9a403e	-0.075317845
105	0x3e56d19a	0.20978394
106	0x3d243601	0.040090565
107	0x3e1da8be	0.15396401
108	0xbd933d46	-0.07189421
109	0x3d2ebc29	0.042659912
110	0xbdd38265	-0.10327605
111	0x3e43f1aa	0.19135156
112	0x3d03e1cb	0.032197755
113	0x3cbdfaf5	0.023190955
114	0x3d9b1538	0.075724065
115	0x3dbc6a87	0.09200006
116	0xbcd086f1	-0.02545497
117	0x3d161d08	0.03664878
118	0xbd9ca8b8	-0.07649368
119	0x3db292ec	0.087194294
120	0xbd396fec	-0.045272753
121	0xbe175924	-0.14780098
122	0xbd929cda	-0.07158823
123	0x3e69cfda	0.22833195
124	0x3db57b77	0.0886144
125	0x3e82c851	0.25543454
126	0x3e09f0bb	0.13470738
127	0xbe52f59e	-0.20601508
128	0xbe3788b5	-0.17923243
129	0xbdd6018e	-0.10449515
130	0xbdd37578	-0.1032514
131	0x3e0371e9	0.12836422
132	0xbdd96b10	-0.10616124
133	0xbe3d8915	-0.18509324
134	0xbda417c5	-0.08012346
135	0xbdb64217	-0.088993244
136	0x3df31160	0.118685484
137	0x3e10b8d3	0.14133005
138	0x3d80f641	0.06296969
139	0x3d8a7277	0.06760114
140	0x3d88b1e3	0.06674554
141	0xbd462121	-0.048371438
142	0x3dd95008	0.10610968
143	0x3dcb05f4	0.09913245
144	0x3e1d2500	0.15346146
145	0x3dbf5b4c	0.09343585
146	0x3e431a1b	0.19052927
147	0x3dd3f5cc	0.103496164
148	0xbda7b5f8	-0.08189005
149	0x3d9a4b6f	0.07533919
150	0x3db7ce9e	0.08974956
151	0x3d83b7b1	0.06431521
152	0xbdad3d0b	-0.08458909
153	0xbd288b75	-0.04114862
154	0xbe688588	-0.22707188
155	0x3e4ee021	0.20202686
156	0x3d87e2ea	0.06635077
157	0xbdac4131	-0.08410872
158	0xbe301ec1	-0.17199232
159	0x3e2b5164	0.16730267
160	0x3e60a98f	0.21939681
161	0x3d9be07f	0.076111786
162	0xbe1bad96	-0.15202937
163	0x3db42a1a	0.08797093
164	0x3e06108f	0.13092254
165	0xbe55f85d	-0.20895524
166	0x3e78099a	0.24222413
167	0x3cc8dfb8	0.02452074
168	0xbe118af8	-0.14213169
169	0x3cab3b81	0.020902397
170	0xbe379e39	-0.17931451
171	0xbdd1906a	-0.10232623
172	0x3e0ba93c	0.13638777
173	0x3d0eec3e	0.034893267
174	0xbd615b13	-0.055018496
175	0xbe140d34	-0.14458162
176	0x3d09310f	0.03349405
177	0x3cf9d34a	0.030496258
178	0xbd61e9d9	-0.055154655
179	0x3da040a1	0.07824827
180	0x3da4ac8f	0.080407254
181	0xbd9c41bb	-0.076297246
182	0x3d5de050	0.054169
183	0x3e14a401	0.14515688
184	0x3d89908b	0.067170225
185	0xbdc28690	-0.09498322
186	0xbd39fc5f	-0.045406695
187	0xbe351c5c	-0.176866
188	0xbdffa852	-0.124832764
189	0x3cdc9abf	0.026929257
190	0xbdd14961	-0.10219074
191	0x3da0ab83	0.07845213
192	0x3e38fd89	0.18065466
193	0xbd872679	-0.06599135
194	0xbd1a3773	-0.037650537
195	0xbd89845f	-0.06714701
196	0x3d0570be	0.032578222
197	0xbe29e6b0	-0.16591907
198	0x3cb5480c	0.022129081
199	0xbe64acff	-0.22331618
200	0xbe79bce9	-0.2438847
201	0xbe41dc50	-0.18931699
202	0xbc8c250c	-0.01710751
203	0x3dbeff0f	0.09325992
204	0xbdca7276	-0.09885113
205	0x3d952e3f	0.07284211
206	0x3a291a39	0.0006450746
207	0x3d68f29c	0.056871995
208	0xbc43c7d6	-0.0119495
209	0xbe497c7f	-0.19676398
210	0x3e567959	0.20944728
211	0x3e1655f9	0.14681233
212	0x3e51ce02	0.20488742
213	0x3dfccd9c	0.123439044
214	0xbe1b2da7	-0.15154134
215	0x3e56aa84	0.20963484
216	0xbc8244ea	-0.015902001
217	0x3d5b2e4d	0.053510953
218	0xbe42e7eb	-0.19033782
219	0xbda667fb	-0.081253015
220	0xbe165706	-0.14681634
221	0xbd622822	-0.055214055
222	0x3d010c46	0.031505845
223	0xbe47ca64	-0.195108
224	0x3df037c7	0.11729389
225	0x3da30286	0.07959466
226	0x3d039868	0.032127768
227	0xbe274ee4	-0.16338688
228	0xbe4ccda3	-0.20000319
229	0xbdd60c56	-0.10451572
230	0x3d1c1d0e	0.038113646
231	0x3e1a9199	0.15094604
232	0x3ddb95e3	0.10721948
233	0xbcb9807f	-0.02264428
234	0x3de3ff44	0.111326724
235	0xbe70762d	-0.2348258
236	0xbde223f2	-0.11042012
237	0x3dc81ac5	0.09770731
238	0xbe0b9cb0	-0.1363399
239	0x3d563edf	0.052306052
240	0xbd6c0e14	-0.057630613
241	0xbc0bb36d	-0.008526665
242	0xbdd886a1	-0.105725534
243	0x3e258cde	0.16167018
244	0xbd966c83	-0.07344916
245	0x3e5d69da	0.2162241
246	0x3d8cd805	0.0687714
247	0x3d46fa1f	0.048578378
248	0xbd56720b	-0.052354854
249	0xbd904902	-0.07045175
250	0x3c9fd40a	0.019510288
251	0x3d85ab4d	0.06526814
252	0x3d8ac7a4	0.0677636
253	0xbe5365c3	-0.20644288
254	0x3e66f2fd	0.2255363
255	0xbd61cd3d	-0.05512737

recurs1.bias_ih f4 [120]
0	0xbde99954	-0.11406198
1	0xbd846f0f	-0.06466495
2	0x3c1631b3	0.009167123
3	0x3e3e9508	0.18611538
4	0x3e24ce0f	0.1609423
5	0x3ddf4815	0.109024204
6	0x3cfad1d8	0.03061764
7	0x3e5d756d	0.21626826
8	0x3db31161	0.08743549
9	0x3e11486c	0.14187783
10	0x3ddcf627	0.10789137
11	0x3dce7c8a	0.10082348
12	0x3e27cd7c	0.1638698
13	0x3e44162e	0.19149086
14	0x3dfcbb2d	0.123403884
15	0x3db0bcbb	0.086297475
16	0x3e1932b3	0.14960746
17	0x3d36f5c5	0.044667978
18	0x3e417697	0.18892895
19	0x3dfac3d2	0.12244381
20	0x3e443e18	0.19164312
21	0x3d603a35	0.05474301
22	0xbdc8921e	-0.09793495
23	0x3e0ca38f	0.13734268
24	0x3e014239	0.12622918
25	0x3e594a40	0.2121973
26	0x3e06143a	0.13093653
27	0x3e03133f	0.1280031
28	0x3e679132	0.22613981
29	0x3d65862c	0.05603616
30	0x3e4a3d3a	0.19749919
31	0x3e284c3d	0.16435333
32	0x3e287c8d	0.16453762
33	0x3e2c4458	0.16822946
34	0xbd9f2436	-0.077705786
35	0x3e1a89ad	0.15091582
36	0x3e63a153	0.22229509
37	0xbdcb008c	-0.09912214
38	0x3d1c69cf	0.038186844
39	0xbd76711e	-0.06016647
40	0x3ce5a4cf	0.028032688
41	0x3d9e393c	0.0772576
42	0x3e30b1ac	0.17255276
43	0xbc116716	-0.008874675
44	0xbe17ac2f	-0.14811777
45	0x3e0aca32	0.13553694
46	0x3e1909cf	0.14945148
47	0x3ce20be0	0.027593553
48	0x3e4f6bf4	0.20256025
49	0x3e4e4d2b	0.20146625
50	0x3c778f92	0.015109913
51	0x3d8cd366	0.068762586
52	0x3d94d726	0.07267599
53	0x3d11c4f1	0.03558821
54	0x3b911a47	0.0044281813
55	0xbce319a0	-0.02772218
56	0xbd3bf1f3	-0.045885038
57	0x3e0482dd	0.12940545
58	0x3b0efe11	0.0021818916
59	0xbc3e0e83	-0.01160014
60	0x3e417bc5	0.1889487
61	0x3c0d0d42	0.008609118
62	0x3e33befe	0.17553326
63	0x3e54b6ff	0.20772932
64	0xbcbc2ba3	-0.022970026
65	0x3d60aaa9	0.054850254
66	0x3e377886	0.1791707
67	0xbdec5b2f	-0.115408294
68	0xbd64f772	-0.055900045
69	0xbcb8aa22	-0.022542063
70	0xbc6eb754	-0.014570076
71	0x3d2a04da	0.041508533
72	0x3e029c86	0.12755021
73	0xbe07f854	-0.13278323
74	0x3d8978c7	0.067124896
75	0x3e3c6655	0.18398412
76	0xbe1525b1	-0.1456516
77	0xbdb4e11d	-0.088319995
78	0xbdfb5cce	-0.122735605
79	0x3d92cb18	0.07167643
80	0xbe60375d	-0.2189612
81	0xbd67acc6	-0.056561254
82	0x3e33749b	0.1752495
83	0xbe102be1	-0.14079238
84	0x3e50f291	0.20405032
85	0xbdd18ed1	-0.10232318
86	0x3dc72938	0.09724659
87	0xbc8d6cbd	-0.017263765
88	0x3c1a3f5a	0.009414518
89	0x3dfbdcf6	0.12298004
90	0x3e5037a8	0.20333731
91	0xbcd2e0e4	-0.025742002
92	0x3e1f9a6b	0.1558625
93	0x3dca395c	0.09874222
94	0x3dcb326d	0.09921727
95	0xbd883730	-0.06651151
96	0x3df9aaa7	0.121907525
97	0x3e39814f	0.18115734
98	0xbda84903	-0.08217051
99	0xbdca54a9	-0.09879429
100	0xbda4e3ca	-0.0805126
101	0x3de131b8	0.10995811
102	0x3d4bfb2c	0.049800083
103	0xbc63c2cf	-0.013901426
104	0x3e3af7f2	0.18258646
105	0x3bdb4137	0.006691124
106	0xbd3bb3b1	-0.045825664
107	0x3debbea5	0.11510972
108	0xbd0fb8b3	-0.035088252
109	0x3cbbb927	0.022915436
110	0x3e1fd463	0.15608363
111	0x3df34513	0.11878409
112	0xbd98b398	-0.0745613
113	0x3e8396e6	0.25701064
114	0x3e31a5ff	0.17348479
115	0xbd7d719a	-0.061875917
116	0x3e0bd150	0.13654065
117	0x3e02deba	0.12780276
118	0xbd67d7f1	-0.056602422
119	0xbc80d6eb	-0.01572748

recurs1.bias_hh f4 [120]
0	0xbdd27323	-0.10275867
1	0x3e33c5a2	0.1755586
2	0x3da423f2	0.080146685
3	0x3dfdf261	0.12399746
4	0x3cd6d817	0.026226087
5	0x3e58f68a	0.21187797
6	0x3dd18bf0	0.10231769
7	0xbdc3c2f3	-0.09558668
8	0x3d22beea	0.03973285
9	0x3e319136	0.1734055
10	0x3e149e21	0.14513446
11	0x3d35dfbd	0.044402827
12	0xbcc945e3	-0.024569457
13	0xbd7eb7a0	-0.062186837
14	0x3e340203	0.17578892
15	0xbd2a9c98	-0.041653246
16	0x3e52f01f	0.20599411
17	0x3d1d8baf	0.03846329
18	0x3d8714c3	0.06595757
19	0xbdda4fa0	-0.106597185
20	0xbbb3e8ee	-0.005490414
21	0x3e72d8e3	0.23715548
22	0xbde6fa8c	-0.11278257
23	0x3e45c693	0.19314031
24	0xbdd03cd7	-0.10167854
25	0x3dbafcbb	0.09130236
26	0xbdd7c4ed	-0.105356075
27	0xbdac00b5	-0.08398572
28	0xbd8848e8	-0.06654531
29	0x3d6336c6	0.055472158
30	0x3d7a80f1	0.061158124
31	0xbd813fb3	-0.06310978
32	0x3db60547	0.08887725
33	0x3e178892	0.14798191
34	0x3e619383	0.22028928
35	0x3e5eb31d	0.21748014
36	0x3e3099d0	0.17246175
37	0xbcc9b2a5	-0.024621317
38	0x3d179694	0.037008837
39	0x3e59e6c4	0.21279436
40	0x3e26da50	0.16294217
41	0x3ad5dcff	0.0016316472
42	0x3e59d75b	0.21273558
43	0xbdec64c4	-0.11542657
44	0x3e395ead	0.18102522
45	0x3e0e7187	0.13910495
46	0xbdb1f303	-0.08688929
47	0xbdb4ab96	-0.0882179
48	0x3e4193ce	0.1890404
49	0x3e769ccb	0.2408325
50	0x3d91fc76	0.07128231
51	0xbc1db621	-0.009625942
52	0x3e13f168	0.14447558
53	0x3e1d6c0b	0.15373246
54	0x3cda16c4	0.026622184
55	0x3e4daf41	0.20086385
56	0x3e348360	0.1762824
57	0x3dab8099	0.083741374
58	0x3e1ad268	0.15119326
59	0xbdc29e83	-0.0950289
60	0xbd6b1b81	-0.057399277
61	0xba14e945	-0.0005680512
62	0x3dbf638b	0.09345158
63	0x3c864624	0.016390868
64	0x3d92d09e	0.07168697
65	0x3daa76b4	0.08323422
66	0xbe22a61b	-0.15883677
67	0x3d8ad8d3	0.06779637
68	0xbc8319f0	-0.016003579
69	0xbe3256eb	-0.17415969
70	0x3b825885	0.0039778375
71	0xbd54ffe4	-0.05200185
72	0xbd85f3de	-0.065406546
73	0xbe6569fe	-0.22403714
74	0x3e52943f	0.20564364
75	0xbdbc8f39	-0.09207005
76	0xbc91fa93	-0.017819678
77	0x3e3a1c4d	0.18174858
78	0xbbbb710a	-0.0057202624
79	0xbe20e43b	-0.15712063
80	0xbe699b34	-0.22813112
81	0x3d801f82	0.0625601
82	0xbd227be1	-0.03966892
83	0xbc93b000	-0.01802826
84	0x3de94287	0.11389642
85	0xbd8cb5a7	-0.06870585
86	0x3e44c4ee	0.19215748
87	0xbd84f593	-0.06492152
88	0xbd718abc	-0.058970198
89	0xbde4416c	-0.11145291
90	0x3dd44f17	0.10366648
91	0xbcc9be79	-0.024626957
92	0x3dbc1a8c	0.09184751
93	0x3cdc8353	0.026918089
94	0x3e69919b	0.2280945
95	0xbce8532c	-0.028359972
96	0xbcb5ca13	-0.022191083
97	0x3ccd278e	0.025043275
98	0xbd1770fd	-0.03697299
99	0x3e0ec641	0.13942815
100	0x3d037777	0.032096352
101	0x3e121a2b	0.14267795
102	0x3e5537ed	0.20822115
103	0x3e19023f	0.14942263
104	0xbcab8258	-0.020936176
105	0x3e1c9100	0.15289688
106	0xbcd99578	-0.02656053
107	0xbdaa6f9d	-0.0832207
108	0x3d438f55	0.047744114
109	0xbd654091	-0.05596978
110	0xbda78834	-0.081802756
111	0x3dfc052d	0.12305675
112	0x3e53b359	0.20673884
113	0x3c39dc4b	0.011344026
114	0x3d225748	0.03963402
115	0xbd8eba98	-0.06969184
116	0x3db61df2	0.0889243
117	0x3dd6b195	0.1048309
118	0x3d3df6a5	0.046377797
119	0x3e80c398	0.25149226

recurs2.weight_ih f4 [120, 30]
0	0xbdd3656a	-0.103220776
1	0x3a359377	0.0006926576
2	0xbd20314d	-0.039109517
3	0x3e72ff95	0.2373031
4	0x3df44092	0.11926378
5	0x3e6fc8bc	0.23416418
6	0x3e169071	0.14703538
7	0x3d1d7b6b	0.03844778
8	0xbe302045	-0.1719981
9	0xbe19b13f	-0.1500902
10	0x3da3fa47	0.08006721
11	0xbe16f991	-0.1474364
12	0x3e1ddc23	0.15416007
13	0x3c011b42	0.007880034
14	0x3da763b2	0.08173312
15	0xbe218c6a	-0.1577622
16	0x3e053571	0.13008668
17	0xbc863e13	-0.016387021
18	0xbdda8532	-0.10669936
19	0xba3f6044	-0.00073004165
20	0xbd80761d	-0.06272528
21	0xbdc9ee4c	-0.09859905
22	0x3da73b06	0.08165555
23	0xbe1dee49	-0.1542293
24	0x3e7e8fa9	0.2485949
25	0x3dd47e29	0.10375626
26	0x3e3c6508	0.18397915
27	0x3dc4c219	0.09607334
28	0xbe417791	-0.18893267
29	0xbdea5a78	-0.11443037
30	0xbe25ffb5	-0.16210826
31	0xbe0f1d11	-0.13975932
32	0xbdc0af8b	-0.09408482
33	0x3e4e5296	0.20148692
34	0x3e1a9650	0.15096402
35	0x3de98281	0.11401845
36	0xbcef3d2b	-0.029203972
37	0x3e2b42a9	0.16724648
38	0xbba7ca23	-0.005120532
39	0xbe04290c	-0.12906283
40	0x3d4752ce	0.048662953
41	0x3d815268	0.06314546
42	0xbd332e46	-0.0437453
43	0x3de4c621	0.111706026
44	0x3d16cd84	0.03681709
45	0x3df8dbec	0.12151322
46	0xbe872ca8	-0.26401258
47	0x3db9fc39	0.09081311
48	0xbd89d6dc	-0.06730434
49	0xbe1262c8	-0.14295495
50	0xbe165ce9	-0.1468388
51	0x3d71ff8b	0.059081595
52	0x3bf077b6	0.0073384894
53	0xbe3c1c39	-0.18370141
54	0x3e47368c	0.19454402
55	0x3d48dbaf	0.04903763
56	0xbdf24e40	-0.11831331
57	0xbd1034af	-0.035206493
58	0x3dd4c489	0.103890486
59	0x3d818432	0.063240424
60	0x3d6ccee8	0.05781451
61	0xbd8554de	-0.06510328
62	0x3e159292	0.14606693
63	0xbd84c32c	-0.064825386
64	0xbcb7e571	-0.022448273
65	0x3e14f638	0.1454705
66	0xbd7f02cc	-0.062258527
67	0x3df37c2e	0.1188892
68	0x3e45642a	0.19276491
69	0xbe7eba84	-0.24875838
70	0xbe097d2b	-0.13426654
71	0x3dcbf28c	0.099583715
72	0x3dbd6abd	0.09248874
73	0xbcdb3e87	-0.026763214
74	0x3dadc63e	0.08485077
75	0x3e1fb2fb	0.1559562
76	0xbe2448de	-0.16043422
77	0x3dcea619	0.10090274
78	0x3e176dec	0.14788026
79	0xbd2b26b5	-0.04178496
80	0xbe6f0a66	-0.2334381
81	0x3e0065f0	0.12538886
82	0x3bb4b12f	0.005514286
83	0xbde44bb4	-0.11147252
84	0x3e2210c9	0.15826716
85	0x3cf34d3c	0.029699914
86	0xbd784d25	-0.060620446
87	0xbe22645a	-0.15858594
88	0x3cef3994	0.02920226
89	0x3c893403	0.016748434
90	0x3cdfc8ef	0.027317492
91	0xbdf8672e	-0.12129055
92	0x3e6baf87	0.23016177
93	0x3e558c83	0.20854382
94	0x3d33f724	0.043936864
95	0x3df81139	0.1211266
96	0x3d149fe5	0.0362853
97	0x3df7d131	0.12100447
98	0x3bf98107	0.007614258
99	0xbd6e8980	-0.0582366
100	0xbdd7275c	-0.10505554
101	0x3d173308	0.0369139
102	0xbda7f3ba	-0.08200784
103	0xbd5738ff	-0.05254459
104	0xbd6f40e7	-0.058411505
105	0xbcced401	-0.025247576
106	0x3d22c3da	0.03973756
107	0xbd89c82e	-0.06727634
108	0x3dd5a91b	0.10432645
109	0xbe49a5ca	-0.1969215
110	0x3d68f482	0.056873806
111	0x3d9b0ffc	0.07571408
112	0xbc4b5eb2	-0.012412714
113	0x3cf9eecc	0.030509375
114	0xbd57e3f0	-0.052707613
115	0xbe4838c4	-0.19552904
116	0x3acd70d3	0.0015673883
117	0xbcaf5aed	-0.021405661
118	0x3cfee9a6	0.031117272
119	0xbe0e737f	-0.13911246
120	0x3e749f60	0.23888922
121	0x3d28c2c4	0.041201368
122	0xbcd9c144	-0.026581414
123	0x3db3eec1	0.08785773
124	0xbe0a8d21	-0.13530399
125	0x3dec29a1	0.115313776
126	0x3cb5c7bb	0.022189965
127	0xbdcd4432	-0.10022773
128	0xbd25b996	-0.04046019
129	0x3d97ad8a	0.07406147
130	0xbd8313df	-0.064002745
131	0xbaf05b12	-0.0018337688
132	0x3c76ecaf	0.015071078
133	0xbe4b0808	-0.19827282
134	0x3d8d1d6f	0.0689038
135	0xbb4dc429	-0.0031397438
136	0xbe146962	-0.14493325
137	0x3cdb2b2b	0.026753983
138	0x3dfb0096	0.12255971
139	0x3bb64876	0.0055628372
140	0xbe3fecd8	-0.18742692
141	0x3df92d9b	0.12166902
142	0xbdc3e844	-0.095657855
143	0xbe0e1c7b	-0.13878052
144	0x3e2689fd	0.16263576
145	0x3da6e750	0.08149588
146	0x3e857ed5	0.26073328
147	0x3e321850	0.17392087
148	0xbe0e438c	-0.13892955
149	0xbb61569f	-0.0034383906
150	0xbd277b64	-0.04088916
151	0x3c96f3e8	0.01842685
152	0x3e760ec5	0.24029072
153	0x3e47fa5c	0.19529098
154	0xbe32bb32	-0.17454222
155	0x3b8ac73c	0.0042351764
156	0xbe192bb6	-0.1495808
157	0x3d6ffb1b	0.058589082
158	0xbd85ae17	-0.06527346
159	0xbe556909	-0.20840849
160	0xbd48c5cf	-0.04901677
161	0x3d4935c2	0.049123533
162	0x3dc606cf	0.096692674
163	0x3d814278	0.06311506
164	0x3dc80119	0.09765834
165	0x3dba1f09	0.09087951
166	0xbdc46e70	-0.09591377
167	0x3d3a9283	0.04554988
168	0xbd24f184	-0.04026939
169	0x3d97a803	0.074050926
170	0xbcf6329d	-0.030053431
171	0xbdc7d81f	-0.09758019
172	0xbdce3864	-0.100693494
173	0xbe79524b	-0.24347799
174	0x3d1c1367	0.03810444
175	0xbd88091b	-0.06642362
176	0x3e902872	0.28155857
177	0xbd410a75	-0.047129113
178	0x3d9e29dd	0.077228285
179	0x3dbe43b7	0.09290259
180	0xbdc057c5	-0.09391741
181	0xbdc11a2d	-0.09428821
182	0x3dcb78e1	0.09935165
183	0x3e131067	0.14361726
184	0xbe1b28b8	-0.15152252
185	0x3da27c95	0.079339184
186	0xbe6d4fb6	-0.23174939
187	0xbd480a2e	-0.048837833
188	0xbc168a92	-0.009188311
189	0x3c844d06	0.016150009
190	0x3d165297	0.036699858
191	0x3e04a424	0.1295324
192	0xbd1cd76c	-0.03829138
193	0x3db1dda4	0.08684853
194	0xbe03cf5a	-0.12872067
195	0xbe0d9f35	-0.13830264
196	0xbe001676	-0.12508568
197	0xbe49fba7	-0.19724904
198	0x3db2032f	0.086920135
199	0xbdfc1adc	-0.123098105
200	0xbe537e7e	-0.20653722
201	0xbc964c56	-0.018346947
202	0xbe008e23	-0.12554221
203	0x3cae0991	0.021244796
204	0x3e0cb621	0.13741352
205	0xbdbf0f03	-0.09329035
206	0x3e2d14a4	0.16902405
207	0x3d960bf0	0.07326496
208	0xbe3cdfcc	-0.18444747
209	0xbcb22b57	-0.021749182
210	0x3e23225f	0.1593108
211	0xbc85607a	-0.016281355
212	0x3da69ebb	0.08135744
213	0x3dc89579	0.09794135
214	0xbcd6cabd	-0.02621972
215	0x3dbeb8ce	0.093125924
216	0xbe4c74e9	-0.19966473
217	0x3dd98ded	0.10622773
218	0x3d5a0bf7	0.053234067
219	0xba9a9531	-0.001179373
220	0x3d908390	0.070563436
221	0xbdfb1ba3	-0.12261131
222	0xbc6f7466	-0.014615154
223	0xbd880288	-0.06641108
224	0x3d9ba1e8	0.075992405
225	0xbdc9de0e	-0.09856807
226	0x3c89fcdc	0.016844206
227	0xbd5bf70e	-0.053702407
228	0x3de1f208	0.11032492
229	0xbe75e11a	-0.2401165
230	0xbd662c6d	-0.05619471
231	0x3dca4370	0.09876144
232	0xbdd98815	-0.10621659
233	0xbd08cfea	-0.033401407
234	0x3e1e67dd	0.15469308
235	0x3ce552f8	0.027993664
236	0x3dd9ee5c	0.106411666
237	0x3d9b9bb9	0.07598061
238	0xbe12d883	-0.14340405
239	0x3e02b4b1	0.12764241
240	0x3d305554	0.043050125
241	0x3e11364b	0.14180867
242	0x3dc84d66	0.097803876
243	0x3d39647c	0.045261845
244	0x3d22ed48	0.03977707
245	0x3e5fadc1	0.21843626
246	0x3e1ede1d	0.15514417
247	0xbe3b4f85	-0.18292053
248	0xbc80a1fb	-0.015702238
249	0xbe127f5e	-0.14306399
250	0x3e1013e3	0.14070086
251	0x3e1f6f54	0.15569812
252	0xbdd42a37	-0.10359614
253	0xbd85c8c7	-0.06532436
254	0x3e1f4276	0.15552697
255	0x3dea567b	0.11442276

recurs2.weight_hh f4 [120, 30]
0	0x3ce30d26	0.02771623
1	0x3d8f9c8c	0.07012281
2	0x3e413c5b	0.1887068
3	0xbe27205c	-0.16320938
4	0x3dce6beb	0.100791775
5	0xbddbf2b8	-0.10739654
6	0x3e3996fe	0.18124005
7	0xbe0f293b	-0.13980572
8	0xbd01ad94	-0.031659678
9	0x3d21fdc7	0.03954866
10	0xbc84bfec	-0.016204797
11	0x3d694377	0.056949105
12	0xbd31f210	-0.04344374
13	0x3d5f2cd7	0.054486122
14	0xbd4afc25	-0.04955687
15	0x3bfe28cd	0.0077563287
16	0x3d8c85ac	0.068614334
17	0x3e0422b1	0.12903859
18	0xbe29608e	-0.16540739
19	0xbdde34f1	-0.108499415
20	0xbd48ff56	-0.049071632
21	0xbc9bf495	-0.019037524
22	0xbdaaf7ac	-0.08348021
23	0xbd16cae4	-0.036814585
24	0x3d7d1120	0.06178391
25	0xbd4f1612	-0.050558157
26	0xbc8775ba	-0.016535629
27	0xbd200639	-0.039068434
28	0xbe34098e	-0.1758177
29	0x3dc9654b	0.09833773
30	0xbcacaa31	-0.021077247
31	0xbdb7f55d	-0.08982346
32	0xbe0aed8e	-0.13567182
33	0x3ddf8601	0.10914231
34	0xbd2d2aeb	-0.042277258
35	0x3dbe2b6e	0.09285627
36	0x3c124d78	0.008929603
37	0xbd8ae9f9	-0.06782908
38	0xbdd5059c	-0.104014605
39	0x3da9d1f7	0.08292001
40	0xbe59af68	-0.21258318
41	0xbdb8ec8a	-0.09029491
42	0xbdc99d89	-0.098445006
43	0xbd018542	-0.031621225
44	0x3e10093d	0.14066024
45	0x3e59c2d4	0.21265727
46	0x3e48cd26	0.19609508
47	0xbdcdf047	-0.10055595
48	0xbde6d082	-0.112702385
49	0x3d3e62ed	0.04648106
50	0x3e1855d0	0.14876485
51	0xbdd1a455	-0.10236422
52	0xbda04879	-0.07826323
53	0xbe02f9ed	-0.12790652
54	0xbd7f0366	-0.0622591
55	0xbdc4cd79	-0.09609503
56	0xbe3aa95e	-0.18228671
57	0xbcc199e9	-0.02363296
58	0x3b8c27a2	0.0042771855
59	0x3d875bce	0.06609307
60	0xbdf138dc	-0.11778423
61	0xbd713ba1	-0.058894757
62	0x3e471556	0.19441733
63	0xbbed2204	-0.007236721
64	0x3e064d6d	0.13115473
65	0xbda5ce0d	-0.08095942
66	0xbc5753f6	-0.013142576
67	0x3d02f397	0.031970587
68	0xbc9a7dfe	-0.018858906
69	0xbe6dd085	-0.23224075
70	0x3dd38b28	0.10329276
71	0xbdae8018	-0.08520526
72	0xbd2154cd	-0.039387513
73	0x3cb8d84b	0.022564074
74	0x3e31f86a	0.17379919
75	0x3da08584	0.07837966
76	0x3df05ad9	0.11736078
77	0xbd1706c5	-0.03687169
78	0x3e0858c0	0.13315105
79	0x3d7d5516	0.061848722
80	0x3e05a36a	0.13050619
81	0x3be127a9	0.006871183
82	0xbe2587e4	-0.1616512
83	0x3d94865a	0.07252188
84	0xbe44954d	-0.19197579
85	0xbe67e00e	-0.22644064
86	0xbc9deccd	-0.019277954
87	0xbc39730b	-0.011318932
88	0xbdcf7830	-0.10130346
89	0x3e37bf54	0.1794408
90	0xbd660d82	-0.056165226
91	0x3c0ce702	0.008599998
92	0x3e580b06	0.21097955
93	0x3de51b56	0.111868545
94	0xbdad7fd4	-0.08471647
95	0x3c3fbca6	0.011702692
96	0xbd817be1	-0.06322456
97	0xbe2d78fd	-0.16940685
98	0xbd36f6cc	-0.044668958
99	0xbd322174	-0.043488935
100	0xbe349c6f	-0.176378
101	0xbda4583c	-0.08024642
102	0xbe7820c0	-0.24231243
103	0xbd19f3dc	-0.037586078
104	0x3dc3d1d8	0.09561509
105	0x3d28cc53	0.041210484
106	0x3e1b47e3	0.15164141
107	0x3e19b63e	0.15010926
108	0x3da7abce	0.08187066
109	0xbb6c44ff	-0.0036051867
110	0xbce4c682	-0.027926687
111	0x3d7213ae	0.0591008
112	0xbe4956ec	-0.19662064
113	0xbdc5ae76	-0.096524164
114	0x3d9aaeb2	0.07552852
115	0xbd574398	-0.052554697
116	0x3b9291d6	0.0044729514
117	0x3e4bfd2c	0.19920796
118	0x3de81507	0.11332136
119	0x3d9492ba	0.07254548
120	0x3e054eab	0.1301829
121	0x3e300b4e	0.17191812
122	0xbd648567	-0.055791285
123	0x3d2b6b71	0.04185051
124	0x3df39f72	0.11895646
125	0x3d91da8b	0.07121762
126	0x3e56c22b	0.20972507
127	0xbe114b03	-0.14188771
128	0x3b613afd	0.0034367435
129	0x3e199d8d	0.15001507
130	0xbe4fecdc	-0.20305198
131	0xbda96b41	-0.0827241
132	0x3d828754	0.06373468
133	0x3e09a0a3	0.13440184
134	0x3e70c99b	0.23514406
135	0xbcc5c8e1	-0.024143638
136	0x3e068e2b	0.1314017
137	0xbe13f0fc	-0.14447397
138	0xbe1a7f87	-0.1508771
139	0xbae624ae	-0.0017558539
140	0xbd49d8a2	-0.049278863
141	0x3d9de8ca	0.077104166
142	0xbd9c9668	-0.07645875
143	0x3e15ad17	0.1461681
144	0xbd449eee	-0.04800313
145	0x3cde09c6	0.02710427
146	0xbcd33c50	-0.025785595
147	0x3e4496fa	0.19198218
148	0xbba5598a	-0.0050460743
149	0x3e437e80	0.19091225
150	0xbe4ece3c	-0.2019586
151	0xbd6e411c	-0.058167562
152	0x3e33fd7d	0.17577167
153	0x3e135183	0.14386563
154	0xbce7df06	-0.028304588
155	0x3e2c1a24	0.16806847
156	0x3e188faf	0.14898561
157	0xbe340401	-0.17579652
158	0x3ba682bc	0.0050815027
159	0x3dd2086e	0.10255514
160	0xbe0a7671	-0.13521744
161	0x3e1088e8	0.14114726
162	0xbe01cf14	-0.1267665
163	0xbdc1e9e4	-0.09468439
164	0xbd4b48ee	-0.049630098
165	0xbd3596f6	-0.04433342
166	0x3e4e7526	0.20161876
167	0x3df915d5	0.12162367
168	0x3d9aca8c	0.07558164
169	0x3d842c37	0.06453746
170	0x3db147d8	0.08656281
171	0xbcd7949e	-0.026315983
172	0xbe5d3c7f	-0.21605109
173	0xbe13878f	-0.1440718
174	0xbdbdec56	-0.09273593
175	0x3db3d34f	0.08780538
176	0xbdd8dcaf	-0.10588967
177	0x3cd77d7e	0.026304957
178	0x3d31c6fc	0.043402657
179	0x3e7a861f	0.24465226
180	0xbd1ab634	-0.03777142
181	0x3df9af56	0.12191646
182	0xbdc6ff01	-0.09716607
183	0xbe405789	-0.18783392
184	0xbba707c1	-0.00509736
185	0x3d84ed45	0.06490568
186	0x3e06b288	0.13154042
187	0x3d5eef57	0.05442747
188	0x3e065f9f	0.13122414
189	0xbdd2c09a	-0.10290642
190	0xbc8672fe	-0.016412254
191	0x3e33a5cc	0.17543715
192	0xbe01c5a2	-0.12673047
193	0x3e0fbc8c	0.14036769
194	0xbdd5ada2	-0.104335085
195	0x3dd22fcc	0.10263023
196	0x3d9e5eca	0.07732923
197	0x3e23d54a	0.15999332
198	0xbd282be1	-0.04105747
199	0xbc185611	-0.009297864
200	0xbd7e64a4	-0.062107697
201	0x3e65538e	0.22395155
202	0xbc0733d9	-0.008252108
203	0xbd7b6f45	-0.06138541
204	0x3d174132	0.03692741
205	0x3d90ca0a	0.07069786
206	0xbdd567df	-0.104202025
207	0xbe0385ae	-0.12843964
208	0xbd93a56a	-0.072092846
209	0x3ddcec88	0.10787302
210	0x3ae5714a	0.0017505076
211	0x3c0c8466	0.008576488
212	0x3daf4e6b	0.08559879
213	0xbba43881	-0.0050116186
214	0x3e260ff0	0.16217017
215	0xbdce456c	-0.10071835
216	0x3e4d53bf	0.20051478
217	0xbbdaa6a4	-0.006672697
218	0x3df8fde4	0.12157801
219	0x3d791260	0.06080854
220	0xbe56adee	-0.20964786
221	0x3e0ee955	0.13956197
222	0xbddd0ca0	-0.10793424
223	0xbdde9c30	-0.10869634
224	0x3e1b1c91	0.15147616
225	0x3d2ae1d5	0.041719276
226	0xbdb875bd	-0.09006832
227	0xbdbd06d8	-0.09229821
228	0x3e09873d	0.13430496
229	0xbe540979	-0.20706739
230	0x3dc39c44	0.0955129
231	0x3d9a8179	0.07544226
232	0xbe0cc066	-0.13745269
233	0x3d865032	0.06558265
234	0xbe1e2a5c	-0.15445846
235	0xbd022892	-0.031776972
236	0xbda8e65f	-0.08247065
237	0x3ddbf365	0.10739783
238	0xbd4e2b76	-0.050334416
239	0xbdc727a1	-0.097243555
240	0xbd0e2be6	-0.034709834
241	0x3e4a01c9	0.19727243
242	0xbd43eac3	-0.047831308
243	0x3e23c896	0.15994486
244	0x3df6b504	0.12046245
245	0xbc6c0155	-0.014404614
246	0x3c960e65	0.01831741
247	0x3e0f8de4	0.1401897
248	0xbb0e2340	-0.002168849
249	0x3b5573ed	0.0032570318
250	0xbd43b290	-0.047777712
251	0x3c841750	0.016124398
252	0xbe4b6c12	-0.19865444
253	0xbdbdbfef	-0.09265124
254	0x3e6cf646	0.23140821
255	0x3df0f509	0.11765487

recurs2.bias_ih f4 [120]
0	0x3e732ef2	0.23748377
1	0x3e5a163d	0.21297546
2	0xbd5a7e64	-0.05334319
3	0x3db4a809	0.08821113
4	0xbd2958f9	-0.041344617
5	0x3c7473a0	0.014920145
6	0x3d20d05c	0.039261207
7	0x3e72d002	0.23712161
8	0x3d64b7a8	0.05583921
9	0x3e2e1689	0.17000784
10	0xbddd44c7	-0.10804134
11	0x3d87e71b	0.06635877
12	0x3dd5b3c9	0.10434682
13	0xbcaef953	-0.021359121
14	0x3d916d46	0.071009204
15	0x3dde6b8c	0.10860357
16	0x3e6b7ae5	0.229961
17	0x3d7ab4df	0.06120765
18	0x3d483491	0.048878256
19	0x3e438888	0.19095051
20	0x3c397f9e	0.01132193
21	0x3e38473b	0.17995922
22	0x3e6ac360	0.22926092
23	0xbd1007cf	-0.035163697
24	0x3e08d9b1	0.13364293
25	0x3caa46bd	0.020785684
26	0x3e6312c1	0.22175123
27	0x3d462669	0.048376475
28	0x3d972ffc	0.07382199
29	0x3e43811a	0.19092217
30	0x3db4d0d5	0.08828894
31	0x3e2bdbd5	0.16783078
32	0xbd0423d3	-0.032260727
33	0xbd8606be	-0.06544255
34	0x3d9b4bdd	0.07582829
35	0x3e73004f	0.23730586
36	0x3e336fa7	0.1752306
37	0xbcf019e7	-0.029309226
38	0x3e50b73b	0.20382397
39	0xbe045ac4	-0.1292525
40	0x3e501398	0.20319974
41	0x3d66152c	0.056172535
42	0xbd3d7e2d	-0.04626291
43	0x3db817a9	0.08988888
44	0x3e3ce131	0.18445279
45	0x3e45d924	0.19321114
46	0xbc8b7796	-0.017024796
47	0x3dc843eb	0.09778579
48	0x3dfd084e	0.123550996
49	0x3cd3ee18	0.025870368
50	0x3d5be0c8	0.053681165
51	0x3e5236c0	0.20528698
52	0xbaa3c676	-0.0012495059
53	0x3e45d1d6	0.19318327
54	0xbd992b0f	-0.07478916
55	0xbd0494c1	-0.032368425
56	0x3dc2c9a3	0.095111154
57	0xbcc97250	-0.024590641
58	0xbd5fbc99	-0.05462322
59	0x3c97e4c8	0.018541709
60	0xbd8f3e32	-0.06994285
61	0x3ddaea4e	0.10689221
62	0x3dfaaa88	0.122395575
63	0xbdb17398	-0.08664626
64	0x3dd92d30	0.10604322
65	0x3e06c06a	0.13159338
66	0x3df645b6	0.12025015
67	0xbde61e0f	-0.11236202
68	0xbdf296ae	-0.11845146
69	0xbd52578b	-0.05135302
70	0x3c9ca9da	0.01912396
71	0x3d7614e5	0.06007852
72	0xbe3da61e	-0.185204
73	0x3e1129be	0.1417608
74	0x3e6e82cd	0.23292084
75	0x3c660952	0.014040308
76	0x3d55f40a	0.052234687
77	0x3ca5100d	0.020149255
78	0xbdd7da06	-0.105396315
79	0xbe4263fd	-0.18983455
80	0x3e1ec5af	0.15505098
81	0x3e3e733e	0.18598649
82	0x3b898344	0.0041965563
83	0xbe287396	-0.16450343
84	0xbc16cdc4	-0.009204332
85	0xbe068983	-0.13138394
86	0x3d313a1e	0.043268315
87	0x3e2c0b3f	0.16801165
88	0x3e41ccd9	0.189258
89	0x3e4339da	0.19065037
90	0x3de97915	0.11400048
91	0x3e80cae6	0.251548
92	0x3d1580b3	0.03649969
93	0x3dd24b87	0.10268312
94	0xbd647dae	-0.05578392
95	0x3e3941a1	0.18091442
96	0x3e036044	0.12829691
97	0x3e0d8775	0.13821204
98	0x3e426bc5	0.18986423
99	0x3e132008	0.14367688
100	0xbde564ed	-0.11200891
101	0x3d3b712d	0.04576223
102	0xbd8de61e	-0.06928657
103	0x3e561e75	0.20910056
104	0x3d54dcc9	0.05196837
105	0xbd6b4912	-0.057442732
106	0x3e33aac6	0.17545614
107	0xbcec2895	-0.028827945
108	0x3d830470	0.06397331
109	0x3e3f4058	0.18676889
110	0x3e27971b	0.16366236
111	0x3e2a3f82	0.16625789
112	0x3d90ef5d	0.07076905
113	0x3d1843ea	0.037174143
114	0x3dc499c5	0.09599642
115	0xbe01a701	-0.12661363
116	0x3c69adb9	0.01426261
117	0x3e4df516	0.20113024
118	0x3e498b62	0.19682077
119	0xbdd4b698	-0.103863895

recurs2.bias_hh f4 [120]
0	0x3dfb51aa	0.122714356
1	0x3e72a59f	0.23695992
2	0xbd9e9a59	-0.07744283
3	0x3dc45728	0.09586936
4	0xbc949696	-0.018138211
5	0x3ddbedf5	0.10738746
6	0xbcadbead	-0.021209085
7	0x3e6e6b62	0.23283151
8	0x3e23853f	0.15968798
9	0xbd369f7a	-0.044585682
10	0xbdaf0a5f	-0.085469
11	0x3bd81000	0.006593704
12	0x3d725385	0.05916168
13	0x3de5b202	0.11215593
14	0xbc0a6f44	-0.008449379
15	0xbb081f62	-0.0020770659
16	0x3da3a128	0.079897225
17	0xbd78db01	-0.060755733
18	0x3df27d08	0.11840254
19	0xbd9e6651	-0.07734359
20	0x3d3f86f9	0.04675958
21	0xbdbb47d8	-0.091445625
22	0x3b6b83c0	0.0035936683
23	0x3d97a9da	0.074054435
24	0x3cb94cf2	0.022619698
25	0xbd584968	-0.05280438
26	0x3dcbefb0	0.09957826
27	0xbcacf6e7	-0.021113826
28	0x3df2ad27	0.118494324
29	0x3de3e8e2	0.11128403
30	0x3d26633e	0.04062199
31	0xbde6cf91	-0.11270059
32	0xbc7cdf83	-0.015434149
33	0x3d9aa10a	0.07550247
34	0x3dcc1e7d	0.09966753
35	0xbd7f59b2	-0.0623414
36	0x3e28496f	0.16434263
37	0x3dc06e7b	0.093960725
38	0x3d810574	0.06299868
39	0xbba8e514	-0.0051542614
40	0x3b162212	0.002290849
41	0x3e084279	0.13306607
42	0x3e329719	0.17440452
43	0x3c5059e3	0.012716743
44	0x3de8173f	0.11332559
45	0x3e3c4db4	0.18389016
46	0x3e1ba685	0.15200241
47	0x3d59e666	0.05319824
48	0x3dedbda4	0.11608437
49	0x3db350aa	0.0875562
50	0x3e17cfd1	0.1482537
51	0xbcabf81d	-0.020992333
52	0x3d94be4e	0.0726286
53	0x3da7233f	0.081610195
54	0xbdbea734	-0.09309235
55	0x3da7ce79	0.081936784
56	0xbd96a9c9	-0.07356603
57	0x3e0dbf6e	0.13842556
58	0x3d3bfe0f	0.045896586
59	0x3dc74bdc	0.09731266
60	0xbe00ae49	-0.12566485
61	0x3dec48b0	0.115373015
62	0x3e1bffa0	0.15234232
63	0x3ddc1ae6	0.10747318
64	0x3d726dcf	0.059186753
65	0xbda99689	-0.082806654
66	0x3e2a7407	0.16645823
67	0x3d61a420	0.055088162
68	0xbe15300c	-0.1456911
69	0xbd47c4c4	-0.048771635
70	0xbd201b0b	-0.03908829
71	0x3d218d60	0.039441466
72	0xbc338685	-0.010957365
73	0x3e09f758	0.1347326
74	0x3d1714d1	0.036885086
75	0xbadc0855	-0.0016787151
76	0x3c7a42d2	0.01527472
77	0x3dca3a7a	0.09874435
78	0xbe0545b9	-0.13014878
79	0x3e0189d7	0.12650238
80	0xbce13ed6	-0.027495783
81	0x3e0d9110	0.13824868
82	0xbde959c9	-0.11394078
83	0xbd926005	-0.071472205
84	0xbc23b1ca	-0.009991119
85	0xbd077ee1	-0.033079986
86	0xbe0ab20c	-0.13544482
87	0xbe27882e	-0.16360542
88	0xbe1473f5	-0.14497359
89	0x3e5951d3	0.2122262
90	0x3e26cddc	0.16289467
91	0x3c57293f	0.013132392
92	0x3e3c8c1d	0.18412824
93	0x3dac1820	0.08403039
94	0x3d730986	0.059335254
95	0xbbc2384c	-0.0059271213
96	0xbd6280d4	-0.05529864
97	0x3e3f1868	0.18661654
98	0x3e76a853	0.24087648
99	0xbe47cf17	-0.19512592
100	0x3daa75cf	0.083232515
101	0x3e0dc57a	0.13844863
102	0xbcbcc17f	-0.023041485
103	0xbc2d9544	-0.01059467
104	0xbda05a26	-0.078296944
105	0x3e1e4824	0.15457207
106	0x3e8b9c75	0.27267805
107	0x3e176e06	0.14788064
108	0x3d1acf37	0.03779527
109	0x3e079e06	0.13243875
110	0xbd67b0f7	-0.05656525
111	0xbd28e08f	-0.04122978
112	0x3e067e33	0.13134079
113	0x3e5a3456	0.21309027
114	0x3dcacbae	0.0990213
115	0xb9c3ac7a	-0.00037321803
116	0x3dc5e997	0.09663694
117	0xbdf5ac0e	-0.119957075
118	0x3e5af7ba	0.21383563
119	0xbd463717	-0.04839238

output.weight f4 [2, 30]
0	0xbdcd398d	-0.100207426
1	0xbd9ca16d	-0.07647977
2	0x3dfc9c30	0.12334478
3	0xbd5d342a	-0.054004826
4	0x3d31912e	0.043351345
5	0xbdb3a862	-0.08772351
6	0x3e151cad	0.1456172
7	0xbe282b2e	-0.16422722
8	0xbe33bcdb	-0.17552511
9	0xbe5879b3	-0.21140175
10	0x3d84a4e7	0.06476765
11	0x3d83e97a	0.064410165
12	0xbe41df94	-0.18932945
13	0xbc155715	-0.009115
14	0x3e65666a	0.22402349
15	0x3da18fef	0.07888781
16	0x3e407183	0.18793301
17	0xbd399659	-0.0453094
18	0xbd88048d	-0.06641493
19	0x3dbedad3	0.09319081
20	0x3da790e0	0.081819296
21	0xbd8b01fb	-0.06787487
22	0xbd45453a	-0.048161723
23	0x3dbca57d	0.09211252
24	0x3d67bb97	0.056575384
25	0xbdbad74f	-0.09123098
26	0xbe766098	-0.24060285
27	0x3e230830	0.15921092
28	0xbcd6e4e9	-0.0262322
29	0x3d356950	0.044289887
30	0x3e6c5d28	0.23082411
31	0x3e3664a9	0.17811836
32	0x3e0c3ade	0.13694331
33	0x3e390f8a	0.18072334
34	0xbda2bf86	-0.079466864
35	0x3e06b5c0	0.1315527
36	0xbe11f7a3	-0.14254622
37	0x3e0715bb	0.13191883
38	0x3e211e1e	0.15734145
39	0x3d21f8f3	0.039544057
40	0xbe26b60c	-0.16280383
41	0xbdd48693	-0.103772305
42	0xbdd6b5ef	-0.1048392
43	0xbe2f502d	-0.17120428
44	0x3de85443	0.11344197
45	0x3e5c2ed6	0.21502241
46	0x3e042c72	0.1290758
47	0xbe307493	-0.1723197
48	0x3e57bf5e	0.21069095
49	0xbe45bd0f	-0.19310401
50	0x3e154412	0.14576748
51	0x3d97de66	0.07415466
52	0x3e154e84	0.14580733
53	0x3e0206f2	0.12697962
54	0xbe914cef	-0.28379008
55	0x3dcee581	0.10102368
56	0xbdbe2fbc	-0.09286448
57	0xbe556f34	-0.20843202
58	0x3e69cfab	0.22833125
59	0x3db99bd4	0.09062925

output.bias f4 [2]
0	0x3d200b2a	0.039073147
1	0x3caf4544	0.021395333

switch.weight f4 [1, 30]
0	0x3e03e728	0.12881148
1	0xbd8bac5e	-0.06819986
2	0xbdcb4eac	-0.09927115
3	0xbd68b79f	-0.05681574
4	0xbd35bd96	-0.044370256
5	0x3d9dfb5d	0.07713959
6	0xbd0b3479	-0.03398559
7	0x3dacad0e	0.08431445
8	0xbe149339	-0.14509286
9	0x3cb9844b	0.02264609
10	0x3e10a982	0.14127162
11	0xbc9ec609	-0.01938154
12	0x3e16277b	0.14663498
13	0x3d69b263	0.05705489
14	0xbe32dc68	-0.17466891
15	0xbdd700e1	-0.104982145
16	0x3e14c1d3	0.14527063
17	0xbcfa1c5b	-0.030531099
18	0x3e321bdc	0.1739344
19	0xbe35e268	-0.17762148
20	0xbdc86bef	-0.09786212
21	0x3e0e85b6	0.13918194
22	0x3e2c1e6b	0.16808479
23	0xbe2a318e	-0.16620466
24	0x3d727062	0.059189208
25	0xbe38056e	-0.17970821
26	0xbe077e0e	-0.1323168
27	0x3da8101f	0.082062
28	0xbdb9c9b1	-0.09071673
29	0xbc61a1b9	-0.013771468
