checkpoints/VQE-H2-b7bfb3b9/model.pth (torch, 49793 bytes, 11 tensors)

recurs1.weight_ih f4 [120, 2]
-0.06017834 0.28976253 -0.23658967 -0.06462792 -0.109734766 -0.10520607 -0.017198002 0.10280035
-0.09358348 0.069742784 -0.16213787 0.14781684 -0.2292391 -0.066526696 -0.0906492 0.09636396
-0.0142989755 0.21718833 -0.20331322 -0.23714924 -0.024686046 0.16920309 -0.056799814 0.18486638
-0.1610249 -0.07334939 0.11315657 -0.038730375 -0.14355133 0.12704672 -0.11392314 0.053123627
-0.160758 -0.19178285 -0.2055774 -0.23528613 -0.16137306 0.2716187 0.0074407225 0.20768455
-0.036215592 -0.07314943 -0.00801182 -0.17580932 -0.17195365 -0.24874589 -0.004965932 -0.06716971
-0.10764956 0.03212759 0.035814416 0.365853 0.018635994 0.094331004 0.12293525 -0.15282756
0.010162858 -0.0826604 -0.2274307 -0.09599506 0.058103096 0.2734231 -0.14417423 0.15068032
0.08552065 -0.1863499 0.02080583 -0.039744094 0.102952495 0.24607123 -0.2007191 0.13721688
0.058262646 0.19590867 0.16684096 0.27372432 0.01151803 0.0022363593 -0.0069391225 -0.27881864
-0.19198038 0.21545744 0.13642253 -0.13487254 -0.02336055 -0.15457213 -0.06760389 0.053002264
0.061928082 0.077177316 0.0812125 -0.023424478 0.12770993 -0.036673866 -0.17867152 -0.19534619
0.09136171 0.17687708 -0.19827455 0.046497956 0.12551446 0.12762037 -0.08236122 -0.017201034
-0.1662222 -0.15299064 -0.18601039 -0.32131866 -0.035991527 0.1091545 -0.12630048 0.2970045
-0.15441024 0.24821949 0.15023871 -0.15335277 -0.03222205 0.05691039 0.027700936 0.056623332
0.017525915 0.21243899 -0.08920851 0.25861448 -0.18249448 -0.2523199 -0.063113615 -0.14254259
-0.04469292 -0.36062205 -0.10630741 0.22657228 -0.09239245 -0.20534892 0.14077206 -0.21043815
0.030630011 -0.21949469 0.059400316 0.2871498 0.1461155 0.2903705 0.15343608 0.18562017
-0.16584265 -0.2359438 0.17683743 -0.111967474 -0.144267 0.0009670304 -0.16310771 -0.3327119
-0.014709211 0.29108214 0.07758251 -0.35535818 0.1280602 -0.3286796 0.0013793175 -0.22575007
0.008443556 -0.06363942 -0.18110707 -0.35198134 -0.07506311 -0.17869343 -0.095560886 0.2676742
-0.19391912 0.021902617 0.20755112 -0.25114363 0.10001673 0.11322962 -0.13630198 0.2901049
-0.0159635 -0.28416798 0.15801924 -0.35654786 -0.03299222 0.16973521 0.055507068 0.13747865
0.047022395 -0.09769623 -0.057454553 -0.14473483 -0.23228154 0.14716965 0.08237797 0.33659568
-0.17734139 0.072050415 -0.15136962 0.019436745 -0.17294121 0.22420491 -0.15859383 -0.17249854
-0.06711222 0.16872954 -0.16484597 -0.06551422 -0.21424544 -0.008535198 -0.09975569 0.3065616
0.0575876 0.2194735 -0.02072722 -0.15298611 -0.0022162641 -0.16162474 -0.065886274 -0.0627982
-0.1903613 0.06811299 0.06218818 0.011797447 -0.07219541 0.17775974 0.051797923 0.030726708
-0.20764676 -0.062781736 -0.20615184 -0.23643702 -0.079713345 0.05082655 -0.06025623 0.35633364
-0.022676151 0.26557654 0.11126412 -0.16222763 0.06816406 -0.06047178 -0.14651962 0.03584769
00000000: 907d 76bd c15b 943e 9044 72be a55b 84bd
00000010: 9fbc e0bd 4876 d7bd d3e2 8cbc fd88 d23d
00000020: b2a8 bfbd 4ed5 8e3d 7807 26be 4c5d 173e
00000030: a8bd 6abe 263f 88bd 4aa6 b9bd 785a c53d
00000040: 4046 6abc 9e66 5e3e 5731 50be 40d7 72be
00000050: 643a cabc 9343 2d3e eca6 68bd 9d4d 3d3e
00000060: b6e3 24be 3438 96bd a2be e73d bea3 1ebd
00000070: 1fff 12be 8918 023e 8950 e9bd 2998 593d
00000080: bf9d 24be b962 44be e282 52be d9ee 70be
00000090: fb3e 25be 9b11 8b3e 4ed1 f33b 42ab 543e
000000a0: cd56 14bd 5ecf 95bd 0244 03bc 5c07 34be
000000b0: 9e14 30be 3eb7 7ebe 42b9 a2bb 4690 89bd
000000c0: 5f77 dcbd 3898 033d 23b2 123d 1651 bb3e
000000d0: 83aa 983c 9d30 c13d 7ac5 fb3d d47e 1cbe
000000e0: 1e82 263c db49 a9bd 98e3 68be 0f99 c4bd
000000f0: 83fd 6d3d 1dfe 8b3e 69a2 13be f14b 1a3e
00000100: 7325 af3d 82d2 3ebe fd70 aa3c b4ca 22bd
00000110: c2d8 d23d 19fa 7b3e 4f89 4dbe 9582 0c3e
00000120: d0a4 6e3d 489c 483e 5bd8 2a3e 9825 8c3e
00000130: 1fb6 3c3c e28f 123b 9461 e3bb 51c1 8ebe
00000140: 8196 44be e0a0 5c3e 59b2 0b3e 071c 0abe
00000150: a05e bfbc 2848 1ebe e973 8abd e718 593d
00000160: 4da8 7d3d 240f 9e3d bd52 a63d b1e4 bfbc
00000170: 64c6 023e 5637 16bd abf5 36be d508 48be
00000180: d91b bb3d 441f 353e 7c08 4bbe a474 3e3d
00000190: dd86 003e eaae 023e 00ad a8bd 2fe9 8cbc
000001a0: 2736 2abe 94a9 1cbe 8279 3ebe e183 a4be
000001b0: da6b 13bd 658c df3d ea54 01be f910 983e
000001c0: b81d 1ebe 402d 7e3e 2dd8 193e 8208 1dbe
000001d0: 45fb 03bd de1a 693d 13ed e23c deed 673d
000001e0: 8292 8f3c 9b89 593e f4b2 b6bd 1e69 843e
000001f0: d5df 3abe 1330 81be b641 81bd aff6 11be
00000200: ec0f 37bd 74a3 b8be b3b7 d9bd 9002 683e
00000210: 4138 bdbd fd46 52be 8d26 103e 197d 57be
00000220: caeb fa3c 37c3 60be bf4d 733d 4c05 933e
00000230: 4d9f 153e 71ab 943e 591e 1d3e 3713 3e3e
00000240: a8d2 29be 409b 71be df14 353e 344f e5bd
00000250: baba 13be 5080 7d3a b505 27be 3759 aabe
00000260: e7fe 70bc b808 953e 94e3 9e3d 82f1 b5be
00000270: 3722 033e b148 a8be 37ca b43a 072b 67be
00000280: d756 0a3c 6255 82bd 2274 39be e636 b4be
00000290: b0ba 99bd 69fb 36be 6db5 c3bd 980c 893e
000002a0: bc92 46be 1e6d b33c 4888 543e e695 80be
000002b0: 92d5 cc3d eee4 e73d bf92 0bbe a188 943e
000002c0: e3c5 82bc 777e 91be cccf 213e 718d b6be
000002d0: da22 07bd 11cf 2d3e 615b 633d 34c7 0c3e
000002e0: 8e9a 403d f614 c8bd 7755 6bbd 5e35 14be
000002f0: 36db 6dbe a4b3 163e c8b5 a83d 4556 ac3e
00000300: fb98 35be 2b8f 933d a300 1bbe cf39 9f3c
00000310: 8017 31be f995 653e 6c66 22be 75a3 30be
00000320: 2272 89bd 70c7 2c3e 62cd 28be 522c 86bd
00000330: 2863 5bbe 37d7 0bbc b64c ccbd a4f5 9c3e
00000340: fae0 6b3d a9bd 603e 22cc a9bc 64a8 1cbe
00000350: be3e 11bb f580 25be 62ef 86bd 589c 80bd
00000360: 13ee 42be d37e 8b3d 08b9 7e3d 144a 413c
00000370: 30db 93bd a606 363e 0f2a 543d 94b6 fb3c
00000380: 5aa1 54be b693 80bd 7819 53be 8c1c 72be
00000390: c040 a3bd 802f 503d 3dcf 76bd 5d71 b63e
000003a0: 56c3 b9bc a6f9 873e 71de e33d 001f 26be
000003b0: 9999 8b3d 42b1 77bd 3d09 16be 07d5 123d

recurs1.weight_hh f4 [120, 30]
0.120866254 0.23175411 -0.06360695 0.04960399 -0.007986557 -0.10345406 0.059166886 -0.22573939
-0.06561391 -0.005612693 0.0031729473 0.091284044 0.02664472 -0.11655299 -0.05370886 -0.13278316
-0.116215825 -0.059746634 -0.16521516 -0.19203871 -0.17383458 0.023275988 0.07842609 0.18235466
0.11825648 -0.13751037 0.021769395 0.11510669 0.07360157 -0.051757406 -0.0136722 -0.033841398
-0.07694041 0.14445779 -0.120906316 -0.076600164 0.1573837 -0.1592096 -0.08030005 -0.031145623
0.033090457 -0.12827322 -0.11615671 0.056195695 0.10951228 0.17592567 -0.10527694 0.052421905
-0.12009252 -0.08627302 -0.22292964 0.05261429 0.1186668 -0.073476225 0.04633197 -0.20357364
0.2315437 -0.16439958 0.065673225 -0.07218355 -0.14649339 -0.096460626 -0.020220568 0.10479727
0.12277989 -0.22010541 0.11045678 0.17675069 0.16195464 -0.10088812 -0.2613758 -0.10109096
0.15029725 -0.07592748 0.07990048 0.20501018 -0.18248443 0.10410346 0.17496003 0.07001219
-0.01904801 0.105205275 -0.07273212 -0.06874757 0.14326064 0.2611061 0.09952686 -0.060504563
0.16427536 0.0034685805 -0.13868293 -0.20735891 0.24456288 0.18261029 -0.09587417 0.07454277
0.17358918 0.21501368 0.1905214 0.098372795 -0.07667224 -0.10073682 0.23616235 0.04484354
-0.058440913 0.20182882 0.048102506 0.13840358 -0.081411816 0.028985534 -0.11881451 0.1836725
0.03532182 0.030234046 0.0885696 0.0773106 -0.012946995 0.04724452 -0.08461666 0.06990926
-0.027138112 -0.13410829 -0.10105023 0.21536405 0.07027517 0.2756723 0.11300587 -0.22265197
-0.19800797 -0.08336704 -0.08714447 0.14960587 -0.098105274 -0.20430751 -0.058598816 -0.12115665
0.13514638 0.12851551 0.039471246 0.053118013 0.055670403 -0.07265936 0.06935829 0.12080207
0.17156906 0.07343216 0.20605968 0.12903464 -0.108920105 0.057317726 0.10253917 0.07954549
-0.061630435 -0.022722287 -0.21193895 0.21724926 0.094921626 -0.08085365 -0.16630855 0.14976466
0.23149587 0.0512913 -0.16056451 0.067054935 0.14624643 -0.19808128 0.23155665 0.028773647
-0.15300946 0.005791934 -0.2002877 -0.08594108 0.16021545 0.02457741 -0.044074345 -0.16211012
0.052253872 0.018506354 -0.042249788 0.0856449 0.0893272 -0.059980597 0.021135693 0.10854601
0.04237632 -0.08610657 -0.05431877 -0.1907278 -0.13730255 0.065825224 -0.08418546 0.08367898
0.12517694 -0.07353684 -0.0288147 -0.09505874 0.060283046 -0.2018098 0.007790393 -0.22462839
-0.22937496 -0.20359464 -0.044992168 0.12675275 -0.0939386 0.062850885 0.0007076212 0.07586052
-0.030857377 -0.22783777 0.2162141 0.15319987 0.17248797 0.0795506 -0.16088721 0.21627648
-0.021205438 0.048514042 -0.1959895 -0.05334663 -0.13847804 -0.049133457 -0.008951151 -0.20023933
0.12413005 0.05676226 0.04611701 -0.17882296 -0.20909041 -0.10656714 0.053634617 0.14077996
0.07443991 -0.005671488 0.11380417 -0.24179715 -0.109353006 0.10801683 -0.1485473 0.041882183
-0.04277465 -0.0035748666 -0.091725215 0.1757987 -0.08274693 0.23191388 0.0564949 0.038822282
-0.065357745 -0.08058879 0.029315252 0.05807117 0.08111495 -0.22213712 0.24247764 -0.041141532
00000000: ba88 f73d f350 6d3e 5c44 82bd 8e2d 4b3d
00000010: 0cda 02bc b9df d3bd fa58 723d 3a28 67be
00000020: 9660 86bd aeea b7bb 39f1 4f3b 21f3 ba3d
00000030: 0746 da3c 56b3 eebd d2fd 5bbd 4ff8 07be
00000040: 9002 eebd e3b8 74bd 2a2e 29be cca5 44be
00000050: b101 32be 49ad be3c dc9d a03d 2ebb 3a3e
00000060: 7430 f23d 85cf 0cbe bb55 b23c 0ebd eb3d
00000070: 6cbc 963d 93ff 53bd 5d01 60bc 479d 0abd
00000080: ef92 9dbd beec 133e bb9d f7bd 8ce0 9cbd
00000090: 3129 213e d707 23be 5a74 a4bd 1b25 ffbc
000000a0: dc89 073d 0e5a 03be 92e3 edbd 752d 663d
000000b0: f947 e03d dc25 343e 709b d7bd 5ab8 563d
000000c0: 11f3 f5bd e9af b0bd ab47 64be 1582 573d
000000d0: 9407 f33d b47a 96bd 97c6 3d3d 9c75 50be
000000e0: cb19 6d3e 5d58 28be af7f 863d f8d4 93bd
000000f0: 5d02 16be 268d c5bd 9ba5 a5bc f39f d63d
00000100: 0674 fb3d 5063 61be 2a37 e23d 22fe 343e
00000110: 70d7 253e 6e9e cebd 0dd3 85be c708 cfbd
00000120: 86e7 193e de7f 9bbd dda2 a33d 30ee 513e
00000130: 33dd 3abe 3234 d53d b928 333e 8d62 8f3d
00000140: 930a 9cbc dd75 d73d 94f4 94bd 87cb 8cbd
00000150: ebb2 123e b3af 853e bdd4 cb3d a2d3 77bd
00000160: cd37 283e 2051 633b e602 0ebe e555 54be
00000170: b16e 7a3e 31fe 3a3e ad59 c4bd e1a9 983d
00000180: 5dc1 313e 8c2c 5c3e 0b18 433e ad77 c93d
00000190: 5606 9dbd 1b4f cebd 8bd4 713e dcad 373d
000001a0: bd5f 6fbd 37ac 4e3e 2207 453d abb9 0d3e
000001b0: 3dbb a6bd 1273 ed3c 0655 f3bd a514 3c3e
000001c0: 9dad 103d 64ad f73c fa63 b53d 0555 9e3d
000001d0: a21f 54bc 7883 413d 804b adbd 962c 8f3d
000001e0: bf50 debc af53 09be 6cf3 cebd 6588 5c3e
000001f0: 6eec 8f3d eb24 8d3e 9f6f e73d e1fe 63be
00000200: 9ac2 4abe 57bc aabd cd78 b2bd 4832 193e
00000210: 6beb c8bd fd35 51be 5005 70bd fa20 f8bd
00000220: d063 0a3e 9299 033e 9aac 213d 4692 593d
00000230: a606 643d 6ece 94bd b80b 8e3d 1367 f73d
00000240: cdaf 2f3e 9a63 963d 4f01 533e a821 043e
00000250: 8111 dfbd fec5 6a3d 0e00 d23d bfe8 a23d
00000260: 3270 7cbd 1724 babc 8606 59be 9776 5e3e
00000270: 4566 c23d 9996 a5bd ca4c 2abe e85b 193e
00000280: 410d 6d3e d416 523d 066b 24be 1954 893d
00000290: a0c1 153e d2d5 4abe 301d 6d3e b6b6 eb3c
000002a0: 83ae 1cbe 44ca bd3b 3818 4dbe e001 b0bd
000002b0: 850f 243e 9156 c93c 4d87 34bd 3200 26be
000002c0: 2808 563d a39a 973c 1d0e 2dbd 9866 af3d
000002d0: 2ef1 b63d 37ae 75bd c324 ad3c 5f4d de3d
000002e0: cb92 2d3d a458 b0bd 5c7d 5ebd 264e 43be
000002f0: 0a99 0cbe 60cf 863d 6d69 acbd e35f ab3d
00000300: 622e 003e 7c9a 96bd ce0c ecbc 28ae c2bd
00000310: 5beb 763d 3aa7 4ebe 8e46 ff3b fc04 66be
00000320: 45e1 6abe 1d7b 50be b549 38bd 79cb 013e
00000330: e162 c0bd f7b7 803d a87f 393a c35c 9b3d
00000340: 9cc8 fcbc 4e4e 69be 3b67 5d3e 6de0 1c3e
00000350: b0a0 303e 6deb a23d 9ebf 24be 9577 5d3e
00000360: 07b7 adbc a9b6 463d 79b1 48be ff81 5abd
00000370: 30cd 0dbe 2a40 49bd d9a7 12bc 8a0b 4dbe
00000380: e537 fe3d 8b7f 683d 31e5 3c3d 5e1d 37be
00000390: cc1b 56be df3f dabd f9af 5b3d 9f28 103e
000003a0: f473 983d e4d7 b9bb 2912 e93d ac99 77be
000003b0: 78f4 dfbd ee37 dd3d c91c 18be a78c 2b3d
000003c0: 7934 2fbd 4f48 6abb 6eda bbbd 9304 343e
000003d0: 3977 a9bd d57a 6d3e 3267 673d 1d04 1f3d
000003e0: 48da 85bd bc0b a5bd 8a26 f03c 09dc 6d3d
000003f0: 981f a63d ea77 63be 0f4c 783e 0684 28bd

recurs1.bias_ih f4 [120]
-0.09043158 -0.042181097 0.01861901 0.21607727 0.19283968 0.14495705 0.045588877 0.22936758
0.11719054 0.16273354 0.1257817 0.09600386 0.20616867 0.22306725 0.1499018 0.117496446
0.17858784 0.08470078 0.20244323 0.15311849 0.21634977 0.064629205 -0.09637847 0.16528945
0.14658238 0.23345022 0.15892792 0.12084083 0.22963329 0.108130254 0.191597 0.15632908
0.15882649 0.1854157 -0.09742239 0.1564109 0.18878302 -0.11550942 0.026517997 -0.07587077
-0.0013205572 0.04278186 0.18242086 0.013105334 -0.13317758 0.10524877 0.12855461 0.0008952346
0.17653248 0.21611649 0.029001907 0.025463367 0.05655992 0.023216886 0.023822056 -0.031171324
-0.032376636 0.09178765 -0.05113797 -0.051370203 0.21416317 0.012686384 0.20166989 0.24345818
-0.02559047 0.08024341 0.1650631 -0.11709263 -0.065117426 -0.063126765 -0.010733502 0.044904646
0.12821274 -0.1627145 0.09113588 0.18603098 -0.1554218 -0.08550346 -0.12599437 0.039685663
-0.24346502 -0.050543565 0.21744274 -0.1657688 0.22925745 -0.12312872 0.12564303 -0.028009113
0.012462592 0.1226644 0.2307926 -0.010890594 0.16674319 0.12774916 0.13206871 -0.048423387
0.14181036 0.19809163 -0.053529087 -0.08405018 -0.068773225 0.1154584 0.084871136 0.010598775
0.20113651 0.027872503 -0.0353132 0.14245786 -0.026828794 0.05133865 0.18057498 0.12440751
-0.07034611 0.27496764 0.20029911 -0.05041302 0.15774214 0.11381887 -0.05757075 0.02640153
00000000: 3134 b9bd 16c6 2cbd e586 983c 5c43 5d3e
00000010: c477 453e 9f6f 143e 67bb 3a3d 56df 6a3e
00000020: 9801 f03d 9fa3 263e ebcc 003e ac9d c43d
00000030: e11d 533e be6b 643e dc7f 193e faa1 f03d
00000040: bbdf 363e 9a77 ad3d 474d 4f3e 18cb 1c3e
00000050: cb8a 5d3e 515c 843d 1362 c5bd a341 293e
00000060: b119 163e 930d 6f3e 00be 223e 667b f73d
00000070: fd24 6b3e 6573 dd3d 0132 443e bb14 203e
00000080: 69a3 223e 9ddd 3d3e 6485 c7bd 2e2a 203e
00000090: 5650 413e 3490 ecbd 453c d93c 2262 9bbd
000000a0: 8c16 adba 083c 2f3d 89cc 3a3e c1b7 563c
000000b0: b45f 08be ab8c d73d d2a3 033e 2dae 6a3a
000000c0: eec4 343e a44d 5d3e 6895 ed3c 8d98 d03c
000000d0: 60ab 673d 5731 be3c 7926 c33c 015b ffbc
000000e0: 5d9d 04bd 2afb bb3d 0c76 51bd 9069 52bd
000000f0: 974d 5b3e 8dda 4f3c 8d82 4e3e 1a4d 793e
00000100: 1ba3 d1bc a856 a43d 4d06 293e 43ce efbd
00000110: 495c 85bd 9b48 81bd 92db 2fbc efed 373d
00000120: 334a 033e a19e 26be 73a5 ba3d e87e 3e3e
00000130: e426 1fbe 701c afbd ab04 01be 6f8d 223d
00000140: e54e 79be c506 4fbd 4fa9 5e3e 4cbf 29be
00000150: 77c2 6a3e e92a fcbd 91a8 003e 5e73 e5bc
00000160: e62f 4c3c 7937 fb3d e554 6c3e 766e 32bc
00000170: babe 2a3e add0 023e 053d 073e 9a57 46bd
00000180: bc36 113e 88d8 4a3e 5141 5bbd 8022 acbd
00000190: fad8 8cbd 7475 ec3d ebd0 ad3d 7ca6 2d3c
000001a0: bbf6 4d3e e054 e43c 93a4 10bd 79e0 113e
000001b0: 0fc8 dbbc 7a48 523d a6e8 383e 5dc9 fe3d
000001c0: 9f11 90bd 8fc8 8c3e 361b 4d3e e27d 4ebd
000001d0: 2887 213e de19 e93d 4fcf 6bbd 0548 d83c

recurs1.bias_hh f4 [120]
-0.079128265 0.19804253 0.08959859 0.15395938 0.058123488 0.24781086 0.11728893 -0.08248738
0.06948787 0.19426121 0.16302475 0.039583195 0.017729413 -0.03061048 0.20228682 -0.010454272
0.23497449 0.07849609 0.07947183 -0.075922444 0.019216167 0.24704179 -0.11122609 0.22108708
-0.08132535 0.112555236 -0.07736461 -0.091148004 -0.06305186 0.10756626 0.05525595 -0.071134046
0.083166055 0.16516815 0.20057277 0.22297522 0.13894968 -0.041008662 0.025339989 0.19709009
0.13358891 -0.032844093 0.22260366 -0.09344651 0.19596541 0.10881678 -0.10778613 -0.11491624
0.16301262 0.25548267 0.085174344 -0.052925147 0.1283595 0.14136112 0.04601605 0.19741471
0.18979089 0.046123613 0.097873405 -0.13479897 -0.0321849 0.003509213 0.119588226 0.05211964
0.06906649 0.1086274 -0.17294438 0.066112034 -0.025220979 -0.21474436 0.00781441 -0.048605736
-0.06474403 -0.25396836 0.22965463 -0.0900232 -0.027589839 0.18456513 -0.008979033 -0.18911137
-0.25263494 0.06857782 0.0025242546 -0.04300469 0.13910358 -0.08951139 0.22055393 -0.07566688
-0.05592213 -0.11176855 0.13112172 -0.009775548 0.10272817 0.055924997 0.26094592 -0.010271844
-0.0022883276 0.041977547 -0.00833157 0.15417226 0.04383569 0.1481783 0.24329218 0.17392282
-0.0023862 0.17407824 -0.016048066 -0.055872496 0.056003544 -0.027546562 -0.057311453 0.12868017
0.2109541 0.029301021 0.06644832 -0.058228895 0.110125795 0.09084701 0.045409445 0.293621
00000000: 000e a2bd a9cb 4a3e 777f b73d 87a7 1d3e
00000010: e512 6e3d 21c2 7d3e 2e35 f03d 25ef a8bd
00000020: a84f 8e3d 69ec 463e f6ef 263e fd21 223d
00000030: 463d 913c d4c2 fabc 4724 4f3e 6548 2bbc
00000040: 279d 703e 8fc2 a03d 20c2 a23d 3a7d 9bbd
00000050: 396b 9d3c 86f8 7c3e 81ca e3bd a764 623e
00000060: e88d a6bd 5c83 e63d 5671 9ebd ceab babd
00000070: 5521 81bd b34b dc3d 1054 623d baae 91bd
00000080: f752 aa3d d721 293e f362 4d3e 9e53 643e
00000090: d348 0e3e b3f8 27bd cf95 cf3c fcd1 493e
000000a0: 88cb 083e 8787 06bd 37f2 633e e260 bfbd
000000b0: 28ab 483e 55db de3d f9be dcbd 3559 ebbd
000000c0: c8ec 263e a0ce 823e e36f ae3d 0ac8 58bd
000000d0: ac70 033e f8c0 103e 537b 3c3d 1527 4a3e
000000e0: 8b58 423e 1dec 3c3d da71 c83d be08 0abe
000000f0: 50d4 03bd d3fa 653b acea f43d 677b 553d
00000100: bb72 8d3d 0b78 de3d 5518 31be bf65 873d
00000110: 3a9c cebc f2e5 5bbe 0308 003c cf16 47bd
00000120: 8598 84bd 2408 82be 952a 6b3e 155e b8bd
00000130: 1604 e2bc a4fe 3c3e cb1c 13bc 69a6 41be
00000140: 5e59 81be 8772 8c3d f76d 253b b025 30bd
00000150: 2b71 0e3e bf51 b7bd e4d8 613e 3df7 9abd
00000160: 9a0e 65bd e9e6 e4bd c644 063e 9f29 20bc
00000170: 2663 d23d 9c11 653d b49a 853e 3d4b 28bc
00000180: c4f7 15bb a6f0 2b3d 2381 08bc 55df 1d3e
00000190: 0d8d 333d 0dbc 173e 9621 793e d318 323e
000001a0: cb61 1cbb 9141 323e 3c77 83bc 8fda 64bd
000001b0: f963 653d 54a9 e1bc 6abf 6abd bcc4 033e
000001c0: 5a04 583e b208 f03c 0f16 883d 6c81 6ebd
000001d0: a289 e13d ff0d ba3d 41ff 393d 7e55 963e

recurs2.weight_ih f4 [120, 30]
-0.0773907 0.018339384 -0.017198369 0.25903252 0.110780425 0.2594082 0.1371176 0.023348883
-0.18603645 -0.16153811 0.09250685 -0.14282516 0.17339694 -0.026288018 0.11105189 -0.15645547
0.12566549 -0.02169555 -0.11808183 -0.031587195 -0.09294468 -0.102457255 0.10073004 -0.16216011
0.28096282 0.079337895 0.2160387 0.095089436 -0.19406745 -0.12030629 -0.12756371 -0.107347175
-0.074278034 0.24242781 0.11812262 0.1491757 -0.059793316 0.13509664 -0.03695484 -0.13333988
0.08152258 0.092437185 -0.011090078 0.07046581 0.07392302 0.11117223 -0.25337943 0.06563271
-0.09850219 -0.17749916 -0.19555995 0.03155683 0.02008509 -0.18184048 0.23407772 0.013617281
-0.07726891 -0.015999636 0.07602724 0.031249018 0.08811721 -0.040168248 0.16826236 -0.023479352
-0.054202747 0.17767061 -0.08684898 0.08597864 0.16054223 -0.25636294 -0.10998412 0.13015182
0.12791929 -0.06592975 0.122912735 0.15142252 -0.15288998 0.0777529 0.12288256 -0.07469182
-0.27818224 0.09961231 0.019320186 -0.10935052 0.19561863 -0.002874722 -0.01976452 -0.14257014
0.002911163 -0.01614002 0.051757134 -0.0987013 0.25686678 0.24558991 0.022519277 0.1460087
0.017174572 0.09866069 -0.013538459 -0.06852555 -0.08140943 0.052835077 -0.06322177 -0.08348156
-0.028849684 -0.02409167 0.039100803 -0.0868585 0.083173074 -0.22066055 0.014987479 0.060870346
0.013318031 0.025388367 -0.024508208 -0.22136052 0.031884946 -0.012394662 0.016169455 -0.16040933
0.26054332 0.06000103 -0.013216572 0.10604666 -0.15499611 0.14010619 0.0052793217 -0.12122541
-0.060555197 0.077225074 -0.04339571 0.012603718 -0.008371832 -0.23034616 0.09645743 -0.010502126
-0.13852261 0.015204312 0.10496086 -0.023071934 -0.21671946 0.11167631 -0.08846385 -0.13019258
0.18967918 0.056009214 0.29019737 0.17949767 -0.14823835 -0.01889467 -0.01994016 0.036161207
0.2651573 0.22460707 -0.18985698 0.025552716 -0.16236334 0.04186487 -0.081024155 -0.22520131
-0.033488482 0.061481107 0.102445565 0.03432946 0.12489342 0.09685997 -0.10251458 0.036153436
-0.057574227 0.053921998 -0.065830715 -0.10750683 -0.07677536 -0.25215596 0.06378023 -0.08919077
0.3085642 -0.045642678 0.0675265 0.07800137 -0.07334772 -0.07696546 0.12215295 0.16125168
-0.16501158 0.10081262 -0.24066363 -0.064467885 -0.02147634 0.0072223004 0.0531978 0.13689524
-0.039623417 0.056589432 -0.10577895 -0.13701941 -0.12804076 -0.20426503 0.07447993 -0.15005945
-0.23475198 -0.023524716 -0.10352617 0.017076598 0.16234931 -0.116451696 0.19876271 0.068483695
-0.18630955 -0.028323285 0.18249033 0.0018303395 0.100158274 0.119851284 -0.041886374 0.11605143
-0.21153541 0.089966 0.03591944 -0.005138065 0.087036215 -0.113058396 -0.009858431 -0.09871377
0.10410471 -0.09836282 0.016424736 -0.06035623 0.09697955 -0.26929703 -0.08859066 0.09460731
-0.08698492 -0.03214479 0.18291843 0.0049000783 0.13818221 0.07748063 -0.14641517 0.12088383
0.075341746 0.16700083 0.11776932 0.07422712 0.018053884 0.2535235 0.12755305 -0.21080112
-0.04535548 -0.15259616 0.16700672 0.17392533 -0.089944795 -0.106143445 0.19389126 0.1093961
00000000: 047f 9ebd 7a3c 963c 98e3 8cbc e99f 843e
00000010: d9e0 e23d 27d1 843e 8e68 0c3e 2846 bf3c
00000020: 5780 3ebe 3f6a 25be 3b74 bd3d c240 12be
00000030: f88e 313e f859 d7bc 2c6f e33d dd35 20be
00000040: 74ae 003e deba b1bc e3d4 f1bd 9361 01bd
00000050: c859 bebd 1cd5 d1bd 8d4b ce3d 4d0d 26be
00000060: 5cda 8f3e e87b a23d 4039 5d3e 40be c23d
00000070: 9eb9 46be 2563 f6bd 10a0 02be d6d8 dbbd
00000080: 151f 98bd ff3e 783e 46ea f13d 84c1 183e
00000090: d6e9 74bd c656 0a3e f55d 17bd 408a 08be
000000a0: 4ff5 a63d b54f bd3d 29b3 35bc 6150 903d
000000b0: f464 973d 44ae e33d f3ba 81be 716a 863d
000000c0: 84bb c9bd 57c2 35be de40 48be bc41 013d
000000d0: 7d89 a43c 6434 3abe 12b2 6f3e 041b 5f3c
000000e0: 2a3f 9ebd ab11 83bc 2bb4 9b3d f1fd ff3c
000000f0: cc76 b43d 7687 24bd f84c 2c3e c557 c0bc
00000100: b303 5ebd 49ef 353e e1dd b1bd 9215 b03d
00000110: 2f65 243e 0142 83be 5b3f e1bd 8546 053e
00000120: 46fd 023e 2d06 87bd acb9 fb3d 810e 1b3e
00000130: 318f 1cbe ea3c 9f3d daa9 fb3d 06f8 98bd
00000140: e76d 8ebe 8a01 cc3d 5e45 9e3c 2af3 dfbd
00000150: 4050 483e d565 3cbb 34e9 a1bc e8fd 11be
00000160: 36c9 3e3b 1338 84bc 4aff 533d e823 cabd
00000170: 0b84 833e ec7b 7b3e 597a b83c 4e83 153e
00000180: b0b1 8c3c 9e0e ca3d 6ad0 5dbc 2057 8cbd
00000190: fdb9 a6bd 9869 583d 6a7a 81bd 61f8 aabd
000001a0: 2c56 ecbc e55b c5bc 2a28 203d dfe2 b1bd
000001b0: a556 aa3d d7f4 61be 0b8e 753c 2f53 793d
000001c0: df33 5a3c 44fb cf3c 70c5 c8bc 55ac 62be
000001d0: ca99 023d fb12 4bbc ce75 843c 5842 24be
000001e0: ef65 853e a4c3 753d 528a 58bc fe2e d93d
000001f0: 4db7 1ebe ff77 0f3e 29fe ac3b 0745 f8bd
00000200: ba08 78bd 2e28 9e3d b3bf 31bd d37f 4e3c
00000210: 022a 09bc dddf 6bbe 798b c53d 1c11 2cbc
00000220: dfd8 0dbe 821b 793c b8f5 d63d 5a01 bdbc
00000230: b5eb 5dbe 8db6 e43d 892c b5bd 3451 05be
00000240: 423b 423e eb69 653d c094 943e 3dce 373e
00000250: cbcb 17be ffc8 9abc 8c59 a3bc c61d 143d
00000260: b3c2 873e 65ff 653e de69 42be ee53 d13c
00000270: 9342 26be 7f7a 2b3d feef a5bd 2c9b 66be
00000280: 382b 09bd 9dd3 7b3d fbce d13d 0c9d 0c3d
00000290: 1fc8 ff3d 855e c63d 2af3 d1bd a015 143d
000002a0: f4d2 6bbd 50dd 5c3d 41d2 86bd 8a2c dcbd
000002b0: 663c 9dbd 961a 81be 369f 823d a7a9 b6bd
000002c0: 20fc 9d3e d1f3 3abd 554b 8a3d 2fbf 9f3d
000002d0: 5437 96bd 11a0 9dbd 532b fa3d 291f 253e
000002e0: ccf8 28be d976 ce3d 8770 76be bd07 84bd
000002f0: 26ef afbc 0ca9 ec3b f0e5 593d 442e 0c3e
00000300: 2a4c 22bd 52ca 673d a2a2 d8bd d14e 0cbe
00000310: 1e1d 03be da2a 51be ef88 983d 2fa9 19be
00000320: d362 70be e8b6 c0bc 8705 d4bd 39e4 8b3c
00000330: e63e 263e 3a7e eebd 7488 4b3e 2e41 8c3d
00000340: eec7 3ebe 3c06 e8bc bfde 3a3e 01e8 ef3a
00000350: c81f cd3d 9774 f53d 0c91 2bbd 5fac ed3d
00000360: bd9c 58be 1840 b83d 4320 133d 375d a8bb
00000370: 0b40 b23d 298b e7bd 4285 21bc 722a cabd
00000380: da34 d53d 7272 c9bd 2b8d 863c 1838 77bd
00000390: 379d c63d 4de1 89be 056f b5bd 7ac1 c13d
000003a0: 2625 b2bd 41aa 03bd f84e 3b3e d690 a03b
000003b0: a37f 0d3e 2aae 9e3d dced 15be f191 f73d
000003c0: c64c 9a3d 4402 2b3e 0b31 f13d 6304 983d
000003d0: bde5 933c d5cd 813e 449d 023e 40dc 57be
000003e0: abc6 39bd 2b42 1cbe cf03 2b3e 7b19 323e
000003f0: fa34 b8bd bc61 d9bd 6e8b 463e 100b e03d

recurs2.weight_hh f4 [120, 30]
0.01708742 0.080473475 0.19201921 -0.1709342 0.10175648 -0.11296515 0.18527175 -0.14433381
-0.020252356 0.014244967 -0.03529407 0.05436965 -0.043235097 0.059800018 -0.03087655 0.00030853366
0.075004406 0.12521109 -0.17203504 -0.1086171 -0.027407717 0.0070105223 -0.08943408 -0.046783127
0.06390122 -0.06304544 -0.020335646 -0.026250163 -0.17802484 0.11785553 -0.043200705 -0.103489816
-0.15318263 0.08762004 -0.020650301 0.07306512 0.03437174 -0.08902933 -0.12347718 0.053186458
-0.2255533 -0.06226625 -0.08310607 -0.0082247 0.14237314 0.19102904 0.18311585 -0.0760383
-0.13638622 0.060199153 0.16403823 -0.08445388 -0.09996243 -0.15033096 -0.043691803 -0.12093201
-0.16643423 8.2077226e-05 -0.0121632945 0.067805044 -0.15106958 -0.07895057 0.17319474 -0.035244666
0.16333042 -0.10985389 0.015053029 0.00087678945 -0.044390656 -0.26443082 0.09844719 -0.055323474
-0.018198647 0.05435791 0.18088749 0.046520162 0.09054972 -0.0054283417 0.1023731 0.09385686
0.13381901 0.01849251 -0.19794628 0.04000193 -0.16070788 -0.25634167 0.00307108 0.01627975
-0.1331004 0.18053757 -0.076688446 0.006230237 0.2051819 0.09432298 -0.065410495 -0.0023470772
-0.041697673 -0.18818551 -0.061988097 -0.06762264 -0.20077226 -0.06802814 -0.24038038 -0.018213654
0.11913342 0.024650376 0.14340626 0.1627608 0.06224741 0.011563526 -0.009471766 0.089624666
-0.21406779 -0.11717049 0.08992031 -0.07510551 0.011613125 0.21854681 0.09758556 0.08688511
0.12478767 0.17563407 -0.05130838 0.03518079 0.124308534 0.06644309 0.22002244 -0.14882202
0.015693028 0.12116859 -0.2095659 -0.079363726 0.06728311 0.14422064 0.24394122 -0.029534854
0.13981497 -0.14271326 -0.1645201 -0.0031126323 -0.03651159 0.09761903 -0.08196174 0.13526516
-0.04794646 0.014000637 -0.028183406 0.20519322 -0.0025575382 0.20231736 -0.21856347 -0.055118248
0.17794298 0.13317275 -0.015959978 0.15348165 0.17238688 -0.18780486 -0.0075117466 0.076802924
-0.14956306 0.14853507 -0.12834848 -0.0821119 -0.02495024 -0.06153434 0.1958743 0.1303368
0.06077877 0.0731366 0.100906655 -0.0012832256 -0.2367864 -0.16065842 -0.085114464 0.06691877
-0.105536304 0.041783474 0.036244847 0.26514965 -0.043522403 0.13387549 -0.086431 -0.18865837
-0.0059495703 0.062438514 0.1479299 0.054718062 0.13575703 -0.12751393 -0.041198194 0.16993682
-0.13581334 0.14528653 -0.0791469 0.09601016 0.08200949 0.15372546 -0.046944633 -0.016832339
-0.036310505 0.2546592 -0.017422816 -0.066462845 0.028944535 0.05720028 -0.112512566 -0.11904274
-0.06657606 0.1282743 -0.008412995 0.015937444 0.09069255 -0.011893722 0.16465282 -0.106015585
0.21579166 -0.012791727 0.12260909 0.030153248 -0.2284626 0.13774663 -0.106833406 -0.10166841
0.16418946 0.035268467 -0.08485946 -0.09578165 0.12223219 -0.20682794 0.1171424 0.102422304
-0.14368871 0.052690383 -0.15722387 -0.050740115 -0.085769214 0.12429565 -0.050396264 -0.081892565
-0.066056766 0.19518042 -0.04200693 0.14991033 0.14317073 -0.02407664 0.055303883 0.11456742
-0.018490586 -0.04634714 -0.05926576 0.027545772 -0.19689196 -0.06841901 0.24651442 0.107333146
00000000: ebfa 8b3c 47cf a43d afa0 443e 6009 2fbe
00000010: b465 d03d 465a e7bd e1b7 3d3e 3ecc 13be
00000020: 45e8 a5bc b963 693c 8490 10bd b6b2 5e3d
00000030: 4917 31bd ddf0 743d d2f0 fcbc b0c2 a139
00000040: e99b 993d 5637 003e f429 30be a472 debd
00000050: 2686 e0bc 86b8 e53b 3729 b7bd aa9f 3fbd
00000060: a5de 823d f81d 81bd f196 a6bc 950a d7bc
00000070: 254c 36be 3d5e f13d 39f3 30bd 78f2 d3bd
00000080: e8db 1cbe 2372 b33d d22a a9bc 2aa3 953d
00000090: 62c9 0c3d 0255 b6bd 9be1 fcbd 0bda 593d
000000a0: 72f7 66be e50a 7fbd 8433 aabd e4c0 06bc
000000b0: 44ca 113e 1e9d 433e b982 3b3e f8b9 9bbd
000000c0: d4a8 0bbe 6393 763d a3f9 273e 28f6 acbd
000000d0: 1ab9 ccbd 5cf0 19be 2df6 32bd 34ab f7bd
000000e0: bc6d 2abe e020 ac38 8e48 47bc 5fdd 8a3d
000000f0: fcb1 1abe d6b0 a1bd f659 313e b65c 10bd
00000100: 1740 273e 14fb e0bd fba0 763c 58d8 653a
00000110: fad2 35bd 7a63 87be ae9e c93d de9a 62bd
00000120: 5415 95bc 66a6 5e3d 923a 393e ed8b 3e3d
00000130: 2272 b93d 3be0 b1bb fda8 d13d 0738 c03d
00000140: da07 093e 9b7d 973c 6eb2 4abe 10d9 233d
00000150: 9b90 24be 373f 83be 2c44 493b 1c5d 853c
00000160: 794b 08be d7de 383e d50e 9dbd 0427 cc3b
00000170: 341b 523e 682c c13d f0f5 85bd 6cd1 19bb
00000180: 2ecb 2abd b4b3 40be 3be7 7dbd bd7d 8abd
00000190: 3e97 4dbe 5652 8bbd 4626 76be cd34 95bc
000001a0: 39fc f33d 96ef c93c 17d9 123e c4aa 263e
000001b0: 24f7 7e3d f174 3d3c 772f 1bbc 238d b73d
000001c0: 9634 5bbe 15f7 efbd 2428 b83d ebd0 99bd
000001d0: fa44 3e3c bcca 5f3e f0da c73d d2f0 b13d
000001e0: ae90 ff3d 6bd9 333e bc28 52bd bb19 103d
000001f0: 7995 fe3d 5113 883d 904d 613e cd64 18be
00000200: aa8e 803c 3d27 f83d 7198 56be 7389 a2bd
00000210: bacb 893d 93ae 133e bacb 793e 14f3 f1bc
00000220: a82b 0f3e 6d23 12be f577 28be 4efd 4bbb
00000230: 2d8d 15bd 7cec c73d 8fdb a7bd f382 0a3e
00000240: 8263 44bd ee62 653c e3e0 e6bc 2c1e 523e
00000250: 5f9c 27bb 482c 4f3e 1acf 5fbe acc3 61bd
00000260: af36 363e 705e 083e 80be 82bc 4b2a 1d3e
00000270: 3086 303e eb4f 40be 1925 f6bb da4a 9d3d
00000280: 0f27 19be 9419 183e c96d 03be 492a a8bd
00000290: 7264 ccbc 6f0b 7cbd 4693 483e 0377 053e
000002a0: 29f3 783d a4c8 953d 26a8 ce3d e831 a8ba
000002b0: 2278 72be a483 24be 7e50 aebd b50c 893d
000002c0: 6b23 d8bd 2625 2b3d 7a75 143d b2c1 873e
000002d0: 8c44 32bd a816 093e bc02 b1bd a92f 41be
000002e0: 9df4 c2bb 87bf 7f3d f07a 173e 0c20 603d
000002f0: e403 0b3e 0393 02be 70bf 28bd eb03 2e3e
00000300: a712 0bbe fec5 143e c517 a2bd faa0 c43d
00000310: 97f4 a73d 356a 1d3e 0449 40bd f9e3 89bc
00000320: 53ba 14bd b162 823e 4bba 8ebc ac1d 88bd
00000330: 171d ed3c d74a 6a3d fd6c e6bd aecc f3bd
00000340: 0859 88bd 575a 033e a9d6 09bc 3e8f 823c
00000350: 04bd b93d e3dd 42bc c09a 283e b31e d9bd
00000360: 7df8 5c3e 6494 51bc 791a fb3d f203 f73c
00000370: 1af2 69be 740d 0d3e 79cb dabd 8737 d0bd
00000380: 4821 283e ab75 103d ccca adbd 2b29 c4bd
00000390: df54 fa3d b4ca 53be 5be8 ef3d c9c2 d13d
000003a0: 2223 13be dfd1 573d 4bff 20be ded4 4fbd
000003b0: c5a7 afbd b88e fe3d 506c 4ebd 4ab7 a7bd
000003c0: c548 87bd 60dd 473e 750f 2cbd 1882 193e
000003d0: 599b 123e 603c c5bc 5386 623d 53a2 ea3d
000003e0: 9279 97bc 80d6 3dbd a7c0 72bd aca7 e13c
000003f0: 0c9e 49be 441f 8cbd 476e 7c3e 7bd1 db3d

recurs2.bias_ih f4 [120]
0.27610773 0.26377636 0.00063939026 0.13296653 -0.0018864914 0.058260504 0.07365695 0.27701214
0.10390854 0.211401 -0.049667668 0.11291474 0.1537791 0.015972465 0.12508725 0.14377666
0.27892712 0.104822405 0.088231705 0.22734246 0.063150674 0.23816861 0.25922176 0.0019184122
0.18250132 0.055809017 0.26952833 0.08765844 0.118603095 0.2506668 0.110562146 0.17232932
-0.021630364 -0.0423201 0.07081656 0.26295704 0.21466725 0.003668075 0.23723777 -0.090049766
0.20490795 0.03913498 -0.03607845 0.11807674 0.18810678 0.21349527 0.0017529384 0.08630255
0.1399947 0.057558805 0.05221004 0.20977399 0.008982326 0.22533694 -0.065675795 -0.00065248896
0.105295874 0.005598179 -0.061720338 0.036902767 -0.07539993 0.1120286 0.14157894 -0.066944644
0.12272639 0.13879867 0.12290314 -0.12842749 -0.12692021 -0.08425346 0.0027925523 0.058043152
-0.21386659 0.15237781 0.28329948 0.029679911 0.043182135 0.020644255 -0.110306166 -0.1851391
0.16273378 0.21103016 0.010729233 -0.16960968 -0.0037601464 -0.1445319 0.036469195 0.1777308
0.19264339 0.21376882 0.15522794 0.2960317 0.08106504 0.14377455 -0.014396082 0.21885146
0.16710554 0.17913502 0.2329666 0.18468972 -0.05928146 0.08974377 -0.031436 0.25168073
0.08750539 -0.01846137 0.21270719 0.010454481 0.106217355 0.22590183 0.21125682 0.21171166
0.10971157 0.07745098 0.1371813 -0.087480314 0.0589453 0.23698686 0.23576361 -0.05418906
00000000: fe5d 8d3e b20d 873e c19c 273a 6128 083e
00000010: 2644 f7ba 91a2 6e3d 74d9 963d 89d4 8d3e
00000020: 00ce d43d 8179 583e 5370 4bbd d83f e73d
00000030: 4578 1d3e b0d8 823c df16 003e 303a 133e
00000040: 89cf 8e3e 21ad d63d d3b2 b43d 76cc 683e
00000050: 2455 813d 79e2 733e b7b8 843e 3b73 fb3a
00000060: a0e1 3a3e ff97 643d 9eff 893e 4586 b33d
00000070: 2ee6 f23d 6657 803e 686e e23d 1977 303e
00000080: 2932 b1bc d757 2dbd 4608 913d 4ea2 863e
00000090: bbd1 5b3e 1664 703b 75ee 723e 036c b8bd
000000a0: 64d3 513e 004c 203d ffc6 13bd 38d2 f13d
000000b0: 109f 403e 819e 5a3e dac2 e53a 64bf b03d
000000c0: c55a 0f3e c8c2 6b3d 32da 553d fece 563e
000000d0: 9b2a 133c babe 663e 0881 86bd cb0b 2bba
000000e0: 5da5 d73d ee70 b73b 77ce 7cbd 5b27 173d
000000f0: 476b 9abd 406f e53d 12fa 103e 461a 89bd
00000100: f957 fb3d 3d21 0e3e a4b4 fb3d 7f82 03be
00000110: 5ff7 01be 148d acbd 4103 373b a8be 6d3d
00000120: d8ff 5abe ee08 1c3e a10c 913e 4923 f33c
00000130: c0df 303d 241e a93c 33e8 e1bd 1b95 3dbe
00000140: afa3 263e 4a18 583e aac9 2f3c 29ae 2dbe
00000150: ca6c 76bb 2c00 14be b960 153d 10ff 353e
00000160: 4f44 453e 37e6 5a3e 13f4 1e3e 7891 973e
00000170: 6d05 a63d a339 133e 8bdd 6bbc 991a 603e
00000180: b71d 2b3e 2c6f 373e cc8e 6e3e 4d1f 3d3e
00000190: 1ed1 72bd 95cb b73d 09c3 00bd 4cdc 803e
000001a0: 0736 b33d 4d3c 97bc eacf 593e 4549 2b3c
000001b0: 7c88 d93d cf52 673e b553 583e f1ca 583e
000001c0: 76b0 e03d 9f9e 9e3d 4179 0c3e e128 b3bd
000001d0: a070 713d afac 723e 046c 713e 59f5 5dbd

recurs2.bias_hh f4 [120]
0.1613385 0.2877608 -0.023460228 0.14062479 0.021319915 0.15072791 0.013186664 0.2727221
0.20775734 -0.00319255 -0.027095355 0.053149603 0.10859391 0.14948757 0.045628663 0.03309602
0.12886351 -0.017140996 0.15775609 -0.040951714 0.09858835 -0.03323625 0.03355459 0.11113659
0.07147806 -0.017781042 0.14735538 0.018168148 0.16327545 0.17102864 0.06289512 -0.10820209
-0.00480377 0.098624974 0.0946558 -0.036690332 0.20377927 0.12693803 0.09641239 0.034048412
0.0039991285 0.116028525 0.18458903 0.040904626 0.11697955 0.2041743 0.17078012 0.041715015
0.13252798 0.11924468 0.14678264 -0.01650527 0.08286042 0.11376393 -0.08397899 0.11365276
-0.063381314 0.16861439 0.03879947 0.115673766 -0.13112195 0.1205094 0.1715257 0.12717478
0.07586993 -0.07560139 0.16911115 0.039022665 -0.1541599 -0.08167207 -0.055419695 0.037406098
-0.039619923 0.14534962 0.08726394 0.013960884 0.006222173 0.09923932 -0.13505863 0.13119777
-0.01981299 0.16329235 -0.10740808 -0.07657857 -0.0045469343 -0.046227884 -0.1422439 -0.15388629
-0.1415882 0.23534465 0.20412213 0.057616383 0.2286936 0.1251218 0.10072315 0.032009877
-0.016490046 0.22753952 0.2839786 -0.15411308 0.13595997 0.18243024 0.014809089 0.031985525
-0.042759918 0.19355345 0.30992877 0.18716311 0.08003929 0.17157169 -0.008970866 0.0042239306
0.17028342 0.2533671 0.14020619 0.03876009 0.14131968 -0.08410039 0.25277835 0.0012824103
00000000: eb35 253e 6255 933e aa2f c0bc f2ff 0f3e
00000010: 1aa7 ae3c 6b58 1a3e e10c 583c 3ba2 8b3e
00000020: 57be 543e 1a3a 51bb 14f7 ddbc 66b3 593d
00000030: 7c66 de3d 4513 193e 1fe5 3a3d b18f 073d
00000040: ccf4 033e 466b 8cbc d08a 213e fcbc 27bd
00000050: b0e8 c93d bc22 08bd 8a70 093d 959b e33d
00000060: 1763 923d 8ca9 91bc 54e4 163e 5ed5 943c
00000070: ae31 273e 2222 2f3e 28cf 803d 0f99 ddbd
00000080: f268 9dbb e4fb c93d e6da c13d 9a48 16bd
00000090: 83ab 503e 0bfc 013e dc73 c53d 5976 0b3d
000000a0: 1f0b 833b 5da0 ed3d e804 3d3e 9c8b 273d
000000b0: f992 ef3d 1113 513e fce0 2e3e 5ddd 2a3d
000000c0: 6ab5 073e 8e36 f43d 304e 163e 0f36 87bc
000000d0: b9b2 a93d 10fd e83d 2dfd abbd c7c2 e83d
000000e0: 10ce 81bd 40a9 2c3e 31ec 1e3d 5ee6 ec3d
000000f0: d544 06be a2cd f63d 6fa4 2f3e 1b3a 023e
00000100: b261 9b3d e7d4 9abd 792b 2d3e 3bd6 1f3d
00000110: 18dc 1dbe b043 a7bd c3ff 62bd 2337 193d
00000120: 8048 22bd 88d6 143e 70b7 b23d 31bc 643c
00000130: 5fe3 cb3b fc3d cb3d cf4c 0abe b558 063e
00000140: da4e a2bc 1c36 273e c4f8 dbbd 3ad5 9cbd
00000150: 73fe 94bb 7359 3dbd 63a8 11be 5e94 1dbe
00000160: 7ffc 10be 30fe 703e 6405 513e 28ff 6b3d
00000170: a82e 6a3e ee1f 003e f047 ce3d ca1c 033d
00000180: 2216 87bc 1f00 693e a565 913e d2cf 1dbe
00000190: 1739 0b3e fece 3a3e d2a1 723c 4103 033d
000001a0: 0625 2fbd e032 463e fcae 9e3e b0a7 3f3e
000001b0: a4eb a33d 7db0 2f3e 8afa 12bc e668 8a3b
000001c0: c75e 2e3e 55b9 813e 3692 0f3e e6c2 1e3d
000001d0: 1bb6 103e d33c acbd 2a6c 813e 8d16 a83a

output.weight f4 [2, 30]
-0.11930835 -0.07596477 0.12092264 -0.06463119 0.061957702 -0.098915696 0.1673642 -0.18246585
-0.19111206 -0.2428783 0.043145876 0.07616623 -0.1912789 0.0094015915 0.24606337 0.06664851
0.17712519 -0.033434644 -0.08461622 0.10505732 0.100209005 -0.041667327 -0.06666807 0.0729556
0.068113 -0.118207395 -0.2313228 0.18499419 -0.040882234 0.058593806 0.2688378 0.21684323
0.17443785 0.22239487 -0.12089766 0.17042284 -0.1793168 0.17166863 0.20039292 0.07105326
-0.19924429 -0.14458339 -0.14198303 -0.21142572 0.14849368 0.25457066 0.16746804 -0.21217611
0.25041717 -0.2313859 0.18242377 0.11005892 0.18504047 0.16538195 -0.32225448 0.13650265
-0.13495997 -0.24606292 0.267206 0.13064072
00000000: f057 f4bd 6b93 9bbd 4aa6 f73d 5b5d 84bd
00000010: 5cc7 7d3d 5094 cabd 8561 2b3e 54d8 3abe
00000020: e1b2 43be 17b5 78be bbb9 303d 0afd 9b3d
00000030: 9ede 43be 2209 1a3c 09f8 7b3e 047f 883d
00000040: 4e60 353e c4f2 08bd 454b adbd 4b28 d73d
00000050: 613a cd3d 5cab 2abd 4589 88bd bf69 953d
00000060: d47e 8b3d b816 f2bd e2df 6cbe 1e6f 3d3e
00000070: 2174 27bd 0f00 703d 1ca5 893e 270c 5e3e
00000080: d69f 323e 7bbb 633e 3199 f7bd 5383 2e3e
00000090: d39e 37be e7c9 2f3e cd33 4d3e 5f84 913d
000000a0: b206 4cbe ab0d 14be 0064 11be fc7f 58be
000000b0: ba0e 183e 1657 823e be7c 2b3e b244 59be
000000c0: ae36 803e 6df0 6cbe 4ccd 3a3e 9266 e13d
000000d0: 407b 3d3e e359 293e 8afe a4be 5ac7 0b3e
000000e0: f232 0abe ebf7 7bbe 3acf 883e aec6 053e

output.bias f4 [2]
0.077937536 0.007057756
00000000: b79d 9f3d c044 e73b

switch.weight f4 [1, 30]
0.12662345 -0.06601184 -0.10145917 -0.05900375 -0.04655827 0.074951574 -0.031797577 0.08650247
-0.14290485 0.024834102 0.14345963 -0.021569556 0.14882301 0.054866876 -0.17685694 -0.107170165
0.14308262 -0.032719113 0.17612243 -0.17543347 -0.0956741 0.14136995 0.16589676 -0.16401663
0.057001196 -0.1818962 -0.13012877 0.07987398 -0.09290475 -0.015959483
00000000: 94a9 013e 3731 87bd d3c9 cfbd ebad 71bd
00000010: e2b3 3ebd 3680 993d 2d3e 02bd 3528 b13d
00000020: a655 12be e370 cb3c 15e7 123e a3b2 b0bc
00000030: 0f65 183e 17bc 603d fc19 35be 087c dbbd
00000040: 4084 123e 7a04 06bd 7059 343e d5a4 33be
00000050: c8f0 c3bd 49c3 103e d7e0 293e faf3 27be
00000060: 167a 693d ff42 3abe 7a40 05be f894 a33d
00000070: d844 bebd 76bd 82bc
