checkpoints/VQE-H2-042e9639/model.pth (torch, 49793 bytes, 11 tensors)

recurs1.weight_ih f4 [120, 2]
-0.07137319 0.31763592 -0.25051254 -0.053601135 -0.11554008 -0.12027971 -0.047833752 0.16431563
-0.11521628 0.086755715 -0.17720619 0.1575492 -0.2482127 -0.044341903 -0.10773721 0.17025839
-0.041639294 0.29522374 -0.23351628 -0.24945183 -0.033496656 0.16644226 -0.03752785 0.18393528
-0.15053874 -0.1028413 0.07018765 -0.010395389 -0.16827562 0.12968136 -0.13929252 0.053976588
-0.19462317 -0.1947087 -0.21765281 -0.21955155 -0.1627788 0.30978686 -0.009550253 0.21938439
-0.052450597 -0.06577276 -0.00039764895 -0.17199731 -0.19854468 -0.29815 -0.025171509 -0.08273326
-0.12442434 0.06475488 0.016592322 0.35385334 -0.0049563493 0.1815831 0.12848438 -0.15838137
0.0031955452 -0.052521456 -0.23372127 -0.104864225 0.07056075 0.28932926 -0.13246076 0.1843595
0.077834934 -0.2053368 -0.025613124 0.03410676 0.12745824 0.27821472 -0.18907239 0.130985
0.07560495 0.20474048 0.18072754 0.3325298 0.02167182 0.041851807 -0.02054198 -0.2728847
-0.17099492 0.21184953 0.16109322 -0.12075655 -0.016923897 -0.16812782 -0.07756532 0.089606315
0.055998344 0.09210116 0.07907707 -0.039856136 0.12807123 -0.054561816 -0.17836457 -0.17626984
0.09497619 0.20971438 -0.1874822 0.04930274 0.122460075 0.14503145 -0.055778816 -0.024171216
-0.18097402 -0.20550239 -0.18906023 -0.34146702 -0.028310135 0.14600794 -0.122316286 0.2931055
-0.13998953 0.32912037 0.15553345 -0.17467652 -0.019080998 0.08796159 0.041244023 0.046987265
0.019112755 0.22084059 -0.063076526 0.2634366 -0.21560782 -0.24210893 -0.114507794 -0.109826274
-0.054018702 -0.37218317 -0.106512815 0.23610927 -0.09436573 -0.21223716 0.14818788 -0.2192864
0.038031876 -0.23543718 0.08232216 0.27954566 0.15755136 0.29029328 0.15936437 0.19745322
-0.17005599 -0.2566411 0.2092811 -0.13488868 -0.19264875 -0.0005596344 -0.17724432 -0.34304246
-0.008708742 0.29288045 0.080179445 -0.36519897 0.118892625 -0.3290007 -0.0062566013 -0.24913424
0.024163865 -0.07216511 -0.19025734 -0.36812523 -0.082321 -0.16605575 -0.062086042 0.28208143
-0.21885234 0.053866502 0.23155433 -0.25196764 0.09062716 0.21522401 -0.13210388 0.303998
-0.01294675 -0.28807074 0.15014769 -0.3691789 -0.03307077 0.19356515 0.046469454 0.16815947
0.035258796 -0.12750328 -0.086946115 -0.10202035 -0.24827431 0.1567366 0.08589238 0.35396793
-0.19478974 0.10252811 -0.15507542 0.09016178 -0.16243273 0.28627533 -0.20066752 -0.20389797
-0.062013116 0.17586474 -0.14864892 -0.044680856 -0.20796773 -0.029609352 -0.10997276 0.34215927
0.05782775 0.22953525 -0.03442816 -0.1773263 -0.021113027 -0.17588525 -0.08774006 -0.04690409
-0.18014961 0.09805714 0.05087954 0.024446243 -0.085463956 0.20289962 0.05381261 0.017341139
-0.22853823 -0.12504236 -0.24173124 -0.26244086 -0.092027925 0.09794775 -0.05458835 0.36057615
-0.021881586 0.35808617 0.112327784 -0.18025132 0.06522813 -0.03594861 -0.1677464 0.027485238
00000000: 1b2c 92bd 2da1 a23e 2e43 80be dd8c 5bbd
00000010: 47a0 ecbd 3555 f6bd 53ed 43bd 5b42 283e
00000020: 83f6 ebbd fbac b13d 8a75 35be 9454 213e
00000030: 782b 7ebe db9f 35bd 54a5 dcbd 3758 2e3e
00000040: f78d 2abd 9127 973e e41e 6fbe 4d70 7fbe
00000050: ca33 09bd d76f 2a3e ceb6 19bd 8859 3c3e
00000060: d426 1abe 769e d2bd 8bbe 8f3d 6c51 2abc
00000070: 7250 2cbe 31cb 043e b3a2 0ebe 8e16 5d3d
00000080: 4c4b 47be b861 47be 61e0 5ebe 1fd2 60be
00000090: 7caf 26be 629c 9e3e aa78 1cbc 4da6 603e
000000a0: 70d6 56bd deb3 86bd 8a7b d0b9 1020 30be
000000b0: 4c4f 4bbe 1ea7 98be 7b34 cebc 0e70 a9bd
000000c0: 30d2 febd 359e 843d 9fec 873c 442c b53e
000000d0: df68 a2bb ecf0 393e 6991 033e ba2e 22be
000000e0: 5a6c 513b bd20 57bd a154 6fbe 0ec3 d6bd
000000f0: 2882 903d f722 943e cba3 07be bdc8 3c3e
00000100: ec67 9f3d cf43 52be 9dd2 d1bc 88b3 0b3d
00000110: 6a84 023e 2972 8e3e 319c 41be ef20 063e
00000120: c5d6 9a3d 7da7 513e a410 393e 5941 aa3e
00000130: 1a89 b13c cd6c 2b3d a847 a8bc 8bb7 8bbe
00000140: 4b19 2fbe 15ef 583e 9ff5 243e 364f f7bd
00000150: fca3 8abc b329 2cbe 91da 9ebd 8483 b73d
00000160: 855e 653d 889f bc3d 29f3 a13d 3040 23bd
00000170: 1b25 033e 367c 5fbd 34a5 36be 1580 34be
00000180: e082 c23d 5ebf 563e 55fb 3fbe abf1 493d
00000190: 59cc fa3d 2083 143e 5478 64bd b702 c6bc
000001a0: 4151 39be 386f 52be 0199 41be c4d4 aebe
000001b0: a8ea e7bc 1b83 153e f680 fabd ed11 963e
000001c0: 6a59 0fbe 7782 a83e 2944 1f3e 67de 32be
000001d0: c14f 9cbc 3525 b43d 7eef 283d b875 403d
000001e0: 5a92 9c3c 0924 623e 442e 81bd 29e1 863e
000001f0: 4cc8 5cbe 67eb 77be 1083 eabd 99ec e0bd
00000200: b742 5dbd cb8e bebe 6423 dabd a1c6 713e
00000210: d242 c1bd b354 59be 90be 173e 9d8c 60be
00000220: 50c7 1b3d 7216 71be 8598 a83d 9c20 8f3e
00000230: 2555 213e 52a1 943e 6a30 233e 2d31 4a3e
00000240: 2823 2ebe 7666 83be c94d 563e 4220 0abe
00000250: b745 45be 6eb4 12ba 897f 35be 43a3 afbe
00000260: 1daf 0ebc 6df4 953e 1f35 a43d 5cfb babe
00000270: fa7d f33d c872 a8be 2d04 cdbb 0c1d 7fbe
00000280: 4cf3 c53c 4dcb 93bd d2d2 42be e97a bcbe
00000290: ea97 a8bd 850a 2abe ef4d 7ebd fa6c 903e
000002a0: d41a 60be 1fa3 5c3d 941c 6d3e e701 81be
000002b0: bc9a b93d af63 5c3e 3d46 07be a0a5 9b3e
000002c0: 9b1e 54bc 027e 93be 51c0 193e 0405 bdbe
000002d0: 3775 07bd f135 463e c156 3e3d ff31 2c3e
000002e0: 876b 103d 3890 02be ce10 b2bd 0cf0 d0bd
000002f0: 9f3b 7ebe 8f7f 203e 58e8 af3d 493b b53e
00000300: f676 47be 42fa d13d 17cc 1ebe bda6 b83d
00000310: c454 26be ae92 923e c97b 4dbe a1ca 50be
00000320: 7701 7ebd e315 343e 6c37 18be 4603 37bd
00000330: 7ef5 54be 508f f2bc 6639 e1bd 802f af3e
00000340: cadc 6c3d 4a0b 6b3e 8b04 0dbd 0795 35be
00000350: 3af5 acbc 431b 34be 10b1 b3bd 811e 40bd
00000360: 2479 38be 2fd2 c83d 1167 503d 7d43 c83c
00000370: ba07 afbd ebc4 4f3e 9d6a 5c3d 010f 8e3c
00000380: ed05 6abe 1b0b 00be 6588 77be a65e 86be
00000390: 2379 bcbd d498 c83d 0998 5fbd 709d b83e
000003a0: 0341 b3bc 1257 b73e 1c0c e63d cd93 38be
000003b0: 5396 853d da3e 13bd b6c5 2bbe b928 e13c

recurs1.weight_hh f4 [120, 30]
0.106062606 0.2222714 -0.02740744 0.061824996 0.016026316 -0.12047483 0.081287265 -0.19482572
-0.039994963 -0.064705506 -0.0074382382 0.06842953 0.04675152 -0.11031261 -0.07170521 -0.092385024
-0.16340701 -0.015342048 -0.1421299 -0.18332005 -0.18515392 0.057793353 0.14604798 0.14178014
0.11324609 -0.12415069 0.013481709 0.06611868 0.09801787 -0.016723545 -0.0073965383 -0.023750618
-0.08103987 0.15189095 -0.141534 -0.07713291 0.13480102 -0.17942013 -0.093156956 -0.03315046
0.055163205 -0.11162777 -0.100279994 0.05631374 0.11221698 0.19512759 -0.11343977 0.06888302
-0.117889985 -0.08624069 -0.216626 0.037355945 0.110949755 -0.06847542 0.048893876 -0.20119773
0.21395808 -0.1602839 0.03850646 -0.08884014 -0.15815982 -0.108884186 -0.007610691 0.10827278
0.16364866 -0.2155834 0.13153265 0.19291645 0.17276414 -0.10909906 -0.2829676 -0.12710886
0.16097401 -0.060944892 0.08116915 0.21168078 -0.18653713 0.11573698 0.19299813 0.07372704
-0.016776867 0.12448992 -0.06132901 -0.076630995 0.1430782 0.24409346 0.0546007 -0.07211486
0.18415047 0.026971016 -0.11040939 -0.14487953 0.2381311 0.21545954 -0.12315929 0.11023097
0.14475556 0.17797469 0.14779918 0.08095659 -0.037214406 -0.0777921 0.2146562 0.022060772
-0.03451357 0.21019012 0.03851378 0.13172401 -0.11883107 -0.0053183706 -0.16689417 0.16336182
0.051879983 0.013622924 0.11187809 0.032660656 -0.006372017 0.03984911 -0.11017252 0.05637115
-0.018927043 -0.11912056 -0.103411086 0.24225466 0.071814716 0.28491732 0.11396788 -0.24885942
-0.22931482 -0.075639404 -0.08206768 0.15245779 -0.10933235 -0.20878804 -0.047427 -0.1140765
0.12891608 0.15781818 0.02065846 0.058056436 0.05018025 -0.0742774 0.05579519 0.13104846
0.17725196 0.06606899 0.2091087 0.12937947 -0.11648278 0.07418835 0.095451385 0.08020273
-0.035370994 0.013533643 -0.20158836 0.2231294 0.09274587 -0.07905395 -0.1714278 0.122846134
0.22948316 0.035385184 -0.11458086 0.057873644 0.16591157 -0.172861 0.211369 0.06517499
-0.15387373 -0.008934945 -0.23774491 -0.053623404 0.18824139 0.0105052125 -0.030669995 -0.17869213
0.071349144 -0.014136714 -0.009668257 0.10866491 0.10100343 -0.039819974 0.056418948 0.13528135
0.037414003 -0.0739515 -0.05017668 -0.2129659 -0.1614997 0.012052319 -0.066199414 0.061109826
0.11370797 -0.08888482 -0.01646898 -0.07430986 0.05004314 -0.20877588 -0.010366236 -0.22965732
-0.25203013 -0.19711989 -0.0263713 0.0912947 -0.09342532 0.05456103 0.021560516 0.056839958
-0.027533498 -0.21562606 0.19883034 0.17196828 0.13190787 0.08756387 -0.19346566 0.20807137
-0.034961775 0.036285922 -0.19680531 -0.05008064 -0.10437118 -0.03822114 -0.079929605 -0.19069919
0.1020663 0.03261642 0.08816515 -0.21792713 -0.20203847 -0.100676276 0.04232873 0.121078715
0.07110584 0.0060883584 0.09836356 -0.23620068 -0.098659195 0.14204372 -0.16631398 0.0009186263
-0.048972093 0.023865495 -0.11300785 0.1774498 -0.10732669 0.23726867 0.049965642 0.026568681
-0.07836701 -0.0697198 0.07098744 0.05108035 0.04484381 -0.22772458 0.24579972 -0.055801995
00000000: 5a37 d93d 1d9b 633e 9185 e0bc 353c 7d3d
00000010: 9f49 833c 82bb f6bd f079 a63d 6580 47be
00000020: c2d1 23bd 5284 84bd 77bc f3bb c824 8c3d
00000030: 867e 3f3d 94eb e1bd 2eda 92bd 5c34 bdbd
00000040: 2b54 27be 375d 7bbc 808a 11be 40b8 3bbe
00000050: fd98 3dbe b9b8 6c3d 9a8d 153e d02e 113e
00000060: 91ed e73d b842 febd 63e2 5c3c 3b69 873d
00000070: 98bd c83d d1ff 88bc a95e f2bb a890 c2bc
00000080: 3bf8 a5bd 4d89 1b3e 4aee 10be dcf7 9dbd
00000090: 4709 0a3e e9b9 37be 13c9 bebd c7c8 07bd
000000a0: d0f2 613d 1a9d e4bd 995f cdbd 3ca9 663d
000000b0: 04d2 e53d 87cf 473e 1c53 e8bd 8a12 8d3d
000000c0: 4e70 f1bd f59e b0bd 35d3 5dbe 8c02 193d
000000d0: a039 e33d d73c 8cbd f244 483d c706 4ebe
000000e0: d417 5b3e 7621 24be f3b8 1d3d d2f1 b5bd
000000f0: a6f4 21be acfe debd 1a63 f9bb 1fbe dd3d
00000100: 8493 273e e5c1 5cbe 7fb0 063e e48b 453e
00000110: 15e9 303e 546f dfbd 21e1 90be d328 02be
00000120: 5fd6 243e 5aa1 79bd 033c a63d d9c2 583e
00000130: 9703 3fbe 8307 ed3d 4da1 453e 34fe 963d
00000140: a46f 89bc 92f4 fe3d 2134 7bbd b6f0 9cbd
00000150: 1783 123e a3f3 793e fca4 5f3d f5b0 93bd
00000160: f191 3c3e 52f2 dc3c 511e e2bd 4d5b 14be
00000170: a4d8 733e 6da1 5c3e f03a fcbd c6c0 e13d
00000180: cd3a 143e ff3e 363e ab58 173e 92cc a53d
00000190: 226e 18bd 7751 9fbd d6ce 5b3e cbb8 b43c
000001a0: 1a5e 0dbd 143c 573e a0c0 1d3d a9e2 063e
000001b0: b45d f3bd ba45 aebb 4ee6 2abe 5248 273e
000001c0: 1b80 543d af32 5f3c 5720 e53d 2ec7 053d
000001d0: 5acc d0bb d238 233d 21a2 e1bd 6fe5 663d
000001e0: e30c 9bbc 7bf5 f3bd 31c9 d3bd 9b11 783e
000001f0: 9813 933d afe0 913e fe67 e93d 01d5 7ebe
00000200: 81d1 6abe d5e8 9abd 1a13 a8bd e51d 1c3e
00000210: a4e9 dfbd 88cc 55be d042 42bd f1a0 e9bd
00000220: 9402 043e 179b 213e ee3b a93c 96cc 6d3d
00000230: ce89 4d3d c01e 98bd 7f89 643d 9131 063e
00000240: 8a81 353e 2e4f 873d 9720 563e 0d7c 043e
00000250: 868e eebd 10f0 973d 047c c33d 5441 a43d
00000260: 2de1 10bd 37bc 5d3c 2e6d 4ebe 097c 643e
00000270: 8cf1 bd3d 0ae7 a1bd c58a 2fbe c196 fb3d
00000280: a2fd 6a3e 0ef0 103d 5fa9 eabd ea0c 6d3d
00000290: b9e4 293e 7902 31be 1d71 583e 777a 853d
000002a0: 1391 1dbe e063 12bc 6773 73be 37a4 5bbd
000002b0: 5ac2 403e 0e1e 2c3c a43f fbbc 12fb 36be
000002c0: 801f 923d ad9d 67bc 9c67 1ebc b58b de3d
000002d0: e3da ce3d 451a 23bd 8e17 673d 3287 0a3e
000002e0: 6d3f 193d e273 97bd 1086 4dbd bc13 5abe
000002f0: 2d60 25be 1777 453c 8f93 87bd 4c4e 7a3d
00000300: b9df e83d 3f09 b6bd f4e9 86bc c52f 98bd
00000310: 09fa 4c3d 58c9 55be 25d7 29bc 4a2b 6bbe
00000320: 180a 81be ccd9 49be a008 d8bc b7f8 ba3d
00000330: c655 bfbd 637b 5f3d ae9f b03c 04d1 683d
00000340: ee8d e1bc 14cd 5cbe 2e9a 4b3e 7418 303e
00000350: db12 073e b054 b33d dd1b 46be a910 553e
00000360: 1434 0fbd 8ca0 143d 5587 49be 5b21 4dbd
00000370: 8fc0 d5bd c58d 1cbd 22b2 a3bd a646 43be
00000380: 2308 d13d cc98 053d ee8f b43d 4a28 5fbe
00000390: 2ce3 4ebe 5d2f cebd e460 2d3d 1ef8 f73d
000003a0: f09f 913d da80 c73b d672 c93d 97de 71be
000003b0: d50d cabd e973 113e 364e 2abe f8cf 703a
000003c0: f696 48bd 9281 c33c a970 e7bd 66b5 353e
000003d0: 18ce dbbd 8ff6 723e c6a8 4c3d 90a6 d93c
000003e0: e27e a0bd 41c9 8ebd dd61 913d a139 513d
000003f0: 25ae 373d a230 69be ecb2 7b3e a290 64bd

recurs1.bias_ih f4 [120]
-0.07199401 -0.026937913 0.023680009 0.2586145 0.21130313 0.17592165 0.08180016 0.24004519
0.13166516 0.18368153 0.16038556 0.11495888 0.1979439 0.2581546 0.19405313 0.12663765
0.19201952 0.08265691 0.19877928 0.17314407 0.23278114 0.08756938 -0.07397319 0.18769895
0.17151366 0.26807508 0.17433506 0.12216429 0.23605262 0.10617466 0.18811102 0.14699486
0.17807066 0.23418179 -0.116316386 0.16018291 0.17907165 -0.12292068 0.017193599 -0.07338862
-0.016774777 0.025755394 0.16353476 0.030469045 -0.11566894 0.11224756 0.13671337 0.0025242858
0.1634803 0.2116303 0.044433013 0.01549906 0.05320186 0.028129768 0.033107404 -0.027824042
-0.054632425 0.07787578 -0.054467857 -0.064964175 0.21646437 -0.002329734 0.19821748 0.29700756
-0.026731862 0.08661643 0.17635304 -0.1232002 -0.08037286 -0.05296834 -0.013194888 0.046843182
0.124954164 -0.19624163 0.13698432 0.19054231 -0.1521573 -0.09015409 -0.11762194 0.05053985
-0.25876102 -0.05076896 0.20900068 -0.1688653 0.25307462 -0.152193 0.120730184 -0.029132076
0.012457106 0.12461902 0.23817044 0.012926433 0.17623831 0.16444167 0.15177973 -0.039909404
0.16557962 0.19398679 -0.06738115 -0.064826705 -0.03656928 0.12599184 0.078459196 0.030546375
0.22325805 0.035964847 -0.022627544 0.152862 -0.037053116 0.078873664 0.21322255 0.13637632
-0.052330796 0.29986608 0.22186077 -0.049483165 0.15333208 0.12069797 -0.06634683 0.0308918
00000000: 9871 93bd e6ac dcbc 94fc c13c 1f69 843e
00000010: d95f 583e ce24 343e d886 a73d 68ce 753e
00000020: 3bd3 063e 0317 3c3e 1d3c 243e 906f eb3d
00000030: ceb1 4a3e d72c 843e ddb5 463e 4dad 013e
00000040: c4a0 443e 0748 a93d cc8c 4b3e ae4c 313e
00000050: 2e5e 6e3e 9357 b33d 417f 97bd 2734 403e
00000060: 47a1 2f3e 2341 893e e484 323e 4531 fa3d
00000070: c7b7 713e 1a72 d93d 2da0 403e d285 163e
00000080: 2858 363e 5acd 6f3e 4937 eebd fd06 243e
00000090: 8f5e 373e d6bd fbbd 97d9 8c3c c64c 96bd
000000a0: 426b 89bc fafc d23c a875 273e 389a f93c
000000b0: d6e3 ecbd 0ce2 e53d 97fe 0b3e 7d6e 253b
000000c0: 6167 273e 9db5 583e 64ff 353d c5ef 7d3c
000000d0: 32ea 593d 6670 e63c a19b 073d 3fef e3bc
000000e0: 40c6 5fbd 567d 9f3d b019 5fbd f00b 85bd
000000f0: d6a8 5d3e 73ae 18bb 86f9 4a3e 6011 983e
00000100: c7fc dabc f463 b13d e495 343e 6350 fcbd
00000110: 879a a4bd 55f5 58bd 5f2f 58bc a3de 3f3d
00000120: f8e7 ff3d 91f3 48be 9e45 0c3e 861d 433e
00000130: 20cf 1bbe b5a2 b8bd c6e3 f0bd e002 4f3d
00000140: 537c 84be 1df3 4fbd 4604 563e 06eb 2cbe
00000150: ff92 813e 7bd8 1bbe 6341 f73d 64a6 eebc
00000160: e418 4c3c 4238 ff3d f4e2 733e 64c9 533c
00000170: d177 343e 6663 283e 256c 1b3e 0b78 23bd
00000180: b48d 293e 79a4 463e 21ff 89bd ddc3 84bd
00000190: abc9 15bd 0104 013e 37af a03d 643c fa3c
000001a0: c29d 643e e04f 133d 665d b9bc db87 1c3e
000001b0: 02c5 17bd 8488 a13d 0357 5a3e 3ca6 0b3e
000001c0: d158 56bd 0c88 993e 782f 633e dcae 4abd
000001d0: 1603 1d3e 7f30 f73d d9e0 87bd cd10 fd3c

recurs1.bias_hh f4 [120]
-0.060690682 0.21328582 0.09465955 0.1964967 0.076586924 0.2787753 0.15350014 -0.07180978
0.08396255 0.21520917 0.19762866 0.0585383 0.009504574 0.004476808 0.24643819 -0.0013129616
0.2484062 0.076452285 0.07580775 -0.055897 0.035647593 0.2699816 -0.08882081 0.24349663
-0.056394063 0.14718005 -0.061957482 -0.08982473 -0.05663268 0.105610654 0.051770117 -0.08046823
0.1024102 0.21393421 0.18167862 0.2267472 0.1292383 -0.04841984 0.01601561 0.19957228
0.11813462 -0.049870532 0.20371744 -0.07608291 0.21347404 0.11581554 -0.09962731 -0.113287404
0.14996044 0.25099653 0.100605406 -0.06288941 0.12500162 0.14627394 0.055301394 0.20076197
0.16753505 0.032211635 0.09454348 -0.14839296 -0.029883495 -0.0115069 0.11613586 0.105669364
0.067925155 0.11500043 -0.16165441 0.06000453 -0.040476326 -0.20458609 0.005353027 -0.0466672
-0.06800258 -0.2874955 0.27550283 -0.085511826 -0.024325462 0.17991458 -0.0006065584 -0.17825721
-0.2679309 0.068352334 -0.0059178304 -0.046101164 0.1629207 -0.11857567 0.21564114 -0.07678979
-0.055927657 -0.10981386 0.13849947 0.014041472 0.112223186 0.09261747 0.28065696 -0.0017578673
0.021480901 0.037872653 -0.022183625 0.17339583 0.07603966 0.1587118 0.2368803 0.19387057
0.019735295 0.18217064 -0.0033624193 -0.04546842 0.04577923 -1.1617958e-05 -0.024663871 0.14064902
0.22896948 0.05419966 0.08800992 -0.057299126 0.10571574 0.09772612 0.03663334 0.29811135
00000000: cb96 78bd 9967 5a3e dedc c13d 6e36 493e
00000010: 9bd9 9c3d a3bb 8e3e 242f 1d3e 0211 93bd
00000020: 8ff4 ab3d cb5f 5c3e 2b5f 4a3e dbc5 6f3d
00000030: 13b9 1b3c 30b2 923b 4b5a 7c3e ae17 acba
00000040: 325e 7e3e 0493 9c3d 1841 9b3d 41f4 64bd
00000050: 3603 123d 073b 8a3e afe7 b5bd 2e57 793e
00000060: 76fd 66bd 5eb6 163e 21c7 7dbd 07f6 b7bd
00000070: abf7 67bd 664a d83d e70c 543d 87cc a4bd
00000080: 70bc d13d 9211 5b3e f609 3a3e 6b30 683e
00000090: 0b57 043e e253 46bd 2b33 833c ad5c 4c3e
000000a0: 90f0 f13d 0b45 4cbd 4e9b 503e 5bd1 9bbd
000000b0: f098 5a3e b330 ed3d 6709 ccbd 3a03 e8bd
000000c0: 3b8f 193e 9e82 803e 350a ce3d 2acc 80bd
000000d0: 6d00 003e d6c8 153e b783 623d 8c94 4d3e
000000e0: 4f8e 2b3e 59f0 033d 03a0 c13d 53f4 17be
000000f0: 3bce f4bc 7087 3cbc a3d8 ed3d 2e69 d83d
00000100: 581c 8b3d 5885 eb3d bc88 25be 4fc7 753d
00000110: 81ca 25bd 047f 51be 7268 af3b 1b26 3fbd
00000120: f044 8bbd 9c32 93be b50e 8d3e d320 afbd
00000130: 3146 c7bc 873b 383e 7201 1fba 0f89 36be
00000140: 3d2e 89be 4ffc 8b3d 5cea c1bb 93d4 3cbd
00000150: afd4 263e cdd7 f2bd 08d1 5c3e f743 9dbd
00000160: 6614 65bd 17e6 e0bd ced2 0d3e 340e 663c
00000170: 45d5 e53d 3aae bd3d 45b2 8f3e 3d68 e6ba
00000180: b7f8 af3c 5b20 1b3d 6fba b5bc ad8e 313e
00000190: aeba 9b3d 5985 223e c090 723e 0286 463e
000001a0: eaab a13c f18a 3a3e 095c 5cbb 183d 3abd
000001b0: 0083 3b3d c0ea 42b7 e30b cabc 4c06 103e
000001c0: fa76 6a3e 7600 5e3d 8c3e b43d 7db2 6abd
000001d0: 7e81 d83d a224 c83d d70c 163d 0da2 983e

recurs2.weight_ih f4 [120, 30]
-0.0498236 0.06376668 -0.026763525 0.2801473 0.08876574 0.28816283 0.10390485 0.007607397
-0.2145895 -0.14885606 0.12519334 -0.12136518 0.15146351 -0.04642227 0.14702858 -0.16859736
0.13910347 -0.05333771 -0.14094022 -0.058402076 -0.12676059 -0.127552 0.08203861 -0.13801907
0.31670603 0.04301953 0.2193684 0.11053803 -0.22813809 -0.15518185 -0.12182038 -0.09708907
-0.07286576 0.25384152 0.117753945 0.15244123 -0.055985227 0.12295122 -0.05659673 -0.12482791
0.09185953 0.08412202 -0.03902026 0.07244355 0.08355366 0.10830287 -0.24823986 0.06046189
-0.10788474 -0.17247649 -0.20034117 0.04816541 0.004373923 -0.1739004 0.23400167 0.0026531846
-0.10984006 -0.027766498 0.08704956 0.046701215 0.08234193 -0.035891358 0.17259829 -0.0030532684
-0.053780265 0.17628117 -0.0774243 0.083134316 0.15038574 -0.24324302 -0.09801776 0.11555807
0.090466715 -0.06371788 0.12493931 0.13613348 -0.14045495 0.06257681 0.12218469 -0.062177595
-0.29552826 0.112975955 0.016581608 -0.10889821 0.19457796 -0.011620356 -0.053614028 -0.14904743
0.019231973 -0.011556188 0.05822948 -0.10736159 0.2828675 0.26201686 0.041551914 0.14623497
0.040953033 0.097001046 -0.021259157 -0.07695398 -0.09683514 0.032070518 -0.07009147 -0.07224444
-0.029033577 -0.013771404 0.030764965 -0.07413303 0.08090929 -0.20693484 0.0066652144 0.0872771
0.024297014 0.019482251 -0.030983826 -0.2267882 0.003989212 -0.026966225 0.0371009 -0.13957392
0.3159445 0.10889841 -0.014775487 0.13531533 -0.1630863 0.19235404 -0.014184908 -0.15781602
-0.102074005 0.07878035 -0.023088228 0.022618683 -0.015501612 -0.28168982 0.15731153 -0.027865581
-0.13035688 -0.008798633 0.07181795 -0.07593719 -0.25933334 0.10504222 -0.08330496 -0.11978108
0.24797751 -0.003349645 0.33518618 0.19525547 -0.16289544 -0.028190933 -0.010593355 0.030492568
0.29297388 0.24288389 -0.16892913 0.030376595 -0.14452021 0.02736142 -0.10360376 -0.23615903
-0.05291034 0.043028664 0.07835751 0.02669194 0.13888702 0.10912185 -0.11486769 0.043407466
-0.07553241 0.059307534 -0.0828417 -0.08421359 -0.059903707 -0.2534474 0.076006 -0.09194204
0.29855323 -0.057974897 0.07733354 0.0997607 -0.04616331 -0.049103044 0.09469434 0.18447575
-0.17493522 0.12849209 -0.25394982 -0.07700216 -0.03895287 0.027286338 0.06823131 0.13944498
-0.061988227 0.04082398 -0.07475703 -0.16302936 -0.09654007 -0.24587011 0.06111284 -0.16800563
-0.25816965 -0.03168739 -0.12781669 0.04817535 0.18714976 -0.1444279 0.21316439 0.08879436
-0.20959751 -0.046654295 0.2198998 0.04281604 0.09579733 0.16214232 -0.054496616 0.16610031
-0.24159926 0.06671872 0.0015624918 -0.0054026954 0.11596292 -0.092797056 -0.021078555 -0.14686155
0.16185212 -0.11566541 0.027291384 -0.08430593 0.061160874 -0.32021293 -0.13207613 0.07649138
-0.09725897 -0.020777298 0.2406439 -0.050761588 0.1699305 0.09153837 -0.17488283 0.098296866
0.11033158 0.19517484 0.1136816 0.103447594 0.000848063 0.29513168 0.11237833 -0.24796396
-0.085780635 -0.13439378 0.17997958 0.19965963 -0.08599845 -0.15397747 0.23798034 0.08893784
00000000: d513 4cbd 1b98 823d 2e3f dbbc 786f 8f3e
00000010: d0ca b53d 148a 933e 11cc d43d 7947 f93b
00000020: 5abd 5bbe b96d 18be af32 003e 4f8e f8bd
00000030: 4019 1b3e 4725 3ebd a98e 163e c9a4 2cbe
00000040: 2471 0e3e a578 5abd a252 10be 0437 6fbd
00000050: 87cd 01be fe9c 02be dc03 a83d df54 0dbe
00000060: 4b27 a23e 3f35 303d 1ca2 603e c361 e23d
00000070: 089d 69be fee7 1ebe f77c f9bd a2d6 c6bd
00000080: a53a 95bd 84f7 813e fb28 f13d 8e19 1c3e
00000090: c450 65bd d9cd fb3d f9d1 67bd c6a5 ffbd
000000a0: d920 bc3d 2a48 ac3d b5d3 1fbd 495d 943d
000000b0: 2e1e ab3d e5cd dd3d 9732 7ebe e3a6 773d
000000c0: adf2 dcbd ad9d 30be 3c26 4dbe 1849 453d
000000d0: 2053 8f3b f212 32be 229e 6f3e 0de1 2d3b
000000e0: d3f3 e0bd 9176 e3bc 0a47 b23d c649 3f3d
000000f0: e3a2 a83d d102 13bd 9bbd 303e 5819 48bb
00000100: b248 5cbd 0d83 343e a290 9ebd 5342 aa3d
00000110: b8fe 193e b314 79be 89bd c8bd b6a9 ec3d
00000120: 9d46 b93d 857e 82bd 2ee0 ff3d 9366 0b3e
00000130: 6cd3 0fbe 4528 803d f73b fa3d efad 7ebd
00000140: 7b4f 97be f05f e73d 27d6 873c 0606 dfbd
00000150: 723f 473e 4e63 3ebc 629a 5bbd e49f 18be
00000160: 5f8c 9d3c 2a56 3dbc 0982 6e3d 65e0 dbbd
00000170: 02d4 903e 1327 863e 5732 2a3d 9fbe 153e
00000180: 5ebe 273d 7ca8 c63d af27 aebc 0c9a 9dbd
00000190: 8051 c6bd 605c 033d 1e8c 8fbd e5f4 93bd
000001a0: d3d7 edbc 74a1 61bc cf06 fc3c 0fd3 97bd
000001b0: c5b3 a53d bae6 53be df67 da3b 56be b23d
000001c0: 880a c73c 3e99 9f3c cbd1 fdbc 2a3b 68be
000001d0: f0b7 823b 46e8 dcbc 1df7 173d 77ec 0ebe
000001e0: 7ac3 a13e 2106 df3d e214 72bc 1a90 0a3e
000001f0: 1800 27be 75f8 443e d167 68bc 869a 21be
00000200: 2d0c d1bd 9857 a13d 8623 bdbc d14a b93c
00000210: 79fa 7dbc a639 90be 4616 213e 5c46 e4bc
00000220: 467c 05be 2428 10bc 4a15 933d f584 9bbd
00000230: 57c7 84be 6020 d73d ca9b aabd c84f f5bd
00000240: d1ed 7d3e b885 5bbb 869d ab3e 0df1 473e
00000250: 10ce 26be acf0 e6bc c08f 2dbc 8dcb f93c
00000260: ac00 963e 8eb6 783e c2fb 2cbe 56d8 f83c
00000270: 1bfd 13be 0f25 e03c 352e d4bd acd3 71be
00000280: 83b8 58bd d33e 303d e779 a03d 0ea9 da3c
00000290: 6638 0e3e 477b df3d c03f ebbd 07cc 313d
000002a0: bcb0 9abd 75ec 723d e9a8 a9bd 2d78 acbd
000002b0: 975d 75bd dcc3 81be 09a9 9b3d 1c4c bcbd
000002c0: f8db 983e 1677 6dbd 0c61 9e3d 564f cc3d
000002d0: bd15 3dbd 4620 49bd 1bef c13d 36e7 3c3e
000002e0: 3822 33be 6e93 033e b605 82be 4fb3 9dbd
000002f0: 0b8d 1fbd 9987 df3c dbbc 8b3d aaca 0e3e
00000300: 5ee7 7dbd 0c37 273d 371a 99bd 2bf1 26be
00000310: cdb6 c5bd 60c5 7bbe 7551 7a3d ab09 2cbe
00000320: d02e 84be a3ca 01bd 61e2 02be 8453 453d
00000330: 30a4 3f3e e8e4 13be c447 5a3e d1d9 b53d
00000340: bba0 56be 9318 3fbd 6a2d 613e df5f 2f3d
00000350: 6431 c43d a308 263e d837 5fbd 3316 2a3e
00000360: cc65 77be d3a3 883d 86cc cc3a 1809 b1bb
00000370: f87d ed3d 620c bebd efac acbc e062 16be
00000380: 90bc 253e fde1 ecbd 2e92 df3c 96a8 acbd
00000390: d383 7a3d f3f2 a3be f73e 07be 83a7 9c3d
000003a0: b62f c7bd 2735 aabc 5b6b 763e 62eb 4fbd
000003b0: 4302 2e3e 7878 bb3d 7c14 33be de4f c93d
000003c0: 86f5 e13d eadb 473e e6d1 e83d 55dc d33d
000003d0: 8b50 5e3a 801b 973e 9c26 e63d 44ea 7dbe
000003e0: c2ad afbd 869e 09be 914c 383e 9373 4c3e
000003f0: f51f b0bd 45ac 1dbe 1eb1 733e 0b25 b63d

recurs2.weight_hh f4 [120, 30]
0.021425394 0.065866545 0.19665405 -0.17122355 0.091404915 -0.119404875 0.19373564 -0.13747758
-0.0036896183 -0.01944441 -0.027870258 0.06754398 -0.043436706 0.067758024 -0.038521003 -0.0005834858
0.08726174 0.14679989 -0.16080114 -0.10710433 -0.033040233 0.0144650275 -0.10700879 -0.04398323
0.06122234 -0.065048486 -0.025787178 -0.04811425 -0.16796592 0.11159133 -0.031747326 -0.10031081
-0.14801453 0.07954289 -0.03902637 0.07559561 0.01791928 -0.07574696 -0.10864789 0.03643336
-0.23238435 -0.07618127 -0.08334305 -0.017897928 0.1305026 0.19270536 0.1986478 -0.08413069
-0.119700916 0.048570655 0.15745038 -0.050772853 -0.10304681 -0.14238207 -0.057675224 -0.10879263
-0.16994807 -0.00033689674 -0.0048385514 0.06790179 -0.12601154 -0.067605436 0.1823736 -0.024115417
0.14532293 -0.084935315 -0.0061717485 0.024935788 -0.029466486 -0.27775928 0.07286019 -0.07318686
-0.030319085 0.035378385 0.18533108 0.067892246 0.1314273 -0.01604757 0.117724754 0.06199083
0.15280034 0.06781762 -0.18897995 0.062331457 -0.19435267 -0.24437857 -0.014008502 0.0071209213
-0.10808142 0.1946509 -0.063344866 0.006130052 0.21009494 0.094562694 -0.075596265 -0.00079915463
-0.055879556 -0.17526916 -0.048441604 -0.080003776 -0.23287296 -0.091630414 -0.2401374 -0.0348786
0.13323805 0.023314707 0.1535306 0.15408674 0.07131149 -0.002582542 0.025217988 0.13184913
-0.21331279 -0.107847705 0.060737677 -0.07103191 0.004499945 0.21899287 0.13066511 0.112850934
0.10988346 0.17459638 -0.04465291 0.03223845 0.11861112 0.059111655 0.2418754 -0.15741508
0.01906604 0.08052392 -0.21810068 -0.07110603 0.05481025 0.15393816 0.25677863 -0.027843183
0.12089259 -0.13190144 -0.16953541 0.006040444 -0.029981557 0.115599625 -0.08361993 0.1172819
-0.035419088 0.0006363749 -0.034935594 0.2099769 -0.0028994984 0.21875359 -0.21834391 -0.045771733
0.19433603 0.13060233 -0.005083434 0.16015401 0.16385555 -0.18961953 -0.009834009 0.058841728
-0.17794728 0.12703656 -0.13345878 -0.082452446 -0.005585777 -0.06503562 0.2052748 0.1233312
0.06059653 0.06502374 0.13220438 0.032008976 -0.23549965 -0.15930775 -0.0967077 0.06526279
-0.12320297 0.05447188 0.051732756 0.2986031 -0.048874043 0.10781403 -0.09660876 -0.20238237
-0.030821051 0.053577468 0.13971934 0.06539318 0.17085285 -0.15372284 -0.011666929 0.19128162
-0.11781844 0.14988023 -0.10455737 0.092971526 0.11033769 0.17778952 -0.03287952 -0.008901363
-0.06334981 0.24991825 -0.023296978 -0.073053904 0.029679766 0.064203955 -0.09769988 -0.1416365
-0.07253956 0.10216854 -0.012567341 0.0136608835 0.10421111 -0.008146436 0.16077392 -0.11420492
0.22464447 -0.012669054 0.13801588 -0.021484407 -0.22642598 0.1424108 -0.11451663 -0.09667058
0.1803316 0.039483283 -0.06787572 -0.07666276 0.12746243 -0.20105626 0.12050529 0.12842102
-0.15295973 0.04667887 -0.15510939 -0.05696598 -0.096970655 0.12834668 -0.04718955 -0.067798905
-0.065883875 0.18692166 -0.046169028 0.14460248 0.14836217 -0.04955072 0.0630251 0.10654235
-0.029384324 -0.07481156 -0.04239256 0.048861932 -0.19096498 -0.062812 0.2392959 0.09332716
00000000: 4f84 af3c 0ae5 863d ae5f 493e 3a55 2fbe
00000010: 8032 bb3d 8b8a f4bd a362 463e ecc6 0cbe
00000020: 86cd 71bb e249 9fbc 2b50 e4bc 8054 8a3d
00000030: b0ea 31bd b8c4 8a3d 33c8 1dbd 12f5 18ba
00000040: 48b6 b23d b652 163e 0ea9 24be 8459 dbbd
00000050: 3255 07bd b9fe 6c3c 6d27 dbbd c227 34bd
00000060: 47c4 7a3d 2438 85bd a23f d3bc 7313 45bd
00000070: 42ff 2bbe ff89 e43d 7c09 02bd c16f cdbd
00000080: 1f91 17be 62e7 a23d 1dda 1fbd dfd1 9a3d
00000090: 74cb 923c 3921 9bbd c982 debd 263b 153d
000000a0: 2af6 6dbe ed04 9cbd c3af aabd ad9e 92bc
000000b0: 79a2 053e 8e54 453e 546a 4b3e b64c acbd
000000c0: c125 f5bd 06f2 463d ac3a 213e 32f7 4fbd
000000d0: 350a d3bd 9bcc 11be db3c 6cbd acce debd
000000e0: de06 2ebe 84a1 b0b9 b68c 9ebb 1810 8b3d
000000f0: 2b09 01be b874 8abd 25c0 3a3e b28d c5bc
00000100: 89cf 143e 91f2 adbd 613c cabb 2346 cc3c
00000110: b363 f1bc 7736 8ebe b937 953d fee2 95bd
00000120: bb5f f8bc ede8 103d 6ec7 3d3e 170b 8b3d
00000130: e194 063e 3276 83bc ad19 f13d 19ea 7d3d
00000140: b177 1c3e f7e3 8a3d f683 41be 454f 7f3d
00000150: 6304 47be 603e 7abe ea83 65bc 9e56 e93b
00000160: cb59 ddbd 9152 473e f4ba 81bd 9ade c83b
00000170: 2123 573e 16aa c13d 37d2 9abd 5c7e 51ba
00000180: f6e1 64bd c279 33be b46a 46bd 05d9 a3bd
00000190: 4076 6ebe baa8 bbbd 94e6 75be dddc 0ebd
000001a0: 8e6f 083e 7cfe be3c 2037 1d3e eac8 1d3e
000001b0: c20b 923d dd3f 29bb f495 ce3c 7503 073e
000001c0: ab6e 5abe 42df dcbd 12c8 783d 2e79 91bd
000001d0: 4674 933b ab3f 603e 13cd 053e 641e e73d
000001e0: 940a e13d 65c9 323e f8e5 36bd 770c 043d
000001f0: 63ea f23d 101f 723d 2fae 773e 6b31 21be
00000200: 6230 9c3c bae9 a43d c955 5fbe 0aa0 91bd
00000210: b680 603d f7a1 1d3e 7d78 833e 6317 e4bc
00000220: 8996 f73d 2c11 07be b19a 2dbe ebee c53b
00000230: e29b f5bc 7fbf ec3d ed40 abbd 7e31 f03d
00000240: 9b13 11bd 66d2 263a a018 0fbd 2f04 573e
00000250: 8305 3ebb f100 603e 8c95 5fbe 247b 3bbd
00000260: 0600 473e 9ebc 053e ef92 a6bb 6aff 233e
00000270: c0c9 273e 9f2b 42be d31e 21bc 0604 713d
00000280: d037 36be df15 023e 6ba9 08be d4dc a8bd
00000290: e508 b7bb 6531 85bd 8f33 523e 1195 fc3d
000002a0: 1134 783d 2b2b 853d 9660 073e d81b 033d
000002b0: d226 71be 9221 23be b00e c6bd 7fa8 853d
000002c0: d751 fcbd e81d 5f3d bae5 533d 81e2 983e
000002d0: 2630 48bd 9acd dc3d d0da c5bd 533d 4fbe
000002e0: 6e7c fcbc 0c74 5b3d 9612 0f3e dcec 853d
000002f0: 0df4 2e3e 8569 1dbe a626 3fbc 54df 433e
00000300: cb4a f1bd 347a 193e 2d22 d6bd db67 be3d
00000310: baf8 e13d 750e 363e adac 06bd 06d7 11bc
00000320: 8cbd 81bd 92ea 7f3e 4ed9 bebc 499d 95bd
00000330: fb22 f33c 5d7d 833d e016 c8bd 2909 11be
00000340: 9f8f 94bd bd3d d13d 40e7 4dbc e6d1 5f3c
00000350: a26c d53d a178 05bc eba1 243e 45e4 e9bd
00000360: 3309 663e dd91 4fbc 0954 0d3e 1100 b0bc
00000370: 36dc 67be 23d4 113e b287 eabd 3afb c5bd
00000380: d9a8 383e 39b9 213d 6d02 8bbd 5d01 9dbd
00000390: 8385 023e b1e1 4dbe 7acb f63d cd80 033e
000003a0: 7aa1 1cbe 5832 3f3d ffd4 1ebe 2955 69bd
000003b0: 8d98 c6bd 506d 033e d449 41bd 27da 8abd
000003c0: 20ee 86bd 6468 3f3e bc1b 3dbd ac12 143e
000003d0: 41ec 173e b2f5 4abd 4e13 813d e032 da3d
000003e0: 65b7 f0bc ce36 99bd d2a3 2dbd 7323 483d
000003f0: 538c 43be 94a3 80bd fc09 753e 4f22 bf3d

recurs2.bias_ih f4 [120]
0.30652368 0.27749848 0.014865736 0.1505712 0.04410451 0.08058573 0.09962286 0.32384676
0.14765964 0.21346466 -0.016199078 0.14525789 0.1770819 0.036862873 0.14677379 0.15918666
0.30751622 0.13754363 0.11777405 0.24729623 0.08031244 0.24899484 0.28550854 0.024124596
0.19834165 0.07728477 0.29961756 0.115660965 0.14025617 0.28116226 0.12531815 0.16873476
-0.0044921595 -0.03259956 0.10491682 0.2684353 0.21574186 0.021129187 0.25176305 -0.07131771
0.22254655 0.041269217 -0.023644246 0.12094078 0.23202032 0.22189832 0.020031955 0.08826749
0.15705109 0.056038614 0.08811091 0.26385236 0.020315237 0.22874482 -0.051887993 0.012545201
0.11180134 0.017855903 -0.051304813 0.06985105 -0.08612642 0.11915191 0.14072824 -0.064916216
0.13626924 0.13570677 0.14572637 -0.14921458 -0.14102526 -0.096399315 -0.018013649 0.050272185
-0.19779944 0.1442723 0.2707089 0.036578935 0.035278477 0.018347384 -0.13136563 -0.18709598
0.19253325 0.28106585 0.031300046 -0.16695626 -0.003398501 -0.16797677 0.031099828 0.19868551
0.21125709 0.2199158 0.18466178 0.31311962 0.09195059 0.1735952 0.019304965 0.2516966
0.18758397 0.21626249 0.26119736 0.21255088 -0.0452409 0.118285656 5.357148e-05 0.2664105
0.095918596 0.012659706 0.24692462 0.034038983 0.13613468 0.25342155 0.2037421 0.21517132
0.14138138 0.09059595 0.16312617 -0.08531015 0.08832654 0.25184357 0.26010257 -0.04527412
00000000: acf0 9c3e 4814 8e3e 6a8f 733c 562f 1a3e
00000010: eea6 343d 220a a53d 1207 cc3d 3ecf a53e
00000020: 1734 173e 7b96 5a3e eeb3 84bc 7cbe 143e
00000030: f554 353e 86fd 163d de4b 163e d401 233e
00000040: c472 9d3e 3dd8 0c3e 8533 f13d 393b 7d3e
00000050: d97a a43d 81f8 7e3e 2d2e 923e f2a0 c53c
00000060: 131a 4b3e 7a47 9e3d 7967 993e a8df ec3d
00000070: 509f 0f3e 80f4 8f3e 6753 003e cec8 2c3e
00000080: f732 93bb 1e87 05bd a1de d63d 5a70 893e
00000090: 6feb 5c3e 1e17 ad3c 16e7 803e 050f 92bd
000000a0: 3ee3 633e e909 293d 94b1 c1bc cdaf f73d
000000b0: bc96 6d3e 5039 633e 0e1a a43c 96c5 b43d
000000c0: 00d2 203e bf88 653d 7e73 b43d a817 873e
000000d0: 246c a63c 153c 6a3e 8188 54bd 638a 4d3c
000000e0: 1af8 e43d 8b46 923c ff24 52bd 110e 8f3d
000000f0: 0c63 b0bd eb05 f43d 101b 103e cbf2 84bd
00000100: 2a8a 0b3e b7f6 0a3e 4b39 153e b5cb 18be
00000110: ed68 10be 016d c5bd 5c91 93bc 35ea 4d3d
00000120: f08b 4abe 1ebc 133e 5b9a 8a3e cbd3 153d
00000130: 2a80 103d 414d 963c b684 06be 1796 3fbe
00000140: 7027 453e dde7 8f3e 7a34 003d 95f6 2abe
00000150: 63b9 5ebb 1a02 2cbe 11c5 fe3c 3774 4b3e
00000160: c753 583e 9c31 613e fa17 3d3e 3751 a03e
00000170: 9750 bc3d f1c2 313e 7225 9e3c 60de 803e
00000180: 0316 403e ea73 5d3e a9bb 853e f0a6 593e
00000190: 864e 39bd c03f f23d f0b1 6038 f566 883e
000001a0: f870 c43d a86a 4f3c cfd9 7c3e 766c 0b3d
000001b0: e466 0b3e 78c0 813e c5a1 503e df55 5c3e
000001c0: 48c6 103e 5f8a b93d 8c0a 273e 17b7 aebd
000001d0: 8ce4 b43d a4f1 803e 2a2c 853e 5b71 39bd

recurs2.bias_hh f4 [120]
0.1917547 0.3014828 -0.009233886 0.1582294 0.067310885 0.17305312 0.03915252 0.31955665
0.25150853 -0.0011288307 0.006373208 0.08549277 0.13189676 0.17037795 0.06731515 0.04850597
0.15745284 0.015580211 0.18729845 -0.020997936 0.1157501 -0.022410182 0.05984141 0.13334277
0.087318346 0.0036947234 0.17744485 0.04617071 0.18492845 0.20152412 0.077651255 -0.11179677
0.012334384 0.108345464 0.12875605 -0.031212272 0.2048539 0.14439912 0.11093768 0.052780524
0.021637585 0.1181628 0.19702312 0.043768585 0.16089311 0.21257734 0.18905914 0.04367998
0.14958441 0.117724456 0.18268338 0.037573013 0.094193324 0.1171718 -0.0701912 0.1268504
-0.056875855 0.18087225 0.049214985 0.148622 -0.14184837 0.12763272 0.17067492 0.1292032
0.08941282 -0.078693226 0.1919345 0.018235607 -0.16826475 -0.09381793 -0.07622587 0.029635124
-0.023552822 0.1372441 0.0746731 0.020859927 -0.0016814899 0.09694246 -0.15611807 0.12924099
0.009986343 0.23332816 -0.08683723 -0.073924914 -0.004185292 -0.06967266 -0.14761326 -0.13293158
-0.122974515 0.24149165 0.23355599 0.0747046 0.23957917 0.15494244 0.13442422 0.06485472
0.0039884024 0.26466697 0.31220934 -0.12625203 0.15000056 0.21097203 0.046298727 0.04671536
-0.034346823 0.2246747 0.3441461 0.21074766 0.10995659 0.19909148 -0.016485743 0.007683797
0.20195296 0.26651192 0.16615106 0.040930323 0.1707008 -0.06924385 0.27711725 0.010197416
00000000: 585b 443e f45b 9a3e ba49 17bc e306 223e
00000010: 4ada 893d d634 313e 655e 203d ee9c a33e
00000020: bac5 803e 46f5 93ba 58d6 d03b d516 af3d
00000030: f20f 073e 8f77 2e3e 86dc 893d 32ae 463d
00000040: 513b 213e 2444 7f3c 2acb 3f3e dd03 acbc
00000050: 630e ed3d 8f95 b7bc 441c 753d 028b 083e
00000060: f6d3 b23d 2c23 723b 1ab4 353e 801d 3d3d
00000070: e25d 3d3e 575c 4e3e 9f07 9f3d b4f5 e4bd
00000080: 2816 4a3c 3ae4 dd3d a0d8 033e e1b0 ffbc
00000090: 39c5 513e 5ddd 133e 4b33 e33d 6430 583d
000000a0: 4e41 b13c 57ff f13d 6ec0 493e b046 333d
000000b0: 2ac1 243e e0ad 593e b898 413e c7e9 323d
000000c0: a82c 193e 8519 f13d 5a11 3b3e 29e6 193d
000000d0: 6ee8 c03d c5f7 ef3d 67c0 8fbd 12e5 013e
000000e0: a8f6 68bd 9336 393e a795 493d 5e30 183e
000000f0: b340 11be 27b2 023e 68c5 2e3e d84d 043e
00000100: 121e b73d ea29 a1bd 7a8a 443e d762 953c
00000110: 984d 2cbe 9d23 c0bd 4f1c 9cbd 5cc5 f23c
00000120: d9f1 c0bc b889 0c3e 36ee 983d 70e2 aa3c
00000130: 7065 dcba c589 c63d 6add 1fbe c057 043e
00000140: c29d 233c 94ed 6e3e b8d7 b1bd f265 97bd
00000150: c624 89bb 8ab0 8ebd ee27 17be 371f 08be
00000160: 10da fbbd 9649 773e 4d29 6f3e bafe 983d
00000170: 3e54 753e 3ba9 1e3e 81a6 093e 8dd2 843d
00000180: 25b1 823b 6e82 873e e7d9 9f3e 3648 01be
00000190: bf99 193e 0d09 583e bca3 3d3d 9b58 3f3d
000001a0: 41af 0cbd 2011 663e eb33 b03e 3cce 573e
000001b0: ec30 e13d a3de 4b3e 1c0d 87bc 5cc8 fb3b
000001c0: c2cc 4e3e 4074 883e 8123 2a3e 8ea6 273d
000001d0: 31cc 2e3e b8cf 8dbd 50e2 8d3e 1013 273c

output.weight f4 [2, 30]
-0.109978184 -0.080002055 0.11942619 -0.06893463 0.045068096 -0.11649667 0.1501715 -0.1710206
-0.17297345 -0.28264472 0.045873314 0.09310728 -0.18470652 0.0005771829 0.24679177 0.051907025
0.17990232 -0.012881653 -0.065751314 0.10904115 0.0999088 -0.02941732 -0.06872755 0.0820681
0.07498917 -0.10644276 -0.23348638 0.1785485 -0.049265187 0.053549834 0.28504503 0.24494031
0.20351608 0.25537556 -0.14666303 0.19790424 -0.19583538 0.1923919 0.22049692 6.733829e-05
-0.20734625 -0.1661725 -0.17195182 -0.22569527 0.15909187 0.28391674 0.19576766 -0.23404321
0.26630598 -0.2522794 0.18619664 0.07243946 0.21056095 0.17399396 -0.34312794 0.13693872
-0.16133092 -0.2459331 0.28847927 0.14567566
00000000: 3e3c e1bd 1ed8 a3bd b895 f43d 992d 8dbd
00000010: 5399 383d ce95 eebd 8fc6 193e 0620 2fbe
00000020: f41f 31be cfb6 90be a8e5 3b3d 08af be3d
00000030: b523 3dbe 174e 173a fbb6 7c3e 769c 543d
00000040: 5038 383e 920d 53bc a0a8 86bd f750 df3d
00000050: fc9c cc3d 97fc f0bc 08c1 8cbd 5213 a83d
00000060: ec93 993d a9fe d9bd 0e17 6fbe 6bd5 363e
00000070: 4bca 49bd 1257 5b3d 6cf1 913e a2d1 7a3e
00000080: 8566 503e 96c0 823e d52e 16be 69a7 4a3e
00000090: 1289 48be 6202 453e f2c9 613e f837 8d38
000000a0: 9352 54be 2029 2abe 2314 30be a91c 67be
000000b0: fbe8 223e 895d 913e 5177 483e 06a9 6fbe
000000c0: 4259 883e c42a 81be 55aa 3e3e 245b 943d
000000d0: 4a9d 573e 792b 323e 77ae afbe aa39 0c3e
000000e0: ef33 25be e3d5 7bbe 8eb3 933e 002c 153e

output.bias f4 [2]
0.10103023 0.01832243
00000000: f0e8 ce3d ec18 963c

switch.weight f4 [1, 30]
0.12970427 -0.062726565 -0.102677904 -0.060165018 -0.05120515 0.07365572 -0.034887396 0.09115064
-0.14419703 0.02946218 0.13715632 -0.02287347 0.15007424 0.050207254 -0.17933305 -0.10844868
0.14178239 -0.037287608 0.18076713 -0.17851558 -0.09918262 0.13235472 0.16460462 -0.15936571
0.052352022 -0.17285492 -0.12989374 0.08116301 -0.089800924 -0.02047776
00000000: 32d1 043e c976 80bd cb48 d2bd 986f 76bd
00000010: 7ebc 51bd cfd8 963d 16e6 0ebd 30ad ba3d
00000020: 63a8 13be ab5a f13c b572 0c3e 2561 bbbc
00000030: 10ad 193e 1fa6 4d3d 15a3 37be 571a debd
00000040: 672f 113e e4ba 18bd 051b 393e cacc 36be
00000050: 4220 cbbd ff87 073e 1d8e 283e c430 23be
00000060: 136f 563d e100 31be dd02 05be cb38 a63d
00000070: 8ce9 b7bd fac0 a7bc
