checkpoints/ablation/RAND-VC-lstm/model.pth (torch, 49682 bytes, 11 tensors)

recurs1.weight_ih f4 [120, 1]
00000000: 812d 923e da95 c93e 4bdd 1c3e 99bd 613e
00000010: 89e5 ccbe 7a8e 3a3e 800b 823e 0f8f c43e
00000020: 008a a83e 28e6 983d 4986 623e 9672 973e
00000030: d73e 21be 8d5a f5bd 6ced 1dbe bc55 bc3e
00000040: c37d 97bd 307e aa3e d7b3 6a3e 67f8 cabe
00000050: effd c03e 5779 133e 1196 6d3e 6dd6 fe3e
00000060: 1db5 8f3e d7e0 593e 49d3 033f d88f 4a3e
00000070: 3958 92bd 7759 923e a016 313e 9ec4 ca3e
00000080: 9898 3cbb 6b6f 103e 1060 95be ca80 2a3d
00000090: 03a2 c53d b5d1 063e 8b87 cb3e ddc2 223e
000000a0: 79a3 413e 1a13 7f3e c65e e3bd d7d4 89be
000000b0: a56c e23b 9807 4c3e b78c aa3d d5ca be3e
000000c0: dfb7 2d3e b350 1bbe 762a d03e 12a6 283e
000000d0: dcfc c63e 7198 9d3e 8352 db3e 6235 1d3e
000000e0: 528f 9b3e 94f8 f73d 6d44 53be 1957 213e
000000f0: 6e1a e23e b007 be3e f7ca 473e 3808 d33e
00000100: 4bc3 ee3e 3a2f 1dbd 91dc 9c3e ea05 75be
00000110: cc99 e23e 9236 613e e5d5 0a3e 2622 d2be
00000120: ef7a 033e 71c7 d33e 96fa 043f 0045 033f
00000130: 2bb8 c63e 2af5 70bd e53d acbe 5dc5 e9be
00000140: 885c fabe 9f90 f83e f4cc fe3e 0e06 0abf
00000150: b3ac a0be d4f9 c7be 7723 c2be 3933 8b3e
00000160: 8fe0 c33e 18b2 643e b0b1 ba3e 8797 cc3e
00000170: 89e9 e33e fb74 dd3e 4bac 00bf 8949 2a3d
00000180: 5b21 be3e 878e 903e 4104 633e d6a7 53bd
00000190: 9107 ed3e 1585 f33e caef 8cbd bb9f 56bd
000001a0: 4429 52be 7450 bc3e c01a 87be e42c b33d
000001b0: 9f98 b43e ad9d 8dbe 0adb 7a3e 717c db3d
000001c0: dbe0 373e aa9d 083f 614f e03e eae5 ad3d
000001d0: bf33 9a3e 25cc c03e 0f57 5f3d f578 c23e
0.28550342 0.3937214 0.15318792 0.22044982 -0.4001887 0.18218413 0.253994 0.38390395
0.32917786 0.07465774 0.22121538 0.2957961 -0.15746628 -0.11980162 -0.154226 0.3678416
-0.07397034 0.33299398 0.22920166 -0.3964264 0.37693736 0.14401756 0.23201777 0.4977297
0.28067866 0.21277176 0.5149427 0.19781435 -0.071457334 0.2858388 0.17293787 0.39603132
-0.0028777476 0.14105003 -0.29174852 0.04162673 0.09650042 0.13165934 0.3975185 0.15894647
0.18910016 0.2490963 -0.11102061 -0.26920196 0.006909924 0.19924772 0.083276205 0.37264124
0.16964673 -0.15167503 0.40657395 0.16469601 0.3886479 0.30780366 0.4283639 0.15352395
0.30382782 0.121079594 -0.20631571 0.15755881 0.4416079 0.3711524 0.19511019 0.41217208
0.46633372 -0.038375117 0.3063703 -0.23928037 0.44257963 0.21993473 0.13558157 -0.41041678
0.12839864 0.413631 0.51944864 0.5127716 0.38812384 -0.058827557 -0.33640972 -0.4565839
-0.4889872 0.48547837 0.49765742 -0.5391549 -0.3138176 -0.3905779 -0.37917683 0.27187517
0.38257262 0.22333562 0.3646369 0.39959356 0.4451411 0.43253312 -0.502629 0.041574035
0.37134823 0.2823374 0.22169591 -0.051673733 0.46294835 0.4756247 -0.06881674 -0.052398425
-0.20523554 0.3678013 -0.26387596 0.087487966 0.3527269 -0.2765936 0.2449762 0.10717095
0.1795687 0.53365576 0.4381056 0.08491118 0.30117604 0.3765575 0.054526385 0.37982908

recurs1.weight_hh f4 [120, 30]
00000000: 661b 443e 9df9 e23d 3b10 86bc 046a 313e
00000010: f689 3ebe dd80 88bd dfc8 d93d 1d7e 1dbe
00000020: 733f 7c3d 1bb2 57bd afcd 383d 7def b9bd
00000030: 11ac b0bd 8c99 f43d 9e3a 843e 7a63 af3d
00000040: edb9 fc3d e72e aa3d 4b35 39bd dbf2 f63d
00000050: c6b9 3a3d 3705 783e af41 963e 8a04 01be
00000060: 6de3 8fbe 58ae 4fbe ecb3 2d3b e8be a13d
00000070: c914 4f3d 8c99 53bd e6ca c8bd 80ed d4bd
00000080: d222 933b aa06 1e3e 1894 b13d 82a4 01be
00000090: 2416 e63d a716 08be 001a f03c bcd7 37bc
000000a0: 74b5 c13c 19fe d7bd 5e07 32be 6018 16be
000000b0: 8af1 2f3d 7454 913d 488a 5abb 012f 003e
000000c0: 3162 62be c4ba ea3b 97c4 b53d ad41 8c3c
000000d0: fd42 753e a06a c4ba 2047 4abe f892 2d3d
000000e0: 9996 9ebd 0e8a a6bc 428c 593e 209f 9fbd
000000f0: 8fae 5cbc c1e8 7bbd 37e3 d03d 6f90 e53c
00000100: 5dd2 b63d dd29 823d 93ad 02be a770 ddbb
00000110: e624 3ebe dcad a63d 2495 f23d dd8c 2e3e
00000120: 0237 12be eb51 003d 9c36 dfbd 46a4 f5bd
00000130: 35a2 93bd 316c ad3c f145 a5bd 0ad8 1fbb
00000140: fe35 243d 9896 013e 2dda 1fbe 562b c2bd
00000150: 9111 1a3c da3f 0e3e b5df 88bc 38eb 073e
00000160: 1ad0 cf3d 2923 94bb 7b20 593d f201 3bbd
00000170: 6fb8 a63c a26a 21bd 707f 9d3b d8b0 b23c
00000180: 8475 f2bd db3a 07be 4295 213e 2856 13be
00000190: 22df 08bc b1a1 2f3e d832 c43d 18c5 923d
000001a0: da51 e9bd 0b3d c33d b807 87bd 729f 55bd
000001b0: 4fb7 86bd 9a9a d3bc e178 46bc 0460 563e
000001c0: 4457 5a3d 9ec1 193e 367c ef3d 0d96 21be
000001d0: bb87 973d 6817 08be ac6b 263b 87fb 5e3d
000001e0: 1161 c33d 18b5 583e dd81 48bc f9fd 103d
000001f0: 4604 a93d 01a7 07be df26 3e3e 4329 15be
00000200: 9628 973d ae5f c13c f236 8cbd 5c78 39bd
00000210: cfb4 183e 4765 7dbd 05a4 d6bd 367d 16bb
00000220: 0da9 69be 243d 013e f8ef f6bd f5ad d4bd
00000230: 915f 21be 0999 823d c045 0d3e a18c aa3d
00000240: eb9d 54bd a80a c4bd ce61 ebbd fa2e ce3d
00000250: 01c3 c63d c782 9f3d de1e b53c 6168 85bc
00000260: ca24 eabd 669e d43d f150 44bd 213a 60bd
00000270: 03d2 813e 5f82 d9bd af2c 913d a1f1 fa3d
00000280: a119 8e3d 4808 68be ce42 2ebe 2faa 843e
00000290: 3b87 133e 4d74 5c3e 359b a33d c931 0b3e
000002a0: 150e cfbd b3ca 0fbd a4a1 3abe 41c5 4c3e
000002b0: eb79 2e3e d31a 9ebd b335 30be 99bb 6bbe
000002c0: 09cc 263d 7fd1 9bbd 9472 573e 51cf 9fba
000002d0: 958d 613d 0741 b53d 680b d8bd 2fa7 ec3d
000002e0: 7058 633d d092 eebc 991a 5c3c eb77 fd3d
000002f0: 5e0b 3a3e 4f63 373d 0123 a2bd e26b 11be
00000300: a228 f4bb fe85 9ebc dd6d 703e 9116 5c3e
00000310: e3b3 9b3d 2563 d73d e839 b73b 8738 9cbc
00000320: 9448 a6bd e038 4b3e a2f9 9abc 62bd b5bd
00000330: 310b 9b3b 4a65 643c 30c3 8cbb 1dbc c13d
00000340: 058b 843e 6010 90b9 f4d2 83be 8f5a 85be
00000350: 6fb6 eb3d b152 443d d2d3 b8bd 88d1 ba3c
00000360: 4670 40bd deba 643e 8ef2 263d 7b78 3d3d
00000370: 6493 dcbd 4b6b 843d ef0b d43d be62 a63d
00000380: 6b30 07be 5f79 993d 56f5 ea3d ba79 c2bb
00000390: 7b08 55bd d145 6e3c 4747 023d 72ee fc3d
000003a0: b546 12be cb3a 2d3e 7dbb f33d d2f2 273e
000003b0: cc47 663d 0093 dc3c e0d6 07be 28ba d9bc
000003c0: 9456 c6bc 05ef b8bd 487d 86bd 92bc 533e
000003d0: 1cdc d13d 0b3f 603e 6fb0 813e 0e06 58be
000003e0: 3ce8 fbbc d177 803d 6f2c 50bd 1ded 1b3d
000003f0: 67a1 babd 731e 2b3d 3002 b1bd c83c c5bc
0.19151077 0.11082766 -0.016365161 0.17325598 -0.18607315 -0.06665204 0.10634016 -0.1538014
0.061583947 -0.05266009 0.04511803 -0.09078882 -0.08626569 0.11943349 0.2582597 0.085638955
0.1234015 0.08309727 -0.04521684 0.1205804 0.045587324 0.2422074 0.29346988 -0.12599388
-0.281032 -0.2028135 0.0026504947 0.078977406 0.05055693 -0.051660106 -0.09804325 -0.10396862
0.004490235 0.1543223 0.08670825 -0.12660411 0.11234692 -0.13289891 0.029309273 -0.011220869
0.023646094 -0.10546512 -0.17385623 -0.14657736 0.04295496 0.07096186 -0.0033346582 0.1251793
-0.2210777 0.0071633775 0.08875387 0.01712116 0.23951335 -0.001498539 -0.19753695 0.04237649
-0.07743568 -0.020329501 0.2124491 -0.077940226 -0.013469352 -0.06150127 0.10199588 0.028022973
0.08926842 0.06355641 -0.12761526 -0.006757814 -0.18568763 0.0813863 0.118448526 0.17045923
-0.14278796 0.031328123 -0.10899088 -0.11994223 -0.07208673 0.021169754 -0.08069981 -0.0024390244
0.040090553 0.12655103 -0.15610571 -0.09480922 0.009403602 0.13891545 -0.016708234 0.13273323
0.10147114 -0.004520793 0.05300949 -0.045656152 0.020351617 -0.039408334 0.0048064515 0.021812841
-0.118388206 -0.13206045 0.15779594 -0.14388335 -0.00835398 0.17151524 0.0958001 0.07166499
-0.11392565 0.095331274 -0.06593269 -0.052154012 -0.06577932 -0.025830556 -0.012113781 0.20935065
0.05330588 0.15015265 0.11693613 -0.15779896 0.073989354 -0.13290179 0.0025393767 0.054439094
0.09539998 0.21162832 -0.012237993 0.035398457 0.08252768 -0.132473 0.18569516 -0.14566521
0.07380788 0.023605194 -0.068464175 -0.0452808 0.14912723 -0.061864164 -0.10480503 -0.0022962815
-0.22818394 0.1262098 -0.12057489 -0.10384742 -0.15759112 0.063768454 0.13796139 0.08327604
-0.051908415 -0.09572345 -0.11493264 0.10067554 0.09705163 0.07788616 0.022109445 -0.016285123
-0.11432798 0.103817746 -0.047928754 -0.054742936 0.2535554 -0.106205694 0.07088601 0.12253118
0.06938482 -0.22659409 -0.17017671 0.2591109 0.14407055 0.2152874 0.07988588 0.1359321
-0.10110108 -0.03510542 -0.18225724 0.19997121 0.17038696 -0.0771996 -0.17207985 -0.23020782
0.040721927 -0.076083176 0.21039802 -0.0012192522 0.055066664 0.088502936 -0.105490506 0.11555325
0.055504262 -0.02912274 0.013434076 0.12376388 0.18168399 0.044772442 -0.07916833 -0.1420131
-0.007451133 -0.019351002 0.2347941 0.21492983 0.0760267 0.10516957 0.0055916198 -0.019069923
-0.08119312 0.19845915 -0.018917862 -0.088740125 0.0047315587 0.013940165 -0.004295729 0.09459708
0.25887313 -0.0002747802 -0.25746882 -0.26045653 0.11509406 0.047930423 -0.090247765 0.02280499
-0.046982072 0.22336909 0.040758662 0.046257477 -0.107703 0.06465777 0.10353839 0.08124302
-0.13202064 0.07493853 0.11472575 -0.005934921 -0.05201004 0.014543013 0.031806257 0.12350167
-0.14284785 0.16916959 0.11900995 0.16401222 0.056220815 0.026925564 -0.13265562 -0.026578024
-0.024211206 -0.09029964 -0.06566864 0.20677403 0.10247061 0.21899049 0.2532992 -0.2109606
-0.030750386 0.06272853 -0.050823625 0.038067926 -0.09112816 0.041777086 -0.08642995 -0.024076834

recurs1.bias_ih f4 [120]
00000000: 06cd 823e b5d6 853e 2038 ea3d ea8d afbd
00000010: d0ae 1ebe d4e9 05be 89e7 273d e141 dd3d
00000020: 2002 063e 490f 223d 1e9c 5b3e dd64 793e
00000030: 491b 06be b433 8b3c 815a b63d 8bc0 913d
00000040: 281f 753d 4a1e e43d e08c 173e de8d 85bd
00000050: 41d5 f33d a158 b13d dbdb 363e 8c13 ef3d
00000060: 2c49 383c 31ce e139 0567 fa3d 5e88 cfbd
00000070: 583f 063e 1b3c 91bd 3eea 363e df91 b93d
00000080: ef9a 90bd e5a3 d53d 9002 3bbd e6a8 783d
00000090: aaa2 863d b7a4 7ebd ffcc 9b3d b278 373d
000000a0: e503 dbbc b25a 043e 1def 3c3d a7b5 623d
000000b0: 52d5 1d3e fc5c b9bd 0406 9e3c 7524 fa3c
000000c0: 4576 1b3e 1dbe 2bbe 8e04 f8bd 6c25 8f3c
000000d0: 62d2 ddbd 132e 08be abe6 033e e390 7f3d
000000e0: 6f81 08be 5819 bbbc 3dfb 113d 8750 50bd
000000f0: f65a 0cbe 5290 093e 457b 42bb 65c8 403e
00000100: 7a10 05be 5b0c f7bd 59da 93bc 95e8 a9bd
00000110: be2b 2a3e 0122 1f3e b28d 6a3e 3833 0abe
00000120: 382d b53d cbfd e83d e92d 70bd 7d21 0a3d
00000130: 6e24 b53d e1ed 063e 53c1 3dbe f528 003e
00000140: a9dc 01bd 73dd b43d ed3e ccbd ff58 1bbe
00000150: bf45 25be 9c7d b83d 662f c9bd b01d f83d
00000160: 6c26 1d3d a5e0 e23d ff43 213d 7228 c03c
00000170: 6f38 7cbd 41bb a9bd ef45 2e3e a787 3b3c
00000180: 6942 dd3b 9f7c 2dbe 57ba ab3d 6aa8 e7bd
00000190: 669a 363d 1689 573e 6200 15be dd33 433e
000001a0: 85c4 f93c 3003 d5bd 24dc edbd b7e0 0e3e
000001b0: b2eb f7bd 66f9 743d 8cc4 683d ab65 273e
000001c0: 462c f8bc 8af0 503e a1bb fdbd 8337 62bd
000001d0: 5680 1d3e c8d5 a63c 7b3e 76bd 6f4a 143c
0.25547045 0.2614037 0.11436486 -0.0857199 -0.15496373 -0.1307748 0.040992294 0.10803581
0.13086748 0.03956536 0.21446273 0.24354883 -0.13096346 0.016992427 0.08903981 0.07116803
0.059844166 0.1113859 0.14799833 -0.065212 0.11905909 0.08659483 0.17857306 0.1167365
0.011247914 0.0004306897 0.12226681 -0.10133432 0.13110101 -0.07091542 0.17862794 0.09061026
-0.07060801 0.10431651 -0.04565674 0.06070795 0.065739945 -0.062168803 0.07607459 0.04479284
-0.026735255 0.12925223 0.046126474 0.05534902 0.15413406 -0.090509385 0.019289978 0.030534962
0.15181835 -0.16771741 -0.12110244 0.017473899 -0.10831143 -0.13298826 0.12880962 0.062394034
-0.13330625 -0.022839233 0.03563999 -0.050858047 -0.13706574 0.1343396 -0.0029675525 0.18826444
-0.12994567 -0.120629035 -0.018048452 -0.082963146 0.16618249 0.15540315 0.22905615 -0.13496101
0.088465154 0.11376532 -0.058637533 0.033723343 0.08844839 0.13176681 -0.18530779 0.12515624
-0.03170458 0.088313006 -0.0997294 -0.15170668 -0.16139887 0.09008333 -0.09823494 0.121150374
0.03836672 0.11078004 0.039371487 0.023456786 -0.061577257 -0.08287669 0.17018865 0.011445916
0.0067523015 -0.1694207 0.08385151 -0.11311419 0.04458084 0.21048388 -0.14550927 0.19062753
0.030489216 -0.104009986 -0.11614254 0.1395291 -0.12105502 0.059808157 0.056828067 0.16347377
-0.030294549 0.20404258 -0.12389303 -0.05522872 0.15380988 0.02036561 -0.06011818 0.0090509495

recurs1.bias_hh f4 [120]
00000000: e4d3 a5bd 853e 9bbd d725 83bc f371 263e
00000010: d007 683d 8965 553d 09a8 1c3d 99e1 2e3e
00000020: 9237 993d bcb0 fc3d fec4 593d d5c1 033e
00000030: d1df 793c 44d4 713e d3fb 483e dd05 683d
00000040: 195d 093e f775 65bc 125a 163e fa52 9b3c
00000050: 2f32 2b3e 3739 083d f932 26bd 4202 9f3d
00000060: c086 093e 97dc 6a3e 1d81 eb3d 3704 aa3d
00000070: 29e0 383e d64b 87bc b0b9 5b3e 7d3e e33d
00000080: 76b6 c43d d44a 053e 79ec 09be ca6c ef3d
00000090: 6c64 3a3e 4e18 56be 5daa c23c 9209 81bd
000000a0: 7115 94bc 31a5 5f3d 3ffe 923d 34aa 86bd
000000b0: 926a 11be 702c d43d f913 283e 5e0b 2d3b
000000c0: dfa3 243e 0b83 f23d bce8 67bd 954a 8b3d
000000d0: 5470 a33d c7db c8bc 61e8 28bd dcc5 e9bc
000000e0: b6d8 b8bd a2b3 c93d 30f7 4dbc f59a 96bd
000000f0: 58b6 343e d269 833d faf1 1a3e 8f9f 343e
00000100: bebd 81bc a1fb df3b c390 243e 2bca a6bd
00000110: 800e b1bc 7aa2 243d 1e00 523d 10be ec3c
00000120: a380 5f3d 6176 b4bd da35 e73c dd28 373e
00000130: 1e9d d0bd c844 fbbd 0784 1ebe c724 573d
00000140: 57f1 1cbe 3551 99bd 2b43 0c3e 611b f7bd
00000150: 7cc0 e23d a4aa d2bd b49f a93c bd67 1f3d
00000160: 628a aebc 3484 1b3e 96af 703e 9847 06bd
00000170: dd44 013e 872d 8b3d 6484 cbba 22ae d9bd
00000180: c48b 0e3e 5128 083e 417b a5bd a6d3 cdbd
00000190: ebf0 07be 34b0 0c3e 4314 bebd 94a1 093d
000001a0: cc78 843e ae70 26bc fff2 51bd 35a3 853d
000001b0: bc11 a7bd b3a3 a9bd fc2d 023e 40df d93d
000001c0: 8e40 96bc dd6f 5f3e c0d5 393e 655f 28bd
000001d0: 47a4 fd3d 10a6 b63d 4f75 b5bd 1cd0 a5bd
-0.080970556 -0.07580284 -0.016009254 0.16254406 0.056648076 0.052098785 0.03824619 0.17078246
0.07481302 0.12338397 0.053166382 0.1286691 0.015251116 0.23616129 0.19627313 0.056646217
0.1341442 -0.014005176 0.14682797 0.018960465 0.16718362 0.03325769 -0.040575955 0.077641025
0.1343031 0.22935711 0.11499236 0.08301585 0.1805426 -0.016515654 0.21457553 0.11095903
0.09605114 0.13016826 -0.13469113 0.11690672 0.1820237 -0.20907709 0.023762876 -0.063006535
-0.01807663 0.0546009 0.071774 -0.065754324 -0.1420081 0.10360038 0.16413869 0.002640448
0.16078137 0.11841401 -0.056618437 0.06801335 0.07980409 -0.02451886 -0.04123724 -0.02853673
-0.09025709 0.09848715 -0.012571141 -0.073537745 0.17647684 0.06416668 0.15131369 0.17638992
-0.015837546 0.0068354164 0.16070847 -0.08144029 -0.02161336 0.040194012 0.051269643 0.028899223
0.054566037 -0.088116415 0.02822392 0.17886682 -0.10186218 -0.12268978 -0.15480052 0.052525308
-0.15326439 -0.07486192 0.13697498 -0.12065769 0.1107187 -0.10286453 0.020706035 0.038917292
-0.02130622 0.1518715 0.2350448 -0.03278312 0.12623926 0.06795793 -0.0015527126 -0.10628916
0.13920504 0.1329663 -0.080801494 -0.10050134 -0.13275497 0.13739091 -0.09281208 0.03360136
0.2587341 -0.010158701 -0.05125713 0.0652527 -0.081576794 -0.08283176 0.12712854 0.10638285
-0.018341329 0.21820016 0.18147945 -0.0411066 0.12384849 0.08918393 -0.088602655 -0.08096334

recurs2.weight_ih f4 [120, 30]
00000000: 4d1d 89bd 06bd fc3d 6a8a 5c3d 2075 e53d
00000010: 5014 8dbd 2976 d43d fc50 cc3d 712a 56be
00000020: e879 d4ba 16a4 0a3e 2555 813d 511c debd
00000030: af7b a9bd 33e1 403d 298b 683e b1b8 63bd
00000040: 0809 453e f5ca 81bd d068 b4bc 47e6 34be
00000050: eea9 06be 76f2 693e c75c 3dbd 0888 2d3d
00000060: 660a 49be 30f3 44bd 386d 6bbe 8b74 00be
00000070: a278 5dbd 8183 28bd 8142 7d3d cd1c 1fbe
00000080: eb22 d8bb 70a8 843d 66ec 5b3e 999c 8a3e
00000090: d213 e23d 1a3f 9b3d 7533 b2bc c2c3 0b3e
000000a0: 5794 9a3d 230c c3bc 9beb cd3c 04f6 98be
000000b0: c5cf 463e cdcb 8b3d 4316 acbd 5b44 71bd
000000c0: 78d6 3c3e 6e47 ab3d 2d64 823d f8ee 8abb
000000d0: ae2c d73d 10cd d53d e767 d8bd 6730 bb3d
000000e0: b135 cd3d 53bf e63c 7210 083e c26b 3bbe
000000f0: 0a38 d2bd 0bbc eb3c e78e 573d 4550 ecbc
00000100: fb8e 753d 9cc6 a63d 7055 18be b93d 8a3d
00000110: 3eb8 42bc be84 ffbd 8d09 b23b 5338 34bd
00000120: a6bc d8bd 078d 56be aafe 053e 0867 e2bd
00000130: f885 24bd 7a7c 483e 63e8 babc 41d2 05be
00000140: 9245 2ebe de46 a5bb 196c d6bd 13fb b23c
00000150: 0059 a0bc 0726 04bd 9595 ee3d 5293 89bc
00000160: 616f ebbd 4562 f1bd 92db 7a3d f644 a2bd
00000170: 5f7e 9d3d 4f07 e0bc a45f 203e c0bb c0bc
00000180: 9bd1 5dbd d2c0 733c 0b4a cdbd 02d8 a83d
00000190: 157a 4dbd 0f39 a83d 48bd 6d3d 3fcf a83d
000001a0: e751 94bc 9813 db3d 98e6 c2bd dd28 03be
000001b0: 674b bdbc 4c91 24be 6678 f0bd 2c17 973d
000001c0: c7b3 343e 0a3f 7bbd b789 c0bd 1344 25be
000001d0: 38c7 bb3c 1fc4 9d3d 4a41 3abd f4d2 183e
000001e0: 8e86 52be 8d6e 8cbd b526 06be 6a61 ef3d
000001f0: 6b42 133e e6e5 7f3e bde8 913d 0d0b 213e
00000200: 65b6 29be f948 2fbe c23d b33c 9c1b c4bd
00000210: d444 293d 8f91 c1bd 4654 a7ba 906b 50be
00000220: b41b da3d 3d64 d53c 818f 58bd 75e8 ae3d
00000230: 2ff8 a23d 3200 f1bd 05e2 a8bd 9775 b3bd
00000240: 9bb1 493e 148f 453e 15e2 f63d 0a3f a63d
00000250: 7055 83be 1848 f2bd dcc0 24be e297 93bd
00000260: e944 14be 77f4 0c3e 37ef dd3d 5d32 233e
00000270: cd50 0abd 5f63 353e cc33 eabb b9b5 23bd
00000280: 3ded dc3d 5b66 d93d 89ce 26be 0482 d53d
00000290: 48ef d1bc 7842 5f3d d23a 6cbe c7f3 a93d
000002a0: f241 c5bd 9a97 04be 2752 90bd 5429 96bc
000002b0: 680e 15bd be68 f5bd 33f8 2f3d ef29 103d
000002c0: ddc2 40be 551b 513d 3b41 083c 1b54 9a3c
000002d0: 10b7 ed3d 62b7 483c 0f23 bf3d e65e d8bd
000002e0: 9258 92bd 5bfd c03d b81c 8fbd 73b6 c53c
000002f0: 00e4 493e d91e 09be 42f9 90bd 6c68 d23d
00000300: 8ac4 da3c 78df 393e 47b0 d43d 4821 dc3d
00000310: 4556 de3a 34a6 57bc ad53 e33d 45b1 61bc
00000320: d6a8 5ebe b333 063e c787 603d f2a6 92bd
00000330: a640 8d3d 7043 bbbc 959f 17be 6674 a1bd
00000340: f499 703d 974b 08bd 98f0 a83d 1d52 c1bc
00000350: 1216 573e 0b86 323e 3c1b 103d 2673 143e
00000360: e366 0b3e 8b0e ee3d 9d74 113e ed19 003e
00000370: 3de6 f2bc 17e7 5dbd 1ba8 21be d5a8 f53d
00000380: cd15 1cbd b4a0 9e3c d963 053e acaf 2fbd
00000390: 8ea6 953d 985a a1bd f385 9a3d e03a bf3d
000003a0: 0a6b 8d3d 3506 a93c 1b0e 9abe 64a6 6bbe
000003b0: 19f1 55be c6fe c63d 0824 7c3d f510 aabd
000003c0: c4a0 783e f616 b13d ef02 ddbc f21c 873d
000003d0: 4c91 8dbd 2823 d43d 2d70 203e bdcf abbd
000003e0: b91b b73d f83e 3d3e c27e 82bd 40c0 02be
000003f0: 2a9a 9abb c067 b1bd da3e 553d 926f ae3d
-0.06695042 0.12340741 0.05384294 0.112039804 -0.0688864 0.103741 0.09976384 -0.20914628
-0.0016210647 0.13539156 0.06315068 -0.10845245 -0.08275544 0.047089767 0.22709335 -0.055596057
0.19241726 -0.06337539 -0.022022635 -0.17665969 -0.1315076 0.22846398 -0.046231057 0.042366058
-0.19632873 -0.048083484 -0.22990882 -0.12544458 -0.054070123 -0.041141037 0.061831 -0.1553833
-0.0065959594 0.064774394 0.21476898 0.270726 0.11038937 0.07580395 -0.021753052 0.13648894
0.07547825 -0.023809498 0.02513676 -0.29875195 0.19415195 0.06825981 -0.084026836 -0.05890308
0.18441188 0.083632335 0.06366763 -0.004239913 0.10506569 0.10439503 -0.10566693 0.091400914
0.100200064 0.028167402 0.13287523 -0.18302825 -0.10264595 0.02877619 0.052626517 -0.02884687
0.05995081 0.081433505 -0.14876342 0.06750054 -0.011884747 -0.124764904 0.0054332674 -0.043999027
-0.10582857 -0.20952235 0.13085428 -0.11054808 -0.040166825 0.19578734 -0.022815889 -0.13068487
-0.17018726 -0.0050438484 -0.10469837 0.021848237 -0.019573689 -0.03226283 0.11649624 -0.01679388
-0.11495853 -0.117863216 0.061244555 -0.079233095 0.07690119 -0.027347235 0.15661484 -0.023527026
-0.054154973 0.014877515 -0.10023888 0.08244325 -0.050165255 0.08214008 0.05804184 0.08242654
-0.01810546 0.106970966 -0.095166385 -0.12808557 -0.023107244 -0.16071051 -0.11741714 0.073774666
0.17646705 -0.061339416 -0.09401267 -0.1613925 0.022922143 0.07703423 -0.04547242 0.14924222
-0.20559141 -0.068570234 -0.13100703 0.11688502 0.14380805 0.24990043 0.071244694 0.15726872
-0.16573484 -0.1711768 0.021880034 -0.095755786 0.041325405 -0.09451591 -0.0012766204 -0.20353532
0.10649815 0.026048774 -0.05287123 0.085404314 0.079574935 -0.117676154 -0.08246235 -0.08762663
0.19696657 0.19292861 0.120548405 0.081174925 -0.2565112 -0.11830157 -0.16089195 -0.07206704
-0.14479412 0.13765131 0.10836642 0.15937181 -0.033768464 0.17713688 -0.007147288 -0.039968226
0.10787437 0.10615226 -0.16289724 0.10425189 -0.025626794 0.05450675 -0.23069313 0.0829845
-0.09631719 -0.12948456 -0.07046919 -0.018330254 -0.036390692 -0.119828686 0.04296131 0.03519624
-0.18824334 0.051051456 0.008316333 0.018838933 0.11607182 0.012250753 0.09332859 -0.105649754
-0.071458 0.09423324 -0.069878995 0.02413485 0.19715881 -0.13390674 -0.07078792 0.10273823
0.026705045 0.18151653 0.10385185 0.107485354 0.0016962966 -0.0131621845 0.11099944 -0.0137751745
-0.21744093 0.13105659 0.054816987 -0.071607485 0.06897096 -0.022859305 -0.1480697 -0.07883529
0.05874057 -0.033275213 0.082490146 -0.023598725 0.21004513 0.17433946 0.035182223 0.1449705
0.13613467 0.116238676 0.1420464 0.1250989 -0.029650802 -0.054175463 -0.15786783 0.11995093
-0.03810673 0.019363739 0.1302637 -0.042892143 0.073071584 -0.078786075 0.0754508 0.093374014
0.06905182 0.020632843 -0.30088887 -0.23012692 -0.20892753 0.09716563 0.0615578 -0.083040155
0.24280077 0.086469576 -0.026978938 0.06597318 -0.06912479 0.10358268 0.15667792 -0.08389232
0.089408346 0.18481052 -0.063718334 -0.1276865 -0.004718085 -0.08662367 0.052061893 0.08517374

recurs2.weight_hh f4 [120, 30]
00000000: de29 16bd 2833 853d b592 a53c a807 2c3d
00000010: 94fa acbd aff0 9ebd 9ae8 dbbd de77 0dbe
00000020: ff99 aebd 670f 473d d528 be3d be38 6b3d
00000030: 691b 0a3e 9a63 123e 144a 303e b7b4 073e
00000040: 06f4 1b3b 6945 6c3d a3f1 c7bd d580 013b
00000050: 8f42 723c 6332 15be 522b 1d3e 74ad 50bd
00000060: 60a6 df3d 7eb1 a33d fab9 f6bd 8bd0 5a3d
00000070: 7bc2 b3bd 2b45 b0bd 18e4 bc3c 7dcd a73d
00000080: 23b0 08be be47 3d3c 202f ed3d e550 73bd
00000090: acf6 b9bd 9efe 58be 21c6 9f3d 5fe9 2c3e
000000a0: 4d23 f13d 165a 7dbe cc6b 0abc 63a8 ae3d
000000b0: 5a69 80bd 0fd8 7cbd df97 42be 68bb 60be
000000c0: 2f00 94bd 2edc fabb 2a7e 4f3d 7c37 fcbb
000000d0: 395f 1abe 7c7c 983d 5f94 30bd 8dde 3f3d
000000e0: 0883 78bc ac60 283c 0283 e93b 6512 4dbd
000000f0: b698 163e f848 56bd 5e53 2bbe 4679 51bc
00000100: 1ce3 ecbd 9980 4c3d 51f0 853d 6aea a7bd
00000110: de44 a0bd acd1 693d 067f 04be 7d7b 5e3d
00000120: f8da 25be c977 0a3e 6ed5 dbbd a6ab 3dbe
00000130: 64b9 5d3d ec51 68bc 80d8 22be 0dd6 133e
00000140: c45a 65bd 97f3 093e 4843 8dbc 5aeb dd3d
00000150: 4d34 5fbd 887a 05be 8edc 10be 6cd7 a7bd
00000160: 3bfd 9dbd 37a7 db3d 8f08 20be d54a 003c
00000170: 58de 8ebb ecf2 483c f303 b43b 3f25 233e
00000180: 6edd 1bbc b7bb 68be 55b2 693d ecd6 18bd
00000190: 3564 cc3c 1e37 a8bd ea01 babd ceee 813e
000001a0: c86a b5bd dd57 93be 9c2f cfbd f30c 64be
000001b0: 7ffe 63be e264 c83b 720d 023e 7314 173e
000001c0: a8a3 c2bd c7f4 3c3d 955d 4a3e 2e0d 613c
000001d0: 8959 c0bc 9334 46be e8e2 1c3e e168 ac3d
000001e0: fbd2 173d 2f11 bb3c 4923 013e 0639 c7bd
000001f0: 0354 3d3d 1cfd f2bd 2d7c 373e cb79 3abe
00000200: 9032 77bd d5c1 d33d 0fb0 113c 4f7a 14bd
00000210: df2d a5bc 2397 fb3c 385d 4ebe d735 c1bd
00000220: 35b3 0b3d 3bf5 053e 31b7 2abe 528d b3bd
00000230: 2ccb ecbd e60b 87bd 4c9a bcbd 93b5 a0bd
00000240: 24cd e43d 404e 26bd 511c d53d 75a8 e6bd
00000250: 4a84 4abe 402a 2e3d 038b a5bc 1b1d f4bd
00000260: 3436 41be 1607 e83d 30fc 0bbd 04b5 6c3d
00000270: 7367 963a 6296 babd f4d2 e0bd 2717 4a3e
00000280: 1330 66be b9b3 eabd 5255 c3bd 37a1 f0bb
00000290: 148e a63c 8a77 b63d ced9 3c3e d6fc 0abe
000002a0: 9316 cebd 60c7 083d c523 053e d017 fabd
000002b0: b2fe 29bd 040e d9bd 382d 2d3d 1bcf 7abd
000002c0: 74d3 b8bd 4944 75bd 041a 54bd 2a44 643d
000002d0: 9e11 76bd ce00 a4bd fee8 333e ad00 c9bd
000002e0: dd00 d43d ce77 e9bd 0629 bebd a67e b63d
000002f0: e16b 363d 251a 0dbe 094b 483e 31ec fabb
00000300: afca 0e3c bb42 23bd a55e 3c3e 9fa6 d13d
00000310: de2a 983d 5a9e abbc 8075 443e 1a9b 9f3d
00000320: 030e a93d 1ae6 29bd d98f 26be 9d48 0b3e
00000330: 5708 4dbe 721d 46be 0b62 a8bc 86a6 a5bc
00000340: 09b8 0fbe b60e 083e 5edf 80bd cbb2 d1bc
00000350: 1790 1b3e da24 d33d 3924 85bd a265 0c3d
00000360: ec76 9fbd 3742 32be 63df 23bd d156 ba3d
00000370: 99bc d5bd 68ce f8bd b3bd 6cbe 27ad 88bc
00000380: 2661 aabd 0947 a3bd 4ae3 423e a57a f93c
00000390: d1b5 d43d cef6 26bd 2e38 66bd 0804 923c
000003a0: 847f aebd 19b3 99bd cd6d f53d 069c acbc
000003b0: 8ae0 023e 6174 bf3d 51ca 023e ef96 173d
000003c0: b23c ed3d 6fd4 063e 4287 f9bd 761f a73d
000003d0: 906c 063e 6fec d33d ba5d 753e 8f0b 3fbe
000003e0: cf5e 2dbd 9fea 423e 2c85 43be 1a4a 39be
000003f0: 3cd6 813d 8662 283e 2091 733d 80ce f4bd
-0.03666102 0.06503898 0.020211557 0.04199949 -0.084462315 -0.077607505 -0.107377246 -0.13815257
-0.08525466 0.048598673 0.09285132 0.05742716 0.13487019 0.14295807 0.17215759 0.13252531
0.0023796572 0.057683382 -0.097628854 0.0019760628 0.014786377 -0.14570002 0.15348557 -0.050946668
0.109204054 0.07992838 -0.12047191 0.05342154 -0.087773286 -0.08606943 0.023057982 0.08193491
-0.13348441 0.011552749 0.11581254 -0.05940332 -0.09080252 -0.21190879 0.07801462 0.16885899
0.11774311 -0.24741396 -0.008448552 0.08528211 -0.06270094 -0.061729487 -0.19003247 -0.2194649
-0.072265975 -0.007655642 0.05065743 -0.007697044 -0.15075387 0.074456185 -0.043110248 0.0468431
-0.015167959 0.010276955 0.007126213 -0.05006637 0.14706692 -0.052315682 -0.16731021 -0.0127852615
-0.11566755 0.049927328 0.06539977 -0.08199008 -0.078256354 0.057084724 -0.1293908 0.054316986
-0.16196811 0.13522257 -0.10734068 -0.1852251 0.05413188 -0.014179688 -0.159029 0.14437123
-0.055994764 0.13471828 -0.017243996 0.108359054 -0.054493237 -0.13035023 -0.14146635 -0.08195385
-0.077143155 0.10725253 -0.15628265 0.007830341 -0.0043600015 0.012264948 0.005493635 0.15932177
-0.009513242 -0.22727858 0.057054836 -0.03731434 0.024950126 -0.08213638 -0.09082396 0.25377506
-0.088582575 -0.28777972 -0.10116503 -0.22270565 -0.22265051 0.006115542 0.12700441 0.14753895
-0.09503871 0.046131875 0.19762261 0.013736052 -0.023480194 -0.19355993 0.15320933 0.084184416
0.03706644 0.022835342 0.12611116 -0.09727673 0.046222698 -0.11864683 0.17918463 -0.18210523
-0.060350955 0.10339705 0.008892073 -0.036249455 -0.020163475 0.030711716 -0.20152748 -0.09434097
0.034106452 0.13081829 -0.16671444 -0.08767189 -0.115621895 -0.06594066 -0.09209117 -0.078471325
0.1117194 -0.04060197 0.104057916 -0.112625994 -0.19777027 0.04252076 -0.020207888 -0.11919614
-0.18868333 0.113294765 -0.03417605 0.057789817 0.0011474922 -0.091107145 -0.10977736 0.19735394
-0.22479276 -0.114600606 -0.09537758 -0.007343437 0.02033142 0.08909519 0.18442461 -0.13573012
-0.100628994 0.033393264 0.13001926 -0.12211573 -0.041502662 -0.105983764 0.042279452 -0.061232667
-0.090247065 -0.059879575 -0.051782623 0.05572907 -0.060075395 -0.08007966 0.17569348 -0.09814582
0.10351727 -0.11399804 -0.09285168 0.08910875 0.044536475 -0.13779505 0.19559874 -0.0076575507
0.008715316 -0.03985856 0.18395479 0.102368586 0.07430051 -0.020949531 0.19185448 0.07793255
0.08254626 -0.041479208 -0.16265811 0.13601919 -0.20022713 -0.1934717 -0.020554563 -0.020221006
-0.14035048 0.13286862 -0.06292604 -0.02559795 0.15191685 0.10309763 -0.065010495 0.034276612
-0.077863544 -0.17408071 -0.04000796 0.0909859 -0.10436363 -0.12148744 -0.2311924 -0.016684128
-0.08319311 -0.07972533 0.19032016 0.03045399 0.10386241 -0.040762715 -0.05620592 0.017824188
-0.085204154 -0.07504863 0.119838335 -0.021070492 0.12780967 0.093483694 0.1277249 0.037009176
0.11583842 0.13166974 -0.121840015 0.081602976 0.13127351 0.103478305 0.23961535 -0.18656753
-0.042326745 0.19034813 -0.1909377 -0.18094674 0.0633969 0.16443834 0.059464574 -0.11953449

recurs2.bias_ih f4 [120]
00000000: 607b 193e 1424 22bd ee61 b63d fd27 653d
00000010: 0655 0abd 466a 8f3d 25b3 01be b23b 503e
00000020: 3029 da3c cbe0 9c3c 1d64 6ebd 3c74 c2bd
00000030: 7e98 aebd 3bab 263e 54af 3e3c e102 683e
00000040: b9e1 70bb 5fdd 1cbe a91b b4bd bede b83c
00000050: 1727 7ebd f5b6 67bd 63a7 f33d fe7d aa3d
00000060: 340c f0bc 4963 20be db8f 2bbe 7476 693c
00000070: d8a3 65be 0a1b ce3d a4bf 9a3b 5896 0eba
00000080: a1e5 fcbc ace3 a23d fc36 cebd 3f22 17be
00000090: 5bd7 7fbd a79e f73d 35fc e9bd 6cd7 e63c
000000a0: 6d08 0a3e 94b3 c83d a4b0 0e3e 0ae2 82bc
000000b0: de74 cd3d f5e8 273c da4f 0c3e 9260 b63d
000000c0: 87ca 723d 498b 3f3d 243f 6c3d f82d 723d
000000d0: 9c61 e23b 59eb d0bd c7b4 ee3c 6a73 1e3c
000000e0: 0d5e e83d dc1b ef3d 2f40 2abe 169e bdbc
000000f0: 93f0 3abe 25d1 ae3d 7e3f c0bb d21f 63bd
00000100: f2da f43d 889f c63d bf45 3abb d19d e13d
00000110: e2fd 02bd dd10 4ebd 169a b4ba f907 4fbd
00000120: e97a 9bbd 03ef ab3d 789d 72bd c1b6 5f3d
00000130: 389b 4b3e 0d8c efbd 5516 ab3d 2ac0 4fbb
00000140: 7acf 023e 1768 f93c d238 043d 85d2 a23d
00000150: 5528 e8bd 2de8 553d ae1b 13be adf7 46bd
00000160: 62e5 2c3d 0329 e1bc 3481 b13b 8436 933d
00000170: 6384 553d 926b 8fbc d3b2 80bc 2507 d4bd
00000180: 9a6d 523d ca39 533e f238 e63d b388 4a3e
00000190: 160b eb3d a96e 81bb a997 9c3b f394 313e
000001a0: c61a 6a3d 40be f23d fbdf 0abe 6b82 863d
000001b0: 31f1 013d 1601 0cbe 7d7a 843d 152a d63d
000001c0: 29bf f33c c6ab 1dbe f7c0 053e 2151 2ebe
000001d0: 1192 bf3d 56a8 0b3d 8ca7 e0bd a102 95bd
0.1498847 -0.039585188 0.08905397 0.05594634 -0.03377249 0.07002692 -0.12665994 0.20335272
0.026630968 0.019150158 -0.058200944 -0.09494826 -0.08525179 0.16276257 0.011638481 0.22657348
-0.0036755635 -0.15318821 -0.08794338 0.02256715 -0.062048998 -0.056570966 0.11897161 0.08324812
-0.029302694 -0.15662874 -0.16754095 0.014249433 -0.22425783 0.10063751 0.0047225524 -0.0005439273
-0.030871214 0.07953581 -0.10069081 -0.14759158 -0.06246124 0.120908074 -0.11425058 0.028178893
0.13479777 0.09799877 0.1393457 -0.015976924 0.10032056 0.010248412 0.13702336 0.08905138
0.059275176 0.046763692 0.057677403 0.05912587 0.0069086086 -0.10201139 0.029138936 0.009671072
0.11346064 0.11675236 -0.16626047 -0.02314667 -0.18255834 0.08535985 -0.005866944 -0.055450268
0.11955823 0.09698397 -0.002842292 0.11016429 -0.031980403 -0.05030905 -0.0013778831 -0.050544713
-0.075918026 0.08395197 -0.059232205 0.054617647 0.1988343 -0.116966344 0.08353869 -0.0031700232
0.12774459 0.030445142 0.03228075 0.0795031 -0.11335818 0.052223373 -0.14366028 -0.048576046
0.042210944 -0.027485376 0.0054170135 0.071881324 0.052128207 -0.017507348 -0.01571027 -0.10352925
0.051374055 0.20627514 0.1124133 0.19778709 0.11476724 -0.0039499593 0.0047788215 0.17341976
0.05715444 0.118526936 -0.13562004 0.06567844 0.03172416 -0.13672289 0.06468675 0.10457245
0.029754238 -0.15397558 0.13061891 -0.17023136 0.09354032 0.034096085 -0.10969457 -0.07275892

recurs2.bias_hh f4 [120]
00000000: 3c07 423e 75c9 813d 5e2f 08be f945 37bd
00000010: a4f3 21be 0410 e6bd 6eca 993b 6662 713e
00000020: 584c 373d ba82 493e d7eb 25be 8626 dabb
00000030: d41d 4e3d a5ef 2fbc f833 863d 0f51 843d
00000040: 3e04 253e 3a92 8c3b 1229 97bc 067a 0b3e
00000050: 832e 04bd add7 203e fb18 413e 1430 d2bd
00000060: 1c12 f2bb 2a83 7fbd 0c4c fe3d 1ec5 65b9
00000070: 2742 b2bd 1277 333e b3bd 093d b9f6 b63d
00000080: 833a adbd 1f38 45be a424 e93c f359 263e
00000090: d43f 053e f7da 0abd 681d 4d3e 0d33 e4bd
000000a0: 987d 283e c8d2 e1bc 53d2 15bd d38f b03d
000000b0: ee3c 543e e1a3 063e 6a98 b8bd 16ba 1d3d
000000c0: fff5 a33d df92 1dbd a45b 963c 8311 3f3e
000000d0: 1015 66bc 7933 273e f673 3bbe 50e7 a5bd
000000e0: e3ec 003d 928d 7abd 5d5d 1ebe 5b54 f6bc
000000f0: f753 f6bd 847d b23b 0b22 7f3d 00ea 70bd
00000100: ae03 793d e06d a73d 9641 1e3e 5376 cabd
00000110: 8c49 32be ad2b 31bd c7d1 7abc 5358 453d
00000120: fd66 11be 4229 383e 268f 363e c9f1 87bd
00000130: d0e1 843d 5041 a33b 1d6e d0bd fb63 57be
00000140: 0bc3 193e da28 313e c64f ab3c 506f 00be
00000150: 5252 393d f065 c1bd 79c7 ca3d 3409 0f3e
00000160: b386 f33d 2a27 5a3e 3656 933d dad0 cf3d
00000170: eb17 45bd bd80 ccbc 93c4 21be 0569 6b3d
00000180: da2a c53d 5f2d 093e febe 353e 0353 343e
00000190: c9f6 22be 15fa acbc 71dd e8bd 0d1b 673e
000001a0: fe57 353d 89c3 c4bd 55ad e23d 48f0 abbd
000001b0: 6c2f 9e3b 4e06 053e e811 0a3e b5b7 193e
000001c0: bbcf fd3c 2222 4cbb 9c41 18bd 0755 4abe
000001d0: ebfc a2bd 9c94 293e c5f3 053d 3d6b e1bd
0.18948072 0.06337253 -0.13299319 -0.044744466 -0.15815598 -0.112335235 0.004693321 0.23572692
0.04475054 0.19678774 -0.16203247 -0.0066574244 0.050321415 -0.010738288 0.06552881 0.06460773
0.161149 0.0042898925 -0.018452201 0.13620767 -0.03227092 0.15707274 0.18857186 -0.102630764
-0.0073874127 -0.062380947 0.124168485 -0.00021912574 -0.08704024 0.1752589 0.033628177 0.08933777
-0.08458426 -0.1925969 0.028459854 0.1624525 0.1301263 -0.033900227 0.20030749 -0.1114255
0.1645416 -0.027566329 -0.036577534 0.08621182 0.20726368 0.13148452 -0.09013446 0.038507544
0.080059044 -0.038470145 0.018354245 0.18659024 -0.014043108 0.16328229 -0.18305954 -0.0810076
0.031475913 -0.06117017 -0.15465303 -0.03006952 -0.12027734 0.0054470915 0.062288325 -0.05881691
0.060794525 0.08175254 0.15454707 -0.0988585 -0.17410868 -0.043254543 -0.015308804 0.048179936
-0.14199443 0.17984489 0.17828044 -0.06637914 0.06488383 0.004982151 -0.101772524 -0.21034233
0.15015809 0.1730074 0.020912062 -0.12542462 0.045244522 -0.09443271 0.09901328 0.13968354
0.11890926 0.21304002 0.07194178 0.10147257 -0.048118513 -0.024963731 -0.15797643 0.0574732
0.09627314 0.13396214 0.17748639 0.17609791 -0.15914454 -0.021115342 -0.113703616 0.22568913
0.04427337 -0.09607608 0.11068217 -0.083954394 0.0048274305 0.12990686 0.13483393 0.15011485
0.030982843 -0.0031148274 -0.037171945 -0.19758998 -0.079583965 0.16560596 0.03270318 -0.11006782

output.weight f4 [2, 30]
00000000: 99ee ea3d d417 a03d 3ee6 71be 6b56 493d
00000010: 8d96 08be 7ac6 91bd 9f38 0abe 2f1f 033e
00000020: b3be 1c3e 7978 14bd ebfe 44be 2ece 1bbe
00000030: 606a 0c3d b84b 723d a67a efbd 01a7 11be
00000040: effc 33bd 9a1b bbbd 09a5 af3d fc5c c6bd
00000050: b5d5 afbd 8b09 71be 81bb f5bd 4246 263d
00000060: a35e f43b 6104 30bd 8ff1 df3d 8968 41be
00000070: 560b cebd b8ea 51bc e55a 083e 3fb6 85be
00000080: e649 68bd 0d5c 29be a988 bfbd 0fc9 8abe
00000090: f8a8 cabc a559 1b3e 925d 363e 5604 35be
000000a0: 1f23 c23d 79d1 4c3e 384d 923e a232 93be
000000b0: d5fa 5a3e 12ba 8a3e f8bf 0cbe 51a9 263e
000000c0: be42 143e 85c6 303e bc17 32bd cfec 48be
000000d0: fb08 1bbe 2c83 0d3e 09a5 3dbe 2d08 e93d
000000e0: 4afc 85be f412 853e 1231 a93c b55f d7bd
0.1147129 0.07817045 -0.23622987 0.04915468 -0.1333868 -0.071179345 -0.13498162 0.12804864
0.15307121 -0.036247704 -0.19237868 -0.1521537 0.034281135 0.059154242 -0.11693315 -0.14223863
-0.04394239 -0.09136124 0.085764 -0.09685704 -0.08585683 -0.23538797 -0.11998654 0.040594347
0.0074575706 -0.042972926 0.109347455 -0.18887533 -0.10060756 -0.012812309 0.13315924 -0.26115605
-0.0567111 -0.16539021 -0.09352238 -0.2710652 -0.024738774 0.15170915 0.17809132 -0.17677435
0.09479355 0.20001782 0.28574538 -0.28749567 0.21384747 0.27095085 -0.13745105 0.16275527
0.14478585 0.17263229 -0.043479666 -0.19621585 -0.15140145 0.1381957 -0.18519987 0.113785125
-0.26169044 0.25991023 0.020653281 -0.105163015

output.bias f4 [2]
00000000: 3b19 82be c6fd 61bd
-0.25409874 -0.055173658

switch.weight f4 [1, 30]
00000000: 2e4b 083e 3be3 223d c8d3 763d 5e46 85bd
00000010: bd1e 173e b98f 423d 114e 33be b68d 0abd
00000020: 0fe1 963c 489b 853d b1ee 8d3c bb58 1d3e
00000030: 7fda 03bc 83be 51bd f167 41bd ca30 e13d
00000040: 9921 2dbe 0893 1f3e 59c5 a2bd a830 de3d
00000050: 7d1c 0bbe 5f30 bcbd c5db 2dbc 69bc cfbc
00000060: b1a4 c9bd acc4 2abe fa86 0bbe e346 503e
00000070: bc28 a73d 86a6 87bd
0.13309929 0.039767485 0.060260564 -0.06507562 0.1475782 0.047500346 -0.17510249 -0.033826552
0.018417863 0.06523758 0.017325731 0.15365879 -0.008047699 -0.051207077 -0.047218267 0.10995634
-0.16907348 0.15583432 -0.07947797 0.10849124 -0.13585086 -0.091889136 -0.010611479 -0.025358396
-0.098458655 -0.16676587 -0.13625708 0.20339541 0.08162066 -0.06623559
