checkpoints/VQE-H2-a44dc92f/model.pth (torch, 49793 bytes, 11 tensors)

recurs1.weight_ih f4 [120, 2]
00000000: 860e a9bd 5f94 9b3e b803 4abe f434 e9bc
00000010: fbd8 0dbe 5b78 f2bd 1b97 fbbd 1d18 023e
00000020: f62f babd 9ef5 063e b04f 3ebe 75d7 4c3e
00000030: 9914 80be 4c87 0a3d f64b fabd 06d2 3c3e
00000040: 99b5 c9bc 7b65 9a3e a971 3cbe 9753 47be
00000050: 96d2 063d 611f 5e3e 681e 4abd 53f9 883e
00000060: 6743 0dbe 0cdf 8abd 8b92 893d 3579 3c3d
00000070: d881 35be 597d c7bd a60f 24be 46f7 853d
00000080: 20ef 39be c0cc 33be 7ce2 4dbe 910d 36be
00000090: 72fb 3dbe 2546 963e 32f7 573b 5681 623e
000000a0: a74c 1abd afc2 263d a2d1 78bc 5ed1 31be
000000b0: c2e7 71be 7ae6 b2bc 6abe 1bbb 7e65 88bd
000000c0: cbaf 03be 9db1 cc3d 85f6 743c ddfb b73e
000000d0: 5b4e 833c bdaa 2d3e 6ed5 fd3d 683e fdbd
000000e0: 2582 6a3c 8318 08bd 5d7e 81be 52dd edbc
000000f0: 9cfc 843d a0dc 893e 06ab dcbd 6943 3a3e
00000100: 8e4d c73d ada3 53be 6613 c7bd a255 c03c
00000110: 1fff fc3d a1f8 963e 0721 00be 3e76 1c3e
00000120: bb58 e83d 112d 6c3e 73cb 2d3e 772e b03e
00000130: 3db2 e93c e800 6d3d da90 063d 65aa 4dbe
00000140: e2d4 2dbe 0db7 663e cbf6 273e 0046 9cbd
00000150: 37a9 b2bc b323 fabd 0732 28bd fc6c 033e
00000160: b113 3d3d b73b 3cbe 8f7e 953d 7a88 9abb
00000170: 7a88 093e 8dda 8fbc 64a1 2abe 24f5 ffbd
00000180: ce8a c83d 000b 4d3e db2b 42be 2eea a33c
00000190: 0ff0 203e 8346 7a3e deb5 2bbd 4558 0cbd
000001a0: 409d bcbd 7e45 e83d 2a45 37be 40ff a2be
000001b0: a9ca 26bc e0c7 473e 1a9e 01be 199b 8a3e
000001c0: f087 09be 7a88 993e 045e 1a3e 72ea 26be
000001d0: 0103 a0bc b563 c03d a5cd 543d a180 0e3e
000001e0: cfbc 713b 0ab9 4f3e b3ca 5fbd 79f7 973e
000001f0: 6569 37be 7959 9dbe 5983 3dbe a3e8 14be
00000200: 3b07 13bd 3352 c2be 14b7 f4bd d6c2 7e3e
00000210: 8038 70bd 6346 72be cb68 363e c219 5bbe
00000220: edd0 093d ca98 78be 3c05 863d 9b63 a43e
00000230: 6ed3 0c3e a4d5 9f3e b6e5 e53d 6b9b 603e
00000240: 035c 34be a8d2 6fbe 787d 393e 2250 5cbe
00000250: d908 27be 6f9b 63be 05ca 2dbe ebf4 afbe
00000260: 872f 73bc cbf4 9e3e e26a 7e3d e919 a7be
00000270: 2cfb df3d 5b6b b3be a095 8c3a 3436 5fbe
00000280: cacb 5a3b df20 26be 5860 4dbe f43b c6be
00000290: fc9a a2bd 3b68 633e fa9b 9dbd ffdd 953e
000002a0: c5d4 73be 0502 883d 0e16 743e 2977 83be
000002b0: a3ea 0a3e 239c 523e dee7 0cbe 2960 9d3e
000002c0: d4b0 0bbc 5a2d 94be a998 233e 4acf c2be
000002d0: f6a1 71bd ce7c 4c3e dcfe cd3d 93fc 443e
000002e0: 811e 2b3c 2182 05be 8867 07be e45a 97bd
000002f0: efb1 52be 6489 543e d827 863d a137 c53e
00000300: 1d28 3abe 2676 193e 08ea 20be 5f7b ea3d
00000310: e20c 3bbe 29b4 a13e db20 28be 3797 1bbe
00000320: 7e5a efbc 76e1 5e3e 019e 23be 4fcb 453d
00000330: 0fcb 4abe 5235 95bb 1d98 dcbd b937 d03e
00000340: 30a3 893c 4cfd 47bd e4cb 76bd d9be 29be
00000350: 005f 9ebc f6ab 15be 820f 99bd 527d 17bc
00000360: 63ae 3abe 25a7 ac3d cbe0 913d 146c ea3c
00000370: f769 08bd f221 b63e 354d ed3c 2d5c c73b
00000380: 6c47 63be f729 473e 4a3c 5ebe 9aa9 7abe
00000390: 22ff cbbd 7907 0d3e a9b5 46bd 21ef b53e
000003a0: 1e58 8dbc 6d6f a43e 549e f63d 1d91 06be
000003b0: 404a 873d 25c1 8bbc e15b 23be ea4f e83d
-0.08254723 0.30386636 -0.19727981 -0.028467633 -0.13852303 -0.11839362 -0.122846805 0.12704511
-0.09091179 0.13179633 -0.18585086 0.20004065 -0.25015715 0.033820435 -0.1222152 0.18439493
-0.024622725 0.30155548 -0.18402733 -0.1946548 0.032915674 0.21691658 -0.049345404 0.2675272
-0.13795243 -0.06780824 0.06717404 0.04601403 -0.17725313 -0.09740705 -0.16021594 0.06541304
-0.18157625 -0.17558575 -0.20105928 -0.17778613 -0.1855295 0.2935039 0.0032953736 0.2211965
-0.037670758 0.04071301 -0.015186699 -0.17365023 -0.23623565 -0.021838415 -0.0023764619 -0.06659983
-0.12860028 0.099948145 0.014951353 0.35934344 0.016028574 0.16959663 0.12394224 -0.12365419
0.014313255 -0.0332265 -0.2529172 -0.029036198 0.06493494 0.26926136 -0.10774808 0.18189777
0.09731589 -0.20667906 -0.09720497 0.023478333 0.12353348 0.29486564 -0.12512599 0.15279481
0.11345049 0.23064066 0.16972141 0.3441045 0.028527373 0.057862192 0.032852985 -0.20084532
-0.1697574 0.22530766 0.16402738 -0.07630539 -0.021809204 -0.1221384 -0.041063335 0.12834543
0.046161357 -0.18382154 0.0729953 -0.0047159763 0.13430968 -0.017560268 -0.16663128 -0.12497929
0.097921 0.20023727 -0.18962042 0.020009127 0.15716575 0.2444096 -0.04192149 -0.034263868
-0.092096806 0.113413796 -0.17897478 -0.31835365 -0.010180154 0.1950984 -0.12657967 0.27071455
-0.13430762 0.29986936 0.15074927 -0.16300371 -0.019532682 0.093940176 0.05195393 0.13916256
0.003688622 0.2028543 -0.05463667 0.29680994 -0.17911299 -0.30732325 -0.18507136 -0.14541869
-0.035895567 -0.37953338 -0.11948982 0.24879012 -0.058647633 -0.23659663 0.17813413 -0.21396545
0.033646513 -0.24277034 0.06543967 0.32107243 0.13752529 0.31217682 0.112254545 0.21934287
-0.17613225 -0.23420203 0.18114269 -0.21514943 -0.16311969 -0.22227262 -0.16971596 -0.34366545
-0.014842874 0.31046137 0.06211365 -0.32636955 0.10936579 -0.35042843 0.0010725744 -0.2179802
0.0033385628 -0.16223477 -0.20056283 -0.38717616 -0.07939717 0.2220773 -0.07695766 0.29270932
-0.23811634 0.0664101 0.23836538 -0.2567685 0.1356607 0.20567374 -0.13760325 0.30737427
-0.008526046 -0.2894085 0.15976204 -0.38048774 -0.05899235 0.19969484 0.10058376 0.19236974
0.010444284 -0.13037921 -0.13223088 -0.07390383 -0.20575689 0.20755535 0.06550568 0.38519004
-0.18179365 0.14986476 -0.15714276 0.114493124 -0.18266633 0.31582764 -0.16418783 -0.15194403
-0.029217955 0.21765694 -0.15978242 0.048289593 -0.19804023 -0.0045534754 -0.10771201 0.40667513
0.016801447 -0.048825547 -0.06025304 -0.16576709 -0.019332409 -0.14616379 -0.07473661 -0.009246187
-0.18230586 0.08430318 0.07122954 0.028615989 -0.03330418 0.35572773 0.02896748 0.0060839863
-0.22195214 0.19449602 -0.21702686 -0.2447876 -0.09960772 0.13772382 -0.04851309 0.35534003
-0.017253932 0.3211626 0.120419174 -0.13141294 0.06605959 -0.017059872 -0.15953018 0.113433674

recurs1.weight_hh f4 [120, 30]
00000000: be69 ff3d 9bda 443e 9a27 d9bc 06f0 743d
00000010: 4d06 d23c 50f9 06be 74c7 e33d 5857 57be
00000020: 07aa 2dbd ba00 0cbd 4f2c 07bd 66e3 3e3d
00000030: f3fc 303d af18 e8bd c664 7abd ec2e edbd
00000040: 1367 24be dc60 29bb d1a7 1fbe 8bef 43be
00000050: da2d 3abe 0e63 123e 03ea e23d 814b 503e
00000060: ba68 073e f46d 0dbe d745 db3c 42d0 6c3c
00000070: 4393 093e 55ee a43b a57f f7bc 2717 37bd
00000080: bc08 28be c901 c23d b0a0 0bbe 24a9 dabd
00000090: 477b 103e bac1 2fbe 4fac 9ebd e104 573d
000000a0: 88c5 2d3d b989 cfbd 2e81 3fbe cd31 b33d
000000b0: 155b 7d3d 7e50 0e3e 6d94 26bd 876e 4b3c
000000c0: 3dd0 cdbd dc8a 68bd 629e 31be 43c2 fc3c
000000d0: 26df a63d 5747 05bc 6e9c 933c 99d3 31be
000000e0: aa58 403e 4327 d2bd f374 163d 3563 cebd
000000f0: d0d4 fabd 9d26 f7bd 5542 9a3c 20a3 bb3d
00000100: c841 3e3e b2b6 34be abb6 363e 180e 1b3e
00000110: 78d2 043e 6643 14be 8dda 9fbe dad3 3bbe
00000120: 159d 1f3e 8fc2 78bd 5de0 313e 30a9 7d3e
00000130: 20a5 60be 1cae 0e3e 2595 283e 20e3 b43d
00000140: 76be 473c b4d0 283e 0fe0 86be 44c5 c0bd
00000150: 3a32 123e 2d91 4b3e d369 023d 4536 e5bd
00000160: c6e9 703e c935 863d 8e4a e7bc 0e5b edbd
00000170: b3cf 823e eed0 8a3e 9f69 23be 52b5 163e
00000180: 0d02 ca3d 8992 d43d efb1 aa3d fa13 a13d
00000190: 7f59 91ba 44aa 13bd 862b 523e a0b8 a9bc
000001a0: 6fa4 e63c fe84 5a3e 707e 0f3d 8dcc f23d
000001b0: d462 30be 3f62 94bd 3837 50be deed 0b3e
000001c0: b327 893b 6973 daba 8f58 2e3e be4f 2cbd
000001d0: 328a 613d ba0a 813d c319 20be 52ff a53c
000001e0: 5d5a 29bd 44fa 02be 96ce 1cbe d37e 713e
000001f0: dd56 6c3d fb49 813e 5615 003e b096 6fbe
00000200: 455b 50be 3c33 d2bc dfbc 96bd 6f37 153e
00000210: d807 ebbd d2d7 33be 9561 e4bd ed24 d1bd
00000220: 21e7 243e 23bf 0c3e b316 013d 9b18 973d
00000230: adaa 873d 8490 bcbd 3bfc e73d 991f 013e
00000240: 5863 1e3e f413 a73d 678c 3e3e a055 283e
00000250: 064f 07be 5322 f73c aaf4 dd3d 236c d2bc
00000260: 2e0e 2dbd 000d d335 5e5b 3dbe 6257 1d3e
00000270: 9050 193e 13a6 80bd a177 fbbd 52a4 fe3d
00000280: 79e0 153e 1635 6a3c 126f 06be 4054 d23d
00000290: 97cf 323e 3da6 34be 4d80 4a3e 4bf0 143d
000002a0: 214c 23be 98e2 6e3c fa50 57be f889 5bbd
000002b0: 26b5 3f3e d814 ee3b 98bf 1dbd f424 2bbe
000002c0: f874 593d 1b27 c9bc e6e8 74bc f165 bd3d
000002d0: 952b 913d 6e55 70bd f9b1 e33c 4dbc e53d
000002e0: 59d0 9e3c 18bf d3bd d627 57bd 621e 4dbe
000002f0: 0370 0fbe c484 6b3d 87cb a2bd 6ab5 b43d
00000300: 9a68 873d b3c5 86bd 8c2e c5bd 92c5 f4bd
00000310: 6409 c23d 7c86 83be 0a9b 60bb b39d 4fbe
00000320: 4a6b 81be 29e9 6abe bdf5 063d 9038 0d3e
00000330: 5f4e dabd 3319 9a3d d512 9e3b 88dd c83d
00000340: 44bb 88bd 5397 86be c7cd 3f3e 2061 173e
00000350: 793c 353e 5156 f93d 16ce 34be 8626 463e
00000360: cb82 86bc 10e2 4d3d 190e 3dbe 10cb 1abd
00000370: cddd f7bd cca0 07bd 7cf6 38bd c05e 39be
00000380: 2e1e 903d 293a debb 8641 f73d ff0d 75be
00000390: 524d 40be 46c5 b8bd 718b 1c3d 7408 f43d
000003a0: ee8c 113e 43c3 133d c6d5 ce3d f49a 6bbe
000003b0: 098b dbbd b062 183e 7e05 22be 6732 ac3c
000003c0: efab 41bd bab9 9cbc 66ad 23be a900 333e
000003d0: 2bf9 c8bd b8ae 593e 16ba b43d 7f91 143d
000003e0: 94de 76bd 0718 57bc f342 273d 6785 243d
000003f0: bbac 8f3c 83fb 50be 8c38 603e de5b f5bd
0.124713406 0.19224016 -0.026508141 0.059799217 0.02563777 -0.13181043 0.11122027 -0.21029413
-0.04239848 -0.03418038 -0.03300124 0.046603583 0.04320998 -0.11332833 -0.06113126 -0.11581215
-0.16054945 -0.0025845086 -0.1559136 -0.19134347 -0.18181553 0.14295599 0.110797904 0.20341302
0.13223544 -0.13811475 0.0267667 0.014453949 0.13435082 0.005033294 -0.030212233 -0.044699814
-0.16409582 0.09472997 -0.13635516 -0.10676792 0.14109527 -0.17163745 -0.07747709 0.052494887
0.04242471 -0.101336904 -0.18701622 0.08749733 0.06185444 0.13897893 -0.040668894 0.0124164885
-0.10049484 -0.05677305 -0.17345574 0.03085435 0.08148031 -0.0081346845 0.018018927 -0.17365874
0.18783823 -0.10261395 0.036732625 -0.10077516 -0.12247622 -0.12067912 0.018830458 0.09161973
0.18579781 -0.17647818 0.1784312 0.15142095 0.12970912 -0.14478835 -0.3122143 -0.18342534
0.15587266 -0.06073242 0.17370744 0.24771571 -0.2193799 0.13933605 0.16463144 0.08832383
0.0121914055 0.16485864 -0.26342818 -0.094126254 0.14276972 0.19879599 0.031839203 -0.11191992
0.23526677 0.065532275 -0.028233793 -0.11589633 0.25549087 0.27112526 -0.1595826 0.14717606
0.098636724 0.10379512 0.083347194 0.07865138 -0.0011089294 -0.03605105 0.20524415 -0.020717919
0.02815458 0.21339795 0.03503269 0.11855421 -0.172252 -0.072453015 -0.20333564 0.13664958
0.0041856407 -0.0016666475 0.1702597 -0.042068236 0.055063434 0.06300874 -0.15634827 0.020263348
-0.041345943 -0.12790781 -0.15313181 0.23583536 0.057700027 0.25251755 0.12508139 -0.23397326
-0.20347317 -0.025659196 -0.07360243 0.14571927 -0.114761055 -0.17562798 -0.11151425 -0.10212121
0.16103794 0.13744788 0.03151579 0.0737774 0.06624351 -0.09207252 0.11327406 0.1260971
0.15467584 0.08158103 0.18608247 0.16438913 -0.13213739 0.030167734 0.108376816 -0.02568633
-0.04224985 1.5724509e-06 -0.18491885 0.15365365 0.14972138 -0.06281676 -0.12278677 0.12433685
0.14636411 0.014294883 -0.13128307 0.10269976 0.17462002 -0.1764154 0.19775505 0.036361974
-0.1594701 0.014580391 -0.21026984 -0.053598374 0.18721446 0.0072656684 -0.038512796 -0.16713315
0.053090066 -0.02455478 -0.014948105 0.092479594 0.07088391 -0.058675222 0.027794825 0.11217556
0.019386457 -0.103391826 -0.052528225 -0.20031121 -0.14007573 0.057499662 -0.07948976 0.088236645
0.06611748 -0.06580677 -0.09628019 -0.11951746 0.09474447 -0.2568854 -0.0034272098 -0.20275001
-0.25277168 -0.22940506 0.032949198 0.13791108 -0.10659479 0.075243376 0.0048240223 0.09807879
-0.06676343 -0.26287326 0.18730842 0.14783144 0.1769885 0.12174667 -0.1765674 0.19350633
-0.016419789 0.050264418 -0.18462409 -0.03779131 -0.12102852 -0.033112332 -0.04515694 -0.1810255
0.07037006 -0.0067818356 0.120730445 -0.2393112 -0.18779495 -0.09022002 0.03821892 0.11915675
0.14213917 0.036074888 0.10099368 -0.23008329 -0.10719878 0.14881396 -0.15822408 0.021020127
-0.04728311 -0.01913153 -0.15984115 0.1748072 -0.0981315 0.21258056 0.088245556 0.03627157
-0.06027086 -0.013128287 0.040835332 0.040166285 0.017538419 -0.20408444 0.21896571 -0.11980413

recurs1.bias_ih f4 [120]
00000000: 1f45 83bd 4dbe 86bd f33c 9b3d b416 a53e
00000010: 9cf5 4b3e 5097 2f3e 2ba1 b33d 12c0 663e
00000020: 5653 ec3d 8877 363e fd30 b23d 02dc e73d
00000030: 09f2 343e 09e6 7b3e 3765 703e fec0 203e
00000040: 6f78 3e3e cde2 943d 6fe8 673e a292 1e3e
00000050: 419a 4f3e 6b0a ca3d 599a 0abc d2ef 3e3e
00000060: ea43 483e f370 813e 2973 183e 1183 0c3e
00000070: 987c 613e 09cb 083e 9066 483e e1c0 f13d
00000080: 1c03 203e ba0b 963e b9cc 01be 871e c73d
00000090: ace0 0c3e 01d7 fdbd 498e 973a 7d6a c2bd
000000a0: 7a19 afbc 0fea 5f3c 293c 263e f8f1 d1bc
000000b0: 6978 99bd c47c 063e 678e 0e3e 9219 793b
000000c0: 6650 2e3e 9e46 4f3e 6feb 63bc 638b 153c
000000d0: cc4f 75ba fe12 fc3c cd9f 963c 748c c8bc
000000e0: 503a 8dbd 9650 cc3d 4d0f 45bd 509d 7cbd
000000f0: 0b51 823e de44 733b 8bd1 293e d59b b63e
00000100: e797 42bd 3ebf d33d 75b7 163e 4f5f 32be
00000110: 56bd bdbd 7bba d4bc 1d97 8a3c 084d 9d3d
00000120: 52c3 de3d 6e38 0ebe 501a 1d3e d0bd 3e3e
00000130: 26b6 02be 6020 c0bd c23b 01be 72c8 383d
00000140: cdc7 6abe aaec 32bd 9345 323e 2ade 18be
00000150: 7576 933e 5d6c 2abe 4792 a43d 6a7f 85bc
00000160: 778f 633b ee79 da3d 7ed3 883e 3096 0dbd
00000170: 2f58 6a3e f06c 573e 6b6b 083e 7fd8 c4bc
00000180: 933f 063e dbcb 403e 2155 5bbd eff3 77bd
00000190: 8ba5 d5bd a205 fc3d a443 6b3d ae6a b93b
000001a0: 6c9f 933e 2cf8 8d3d bcce 90bc 7335 183e
000001b0: b227 b9bc 15fa 513d 735a 113e 2c54 153e
000001c0: 93b4 9fbc 64ee 9a3e 71fe 6d3e 5730 55bd
000001d0: 30b8 113e 500d 043e 8e67 84bd 91e4 3b3d
-0.06409668 -0.06579266 0.075799845 0.32243884 0.19917911 0.17147565 0.08770975 0.22534207
0.115393326 0.17819035 0.0870075 0.1132126 0.17670454 0.2459947 0.2347611 0.1569862
0.1860063 0.07269821 0.2264726 0.15485623 0.20273687 0.09865268 -0.008459651 0.18646172
0.19557157 0.25281486 0.1488768 0.13721873 0.22020185 0.13358702 0.19570374 0.11804367
0.15626186 0.29305822 -0.12675752 0.097226195 0.1375758 -0.12394524 0.001156279 -0.09492967
-0.021374453 0.013666644 0.16233887 -0.025628075 -0.074936695 0.13133532 0.1392151 0.0038009626
0.17022857 0.20241782 -0.013911112 0.009127471 -0.0009357899 0.030770775 0.018386746 -0.024481036
-0.06895888 0.09976308 -0.048110295 -0.061673462 0.25452456 0.0037119905 0.1658384 0.35665765
-0.047508147 0.10339211 0.14718421 -0.1741917 -0.092646286 -0.025967827 0.01691776 0.07680708
0.10877098 -0.13888714 0.15342069 0.18627095 -0.12764797 -0.09381175 -0.12620452 0.045113035
-0.2292778 -0.04368273 0.17409353 -0.14928499 0.28801313 -0.166429 0.08035713 -0.016296107
0.0034722963 0.106677875 0.26723856 -0.034567058 0.22885202 0.2103765 0.13322227 -0.024029015
0.13110189 0.18827765 -0.053547982 -0.060535368 -0.104319654 0.12305762 0.057437554 0.005658469
0.28832567 0.06932101 -0.017676704 0.1486414 -0.022601936 0.051263887 0.1419466 0.1458289
-0.019495284 0.30260003 0.23241593 -0.052048054 0.14230418 0.12895703 -0.06465064 0.045872275

recurs1.bias_hh f4 [120]
00000000: e83d 58bd 039e 323e 574d 163e d248 853e
00000010: 1605 843d de74 8c3e 523c 233e b32d b1bd
00000020: 66a1 8a3d 50c0 563e 1177 fe3d ae9e 683d
00000030: 5942 40bc e2c1 fbbb cf04 933e b7db ed3c
00000040: df35 783e c32d 883d 68f8 d33d 28ee 97bd
00000050: 029d b73b c2e7 8f3e 01ef bebc d312 783e
00000060: 0f73 04bd 0d16 073e 0c07 b3bd 0b21 99bd
00000070: 4572 94bd 2f37 083e 7426 733d 4117 e0bd
00000080: 5f12 a53d d4ad 8b3e e758 2f3e b2b8 273e
00000090: 4cb2 b33d 4486 4abd 4058 b6b7 cb4d 363e
000000a0: 0685 e83d 15c9 7dbd d961 4f3e 315a 07be
000000b0: 5527 823e 1924 0a3e d1e9 c6bd d065 e5bd
000000c0: 4078 203e 3d96 773e 241a 2d3d c0d8 8dbd
000000d0: 0421 913d 207d 183e 0038 263d da00 513e
000000e0: bce2 1c3e f596 5d3d 36a5 ce3d af95 14be
000000f0: 08f7 053c 4815 b3bb bd88 ab3d 9049 293e
00000100: 1d1f 413d 53f0 063e 2c67 43be abab 133c
00000110: 1610 58bd fad8 35be 7444 113d 5ed5 88bc
00000120: 9a69 acbd 16aa 6bbe 0a79 953e 37e0 b7bd
00000130: 94e5 4039 b27c 343e e78d 16bc a317 3cbe
00000140: a52b 74be 8b7f 9a3d 2438 27bd 9c42 d9bc
00000150: a89b 4a3e c5ff 07be 7c79 333e 3efa 82bd
00000160: d2f0 84bd 36d2 02be d696 2b3e fc04 09bd
00000170: 09cb 283e aee0 0d3e e331 863e db61 673c
00000180: 1ef0 54bc eabd 033d e6cf 08bc 9df3 353e
00000190: cfcf 073c 3784 1f3e 060a 5d3e c009 2d3e
000001a0: 27ad ad3d 0fb3 5c3e e832 d03a c086 4bbd
000001b0: 30b4 763d 1e46 e2bc 147c c4bd 3bb4 193e
000001c0: 530b 863e 0233 693d 92dc c93d f133 75bd
000001d0: bbeb c13d b00e d93d 6fff 1c3d 8c4d a03e
-0.052793413 0.17443089 0.1467794 0.2603212 0.064462826 0.27432913 0.15940979 -0.086512946
0.067690656 0.20971799 0.12425054 0.056791954 -0.0117345685 -0.0076830247 0.28714606 0.029035432
0.242393 0.06649353 0.10350114 -0.074184716 0.0056034336 0.28106505 -0.023307325 0.24225931
-0.03233629 0.13192005 -0.087415785 -0.074770056 -0.07248358 0.13302301 0.059362844 -0.10941935
0.08060145 0.27281058 0.17123757 0.1637905 0.08774242 -0.049444452 -2.1737185e-05 0.17803113
0.11353497 -0.061959345 0.2025217 -0.13217999 0.25420633 0.13490333 -0.09712566 -0.1120106
0.15670872 0.24178405 0.042261258 -0.069261074 0.07086375 0.14891481 0.04058075 0.20410481
0.15320867 0.054099042 0.10090105 -0.14510225 0.008176573 -0.0054651834 0.0837569 0.16531968
0.047148813 0.13177614 -0.19082326 0.009013097 -0.052749716 -0.17758551 0.035465673 -0.016703304
-0.084185794 -0.23014101 0.29193908 -0.089783125 0.00018396071 0.17625692 -0.009189106 -0.18368392
-0.23844774 0.07543858 -0.040825024 -0.02652102 0.1978594 -0.13281162 0.17526811 -0.06395386
-0.06491245 -0.12775502 0.16756758 -0.03345202 0.16483702 0.1385524 0.26209936 0.014122452
-0.0129967015 0.032163538 -0.008350348 0.17768712 0.0082892915 0.1557778 0.21585855 0.1689825
0.08480292 0.2155268 0.0015884312 -0.049689054 0.060230434 -0.027621325 -0.095939785 0.15010159
0.26180515 0.05693341 0.098565236 -0.05986399 0.0946879 0.105985045 0.038329538 0.31309164

recurs2.weight_ih f4 [120, 30]
00000000: 78c4 47bd 4052 903b a93e 77bd 2083 a43e
00000010: 4056 ec3d 3346 6d3e f0f7 1a3e bae1 013d
00000020: e0f6 39be f395 13be 6770 963d f1ac 1cbe
00000030: abb5 0c3e 64db 963b a64e 2b3e 1e41 1abe
00000040: e659 f23d a653 84bc 81aa dfbd 5b22 14bd
00000050: 6bf7 f9bd 1e32 aabd e341 753d e7f4 11be
00000060: cc77 9f3e bdda 7d3d 27e2 4a3e a9f9 ac3d
00000070: 2749 3fbe 361c f4bd c3fa bcbd 2027 b9bd
00000080: bb15 46bd e3ab 883e 1a66 bc3d 66c5 263e
00000090: 2bd9 9dbd 4b14 bc3d 5fca 95bd e7b1 16be
000000a0: 0c13 dc3d 1e47 df3d a263 8fbd c692 ba3d
000000b0: 407a fa3d 4f71 003e ef52 8cbe b0c6 793d
000000c0: 56bf e9bd 9283 36be fc04 36be b302 283d
000000d0: a456 30bd 5d21 60be d4c2 6f3e 8f16 96bc
000000e0: c0d5 d5bd f4b2 e7bc d802 853d 1d23 a23c
000000f0: 82b0 0f3e 79c5 adbc 76c2 513e 2500 d13c
00000100: 07d4 90bd 21a1 473e 3fa7 ddbd 3f81 633d
00000110: da30 e13d 59e4 8abe 742d bebd bfe0 183e
00000120: 188b 8e3d c84c 82bd 4787 3c3e 6306 263e
00000130: 62dc 31be e03b ae3d 4a70 f23d 1a8d bfbd
00000140: 2846 90be 5c1c ef3d 1dee 48bd d9b7 1fbe
00000150: 9b1a 643e 1bbf 53bd 6400 43bd 420d 1fbe
00000160: e8cf 603b 654e 93bc 640d 453d f528 cabd
00000170: ce19 973e 391c 803e fef6 b03c bcc8 d83d
00000180: 6d6f 9c3c 0f51 923d 2438 e7bc 9a7b fbbd
00000190: c0c5 acbd b4c0 633d f4af 57bd ce7c 07bd
000001a0: 9278 113d 6270 a83c 40e1 d0b9 282e 8fbd
000001b0: 7a8c bb3d 21e9 3cbe 089a 703d 905f 9a3d
000001c0: c9be bdbd b028 5bbd 7730 3bbd 4864 4ebe
000001d0: ae0e 87bc b8dd fbbc 7bff 923b 3f1f 29be
000001e0: ae14 8f3e 833f 9a3d 517f 44bd 89d1 143e
000001f0: 089b 28be 89d1 0b3e f72e 153c f850 0ebe
00000200: 6d05 9cbd 2cbe b23d aa22 46bd a9c3 663c
00000210: 33a3 b0bc d089 65be 9ffe 0e3e fb82 fcb9
00000220: e4b6 18be dc0d 2ebc a507 c53d 343e 73bc
00000230: fc70 69be 1d23 ff3d ef81 89bd aa81 f6bd
00000240: 722b 5a3e 7fae 233d 7cae 903e c474 2f3e
00000250: 8e1a 1dbe 3ce6 fdbc 2198 ffbc 789a 093d
00000260: 4da2 923e 1be3 523e b0e0 3bbe df9b 2fbc
00000270: 7657 21be 446a d03c bea2 bcbd 8272 82be
00000280: 16c7 3dbd 9197 5a3d 2bea 8d3d 96c0 a33d
00000290: 0deb 2c3e e655 fe3d 43bf 0cbe 4dea 323d
000002a0: 1a68 52bd 9cf6 b43d 633d febc 42f7 a9bd
000002b0: 0d01 1cbe 1c75 8bbe 14cc 293d 4c93 6fbd
000002c0: 1b9a 853e 5ecb 94bd 8cac 6a3d 3ace 9e3d
000002d0: 354b 83bd f85f d9bd 9196 a03d 8817 503e
000002e0: 5554 17be 2f7c ae3d 7787 5bbe a95c 55bd
000002f0: 3387 33bc 5e67 603c ba01 6f3c 2f3b da3d
00000300: 2be6 adbd 4b0a 973d f303 82bd 4486 12be
00000310: 35e5 00be faf8 62be 290e c03d 9fb4 1cbe
00000320: 1bc2 7bbe bed9 7d3b 97fa babd 9152 cb3c
00000330: e327 283e 3475 f0bd e426 483e 5565 673d
00000340: d27d 3abe 21cc c2bc c5fe 553e 477a 913a
00000350: c7ca 343d c225 353e c6dd 29bd 69b7 ed3d
00000360: b2d4 61be 06d4 8f3d c838 273c fe9d e13b
00000370: 5581 983d 6a38 e5bd f85f eabc f80a c3bd
00000380: 9462 273e d22a e3bd 6a9e 9e3c a445 9cbd
00000390: 444f 9f3d 093b 88be 5b0c d0bd 6b86 c13d
000003a0: 78b4 d2bd 8588 cdbc 4b9f 573e e095 a6bc
000003b0: 0c83 f63d 1853 af3d 6663 21be 5f1e e53d
000003c0: a38b d43d 7238 2b3e f50e 8b3d ebe7 093e
000003d0: 4cc2 bf3c 4ad3 803e 61d1 043e 9a1d 65be
000003e0: ac56 81bd a3b6 17be 2795 203e e43d 323e
000003f0: 9bad afbd 5cbc b7bd 02ea 703e 15fa 043e
-0.04877135 0.004404336 -0.06036249 0.3213129 0.115398884 0.2317131 0.15133643 0.03170941
-0.18160582 -0.1441267 0.07345658 -0.15300347 0.13741176 0.00460379 0.16729221 -0.15063903
0.11833553 -0.016153168 -0.10921193 -0.036165576 -0.12205394 -0.0831034 0.059877288 -0.14253579
0.31146085 0.061976183 0.19812833 0.084460564 -0.18680249 -0.11919443 -0.092275165 -0.090406656
-0.048360568 0.2669364 0.09199162 0.16286239 -0.07707437 0.09183558 -0.0731399 -0.14716302
0.107458204 0.109022364 -0.07001425 0.09110026 0.122303486 0.12543224 -0.27407023 0.0609805
-0.114134476 -0.17823628 -0.17775339 0.0410182 -0.043051377 -0.21887727 0.23414165 -0.018321304
-0.1044116 -0.028283574 0.06494683 0.019792134 0.14032176 -0.021212326 0.20484337 0.025512764
-0.07071691 0.1949506 -0.10822915 0.05554318 0.10995646 -0.2712734 -0.09286013 0.14929484
0.06960124 -0.06362301 0.18410979 0.16213374 -0.17369226 0.08507514 0.11837824 -0.09353085
-0.28178525 0.11675331 -0.049055208 -0.15597476 0.22275774 -0.051695924 -0.047607794 -0.15532401
0.003430361 -0.017981717 0.048108473 -0.09871093 0.29511875 0.25021532 0.02160215 0.10585162
0.0190961 0.07144367 -0.028225012 -0.122794345 -0.08436155 0.055603698 -0.052658036 -0.033078007
0.035515375 0.0205614 -0.00039840676 -0.069912255 0.09157653 -0.18448307 0.058740646 0.07537758
-0.09264905 -0.0535056 -0.045700517 -0.20155442 -0.016486492 -0.030745372 0.004486022 -0.16515826
0.27945465 0.07531645 -0.04797298 0.14533056 -0.1646539 0.1365415 0.009105436 -0.13898075
-0.076182224 0.08727679 -0.048372902 0.014084735 -0.021562194 -0.22415853 0.13964318 -0.00048162774
-0.14913517 -0.0106234215 0.09620599 -0.014846373 -0.22797006 0.12457869 -0.06714236 -0.1203645
0.21305636 0.039961334 0.2825812 0.17134386 -0.15342161 -0.030993573 -0.03120047 0.03359458
0.2863945 0.20594446 -0.1834743 -0.010718315 -0.1575602 0.025441296 -0.09210728 -0.25477988
-0.04633244 0.0533672 0.069294296 0.07995717 0.1688654 0.124187276 -0.13744836 0.043680478
-0.05136881 0.088360995 -0.03103513 -0.08299114 -0.15234776 -0.27237785 0.04145439 -0.058490083
0.26094136 -0.07265352 0.05729346 0.07754178 -0.06410829 -0.10614008 0.07841218 0.20321476
-0.14778264 0.0851978 -0.21438394 -0.05209032 -0.010957527 0.01369652 0.014587814 0.106558196
-0.08491167 0.0737501 -0.063484095 -0.14309031 -0.12587436 -0.2216529 0.09377701 -0.15303276
-0.24585764 0.003873452 -0.091298275 0.024819644 0.16421466 -0.11741105 0.19546086 0.056493122
-0.18212059 -0.023778977 0.20897968 0.0011099064 0.044138696 0.17690185 -0.041471265 0.11607248
-0.22053793 0.07022862 0.010206409 0.006885289 0.07446543 -0.11192401 -0.028610215 -0.095235765
0.16346198 -0.11092152 0.019362647 -0.076304704 0.077787906 -0.2660754 -0.101586066 0.09449466
-0.10288328 -0.025089512 0.21056859 -0.020335138 0.12036714 0.08560771 -0.15760574 0.111874335
0.10378196 0.16720751 0.06789962 0.13467376 0.023408078 0.251612 0.12970497 -0.22374573
-0.063153595 -0.14815764 0.15681897 0.17406422 -0.085780345 -0.089714736 0.23526767 0.12986024

recurs2.weight_hh f4 [120, 30]
00000000: 3921 233d 1c1e af3d 2249 333e 5701 33be
00000010: 548d 553d 6ca6 ffbd a4a1 283e 697e d4bd
00000020: 4206 873c e26e dc3d a1fb f8bc 7c55 473d
00000030: 9d74 9cbc a785 363d f289 2bbd 9469 7ebc
00000040: 275f ea3d 325f 013e 6bbc febd 507a 0fbe
00000050: 910c ecbc 7a12 28be ff3e d1bd 5e55 d4bc
00000060: 6d82 94b9 17ca 70bd 7afd c63b 6700 c6bd
00000070: 5f8d 2bbe e49c e33d 300b b3bc 41f3 b6bd
00000080: d8eb 0cbe 1485 8e3d 463d 56bd 8c50 513d
00000090: 58ea ca39 e2b8 76bd 57a9 b7bd a655 fd3d
000000a0: 6199 87be ee64 80bd 7b7f a4bd d638 01bd
000000b0: 9b9d 313e a7cc 213e 1a7b 4a3e fb3e 9ebd
000000c0: c610 d7bd cc59 5e3d f1eb 3f3e 4634 07be
000000d0: b9e3 c4bd 3644 0dbe f6e1 60bd 5f22 e2bd
000000e0: c2b0 2fbe de87 253c 4622 2abc 74b9 d73d
000000f0: 10d0 25be 2cb9 54bd cfd2 4f3e 4fa6 b2bc
00000100: 5a42 353e f971 ffbd 48ae 103d 8253 debb
00000110: 55d2 2ebd e4d6 77be a0cb 233d e6f9 0ebd
00000120: c699 d9bc 0648 6f3d f554 663e 8c0d 0a3d
00000130: a16d c93d 0123 243d 2c16 b43d 3496 cb3d
00000140: 6ba7 253e 1591 613d 8247 67be 091f 283d
00000150: e45a 26be 6cb5 8dbe 3790 f5bc 435b 883d
00000160: 89e8 13be 87b5 713e a20d 3bbd 265c 953c
00000170: 53c6 6b3e 897b b83d ddfe babd 2996 cfbc
00000180: fb3d a5bd 126c 20be 78d3 c9bc f56d 4bbc
00000190: a8ea 79be 2a7b 6ebd 81e7 73be 6e4c 4ebd
000001a0: 4479 283e 733c 10bd af00 0f3e e1aa 2c3e
000001b0: 567e b73d bcbd 4f3d 2939 123c bda6 993b
000001c0: 3a61 48be 74e1 b6bd a2b1 d63d a167 4cbd
000001d0: 8872 b238 bd28 5a3e c9a2 b53d 1970 0a3e
000001e0: 1929 e53d 7be7 2f3e 2cf4 64bd 4404 dd3c
000001f0: 46d8 fc3d 0ce3 1f3d e995 793e cd90 24be
00000200: 3482 dd3b 89b8 193e 8ca6 5fbe e82f 96bd
00000210: 5882 c83d f367 193e 56a4 7e3e a516 28bd
00000220: 76b2 f23d 5e7c f3bd 3670 2cbe 9da6 1c3d
00000230: 44c7 0cbd 6944 f13c 45ee d2bd 5f85 f53d
00000240: 1d6d 6fbd 8678 bf3a 5847 6a3b f4b3 5f3e
00000250: e3e3 abbc e922 663e d3c2 3cbe bfeb b7bc
00000260: d016 5a3e 4fea 003e 6b8a 03bd 1db0 1e3e
00000270: 000b 083e 3f7e 26be e441 cf3c 7a9d 003e
00000280: 734c 46be 59e2 133e a3cb 09be da7c e2bd
00000290: 5af7 8f3b 7063 cabd b2e2 563e 67ee 023e
000002a0: 106a b13d 7c7d e63d 7544 fe3d de2f 7fbd
000002b0: a013 5cbe 793f fbbd 1566 93bd c4f4 c63d
000002c0: c358 fabd 2593 183d b440 f93c 5a71 9d3e
000002d0: ad3e edbc 1a2a 143e e579 dcbd 8569 4dbe
000002e0: d918 38bd fea5 793d b3cf f23d 4c41 e53d
000002f0: a41e 533e c77f 74bd 2a91 f0bc 3710 253e
00000300: ee75 e9bd eb71 0c3e 9481 bbbd 473f bf3d
00000310: c00b 143e 9226 2d3e b88d 02bd 8563 3dbd
00000320: 3dc8 3fbd 1402 d53d aefb 9bbc fc51 5ebd
00000330: 813c c7bc 07e3 5d3d 76c0 9fbd 9436 21be
00000340: a89b 49bd 00df e33d 0a86 00bd a7ed 023c
00000350: ebc2 933d 6bda f4bc 6924 333e e361 10be
00000360: 0142 713e a1c4 fcbc 8270 133e 39cf a53d
00000370: 9cfa 6ebe 2106 173e 966b 9abd 9eef a6bd
00000380: a2ec 243e 3042 5e3c 8b6a a0bd 0c52 74bd
00000390: 3287 cf3d 6e32 34be 9d64 dd3d eeb9 873c
000003a0: 5906 36be b3d4 123d 2118 28be 5828 96bd
000003b0: d569 3abd 7f53 083e d1c9 7cbd 0ef6 8cbd
000003c0: 2d67 84bd 6ea2 423e 46b3 66bd 9f70 1a3e
000003d0: a2f6 113e eb6e 19bd 3f7b 3f3d 01f8 ef3d
000003e0: 2442 a3bb 2b17 1d3d 1138 6dbd 5fce d23c
000003f0: 9d37 34be f53b 82bd 6807 823e b999 d63d
0.039826605 0.08550665 0.17508367 -0.1748098 0.052136734 -0.12482914 0.16467911 -0.10375673
0.016482476 0.10763337 -0.030393424 0.04866551 -0.019098574 0.044561055 -0.0418796 -0.0155281015
0.1144393 0.1263397 -0.124382816 -0.14011502 -0.028814586 -0.16413298 -0.10217094 -0.025919612
-0.00028325935 -0.058786478 0.006072697 -0.096680455 -0.16753148 0.11113909 -0.02185592 -0.08933116
-0.13761842 0.069589764 -0.05230453 0.051102206 0.00038703042 -0.06023491 -0.08967846 0.12369852
-0.26484206 -0.06269251 -0.080321275 -0.031548344 0.17345278 0.15800725 0.19773522 -0.07726856
-0.10501246 0.054284856 0.18742348 -0.13203534 -0.09613747 -0.13795552 -0.054902993 -0.11041712
-0.17157272 0.010103194 -0.010384148 0.10533419 -0.16192651 -0.051934406 0.20295261 -0.021807818
0.17701092 -0.124729104 0.035322458 -0.0067848573 -0.042681057 -0.24203068 0.039989114 -0.03490629
-0.026562583 0.058418296 0.22493346 0.033704326 0.09835363 0.040072445 0.087932914 0.09940758
0.16177146 0.05507 -0.22585872 0.041045222 -0.1624561 -0.27677476 -0.029975994 0.06658032
-0.14444174 0.23604403 -0.0456673 0.018232416 0.23024873 0.090079375 -0.091306426 -0.025340157
-0.080684625 -0.15666226 -0.024636969 -0.0124163525 -0.2440592 -0.058222927 -0.2381878 -0.050365858
0.16452509 -0.0352139 0.13965105 0.1686206 0.089596435 0.050718054 0.008924761 0.004689066
-0.19568339 -0.089297205 0.104830995 -0.049903516 8.5090345e-05 0.21304603 0.088689394 0.13519324
0.111894794 0.17178147 -0.055896923 0.026979573 0.123459384 0.03903489 0.24373592 -0.16070862
0.006759906 0.15011801 -0.21840876 -0.07333356 0.09790486 0.1498106 0.24867377 -0.04103722
0.11850445 -0.118889555 -0.1683968 0.038244832 -0.034369722 0.029451566 -0.102993526 0.11988329
-0.058453668 0.0014608062 0.003574809 0.2184599 -0.020982688 0.22474255 -0.18433695 -0.02245128
0.21297765 0.12589382 -0.032114428 0.1549687 0.13285446 -0.16259097 0.025299974 0.12560073
-0.193651 0.14441814 -0.13456587 -0.1105897 0.0043935003 -0.098822474 0.20984915 0.12786256
0.08662808 0.11254403 0.12415401 -0.06230151 -0.21491861 -0.12267966 -0.07197205 0.09714654
-0.12223961 0.037249703 0.03042636 0.30750543 -0.02896055 0.14469185 -0.10765437 -0.20059784
-0.04494557 0.060949318 0.11856022 0.11194095 0.20617157 -0.05969217 -0.029366095 0.16119467
-0.113994464 0.13715331 -0.091555744 0.09338241 0.14457607 0.16909245 -0.031873435 -0.046237487
-0.04682182 0.10400787 -0.019040909 -0.054277405 -0.024320843 0.05417159 -0.07800381 -0.15743476
-0.04922071 0.11126518 -0.03137783 0.007991231 0.07214912 -0.029889306 0.17494358 -0.14099841
0.23560335 -0.030855479 0.14398387 0.08096165 -0.23337787 0.14748432 -0.07540052 -0.08151172
0.16105893 0.013565585 -0.078328215 -0.05964856 0.10133208 -0.17597362 0.10810206 0.01656815
-0.17775859 0.035847377 -0.16415454 -0.07331914 -0.045511086 0.13313101 -0.061715905 -0.06882869
-0.06464992 0.19007275 -0.056323312 0.15082024 0.14254239 -0.037459295 0.046748396 0.11717225
-0.00498225 0.038352173 -0.057914797 0.025733171 -0.1759934 -0.06359092 0.25396276 0.10478539

recurs2.bias_ih f4 [120]
00000000: 3d5f a93e 578e 933e 8db6 393d dbe6 213e
00000010: ba0e 453d 9127 7d3d d1a7 e63d 3587 ab3e
00000020: 15d7 213e 09b1 a43e 6624 12bc ae9c 0d3e
00000030: a195 433e 95bd 4e3d 2ff3 343e 550c 1b3e
00000040: 47e4 9c3e a259 233e 8273 0c3e 2441 8d3e
00000050: 20d9 a53d b09b 943e 59bf 9a3e 5e8d 2b3d
00000060: 664d 473e aa6b c03d 316d a23e 4e5e 013e
00000070: 154f ff3d 1d7b 953e b1bf 0a3e d3f0 493e
00000080: 6364 733c 2731 273a 9560 fd3d d1fd a13e
00000090: 9c6d 593e 4e3a a33d 9749 8a3e 31b8 e5bc
000000a0: 7df2 573e dacd 4a3d ec18 e83a e819 cb3d
000000b0: e149 853e 75c3 733e f99c 703d e667 f43d
000000c0: a48d 2f3e f44e db3d 7df9 703d 324a 993e
000000d0: 37a7 853d 6683 5b3e 0eae 80bc 0c2c 9bbc
000000e0: c647 123e e778 1b3d 637d e63b 1074 963d
000000f0: 3dfb a2bd 07f6 083e 7d44 2a3e 0128 2ebd
00000100: e9cf 043e 4960 1e3e ace9 ea3d 0154 08be
00000110: 38bf 13be 8272 67bc d38f 02bd af97 323d
00000120: 57ed 5dbe b970 0e3e 8993 953e d4fa 543d
00000130: 3a2d e53c 8afe c23c a984 f0bd f263 20be
00000140: fc64 2c3e 9ef5 2c3e 13b4 eb3c 614c 15be
00000150: e8dd f939 f5da 17be 1907 123d 696d 3c3e
00000160: df15 503e 069e 663e 6432 523e 8727 a73e
00000170: d4bb 0e3e a0d8 473e fcab b33c 1aaf 873e
00000180: 2031 513e 0769 6a3e cda7 873e 0ed4 8b3e
00000190: 1f4b c6bc 5892 013e 5756 e03c 3529 963e
000001a0: 2238 013e 2535 f23c b80d 833e 7983 643d
000001b0: fed4 153e b1e6 873e b3bf 793e b5ca 833e
000001c0: 4252 223e 6d99 cd3d b923 2b3e 4e94 8bbd
000001d0: 9150 f53d 9a9b 813e f979 843e 504f 5dbb
0.33080474 0.28819534 0.04534011 0.1581072 0.048109747 0.06180531 0.11262477 0.33501592
0.15804704 0.32166317 -0.008919811 0.138293 0.19100048 0.05047377 0.17670892 0.15141423
0.30642912 0.15952161 0.13715938 0.2758876 0.08098054 0.2902503 0.30224112 0.041882865
0.19463119 0.09395535 0.3172393 0.1263363 0.124662556 0.2919549 0.13549687 0.19720773
0.014855477 0.00063778687 0.12371937 0.3163896 0.21233219 0.07970105 0.2700927 -0.02804193
0.21088596 0.04951272 0.0017707623 0.099170506 0.26032928 0.2380503 0.05874345 0.119338796
0.17143875 0.107084185 0.05883168 0.2993942 0.06526034 0.21436843 -0.015707996 -0.018941902
0.14285192 0.0379571 0.00703399 0.07346356 -0.07958076 0.13375102 0.16627689 -0.04251862
0.12969936 0.15466417 0.114703506 -0.13313295 -0.14428413 -0.014126422 -0.031875443 0.043601688
-0.21672569 0.13910188 0.29214123 0.05199702 0.027975667 0.023803014 -0.11744053 -0.15663126
0.16835397 0.1689057 0.02877239 -0.14579917 0.00047658314 -0.14829619 0.0356513 0.18401112
0.20320843 0.22521219 0.20527035 0.32647344 0.13938838 0.1951623 0.021932594 0.2650078
0.20428896 0.22891627 0.2649521 0.27310222 -0.024205742 0.12653482 0.02738492 0.29328313
0.12619069 0.029566357 0.25596404 0.055789445 0.14632031 0.2654319 0.24389534 0.2574059
0.15851691 0.10039029 0.16712846 -0.06815396 0.119782574 0.25314027 0.25874308 -0.0033769198

recurs2.bias_hh f4 [120]
00000000: a138 5d3e ffd5 9f3e aa00 ae3c 69be 293e
00000010: 330e 923d abf9 1d3e e59f 553d e554 a93e
00000020: 3717 863e 7347 db3d eeae 5f3c 40d3 a03d
00000030: 9b50 153e 9c67 3c3e 2a2b c73d 29d8 263d
00000040: 601e 203e 9bd6 193d e2a4 533e eed0 f83b
00000050: a96c ee3d 8c61 9a3c f4d2 9c3d 40ba 1a3e
00000060: a23a ab3d 26d5 a63c 95bf 473e 50d7 683d
00000070: 2266 2d3e 9a69 593e 42e0 b33d 98a5 aabd
00000080: 0ac5 013d 1efb 103e 9819 173e b527 893c
00000090: 6447 4e3e a4d7 4f3e b05e 043e 33b9 c43d
000000a0: 0377 233c 9870 013e d9c6 633e ed35 b43c
000000b0: 33be 413e 0938 6a3e b23c 693e 3017 993d
000000c0: 49e8 273e 15d2 2c3e 0c16 1d3e 53bd 953d
000000d0: 4d7a 0e3e 7286 d23d 564f 0bbd d64d c33d
000000e0: 788f d3bc f7cb 4d3e 2f45 dc3d 5ae3 1b3e
000000f0: c68c 0abe 36a5 113e d9ee 483e 373d 1b3e
00000100: 86a9 a93d 7ead 74bd 00c6 243e 1f90 0c3d
00000110: e8a3 2fbe 6a27 3dbc e47f b8bd 5620 bc3c
00000120: 9cfe 2dbd 513e 073e 05d3 c43d 4198 143d
00000130: 0c33 13bc 18b6 d13d 099b 11be e289 233e
00000140: fb88 68bc fd26 f83d f304 b7bd 3123 58bd
00000150: 98a3 a2b9 a3c4 4cbd d07e 12be 0526 17be
00000160: ef2a 06be 0db6 7c3e d921 823e e357 b43d
00000170: dcf3 923e f1be 343e 4d57 0c3e a015 a03d
00000180: 0485 a93c fbfc 8d3e 0ac6 a13e 0e8e 86bd
00000190: fe23 2f3e 847b 603e 50cb 963d 7fb5 963d
000001a0: 5085 85bb 1e61 773e c1d4 b43e 0414 6e3e
000001b0: 150d f63d 1d2b 583e b9e2 c13c 2377 4c3d
000001c0: c158 603e 0978 8d3e af3c 2e3e 1cec 6d3d
000001d0: 3702 4f3e d527 8bbd 1a30 8d3e 3261 553d
0.21603633 0.31217954 0.021240551 0.16576542 0.071316145 0.15427272 0.05215444 0.33072582
0.26189587 0.10706987 0.013652546 0.07852793 0.1458153 0.18398899 0.0972503 0.04073349
0.15636587 0.03755818 0.20668367 0.0075932657 0.11641819 0.018845342 0.076574236 0.15110111
0.08360793 0.020365309 0.19506676 0.056845963 0.16933492 0.2123169 0.08783008 -0.08332366
0.03168205 0.14158294 0.14755857 0.016742567 0.20144421 0.20297104 0.12926745 0.096056364
0.009977105 0.12640607 0.22243823 0.02199837 0.18920211 0.22872938 0.2277706 0.07475126
0.16397204 0.16877015 0.15340441 0.07311501 0.13913842 0.1027955 -0.034011208 0.095363304
-0.025825247 0.20097338 0.10755383 0.15223446 -0.13530263 0.14223179 0.19622363 0.1516007
0.08284287 -0.059735768 0.16091156 0.034317132 -0.17152369 -0.011545042 -0.09008768 0.022964638
-0.042479143 0.13207366 0.09610561 0.036278013 -0.0089843385 0.1023981 -0.14219297 0.15970567
-0.014192815 0.121168114 -0.08936491 -0.052767936 -0.00031020935 -0.049992215 -0.14306188 -0.14760597
-0.13102315 0.24678822 0.2541645 0.088058256 0.28701675 0.17650963 0.13705178 0.07816625
0.02069331 0.2773207 0.31596404 -0.065700635 0.17103574 0.21922117 0.073629975 0.073588364
-0.00407473 0.24158141 0.35318568 0.23249823 0.12014214 0.21110196 0.02366768 0.049918305
0.21908857 0.27630642 0.17015336 0.0580865 0.20215689 -0.06794707 0.2757576 0.052094646

output.weight f4 [2, 30]
00000000: 54f4 efbd 50bc b3bd 9fe0 b03d a16a dcbd
00000010: 3343 6a3d 3a31 19be 3908 1c3e bc45 31be
00000020: 7448 31be 95dc 34be a1ee 073d a6e6 f73d
00000030: 9ed8 05be 8766 a93b 4a22 763e eb71 433c
00000040: 3791 0d3e cd40 5e3c c462 90bd 7c4f 243e
00000050: ee84 c93d d5e2 fdbd c5a7 b3bd 8275 9c3d
00000060: 96ac d53d 2255 e6bd 833f 27be 9d54 373e
00000070: fa0a a3bd a543 6b3d 380d 9d3e 3868 883e
00000080: 8aa1 763e 5dcb 8c3e f615 2ebe af53 593e
00000090: cfb8 57be d5c0 5c3e 2b01 7b3e 8e0b 513e
000000a0: 1959 71be df15 38be c278 4cbe 1115 82be
000000b0: 8bdd 393e 64bb 9b3e fd3a 563e c76d 86be
000000c0: c9a4 913e d484 89be 61db 6a3e 5f1a 0fbe
000000d0: acac 6a3e c2e5 473e 832f b6be 6c52 2d3e
000000e0: 014b 4dbe d6b1 7bbe fe3c 973e 4ac5 3b3e
-0.11716524 -0.08776152 0.08636593 -0.10762525 0.057192992 -0.14960185 0.15237512 -0.17311758
-0.17312795 -0.1766227 0.03318656 0.121045396 -0.13070914 0.005169693 0.24036518 0.011929016
0.13824926 0.013565254 -0.07050088 0.16045946 0.098398075 -0.123967804 -0.08772234 0.076396
0.10433309 -0.112467065 -0.16332822 0.17903371 -0.07961078 0.057437558 0.30674148 0.26642013
0.2408506 0.27498904 -0.17000565 0.21223329 -0.21066593 0.21557935 0.24512164 0.20414564
-0.23569144 -0.17977093 -0.1996794 -0.25406697 0.18150918 0.30416405 0.2092094 -0.26255628
0.28446034 -0.26859152 0.22935249 -0.13974904 0.22917432 0.1952124 -0.35583124 0.16925973
-0.20048143 -0.24579558 0.2953872 0.18336979

output.bias f4 [2]
00000000: b182 003e 4133 553c
0.12549855 0.013012708

switch.weight f4 [1, 30]
00000000: 9175 063e ae90 86bd 2337 c6bd fb69 5ebd
00000010: f604 40bd 6119 a33d ac77 15bd ccc9 b13d
00000020: fb03 12be 000a ce3c e718 0e3e 192c b3bc
00000030: c598 133e 2c6e 5f3d f657 30be fce1 d1bd
00000040: f350 173e 0457 07bd 12aa 343e 2372 38be
00000050: e23e c3bd a2f7 0b3e 23ad 2e3e c8a1 27be
00000060: e431 683d b375 35be 6a0b 0abe f8f1 a23d
00000070: 86a9 b4bd c7c2 38bc
0.13130786 -0.06570564 -0.09678485 -0.05430029 -0.04687973 0.07963825 -0.03649108 0.08681068
-0.14259331 0.025151253 0.13876687 -0.021871613 0.14413746 0.054548427 -0.17221054 -0.10248181
0.14776973 -0.03304197 0.17643002 -0.1801229 -0.09533478 0.13668683 0.17058234 -0.16370308
0.056688204 -0.1772068 -0.13480917 0.07956308 -0.088213965 -0.011276907
