checkpoints/VQE-H2-f5476f39/model.pth (torch, 49793 bytes, 11 tensors)

recurs1.weight_ih f4 [120, 2]
0	0xbd5e0e5d	-0.054212917
1	0x3e94c9a1	0.2906008
2	0xbe7aa9ae	-0.2447879
3	0xbd35de74	-0.0444016
4	0xbe0767f4	-0.13223249
5	0xbded9c32	-0.116020575
6	0xbcd638a5	-0.026150057
7	0x3e26a4f2	0.16273859
8	0xbdc07045	-0.09396414
9	0x3db7e9f7	0.08980172
10	0xbe1e18e2	-0.1543918
11	0x3e05d69b	0.13070147
12	0xbe758b2b	-0.2397887
13	0xbd7bbbab	-0.06145827
14	0xbdc90f4f	-0.09817373
15	0x3e2c0113	0.16797285
16	0xbc7e9445	-0.01553828
17	0x3e8e3573	0.27775154
18	0xbe68d668	-0.2273804
19	0xbe600356	-0.21876273
20	0xbbc1ad16	-0.005910526
21	0x3e3c29f8	0.18375385
22	0xbd491aeb	-0.049097937
23	0x3e32dbfd	0.17466731
24	0xbe123ea0	-0.14281702
25	0xbdc8fec8	-0.09814221
26	0x3dbc632f	0.09198605
27	0x3aae0846	0.0013277612
28	0xbe13b309	-0.14423765
29	0x3de4ca9c	0.11171457
30	0xbdf71159	-0.12063856
31	0x3d904f98	0.07046431
32	0xbe35823b	-0.1772546
33	0xbe37b0f7	-0.179386
34	0xbe529770	-0.20565581
35	0xbe6ba423	-0.23011832
36	0xbe2fb9d5	-0.17160733
37	0x3e9968df	0.29962823
38	0xbc47796e	-0.012174947
39	0x3e4019bf	0.18759821
40	0xbd496aba	-0.049174048
41	0xbd678197	-0.05652007
42	0xbbaa7d27	-0.0052029076
43	0xbe3b6cbb	-0.18303196
44	0xbe508d17	-0.20366322
45	0xbe982718	-0.29717326
46	0xbc7534c7	-0.014966196
47	0xbd68693a	-0.056740977
48	0xbdd25b2b	-0.10271295
49	0x3d86efda	0.06588717
50	0x3d02df0d	0.031951
51	0x3ea5e5e0	0.32401943
52	0x3c1e729d	0.009670881
53	0x3e44b70c	0.19210452
54	0x3dd3e5cf	0.10346567
55	0xbe14db5f	-0.14536808
56	0xbadc2589	-0.0016795854
57	0xbd0e8e7b	-0.03480385
58	0xbe63af39	-0.22234811
59	0xbdb68e79	-0.08913893
60	0x3d79f4f0	0.061024606
61	0x3e88c9db	0.26716504
62	0xbe062f4a	-0.13103977
63	0x3e3a101d	0.18170209
64	0x3d916a6a	0.07100375
65	0xbe500daa	-0.20317712
66	0xbc496a93	-0.012293476
67	0x3ca6aa1b	0.020344784
68	0x3e04a1b5	0.12952311
69	0x3e8734eb	0.2640756
70	0xbe4ea4c6	-0.20180044
71	0x3ddc041b	0.107429706
72	0x3d7738b1	0.0603568
73	0x3e4949a0	0.19656992
74	0x3e2e08bb	0.16995518
75	0x3ea8c1eb	0.32960448
76	0xbc0b314a	-0.008495638
77	0x3cc7ee8e	0.024405744
78	0xbbf9bea5	-0.0076216036
79	0xbe88e6df	-0.2673864
80	0xbe391bfc	-0.18077081
81	0x3e684219	0.22681464
82	0x3e1b924d	0.15192528
83	0xbe0a9a6e	-0.13535473
84	0xbcab1a31	-0.020886512
85	0xbe345983	-0.17612271
86	0xbd8d71f0	-0.069064975
87	0x3dbf4ac7	0.093404345
88	0x3d886b24	0.066610605
89	0x3d8181ae	0.063235626
90	0x3d73c0b2	0.05950994
91	0xbd06d5c0	-0.03291869
92	0x3ddfd1b2	0.10928668
93	0xbd537112	-0.051621504
94	0xbe4aefcf	-0.19818042
95	0xbe406d71	-0.18791749
96	0x3d8f880a	0.07008369
97	0x3e3e8fa7	0.18609487
98	0xbe3dbe03	-0.18529515
99	0x3ce56b7f	0.02800536
100	0x3dfd7cd0	0.12377322
101	0x3e23a74b	0.15981786
102	0xbdbec477	-0.093148164
103	0xbd4e91a0	-0.050431848
104	0xbe41bc2f	-0.18919443
105	0xbe583ca8	-0.21116889
106	0xbe4142b1	-0.18873097
107	0xbea79d3a	-0.32737142
108	0xbca22f74	-0.019798018
109	0x3e0cb440	0.13740635
110	0xbe090fe4	-0.13384968
111	0x3e89fd6f	0.26951167
112	0xbe082dfb	-0.1329879
113	0x3eb2d204	0.34925854
114	0x3e079e62	0.13244012
115	0xbe435b80	-0.19077873
116	0xbd34ab67	-0.044108775
117	0x3dd270b8	0.10275406
118	0x3c8a6725	0.016894886
119	0x3d7648a9	0.060127888
120	0x3d04f8a9	0.032463703
121	0x3e4a8813	0.1977847
122	0xbd8cc105	-0.06872753
123	0x3e773565	0.24141462
124	0xbe48ce05	-0.1960984
125	0xbe730886	-0.2373372
126	0xbdc422a2	-0.09576918
127	0xbde4716c	-0.11154446
128	0xbd54785d	-0.0518726
129	0xbeb58eaa	-0.35460407
130	0xbd9f7d8e	-0.077876195
131	0x3e53c412	0.20680264
132	0xbde3c9e4	-0.11122492
133	0xbe411469	-0.18855442
134	0x3e1fb0e5	0.15594824
135	0xbe4e9717	-0.20174824
136	0x3d376ad3	0.04477961
137	0xbe551680	-0.20809364
138	0x3d8d2135	0.06891099
139	0x3e8ad410	0.27114916
140	0x3e21216d	0.15735407
141	0x3e9695a3	0.2941104
142	0x3e27200f	0.16320823
143	0x3e32d156	0.17462668
144	0xbe2feec6	-0.17180929
145	0xbe89590d	-0.26825753
146	0x3e4498c8	0.19198906
147	0xbe16214f	-0.14661144
148	0xbe30fae9	-0.17283215
149	0xbc860d15	-0.01636366
150	0xbe3df3a9	-0.1854998
151	0xbea23ba5	-0.3168613
152	0xbb526241	-0.003210202
153	0x3e8bf5b2	0.27335888
154	0x3d8f1f41	0.06988383
155	0xbeb67a81	-0.35640338
156	0x3debb37d	0.11508844
157	0xbe9a6461	-0.30154708
158	0xbcffe834	-0.031238653
159	0xbe72fc4e	-0.23729059
160	0x3c323f6e	0.010879381
161	0xbda1fc6a	-0.07909472
162	0xbe45198d	-0.19248028
163	0xbeaece50	-0.3414178
164	0xbd9b7238	-0.07590145
165	0xbe0a74f4	-0.13521177
166	0xbd75f680	-0.060049534
167	0x3e8300b1	0.25586465
168	0xbe532913	-0.20621137
169	0x3d59bc12	0.053157873
170	0x3e5086c3	0.20363908
171	0xbe64122a	-0.22272554
172	0x3dec34c6	0.11533503
173	0x3e721e8f	0.2364447
174	0xbe07aae4	-0.13248783
175	0x3e905e88	0.28197122
176	0xbc74ff1d	-0.014953402
177	0xbe87e8d1	-0.26544812
178	0x3e12cd48	0.14336121
179	0xbeb6c517	-0.35697243
180	0xbca4f3ac	-0.020135723
181	0x3e2d6c5e	0.1693587
182	0x3d404c07	0.046947505
183	0x3e27781a	0.16354409
184	0x3cc890e6	0.024483155
185	0xbde787a0	-0.11305165
186	0xbdae9368	-0.08524209
187	0xbdc40667	-0.09571534
188	0xbe6f15b7	-0.23348127
189	0x3e20e109	0.15710844
190	0x3dad1614	0.08451477
191	0x3eaa618e	0.33277553
192	0xbe3e6efc	-0.18597025
193	0x3db488b5	0.08815137
194	0xbe1a7c71	-0.15086533
195	0x3db1a61f	0.08674263
196	0xbe184809	-0.14871229
197	0x3e8805fb	0.26567063
198	0xbe44a54c	-0.19203681
199	0xbe3c37be	-0.18380639
200	0xbd80eaa0	-0.06294751
201	0x3e32fcba	0.1747922
202	0xbe06a9f8	-0.13150775
203	0xbd64db14	-0.05587299
204	0xbe4b288c	-0.19839686
205	0xbcb56aef	-0.022145716
206	0xbdc3e810	-0.09565747
207	0x3eb11c53	0.34591922
208	0x3d9bdcd7	0.07610481
209	0x3e54048f	0.20704864
210	0xbd1579b8	-0.036493033
211	0xbe29ee41	-0.16594793
212	0xbcb19919	-0.021679448
213	0xbe2a7adc	-0.1664843
214	0xbd9bdc82	-0.07610418
215	0xbd4e8236	-0.050417148
216	0xbe41a974	-0.18912297
217	0x3d996b8d	0.07491217
218	0x3cd6145f	0.02613276
219	0xbc2d2721	-0.010568411
220	0xbdb2c961	-0.08729816
221	0x3e58ce5b	0.21172468
222	0x3d0afc9a	0.033932306
223	0x3c247494	0.01003756
224	0xbe743992	-0.23850086
225	0xbdfce818	-0.12348956
226	0xbe700cd8	-0.234424
227	0xbe73321b	-0.23749582
228	0xbd90b531	-0.070658095
229	0x3dbe6fd8	0.09298676
230	0xbd4d2ece	-0.050093465
231	0x3eae80de	0.34082693
232	0xbc6d8708	-0.014497526
233	0x3eb7dd8b	0.3591121
234	0x3db90f89	0.09036166
235	0xbe29591f	-0.16537903
236	0x3d5c3e30	0.053770244
237	0xbc25e320	-0.010124952
238	0xbe20a6f0	-0.15688682
239	0x3d08b53a	0.033375956

recurs1.weight_hh f4 [120, 30]
0	0x3dd3a456	0.10334079
1	0x3e622b3e	0.22086808
2	0xbd350532	-0.044194408
3	0x3d779f3f	0.060454603
4	0x3ce5313f	0.027977584
5	0xbdf5c76e	-0.12000929
6	0x3db6fe13	0.089351796
7	0xbe46b475	-0.19404776
8	0xbd2db57d	-0.04240941
9	0xbcd49e58	-0.02595441
10	0xbc8abb93	-0.016935145
11	0x3d6d7b63	0.057979
12	0x3d91a6f8	0.07111925
13	0xbdd0862f	-0.101818435
14	0xbd9f00fb	-0.07763859
15	0xbdcd572d	-0.10026393
16	0xbe17aba6	-0.14811572
17	0x3bb47d58	0.005508106
18	0xbe16635d	-0.14686342
19	0xbe414292	-0.18873051
20	0xbe31a29d	-0.17347188
21	0x3d8e879e	0.06959461
22	0x3de45c9e	0.11150478
23	0x3e339841	0.17538549
24	0x3de30ab5	0.110860266
25	0xbe01669f	-0.12636803
26	0x3c1c1853	0.009527284
27	0x3dacabee	0.084312305
28	0x3dce7c2f	0.1008228
29	0xbc046dae	-0.00808279
30	0xbc80b27e	-0.015710112
31	0xbcf69db6	-0.0301045
32	0xbda9bff4	-0.08288565
33	0x3e11589f	0.14193963
34	0xbe0766b7	-0.13222776
35	0xbdb6d4df	-0.08927321
36	0x3e12b6e2	0.14327577
37	0xbe3366b8	-0.17519653
38	0xbdaf10b4	-0.08548108
39	0xbd0f19d4	-0.03493674
40	0x3d28a021	0.041168336
41	0xbde8fcaa	-0.11376317
42	0xbdc9f318	-0.098608196
43	0x3d8535b7	0.06504386
44	0x3ddd9396	0.108191654
45	0x3e41f388	0.18940556
46	0xbde22365	-0.11041907
47	0x3d841b38	0.06450504
48	0xbde620a4	-0.112366945
49	0xbd9cea25	-0.07661847
50	0xbe508f27	-0.20367108
51	0x3d540419	0.05176172
52	0x3dd8b5e6	0.105815694
53	0xbd873c15	-0.066032566
54	0x3d2eaf24	0.042647496
55	0xbe414461	-0.1887374
56	0x3e45473a	0.19265452
57	0xbe157547	-0.14595519
58	0x3d5796bd	0.05263399
59	0xbdb4a024	-0.08819607
60	0xbe06bf54	-0.13158923
61	0xbd741cc5	-0.05959775
62	0x3b5aa4f0	0.003336247
63	0x3e03a7b4	0.12856942
64	0x3dff0bf7	0.12453454
65	0xbe44a010	-0.19201684
66	0x3de3806a	0.111084774
67	0x3e19bde9	0.15013851
68	0x3e144bd6	0.14482054
69	0xbde4b6bc	-0.11167666
70	0xbe6e2afe	-0.23258588
71	0xbde394a2	-0.11112334
72	0x3e2c84c3	0.1684752
73	0xbda6db38	-0.081472814
74	0x3dc8cbfa	0.098045304
75	0x3e5bcd9a	0.2146515
76	0xbe41c571	-0.18922974
77	0x3dcdcd32	0.100489035
78	0x3e26b1e6	0.162788
79	0x3d673790	0.056449473
80	0xbcf0016c	-0.029297553
81	0x3dda61ac	0.10663161
82	0xbd5d2fdc	-0.05400072
83	0xbda47c36	-0.08031504
84	0x3e2bdbdf	0.16783093
85	0x3e601584	0.21883208
86	0x3d3782c1	0.04480243
87	0xbd69b1e0	-0.0570544
88	0x3e315799	0.17318572
89	0x3a2ed0b6	0.00066686736
90	0xbe1548b4	-0.14578515
91	0xbe33fb61	-0.17576362
92	0x3e84a6cc	0.25908506
93	0x3e31132b	0.17292468
94	0xbdc8452c	-0.097788185
95	0x3d9b5b1d	0.07585738
96	0x3e301c99	0.17198409
97	0x3e4bd259	0.1990446
98	0x3e34e044	0.17663676
99	0x3d976482	0.07392217
100	0xbd808315	-0.06275002
101	0xbdd3e813	-0.10346999
102	0x3e2aa116	0.16663012
103	0x3d8579a6	0.06517343
104	0xbd9c2f7e	-0.07626246
105	0x3e5ef975	0.21774848
106	0x3cd08c09	0.025457399
107	0x3e0c4edd	0.13701959
108	0xbdc6e6ab	-0.09711965
109	0x3ceed5d0	0.029154688
110	0xbdf87c6a	-0.12133105
111	0x3e442998	0.19156492
112	0x3d91cb47	0.0711885
113	0x3ba95549	0.0051676375
114	0x3d87ec88	0.06636912
115	0x3d8935a7	0.066996865
116	0xbd6b8aa3	-0.05750526
117	0x3d0485c3	0.032354128
118	0xbdad906a	-0.084748104
119	0x3d999568	0.074992
120	0xbd017c6d	-0.031612802
121	0xbe0214fc	-0.12703317
122	0xbdbdea73	-0.09273233
123	0x3e5d816c	0.21631402
124	0x3daa6895	0.08320729
125	0x3e87fb39	0.26558855
126	0x3e03e0ab	0.12878673
127	0xbe706b40	-0.23478413
128	0xbe56f4c2	-0.20991805
129	0xbd8e8bd3	-0.06960263
130	0xbdbac114	-0.09118858
131	0x3e136e56	0.14397559
132	0xbde96468	-0.11396104
133	0xbe41f00d	-0.18939228
134	0xbd9cfe43	-0.07665684
135	0xbdba67cc	-0.09101829
136	0x3def2c5d	0.116783835
137	0x3e217134	0.1576584
138	0x3d15a050	0.03652984
139	0x3d966e2e	0.07345234
140	0x3d81e273	0.0634202
141	0xbd866f43	-0.0656419
142	0x3d9a6550	0.07538855
143	0x3e0d3804	0.137909
144	0x3e1d3a79	0.15354337
145	0x3da540a8	0.08068973
146	0x3e42323f	0.1896448
147	0x3df3e805	0.119094886
148	0xbdd0776b	-0.10179027
149	0x3d4fba30	0.05071467
150	0x3dc593b7	0.09647315
151	0x3d7975ea	0.060903467
152	0xbd0b18da	-0.033959247
153	0x3ba9529e	0.0051673194
154	0xbe35bd1e	-0.17747924
155	0x3e52423a	0.20533076
156	0x3dcceb90	0.100058675
157	0xbd953c2b	-0.07286867
158	0xbe30ee92	-0.17278507
159	0x3e09fefe	0.13476178
160	0x3e3f79d5	0.18698819
161	0x3d24f90d	0.040276576
162	0xbde18aa0	-0.11012769
163	0x3da6f66b	0.08152469
164	0x3e1395dc	0.14412636
165	0xbe30fab1	-0.17283131
166	0x3e5465ec	0.20742005
167	0x3d9c66bc	0.076367825
168	0xbe0f65b5	-0.14003642
169	0xbbf4afea	-0.0074672597
170	0xbe630c07	-0.22172557
171	0xbd7b33a1	-0.061328534
172	0x3e40a8fd	0.18814464
173	0x3c587a6f	0.013212784
174	0xbd1c697e	-0.038186543
175	0xbe16eb2e	-0.14738151
176	0x3cf36372	0.029710505
177	0xbc3444ef	-0.011002763
178	0xbc9d7394	-0.019220151
179	0x3de80a7a	0.11330123
180	0x3dc10426	0.094246194
181	0xbcfc56d7	-0.030803127
182	0x3d76a690	0.06021744
183	0x3e04e1e9	0.12976803
184	0x3d1186d0	0.035528958
185	0xbda9b849	-0.08287103
186	0xbd545d48	-0.051846772
187	0xbe5cb5d9	-0.21553744
188	0xbe27a742	-0.16372398
189	0x3cdcacaf	0.02693781
190	0xbd80e65f	-0.0629394
191	0x3d959238	0.0730328
192	0x3decc2c8	0.11560589
193	0xbdaa8d88	-0.08327776
194	0xbce7fff3	-0.028320288
195	0xbd9b3a76	-0.0757951
196	0x3d557b54	0.052119568
197	0xbe5a01d3	-0.21289758
198	0xbb4949ba	-0.003071411
199	0xbe66ecba	-0.22551242
200	0xbe7e6df8	-0.24846637
201	0xbe4e2282	-0.20130351
202	0xbc5ffcc2	-0.013671102
203	0x3dc7d02b	0.09756502
204	0xbdd09d77	-0.10186284
205	0x3d846f14	0.06466499
206	0x3cd59f1b	0.026076844
207	0x3d93336c	0.07187542
208	0xbd250928	-0.040291935
209	0xbe6f8f75	-0.23394568
210	0x3e467f53	0.19384508
211	0x3e312f5f	0.17303227
212	0x3e1cdcd0	0.15318608
213	0x3dc9ab6c	0.09847149
214	0xbe3ecb4b	-0.18632238
215	0x3e4a89fa	0.19779196
216	0xbd22b3c4	-0.03972222
217	0x3d0f8961	0.035043124
218	0xbe4a04f2	-0.19728449
219	0xbd4d70be	-0.050156347
220	0xbddb87fe	-0.10719298
221	0xbcb575c5	-0.022150883
222	0xbd88fce0	-0.06688857
223	0xbe40cb31	-0.18827511
224	0x3dc23275	0.0948228
225	0x3d46292b	0.048379105
226	0x3dc55e10	0.096370816
227	0xbe71c717	-0.23611103
228	0xbe4792ab	-0.19489543
229	0xbdca370c	-0.098737806
230	0x3d37682e	0.044777088
231	0x3df83d59	0.12121076
232	0x3d99f892	0.07518114
233	0xbb1bc65e	-0.002376936
234	0x3dc06efb	0.09396168
235	0xbe6a1b9a	-0.22862092
236	0xbdd04fc9	-0.10171468
237	0x3e0b6e5d	0.13616319
238	0xbe2947a5	-0.16531236
239	0xba0aec1a	-0.0005299464
240	0xbd4a25d2	-0.049352475
241	0x3c8cfe0b	0.01721098
242	0xbde46409	-0.11151893
243	0x3e375ea3	0.17907195
244	0xbdd25129	-0.10269386
245	0x3e6aefcd	0.22943039
246	0x3d69b3ea	0.057056345
247	0x3cd13bc8	0.025541201
248	0xbd9556f6	-0.07291977
249	0xbd80b193	-0.062838696
250	0x3d6851b0	0.05671853
251	0x3d869dad	0.06573043
252	0x3d30f165	0.04319896
253	0xbe56785f	-0.20944355
254	0x3e6484ec	0.2231633
255	0xbd95e9b3	-0.07319965

recurs1.bias_ih f4 [120]
0	0xbdc57948	-0.09642273
1	0xbd2c70ad	-0.042099643
2	0x3d35d4d7	0.044392433
3	0x3e58af7d	0.21160693
4	0x3e3e1fcf	0.18566822
5	0x3e16ef55	0.14739735
6	0x3d413c20	0.04717648
7	0x3e56d055	0.2097791
8	0x3dd30566	0.10303764
9	0x3e3513cd	0.17683335
10	0x3def013a	0.11670156
11	0x3d893ead	0.067014076
12	0x3e402323	0.18763404
13	0x3e64f1ab	0.22357814
14	0x3e2a89cd	0.1665413
15	0x3dd73e6f	0.10509955
16	0x3e303341	0.17207052
17	0x3d8293af	0.06375825
18	0x3e412da7	0.18865071
19	0x3e23bc76	0.15989861
20	0x3e5d7c7c	0.21629518
21	0x3d47fbc3	0.048824083
22	0xbd8f281f	-0.06990074
23	0x3e37362d	0.1789176
24	0x3e1c2ed2	0.15252236
25	0x3e73c5b0	0.2380588
26	0x3e1212de	0.1426501
27	0x3dec2424	0.11530331
28	0x3e60b605	0.21944435
29	0x3db90836	0.09034769
30	0x3e41816e	0.1889703
31	0x3e122280	0.14270973
32	0x3e3e80b8	0.1860379
33	0x3e45bd5c	0.19310516
34	0xbe10688a	-0.14102378
35	0x3e218316	0.15772662
36	0x3e3e13d6	0.18562254
37	0xbe0a407c	-0.13501161
38	0x3cfad618	0.030619666
39	0xbda939a3	-0.082629465
40	0xbc87061c	-0.016482405
41	0x3cac19e6	0.021008443
42	0x3e2c4b3c	0.16825575
43	0x3baac82e	0.0052118516
44	0xbe13878c	-0.14407176
45	0x3deefec7	0.11669689
46	0x3e0c0b0a	0.13676086
47	0x3bdeeb61	0.0068029617
48	0x3e3db2bb	0.18525212
49	0x3e529a2f	0.20566629
50	0x3cfa00a5	0.030517885
51	0x3d04a796	0.032386385
52	0x3d8bbb91	0.06822885
53	0x3d02f3f0	0.03197092
54	0x3c78da36	0.015188744
55	0xbcbef000	-0.0233078
56	0xbd96c1e3	-0.073612
57	0x3dc18b03	0.094503425
58	0xbd24b952	-0.040215798
59	0xbd63d64c	-0.05562429
60	0x3e4f1e0b	0.20226304
61	0x3b8415d1	0.004030921
62	0x3e47b440	0.19502354
63	0x3e84b351	0.25918058
64	0xbc7fddad	-0.0156168165
65	0x3d81d169	0.0633877
66	0x3e340e80	0.17583656
67	0xbdfea4c7	-0.124337725
68	0xbdafb347	-0.08579116
69	0xbd1d66aa	-0.038427986
70	0xbc1a99e8	-0.009436108
71	0x3d31a40f	0.04336935
72	0x3de708c2	0.11280967
73	0xbe232c3d	-0.15934844
74	0x3df1ab94	0.11800304
75	0x3e49e7da	0.1971735
76	0xbe283e25	-0.16429956
77	0xbd9f3a8a	-0.07774837
78	0xbe074d94	-0.13213187
79	0x3db11758	0.086470306
80	0xbe6fdc4a	-0.23423877
81	0xbd3b6250	-0.045748055
82	0x3e587add	0.21140619
83	0xbe25feea	-0.16210523
84	0x3e753eba	0.2394971
85	0xbe02d2aa	-0.12775674
86	0x3d95895e	0.07301591
87	0xbce6a597	-0.028155131
88	0x3c096ff6	0.00838851
89	0x3e02e50e	0.1278269
90	0x3e5b3ddf	0.2141032
91	0x3ba3d87c	0.005000172
92	0x3e4549bf	0.19266413
93	0x3e115ecb	0.14196317
94	0x3e04b69d	0.12960286
95	0xbd76dcc6	-0.06026914
96	0x3e0c58ef	0.137058
97	0x3e35684e	0.1771557
98	0xbdc1c10d	-0.0946065
99	0xbd8ca6a7	-0.06867724
100	0xbd7cde28	-0.061735302
101	0x3d869ff9	0.06573481
102	0x3d82281c	0.063553065
103	0xbb6f1e4e	-0.003648657
104	0x3e413411	0.18867518
105	0x3cb2c0e4	0.021820493
106	0xbd097612	-0.033559866
107	0x3e044016	0.12915072
108	0xbd1db6f5	-0.03850456
109	0x3d9bad87	0.07601457
110	0x3e427f79	0.1899394
111	0x3dd7d282	0.10538198
112	0xbd270f4e	-0.04078608
113	0x3e9794c5	0.2960569
114	0x3e455996	0.19272456
115	0xbd6f602e	-0.058441333
116	0x3e061fa7	0.13098012
117	0x3df22560	0.11823535
118	0xbd954a64	-0.072895795
119	0x3c668be7	0.014071441

recurs1.bias_hh f4 [120]
0	0xbdae5317	-0.08511942
1	0x3e4ae106	0.19812402
2	0x3dec4832	0.11537208
3	0x3e1913aa	0.14948907
4	0x3d50b309	0.05095199
5	0x3e8020e6	0.250251
6	0x3df37590	0.11887658
7	0xbdd10d26	-0.10207586
8	0x3d62a6fb	0.055335026
9	0x3e555c97	0.20836101
10	0x3e1da3a9	0.15394463
11	0x3c2d9020	0.010593444
12	0xba5314f8	-0.0008052136
13	0xbcf69323	-0.030099457
14	0x3e602e3b	0.21892636
15	0xbcbb3250	-0.02285114
16	0x3e69f0ab	0.22845714
17	0x3d6bbd4a	0.057553567
18	0x3d8682ce	0.06567918
19	0xbd8d9a85	-0.06914238
20	0x3c9cf8d8	0.019161627
21	0x3e6cc946	0.23123655
22	0xbdad908d	-0.084748365
23	0x3e70592e	0.2347152
24	0xbd9a63a0	-0.07538533
25	0x3deff3aa	0.11716397
26	0xbdbfc7a5	-0.09364251
27	0xbdc602f8	-0.09668535
28	0xbd95ff4a	-0.07324083
29	0x3db7e082	0.08978368
30	0x3d5791c4	0.052629247
31	0xbdad9324	-0.084753305
32	0x3de20d87	0.110377364
33	0x3e310190	0.17285752
34	0x3e20bd19	0.15697135
35	0x3e65ac8c	0.22429103
36	0x3e0b0c54	0.13578922
37	0xbd77da4b	-0.060510915
38	0x3cf12fa6	0.029441666
39	0x3e42e63f	0.19033144
40	0x3df289e5	0.118427075
41	0xbd5fb6a1	-0.054617528
42	0x3e5570ea	0.20843855
43	0xbdcf8b71	-0.10134018
44	0x3e3d834f	0.18507122
45	0x3df64d73	0.12026491
46	0xbdcbf094	-0.09957996
47	0xbddf3fe5	-0.10900859
48	0x3e2fda95	0.17173226
49	0x3e7ae9cf	0.24503253
50	0x3db18aa9	0.086690255
51	0xbd3c6cb2	-0.046002097
52	0x3e0f639f	0.14002846
53	0x3e19b7c3	0.15011506
54	0x3d191ea7	0.037382748
55	0x3e52346d	0.20527811
56	0x3e181ef1	0.14855553
57	0x3d480b8f	0.048839148
58	0x3dded034	0.10879555
59	0xbe0e63ea	-0.13905302
60	0xbd34928b	-0.044085067
61	0xbba8a1dd	-0.0051462487
62	0x3de74e0a	0.11294182
63	0x3d8af0c0	0.06784201
64	0x3da1dfd1	0.07904018
65	0x3dbbf2c6	0.09177165
66	0xbe261022	-0.16217092
67	0x3d711e75	0.058866937
68	0xbd3bfc12	-0.04589469
69	0xbe429b58	-0.19004571
70	0x3c1549aa	0.009111801
71	0xbd4d60af	-0.050141033
72	0xbda4242a	-0.0801471
73	0xbe804ef7	-0.25060245
74	0x3e8356cf	0.25652167
75	0xbda18c37	-0.07888072
76	0xbd155f26	-0.036467694
77	0x3e44ef97	0.19232021
78	0xbc77ab52	-0.01511653
79	0xbe11be14	-0.14232665
80	0xbe794022	-0.24340871
81	0x3d9644b7	0.07337325
82	0xbb662f25	-0.0035123315
83	0xbd212421	-0.039341096
84	0x3e18ed6b	0.14934318
85	0xbdc0cc2f	-0.09413945
86	0x3e2bf4fd	0.16792674
87	0xbd9b43ca	-0.07581289
88	0xbd75bea2	-0.059996255
89	0xbdda5445	-0.106606044
90	0x3dea5b85	0.11443237
91	0x3bc8622a	0.0061152177
92	0x3e03bc92	0.12864903
93	0x3d8fa50e	0.070139036
94	0x3e84577a	0.2584799
95	0xbcb52ff5	-0.022117594
96	0xbbe6b5f1	-0.007040732
97	0x3cac5f5f	0.02104157
98	0xbd4a610a	-0.04940895
99	0x3e2d9d3a	0.16954508
100	0x3d5060ed	0.050873686
101	0x3dc9a291	0.0984546
102	0x3e634d2b	0.22197406
103	0x3e2381ef	0.15967534
104	0xbc73439e	-0.014847664
105	0x3e2c0f18	0.16802633
106	0xbc6a3464	-0.014294717
107	0xbd8dae11	-0.06917966
108	0x3d359109	0.04432777
109	0xbb3c218a	-0.0028706514
110	0xbd446401	-0.047946934
111	0x3de092a0	0.109654665
112	0x3e764959	0.24051417
113	0x3d4e6649	0.050390515
114	0x3d7125a1	0.058873776
115	0xbd87b1e4	-0.06625727
116	0x3daabaa4	0.0833638
117	0x3dc31980	0.09526348
118	0x3cf6738e	0.030084398
119	0x3e900565	0.28129116

recurs2.weight_ih f4 [120, 30]
0	0xbda66373	-0.08124437
1	0x3ccc534c	0.024942063
2	0xbbf8fb76	-0.007598336
3	0x3e8ea648	0.27861238
4	0x3def9fd1	0.117004044
5	0x3e85c5ca	0.26127464
6	0x3e131cb6	0.14366421
7	0x3cc8dd25	0.024519512
8	0xbe415857	-0.18881355
9	0xbe300adb	-0.17191641
10	0x3daabd0c	0.08336839
11	0xbe197144	-0.14984614
12	0x3e1496f1	0.14510705
13	0xbb0673da	-0.002051583
14	0x3debd8e3	0.11515977
15	0xbe1a86c2	-0.15090469
16	0x3ddb60fb	0.10711857
17	0xbd14bea9	-0.03631464
18	0xbdef30bc	-0.11679217
19	0xbd43c0db	-0.047791343
20	0xbdf527ee	-0.119705066
21	0xbdc76af7	-0.09737199
22	0x3dedaf57	0.11605709
23	0xbe245337	-0.16047369
24	0x3e92d2ab	0.28676352
25	0x3d98450a	0.07435043
26	0x3e2a986d	0.16659708
27	0x3db35a14	0.087574154
28	0xbe49245c	-0.19642776
29	0xbe053892	-0.13009861
30	0xbe08b89c	-0.13351673
31	0xbdd7138c	-0.10501775
32	0xbd486006	-0.0489197
33	0x3e780c49	0.24223436
34	0x3e02ba66	0.12766418
35	0x3e04d839	0.12973107
36	0xbd3b1eef	-0.045683797
37	0x3e0af4c8	0.13569939
38	0xbd28be6a	-0.041197218
39	0xbe1015d5	-0.14070828
40	0x3da57a56	0.08079974
41	0x3d9996c1	0.07499457
42	0xbd7bbd8d	-0.061460067
43	0x3dca30f0	0.09872615
44	0x3d89c4a2	0.06726958
45	0x3e00b6b5	0.12569697
46	0xbe8d701c	-0.27624595
47	0x3da033a9	0.078223534
48	0xbdb7d2b4	-0.08975735
49	0xbe1f012e	-0.15527794
50	0xbe351313	-0.17683057
51	0x3d526ba9	0.051372204
52	0x3d194e13	0.037427973
53	0xbe4963cc	-0.19666976
54	0x3e59bac5	0.21262653
55	0x3ce41bfa	0.027845372
56	0xbe14ddd8	-0.14537752
57	0xbd0dcdde	-0.03462016
58	0x3db7d556	0.089762375
59	0x3d2d172b	0.042258423
60	0x3daf56c4	0.08561471
61	0xbd2c5a02	-0.042078026
62	0x3e41ac6d	0.18913431
63	0xbced3790	-0.028957158
64	0xbd4cd9b3	-0.0500123
65	0x3e288451	0.16456725
66	0xbd9117b0	-0.07084596
67	0x3dc09ac1	0.09404517
68	0x3e23120e	0.15924856
69	0xbe804e7d	-0.25059882
70	0xbdd459e0	-0.10368705
71	0x3de3daaf	0.11125695
72	0x3d74d278	0.05977103
73	0xbd398301	-0.04529095
74	0x3dee727b	0.11642929
75	0x3e126854	0.1429761
76	0xbe280d29	-0.1641127
77	0x3d87bdd2	0.06628002
78	0x3dffb777	0.12486165
79	0xbd4db081	-0.050217155
80	0xbe8a42a2	-0.27003962
81	0x3de9e7bb	0.11421152
82	0x3d0fcafe	0.035105698
83	0xbdf639e8	-0.120227635
84	0x3e3b01c0	0.18262386
85	0x3b68cfd3	0.0035524264
86	0xbdc19d22	-0.09453799
87	0xbe1b49ed	-0.15164919
88	0x3cb896fe	0.022532936
89	0xbc4d7e85	-0.012542372
90	0x3d4c55da	0.049886562
91	0xbdc42e77	-0.09579175
92	0x3e8c9f9e	0.27465528
93	0x3e7a6a27	0.24454556
94	0x3d281e1d	0.041044343
95	0x3e06938a	0.13142219
96	0x3d2694cc	0.040669248
97	0x3db9896e	0.09059416
98	0xbce2fddc	-0.02770894
99	0xbd996b41	-0.0749116
100	0xbdc2abb8	-0.09505409
101	0x3ccefe0c	0.025267623
102	0xbdd53ff3	-0.10412588
103	0xbd69959c	-0.057027444
104	0xbd1e25b1	-0.038610164
105	0xbc52d4f5	-0.012868156
106	0x3cb28926	0.021793913
107	0xbdb42334	-0.08795777
108	0x3db18881	0.08668614
109	0xbe48f319	-0.19623984
110	0x3cfbaac4	0.030721076
111	0x3db2d0ce	0.087312326
112	0x3d0f1a13	0.034936976
113	0x3c88b6fa	0.016688813
114	0xbd2f30c3	-0.042771112
115	0xbe583e81	-0.21117593
116	0xbd06d98c	-0.032922313
117	0xbcf58e00	-0.029974937
118	0x3d17e623	0.03708471
119	0xbe1525e5	-0.14565237
120	0x3e8df6bc	0.27727306
121	0x3db575bb	0.08860346
122	0x3b0c36e0	0.0021395013
123	0x3e047943	0.12936883
124	0xbe1ae7ae	-0.15127441
125	0x3e23ad18	0.15983999
126	0x3be3f1c3	0.0069563105
127	0xbe146a93	-0.1449378
128	0xbdaf0141	-0.08545161
129	0x3d8ad9db	0.06779834
130	0xbd2668c2	-0.04062725
131	0x3c4c1806	0.0124568995
132	0xbbae5fd8	-0.005321484
133	0xbe80006f	-0.2500033
134	0x3e0a5b65	0.13511427
135	0xb98bab5e	-0.00026639825
136	0xbe1a5a14	-0.15073425
137	0x3c9f20d4	0.019424833
138	0x3db7782e	0.08958469
139	0xbd5550d7	-0.052079048
140	0xbe795f61	-0.2435279
141	0x3dfdf25d	0.12399743
142	0xbd7272d1	-0.05919153
143	0xbe0497ee	-0.12948582
144	0x3e5ec2b5	0.21753962
145	0x3cec48ab	0.028843245
146	0x3e929b72	0.2863422
147	0x3e30add4	0.1725381
148	0xbe1f4a46	-0.15555677
149	0xbc596599	-0.013268852
150	0xbc9e03b8	-0.019288883
151	0x3d0e329a	0.034716226
152	0x3e8f20f7	0.27954838
153	0x3e5b468f	0.21413635
154	0xbe343fa6	-0.17602405
155	0x3c176a28	0.009241618
156	0xbe11c107	-0.1423379
157	0x3c937e12	0.018004451
158	0xbdcbfe1f	-0.09960579
159	0xbe6980f0	-0.22803092
160	0xbd373c5f	-0.04473531
161	0x3d287880	0.041130543
162	0x3d37f55d	0.04491173
163	0x3d557bd2	0.052120037
164	0x3df02470	0.117257
165	0x3df1718f	0.11789238
166	0xbdf002d0	-0.117192864
167	0x3cef2254	0.029191174
168	0xbd710da3	-0.058850896
169	0x3d9353a8	0.071936905
170	0xbd585349	-0.052813802
171	0xbda86573	-0.08222475
172	0xbd86f65d	-0.06589959
173	0xbe829e0a	-0.255112
174	0x3d526255	0.051363308
175	0xbd9447d3	-0.07240262
176	0x3e8892d4	0.2667452
177	0xbd861492	-0.06546892
178	0x3da05b0a	0.07829864
179	0x3db4aad9	0.08821649
180	0xbd98f3b7	-0.0746836
181	0xbdaaaa99	-0.0833332
182	0x3e009e14	0.12560302
183	0x3e32c8b3	0.17459373
184	0xbe134db0	-0.14385104
185	0x3dca919b	0.09891053
186	0xbe5be572	-0.21474245
187	0xbd706dc9	-0.05869845
188	0xbc4226b5	-0.011850049
189	0x3bd4e85d	0.0064974264
190	0x3ce04f7a	0.027381647
191	0x3ddcf2db	0.107885085
192	0xbda0c0ae	-0.07849251
193	0x3d8b5e2a	0.0680507
194	0xbdd7c097	-0.105347805
195	0xbe0aa00e	-0.13537619
196	0xbe040e42	-0.12896064
197	0xbe629f1a	-0.22131005
198	0x3dac6da2	0.08419348
199	0xbe288fb6	-0.16461071
200	0xbe74bda9	-0.23900475
201	0x3ac73c71	0.0015200508
202	0xbdb56b03	-0.088583015
203	0x3cadecbf	0.021231053
204	0x3e26d1ae	0.16290924
205	0xbde99298	-0.11404914
206	0x3e37cd4c	0.17949408
207	0x3d74d26d	0.05977099
208	0xbe369c08	-0.17832959
209	0xbc6fbea8	-0.014632858
210	0x3e429a31	0.19004132
211	0x3c250741	0.01007253
212	0x3df55af1	0.11980236
213	0x3e10a51c	0.14125484
214	0xbd08e084	-0.03341724
215	0x3e032feb	0.12811248
216	0xbe54a7fc	-0.20767206
217	0x3dac9ea3	0.08428695
218	0x3caff315	0.021478215
219	0xbcef2afe	-0.029195305
220	0x3d9deb11	0.07710851
221	0xbdfab43f	-0.122414105
222	0xbd1de742	-0.038550623
223	0xbdcd50cd	-0.10025177
224	0x3dfc6f3f	0.12325906
225	0xbdbc8578	-0.09205145
226	0x3bcd114c	0.0062581655
227	0xbd9f873d	-0.077894665
228	0x3dae58f8	0.08513063
229	0xbe945f11	-0.2897878
230	0xbdef4a28	-0.11684066
231	0x3dd4fc16	0.10399644
232	0xbd858c14	-0.065208584
233	0xbd1f1602	-0.038839348
234	0x3e50fba7	0.20408498
235	0xbc471d52	-0.012152987
236	0x3dd7f8ce	0.105455026
237	0x3d97b95b	0.074084006
238	0xbe1d3135	-0.15350802
239	0x3df12cde	0.11776136
240	0x3db19780	0.086714745
241	0x3e361dcd	0.17784806
242	0x3e045f9c	0.12927097
243	0x3dc8e3e7	0.09809094
244	0x3cb1b98d	0.021694923
245	0x3e899af6	0.26876038
246	0x3e0461d8	0.1292795
247	0xbe683d46	-0.22679624
248	0xbd6ac933	-0.057320785
249	0xbe178957	-0.14798485
250	0x3e22ab44	0.15885645
251	0x3e389767	0.18026505
252	0xbda51450	-0.08060515
253	0xbdcfd799	-0.10148544
254	0x3e5996f7	0.21248995
255	0x3de7605c	0.11297676

recurs2.weight_hh f4 [120, 30]
0	0x3d4a9bdd	0.04946505
1	0x3dc51956	0.09623973
2	0x3e5a1360	0.21296453
3	0xbe28ce24	-0.16484886
4	0x3da36c8b	0.07979687
5	0xbde7de10	-0.11321652
6	0x3e2e653c	0.17030805
7	0xbdf99ad7	-0.121877365
8	0xbc385aa0	-0.011252075
9	0x3d887747	0.06663375
10	0xbd40467c	-0.04694222
11	0x3d5c1ead	0.053740192
12	0xbd54971d	-0.051901925
13	0x3d342630	0.04398173
14	0xbcc58de4	-0.02411551
15	0xbbaebb64	-0.0053323973
16	0x3d9cc24a	0.07654245
17	0x3e04d8f0	0.1297338
18	0xbe13c46a	-0.14430395
19	0xbdd2dba4	-0.102957994
20	0xbc6799d0	-0.014135793
21	0x3c8597de	0.016307767
22	0xbdc6a468	-0.09699327
23	0xbc9cecdd	-0.019155914
24	0x3d72c9d4	0.05927451
25	0xbd4c3227	-0.049852517
26	0xbcfca9ba	-0.03084265
27	0xbd857b37	-0.06517642
28	0xbe2bcaae	-0.16776535
29	0x3e02b4fb	0.12764351
30	0xbcd27b49	-0.025693553
31	0xbd971836	-0.07377665
32	0xbe067b3d	-0.13132949
33	0x3de6ff56	0.1127917
34	0xbd3f0eab	-0.046644848
35	0x3dcba817	0.0994417
36	0x3c126e17	0.00893738
37	0xbd90e7a6	-0.070754334
38	0xbdde6061	-0.108582266
39	0x3dba4b43	0.09096386
40	0xbe8d438b	-0.27590594
41	0xbdbd65ac	-0.09247908
42	0xbddb74cd	-0.10715637
43	0xbcd648cb	-0.026157757
44	0x3e3135a7	0.17305623
45	0x3e5d3dfc	0.21605676
46	0x3e53f459	0.2069868
47	0xbdbd4e85	-0.09243492
48	0xbdf44b4c	-0.11928424
49	0x3d0b5229	0.0340139
50	0x3e4cf633	0.20015793
51	0xbd903c78	-0.070427835
52	0xbda18c7f	-0.07888126
53	0xbe077560	-0.13228369
54	0xbd8d948b	-0.06913098
55	0xbdddecfb	-0.10836216
56	0xbe4f4c28	-0.20243895
57	0x3a6ce7e7	0.00090372417
58	0x3c66e824	0.014093433
59	0x3de98629	0.11402542
60	0xbdfebd15	-0.12438408
61	0xbd423d58	-0.047421783
62	0x3e4c15d5	0.19930203
63	0xbbff02ad	-0.0077823014
64	0x3e0f92ea	0.14020887
65	0xbd97fdfe	-0.07421492
66	0xbc94b381	-0.018152
67	0x3ce29530	0.027659029
68	0xbcae9152	-0.021309528
69	0xbe6b0b9f	-0.22953652
70	0x3d7726a3	0.06033958
71	0xbd9f93ad	-0.07791839
72	0xbd2035c6	-0.039113782
73	0x3ccf45c3	0.02530182
74	0x3e4d682c	0.2005927
75	0x3d9cbcc3	0.07653191
76	0x3e040cab	0.12895457
77	0xbc90c35a	-0.017671276
78	0x3e04a78e	0.12954542
79	0x3d738d1a	0.059460737
80	0x3e222169	0.15833057
81	0x3d4c0a71	0.049814645
82	0xbe33a5e7	-0.17543755
83	0x3d9d47d2	0.07679714
84	0xbe48e235	-0.19617541
85	0xbe6f72a3	-0.23383574
86	0xbcf55780	-0.02994895
87	0x3c193e0c	0.009353172
88	0xbdbfb6ce	-0.09361039
89	0x3e5192e6	0.20466194
90	0xbd63fc62	-0.055660613
91	0x3c7bb58c	0.015363108
92	0x3e590a36	0.21195301
93	0x3de530fb	0.11190983
94	0xbdb48638	-0.08814663
95	0x3cb85a6a	0.02250405
96	0xbd958e2f	-0.0730251
97	0xbe29e4c8	-0.1659118
98	0xbd2688fd	-0.040657986
99	0xbcef7d86	-0.029234659
100	0xbe669607	-0.22518168
101	0xbdbdf8ed	-0.092759944
102	0xbe795425	-0.24348505
103	0xbd12a2a9	-0.035799656
104	0x3e0a04ca	0.1347839
105	0x3d18deff	0.03732204
106	0x3e239a8c	0.15976924
107	0x3e27c967	0.16385423
108	0x3da8d766	0.08244209
109	0xbb21a1b6	-0.0024663038
110	0x3c649e35	0.013953735
111	0x3d8087a8	0.062758744
112	0xbe4aa12d	-0.19788046
113	0xbdbee676	-0.09321301
114	0x3d763f94	0.060119227
115	0xbd6e5af0	-0.058192194
116	0xbb6a30f9	-0.0035734756
117	0x3e5c9120	0.21539736
118	0x3e061eb8	0.13097656
119	0x3dd20155	0.1025416
120	0x3e045406	0.12922677
121	0x3e407e9c	0.18798298
122	0xbcd32534	-0.025774576
123	0x3d12c21d	0.035829652
124	0x3dd6aca8	0.1048215
125	0x3d8c26ce	0.06843339
126	0x3e5f9051	0.21832396
127	0xbe1121cc	-0.14173049
128	0x3c87ca1e	0.01657587
129	0x3e18ab3c	0.1490907
130	0xbe688bc8	-0.22709572
131	0xbda155cd	-0.07877693
132	0x3d6ea971	0.05826706
133	0x3e0e223e	0.1388025
134	0x3e87a137	0.26490185
135	0xbcf2e104	-0.029648311
136	0x3e07c592	0.13258961
137	0xbe0b62d5	-0.1361192
138	0xbe1b16aa	-0.15145364
139	0x3c1517ff	0.009099959
140	0xbc78fa06	-0.015196329
141	0x3ddb6146	0.10711913
142	0xbd9c823c	-0.07642028
143	0x3e05e0b0	0.13073993
144	0xbd3d819f	-0.046266194
145	0x3c353a4f	0.011061265
146	0xbd06798d	-0.032830764
147	0x3e495d3c	0.19664472
148	0x3a8ce92a	0.0010750641
149	0x3e62fec4	0.22167498
150	0xbe518b7f	-0.2046337
151	0xbd4ae469	-0.049534235
152	0x3e3c6b6d	0.18400355
153	0x3e19cb2f	0.15018915
154	0xbc9d7b51	-0.01922384
155	0x3e39240b	0.18080156
156	0x3e217cce	0.15770265
157	0xbe3a11b8	-0.18170822
158	0x3bd71b44	0.0065645296
159	0x3dd66cc9	0.10469968
160	0xbe2ee0de	-0.17077968
161	0x3e09592f	0.13412927
162	0xbe09c3b2	-0.13453558
163	0xbdb54561	-0.088511236
164	0xbc94b494	-0.018152513
165	0xbd35a50f	-0.044346865
166	0x3e5f9a01	0.21836092
167	0x3e05933d	0.13044448
168	0x3d9d16b3	0.07670345
169	0x3d896ef9	0.067106195
170	0x3df9a646	0.12189917
171	0xbca54084	-0.020172365
172	0xbe64751e	-0.22310302
173	0xbe1a9482	-0.15095714
174	0xbdc6684e	-0.09687863
175	0x3da69bb6	0.08135168
176	0xbdf359da	-0.11882372
177	0x3d3e2753	0.04642422
178	0x3d5169a4	0.051126137
179	0x3e8bf23d	0.2733325
180	0xbcfd467a	-0.030917395
181	0x3e0f8ea1	0.14019252
182	0xbdaeb8b5	-0.08531324
183	0xbe476325	-0.19471414
184	0xbcbb2941	-0.02284682
185	0x3d8642fd	0.06555746
186	0x3dfba67f	0.12287616
187	0x3d8e643d	0.06952713
188	0x3e1d94ca	0.1538879
189	0xbd9f7068	-0.07785112
190	0xbd3dc86c	-0.046333715
191	0x3e2c1623	0.1680532
192	0xbe039c09	-0.12852491
193	0x3e0a9977	0.13535105
194	0xbdadfb10	-0.08495152
195	0x3dbc658d	0.09199057
196	0x3db0dd96	0.08636014
197	0x3e24d80f	0.16098045
198	0xbd03ccf7	-0.03217789
199	0xbc53293c	-0.012888249
200	0xbd284902	-0.04108525
201	0x3e79af72	0.24383333
202	0xbc38b321	-0.011273176
203	0xbd483bf4	-0.0488853
204	0x3cc5b12a	0.02413233
205	0x3d95d410	0.07315838
206	0xbdddf883	-0.108384155
207	0xbe107d72	-0.14110354
208	0xbd8856f3	-0.06657209
209	0x3e011470	0.12605453
210	0xba1be3d7	-0.00059467315
211	0x3d278723	0.04090036
212	0x3df588ef	0.11989009
213	0xbb812e2e	-0.0039422726
214	0x3e143b61	0.14475776
215	0xbdcccfc3	-0.10000565
216	0x3e5010fe	0.20318982
217	0xba50fae4	-0.0007971956
218	0x3e0e1770	0.13876128
219	0x3d78a4cc	0.060704038
220	0xbe7d014e	-0.24707529
221	0x3e04ef56	0.12981924
222	0xbdf95314	-0.12174049
223	0xbdd8cba8	-0.10585719
224	0x3e3ba4ff	0.1832466
225	0x3d0a5933	0.033776473
226	0xbd92f872	-0.071762934
227	0xbdb6ab56	-0.089193985
228	0x3e098908	0.1343118
229	0xbe58c590	-0.21169114
230	0x3e09ac1b	0.1344456
231	0x3defeda9	0.11715252
232	0xbe16a4cd	-0.14711304
233	0x3d6c8fa6	0.05775418
234	0xbe2b2f93	-0.16717367
235	0xbd3b761a	-0.045766927
236	0xbdc4ec27	-0.09615355
237	0x3de33a8e	0.11095153
238	0xbd1904cf	-0.0373581
239	0xbd832f6c	-0.064055294
240	0xbd509032	-0.050918765
241	0x3e4fb028	0.20282042
242	0xbcf4fe50	-0.029906422
243	0x3e13be75	0.14428122
244	0x3e0b57d7	0.13607727
245	0xbd0319ab	-0.0320069
246	0x3d2cf8bc	0.0422294
247	0x3e02b6b9	0.12765016
248	0xbc594999	-0.013262176
249	0xbc31e0c6	-0.010856813
250	0xbd859105	-0.06521801
251	0x3d0614a5	0.032734532
252	0xbe488e49	-0.19585527
253	0xbd915e6a	-0.07098086
254	0x3e84cc98	0.25937343
255	0x3dbe85b4	0.093028456

recurs2.bias_ih f4 [120]
0	0x3e95a1a1	0.29224876
1	0x3e83b2a3	0.25722227
2	0xbc14db63	-0.009085509
3	0x3e03c810	0.12869287
4	0x3cd2172f	0.02564582
5	0x3d4cd467	0.05000725
6	0x3d998171	0.07495392
7	0x3e9a576e	0.3014483
8	0x3e0331cb	0.12811963
9	0x3e7bef93	0.24603109
10	0xbd63fc63	-0.055660617
11	0x3dfc5010	0.12319958
12	0x3e20dd96	0.15709528
13	0x3bcbd35f	0.0062202658
14	0x3df5038f	0.119635694
15	0x3e174e1e	0.14775893
16	0x3e941340	0.28920937
17	0x3de81ca9	0.113335915
18	0x3dcd9604	0.10038379
19	0x3e6cd824	0.23129326
20	0x3d694a70	0.056955755
21	0x3e8030a0	0.25037098
22	0x3e836597	0.25663444
23	0x3c74e3b7	0.01494687
24	0x3e4136c9	0.18868555
25	0x3d8c8151	0.06860603
26	0x3e9230d8	0.2855289
27	0x3ddef1c0	0.10885954
28	0x3de91298	0.113804996
29	0x3e82af52	0.25524384
30	0x3dbe22d1	0.092839845
31	0x3e359e2f	0.17736124
32	0xbd01c008	-0.031677276
33	0xbd6086b7	-0.054815974
34	0x3dda44b3	0.106576346
35	0x3e8453f4	0.258453
36	0x3e3a66f9	0.18203343
37	0x3c82c49d	0.015962893
38	0x3e86e18e	0.2634396
39	0xbd9c2920	-0.076250315
40	0x3e4ed21f	0.20197342
41	0x3d494745	0.049140234
42	0xbd1e9cd6	-0.03872379
43	0x3de99191	0.11404718
44	0x3e512935	0.20425875
45	0x3e6ead8c	0.2330839
46	0x3cb7071e	0.02234226
47	0x3db8a2d1	0.0901543
48	0x3e1f5233	0.155587
49	0x3d03122e	0.03199976
50	0x3d8005c0	0.06251097
51	0x3e902d5c	0.28159606
52	0x3c80abc7	0.01570691
53	0x3e6cd04a	0.23126331
54	0xbd11a087	-0.03555348
55	0xbbd96c4c	-0.0066352244
56	0x3dcc32d9	0.09970636
57	0x3ca52181	0.020157577
58	0xbd46bbde	-0.048519008
59	0x3d48a050	0.04898101
60	0xbd61930b	-0.05507187
61	0x3e0499d4	0.12949306
62	0x3e241b5c	0.16026062
63	0xbd4bd7b2	-0.04976625
64	0x3e020e17	0.12700687
65	0x3e20127b	0.1563205
66	0x3de21cf6	0.1104068
67	0xbdf4e5cb	-0.11957892
68	0xbdffcb0d	-0.12489901
69	0xbd9b9a4b	-0.075977884
70	0xbc986724	-0.018603869
71	0x3d106153	0.035249066
72	0xbe583f95	-0.21118005
73	0x3e0f5e7e	0.1400089
74	0x3e895962	0.26826006
75	0x3d504096	0.050842844
76	0x3d8847c8	0.06654316
77	0x3c69c5d1	0.0142683545
78	0xbdd3de83	-0.10345175
79	0xbe4de93e	-0.20108506
80	0x3e430667	0.19045411
81	0x3e90fa17	0.28315803
82	0x3ce5049e	0.027956303
83	0xbe29d957	-0.16586815
84	0xbca24219	-0.019806908
85	0xbe17adea	-0.14812437
86	0x3c7fde57	0.015616975
87	0x3e3125c8	0.17299569
88	0x3e594818	0.21218908
89	0x3e6ee449	0.23329271
90	0x3e25a4fe	0.16176221
91	0x3e9fdbc8	0.31222367
92	0x3dc51f59	0.0962512
93	0x3e171722	0.14754918
94	0xbc269a94	-0.01016869
95	0x3e5c43eb	0.21510284
96	0x3e28a0c7	0.16467582
97	0x3e406099	0.18786849
98	0x3e6bec33	0.23039322
99	0x3e4110d9	0.18854083
100	0xbd3470f0	-0.044053018
101	0x3dc38783	0.09547331
102	0xbc6a4117	-0.014297745
103	0x3e7a1ad5	0.24424298
104	0x3dd7676f	0.10517775
105	0xbc479085	-0.012180452
106	0x3e5d1827	0.21591245
107	0x3c1b1a48	0.009466715
108	0x3de53595	0.111918606
109	0x3e6d3beb	0.23167388
110	0x3e5cb8fa	0.21554938
111	0x3e55ca13	0.20877866
112	0x3ddfec34	0.10933724
113	0x3d8faabe	0.07014988
114	0x3e0dee4f	0.13860439
115	0xbdd49853	-0.10380616
116	0x3d9f3ced	0.077752925
117	0x3e6feb2d	0.23429556
118	0x3e770d70	0.2412622
119	0xbd3505a5	-0.044194836

recurs2.bias_hh f4 [120]
0	0x3e35bd3d	0.1774797
1	0x3e8ffa52	0.28120667
2	0xbd07ed15	-0.033185083
3	0x3e0b9f9e	0.13635108
4	0x3d481942	0.048852213
5	0x3e11e4d9	0.14247455
6	0x3c6d4cbb	0.014483626
7	0x3e98251f	0.2971582
8	0x3e6d8922	0.23196843
9	0x3d00c478	0.031437367
10	0xbd07879a	-0.033088304
11	0x3d81e9f2	0.0634345
12	0x3de5311e	0.11191009
13	0x3e0f16d0	0.13973546
14	0x3d2490b9	0.04017708
15	0x3d17df6e	0.037078314
16	0x3e0e7c39	0.13914575
17	0xbc0d5a85	-0.008627539
18	0x3e2dfc61	0.16990806
19	0xbd178e4a	-0.03700093
20	0x3dbd38c3	0.09239342
21	0xbcac4f76	-0.021033984
22	0x3cfdaee8	0.03096719
23	0x3dfe4a34	0.12416497
24	0x3d9f0d5f	0.07766222
25	0xbba350d5	-0.004984001
26	0x3e2746d2	0.1633561
27	0x3d21419f	0.03936922
28	0x3e2247da	0.15847722
29	0x3e33d1f6	0.17560562
30	0x3d39072f	0.045172866
31	0xbdd34ae3	-0.10317018
32	0xbc73506c	-0.014850717
33	0x3db0647a	0.086129144
34	0x3e058ba9	0.13041557
35	0xbd28bb86	-0.04119446
36	0x3e2f40bf	0.17114542
37	0x3e0e9311	0.13923289
38	0x3dfb1d1f	0.12261414
39	0x3d43fc34	0.04784794
40	0x3a8b8756	0.0010645192
41	0x3e010f01	0.1260338
42	0x3e3a4f6b	0.18194358
43	0x3d170a48	0.03687504
44	0x3e0853a2	0.13313153
45	0x3e65221c	0.22376293
46	0x3e43f659	0.19136943
47	0x3d3aa427	0.045566704
48	0x3e17acdf	0.14812039
49	0x3dbfde34	0.09368554
50	0x3e20da76	0.15708336
51	0x3d62942b	0.055317085
52	0x3db77858	0.089585006
53	0x3df5201a	0.119690135
54	0xbd5c98dc	-0.053856716
55	0x3ddc820e	0.107669935
56	0xbd8d4099	-0.06897087
57	0x3e3b91e9	0.18317379
58	0x3d54fed0	0.05200082
59	0x3e02d170	0.12775207
60	0xbde2e7e6	-0.11079387
61	0x3e0d4906	0.13797387
62	0x3e42c5b3	0.19020729
63	0x3e13d151	0.14435317
64	0x3da425e3	0.08015039
65	0xbd6de4d0	-0.05807954
66	0x3e205fac	0.15661496
67	0x3d441488	0.047871143
68	0xbe1bca37	-0.15213858
69	0xbd9650e5	-0.07339648
70	0xbd9d51c2	-0.0768161
71	0x3c6f671f	0.014611988
72	0xbd1747a0	-0.03693354
73	0x3e082c18	0.1329807
74	0x3d93ea60	0.07222438
75	0x3d0fddfe	0.035123818
76	0x3cf2587c	0.029583208
77	0x3dbe2f2f	0.09286343
78	0xbe0347f2	-0.12820414
79	0x3dec092c	0.11525187
80	0x3c018de8	0.007907368
81	0x3e71120d	0.23542042
82	0xbdb8b0ce	-0.09018098
83	0xbd952b86	-0.07283692
84	0xbca8b41a	-0.020593692
85	0xbd4c104c	-0.04982023
86	0xbe2702b6	-0.16309628
87	0xbe226da5	-0.15862139
88	0xbdf9f166	-0.12204246
89	0x3e827e22	0.25486857
90	0x3e57b650	0.2106564
91	0x3d9728e7	0.073808484
92	0x3e79bb9d	0.24387975
93	0x3e03fd6f	0.12889646
94	0x3dd6f050	0.10495055
95	0x3ce783ed	0.02826115
96	0xbc9afda9	-0.018919783
97	0x3e71f18b	0.23627298
98	0x3e901457	0.28140518
99	0xbe19de50	-0.15026212
100	0x3e1ad121	0.15118839
101	0x3e40acf4	0.18815976
102	0x3d02db4a	0.03194741
103	0x3cc91834	0.024547674
104	0xbccd84d4	-0.025087751
105	0x3e4ca167	0.19983445
106	0x3ea05323	0.31313428
107	0x3e3ea4bd	0.1861753
108	0x3daf98b7	0.0857405
109	0x3e3599a0	0.17734385
110	0xbb994d61	-0.0046784137
111	0x3aa9304c	0.001290807
112	0x3e2dfca2	0.16990903
113	0x3e7bf8c0	0.2460661
114	0x3e110743	0.14162926
115	0x3cb7c803	0.02243424
116	0x3e23f865	0.16012724
117	0xbdb1bfed	-0.08679185
118	0x3e843cdf	0.2582769
119	0x3c38c1eb	0.011276702

output.weight f4 [2, 30]
0	0xbdcb287b	-0.099198304
1	0xbd29f00e	-0.0414887
2	0x3e1e5f98	0.15466154
3	0xbd5d5627	-0.05403724
4	0x3d35dde0	0.04440105
5	0xbdc59d81	-0.09649182
6	0x3e0bbd24	0.1364637
7	0xbe28d6d7	-0.16488205
8	0xbe322055	-0.17395146
9	0xbe40d84a	-0.18832508
10	0x3c5d67fa	0.0135135595
11	0x3dae8143	0.085207485
12	0xbe5a7c02	-0.21336368
13	0xbc0168f0	-0.007898554
14	0x3e8a92c6	0.27065104
15	0x3d69037b	0.056888085
16	0x3e3cba44	0.1843043
17	0xbc8fcccb	-0.017553708
18	0xbd65efed	-0.056137014
19	0x3dea4539	0.114389844
20	0x3dfc2b4a	0.12312944
21	0xbd26e41d	-0.04074489
22	0xbd7b54df	-0.061360236
23	0x3dc7a8ce	0.09748994
24	0x3da4ab7c	0.080405205
25	0xbdb18571	-0.0866803
26	0xbe85137f	-0.25991437
27	0x3e26d68f	0.16292785
28	0xbd4a6ab6	-0.049418174
29	0x3db4cc89	0.088280745
30	0x3e89417f	0.26807782
31	0x3e6f97d3	0.2339776
32	0x3e45e55b	0.19325773
33	0x3e716845	0.23574932
34	0xbdfee25c	-0.124455184
35	0x3e35ee86	0.1776677
36	0xbe33a74b	-0.17544286
37	0x3e314c99	0.17314376
38	0x3e48042d	0.19532843
39	0x3dda6303	0.10663416
40	0xbe5d697c	-0.2162227
41	0xbe165a1c	-0.14682811
42	0xbe261a6d	-0.16221018
43	0xbe4ca1d5	-0.19983609
44	0x3e2f1907	0.17099391
45	0x3e886cb4	0.26645434
46	0x3e3103e6	0.17286643
47	0xbe5bfbe4	-0.21482807
48	0x3e7d7439	0.24751367
49	0xbe7252e2	-0.2366443
50	0x3e4aa2dd	0.1978869
51	0x3be2d034	0.0069217924
52	0x3e3f9902	0.18710712
53	0x3e1ddfec	0.1541745
54	0xbea5a0b7	-0.32349178
55	0x3df65d64	0.120295316
56	0xbe229dcb	-0.15880506
57	0xbe65626b	-0.22400825
58	0x3e8c0ce0	0.27353573
59	0x3e16d512	0.14729717

output.bias f4 [2]
0	0x3da71d8a	0.08159931
1	0x3d2083a9	0.03918806

switch.weight f4 [1, 30]
0	0x3e0624b8	0.13099945
1	0xbd7c74c8	-0.06163481
2	0xbdc6d39c	-0.0970833
3	0xbd5fc176	-0.054627858
4	0xbd50a212	-0.050935812
5	0x3da2767a	0.07932754
6	0xbd2618f2	-0.040551133
7	0x3dba1f4c	0.09088001
8	0xbe0dda19	-0.13852729
9	0x3cef4d1c	0.029211573
10	0x3e17625a	0.14783612
11	0xbcd48e54	-0.025946774
12	0x3e13e9f0	0.14444709
13	0x3d4ecdf7	0.050489392
14	0xbe309f4a	-0.17248264
15	0xbdd285c3	-0.10279419
16	0x3e16ff63	0.1474586
17	0xbd17f07a	-0.03709457
18	0x3e38d4fc	0.18049997
19	0xbe3c9b86	-0.18418702
20	0xbdcce81e	-0.1000521
21	0x3e07cc96	0.13261637
22	0x3e2e5bf8	0.17027271
23	0xbe23786e	-0.15963909
24	0x3d578be5	0.05262365
25	0xbe314c50	-0.17314267
26	0xbe00c4f5	-0.12575133
27	0x3d9a9de1	0.07549644
28	0xbdb54e92	-0.08852877
29	0xbca69993	-0.020336902
