checkpoints/ablation/RAND-VC-cl/model.pth (torch, 50130 bytes, 11 tensors)

recurs1.weight_ih f4 [120, 2]
0	0xbdf0c70b	-0.117567144
1	0xbe0d2a50	-0.13785672
2	0xbe851c54	-0.25998175
3	0x3db7f668	0.08982545
4	0xbe61f55f	-0.22066258
5	0xbe473d12	-0.1945689
6	0xbe1d5dac	-0.15367764
7	0xbd9fad7a	-0.0779676
8	0xbe80162d	-0.2501692
9	0x3e766613	0.24062376
10	0xbe8ac924	-0.27106583
11	0x3e9e2724	0.30889237
12	0xbeaa6367	-0.33278963
13	0x3e561240	0.209054
14	0xbe237c18	-0.15965307
15	0x3eba1fa0	0.36352253
16	0xbd87b097	-0.06625479
17	0x3efc5add	0.49288073
18	0xbe955c60	-0.2917204
19	0xbeb8b6be	-0.3607692
20	0xbdb2be50	-0.087277055
21	0x3e6b85c2	0.23000243
22	0xbe03f637	-0.12886892
23	0x3edb29da	0.42805368
24	0xbe5ddf64	-0.21667248
25	0x3d71d3a1	0.059039716
26	0xbd8dc5d8	-0.06922501
27	0xbf02d1df	-0.5110149
28	0xbe8f5002	-0.2799073
29	0xbea080b4	-0.31348193
30	0xbea5acc6	-0.32358378
31	0x3e7afde1	0.2451091
32	0xbe499cc5	-0.19688709
33	0xbeae3499	-0.34024504
34	0xbe8f0a1c	-0.279374
35	0xbe08ba7f	-0.13352393
36	0xbe7a7fa9	-0.24462761
37	0x3ed6ee00	0.41978455
38	0xbd68109d	-0.05665647
39	0x3e7b6c1c	0.24552959
40	0xbd618c7e	-0.055065624
41	0x3d653413	0.055957865
42	0xbddc1c10	-0.1074754
43	0xbe1ffff2	-0.15624979
44	0xbe80b11c	-0.25135124
45	0xbed8fa0d	-0.42378274
46	0xbe30c304	-0.17261893
47	0xbe61e28e	-0.2205908
48	0xbe5faf08	-0.21844113
49	0x3e2b6f45	0.16741665
50	0xbc8a7daf	-0.016905634
51	0x3ef35e2f	0.47532794
52	0xbd6b6f0e	-0.057478957
53	0x3e8b0b80	0.2715721
54	0x3e280444	0.16407877
55	0xbdc8e31e	-0.09808944
56	0xbd192d86	-0.03739693
57	0x3dac2ec1	0.08407355
58	0xbead091b	-0.3379601
59	0xbd67a57e	-0.05655431
60	0x3d80e036	0.06292765
61	0xbdafae0b	-0.08578118
62	0x3c85684f	0.01628509
63	0x3e86b20d	0.26307717
64	0x3e5748e2	0.21023896
65	0xbe972deb	-0.2952722
66	0xbd7096b7	-0.058737483
67	0xbe06e51b	-0.13173334
68	0x3ea0f894	0.3143965
69	0x3ee4aa2d	0.44661084
70	0xbe3d861f	-0.18508194
71	0x3e86a19f	0.26295182
72	0x3d67bd84	0.05657722
73	0x3ebf6e1c	0.37388694
74	0x3e4f9b22	0.20274022
75	0x3ec18001	0.37792972
76	0x3e02259c	0.1270966
77	0x3e13e48c	0.14442652
78	0x3d8294c3	0.0637603
79	0xbe9787e6	-0.2959587
80	0xbe03401c	-0.12817425
81	0x3e7c54ef	0.24641775
82	0x3e9e3306	0.30898303
83	0x3d349946	0.044091485
84	0x3d964b1d	0.073385455
85	0xbd03c0d5	-0.03216632
86	0xbd53d0e0	-0.05171287
87	0xbecbea7d	-0.39827338
88	0x3e47da7a	0.19516936
89	0xbedc8dc1	-0.430769
90	0x3e7a340f	0.24433921
91	0x3e4ed8fd	0.20199962
92	0x3e4aff4b	0.19823949
93	0xbdd690ce	-0.10476838
94	0x3b10a549	0.0022071174
95	0xbdb1212c	-0.08648905
96	0x3e308985	0.1723996
97	0x3e895826	0.26825064
98	0xbdbe4a62	-0.09291531
99	0x3d9f9129	0.07791359
100	0x3e3ec306	0.18629083
101	0x3e669af0	0.22520041
102	0x3c92ebb3	0.017934656
103	0xbceef75c	-0.029170685
104	0xbe07d531	-0.1326492
105	0xbe918498	-0.28421474
106	0x3d220a65	0.039560694
107	0xbef1bf0e	-0.47216076
108	0xbdac8898	-0.08424491
109	0x3e39f9c8	0.1816169
110	0xbdc1fb5b	-0.094717704
111	0x3eb4be0d	0.35301247
112	0xbe017a98	-0.12644422
113	0x3ec34f66	0.38146514
114	0x3ea1d2c2	0.31606108
115	0xbe3f5298	-0.18683851
116	0x3dfe9d32	0.124323264
117	0x3e648137	0.22314917
118	0x3e606165	0.21912153
119	0x3d7a5505	0.061116237
120	0xbd4c0ece	-0.049818806
121	0xbe30ab17	-0.17252766
122	0xbdbe1228	-0.09280807
123	0x3ec4f168	0.38465428
124	0xbe1997ed	-0.14999361
125	0xbee1586f	-0.44012782
126	0xbe074883	-0.13211255
127	0xbe9fcc04	-0.3121034
128	0xbbf997d0	-0.0076169744
129	0xbf072b45	-0.528004
130	0xbe4ab4e4	-0.19795567
131	0x3ebfe1cf	0.37476966
132	0x3cad32ac	0.021142326
133	0xbeaab382	-0.3334008
134	0x3e76cc1c	0.24101299
135	0xbea6d6f5	-0.32585874
136	0x3dc8a9be	0.09798001
137	0xbec5a292	-0.38600594
138	0x3e031dfb	0.12804405
139	0x3eea863d	0.4580554
140	0x3e079686	0.13241014
141	0x3ea51630	0.3224349
142	0x3d63b932	0.055596538
143	0x3eb76a39	0.3582323
144	0xbe2c2344	-0.16810328
145	0xbe8ce3ff	-0.27517697
146	0x3e6751b8	0.22589767
147	0x3e8573dc	0.26064956
148	0xbd696bdd	-0.056987632
149	0xbeff4ae4	-0.49861825
150	0xbe101eaf	-0.14074205
151	0xbed1a19b	-0.40943608
152	0x3bb948f5	0.005654449
153	0x3ec56e69	0.385608
154	0x3d7d9b3e	0.06191563
155	0xbeda1b8c	-0.42599142
156	0x3e0991a0	0.13434458
157	0xbed721cf	-0.4201798
158	0xbce03c15	-0.0273724
159	0xbea52966	-0.32258147
160	0x3d777d43	0.060422193
161	0xbe3b0092	-0.18261936
162	0xbe67f854	-0.22653323
163	0xbed6d9ab	-0.41962942
164	0xbe233199	-0.15936889
165	0xbe9e39fa	-0.30903608
166	0xbd8222a2	-0.06354262
167	0x3ef7c2e5	0.4839088
168	0xbe9ef3f0	-0.31045485
169	0x3dedf8b9	0.11619706
170	0x3e9168c5	0.28400245
171	0xbebe97bc	-0.3722514
172	0x3cdf16ad	0.027232492
173	0x3e9bf3f3	0.30459556
174	0xbe386fff	-0.18011473
175	0x3ee10264	0.43947136
176	0x3be87fa6	0.007095295
177	0xbed0c91d	-0.40778437
178	0x3e188a2a	0.14896455
179	0xbf068d40	-0.5255928
180	0xbd711796	-0.058860384
181	0xbea1d089	-0.31604412
182	0x3d87f521	0.066385515
183	0x3e993133	0.2992035
184	0xbd0b839f	-0.03406107
185	0xbe87e3fd	-0.2654113
186	0xbe009979	-0.12558545
187	0xbeac8127	-0.33692285
188	0xbec48bd8	-0.38387942
189	0x3eade2d3	0.33962116
190	0x3d6ea8cf	0.058266457
191	0x3ef8237a	0.48464566
192	0xbe5ff84d	-0.21872063
193	0x3ea4de7b	0.3220099
194	0xbe4c8bf6	-0.19975266
195	0x3e6f4dc7	0.23369513
196	0xbe28c5d9	-0.16481723
197	0x3eeb6353	0.45974216
198	0xbe4af289	-0.19819082
199	0xbebb8981	-0.36628345
200	0xbdb95f39	-0.090513654
201	0x3e795f14	0.24352676
202	0xbe8d6548	-0.27616334
203	0x3e4577ff	0.19284056
204	0xbe4ad747	-0.19808684
205	0x3dc78967	0.09743004
206	0xbe9a73fa	-0.30166608
207	0xbe3afec5	-0.1826125
208	0xbddd0229	-0.10791428
209	0xbe99904d	-0.29992905
210	0xbe5948a6	-0.2121912
211	0x3dfdcfa6	0.123931214
212	0xbc90cba0	-0.017675221
213	0xbeabaee9	-0.33531883
214	0xbdfb4eea	-0.12270911
215	0x3c15aaee	0.009134991
216	0xbe5f3000	-0.21795654
217	0x3e4eb27e	0.20185277
218	0x3d1cfc40	0.0383265
219	0x3dd18ea3	0.10232284
220	0xbd98a8bb	-0.07454058
221	0x3eb5e3d7	0.3552539
222	0x3a5a57ec	0.00083291414
223	0xbd934688	-0.07191187
224	0xbe8ccc39	-0.2749956
225	0xbe8722ab	-0.26393637
226	0xbec1134e	-0.3771004
227	0xbecb4b23	-0.39705762
228	0xbe284819	-0.16433753
229	0x3e522875	0.20523246
230	0xbd71c022	-0.059021123
231	0x3eeb0332	0.45900875
232	0xbd4000f6	-0.046875916
233	0x3ee3fd71	0.44529298
234	0x3e284cd2	0.16435555
235	0xbdc6db8e	-0.097098455
236	0x3d3d9ee3	0.046294104
237	0x3e1b5cc1	0.15172102
238	0xbe8efccd	-0.27927247
239	0x3d39efcb	0.0453947

recurs1.weight_hh f4 [120, 30]
0	0x3e677803	0.22604375
1	0x3e2a1a79	0.16611661
2	0x3dd198ff	0.1023426
3	0x3e37c38d	0.1794569
4	0x3d9150a0	0.07095456
5	0xbd5f3ff8	-0.054504365
6	0x3d26f4af	0.040760692
7	0xbe8d7656	-0.27629346
8	0xbda7314e	-0.08163701
9	0xbe49cade	-0.19706294
10	0xbda0dc97	-0.07854574
11	0x3d9f994c	0.07792911
12	0x3e812e46	0.25230616
13	0xbe585709	-0.21126951
14	0x3d60dcce	0.054898076
15	0xbd2589e1	-0.040414695
16	0xbea9dd8e	-0.33176845
17	0x3e18b849	0.14914049
18	0xbe4a761b	-0.19771616
19	0xbe676537	-0.22597204
20	0xbe92abb7	-0.28646633
21	0x3e39f543	0.18159966
22	0x3e84be2c	0.2592634
23	0xbc8cc801	-0.017185213
24	0x3e7db775	0.24777015
25	0xbe7e98f3	-0.24863033
26	0x3e143448	0.14473069
27	0x3b69ec8a	0.0035693967
28	0x3de65b46	0.11247878
29	0x3d959502	0.073038116
30	0x3d2e7237	0.042589393
31	0xbca614e3	-0.020273631
32	0x3b1ae48d	0.0023634762
33	0x3e1c429b	0.15259783
34	0xbe258fc8	-0.1616813
35	0xbdb62e0e	-0.08895503
36	0x3dddb013	0.10824599
37	0xbe3a9642	-0.18221381
38	0xbdbd897e	-0.0925474
39	0x3b9c258b	0.0047652177
40	0x3da53026	0.08065824
41	0xbd6eba00	-0.058282852
42	0xbe3d1fdb	-0.18469183
43	0xbc809767	-0.015697194
44	0x3e366ea8	0.1781565
45	0x3dbaf119	0.09128017
46	0xbdc95237	-0.09830134
47	0x3cbcf249	0.02306475
48	0xbe01b179	-0.12665357
49	0xbdb11f2f	-0.08648526
50	0xbe61274b	-0.21987645
51	0x3d1a9dd6	0.03774818
52	0x3e4db58a	0.20088783
53	0xbe0d5059	-0.13800181
54	0x3d3d1f06	0.046172164
55	0xbe51f089	-0.20501913
56	0x3e6426ff	0.22280501
57	0xbdff4b65	-0.12465552
58	0xbb54964d	-0.003243822
59	0xbdea5263	-0.11441495
60	0x3da5da76	0.08098309
61	0x3d9feb93	0.07808604
62	0x3dbdb654	0.09263292
63	0x3e62b15c	0.2213797
64	0x3cfd31d4	0.030907549
65	0xbc35cfae	-0.011096878
66	0xbca20878	-0.019779429
67	0xbd8b34eb	-0.06797203
68	0xbcec4d61	-0.02884549
69	0xbe327c44	-0.17430216
70	0xbe05634d	-0.13026161
71	0xbb96f9d5	-0.004607419
72	0x3e415374	0.18879491
73	0xbe818569	-0.25297096
74	0x3e8e2649	0.27763584
75	0x3e0a6680	0.13515663
76	0xbe806a6e	-0.250812
77	0x3dd65be4	0.104667455
78	0xbd78dd49	-0.06075791
79	0xbd74b203	-0.059740078
80	0xbe401386	-0.18757448
81	0x3e1626ee	0.14663288
82	0x3c57daf1	0.013174758
83	0xbe1c2c31	-0.15251233
84	0x3eabc16a	0.33546
85	0xbd223eb3	-0.039610576
86	0x3e9ebad5	0.31001917
87	0xbd914616	-0.07093446
88	0x3d7fc340	0.062442064
89	0x3bbb6881	0.005719245
90	0xbc82f57a	-0.015986193
91	0xbd06315f	-0.032761928
92	0x3e8612e0	0.26186275
93	0x3e8b8ebf	0.27257344
94	0xbe6fda9f	-0.23423241
95	0x3e7799cd	0.24179764
96	0xbc90519b	-0.017617038
97	0xbc073165	-0.008251523
98	0xbc05379b	-0.008130933
99	0x3d8cebc3	0.068809055
100	0x3d5132cb	0.05107383
101	0x3db9fab4	0.09081021
102	0x3e4a4288	0.19751942
103	0x3b5378d7	0.003226807
104	0xbc020874	-0.007936586
105	0x3ddc1823	0.10746791
106	0x3c060f3e	0.008182345
107	0x3dc56c9d	0.09639857
108	0xbe854755	-0.26030985
109	0xbd95fee4	-0.07324007
110	0xbe816672	-0.25273472
111	0x3e0c8d6f	0.13725828
112	0x3da911d7	0.08255356
113	0xbb1dbb8c	-0.0024068085
114	0x3e7db306	0.24775323
115	0xbda917dd	-0.08256505
116	0x3e157497	0.14595257
117	0x3e0ab4ed	0.1354558
118	0xbe872ca4	-0.26401246
119	0xbb90563d	-0.0044048117
120	0x3da18473	0.07886591
121	0xbadabe39	-0.0016688771
122	0x3dc1414e	0.09436284
123	0x3eb33a68	0.35005498
124	0xbcbd29f7	-0.0230913
125	0x3ec79136	0.38977975
126	0xbbad543a	-0.0052895816
127	0xbebd7ec6	-0.37010783
128	0xbea46310	-0.3210683
129	0xbe409c53	-0.18809633
130	0xbc53395d	-0.012892094
131	0x3e8afeae	0.2714743
132	0xbdb27b7f	-0.08714961
133	0xbe9e1e97	-0.30882713
134	0x3d015649	0.03157643
135	0xbe5205bd	-0.20510001
136	0xbbebe0f9	-0.0071984497
137	0x3e1ce8f7	0.15323244
138	0xbda0142e	-0.07816349
139	0xbcd172e7	-0.025567485
140	0xbd92dc02	-0.071708694
141	0xbc6144d6	-0.013749322
142	0x3e89a248	0.26881623
143	0xbd520462	-0.05127371
144	0x3e8fe8f6	0.28107423
145	0xbd1524b6	-0.036411963
146	0x3ea5e552	0.3240152
147	0x3dd9596e	0.106127605
148	0xbe7e66c9	-0.24843897
149	0x3d54951d	0.051900018
150	0x3e629df3	0.22130565
151	0x3e04f2f1	0.129833
152	0x3d8e7611	0.06956113
153	0x3d99102f	0.0747379
154	0xbe951a24	-0.29121506
155	0x3e8b025d	0.2715024
156	0x3cb80fe9	0.022468524
157	0xbe29a8fa	-0.16568366
158	0xbe74ca4b	-0.23905294
159	0x3d4152ba	0.047198035
160	0x3e9e9686	0.30974215
161	0x3d9e3e50	0.07726729
162	0xbe8ccc7a	-0.27499753
163	0xbda60a42	-0.08107425
164	0x3e6dfb99	0.23240508
165	0xbe9de6e0	-0.30840206
166	0x3e110fde	0.14166209
167	0x3d43ab07	0.047770526
168	0xbe76de61	-0.24108268
169	0xbd93a301	-0.07208825
170	0xbe9676f8	-0.2938764
171	0xbdc58c63	-0.09645917
172	0x3eb9965f	0.36247537
173	0xbe1b5406	-0.15168771
174	0x3ce255d3	0.027628815
175	0xbe79a5b9	-0.24379624
176	0x3e09657d	0.13417621
177	0xbcb3c891	-0.021946223
178	0xbe087403	-0.13325505
179	0x3de340cb	0.11096343
180	0x3e002495	0.12513955
181	0x3cf5e8f2	0.030018304
182	0x3dd2fc8e	0.10302077
183	0x3e4105f2	0.18849924
184	0xbcd1ee0a	-0.025626201
185	0xbd393330	-0.04521483
186	0xbdf352e4	-0.118810445
187	0xbe7f53f7	-0.24934374
188	0xbe4f70e2	-0.20257905
189	0xbc3dd46d	-0.011586291
190	0x3cc4cca6	0.024023365
191	0x3dec6992	0.115435734
192	0x3db0859f	0.08619236
193	0xbe00bb4e	-0.12571451
194	0xbd32619b	-0.043550115
195	0xbe6c2f63	-0.23064952
196	0xbc0b0359	-0.008484685
197	0xbe37af41	-0.17937948
198	0xbd236036	-0.039886676
199	0xbe972a30	-0.29524374
200	0xbea34d09	-0.3189471
201	0xbe61689a	-0.22012559
202	0x3d9f20eb	0.077699505
203	0x3d23e9bf	0.04001784
204	0xbd5cf1f6	-0.05394169
205	0x3c4877cd	0.012235594
206	0x3d8872bf	0.06662511
207	0x3d5f7944	0.054559007
208	0xbe0e6c69	-0.13908543
209	0xbe30be83	-0.17260174
210	0x3e756696	0.23964915
211	0x3e33ee28	0.17571318
212	0x3e8b3289	0.27186993
213	0x3e205ccd	0.156604
214	0xbe237c6a	-0.15965429
215	0x3e64b39d	0.22334142
216	0xbd374819	-0.044746492
217	0x3cc2e7af	0.023792116
218	0xbe62af84	-0.22137266
219	0xbdb9b835	-0.09068338
220	0xbd902622	-0.07038523
221	0xbd0eb4ca	-0.034840383
222	0xbda0c03c	-0.07849166
223	0xbe91a509	-0.28446224
224	0x3dfa16cb	0.12211379
225	0xbba029a3	-0.004887776
226	0x3c6c73af	0.014431878
227	0xbe24d5c8	-0.16097176
228	0xbe6eefcf	-0.23333667
229	0xbe1b27df	-0.15151928
230	0xbcab24d6	-0.020891588
231	0x3e18cd30	0.14922023
232	0x3e5aab02	0.21354297
233	0xbdb6db76	-0.089285776
234	0x3e0824c5	0.13295276
235	0xbe8aed13	-0.27133998
236	0xbd70838e	-0.05871921
237	0x3da09297	0.0784046
238	0xbe3ba133	-0.18323211
239	0x3d8add89	0.06780536
240	0xbca4c9e9	-0.02011581
241	0x3d104cc3	0.035229456
242	0xbd31a0bb	-0.043366175
243	0x3e31cfd8	0.17364442
244	0xbe02c90d	-0.12772007
245	0x3e826bc8	0.25472856
246	0x3cca5571	0.024698945
247	0xbc2fbbed	-0.010725957
248	0xbdcaf749	-0.09910447
249	0xbde3edea	-0.11129363
250	0x3dbc637e	0.09198664
251	0x3db7e92d	0.089800216
252	0xbdc2040a	-0.09473427
253	0xbea42813	-0.32061824
254	0x3e69652e	0.22792503
255	0xbe2f5c0f	-0.17124961

recurs1.bias_ih f4 [120]
0	0x3d6a1c68	0.057155997
1	0x3d3bd596	0.04585799
2	0x3e5e18cc	0.21689147
3	0x3ec0dfb6	0.37670678
4	0x3ec599bd	0.38593856
5	0x3ea470ef	0.32117411
6	0x3e3c5fc6	0.1839591
7	0x3eb9ee8e	0.36314815
8	0x3e7b0220	0.2451253
9	0x3ea6f709	0.32610348
10	0x3e4a2bde	0.19743297
11	0x3e7edf4e	0.24889871
12	0x3e99cfc5	0.30041328
13	0x3edc91dc	0.43080032
14	0x3ec38eec	0.38194978
15	0x3eacf580	0.33781052
16	0x3e905c2e	0.28195328
17	0x3e79d595	0.24397881
18	0x3eb03d21	0.34421638
19	0x3e84a9b9	0.25910738
20	0x3eab9d98	0.33518672
21	0x3e55e07a	0.20886412
22	0x3d9018d6	0.07035987
23	0x3ebe4417	0.37161323
24	0x3ea17ac3	0.31538972
25	0x3ebd5f6f	0.36986873
26	0x3e9b3fd1	0.30322126
27	0x3e7cb3f8	0.24678028
28	0x3ebae144	0.3649999
29	0x3e84c62d	0.25932446
30	0x3ea8b99f	0.32954118
31	0x3dc21136	0.09475939
32	0x3e0f0691	0.13967349
33	0x3e89427c	0.26808536
34	0xbe11fd0b	-0.14256684
35	0x3e58ac04	0.21159369
36	0x3e69b03f	0.22821139
37	0xbda464ec	-0.08027062
38	0x3d0d7263	0.034532916
39	0xbd9316d3	-0.07182088
40	0xbb564a84	-0.0032698223
41	0xbbf09d7d	-0.007342993
42	0x3e2430a7	0.16034184
43	0x3d865dd9	0.06560869
44	0xbe19b558	-0.15010583
45	0x3ddba3b5	0.10724584
46	0x3dffdf20	0.124937296
47	0xbd367694	-0.04454668
48	0x3e3c7fb6	0.18408093
49	0x3e4c9b7e	0.1998119
50	0x3d45f1cd	0.048326302
51	0x3d0d4df4	0.03449817
52	0x3e0e68af	0.13907121
53	0xbc95a7df	-0.018268524
54	0x3e024ac1	0.12723829
55	0xbbaadf0e	-0.0052145785
56	0xbb9ede45	-0.004848274
57	0x3c9d9750	0.01923719
58	0xbd6f9570	-0.058492124
59	0xbda972b7	-0.08273833
60	0x3ec52181	0.38502124
61	0x3d934e89	0.07192714
62	0x3e511335	0.20417483
63	0x3eb05b56	0.34444684
64	0xbdba47d5	-0.09095732
65	0x3e58ddd3	0.21178369
66	0x3a49f82c	0.0007704522
67	0xbe84acc4	-0.2591306
68	0xbe3749b5	-0.17899211
69	0xbd233f69	-0.039855395
70	0x3d66192c	0.05617635
71	0x3e215238	0.1575402
72	0x3d954c6b	0.07289966
73	0xbe8dbe6a	-0.27684337
74	0x3da9ad11	0.08284963
75	0x3db51ee2	0.08843781
76	0xbe301dd4	-0.17198879
77	0xbdf1edb4	-0.118129164
78	0xbe48f118	-0.1962322
79	0x3c188404	0.009308819
80	0xbec4fb45	-0.38472953
81	0xbd2d0360	-0.042239547
82	0x3ebaffe6	0.3652336
83	0xbe51261d	-0.20424695
84	0x3ecc0a61	0.39851668
85	0xbe7f882b	-0.24954288
86	0x3e809021	0.25109962
87	0xba04f6ac	-0.00050721574
88	0xbd3a02ee	-0.04541295
89	0x3defc76d	0.11707959
90	0x3eb507d2	0.3535753
91	0x3d898351	0.067145
92	0x3eb8da62	0.36104113
93	0x3e6cb43d	0.2311563
94	0x3ea69e63	0.32542714
95	0x3d3f1c0a	0.0466576
96	0x3e60c151	0.21948744
97	0x3e9c8783	0.30572137
98	0x3d316cd3	0.043316673
99	0x3d77adec	0.0604686
100	0xbc213975	-0.009840359
101	0x3e90b4b3	0.28262863
102	0x3e17d0be	0.14825723
103	0x3e7fca62	0.24979547
104	0x3ee8b83a	0.45453054
105	0x3e7c98cb	0.24667661
106	0x3d7da231	0.061922256
107	0x3e9900b5	0.29883352
108	0x3daf9978	0.08574194
109	0x3e07c5e8	0.13259089
110	0x3e814957	0.25251266
111	0x3e8a44a6	0.270055
112	0x3da1dca8	0.07903415
113	0x3f02303e	0.5085486
114	0x3ea35cfa	0.31906873
115	0x3cab0d6d	0.020880425
116	0x3e6e575d	0.23275514
117	0x3e828733	0.25493774
118	0x3da088f0	0.07838619
119	0x3e426700	0.18984604

recurs1.bias_hh f4 [120]
0	0x3d8c3467	0.068459325
1	0x3e927942	0.28608137
2	0x3e9363cd	0.2878708
3	0x3ea111d4	0.31458914
4	0x3e80a046	0.2512228
5	0x3ed91a25	0.4240276
6	0x3e82e5c4	0.25565922
7	0x3d52195e	0.051293723
8	0x3e4a2923	0.19742255
9	0x3eb71b69	0.357631
10	0x3e704ee6	0.23467597
11	0x3e4518f1	0.19247796
12	0x3de552b6	0.111974165
13	0x3e355fb0	0.17712283
14	0x3ede6120	0.43433475
15	0x3e56e58d	0.20986004
16	0x3ead3ada	0.33833963
17	0x3e737b0d	0.23777409
18	0x3e628e37	0.22124563
19	0x3cf64e04	0.030066498
20	0x3e0d5de6	0.1380535
21	0x3ec85553	0.39127597
22	0x3d6360d8	0.05551228
23	0x3edad589	0.4274104
24	0x3db32a06	0.0874825
25	0x3e7ef32d	0.24897452
26	0x3d8911e6	0.06692867
27	0x3d0e8164	0.034791365
28	0x3d9419db	0.07231494
29	0x3e847c41	0.25876048
30	0x3e45d62a	0.19319978
31	0xbe07e379	-0.13270368
32	0x3d831934	0.064012915
33	0x3e7dc938	0.2478379
34	0x3e1f288f	0.15542816
35	0x3e8e6ac1	0.27815822
36	0x3e36a8bd	0.17837806
37	0xbbbd10b4	-0.0057698134
38	0x3d089f26	0.0333549
39	0x3e4df795	0.20113976
40	0x3e06cc8e	0.13163969
41	0xbda9eb9f	-0.08296894
42	0x3e4d5657	0.20052467
43	0xbd27b3fd	-0.040943135
44	0x3e375578	0.17903697
45	0x3de2f25b	0.11081382
46	0xbde42794	-0.111403614
47	0xbe2434f4	-0.16035825
48	0x3e2ea790	0.17056108
49	0x3e74eb1c	0.23917812
50	0x3dd6036b	0.10449871
51	0xbd33c660	-0.043890357
52	0x3e57ee92	0.21087101
53	0x3dcc8baf	0.0998758
54	0x3e1904c5	0.14943226
55	0x3e64bb86	0.2233716
56	0x3e5e88f7	0.21731935
57	0xbcd87d3a	-0.0264269
58	0x3db96236	0.090519354
59	0xbe2a27ba	-0.16616717
60	0x3e0e009e	0.13867423
61	0x3d808311	0.06274999
62	0x3dfa0bf0	0.12209308
63	0x3e1cc8a5	0.15310915
64	0x3b727608	0.0036996622
65	0x3e75ee7d	0.24016757
66	0xbeacaa4d	-0.3372368
67	0xbd9b7ef9	-0.075925775
68	0xbe0e6f18	-0.13909566
69	0xbe441178	-0.19147289
70	0x3d99090b	0.07472428
71	0x3d832208	0.06402975
72	0xbdf5e082	-0.12005712
73	0xbebc773c	-0.3680972
74	0x3e62ae52	0.2213681
75	0xbe401e75	-0.18761618
76	0xbd34ddc4	-0.044156805
77	0x3e1b9608	0.15193951
78	0xbda23c86	-0.079217
79	0xbe60c177	-0.21948801
80	0xbec9ad2d	-0.39389935
81	0x3d9d742e	0.07688175
82	0x3e19ec46	0.15031537
83	0xbda6e073	-0.08148279
84	0x3e9de1ce	0.30836338
85	0xbe5d1b94	-0.21592551
86	0x3eb12841	0.34601024
87	0xbd45489d	-0.048164953
88	0xbde90ecb	-0.11379775
89	0xbdf056ef	-0.11735331
90	0x3e81ffc8	0.25390458
91	0x3d8bcbea	0.06826003
92	0x3e9813dd	0.29702654
93	0x3e2327f7	0.15933214
94	0x3ee89a87	0.45430395
95	0x3dadb069	0.08480913
96	0x3d9a6558	0.07538861
97	0x3e1932b3	0.14960746
98	0x3db546dc	0.08851406
99	0x3e98ee06	0.29869097
100	0x3dd2783f	0.10276841
101	0x3ea17557	0.31534836
102	0x3e9d04ed	0.3066782
103	0x3ed3844e	0.41311878
104	0x3e808437	0.25100872
105	0x3ec927c1	0.39288142
106	0x3da64596	0.08118741
107	0x3dcdd4ae	0.10050331
108	0x3e2c9ec4	0.1685744
109	0x3d5bfa61	0.053705577
110	0x3c6fa285	0.01462615
111	0x3e8c74ad	0.27432767
112	0x3eb87dbb	0.36033425
113	0x3e8698a1	0.26288322
114	0x3e3da9c9	0.18521799
115	0x3c560c8c	0.013064515
116	0x3e3d9509	0.18513884
117	0x3e6d887a	0.23196593
118	0x3e39b81f	0.18136643
119	0x3eea046e	0.45706505

recurs2.weight_ih f4 [120, 30]
0	0x3e195e55	0.14977391
1	0x3e84b53c	0.2591952
2	0x3df79741	0.12089396
3	0x3edf9354	0.4366709
4	0xbdc7eabb	-0.09761568
5	0x3eef9b6b	0.46798262
6	0xbdc977f1	-0.0983733
7	0xbe60884b	-0.21926992
8	0xbed57a17	-0.4169471
9	0xbe9f1e40	-0.31077766
10	0x3eb80f23	0.35949048
11	0x3d02b171	0.031907503
12	0xbddda854	-0.10823122
13	0xbe6e1bcf	-0.23252796
14	0x3e8c6cf5	0.27426878
15	0xbed132d3	-0.40859088
16	0xbc965aff	-0.018353937
17	0xbdecf948	-0.11570984
18	0xbebf5eae	-0.37376922
19	0xbe443ecd	-0.19164582
20	0xbe99c822	-0.30035502
21	0xbe2ccdaf	-0.16875337
22	0x3eafab33	0.34310302
23	0xbeaa68d6	-0.33283108
24	0x3ee77d01	0.45212558
25	0xbe14034e	-0.14454386
26	0x3ed0e7cd	0.4080185
27	0x3de9ec1f	0.1142199
28	0xbee20bba	-0.44149572
29	0xbe50c934	-0.20389253
30	0x3dac1b27	0.084036164
31	0xbc2eb254	-0.010662634
32	0x3d5501a0	0.052003503
33	0x3ecc03d3	0.39846668
34	0x3ce9ac2b	0.028524479
35	0x3e92444a	0.28567725
36	0xbe75f4a7	-0.24019109
37	0xbd151b5d	-0.03640305
38	0xbe2722f2	-0.16321924
39	0xbe77f108	-0.2421304
40	0x3e610108	0.2197305
41	0x3e5e94b0	0.21736407
42	0xbd6b5faa	-0.05746428
43	0xbd8f077b	-0.06983849
44	0x3e3d085e	0.18460223
45	0x3c2df5a3	0.010617646
46	0xbec93a18	-0.39302135
47	0x3dbda3e2	0.09259774
48	0xbe736ffc	-0.23773187
49	0xbe917f62	-0.28417498
50	0xbeabd29d	-0.33559123
51	0x3dc88094	0.09790149
52	0x3e381990	0.17978501
53	0xbea1edb3	-0.31626663
54	0x3ec81391	0.39077428
55	0xbe115715	-0.14193375
56	0x3d4af286	0.049547695
57	0xbd59e794	-0.053199366
58	0xbcaeb76a	-0.021327693
59	0x3d365acd	0.044520188
60	0x3e8e2a06	0.27766436
61	0x3d240322	0.04004205
62	0x3e9b97fd	0.30389395
63	0x3dfa3451	0.1221701
64	0xbde26e99	-0.11056251
65	0x3eaf9dbb	0.34300026
66	0xbe904659	-0.2817867
67	0xbde399e3	-0.11113336
68	0x3b450f08	0.0030068774
69	0xbebb01e9	-0.36524895
70	0xbc0d432b	-0.008621971
71	0x3e8a4fbc	0.27013958
72	0x3e047bd9	0.12937869
73	0xbe4cc914	-0.1999858
74	0x3e87a224	0.2649089
75	0x3e017f99	0.12646331
76	0xbe88301d	-0.26599208
77	0x3e31ca36	0.17362294
78	0xbd213d17	-0.0393649
79	0xbe31f287	-0.17377673
80	0xbee25821	-0.44207862
81	0x3e4dffb7	0.20117079
82	0x3e25b7bf	0.16183375
83	0xbe865352	-0.26235443
84	0x3ecbafb7	0.39782497
85	0xbe36b088	-0.17840779
86	0x3e15b345	0.14619167
87	0xbe5359da	-0.20639744
88	0xbd8e00ea	-0.06933768
89	0x3d4335ff	0.047658917
90	0x3e73930f	0.23786567
91	0x3ad9b6c0	0.001661025
92	0x3ec470d6	0.38367337
93	0x3ec0b0c8	0.37634873
94	0xbcc1dfe3	-0.023666328
95	0x3e9a4bc5	0.30135933
96	0xbe341bf6	-0.17588791
97	0xbdeda989	-0.11604602
98	0xbe3397c0	-0.17538357
99	0xbe59fd3a	-0.21288005
100	0xbd0d5065	-0.0345005
101	0x3e13e679	0.14443387
102	0xbd0dc1b9	-0.034608576
103	0xbe516a69	-0.20450749
104	0x3dd1433f	0.10217904
105	0xbdaa7ff2	-0.08325185
106	0xbe0ec2a3	-0.13941436
107	0x3cdebccf	0.02718964
108	0xbde2fe67	-0.1108368
109	0xbeaf795d	-0.3427228
110	0xbe193cba	-0.14964572
111	0x3e4e9ff6	0.20178208
112	0x3e24715c	0.16058868
113	0xbe00b6bc	-0.12569708
114	0x3e112b57	0.14176689
115	0xbed4a44a	-0.41531593
116	0x3e464f1f	0.1936612
117	0xbdc5a01c	-0.09649679
118	0xbd867495	-0.06565205
119	0xbd86bf35	-0.065794386
120	0x3edc588f	0.43036315
121	0x3e959d73	0.29221687
122	0x3c0d2827	0.00861553
123	0x3e5bf076	0.21478447
124	0xbebc821b	-0.36818013
125	0x3eae174f	0.34002158
126	0xbe5800bb	-0.21094029
127	0xbead3752	-0.3383127
128	0xbe8e77b3	-0.27825698
129	0x3d875306	0.06607632
130	0x3e55014e	0.20801279
131	0x3e509558	0.2036947
132	0xbe959d72	-0.29221684
133	0xbec32104	-0.38111126
134	0x3dfcb0c1	0.12338401
135	0xbe962336	-0.2932374
136	0xbe134143	-0.14380364
137	0xbe27367a	-0.16329375
138	0xbe0890b2	-0.13336447
139	0xbe57194f	-0.21005748
140	0xbed50201	-0.4160309
141	0xbccb7931	-0.024838062
142	0x3dcedb93	0.10100474
143	0xbe373ccd	-0.17894287
144	0x3ebf4731	0.37359002
145	0xbe279ca3	-0.16368346
146	0x3efa94c7	0.48941633
147	0x3e959909	0.2921832
148	0xbec628b6	-0.38702935
149	0xbe18ba14	-0.14914733
150	0x3e0bd07d	0.1365375
151	0x3e0590bb	0.13043492
152	0x3eac5bec	0.3366388
153	0x3eb19319	0.3468254
154	0xbe738e5d	-0.23784776
155	0x3e221d3b	0.15831463
156	0xbea81f14	-0.3283621
157	0xbe126a05	-0.14298256
158	0xbe5b637b	-0.21424668
159	0xbea16435	-0.31521764
160	0x3d56fdb0	0.05248803
161	0x3e24968f	0.16073059
162	0x39068ac0	0.00012830924
163	0xbd853ab8	-0.0650534
164	0x3e4efc36	0.20213398
165	0xbd01a985	-0.031655807
166	0xbe735716	-0.2376369
167	0x3d4f94a2	0.050678857
168	0xbe66500b	-0.22491471
169	0xbd6ae39f	-0.057345983
170	0xbe573435	-0.21016009
171	0xbd70607e	-0.058685772
172	0x3d55c500	0.052189827
173	0xbeb6bc2a	-0.35690433
174	0x3e40fdcc	0.18846816
175	0xbe66e59a	-0.22548524
176	0x3edeeeb0	0.4354148
177	0xbdc440d7	-0.0958268
178	0xbcb36a0e	-0.021901157
179	0x3dc2bcc4	0.095086604
180	0xbc83db7c	-0.01609587
181	0x3e0434da	0.12910786
182	0xbc9fbb63	-0.019498533
183	0x3e29be8b	0.16576593
184	0xbeb8a499	-0.36063078
185	0x3e7fa401	0.24964906
186	0xbebba3b4	-0.36648333
187	0xbe5ebb7c	-0.21751207
188	0xbe2d690f	-0.16934608
189	0x3dd51968	0.104052365
190	0x3e8ebe5e	0.27879614
191	0x3e7d7dc3	0.24755006
192	0xbed53477	-0.4164159
193	0xbcde89c8	-0.027165309
194	0xbe2e5467	-0.17024384
195	0xbeee5b6a	-0.46554118
196	0xba1cdfe4	-0.000598429
197	0xbeea5d41	-0.45774272
198	0xbe06597c	-0.13120073
199	0xbe87a8a8	-0.26495862
200	0xbebcbd55	-0.368632
201	0xbe770316	-0.24122271
202	0xbca7a480	-0.020464182
203	0x3dabd8f0	0.08390987
204	0x3e7f0662	0.24904779
205	0xbe8fffa9	-0.2812474
206	0x3eb1bed7	0.34715912
207	0x3e56f07c	0.20990175
208	0xbed7c0e7	-0.4213936
209	0xbe52d1cb	-0.20587842
210	0x3eca64a1	0.395299
211	0x3e6dd5b7	0.23226057
212	0x3e5475ab	0.20748012
213	0x3e8fe357	0.28103134
214	0xbe727e3f	-0.23680972
215	0x3ea46790	0.32110262
216	0xbedc2089	-0.42993572
217	0xbe123e9c	-0.14281696
218	0xbe4b3dc4	-0.1984778
219	0xbdb20e59	-0.08694143
220	0x3ea6a0ac	0.32544458
221	0x3d6ba086	0.057526134
222	0xbe951330	-0.291162
223	0xbe937585	-0.28800598
224	0x3e6407e6	0.22268638
225	0xbeb6f82f	-0.35736224
226	0xbd3aba19	-0.045587633
227	0xbe282cf6	-0.16423401
228	0xbe1db979	-0.15402783
229	0xbedc2b21	-0.43001655
230	0xbe9679d6	-0.29389828
231	0x3b80734f	0.003919996
232	0x3ddf57ca	0.10905416
233	0xbe1a8997	-0.15091549
234	0x3eace4c1	0.33768275
235	0xbe5d7a94	-0.21628791
236	0x3ea6a5bd	0.32548323
237	0x3e07f9f7	0.13278948
238	0xbec1a9dc	-0.37824905
239	0x3cd7675d	0.026294405
240	0x3e91dbc9	0.28487995
241	0x3ec3ce6b	0.38243422
242	0x3e404308	0.1877557
243	0x3e66be3e	0.22533509
244	0xbe3441eb	-0.1760327
245	0x3ee95f02	0.45580298
246	0xbdd11e14	-0.10210815
247	0xbedb6a55	-0.42854562
248	0xbe80ec09	-0.2518008
249	0xbe6bcbe9	-0.23027004
250	0x3ec5f362	0.3866225
251	0x3eb00693	0.34380016
252	0xbea1ffbc	-0.31640422
253	0xbe8e9c47	-0.27853605
254	0x3e97303e	0.29528993
255	0xbdf3aa59	-0.118977256

recurs2.weight_hh f4 [120, 30]
0	0x3ca40bdd	0.020025188
1	0x3e7b3633	0.24532394
2	0x3ebfd3d3	0.37466297
3	0x3c661d99	0.014045143
4	0x3e5096e2	0.20370057
5	0x3d39d95f	0.045373317
6	0x3ea955fc	0.33073413
7	0xbe43a5bc	-0.19106191
8	0xbd8794fa	-0.06620212
9	0xbe1f2312	-0.15540722
10	0xbe4f8757	-0.20266472
11	0xbcf7a62d	-0.030230606
12	0xbe672ff8	-0.22576892
13	0x3d5f85a4	0.05457081
14	0x3e2c83ba	0.16847125
15	0x3e2aae84	0.16668135
16	0x3e67952b	0.22615497
17	0x3c1182d6	0.008881291
18	0xbe88b512	-0.26700646
19	0xbe7f609b	-0.24939196
20	0x3e2c0aba	0.16800967
21	0x3e256a77	0.16153894
22	0x3b12d432	0.002240431
23	0xbd697cf4	-0.05700393
24	0xbca965a6	-0.020678353
25	0xbe10e4c0	-0.14149761
26	0xbe0dc207	-0.13843547
27	0xbd1dc9a8	-0.038522393
28	0xbd642e81	-0.055708412
29	0x3e90fabd	0.28316298
30	0xbe10b478	-0.14131343
31	0xbdc2444b	-0.09485682
32	0xbdf4be82	-0.11950399
33	0x3db3c5a5	0.08777932
34	0x3d4559b5	0.048181254
35	0x3d11cfe8	0.035598665
36	0x3e1c551b	0.1526684
37	0xbe2a5243	-0.16632943
38	0xbe4aefe3	-0.19818072
39	0xbddc9927	-0.10771399
40	0xbe8fd6d4	-0.28093588
41	0xbc3c21e3	-0.011482689
42	0xbdce163e	-0.10062836
43	0x3d883e80	0.06652546
44	0x3e8eb43f	0.27871892
45	0x3e318b68	0.17338336
46	0x3e2c9402	0.16853335
47	0xbd76f216	-0.060289465
48	0xbe76ef77	-0.24114786
49	0x3dbf74c2	0.09348442
50	0x3e91b656	0.28459424
51	0x3bc6f692	0.006071874
52	0xbe1ad493	-0.15120153
53	0xbe9652ba	-0.2935999
54	0x3c203be2	0.009779902
55	0xbe4612c9	-0.19343103
56	0xbe0edeb7	-0.13952146
57	0x3dca64d7	0.09882515
58	0xbd8ae141	-0.06781245
59	0x3e1334c1	0.14375593
60	0xbe88b0ce	-0.2669739
61	0xbdb92b7d	-0.09041498
62	0x3e47a31a	0.19495812
63	0xbd2a803c	-0.0416262
64	0x3e8bf685	0.27336517
65	0xbe13184b	-0.14364736
66	0x3e39247b	0.18080322
67	0xbe005fff	-0.1253662
68	0xbe27dc90	-0.16392732
69	0xbec8b9dc	-0.392043
70	0x3d84eac8	0.064900935
71	0x3bb64dd0	0.005563475
72	0xbc811a4d	-0.015759612
73	0x3e2a2ec9	0.1661941
74	0x3e86198a	0.2619136
75	0x3d12a532	0.035802074
76	0x3d231bab	0.039821308
77	0x3d302b24	0.043009892
78	0xbd32a015	-0.043609697
79	0x3e0ecd7f	0.13945578
80	0x3e4f53d7	0.20246826
81	0x3dcb391b	0.099230014
82	0xbe8c7601	-0.2743378
83	0xbda8fa50	-0.08250868
84	0xbd9c1a5b	-0.076222144
85	0xbec3ef3c	-0.3826846
86	0x3d15d7b8	0.03658268
87	0x3df472b6	0.11935942
88	0xbe57c042	-0.21069434
89	0x3e7b27ee	0.2452695
90	0xbe3def97	-0.18548428
91	0xbd4a1ce7	-0.04934397
92	0x3e29d2d3	0.1658433
93	0x3dbe5343	0.09293225
94	0x3d5f6a6e	0.05454486
95	0xbd775895	-0.060387213
96	0x3de84df4	0.113429934
97	0xbea25712	-0.31707054
98	0xbe3eb16a	-0.18622366
99	0xbe55cae1	-0.20878173
100	0xbe35581c	-0.17709392
101	0xbc4fb895	-0.012678285
102	0xbe3532fc	-0.1769523
103	0x3d9ad927	0.0756095
104	0x3e1e7630	0.15474772
105	0x3ac4141c	0.0014959606
106	0x3d99dabb	0.07512423
107	0x3e5a1c5f	0.21299885
108	0xbdbef11e	-0.09323333
109	0x3d7014df	0.058613654
110	0x3c26a6c2	0.010171594
111	0x3da4de65	0.08050231
112	0xbe93307a	-0.28747922
113	0xbe766f6a	-0.24065939
114	0x3e09f23f	0.13471316
115	0xbe6725dd	-0.22573037
116	0x3daa0228	0.083011925
117	0x3ea0363a	0.31291372
118	0x3d6601c7	0.05615404
119	0x3d8151bf	0.0631442
120	0x3d7faf11	0.062422816
121	0x3e8e8560	0.27836132
122	0x3d3f6c9a	0.04673443
123	0x3dfa0972	0.12208833
124	0x3e5e4634	0.21706468
125	0x3e1dffad	0.15429564
126	0x3eb7a829	0.35870484
127	0xbe58431f	-0.21119355
128	0xbd3c7e6a	-0.046018995
129	0x3bea2451	0.0071454425
130	0xbe927422	-0.28604227
131	0xbda1c387	-0.07898622
132	0xbcc3aa0a	-0.023884792
133	0x3e36fe09	0.17870344
134	0x3eb86298	0.3601272
135	0x3d5fefb5	0.05467196
136	0x3e46300d	0.19354267
137	0xbe316a1a	-0.17325631
138	0xbe833cf4	-0.2563244
139	0xbd9ae666	-0.07563476
140	0x3d37e3e5	0.04489507
141	0x3e2b4d6a	0.1672875
142	0xbd99b268	-0.075047314
143	0x3dca1c3e	0.09868668
144	0xbdb2357a	-0.08701606
145	0xbda3f747	-0.08006149
146	0xbd942bcf	-0.07234918
147	0x3e59ea7c	0.21280855
148	0x3c4fc16d	0.012680394
149	0x3e9b0724	0.30278885
150	0xbe9d5389	-0.30727795
151	0xbddd2f24	-0.10800007
152	0x3e140f13	0.14458875
153	0x3df3cb57	0.11904018
154	0x3dd4162a	0.1035579
155	0x3deab8f6	0.1146106
156	0x3e915b55	0.28389993
157	0xbe98985e	-0.29803747
158	0xbde89339	-0.113562055
159	0xbd2f7c6d	-0.04284327
160	0xbe08cd30	-0.13359523
161	0x3e50f4ba	0.20405856
162	0xbd9fa4d1	-0.07795108
163	0xbc25adaf	-0.01011221
164	0x3c7831c4	0.015148584
165	0xbdb7907b	-0.08963104
166	0x3e054f13	0.13018446
167	0x3e27cb7a	0.16386214
168	0xbd60bb28	-0.054865986
169	0x3e02574b	0.12728612
170	0x3df527f9	0.11970515
171	0xbbaa0ecf	-0.0051897536
172	0xbe9627d9	-0.29327276
173	0xbe7e12a3	-0.24811797
174	0xbc7a98fc	-0.015295263
175	0xbd2bf3b5	-0.041980464
176	0xbd0fd8b1	-0.035118762
177	0x3e0490d5	0.12945874
178	0xbd1802fb	-0.037112217
179	0x3e86119e	0.26185316
180	0x3cb7ec23	0.022451466
181	0x3e968694	0.2939955
182	0x3d377b31	0.04479522
183	0xbd8c63ec	-0.06854996
184	0x3be9e312	0.0071376646
185	0x3e4f21e8	0.20227778
186	0x3de6c61c	0.11268255
187	0x3dc056b0	0.09391534
188	0x3e44536c	0.19172448
189	0xbdb19289	-0.086705275
190	0xbe164074	-0.14673024
191	0x3d81c7d1	0.0633694
192	0xbe96a0c0	-0.29419518
193	0x3d99d2d4	0.075109154
194	0x3dbb1e0b	0.091365896
195	0x3e6255d0	0.22103047
196	0x3e4a2b2c	0.19743031
197	0x3d629eb8	0.055327147
198	0xbd05b805	-0.032646198
199	0xbe15ced2	-0.14629677
200	0x3db9e2e7	0.09076481
201	0x3eb02763	0.3440505
202	0x3dafb69b	0.08579751
203	0xbc8364e3	-0.016039317
204	0xbd95f3ac	-0.07321867
205	0x3dcae5fa	0.09907146
206	0xbe491495	-0.19636758
207	0xbe64818a	-0.2231504
208	0x3d0cb506	0.034352325
209	0x3e847f67	0.2587845
210	0xbd294d2e	-0.04133337
211	0x3df41b84	0.11919311
212	0x3e7661f5	0.24060805
213	0x3df86b76	0.121298715
214	0x3e8d9051	0.27649167
215	0xba0d421a	-0.0005388573
216	0x3eb3e0da	0.35132486
217	0xbd777a93	-0.06041963
218	0x3db877e1	0.0900724
219	0xbdb32763	-0.08747747
220	0xbebb973b	-0.36638817
221	0x3e0123e7	0.12611352
222	0xbe82652f	-0.25467822
223	0xbd8a7379	-0.06760306
224	0x3ebb1a2a	0.365434
225	0x3e093441	0.1339884
226	0xbcfc355c	-0.030787162
227	0xbe177c29	-0.14793457
228	0x3c954de7	0.018225623
229	0xbe7f3be4	-0.2492519
230	0x3e852e95	0.26012102
231	0x3e5cf84c	0.21579093
232	0xbdded72c	-0.108808845
233	0x3ce18109	0.02752735
234	0xbe339141	-0.17535879
235	0xbe18c84f	-0.14920162
236	0xbe158f89	-0.14605536
237	0x3ded5e46	0.11590247
238	0xbd1e922f	-0.03871363
239	0x3da6e02a	0.08148225
240	0xbda26420	-0.079292536
241	0x3ea1628d	0.315205
242	0x3d9a7db0	0.07543504
243	0x3e8cdefa	0.27513868
244	0x3e5fedf5	0.21868117
245	0x3da63f17	0.08117502
246	0x3e2239d0	0.15842366
247	0x3d95c213	0.07312407
248	0xbd1e0a8c	-0.038584277
249	0xbe1d3232	-0.15351179
250	0xbe2d624d	-0.1693203
251	0x3c5c7022	0.013454469
252	0xbea1189e	-0.31464094
253	0xbd3b29c9	-0.045694146
254	0x3ec9e6d3	0.39433917
255	0x3e5e293c	0.21695417

recurs2.bias_ih f4 [120]
0	0x3ef47edc	0.47753036
1	0x3ee78fcc	0.45226896
2	0x3e26f1f3	0.16303234
3	0x3e99c768	0.30034947
4	0x3e4808e9	0.19534649
5	0x3e4c69a1	0.19962169
6	0x3e691565	0.22762068
7	0x3eefcbb3	0.46835098
8	0x3e93aa62	0.2884093
9	0x3e855f7a	0.26049405
10	0x3df8031e	0.121099696
11	0x3e72addc	0.23699135
12	0x3ea06b26	0.31331748
13	0x3e51765c	0.20455307
14	0x3e7d8830	0.24758983
15	0x3e9414d4	0.2892214
16	0x3ec2dcb9	0.38059023
17	0x3e7fc292	0.24976566
18	0x3e8f8a83	0.28035364
19	0x3ecf8558	0.4053142
20	0x3e42dea2	0.1903024
21	0x3ee92421	0.45535377
22	0x3edfc503	0.43704996
23	0x3e456478	0.19276607
24	0x3ea79de2	0.32737643
25	0x3e720436	0.23634419
26	0x3eea0776	0.45708817
27	0x3e81f19b	0.25379643
28	0x3e8c2735	0.27373663
29	0x3ecc4e41	0.39903453
30	0x3dde5f48	0.10858017
31	0x3e50b65e	0.20382068
32	0x3bf3471b	0.007424248
33	0xbd8d6c60	-0.069054365
34	0x3dd1a50b	0.102365576
35	0x3e76eec2	0.24114516
36	0x3e39fc69	0.18162693
37	0x3bc997a9	0.0061521125
38	0x3e739a5d	0.23789354
39	0xbd835ac6	-0.06413798
40	0x3e76f9d6	0.24118742
41	0x3d97050b	0.07374009
42	0xbd16b217	-0.036790933
43	0x3d6778d2	0.056511708
44	0x3e5bdb39	0.21470346
45	0x3e51bdfc	0.2048263
46	0x3c0a4743	0.008439842
47	0x3e05953d	0.13045211
48	0x3e1b6538	0.1517533
49	0x3da99fe1	0.082824476
50	0x3d9155cc	0.070964426
51	0x3e828c8f	0.25497863
52	0xbaf0b7f7	-0.0018365373
53	0x3e284a73	0.1643465
54	0xbd96b564	-0.07358816
55	0x3c550b0c	0.013003122
56	0x3dae7c45	0.08519796
57	0xbb982842	-0.004643471
58	0xbd97077b	-0.07374474
59	0x3d253b18	0.04033956
60	0xbd8309ba	-0.063983396
61	0x3e031f2e	0.12804863
62	0x3ddbe189	0.10736377
63	0xbde2d432	-0.11075629
64	0x3e14a64c	0.14516562
65	0x3dc34329	0.09534294
66	0x3e3e3511	0.1857493
67	0xbdc5c098	-0.09655875
68	0xbded3a30	-0.11583364
69	0xbde1e93f	-0.11030816
70	0x3ce2f6e3	0.027705615
71	0x3da10ca5	0.0786374
72	0xbe351b85	-0.17686279
73	0x3e2a3f1a	0.16625634
74	0x3e93aac2	0.28841215
75	0xbc4f736f	-0.012661799
76	0x3d11a57c	0.03555821
77	0x3d31dd2f	0.043423828
78	0xbdd6de43	-0.10491612
79	0xbe4341c5	-0.19068058
80	0x3e45760a	0.1928331
81	0x3e1f8033	0.15576248
82	0xbcd052f4	-0.02543018
83	0xbe79bf59	-0.243894
84	0xbbb49764	-0.005511211
85	0xbe503d68	-0.20335925
86	0x3dcdbf8d	0.10046301
87	0x3e7b92ff	0.24567793
88	0x3e25ef4f	0.1620457
89	0x3e1c9a9f	0.15293358
90	0x3eae1abc	0.34004772
91	0x3ef3e21a	0.4763344
92	0x3e7b24f0	0.2452581
93	0x3ea9ca9d	0.33162394
94	0x3de019da	0.10942431
95	0x3ebe7865	0.3720123
96	0x3eacb8f6	0.33734864
97	0x3eb3fb8a	0.35152847
98	0x3eb3b0df	0.3509588
99	0x3e823810	0.25433397
100	0x3e01ca03	0.12674718
101	0x3e887e40	0.2665882
102	0x3e0ab29f	0.13544701
103	0x3ede28f7	0.4339063
104	0x3e605c38	0.21910179
105	0x3e21d2f3	0.15803127
106	0x3ebc51d0	0.36781168
107	0x3e3c8c84	0.18412977
108	0x3e821f88	0.2541468
109	0x3ed25055	0.41076913
110	0x3eb5dfbf	0.35522267
111	0x3ed985a7	0.4248478
112	0x3e9bd583	0.30436334
113	0x3e7e0515	0.24806626
114	0x3e975528	0.29557157
115	0x3dae3ab9	0.08507294
116	0x3e81afe8	0.25329518
117	0x3ecc5062	0.39905077
118	0x3ecd09fe	0.40046686
119	0x3dd32938	0.10310596

recurs2.bias_hh f4 [120]
0	0x3eb9bbe0	0.3627615
1	0x3ef3d777	0.47625324
2	0x3e0e4469	0.13893284
3	0x3e9db330	0.30800772
4	0x3e5fcc55	0.2185529
5	0x3e958cac	0.29208887
6	0x3e2b297a	0.16715041
7	0x3eed9965	0.46406093
8	0x3ec8d5fa	0.3922575
9	0x3d3c01fe	0.045900337
10	0x3e131ec4	0.14367205
11	0x3e357ac6	0.17722616
12	0x3e8948a8	0.26813245
13	0x3ead173a	0.33806783
14	0x3e2c2a85	0.16813095
15	0x3e36d363	0.17854075
16	0x3e6c0f52	0.23052719
17	0x3e02de90	0.12780213
18	0x3eb32324	0.34987748
19	0x3e0c4f16	0.13702044
20	0x3e672869	0.22574009
21	0x3e3c5d35	0.1839493
22	0x3e5874d0	0.2113831
23	0x3e9a9dad	0.30198422
24	0x3e5d8bbd	0.21635337
25	0x3e26a8ff	0.16275404
26	0x3eab7a12	0.3349157
27	0x3e3cbabb	0.18430607
28	0x3ea30678	0.31840873
29	0x3ea387f5	0.31939664
30	0x3d79802b	0.060913246
31	0xbd9d1a88	-0.07671076
32	0x3cc6a9a8	0.02425082
33	0x3d933b67	0.071890645
34	0x3e013bda	0.12620488
35	0xbd6f9fb5	-0.058501918
36	0x3e2ed631	0.17073895
37	0x3e048735	0.12942202
38	0x3dc6cb9f	0.097068064
39	0x3d7598fb	0.059960347
40	0x3d24faf9	0.04027841
41	0x3e1a3fb0	0.15063357
42	0x3e3c4a1e	0.18387648
43	0xbca9402d	-0.020660484
44	0x3e13059b	0.14357607
45	0x3e48328c	0.19550532
46	0x3e35b9f2	0.17746714
47	0x3dafd9bb	0.08586451
48	0x3e13bfe6	0.14428672
49	0x3e13fa8a	0.14451042
50	0x3e298291	0.16553713
51	0x3ceb1afb	0.028699389
52	0x3d938a85	0.07204155
53	0x3d58290a	0.052773513
54	0xbdbc3190	-0.09189141
55	0x3e025d1d	0.12730832
56	0xbdaaf72d	-0.08347926
57	0x3e222c74	0.1583727
58	0x3cdb577e	0.026775118
59	0x3df3f035	0.1191105
60	0xbdf52816	-0.119705364
61	0x3e0bce5e	0.13652942
62	0x3e0c9b24	0.13731056
63	0x3daaba3a	0.08336301
64	0x3dc9564c	0.09830913
65	0xbdf3d42f	-0.11905705
66	0x3e6d863d	0.23195739
67	0x3d912f87	0.07089143
68	0xbe1281c4	-0.14307314
69	0xbddc9fdb	-0.107726775
70	0xbcf9e8e9	-0.030506568
71	0x3d6d91e7	0.05800047
72	0xbb2b7482	-0.0026161973
73	0x3e230cb5	0.15922816
74	0x3dbd3010	0.09237683
75	0xbce87ef5	-0.02838085
76	0xbab7bb99	-0.00140177
77	0x3df9e516	0.12201898
78	0xbe04c7d1	-0.12966849
79	0x3e00ac10	0.12565637
80	0x3c2887ad	0.010286254
81	0x3ddd3c17	0.10802477
82	0xbe13035e	-0.14356753
83	0xbe1a7bc6	-0.15086278
84	0xbbce5f7c	-0.0062980037
85	0xbdd7272e	-0.1050552
86	0xbda04197	-0.0782501
87	0xbdb000f1	-0.085939296
88	0xbe30517f	-0.17218588
89	0x3e32b297	0.17450939
90	0x3ec72362	0.38894182
91	0x3e73a152	0.23792008
92	0x3ec92860	0.39288616
93	0x3ea03dc5	0.31297126
94	0x3e65eeb7	0.22454344
95	0x3e3d9d79	0.18517102
96	0x3e1d7176	0.15375313
97	0x3eccc3f5	0.39993253
98	0x3ecdcf20	0.40197086
99	0xbdacfdfd	-0.08446882
100	0x3ea4dbaa	0.3219884
101	0x3eb7f2cf	0.35927436
102	0x3e3a0d77	0.18169199
103	0x3e5b5a72	0.21421221
104	0x3db5efcd	0.08883629
105	0x3ebd76ab	0.370046
106	0x3eee18da	0.46503335
107	0x3eb8bfc6	0.36083812
108	0x3e6970a4	0.22796875
109	0x3eb67f3a	0.3564394
110	0x3e0a3c3c	0.1349954
111	0x3e5e93cb	0.21736066
112	0x3ebad8b4	0.36493456
113	0x3ed91426	0.42398185
114	0x3e98e1a2	0.29859644
115	0x3e58628f	0.21131347
116	0x3eabdcd9	0.3356693
117	0x3d9fab7d	0.07796381
118	0x3ed5c027	0.41748163
119	0x3e226224	0.1585775

output.weight f4 [2, 30]
0	0xbe6cfb33	-0.231427
1	0xbdaa165a	-0.083050445
2	0x3dccfd05	0.10009197
3	0xbd5172d6	-0.051134907
4	0x3e5a0bf6	0.21293625
5	0xbdc82b55	-0.0977389
6	0x3e99472b	0.2993711
7	0xbe9bec97	-0.3045394
8	0xbea1e37d	-0.31618872
9	0xbedea6a3	-0.4348651
10	0xbbf7ab1b	-0.007558239
11	0x3e1ba2bf	0.15198801
12	0xbe4cfc6b	-0.20018165
13	0x3dc64055	0.09680239
14	0x3eb81874	0.35956156
15	0x3d750fb2	0.05982942
16	0x3e3e55a0	0.18587351
17	0x3cef0821	0.02917868
18	0xbe6339c8	-0.2219001
19	0x3e03765a	0.12838116
20	0x3e6bef0f	0.23040412
21	0xbbfb536e	-0.0076698577
22	0xbdf41673	-0.11918344
23	0xbd1bc5aa	-0.038030304
24	0x3dc94d62	0.09829213
25	0xbe742fc4	-0.23846346
26	0xbe2ab579	-0.16670789
27	0x3e85bf83	0.26122674
28	0xbd974c73	-0.073876284
29	0x3d6a49b2	0.057199188
30	0x3ee05a78	0.43819022
31	0x3ed0d459	0.40787008
32	0x3eb9ec34	0.3631302
33	0x3ec4ff83	0.3847619
34	0xbe9497f6	-0.29022187
35	0x3ea23773	0.3168293
36	0xbeab3af8	-0.33443427
37	0x3ea9f534	0.33194888
38	0x3eb043cf	0.34426734
39	0x3d2ad152	0.04170353
40	0xbece4049	-0.4028342
41	0xbea179f6	-0.3153836
42	0xbea37c4c	-0.31930768
43	0xbecb6ecf	-0.39732978
44	0x3ea0790b	0.31342348
45	0x3ed978f3	0.4247509
46	0x3eab8acd	0.33504334
47	0xbec98afb	-0.39363846
48	0x3ec8311c	0.39099967
49	0xbecf9a5c	-0.40547454
50	0x3ec20a96	0.378987
51	0x3eab4b17	0.33455727
52	0x3ebbdce6	0.3669197
53	0x3ea91dd8	0.3303058
54	0xbefccb4f	-0.49373862
55	0x3e9c708a	0.3055461
56	0xbeadf0c5	-0.33972755
57	0xbecc76e5	-0.3993446
58	0x3ee1a800	0.44073486
59	0x3eabc570	0.3354907

output.bias f4 [2]
0	0x3e83734a	0.25673896
1	0xbcfc310e	-0.03078511

switch.weight f4 [1, 30]
0	0x3e0905e1	0.13381149
1	0xbd7aacb2	-0.06119985
2	0xbdcd5af6	-0.10027115
3	0xbd6cd032	-0.057815738
4	0xbd4a3875	-0.049370248
5	0x3d9bef13	0.07613959
6	0xbd1faf58	-0.03898558
7	0x3db6ea80	0.08931446
8	0xbe0d6836	-0.13809285
9	0x3cf2dc5a	0.029646087
10	0x3e0d9713	0.13827161
11	0xbcd81e1a	-0.026381541
12	0x3e172da0	0.14763498
13	0x3d4d065e	0.0500549
14	0xbe33e28d	-0.17566891
15	0xbdd90d2b	-0.10598215
16	0x3e13bbae	0.14427063
17	0xbcf1eb34	-0.029531099
18	0x3e373a95	0.17893441
19	0xbe3b0121	-0.1826215
20	0xbdc24712	-0.09486212
21	0x3e0f8bdb	0.14018194
22	0x3e2b1846	0.16708478
23	0xbe23068b	-0.15920465
24	0x3d55c45d	0.05218922
25	0xbe30da6b	-0.1727082
26	0xbe0677e9	-0.1313168
27	0x3da1eb41	0.07906199
28	0xbdaf8c3f	-0.08571672
29	0xbc720408	-0.014771469
