checkpoints/VQE-H2-a73ce937/model.pth (torch, 49793 bytes, 11 tensors)

recurs1.weight_ih f4 [120, 2]
0	0xbe07f689	-0.1327764
1	0x3eaf75eb	0.34269652
2	0xbe4d44c5	-0.20045765
3	0xbb95aa2d	-0.0045674057
4	0xbe1c90f1	-0.15289666
5	0xbd9a1625	-0.07523755
6	0xbd2b251b	-0.041783433
7	0x3eaa7894	0.3329512
8	0xbdcba172	-0.099429026
9	0x3dec3d4b	0.11535128
10	0xbe3188d8	-0.17337358
11	0x3e2c4eb5	0.168269
12	0xbe91f17d	-0.28504553
13	0x3d961f5a	0.073301986
14	0xbe103234	-0.14081651
15	0x3e3d06a8	0.1845957
16	0xbd172327	-0.03689876
17	0x3e9d6939	0.3074434
18	0xbe347fc4	-0.17626864
19	0xbe045aff	-0.12925337
20	0x3c9a3be2	0.018827382
21	0x3e5607c5	0.20901401
22	0xbdb6cb52	-0.08925499
23	0x3e72f61c	0.23726696
24	0xbe1c1462	-0.1524215
25	0xbd90263a	-0.07038541
26	0xbc000cc4	-0.007815544
27	0x3dc49059	0.09597845
28	0xbe1151e8	-0.14191401
29	0xbe211851	-0.15731932
30	0xbe3d9eff	-0.18517683
31	0x3e00b38e	0.12568495
32	0xbe43dcdb	-0.19127218
33	0xbdf08bde	-0.117454275
34	0xbe80b50c	-0.25138128
35	0xbe227665	-0.15865476
36	0xbe4600f7	-0.19336306
37	0x3e9145b3	0.2837349
38	0x3cc6909f	0.024238883
39	0x3e79296e	0.2433221
40	0xbd083600	-0.033254623
41	0x3d723450	0.05913192
42	0xbd814944	-0.063128024
43	0xbe220969	-0.15823902
44	0xbe98a514	-0.29813445
45	0xbcc11535	-0.023569683
46	0xbc5c3d61	-0.013442368
47	0xbcff7f95	-0.031188766
48	0xbe1e32d9	-0.15449084
49	0x3e315764	0.17318493
50	0x3ce29d5b	0.027662924
51	0x3ebb7ee9	0.36620262
52	0x3cce2644	0.02516473
53	0x3e2df77a	0.16988936
54	0x3d8a6987	0.06758409
55	0xbdf5281e	-0.11970542
56	0xbc960f59	-0.018317865
57	0x3b9bfc92	0.0047603333
58	0xbe8df68c	-0.27727163
59	0xbcc41d54	-0.023939766
60	0x3d859b06	0.06523709
61	0x3e89ab05	0.2688829
62	0xbdc2b143	-0.09506466
63	0x3e8135c7	0.2523634
64	0x3d1aba65	0.037775416
65	0xbe16cd47	-0.14726745
66	0xbc41c728	-0.011827268
67	0x3e87ba1c	0.26509178
68	0x3e00213a	0.12512675
69	0x3ea0cf66	0.31408232
70	0xbe3c1382	-0.18366817
71	0x3e0354ba	0.1282529
72	0x3df6ea7e	0.120564446
73	0x3e87d7bd	0.26531783
74	0x3e3b7df9	0.18309774
75	0x3ec552a7	0.3853962
76	0xbbaf41c8	-0.005348418
77	0x3d6e6025	0.05819716
78	0xbc1e3919	-0.009657168
79	0xbe12bb89	-0.14329351
80	0xbe5088f5	-0.20364745
81	0x3e876587	0.26444647
82	0x3e3e9a4c	0.18613547
83	0xbd299d65	-0.04140987
84	0xbd52c423	-0.05145658
85	0xbde216a3	-0.11039474
86	0xbd8742f8	-0.0660457
87	0x3e0a6754	0.13515979
88	0x3d03e8e5	0.032204527
89	0xbe5df65b	-0.21676008
90	0x3d148f0c	0.036269233
91	0x3d07afda	0.03312669
92	0x3dc3a03e	0.09552048
93	0x3d6cd430	0.057819545
94	0xbe58032f	-0.21094964
95	0xbdf6b049	-0.120453425
96	0x3da3d237	0.0799908
97	0x3e659258	0.22419107
98	0xbe1feee3	-0.15618472
99	0x3d8f9ee6	0.07012729
100	0x3e297857	0.16549812
101	0x3e8be14a	0.2732032
102	0xbdfbbf21	-0.12292314
103	0xbbc5cea0	-0.0060365945
104	0xbe1762fa	-0.1478385
105	0x3e0aa0d6	0.13537917
106	0xbe517f22	-0.20458654
107	0xbe9e1795	-0.30877367
108	0xbcdf5aea	-0.02726503
109	0x3e775e3e	0.24157044
110	0xbe011ba6	-0.12608203
111	0x3ea6a285	0.32545868
112	0xbde869e9	-0.11348326
113	0x3e9f66a9	0.3113301
114	0x3ddba2e8	0.10724431
115	0xbdf334e4	-0.118753225
116	0xbcd6b092	-0.026207242
117	0x3e38e70c	0.18056887
118	0x3d03e2db	0.032198768
119	0x3e1ee99a	0.155188
120	0xbced44fe	-0.028963562
121	0x3e60affe	0.21942136
122	0xbd7afdb6	-0.061277114
123	0x3e94bc41	0.29049876
124	0xbe35a060	-0.1773696
125	0xbea05ccc	-0.31320798
126	0xbe10c523	-0.14137702
127	0xbcc92600	-0.024554253
128	0xbd4b82a9	-0.049685154
129	0xbeb8cb6f	-0.36092708
130	0xbdd196a4	-0.102338105
131	0x3e801281	0.25014117
132	0xbd7c5f6f	-0.06161445
133	0xbe8890e4	-0.26673043
134	0x3e241af4	0.16025907
135	0xbe7017b4	-0.23446542
136	0x3d8ea8bb	0.069657765
137	0xbe6fa9b9	-0.23404588
138	0x3d7dca6d	0.061960626
139	0x3ea6db38	0.32589126
140	0x3e160fd6	0.14654478
141	0x3e95fec3	0.2929593
142	0x3e113364	0.1417976
143	0x3e776005	0.24157722
144	0xbe4391f7	-0.1909865
145	0xbe7474f9	-0.23872747
146	0x3e5fd665	0.21859129
147	0xbe6ade93	-0.22936468
148	0xbe0703cf	-0.13185047
149	0xbe64b861	-0.2233596
150	0xbe3ad6db	-0.18246023
151	0xbeb1d66a	-0.34733897
152	0xbc59253a	-0.013253504
153	0x3e8cbd3a	0.27488118
154	0x3d5a306d	0.05326884
155	0xbea9e709	-0.33184078
156	0x3dc5b303	0.096532844
157	0xbeb74581	-0.35795215
158	0xbc89370a	-0.016749877
159	0xbe88ef05	-0.26744857
160	0x3aa5ed94	0.0012659305
161	0xbe4582eb	-0.19288222
162	0xbe3456f1	-0.1761129
163	0xbec21158	-0.37903857
164	0xbd8b7bd1	-0.068107255
165	0x3e728468	0.23683321
166	0xbdbb8f25	-0.09158162
167	0x3ea312cf	0.31850287
168	0xbe74939c	-0.23884434
169	0x3e052eca	0.1300613
170	0x3e5c90f9	0.21539678
171	0xbe84d9a2	-0.2594729
172	0x3e1025b5	0.14076884
173	0x3e5c19c1	0.214942
174	0xbe0dd72d	-0.13851614
175	0x3e9b9ef9	0.30394724
176	0xbb718f6d	-0.003685917
177	0xbe94745f	-0.28995034
178	0x3e115a41	0.14194585
179	0xbebd2bfd	-0.36947623
180	0xbdb4c36d	-0.08826337
181	0x3e30f169	0.1727959
182	0x3ddf4e9e	0.10903667
183	0x3e7a8f7b	0.24468796
184	0x3af499cc	0.0018661558
185	0xbdb9870d	-0.09058962
186	0xbdc0a844	-0.09407094
187	0x3e287576	0.16451058
188	0xbe6a8382	-0.22901729
189	0x3e504237	0.20337759
190	0x3d856da5	0.06515054
191	0x3ec312cb	0.38100275
192	0xbe61becb	-0.22045438
193	0x3e442bf7	0.19157396
194	0xbe3a35e1	-0.18184616
195	0x3dfb51be	0.122714505
196	0xbe2ef76a	-0.17086568
197	0x3ea2d158	0.31800342
198	0xbe2c33ec	-0.16816682
199	0xbda8d902	-0.08244516
200	0xbcc20039	-0.023681747
201	0x3e6bde55	0.23034032
202	0xbe354b4b	-0.17704503
203	0x3d6b75c9	0.057485376
204	0xbe5d02c3	-0.21583085
205	0xbbd01d9c	-0.006351186
206	0xbe181b51	-0.1485417
207	0x3ece429d	0.40285197
208	0x3cef51b7	0.02921377
209	0xbdbb9cf7	-0.09160798
210	0xbdbbf09c	-0.09176752
211	0xbdc1e9aa	-0.09468396
212	0xbcf51b83	-0.029920345
213	0xbd9a2f5b	-0.075285636
214	0xbdeae00e	-0.11468516
215	0x3caae5b7	0.02086149
216	0xbe4fbcd6	-0.20286879
217	0x3dbcda75	0.09221355
218	0x3da0020e	0.07812892
219	0x3cfb7c8f	0.030699043
220	0xbd06c100	-0.032898903
221	0x3eb38bc6	0.35067576
222	0x3be38e35	0.0069444426
223	0x3e16ec2a	0.14738527
224	0xbe8ac2c4	-0.2710172
225	0x3e7f8225	0.2495199
226	0xbe79d934	-0.24399263
227	0xbe808d66	-0.25107878
228	0xbde227ce	-0.110427484
229	0x3e3d8ee3	0.18511538
230	0xbd273ac3	-0.040827524
231	0x3ec334f7	0.38126346
232	0xba530850	-0.000805025
233	0x3ea7601e	0.3269052
234	0x3d974fcb	0.07388266
235	0xbda9b6b5	-0.08286802
236	0x3d56b4ea	0.052418627
237	0x3d616cf8	0.05503556
238	0xbe45cff3	-0.19317608
239	0x3e0a7587	0.13521396

recurs1.weight_hh f4 [120, 30]
0	0x3e022d56	0.12712607
1	0x3e29eb02	0.16593555
2	0xbd0a681c	-0.033790693
3	0x3d3f075a	0.04663787
4	0x3cd5bb87	0.026090397
5	0xbe00a45b	-0.12562697
6	0x3dd7f838	0.10545391
7	0xbe60b401	-0.21943666
8	0xbd46ea1c	-0.048563108
9	0xbda17f90	-0.07885659
10	0xbd9e8c20	-0.077415705
11	0x3cdcab0e	0.026937034
12	0x3d20e705	0.039282817
13	0xbe0383dd	-0.1284327
14	0xbc9dd1c8	-0.01926507
15	0xbe40bebf	-0.18822764
16	0xbe1c6df3	-0.15276317
17	0xbddad7e8	-0.10685712
18	0xbe301fe7	-0.1719967
19	0xbe441916	-0.19150195
20	0xbe4a35b5	-0.1974705
21	0x3dd8c3a7	0.10584193
22	0x3debd0fc	0.1151447
23	0x3e1908b4	0.14944726
24	0x3e07defa	0.13268653
25	0xbe133f05	-0.14379509
26	0x3d4147c1	0.04718757
27	0x3d37cb53	0.04487164
28	0x3de70f40	0.112822056
29	0xbd034b44	-0.0320542
30	0xbd0d03d6	-0.034427486
31	0xbd3d9a50	-0.046289742
32	0xbe2bd118	-0.16778982
33	0x3dc0b949	0.0941034
34	0xbe0ddd99	-0.13854064
35	0xbdcce945	-0.1000543
36	0x3e0ccb02	0.13749316
37	0xbe2f7458	-0.17134225
38	0xbda03e78	-0.07824415
39	0x3cf4126d	0.029793942
40	0x3d39bc9d	0.04534589
41	0xbdc49f71	-0.096007235
42	0xbe58bd6f	-0.21166013
43	0x3daecf1c	0.08535597
44	0x3d9351fd	0.071933724
45	0x3e13669f	0.14394616
46	0xbd4997d8	-0.049217075
47	0xbb4997eb	-0.0030760716
48	0xbdca013b	-0.09863516
49	0xbd500f8e	-0.050796084
50	0xbe2fe1ba	-0.17175952
51	0x3d158565	0.036504168
52	0x3da649b9	0.0811953
53	0xbcadfd17	-0.021238847
54	0x3c7ea53a	0.015542323
55	0xbe3515fe	-0.1768417
56	0x3e38f955	0.18063863
57	0xbde11cae	-0.10991798
58	0x3d13dcfa	0.03609941
59	0xbdc9fbad	-0.098624565
60	0xbddbaafe	-0.107259735
61	0xbd9ea743	-0.077467464
62	0x3c1f7f2d	0.009734911
63	0x3d35dbb1	0.044398967
64	0x3e1610e3	0.1465488
65	0xbe2ea93e	-0.17056748
66	0x3e163589	0.1466886
67	0x3df33380	0.11875057
68	0x3de3cba6	0.11122827
69	0xbe07dd70	-0.13268065
70	0xbe849929	-0.25898102
71	0xbe0f1f19	-0.13976707
72	0x3e02d125	0.12775095
73	0xbd81c1e8	-0.06335813
74	0x3e42d4fe	0.19026563
75	0x3e61f1f0	0.22064948
76	0xbe4792c4	-0.1948958
77	0x3db608d4	0.088884026
78	0x3df11cc6	0.11773066
79	0x3d95bfba	0.073119596
80	0x3c5b9773	0.0134028075
81	0x3e14b518	0.14522207
82	0xbe755de2	-0.23961595
83	0xbdbc6a6a	-0.09199984
84	0x3e07b671	0.1325319
85	0x3e425148	0.18976319
86	0x3d72574c	0.059165284
87	0xbdb07bb8	-0.086173475
88	0x3e3ba9b7	0.1832646
89	0x3c3f9eb0	0.011695549
90	0xbda9f120	-0.08297944
91	0xbdb8c6b7	-0.09022277
92	0x3e28c560	0.16481543
93	0x3e2c5d64	0.168325
94	0xbe6f5928	-0.23373854
95	0x3e09c76f	0.13454984
96	0x3da5b636	0.080913946
97	0x3daa0860	0.08302379
98	0x3dce5bf7	0.10076135
99	0x3e1cf10d	0.15326329
100	0x3c90911a	0.017647315
101	0xbc3e2f92	-0.011608021
102	0x3d4307a0	0.047614694
103	0x3c9c2b19	0.01906352
104	0xbda677ba	-0.08128305
105	0x3dd369a3	0.10322883
106	0x3e080f80	0.13287163
107	0xbd5c2b6f	-0.05375236
108	0xbe498b38	-0.19682014
109	0xbc9001ad	-0.017578924
110	0xbe176630	-0.14785075
111	0x3dd15ec8	0.10223156
112	0x3d0c2a72	0.034220167
113	0x3dd2a5d4	0.102855355
114	0x3dc81dc3	0.097713016
115	0xbb263e06	-0.0025366559
116	0x3cd0bc3e	0.025480386
117	0x3e0c7c5e	0.13719317
118	0xbe434ca8	-0.19072211
119	0xbd88ba8f	-0.06676208
120	0xbd3040a8	-0.04303041
121	0xbdf5f789	-0.12010104
122	0xbe2afba5	-0.16697557
123	0x3e66960b	0.22518174
124	0x3d83df41	0.06439067
125	0x3e86bee4	0.26317513
126	0x3dc161f5	0.09442512
127	0xbe69698b	-0.22794168
128	0xbe5d0340	-0.21583271
129	0xbcec2070	-0.028824061
130	0xbd945d80	-0.07244396
131	0x3e2f8c3f	0.17143343
132	0xbdd587ad	-0.10426269
133	0xbe359934	-0.17734224
134	0xbe28eb46	-0.16496
135	0xbd9d8f6a	-0.0769337
136	0x3e156b52	0.1459172
137	0x3e0f6be2	0.14005998
138	0x3d50d5ad	0.050985027
139	0x3d9fb3b7	0.0779795
140	0x3da38fe7	0.079864316
141	0xbdd799ad	-0.10527358
142	0x3ded2635	0.11579553
143	0x3e04b754	0.12960559
144	0x3e114676	0.14187035
145	0x3dbbb84a	0.0916601
146	0x3e2b78fd	0.16745372
147	0x3e1fd7ba	0.15609637
148	0xbe0aa49a	-0.13539353
149	0x3d3b592e	0.045739345
150	0x3e060ce0	0.13090849
151	0x3d011bf2	0.03152079
152	0xbe0d449b	-0.13795702
153	0xbbfa5052	-0.0076389695
154	0xbe800bd4	-0.25009024
155	0x3e50e79e	0.20400855
156	0x3dc1537a	0.0943975
157	0xbe298b07	-0.16556941
158	0xbe4867ea	-0.1957089
159	0x3e4315c5	0.19051273
160	0x3e434eb4	0.19072992
161	0x3d8d66ec	0.069043964
162	0xbe181ca8	-0.14854681
163	0x3d49f617	0.049306955
164	0x3e23bd08	0.15990078
165	0xbe6ef550	-0.23335767
166	0x3e832c39	0.25619677
167	0xbaff8910	-0.0019495804
168	0xbe5b719e	-0.2143006
169	0x3bb7665c	0.005596919
170	0xbe69a125	-0.22815378
171	0xbd9f7957	-0.077868156
172	0x3e60c14f	0.21948741
173	0x3d7b490b	0.061348956
174	0xbcad8b59	-0.02118461
175	0xbe3904a2	-0.18068174
176	0x3da84606	0.08216481
177	0x3d284394	0.041080073
178	0xbd703d3f	-0.05865216
179	0x3d269475	0.040668923
180	0x3ddb032e	0.10693966
181	0xbd911f90	-0.07086098
182	0x3ba7a16b	0.005115678
183	0x3e2f9834	0.17147905
184	0x3bc1da06	0.005915883
185	0xbd9a01b8	-0.07519859
186	0xbda1c618	-0.078991115
187	0xbe6b2234	-0.22962266
188	0xbe236d34	-0.15959626
189	0x3d4cc797	0.04999503
190	0xbd86b9c7	-0.06578403
191	0x3ddba6ff	0.10725211
192	0x3d9a4e6e	0.075344905
193	0xbdc5d078	-0.09658903
194	0xbd91245f	-0.07087015
195	0xbe22ae15	-0.1588672
196	0x3de370ed	0.11105523
197	0xbe942474	-0.28934062
198	0xbcca2af8	-0.024678692
199	0xbe785e28	-0.24254668
200	0xbe97e54b	-0.29667124
201	0xbe609410	-0.21931481
202	0x3c379ef5	0.011207332
203	0x3e09fe5c	0.13475937
204	0xbdb250cd	-0.08706818
205	0x3d3c737f	0.046008583
206	0x3d40ed23	0.04710115
207	0x3dc302bf	0.09522008
208	0xbd72111e	-0.059098355
209	0xbe8c891d	-0.2744836
210	0x3e5926a0	0.2120614
211	0x3e3071a4	0.1723085
212	0x3df2cd99	0.11855621
213	0x3e20c1f3	0.15698986
214	0xbe4b4307	-0.19849788
215	0x3e709341	0.23493673
216	0xbd882ccb	-0.066491686
217	0x3cb98a41	0.022648932
218	0xbe661066	-0.22467193
219	0xbc852c3e	-0.016256448
220	0xbdca3d88	-0.098750174
221	0xbb3ebe38	-0.0029105078
222	0xbc6232d1	-0.013806061
223	0xbe5a74fb	-0.21333687
224	0x3d9801e8	0.074222386
225	0x3bcc0da8	0.006227214
226	0x3dca8b3e	0.098898396
227	0xbe6eae4b	-0.23308675
228	0xbe5cefe2	-0.21575883
229	0xbddebb25	-0.10875539
230	0x3c8d1b2e	0.017224874
231	0x3dc46b32	0.095907584
232	0x3e352268	0.17688906
233	0x3d3d436b	0.046206873
234	0x3e0156b2	0.12630728
235	0xbe83001c	-0.2558602
236	0xbdb2a927	-0.087236695
237	0x3e233f8a	0.15942207
238	0xbe3cd7e4	-0.1844173
239	0xbb1d0a15	-0.0023962308
240	0xbccc2a39	-0.024922477
241	0x3aa0690a	0.0012238335
242	0xbe69f7f3	-0.22848491
243	0x3e4431ac	0.19159573
244	0xbdfee40f	-0.124458425
245	0x3e8abb38	0.27095962
246	0x3c46481a	0.012102151
247	0xbc4ea070	-0.0126114935
248	0xbdefd56d	-0.117106296
249	0x3cf52c8e	0.029928472
250	0x3d4ea542	0.05045057
251	0x3de88a62	0.113545194
252	0x3c69a8b6	0.014261415
253	0xbe7657ce	-0.24056932
254	0x3e456453	0.19276552
255	0xbe028dbd	-0.12749381

recurs1.bias_ih f4 [120]
0	0xbcd69515	-0.026194135
1	0xbd8db29d	-0.069188334
2	0x3d9d14be	0.07669972
3	0x3e4b7c4e	0.19871637
4	0x3e422b66	0.18961868
5	0x3e1e564d	0.15462609
6	0x3ddfd5c6	0.10929446
7	0x3e754863	0.23953395
8	0x3dd7d320	0.10538316
9	0x3e1d0265	0.15332945
10	0x3da1064b	0.078625284
11	0x3e0454fc	0.12923044
12	0x3e422530	0.18959498
13	0x3ea3f7c3	0.32024965
14	0x3e2ad829	0.16684021
15	0x3e2dcb8f	0.16972183
16	0x3e3e6ed8	0.18596971
17	0x3d9b583e	0.0758519
18	0x3e6c3eb2	0.23070791
19	0x3e05dd04	0.13072592
20	0x3e461fe4	0.19348103
21	0x3de929b5	0.11384908
22	0x3d069b42	0.03286291
23	0x3e3f8a89	0.1870519
24	0x3e29fc27	0.16600095
25	0x3e6e6fc5	0.23284824
26	0x3e06209a	0.13098374
27	0x3e1e5c64	0.15464932
28	0x3e78c1ba	0.24292651
29	0x3df8e311	0.121526845
30	0x3e425462	0.18977502
31	0x3dd8a737	0.10578769
32	0x3e491ef2	0.19640711
33	0x3e32da3f	0.17466067
34	0xbde74abb	-0.112935506
35	0x3e110c56	0.14164862
36	0x3df054af	0.11734902
37	0xbe017f2d	-0.1264617
38	0x3cadde1f	0.02122408
39	0xbd8b8486	-0.06812386
40	0xba46fe9a	-0.0007591039
41	0xbb3d274d	-0.0028862536
42	0x3e4c3907	0.19943629
43	0xbcc82e67	-0.024436189
44	0xbdd2af7f	-0.102873795
45	0x3e1f8bd8	0.1558069
46	0x3e23ccfa	0.15996161
47	0x3cc8c004	0.024505623
48	0x3e371310	0.17878366
49	0x3e39747a	0.18110839
50	0xbcd275bb	-0.025690904
51	0x3d1d7de4	0.038450137
52	0x3c508861	0.012727828
53	0x3d525cc9	0.051358018
54	0x3ca027c1	0.019550206
55	0xbd05c97c	-0.032662854
56	0xbdaa8720	-0.08326554
57	0x3dfbc7f9	0.12294001
58	0xbd38cb1e	-0.045115583
59	0xbd605d8e	-0.05477672
60	0x3e92d10d	0.28675118
61	0x3bd7dff6	0.0065879775
62	0x3e1304d2	0.14357308
63	0x3e91330a	0.28359252
64	0xbd0ac342	-0.03387762
65	0x3dc51154	0.09622446
66	0x3de0f609	0.109844275
67	0xbe227f79	-0.1586894
68	0xbe1155d0	-0.14192891
69	0xbb50642a	-0.0031797984
70	0x3b4d99c0	0.003137216
71	0x3d969f6f	0.07354628
72	0x3de5f274	0.11227885
73	0xbe38afe5	-0.18035848
74	0x3dadd6f3	0.08488264
75	0x3e311454	0.17292911
76	0xbe028b4b	-0.12748449
77	0xbdb411f6	-0.08792488
78	0xbdfe4eb6	-0.12417357
79	0x3d7ef552	0.062245674
80	0xbe5fb929	-0.21847977
81	0xbd983757	-0.0743243
82	0x3e158b3f	0.146039
83	0xbe033df6	-0.12816605
84	0x3e7ce97a	0.24698439
85	0xbe10cb23	-0.1413999
86	0x3d964cc1	0.073388584
87	0xbb84f3e8	-0.004057396
88	0xbc920cd8	-0.01782839
89	0x3de1b90e	0.110216245
90	0x3e809163	0.2511092
91	0xbd6ee90c	-0.05832772
92	0x3e59788d	0.21237393
93	0x3df95ce9	0.12175924
94	0x3e05e406	0.13075265
95	0xbccbea68	-0.024892047
96	0x3e195277	0.14972864
97	0x3e58db8f	0.21177505
98	0xbda3c277	-0.079960756
99	0xbd9ecfcf	-0.0775448
100	0xbdf569c4	-0.11983064
101	0x3dfd227e	0.123600945
102	0x3d897a48	0.067127764
103	0x3d007b4d	0.03136759
104	0x3e804ace	0.2505707
105	0x3db4ba59	0.088246055
106	0xbcd79849	-0.026317732
107	0x3e1828f1	0.14859368
108	0xbcb6c78b	-0.022311946
109	0x3d18a821	0.037269715
110	0x3e033c58	0.12815988
111	0x3e093e65	0.13402708
112	0xbb9524a2	-0.004551486
113	0x3ea230ba	0.316778
114	0x3e4c1e96	0.19933543
115	0xbd880796	-0.06642072
116	0x3dfe3e11	0.12414182
117	0x3e121f7d	0.14269824
118	0xbd65d958	-0.05611548
119	0x3d2d7c96	0.042355143

recurs1.bias_hh f4 [120]
0	0xbc73f89b	-0.014890815
1	0x3e2f23d6	0.17103514
2	0x3e173932	0.14767912
3	0x3e0be072	0.13659838
4	0x3d60e134	0.05490227
5	0x3e83d465	0.25747982
6	0x3e3956a8	0.18099463
7	0xbd941d10	-0.07232106
8	0x3d6c4261	0.05768049
9	0x3e3d4b2c	0.18485707
10	0x3ded4c61	0.11586834
11	0x3d951d4e	0.0728098
12	0x3a9780f0	0.0011558812
13	0x3d8856fc	0.06657216
14	0x3e607c93	0.21922521
15	0x3d2b1853	0.041771244
16	0x3e782c44	0.24235636
17	0x3d8ea336	0.06964724
18	0x3ddca4ea	0.10773642
19	0xbdc9596a	-0.098315075
20	0xbb6f60f4	-0.0036526294
21	0x3e97af85	0.29626098
22	0x3c9394b7	0.018015249
23	0x3e78ad91	0.2428496
24	0xbd7d9204	-0.06190683
25	0x3de547c6	0.1119533
26	0xbdd7ac0f	-0.105308644
27	0xbd6adcb8	-0.0573394
28	0xbd4bcfc0	-0.049758673
29	0x3df7bb5f	0.12096285
30	0x3d5addb6	0.053434096
31	0xbdf930e7	-0.121675305
32	0x3df74a09	0.12074668
33	0x3e1e1e75	0.15441306
34	0x3e3d8038	0.18505943
35	0x3e5535c2	0.20821288
36	0x3d8a45b7	0.06751578
37	0xbd54d500	-0.051960945
38	0x3ca437a9	0.020046072
39	0x3e51c0d0	0.20483708
40	0x3e095ebb	0.13415043
41	0xbda0cb06	-0.07851224
42	0x3e755eb5	0.23961909
43	0xbe0621c4	-0.13098818
44	0x3e67b31d	0.2262692
45	0x3e23332c	0.1593749
46	0xbd9c6cb7	-0.07637923
47	0xbdbafe95	-0.09130589
48	0x3e293aea	0.1652638
49	0x3e61c418	0.2204746
50	0x3cf9b44d	0.030481482
51	0xbd23967e	-0.039938442
52	0x3dad1cbe	0.08452748
53	0x3e2d91f9	0.16950215
54	0x3d2afbf4	0.041744187
55	0x3e48a008	0.19592297
56	0x3e0e3c42	0.13890174
57	0x3d9e42e1	0.077276
58	0x3dd4c749	0.10389573
59	0xbe0d85be	-0.1382055
60	0x3d257de8	0.040403277
61	0xbb29af51	-0.002589185
62	0x3d7bde94	0.061491564
63	0x3dbcefc1	0.09225417
64	0x3d78f3bc	0.06077932
65	0x3dff32bc	0.12460849
66	0xbe69a39f	-0.22816323
67	0x3cc8d4ea	0.024515588
68	0xbdd0f655	-0.10203234
69	0xbe1e8333	-0.15479736
70	0x3cb1a502	0.021685127
71	0xbca38bbe	-0.019964095
72	0xbda53a78	-0.08067793
73	0xbe8b10c0	-0.27161217
74	0x3e64c351	0.22340132
75	0xbdd33343	-0.10312512
76	0x39b62992	0.00034744717
77	0x3e3a83e7	0.18214379
78	0xbbea8f29	-0.0071581793
79	0xbe2a8c6e	-0.16655132
80	0xbe691cff	-0.22764967
81	0x3d377d2a	0.0447971
82	0xbd8d10b2	-0.0688795
83	0xbbb10307	-0.005401972
84	0x3e20982e	0.15683052
85	0xbddcbd28	-0.10778266
86	0x3e2c56b8	0.16829956
87	0xbd53d338	-0.051715106
88	0xbdb0907c	-0.08621308
89	0xbdfe653c	-0.12421653
90	0x3e1b12a2	0.15143827
91	0xbd6a57d8	-0.05721268
92	0x3e17eb67	0.14835893
93	0x3d4c88cb	0.049935143
94	0x3e84ee32	0.2596298
95	0x3c593e73	0.013259518
96	0x3bb87b5e	0.005629941
97	0x3d63fcaf	0.0556609
98	0xbd0e63d4	-0.034763172
99	0x3e2488b2	0.1606777
100	0xbbeca4ee	-0.0072218096
101	0x3e201293	0.15632086
102	0x3e66f63d	0.2255487
103	0x3e475d42	0.19469169
104	0x3d40b565	0.04704799
105	0x3e70141e	0.23445174
106	0xbbe7199e	-0.0070526144
107	0xbd4bb8bd	-0.049736727
108	0x3d77e43c	0.060520396
109	0xbd2a750b	-0.041615527
110	0xbde0b849	-0.109726496
111	0x3e0d9e76	0.1382998
112	0x3e8db200	0.27674866
113	0x3d91a2cf	0.071111314
114	0x3d861ccd	0.06548462
115	0xbd980960	-0.07423663
116	0x3d9cb96b	0.07652553
117	0x3df53303	0.1197262
118	0x3d3ff53e	0.04686474
119	0x3e9e808e	0.30957454

recurs2.weight_ih f4 [120, 30]
0	0xbd8e464f	-0.06947004
1	0x3b9e6eed	0.0048350007
2	0xbddf6692	-0.109082356
3	0x3e81c67e	0.2534675
4	0x3df6224d	0.12018261
5	0x3e6dade8	0.23210871
6	0x3e132520	0.14369631
7	0x3cca2d6d	0.024679864
8	0xbe4469e4	-0.19181019
9	0xbdd9cfeb	-0.1063536
10	0x3da0077a	0.07813926
11	0xbe1055a2	-0.14095166
12	0x3db3e845	0.08784536
13	0xb9c2c747	-0.00037151037
14	0x3debb7c2	0.115096584
15	0xbe3e8511	-0.18605448
16	0x3e1f638b	0.15565316
17	0xbd6ae021	-0.057342652
18	0xbddf70ce	-0.10910188
19	0xbc37ba0d	-0.011213792
20	0xbdd5ddab	-0.104426704
21	0xbdd40438	-0.10352367
22	0x3d6edb50	0.05831462
23	0xbdee97fb	-0.11650082
24	0x3e957f42	0.29198653
25	0x3dc9e879	0.09858794
26	0x3e38631a	0.18006554
27	0x3def0e6e	0.11672674
28	0xbe4c7669	-0.19967045
29	0xbe053a8d	-0.13010617
30	0xbde2b1d3	-0.110690735
31	0xbdb78300	-0.08960533
32	0xbda12a96	-0.07869451
33	0x3e5de15a	0.21667996
34	0x3db1c65c	0.08680412
35	0x3e2345af	0.15944551
36	0xbda2a741	-0.079420574
37	0x3dc73cbd	0.09728382
38	0xbd9201fb	-0.07129284
39	0xbde342be	-0.110967144
40	0x3ddc0441	0.10742999
41	0x3ddf3129	0.108980484
42	0xbdadbcad	-0.08483253
43	0x3dd97593	0.10618129
44	0x3d8cb0f7	0.06869691
45	0x3dbe9ef1	0.093076594
46	0xbe76282c	-0.24038762
47	0x3d3063b7	0.043063845
48	0xbdd905ef	-0.10596835
49	0xbe28959d	-0.16463323
50	0xbe225175	-0.15851386
51	0x3c890336	0.016725164
52	0xbd44279b	-0.047889333
53	0xbe3d54aa	-0.18489328
54	0x3e59298e	0.21207258
55	0x3a9de0f6	0.0012045193
56	0xbdf98b31	-0.12184752
57	0xbbd1bd24	-0.006400721
58	0x3d3e1252	0.04640419
59	0x3bab1ac1	0.005221695
60	0x3de490cc	0.1116043
61	0xbc0099a4	-0.007849131
62	0x3e2d87c9	0.16946329
63	0xbd03cac2	-0.032175787
64	0xbdb22fd9	-0.087005325
65	0x3e4519f4	0.19248182
66	0xbdeec518	-0.116586864
67	0x3d5892b2	0.052874275
68	0x3df2c68e	0.118542776
69	0xbe7067d4	-0.23477107
70	0xbd939a2c	-0.0720714
71	0x3e177ce5	0.14793737
72	0x3d290b3e	0.041270487
73	0xbd24608c	-0.040131137
74	0x3e080e0a	0.13286605
75	0x3e08d6b6	0.13363156
76	0xbe0f7fd3	-0.14013605
77	0x3d86b63e	0.06577729
78	0x3dd65e2c	0.104671806
79	0xbd909456	-0.07059543
80	0xbe84a2b0	-0.2590537
81	0x3d9ab122	0.07553317
82	0xbd2e0ed8	-0.042494625
83	0xbdecedb7	-0.11568778
84	0x3e48d87a	0.1961383
85	0xbcac1183	-0.021004444
86	0xbd74eda3	-0.05979694
87	0xbe009bc8	-0.12559426
88	0xbcdaaf38	-0.026694879
89	0xbd2d49bc	-0.042306647
90	0x3cb8319e	0.022484597
91	0xbdc2c597	-0.095103435
92	0x3e788685	0.24270065
93	0x3e2fc227	0.17163907
94	0x3be5e230	0.007015489
95	0x3db41699	0.08793373
96	0x3c244ca8	0.010028042
97	0x3db62f7c	0.08895776
98	0xbbca3404	-0.0061707515
99	0xbd8f443c	-0.069954365
100	0xbda2c3ef	-0.079475276
101	0x3d788b75	0.06067987
102	0xbe0d736b	-0.1381356
103	0xbc4cba78	-0.0124956295
104	0xbcb66a8b	-0.0222676
105	0xbc7da243	-0.015480581
106	0x3d184019	0.037170503
107	0xbe0228ed	-0.12710924
108	0x3dccc276	0.09998028
109	0xbe27f5d1	-0.16402365
110	0x3db31de0	0.087459326
111	0x3d7c8f05	0.06165983
112	0xbdb07614	-0.086162716
113	0x3cd22dc1	0.025656583
114	0xbd979fda	-0.07403536
115	0xbe343cfd	-0.1760139
116	0xbd4e88bd	-0.050423373
117	0xbc592b4d	-0.013254953
118	0xbaca53e4	-0.0015436378
119	0xbe4053f5	-0.18782027
120	0x3e81e851	0.25372556
121	0x3d6be3b4	0.0575902
122	0xbd82847f	-0.06372928
123	0x3db6fbac	0.08934721
124	0xbe13eedb	-0.14446585
125	0x3de2c281	0.11072255
126	0x3d02bbec	0.031917498
127	0xbe02c238	-0.12769401
128	0xbd4fdcdf	-0.05074775
129	0x3dbc5337	0.091955595
130	0xbd82c837	-0.06385844
131	0xbc29a403	-0.010354045
132	0xbd77d7e9	-0.060508642
133	0xbe585638	-0.2112664
134	0x3e17b414	0.14814788
135	0x3c02e842	0.007989945
136	0xbe184266	-0.14869079
137	0xbae98057	-0.0017814738
138	0x3debfc71	0.11522759
139	0x3c41d676	0.011830917
140	0xbe58eaeb	-0.21183364
141	0x3e0967ea	0.13418546
142	0xbdc12749	-0.09431321
143	0xbde87755	-0.11350886
144	0x3e3c4d0b	0.18388765
145	0x3d78ff3f	0.060790297
146	0x3e861703	0.26189432
147	0x3e2671fd	0.1625442
148	0xbe15c15b	-0.1462454
149	0xbc72e37b	-0.014824743
150	0xbd2b4145	-0.041810293
151	0x3d42fd97	0.047605123
152	0x3e775605	0.24153908
153	0x3e323d08	0.17406094
154	0xbe61e0ed	-0.22058459
155	0xbca9caf4	-0.020726658
156	0xbe38c737	-0.18044744
157	0x3caf763d	0.021418685
158	0xbda3e65c	-0.08002922
159	0xbe668dc1	-0.22515012
160	0xbc87d788	-0.016582265
161	0x3da9abde	0.08284734
162	0x3b060bb9	0.0020453765
163	0x3db770f4	0.08957091
164	0x3e03d277	0.12873255
165	0x3db89fd9	0.090148635
166	0xbdb26659	-0.087109275
167	0xbd32a4d7	-0.043614235
168	0xbd408eab	-0.04701106
169	0x3db4250d	0.087961294
170	0xbc9196a6	-0.01777203
171	0xbdf354be	-0.11881398
172	0xbe1c30ad	-0.15252943
173	0xbe785fe4	-0.2425533
174	0x3cd25300	0.025674343
175	0xbd50279f	-0.050819036
176	0x3e80418d	0.2505001
177	0xbd2ced64	-0.04221858
178	0x3d2ba38e	0.041904025
179	0x3d33bb56	0.04387983
180	0xbd7158d0	-0.05892259
181	0xbdbeda8b	-0.093190275
182	0x3d5409df	0.051767226
183	0x3e20a061	0.1568618
184	0xbe37acd9	-0.1793703
185	0x3dc709ff	0.097187035
186	0xbe674ef5	-0.22588713
187	0xbda4cfae	-0.08047424
188	0xbc8b5233	-0.01700697
189	0x3cdf50bc	0.027260177
190	0x3cefff78	0.029296622
191	0x3ddeaf8f	0.10873329
192	0xbdef025d	-0.11670373
193	0x3d547cc0	0.051876783
194	0xbde47d14	-0.11156669
195	0xbe395578	-0.1809901
196	0xbdcc73ac	-0.09983
197	0xbe926b5b	-0.2859753
198	0x3d9e2504	0.07721904
199	0xbe1a664a	-0.15078083
200	0xbe7ce1f7	-0.24695574
201	0x3bf6311e	0.0075131794
202	0xbdca65ba	-0.09882684
203	0x3d37d386	0.04487946
204	0x3e330058	0.174806
205	0xbdf76fe0	-0.12081885
206	0x3e4c8bea	0.19975248
207	0x3d716851	0.058937375
208	0xbe4157af	-0.18881105
209	0xbd40dece	-0.047087483
210	0x3e3a36e1	0.18184997
211	0xbc2cb8f1	-0.01054214
212	0x3c894bb4	0.01675973
213	0x3dd01d3b	0.10161825
214	0xbcd3e2f5	-0.025865057
215	0x3dbd9bb9	0.09258217
216	0xbe47f9a5	-0.19528826
217	0x3dbdadf1	0.09261692
218	0x3d0fb768	0.03508702
219	0x3ce394ae	0.027780857
220	0x3d7fab76	0.062419377
221	0xbe050a0e	-0.12992117
222	0xbdc98687	-0.09840112
223	0xbda5965a	-0.08085318
224	0x3e03bf6c	0.1286599
225	0xbdf62f6c	-0.12020764
226	0x3d280297	0.041018095
227	0xbde372f4	-0.1110591
228	0x3dd86a11	0.105671056
229	0xbe7737ac	-0.24142331
230	0xbda8a6f4	-0.08234969
231	0x3dda3c11	0.10655988
232	0xbe065835	-0.13119586
233	0xbbc85559	-0.00611369
234	0x3e41d9b6	0.18930706
235	0x3c7a6314	0.015282411
236	0x3dc9682e	0.09834324
237	0x3da36d21	0.07979799
238	0xbe141074	-0.14459401
239	0x3df5021b	0.11963292
240	0x3d973be5	0.07384471
241	0x3e2e6962	0.17032388
242	0x3d32d62a	0.043661274
243	0x3d5217d3	0.05129225
244	0x3cd98c48	0.02655615
245	0x3e72407f	0.23657416
246	0x3e161c82	0.14659312
247	0xbe52c339	-0.20582284
248	0xbd636475	-0.055515725
249	0xbe02557b	-0.1272792
250	0x3e1b2bd9	0.15153445
251	0x3e258890	0.16165376
252	0xbe215d47	-0.15758239
253	0xbda88db0	-0.0823015
254	0x3e44f857	0.19235359
255	0x3defeb6d	0.11714826

recurs2.weight_hh f4 [120, 30]
0	0x3c53b5ba	0.012921745
1	0x3d27cad9	0.040964935
2	0x3e14b864	0.14523464
3	0xbe4f5006	-0.2024537
4	0x3deabb7d	0.11461542
5	0xbe195748	-0.14974701
6	0x3e3f9b1b	0.18711512
7	0xbe21924b	-0.15778463
8	0xbd493bea	-0.049129404
9	0x3dd3cd58	0.103419006
10	0x3c23a595	0.009988208
11	0x3da91a7c	0.082570046
12	0x3b9baf6d	0.004751137
13	0x3d7d5f3f	0.061858412
14	0xbd8baf2d	-0.068205215
15	0xbd1a9d4c	-0.037747666
16	0x3d191c3e	0.03738045
17	0x3e2c2c3e	0.16813752
18	0xbe2e499e	-0.1702027
19	0xbd8c4dde	-0.068507895
20	0xbda39074	-0.079865366
21	0xbdb5afc8	-0.08871418
22	0xbe04b72c	-0.129605
23	0xbd61d20f	-0.055131968
24	0x3da6d51b	0.081461154
25	0xbd8e254f	-0.0694071
26	0x3d14d668	0.036337286
27	0xbccbac96	-0.024862569
28	0xbe4d3891	-0.2004111
29	0x3dc46ca3	0.09591033
30	0xbd41cd06	-0.047314666
31	0xbdd895f4	-0.10575476
32	0xbe11200d	-0.14172383
33	0x3d385afa	0.045008637
34	0xbc00ed68	-0.007869102
35	0x3cb302e2	0.02185196
36	0x3c859878	0.016308054
37	0xbdb646a6	-0.08900194
38	0xbdf5a194	-0.11993709
39	0x3db3d238	0.087803304
40	0xbe755bcb	-0.23960797
41	0xbd3b83be	-0.045779936
42	0xbd7dcc62	-0.061962493
43	0xbc317fd2	-0.010833697
44	0x3e13241e	0.14369246
45	0x3e0aa7f0	0.13540626
46	0x3e25de5b	0.16198103
47	0xbd217203	-0.03941537
48	0xbe08dd9d	-0.13365789
49	0x3dbf2cad	0.09334693
50	0x3e1b23c8	0.15150368
51	0xbddb8b55	-0.10719935
52	0xbe0b53ed	-0.13606234
53	0xbe14062e	-0.14455482
54	0xbc825424	-0.015909262
55	0xbdf7d150	-0.1210047
56	0xbe2a70fa	-0.1664466
57	0x3cbebf20	0.023284495
58	0xbd50a9b2	-0.050943084
59	0x3da54be4	0.080711156
60	0xbe187283	-0.14887433
61	0xbd8b343c	-0.06797072
62	0x3e3f329a	0.18671647
63	0xbd83118b	-0.063998304
64	0x3e2eb9fc	0.17063135
65	0xbe193b16	-0.14963946
66	0x3be09072	0.0068531567
67	0x3c06d465	0.00822935
68	0xbd080f70	-0.033217847
69	0xbe72d8f4	-0.23715574
70	0x3d93b43e	0.07212113
71	0xbd1a8807	-0.037727382
72	0xbc2bfb17	-0.010496876
73	0x3d488a61	0.048960093
74	0x3e51beb1	0.20482899
75	0x3bb77b9c	0.005599452
76	0x3da94f13	0.08267035
77	0x3cdd5cb4	0.027021743
78	0x3ddf7428	0.10910827
79	0x3dd40191	0.10351861
80	0x3e12cd70	0.1433618
81	0x3cfe1c50	0.03101936
82	0xbe61b977	-0.22043405
83	0x3d54f68e	0.051992945
84	0xbe234e55	-0.1594785
85	0xbe82079e	-0.25396436
86	0xbb67f270	-0.0035392307
87	0x3d4f5084	0.050613895
88	0xbe0f8d56	-0.14018759
89	0x3e58797c	0.21140093
90	0xbcd09536	-0.025461774
91	0x3c88cf46	0.016700398
92	0x3e604efa	0.21905127
93	0x3d8a4a9e	0.06752513
94	0xbdf3f16d	-0.11911283
95	0xbd7b609f	-0.061371442
96	0xbdd55aab	-0.10417684
97	0xbe001965	-0.12509687
98	0x3c65f56d	0.014035565
99	0x3c0c9e84	0.008582715
100	0xbe52ef16	-0.20599017
101	0xbd8908d7	-0.06691139
102	0xbe7aebb2	-0.24503973
103	0xbda2ceb9	-0.079495855
104	0x3dfde6c6	0.12397532
105	0xbd16f052	-0.03685028
106	0x3e2117f1	0.15731789
107	0x3e1821a0	0.14856577
108	0x3def77ad	0.11692748
109	0x3cb90667	0.02258606
110	0xbc877cb4	-0.016538955
111	0xbd10eabb	-0.035380106
112	0xbe3e01a7	-0.18555318
113	0xbd7cc739	-0.06171343
114	0x3daa83ab	0.08325895
115	0xbccf5c02	-0.025312427
116	0x3aac8ee0	0.0013165139
117	0x3e3f026e	0.1865327
118	0x3dda754d	0.106669046
119	0x3dc78f22	0.09744097
120	0x3df88b2d	0.12135921
121	0x3e2e60a4	0.17029053
122	0xbd760e92	-0.06007249
123	0x3cddf400	0.027093887
124	0x3e02dcef	0.12779592
125	0x3d22fd72	0.039792486
126	0x3e67fcd1	0.22655036
127	0xbe191ec2	-0.1495314
128	0xbce7e47f	-0.028307198
129	0x3e33f30c	0.17573184
130	0xbe52d0a0	-0.20587397
131	0xbdd7820d	-0.10522852
132	0x3db86407	0.09003454
133	0x3e0e8010	0.1391604
134	0x3e897f68	0.26855016
135	0xbd8a72a5	-0.06760148
136	0x3df5978a	0.119917944
137	0xbe08d5cb	-0.13362806
138	0xbe24ee0a	-0.1610643
139	0x3cbcc787	0.02304436
140	0xbd2372e9	-0.03990451
141	0x3cb66747	0.022266043
142	0xbdba3181	-0.09091473
143	0x3e07463a	0.13210383
144	0xbd6d128e	-0.057879023
145	0x3c684c36	0.014178326
146	0x39ee2586	0.00045422855
147	0x3e535688	0.20638478
148	0xbb4a625f	-0.0030881388
149	0x3e6dc9fa	0.23221579
150	0xbe3049bb	-0.17215626
151	0xbd393d77	-0.045224633
152	0x3e46e795	0.19424279
153	0x3dea0ec7	0.114286
154	0xbd560d12	-0.05225856
155	0x3de4694f	0.111528985
156	0x3df1cd30	0.118067145
157	0xbe0ae80e	-0.13565084
158	0x3d4c2a8a	0.049845256
159	0x3e0d1a3f	0.13779543
160	0xbe1fc1ae	-0.15601227
161	0x3e0ac9e7	0.13553582
162	0xbe058b78	-0.13041484
163	0xbdfd4378	-0.12366384
164	0xbcd570b2	-0.026054714
165	0xbdf05274	-0.11734477
166	0x3e563cb6	0.20921597
167	0x3de86611	0.113475926
168	0x3dd88aa3	0.10573318
169	0x3dbd9208	0.09256369
170	0x3dc74982	0.097308174
171	0xbdb4c1cb	-0.088260256
172	0xbe49d6ae	-0.197108
173	0xbdea1391	-0.11429513
174	0xbda56562	-0.08075978
175	0x3de33ce1	0.11095596
176	0xbdec5f2b	-0.11541589
177	0x3cb463b3	0.022020197
178	0x3d0b0267	0.033937838
179	0x3e88ea43	0.26741228
180	0xbcf46128	-0.029831484
181	0x3e0ac9f7	0.13553606
182	0xbdcf22c7	-0.10114055
183	0xbe4c1db7	-0.1993321
184	0xbbf3f961	-0.0074454998
185	0x3d7e3ddc	0.062070712
186	0x3dee6add	0.11641476
187	0x3d938a92	0.072041646
188	0x3e1b81d9	0.15186252
189	0xbd89e97e	-0.06733988
190	0xbb0b1d2c	-0.0021227105
191	0x3e17f3d8	0.14839113
192	0xbde38da9	-0.11111004
193	0x3e0c27eb	0.13687102
194	0xbdcbb2da	-0.099462226
195	0x3dbcb5fd	0.09214399
196	0x3ddc1267	0.107456975
197	0x3e2cb339	0.16865243
198	0xbd29ce19	-0.041456316
199	0xbccf99a0	-0.025341809
200	0xbd964d24	-0.07338932
201	0x3e1552e7	0.14582406
202	0xbc3e37a9	-0.01160995
203	0xbd483079	-0.048874352
204	0x3c11a208	0.008888729
205	0x3d899871	0.06718529
206	0xbdc932bd	-0.09824131
207	0xbe215804	-0.15756232
208	0xbd631265	-0.055437464
209	0x3dc96999	0.09834594
210	0xbc935f77	-0.017989857
211	0xbb159160	-0.0022822246
212	0x3d7a2926	0.0610744
213	0xbd50051b	-0.05078612
214	0x3e352152	0.17688492
215	0xbe1930ec	-0.14960068
216	0x3e5d0670	0.21584487
217	0xbc720746	-0.014772242
218	0x3dd0ca11	0.10194791
219	0x3dcf0d02	0.10109903
220	0xbe504a5a	-0.20340863
221	0x3e08d5bd	0.13362785
222	0xbd9aeab1	-0.07564295
223	0xbdb92dba	-0.09041925
224	0x3e1c43b4	0.15260202
225	0xbb0386c7	-0.0020069347
226	0xbdbd1339	-0.09232182
227	0xbd85a621	-0.06525827
228	0x3deb219b	0.11481019
229	0xbe450dcd	-0.19243546
230	0x3db91137	0.090364866
231	0x3c1f543f	0.009724676
232	0xbe2d27f7	-0.16909777
233	0x3d3804bf	0.0449264
234	0xbe280709	-0.16408934
235	0xbd6c0f0d	-0.05763154
236	0xbd2f7f2b	-0.042845886
237	0x3df3e893	0.119095944
238	0xbd4a54bc	-0.049397215
239	0xbdb6b133	-0.08920517
240	0xbd4d544a	-0.050129212
241	0x3e47faab	0.19529216
242	0xbd8277ed	-0.0637053
243	0x3e04a3a8	0.12953055
244	0x3e07bf9c	0.13256687
245	0xbd7070e8	-0.058701426
246	0x3cbdfe70	0.023192614
247	0x3e06be87	0.13158618
248	0xbc45acab	-0.012065093
249	0x3d8bb5a8	0.068217576
250	0xbd457f56	-0.04821714
251	0x3c798561	0.015229554
252	0xbe32bcc8	-0.17454827
253	0xbda3425f	-0.07971644
254	0x3e76357e	0.24043843
255	0x3d8a984b	0.06767329

recurs2.bias_ih f4 [120]
0	0x3e92a393	0.28640422
1	0x3e841278	0.2579534
2	0x3c33172c	0.010930818
3	0x3de36db6	0.1110491
4	0x3d03a903	0.032143604
5	0x3d22422f	0.0396139
6	0x3db7602e	0.08953892
7	0x3e9594d4	0.2921511
8	0x3df66993	0.120318554
9	0x3e927da3	0.28611478
10	0xbd2e404c	-0.042541787
11	0x3ded36b2	0.11582698
12	0x3e17e3da	0.14833012
13	0x3d491e6b	0.049101274
14	0x3de73e2b	0.112911545
15	0x3e0088c2	0.12552169
16	0x3e949798	0.29021907
17	0x3deaa132	0.11456527
18	0x3dc4e30e	0.0961362
19	0x3e701a7f	0.23447607
20	0x3d977775	0.073958315
21	0x3e767c18	0.24070776
22	0x3e96c288	0.2944529
23	0x3bf85734	0.007578755
24	0x3e2e31b0	0.17011142
25	0x3d90ec1b	0.070762835
26	0x3e9d0d6a	0.30674297
27	0x3dba4ac4	0.09096292
28	0x3de96edf	0.113981
29	0x3e8cbace	0.2748627
30	0x3dc24358	0.09485501
31	0x3e322c20	0.17399645
32	0xbacb054a	-0.0015489247
33	0xbc30bfe3	-0.010787937
34	0x3e0ea6ec	0.13930863
35	0x3e95068f	0.29106566
36	0x3e3dcc81	0.18535043
37	0x3c826a36	0.015919786
38	0x3e912cc6	0.28354472
39	0xbd996225	-0.07489423
40	0x3e609450	0.21931577
41	0x3d39e4b1	0.045384113
42	0xbca57e50	-0.020201832
43	0x3ddfda1f	0.10930275
44	0x3e569208	0.20954144
45	0x3e7f6379	0.2494029
46	0x3da8e5b1	0.08246935
47	0x3dec3e97	0.115353756
48	0x3df498ba	0.11943193
49	0x3d650b7a	0.055919148
50	0x3db552f5	0.088537134
51	0x3e8b3a25	0.27192798
52	0x3d2bfd90	0.041989863
53	0x3e482fad	0.19549437
54	0xbd60c354	-0.05487378
55	0xbc8412db	-0.016122272
56	0x3dd694c1	0.10477591
57	0xbc6f724d	-0.014614654
58	0xbc81ad1c	-0.015829615
59	0x3d78821f	0.06067097
60	0xbda407e6	-0.08009319
61	0x3dd77688	0.10520655
62	0x3e026a99	0.12735976
63	0xbd912eca	-0.070890024
64	0x3dd30c06	0.10305028
65	0x3e0742d6	0.1320909
66	0x3dfcbaee	0.123403415
67	0xbe0032c4	-0.12519366
68	0xbde656b6	-0.112470075
69	0xbd3bd521	-0.045857552
70	0x3bc4c073	0.006004387
71	0x3d596303	0.05307294
72	0xbe2a9dc4	-0.16661745
73	0x3e41ba97	0.18918835
74	0x3e7e7e81	0.24852945
75	0x3cc8d392	0.024514947
76	0x3cff4902	0.031162743
77	0x3d0028f5	0.03128906
78	0xbe072dc7	-0.13201056
79	0xbe261e8c	-0.1622259
80	0x3e235e89	0.15954031
81	0x3e1c9427	0.1529089
82	0x3c8ed03d	0.01743328
83	0xbe467af9	-0.19382848
84	0xbb0fba0c	-0.002193096
85	0xbe1fb9fe	-0.15598294
86	0x3d12029b	0.035647016
87	0x3e56a968	0.20963061
88	0x3e35528d	0.17707272
89	0x3e5d5977	0.2161616
90	0x3e28bde6	0.1647869
91	0x3e969127	0.29407617
92	0x3dbd6429	0.0924762
93	0x3e0fa14c	0.14026374
94	0xbcc8c978	-0.02451013
95	0x3e57b9a9	0.21066917
96	0x3e313042	0.17303565
97	0x3e3473e1	0.1762233
98	0x3e5dadb3	0.21648292
99	0x3e6a45c1	0.22878172
100	0xbd9242bc	-0.07141635
101	0x3db99cec	0.090631336
102	0xbced9991	-0.02900389
103	0x3e728dff	0.2368698
104	0x3d9ae851	0.07563842
105	0xbcc7ff59	-0.024413751
106	0x3e585998	0.21127927
107	0x3b7d4ba0	0.0038649812
108	0x3dd945f3	0.10609045
109	0x3e625ba2	0.22105268
110	0x3e5f0134	0.21777803
111	0x3e531468	0.20613253
112	0x3de15897	0.11003225
113	0x3d57f2c5	0.052721757
114	0x3dea7a4d	0.11449108
115	0xbdd05e41	-0.101742275
116	0x3dac9046	0.084259555
117	0x3e4b0a6c	0.19828194
118	0x3e5cd049	0.2156383
119	0xbd3cbebc	-0.046080336

recurs2.bias_hh f4 [120]
0	0x3e2fc123	0.1716352
1	0x3e905a21	0.28193763
2	0xbc57c179	-0.013168686
3	0x3df31cd4	0.11870733
4	0x3d62b6b2	0.055350013
5	0x3e074055	0.13208134
6	0x3cee214e	0.029068615
7	0x3e936284	0.287861
8	0x3e658c1f	0.22416733
9	0x3d9279dc	0.07152149
10	0xbca39707	-0.019969476
11	0x3d65a110	0.056061804
12	0x3dd33db0	0.103145
13	0x3e3affcd	0.18261643
14	0x3d0905ed	0.033452917
15	0x3c7327c4	0.014841024
16	0x3e0f84dc	0.14015526
17	0xbbf26c8a	-0.007398193
18	0x3e29a2e7	0.16566049
19	0xbd0a84fd	-0.033818234
20	0x3de00b01	0.10939599
21	0xbcfb78c9	-0.030697243
22	0x3d8cdfb4	0.068786055
23	0x3def3340	0.11679697
24	0x3d720678	0.0590882
25	0xbb394851	-0.0028271864
26	0x3e3d0001	0.18457033
27	0x3cafe743	0.021472579
28	0x3e227605	0.15865333
29	0x3e47e8fa	0.19522467
30	0x3d414842	0.04718805
31	0xbdda2efa	-0.10653491
32	0x3c7a4ef0	0.015277609
33	0x3e0547ed	0.13015719
34	0x3e27103f	0.16314791
35	0xbc0c9979	-0.008581513
36	0x3e32a649	0.17446245
37	0x3e0e87be	0.13918969
38	0x3e122504	0.14271933
39	0x3d498a2a	0.04920403
40	0x3c96c9ad	0.018406713
41	0x3dfa6cb2	0.12227763
42	0x3e4d46dd	0.20046563
43	0x3d039b7a	0.032130696
44	0x3e0dbc74	0.1384142
45	0x3e75d807	0.24008189
46	0x3e80c427	0.25149652
47	0x3d90eddb	0.07076617
48	0x3de54e14	0.11196533
49	0x3df0dae4	0.117605
50	0x3e3b8110	0.18310952
51	0x3d3afa2f	0.04564875
52	0x3ded4c38	0.11586803
53	0x3dabdeff	0.083921425
54	0xbd95ddd6	-0.073177025
55	0x3dc9141e	0.0981829
56	0xbd82deab	-0.06390127
57	0x3e17f697	0.1484016
58	0x3dad7218	0.08469027
59	0x3e0ec9de	0.13944194
60	0xbe0b1327	-0.13581525
61	0x3de8d4ec	0.113687366
62	0x3e2114f8	0.15730655
63	0x3dfc5fb8	0.123229444
64	0x3d662b64	0.056193724
65	0xbda891b5	-0.082309164
66	0x3e2daea0	0.16961145
67	0x3d2d1520	0.042256474
68	0xbe0f100d	-0.13970967
69	0xbd31425b	-0.043276172
70	0xbd55d7ec	-0.052207872
71	0x3d04db89	0.032435928
72	0x3bf9fdc8	0.00762913
73	0x3e3a8831	0.18216015
74	0x3d570398	0.05249366
75	0x3c101cc8	0.0087959245
76	0xbbbdf67a	-0.0057972046
77	0x3de10af3	0.109884165
78	0xbe208683	-0.15676312
79	0x3e1dcf48	0.15411103
80	0xbcbc7820	-0.023006499
81	0x3dd76401	0.10517121
82	0xbdce3ddd	-0.10070393
83	0xbdce6eb5	-0.100797094
84	0xbb434a2a	-0.0029798844
85	0xbd6c40eb	-0.057679098
86	0xbe127fe9	-0.14306606
87	0xbdf9d40b	-0.12198647
88	0xbe20ee41	-0.15715887
89	0x3e737170	0.23773742
90	0x3e5acf3b	0.21368115
91	0x3d63fcdd	0.05566107
92	0x3e75de14	0.24010497
93	0x3df90f2f	0.12161099
94	0x3db99145	0.09060911
95	0x3cc3320f	0.02382758
96	0xbc2d045c	-0.010560121
97	0x3e6604cc	0.22462767
98	0x3e88f51e	0.2674951
99	0xbde152c4	-0.110021144
100	0x3dfd9802	0.12382509
101	0x3e3bb7a2	0.18331769
102	0x3c8d3d90	0.01724127
103	0x3c8cb198	0.017174527
104	0xbd5fc089	-0.054626975
105	0x3e401a87	0.1876012
106	0x3e9df3d9	0.30850103
107	0x3e38e848	0.18057358
108	0x3da3a90b	0.07991227
109	0x3e2ab958	0.16672266
110	0xbb208949	-0.002449589
111	0xbab1a1af	-0.0013552214
112	0x3e2eb2c7	0.17060386
113	0x3e6a200f	0.22863792
114	0x3df0ac37	0.117515974
115	0x3cc8b05f	0.024498163
116	0x3e2aa213	0.16663389
117	0xbdfb8160	-0.12280536
118	0x3e6e3ca1	0.23265316
119	0x3c19dd84	0.009391192

output.weight f4 [2, 30]
0	0xbe18c513	-0.14918928
1	0xbe091549	-0.13387026
2	0x3d3d5c76	0.046230756
3	0xbe12b15c	-0.1432547
4	0x3dda6e70	0.106655955
5	0xbe429732	-0.19002989
6	0x3e3d8280	0.18506813
7	0xbe5d471a	-0.21609154
8	0xbe66eeb5	-0.22551997
9	0xbe5e6b16	-0.21720538
10	0x3d653610	0.05595976
11	0x3e2336e4	0.15938908
12	0xbdc75d49	-0.097345896
13	0x3d2b8872	0.04187817
14	0x3e5f288b	0.2179281
15	0xbd07a41d	-0.033115495
16	0x3dc69425	0.09696225
17	0x3d8a4eeb	0.06753334
18	0xbdd5307f	-0.104096405
19	0x3e4bc503	0.19899373
20	0x3d2aeb3e	0.04172825
21	0xbd9ffbef	-0.078117244
22	0xbdfc2373	-0.12311449
23	0x3d49fa26	0.049310826
24	0x3e112dcf	0.14177631
25	0xbe036bd4	-0.12834102
26	0xbe023ace	-0.12717745
27	0x3e543fbf	0.20727442
28	0xbde76e92	-0.113003865
29	0x3ca676e6	0.020320367
30	0x3e900a97	0.2813308
31	0x3e750eb2	0.23931387
32	0x3e6017f1	0.21884133
33	0x3e7932b0	0.24335742
34	0xbe0e810b	-0.13916413
35	0x3e3ce33c	0.18446058
36	0xbe5052dd	-0.2034411
37	0x3e419aea	0.18906751
38	0x3e585251	0.21125151
39	0x3e40b905	0.1882058
40	0xbe5514ea	-0.2080876
41	0xbe1f8342	-0.15577415
42	0xbe2db539	-0.16963662
43	0xbe626c72	-0.22111681
44	0x3e14e036	0.14538655
45	0x3e8b6432	0.2722488
46	0x3e35cd42	0.17754081
47	0xbe62ccd9	-0.22148456
48	0x3e861af6	0.26192445
49	0xbe6dda82	-0.23227885
50	0x3e553e57	0.20824562
51	0xbdeb31d7	-0.114841156
52	0x3e500d13	0.20317487
53	0x3e30378a	0.17208686
54	0xbea4f568	-0.3221848
55	0x3e269b2c	0.16270131
56	0xbe314325	-0.1731077
57	0xbe77f254	-0.24213535
58	0x3e89b7d7	0.2689807
59	0x3e2406db	0.1601824

output.bias f4 [2]
0	0x3d8c4052	0.068482056
1	0xbbc0aed8	-0.005880218

switch.weight f4 [1, 30]
0	0x3e0ebc38	0.13938987
1	0xbd6be97f	-0.057595726
2	0xbdbaf132	-0.091280356
3	0xbd3d48f5	-0.046212155
4	0xbd6334fe	-0.05547046
5	0x3db320cf	0.08746492
6	0xbd3804a8	-0.044926316
7	0x3dc2761b	0.09495183
8	0xbe098093	-0.13427953
9	0x3d0a45b4	0.03375788
10	0x3e0f4517	0.139912
11	0xbcb53c98	-0.02212362
12	0x3e0b5433	0.13606338
13	0x3d3d1567	0.04616299
14	0xbe2907ef	-0.16506933
15	0xbdc15725	-0.094404496
16	0x3e1fa4a2	0.15590146
17	0xbd2a989b	-0.041649442
18	0x3e3d152d	0.18465109
19	0xbe40c137	-0.18823706
20	0xbdc4cf24	-0.096098214
21	0x3e039e16	0.12853274
22	0x3e36c615	0.17849
23	0xbe1f26cb	-0.15542142
24	0x3d46facb	0.04857902
25	0xbe2cea57	-0.16886269
26	0xbe049fb0	-0.12951541
27	0x3d91f786	0.071272895
28	0xbda3a2a2	-0.07990004
29	0xbc81e47b	-0.015856018
