checkpoints/VQE-H2-4d675595/model.pth (torch, 49793 bytes, 11 tensors)

recurs1.weight_ih f4 [120, 2]
00000000: e632 85bd b608 993e 5b2f 6abe 694f 58bd
00000010: d30e 07be ef82 01be d15e b3bd 7f10 c43d
00000020: 51c8 9cbd 0d74 873d 19a4 22be 2e8d 0b3e
00000030: 1764 71be c8f7 93bd a410 b6bd ba3f f33d
00000040: b1bc 7ebb 1565 7f3e e6a8 82be 8a01 8ebe
00000050: 3cc3 9abc 2fa2 2b3e 97de 22bd 8a89 2e3e
00000060: 65ac 34be b999 cebd 80c2 df3d 9f70 5bbd
00000070: 81f3 10be 19fe d03d c348 21be a7ad 523d
00000080: e5b7 39be 5178 49be 52cc 4ebe c033 60be
00000090: 5e54 1abe 16b5 8c3e b9f1 fcba 39ae 443e
000000a0: 0e58 0fbd 134c c6bd 93b7 9c3c 80fc 39be
000000b0: 4ea8 2cbe 70d0 98be 5b17 31bd 79c9 e9bd
000000c0: cfd2 0fbe 7fa0 f53c 5f80 2b3d 9647 ac3e
000000d0: 52aa 443c e0ab 0f3e ab27 143e 2e4b 1abe
000000e0: 49ee 113d 6780 bdbd e4f6 55be a2bc e3bd
000000f0: 7148 883d 4b0f 913e f01d 0abe b0f7 1c3e
00000100: b384 b63d ac1d 43be cc61 44bd bd1d 0bbd
00000110: d3ab 153e 6d71 633e c7a2 52be 58f8 f93d
00000120: 2781 b23d 36dc 393e 585c 333e 6bb7 9c3e
00000130: 85b0 f33c eba3 343d 75e4 06bc af05 96be
00000140: 9541 2cbe 1e44 443e fb7a 253e 67a2 f2bd
00000150: be9b 95bc 1caa 37be b131 94bd 4a35 d13c
00000160: af0b 6a3d 8542 303d 0d62 ba3d 9c5c b4bc
00000170: 33b5 073e 38fe f1bc 3f77 09be 94a7 30be
00000180: ab0d d03d 2762 3e3e b1dd 52be bc33 c3ba
00000190: e71b 083e 2242 e83d 4111 b3bc 966d 30bd
000001a0: 6fb6 0fbe 4a91 53be 1fe7 2fbe d1bf b7be
000001b0: 3ab4 56bd c966 fc3d 8dce f7bd e0e9 943e
000001c0: d796 11be 9396 903e 3584 3a3e a3bd 1ebe
000001d0: cdf1 2d3d fbd5 813d ee13 dc3d e357 383d
000001e0: 7313 dd3c 4891 5f3e f0fb 95bd 4e22 8e3e
000001f0: 4974 5abe 0913 8dbe 1159 e9bd 181f 1dbe
00000200: 7173 81bd 48c6 c6be 79eb dcbd 60a8 7a3e
00000210: 1578 cbbd 67fa 72be 69f4 083e ad54 63be
00000220: c17c bf3c 4c06 80be 377e f33d 7743 a63e
00000230: 4ad6 273e 574b 9e3e 6a23 2b3e da6f 5b3e
00000240: c3a2 35be c8ee 87be 89cc 403e da66 85bd
00000250: 240e 24be d2e0 dabc 3be8 41be 8ae9 b6be
00000260: 2085 b13b ef98 a23e 44ec 763d 7ee7 c0be
00000270: 9f18 df3d dac4 adbe a143 9c3b 933b 69be
00000280: 34f6 4f3c eecd eebc a628 44be 45ad c6be
00000290: 053d b4bd adbd 56be a54b 1cbd 5ab2 a73e
000002a0: 6e1d 6dbe 5ea9 573c 1838 593e f365 81be
000002b0: c5f0 c43d 771a 283e fd29 f1bd b2e7 a33e
000002c0: e48f ebbc 1b0c 9fbe ac5a 0c3e a85c ccbe
000002d0: 8729 e6bc b9c4 453e dff4 843d 9f88 0f3e
000002e0: b8fb f23c cfb1 01be b57d e4bd 19a4 1bbe
000002f0: 5b06 57be 590b 053e b111 b13d e5c0 ae3e
00000300: bb4c 2ebe 740a b63d 5551 10be 8a70 7a3d
00000310: 91be 1ebe fb56 8e3e a25d 3abe 4d58 60be
00000320: 4022 81bd 2ca0 243e 5005 17be 3e3e 5dbd
00000330: 2ef4 63be 3966 14bd ba0d ccbd 4c23 983e
00000340: c6c9 7c3d 2524 483e 960e 39bd 13b6 32be
00000350: d323 21bc 50fb 2fbe dfc7 92bd c8a5 43bd
00000360: f904 32be 2fe1 9b3d 6f3e 8d3d 253d 96ba
00000370: 834b 80bd 88f8 103e fb36 8d3d e1e8 f9bb
00000380: 2efd 4bbe bfee 05be 889d 61be 96e6 95be
00000390: f634 c4bd fc17 8a3d d88d 57bd 8275 b13e
000003a0: 5e30 75bc 6a0b a53e 744c f03d 5ba5 3cbe
000003b0: bc42 c73d fafc 9cbd d00c 17be 51a6 793c
-0.06503849 0.29889458 -0.22869627 -0.052810106 -0.13189249 -0.12647603 -0.08758319 0.09573459
-0.07655395 0.06613932 -0.15882911 0.13628075 -0.23573337 -0.07224995 -0.08889893 0.11877389
-0.0038869793 0.24940903 -0.25519484 -0.2773555 -0.018891923 0.16761087 -0.03976306 0.17044654
-0.17643888 -0.10087914 0.1092577 -0.0535742 -0.1415539 0.10204715 -0.15750413 0.05143514
-0.18136556 -0.19674803 -0.2019513 -0.21894741 -0.15071246 0.27481908 -0.0019298113 0.19207086
-0.034996085 -0.09682479 0.019130504 -0.18162727 -0.16861078 -0.29846525 -0.043235164 -0.11415381
-0.14045261 0.029983757 0.04187047 0.33648366 0.012003498 0.14030409 0.14468257 -0.15067741
0.035627637 -0.092530064 -0.20894963 -0.11119963 0.06654442 0.2833198 -0.13487983 0.1532886
0.08912029 -0.19054288 -0.04794483 -0.033963908 0.14616327 0.22211237 -0.20569907 0.12205571
0.0871604 0.1815041 0.17515695 0.30608687 0.029747257 0.044101637 -0.008233179 -0.2930121
-0.16821893 0.1916661 0.16160195 -0.11847382 -0.01826274 -0.17935985 -0.072360404 0.025538106
0.05714005 0.043032188 0.09100733 -0.022016816 0.13252716 -0.029540166 -0.13424395 -0.17251426
0.10158857 0.1859213 -0.20592381 -0.0014892737 0.13291894 0.11340739 -0.021858813 -0.04307326
-0.14034437 -0.20660892 -0.1717801 -0.35888532 -0.05241797 0.12324292 -0.12099943 0.29084682
-0.14217697 0.2823988 0.18214495 -0.15502028 0.042466927 0.06339642 0.10745989 0.04500569
0.026986813 0.21832764 -0.07323444 0.27760547 -0.21333422 -0.27553585 -0.11393941 -0.15343893
-0.06320847 -0.38823152 -0.107871 0.24478292 -0.09935013 -0.23728333 0.13374485 -0.2220027
0.023374917 -0.25004804 0.11889308 0.32473347 0.16390339 0.30916855 0.16712728 0.21429387
-0.1773787 -0.26549363 0.18828024 -0.06513758 -0.16021019 -0.02671853 -0.18936245 -0.3572505
0.005417481 0.31757304 0.060283914 -0.37676615 0.10893368 -0.33939248 0.004768804 -0.22776632
0.012692977 -0.02915093 -0.19156131 -0.3880407 -0.08800701 -0.20970793 -0.038158078 0.3275326
-0.23155758 0.013162939 0.21212804 -0.25273094 0.09616236 0.16416346 -0.11775587 0.32012707
-0.028755136 -0.31063923 0.13706464 -0.3991444 -0.028095974 0.19313325 0.06492018 0.1401696
0.029661044 -0.12665485 -0.11156789 -0.15199317 -0.20998518 0.1299261 0.086459525 0.34131542
-0.17021458 0.088887125 -0.14093526 0.061142482 -0.15502383 0.27800736 -0.1819978 -0.21908684
-0.06305361 0.16076726 -0.1474812 -0.054014437 -0.22261116 -0.0362303 -0.09963556 0.2971443
0.061715864 0.19545038 -0.045179926 -0.17452268 -0.009835201 -0.17185712 -0.07167029 -0.047765523
-0.1738471 0.0761131 0.06896674 -0.0011462314 -0.06264403 0.14157307 0.06895252 -0.0076266383
-0.19920799 -0.13079356 -0.2203275 -0.29277486 -0.09580414 0.06742856 -0.052625507 0.34659964
-0.014965145 0.3223527 0.11733332 -0.18422453 0.097295254 -0.07665439 -0.14750981 0.015237407

recurs1.weight_hh f4 [120, 30]
00000000: 9920 f33d 85e6 6c3e 1b64 0bbd fb3b 843d
00000010: 7eed da3b b035 d4bd 8e3c 823d f57f 55be
00000020: 84c0 63bd 20da b7bc 5f01 ef3b 15dd 983d
00000030: 99ff 473d 41bb ffbd 3e27 77bd 6190 dabd
00000040: 2b9f 14be 9821 713a 252f 1cbe a042 49be
00000050: 83ea 40be cd7a 1a3d ebb5 f43d a3a0 283e
00000060: c6ae 033e 3cfe 0dbe 12f8 ea3c 1b6b 963d
00000070: de74 ae3d 6d8c b0bc 0265 09bc 3436 b8bc
00000080: 99ba 8ebd 0b2f 093e 53e6 07be 2507 a3bd
00000090: 8e04 193e 5b6b 3cbe 7b6f c6bd a355 03bd
000000a0: 7c40 453d d119 f2bd 95d5 f2bd 9ad1 633d
000000b0: 224c de3d 74af 423e d119 d1bd 5e03 723d
000000c0: 7480 fbbd 88d6 acbd 8a83 57be 5535 3c3d
000000d0: 24df ed3d 1425 86bd 8149 423d 8a07 4bbe
000000e0: d15e 5a3e 20ad 1abe 7475 2c3d 011e abbd
000000f0: 4dd7 1dbe d0cb e7bd bec8 07bc b34c f63d
00000100: 6876 183e 9492 61be d083 dc3d 05b6 2a3e
00000110: fe9f 1a3e 7040 d9bd ce3f 82be 2c57 d7bd
00000120: bea2 253e 8045 9ebd 999c b23d 8315 5a3e
00000130: 0ed4 3dbe e5e2 d63d e94c 393e 65ce 8c3d
00000140: d67f 18bd 1385 043e 4b86 6bbd 6cc4 94bd
00000150: 4f2d 163e cd2b 783e b9cb a23d e57c 84bd
00000160: 69f1 433e b1ef f13b 47e0 e9bd 4061 24be
00000170: cbd7 883e 37b7 693e 0437 01be 305d cd3d
00000180: b247 123e 7f03 303e f21a 1b3e 6891 4c3d
00000190: efa3 20bd f8b2 96bd 33e4 893e 5a6d 523c
000001a0: 266c f9bc 601b 603e f7dc e63c d172 0f3e
000001b0: df9a e6bd 4092 8abb 4d52 38be 5ee0 2c3e
000001c0: 9a64 513d 644b 0dbc bf93 023e cfed 313d
000001d0: eb83 643b bd20 313d 1c80 e0bd a935 463d
000001e0: ac5f efbc 12ce 04be 703e a8bd c322 743e
000001f0: 2fe1 a23d feba 893e 4ce2 0c3e 110c 69be
00000200: 33e8 53be 2e60 a2bd c7e3 b1bd 56bf 013e
00000210: 22e6 abbd 67ba 48be 3b76 92bd 11b4 e3bd
00000220: e3d5 0e3e 74fc 0b3e cde8 0e3d ddf5 753d
00000230: 1856 443d 3150 6ebd d7ee 973d 8783 013e
00000240: e365 293e 1958 a63d 5d0c 493e 3e72 ff3d
00000250: 22d1 bcbd ade6 8c3d cd3e d23d 8b1d 8c3d
00000260: b4d4 23bd aac0 bcba cd95 45be ffdb 5d3e
00000270: 91fd cb3d 2bc8 b5bd 243a 39be 2982 003e
00000280: ecbf 6e3e f180 643d 07d6 15be 5d4f 863d
00000290: ffc2 1f3e b473 37be f9b8 583e 6e3e 203d
000002a0: 8e37 1ebe 2624 0cba 48d3 60be 4339 84bd
000002b0: b4d3 373e 4394 a1bb d662 0bbd 86a5 26be
000002c0: e581 643d 80a9 dfbb 0b01 8fbc 0584 cd3d
000002d0: 225f c73d 58c1 70bd 52d5 893d 53e5 063e
000002e0: 5dbd 6d3d 4135 99bd e11f 41bd 2c9c 50be
000002f0: 9dfc 20be bc2d 793c 6237 a7bd 5370 8d3d
00000300: 468d f43d 05d4 a2bd 1e6a b3bc 9c22 8dbd
00000310: 4ebe 0e3d 0612 33be 6614 b03b 24c4 68be
00000320: c3b8 7cbe aeba 3cbe 9aff 0cbd 63fb c93d
00000330: b8fe b9bd 0702 6d3d 3884 893c 382b 5b3d
00000340: 545e 28bc a221 3fbe 69e9 523e 0941 283e
00000350: 53d2 1d3e 5fe4 c33d a3f5 41be 0710 553e
00000360: 0a43 1fbd 078a 043d 95ac 50be 881d 37bd
00000370: 8248 eabd 95f3 b9bc 4f80 53bd 3c3e 46be
00000380: 4bd0 e73d 8f3c 0e3d 4a10 b43d 31f9 49be
00000390: f08d 50be 7d46 d3bd 08a9 4a3d 7a7f f43d
000003a0: c65f 753d 1195 e83c 72fd da3d 628d 73be
000003b0: e62f cbbd 4083 0f3e c859 34be 535f bb3b
000003c0: e98a 87bd 2486 d13a 25c6 bebd d54c 303e
000003d0: a69c cbbd 34c8 5b3e 4e1f 8d3d 4f18 393d
000003e0: df14 57bd 99c3 acbd 47a9 533d ec30 463d
000003f0: d7fd 453d 7f78 56be 9028 5f3e e9e7 68bd
0.11871452 0.23134811 -0.034031015 0.06456753 0.0066811433 -0.103618026 0.06359206 -0.20849593
-0.05560352 -0.022442877 0.0072938646 0.07464043 0.04882774 -0.12486888 -0.06034016 -0.10672069
-0.14513843 0.0009198426 -0.15252359 -0.19654322 -0.18839459 0.03771477 0.119487606 0.16467528
0.1285964 -0.13866514 0.028682742 0.073446475 0.085183844 -0.021551335 -0.008385899 -0.022486784
-0.069691844 0.13396852 -0.13271455 -0.07960347 0.14943144 -0.18400328 -0.09689232 -0.03206409
0.0481572 -0.1182133 -0.11857144 0.055619814 0.10854365 0.19012243 -0.10210002 0.059085242
-0.1228036 -0.08439356 -0.21046272 0.0459493 0.11614826 -0.06550041 0.04743338 -0.19827095
0.21325232 -0.15105104 0.0421042 -0.08355332 -0.15414162 -0.11318171 -0.008287607 0.12026348
0.14888918 -0.22028571 0.10767329 0.16670997 0.15100095 -0.106079936 -0.25439304 -0.105146736
0.16175362 -0.077281 0.08721275 0.21297269 -0.18537924 0.104924954 0.18095745 0.06875304
-0.03723129 0.12941389 -0.05750112 -0.07264027 0.14665721 0.24235459 0.07949013 -0.06469134
0.1913506 0.00738331 -0.11419731 -0.16052723 0.26727137 0.22823797 -0.12618643 0.1002754
0.14285162 0.17188834 0.15146998 0.049943358 -0.03921884 -0.07358354 0.26931915 0.012843454
-0.030447077 0.21885443 0.028181536 0.14008643 -0.11260008 -0.00422886 -0.18000145 0.16882464
0.05112133 -0.008623932 0.12751673 0.043439683 0.0034868668 0.043244112 -0.10961935 0.048391018
-0.029220425 -0.12969235 -0.08215034 0.23841386 0.079531066 0.26900476 0.137582 -0.22758509
-0.20694046 -0.07928501 -0.08686023 0.12670645 -0.08393504 -0.19602357 -0.07151457 -0.11118329
0.13948779 0.13670522 0.034889985 0.060048927 0.047933668 -0.058181945 0.07418602 0.1264783
0.16542773 0.08122272 0.19633622 0.12472962 -0.092195764 0.068799354 0.102658845 0.068415724
-0.03999777 -0.001440068 -0.19295426 0.21665953 0.09960473 -0.0887607 -0.18088585 0.12549652
0.233154 0.05578703 -0.14632426 0.06558106 0.15601729 -0.17915231 0.21164311 0.039122038
-0.1545088 -0.00053459627 -0.21955597 -0.06456234 0.17951852 -0.0049310043 -0.034029804 -0.1627408
0.05578794 -0.006825626 -0.017456552 0.10034946 0.09734942 -0.058778137 0.06730141 0.13173418
0.05804192 -0.074808605 -0.047149543 -0.20372075 -0.15721364 0.015208658 -0.0816486 0.0690619
0.11941008 -0.07950596 -0.021901187 -0.06891367 0.034849457 -0.17487344 0.0053735254 -0.22731072
-0.24679856 -0.18430588 -0.03442345 0.09862401 -0.09081787 0.05786326 0.01678668 0.053508013
-0.010276396 -0.18665174 0.20596851 0.16431059 0.15412264 0.09565043 -0.18941359 0.20806895
-0.038882293 0.032358196 -0.20378335 -0.044705898 -0.11439611 -0.022699157 -0.051636036 -0.19359678
0.113190256 0.034725722 0.087921694 -0.19723965 -0.20366645 -0.10316179 0.049477607 0.11938377
0.05990579 0.028391393 0.10692872 -0.23784402 -0.09921245 0.14014912 -0.17612374 0.0057181506
-0.06618292 0.0015985412 -0.09315137 0.17216809 -0.09941988 0.2146309 0.068907365 0.045189198
-0.05251014 -0.08435745 0.051675107 0.0483865 0.048337784 -0.20944403 0.21792817 -0.05686179

recurs1.bias_ih f4 [120]
00000000: 42c7 a5bd 1da2 5dbd 862f 573d fc9d 923e
00000010: 0ab4 473e 748a 1a3e 986d 933d b1c9 5d3e
00000020: e4a6 c93d 148f 4e3e 32cb 0f3e 0092 ac3d
00000030: bbc9 5e3e 3582 6d3e a45b 283e 634c 2c3e
00000040: 24a1 4c3e ea9a c13d 1fc7 483e dace 233e
00000050: a950 5f3e a102 973d 0677 aabd 8fec 553e
00000060: 0a04 443e d273 6e3e 5453 203e fc9f 053e
00000070: 7a99 5c3e 84a2 e93d 7df4 4f3e a19b 203e
00000080: 9a78 313e 9908 743e f6d1 dfbd 173e 2f3e
00000090: 2932 353e e50e e7bd 43bb c03c 2d7f 8abd
000000a0: 599c 0dba 411c 2e3d d310 293e 5a5b a03c
000000b0: c446 04be 30f9 ea3d f95b 003e 60de b3bb
000000c0: 6523 373e 2609 663e dd49 123d 9de1 d43b
000000d0: 1503 5b3d 3f2d b73c 182c 5a3d ea3f afbc
000000e0: 0f08 2ebd ba49 933d 46a4 97bd 002a bebd
000000f0: 2f36 5a3e 2db9 d13b 0ffb 523e 1ddc 9c3e
00000100: 561b d0bc 635e a13d f69e 323e 6980 00be
00000110: 33a0 9bbd 8dc2 8fbd 46cd 66bc 9fc0 1b3d
00000120: f423 ef3d 5eb7 3fbe 80d3 fc3d 0b73 443e
00000130: 9326 18be e4d1 b4bd 8e3e f8bd 7f15 373d
00000140: f742 7fbe 08d8 60bd 819c 613e 5fe4 2cbe
00000150: c157 8b3e 59f1 fcbd 542a fe3d c1be ccbc
00000160: a237 453c 51c5 003e 58be 6c3e 0a2e 8abc
00000170: 87f9 4c3e 79d4 363e ea33 063e 200b 3abd
00000180: 1d47 1d3e d50f 3d3e 8ca7 9dbd f841 7dbd
00000190: 5f9e 7cbd bbbf ce3d 9a7f b03d f171 4e3c
000001a0: aca6 543e 9961 8d3d 099c f2bc 0bc7 2a3e
000001b0: d87f 12bd 6e3e 4f3d ed4a 413e 9a53 0f3e
000001c0: 0bb6 70bd cc95 973e 1ad9 6e3e 5d81 45bd
000001d0: 2df8 1a3e a17d f33d 5db9 8dbd 8961 d53c
-0.08094646 -0.05410968 0.052535556 0.28636158 0.19502273 0.15091878 0.07198638 0.2165897
0.09846285 0.20171767 0.14042357 0.08426285 0.21756642 0.23194201 0.16441208 0.16826014
0.19983345 0.09453376 0.19607209 0.15996876 0.21808113 0.07373548 -0.08323483 0.20891021
0.19142166 0.2328637 0.15656787 0.1304931 0.21542922 0.114079505 0.20308109 0.15684368
0.17331162 0.23831405 -0.10928719 0.17113529 0.17694916 -0.11282138 0.023526793 -0.06762538
-0.0005402021 0.042507414 0.16510324 0.01957481 -0.1291762 0.1147331 0.12535085 -0.0054891557
0.17884596 0.22464427 0.035714973 0.0064966218 0.053469736 0.022360442 0.053264707 -0.021392781
-0.042488154 0.071917966 -0.074043795 -0.092853546 0.21309732 0.0064002485 0.20603584 0.30636683
-0.02540366 0.07879331 0.17443451 -0.12548985 -0.07598915 -0.070195295 -0.014087027 0.038025495
0.116767794 -0.18722293 0.12345028 0.1918451 -0.14858465 -0.08829096 -0.12121306 0.044698235
-0.24927889 -0.054893523 0.22032358 -0.16883992 0.27215388 -0.12350721 0.12410417 -0.024993302
0.01203719 0.1257527 0.23119485 -0.016867656 0.20017062 0.1785449 0.13105741 -0.045420766
0.15359159 0.1846307 -0.07697973 -0.06183049 -0.061674472 0.100951634 0.08618088 0.012600408
0.20766705 0.06903381 -0.029615419 0.16677491 -0.035766453 0.050596647 0.18876238 0.13996735
-0.05876736 0.29606473 0.23325005 -0.048219074 0.15133734 0.11889196 -0.06920121 0.026047485

recurs1.bias_hh f4 [120]
00000000: 12a1 8ebd a894 3e3e 84f5 fc3d 28a0 653e
00000010: ff03 773d 79ee 813e 8d22 133e 6c1a c3bd
00000020: e2e9 4f3d ddd7 6e3e 39ee 353e 7615 e43c
00000030: 169c ee3c c80e b2bc 1700 5e3e 8e1b 253d
00000040: 462f 833e e0e5 b43d d0b5 953d b675 8dbd
00000050: 699a ab3c d225 833e 7ddf c8bd c587 873e
00000060: 7872 15bd e44f e53d 9746 a3bd 30e7 a6bd
00000070: 5238 9ebd d27a e83d fcae 883d dda0 90bd
00000080: 44fd c73d d24c 5f3e a03c 413e 8767 733e
00000090: a72a 023e fbf5 1cbd cb14 b73c 7d43 523e
000000a0: 1298 093e 41a7 07bd 8536 523e 0c21 b2bd
000000b0: 15c4 4c3e d447 f23d b64e e3bd 8a6c f8bd
000000c0: 3f4b 293e 602c 873e 712f bc3d 0c3c 93bd
000000d0: 9646 003e 74e0 0f3e 1a8a 9a3d 782a 543e
000000e0: defd 373e 0d12 d73c a488 993d 5e83 34be
000000f0: f431 08bd 14fd 35bb afdb fd3d 0a94 eb3d
00000100: a8d4 8d3d ce7f db3d ab7f 27be 5266 6c3d
00000110: f5d5 13bd f722 63be 862c 923b 1f44 63bd
00000120: fc08 9cbd 8294 8ebe c820 863e cd75 acbd
00000130: 9601 aabc f223 3a3e e68c 89bb 6a84 3cbe
00000140: 6e53 84be df89 833d 801d b13b 06ba 3cbd
00000150: 2e5e 3a3e 2518 b8bd 7e45 603e 0dca 94bd
00000160: b1cc 66bd b993 debd 28ae 063e 9e0b 81bc
00000170: 616c 0b3e 6090 da3d 2116 853e 4e32 eebb
00000180: b388 1b3c 709b e93c 0a2e 02bd 13a0 343e
00000190: 90a0 503d 33e1 083e e478 7a3e 9025 343e
000001a0: 96cc 873b c167 5c3e 2894 29bc 9240 01bd
000001b0: 2ac8 403d 70bd e7bc 6036 49bd a9b3 133e
000001c0: a8df 633e 656e 4e3d ca91 cb3d fd84 65bd
000001d0: a56b d43d b171 c43d c25b 0a3d 1427 963e
-0.069643155 0.18611395 0.12351516 0.22424376 0.060306545 0.25377253 0.14368649 -0.09526524
0.050760157 0.23324533 0.17766656 0.027842265 0.029127162 -0.021735564 0.21679722 0.04030948
0.25622004 0.08832908 0.073100686 -0.06907217 0.020947652 0.25614792 -0.09808252 0.2647077
-0.03648612 0.111968786 -0.07972448 -0.08149564 -0.07725586 0.11351551 0.066740006 -0.07061932
0.097651035 0.21806648 0.18870783 0.23769961 0.12711583 -0.038320523 0.022348782 0.20533557
0.13436916 -0.03311849 0.2052861 -0.086977094 0.19996674 0.118301064 -0.11098997 -0.12130077
0.1653261 0.26401043 0.09188736 -0.071891874 0.12526926 0.14050466 0.07545872 0.20719326
0.17967936 0.026253724 0.07496765 -0.17628238 -0.033250764 -0.0027769255 0.12395417 0.115028456
0.069253266 0.10717736 -0.16357295 0.057714768 -0.036092717 -0.22181307 0.004460874 -0.055484887
-0.07618901 -0.27847677 0.26196885 -0.08420906 -0.02075271 0.18177775 -0.0041977046 -0.18409887
-0.25844902 0.06422781 0.005405128 -0.046075843 0.18199989 -0.0898898 0.21901509 -0.07265101
-0.056347553 -0.108680196 0.13152373 -0.01575261 0.13615562 0.106720686 0.25993446 -0.0072691804
0.009493041 0.028516501 -0.031782188 0.17639188 0.050934374 0.13367157 0.24460179 0.17592454
0.0041442616 0.21523954 -0.010350265 -0.03155572 0.04706589 -0.028288573 -0.04912412 0.14424004
0.22253287 0.05039825 0.099399164 -0.05603503 0.10372094 0.095919974 0.033778913 0.2932669

recurs2.weight_ih f4 [120, 30]
00000000: e34f 58bd 1d80 3c3d 74dd d0bb 8ecc 973e
00000010: e21d d13d 3458 9a3e 6dfe 0b3e eadc 8e3c
00000020: bd08 4fbe bcee 34be cffa e43d d9ac 15be
00000030: 2f3c 323e 697b bcbd bc38 2c3e afb9 09be
00000040: 6eb3 d23d 3d9c 11bc 644a 06be 5698 b0bd
00000050: 7cd5 11be 4542 b6bd a846 d63d 623f 2fbe
00000060: 8c4f b33e 47a2 e03c cf4f 853e f0c8 933d
00000070: 22fb 3ebe 3d2d f0bd 4409 13be db42 04be
00000080: c7cb 26bd 5863 893e 2d86 073e 6d8f f63d
00000090: b39c 11bd 8d90 163e 08fb f8bc 2001 2ebe
000000a0: e131 843d 4be5 8e3d 5e46 76bb aad7 ad3d
000000b0: 6224 8a3d dd44 033e 9028 8bbe 8455 a03d
000000c0: 7d25 9fbd d418 1abe a541 4ebe 8fe4 5c3d
000000d0: 2b10 1c3d 1f49 5fbe 1f7c 5d3e 7db7 fa3c
000000e0: 50cf fabd c2df 1fbd cf15 cc3d 3abd 5a3d
000000f0: 8528 a23d 3ca5 56bd d1e5 463e 0dfe 3f3c
00000100: a0a0 e0bc 8b38 303e 0626 5cbd e98a d33d
00000110: 485f 313e c294 97be 2469 00be 8194 cd3d
00000120: 35e5 0f3e 9f70 aabd 90b3 063e 7d03 2c3e
00000130: decf 32be 0ceb b53d c5ad 0b3e 4b5c 8fbd
00000140: f90a 9cbe 4702 ff3d a467 253d f4f9 1dbe
00000150: 370b 5c3e 9e3a 1fbb 2344 ebbc 3e16 26be
00000160: daa2 113d 7fc3 303c c277 043d ddae 0cbe
00000170: 79d9 993e 557e 9a3e 5b04 873d f65a 013e
00000180: 9bfc 703d 5388 f33d 4af6 c93b 1430 1ebe
00000190: c296 f7bd 1ff2 823c 8930 4ebc 25ac 93bd
000001a0: 50bb 3fbd 0dd1 fb3b d03e 523b 0a9e 62bd
000001b0: 104b ce3d 2872 4bbe eb06 3abc 58c8 cb3d
000001c0: 7ed2 513d bc37 f4bc bb47 e3bc 37ce 58be
000001d0: d58e 853b 7ecf 3abd 17c9 533d 3ba9 02be
000001e0: 3ac3 8e3e 1c17 a33d 165c 4d3c 3072 263e
000001f0: a5c3 18be b0bb 203e bb3a 6d3c 1ed3 0fbe
00000200: 3728 abbd 16c6 1b3d 9e5b 26bd 7df4 ab3b
00000210: 19df 113d 9f71 85be d51b 003e a003 473c
00000220: cec3 30be db91 a23c 73ac bd3d 0be7 4bbd
00000230: 14fa 92be 10ac f93d c009 88bd 8ed6 24be
00000240: d771 653e 7919 fe3c 3dc5 a03e 6c61 1d3e
00000250: 4a1c 14be d531 febb c79b 37bd 88d2 a8bb
00000260: 00b4 973e d6cc 673e fe42 1ebe aefd 4ebc
00000270: 380c 03be 73fc 6b3d 43a6 97bd cb6a 89be
00000280: 645c 92bd fc34 d33c d14f cd3d 283c 803d
00000290: c854 cf3d 5261 093e b628 0ebe b6c8 6f3d
000002a0: 96c8 40bd b4ed cd3d 30de 42bd 87c2 9cbd
000002b0: ab88 63bd dae1 8cbe 81c1 0e3d f707 57bd
000002c0: 2f47 843e 1282 86bd f621 c13d 3e52 e63d
000002d0: 2010 a7bd 42a9 bfbd 9a64 ed3d 75c6 3b3e
000002e0: c2a3 22be c021 bd3d b8d1 69be 35ea 84bd
000002f0: e72d b2bc 0581 603c 2f06 fe3c b5fd fa3d
00000300: d807 60bd cde8 593d 9049 e6bd 6151 02be
00000310: 9661 03be a220 62be 432e ad3d d42d 1bbe
00000320: 1380 85be 9593 47bc 68da ecbd e641 da3c
00000330: be66 273e 73bd d6bd 96ef 3c3e 1ad3 813d
00000340: d0ef 3dbe 0314 0bbd f819 463e 93be 4a3c
00000350: 865a fa3d 9e3a 383e 0795 15bd d855 103e
00000360: 4326 5cbe 7df8 ae3d 7601 c43c f61a 21bd
00000370: fb20 bb3d d9e6 e0bd 3802 203c c707 0dbe
00000380: d828 0b3e bbae 98bd 7c07 7fbc 86a9 34bd
00000390: a0eb b03d 5620 9cbe 80e7 1ebe 48dd df3d
000003a0: 3ce2 9cbd 167c 73bd 8571 683e 142f f3bc
000003b0: 7fc0 1d3e f405 753d 22ef 11be 688a 083e
000003c0: 9f45 ae3d 508d 2b3e c271 fa3d dd66 e53d
000003d0: 243c d63c a65f 8d3e 446a 073e c4b1 66be
000003e0: 10ce 8cbd 60a1 34be 4fb6 193e 4e6d 313e
000003f0: 2e97 83bd 6b76 10be 235c 573e 1a68 033e
-0.05281056 0.046020616 -0.0063740555 0.2964825 0.10210778 0.3014542 0.13671274 0.017439324
-0.20218177 -0.17669195 0.111806504 -0.14616717 0.1740577 -0.09203226 0.16818517 -0.13449739
0.1028813 -0.008887348 -0.13114315 -0.08622806 -0.14241594 -0.08899359 0.10462695 -0.17114022
0.35021627 0.02742113 0.26037452 0.0721606 -0.18650487 -0.117273785 -0.14359003 -0.12916128
-0.04072168 0.26833606 0.13234778 0.12039075 -0.03554983 0.14703579 -0.030393139 -0.16992617
0.06454826 0.06977328 -0.0037578563 0.084884 0.06745221 0.12819238 -0.27179384 0.07828811
-0.07770822 -0.15048534 -0.20142229 0.053928908 0.038101356 -0.21805237 0.2162938 0.030605072
-0.12246573 -0.03903175 0.09965097 0.053403117 0.07917885 -0.052403674 0.19423606 0.011718285
-0.027420342 0.1720907 -0.0537472 0.103292294 0.17321503 -0.2960568 -0.12540108 0.100380905
0.1405228 -0.08322262 0.13154435 0.16798206 -0.17462108 0.08882722 0.13640507 -0.07000025
-0.3047712 0.12451606 0.040382043 -0.15427381 0.21488653 -0.0024296413 -0.028719014 -0.16219422
0.035555698 0.010788797 0.032340772 -0.1373858 0.3004873 0.3017451 0.065926276 0.12632355
0.058834653 0.11891236 0.006163393 -0.15448028 -0.12089302 0.015984593 -0.012584814 -0.07210568
-0.046809494 0.007684833 0.0032080896 -0.0553265 0.10072911 -0.19867766 -0.011354188 0.09950322
0.05122613 -0.029811732 -0.027744165 -0.21172415 0.004075865 -0.045608036 0.051705446 -0.12759869
0.2788332 0.07963392 0.012534162 0.16254497 -0.14918382 0.15696597 0.0144793345 -0.14045379
-0.0835728 0.038030706 -0.040614717 0.005247651 0.035613153 -0.2606325 0.12510617 0.01214686
-0.17262194 0.01984494 0.09261408 -0.049780887 -0.2870642 0.121910214 -0.06642485 -0.16097471
0.22406708 0.031018006 0.3140048 0.15369195 -0.14463916 -0.0077574053 -0.044826295 -0.0051520504
0.29629517 0.22636732 -0.15455243 -0.012633724 -0.1279763 0.0576138 -0.07404759 -0.2683929
-0.07146528 0.0257821 0.100249894 0.06261474 0.101235926 0.13416031 -0.13882717 0.058541022
-0.047066294 0.10055104 -0.047575176 -0.07654291 -0.05555026 -0.2751606 0.03485251 -0.05249783
0.2583556 -0.06567778 0.09430306 0.11246155 -0.081573725 -0.09358455 0.11591454 0.18337424
-0.15882781 0.09234953 -0.22833908 -0.06489984 -0.021750404 0.013702636 0.031008808 0.12255422
-0.05469498 0.05320053 -0.112445 -0.12726356 -0.12830195 -0.22082761 0.08456089 -0.15154201
-0.26074275 -0.012181182 -0.11565095 0.026642751 0.16347787 -0.10485353 0.1845077 0.063390926
-0.18548512 -0.03395463 0.19345844 0.012374538 0.12224297 0.1799111 -0.036519077 0.14095247
-0.2149897 0.08543489 0.023926478 -0.039332353 0.0913715 -0.10981531 0.009766154 -0.13772498
0.135898 -0.07455202 -0.015565749 -0.044106983 0.08638692 -0.3049342 -0.15517998 0.10930878
-0.07660338 -0.05944451 0.22699554 -0.029685535 0.15405463 0.05982013 -0.14251378 0.13334048
0.08509373 0.16753125 0.12228729 0.1120126 0.026151724 0.27612036 0.13224131 -0.2252875
-0.06875241 -0.17639685 0.15010951 0.17326853 -0.064253196 -0.14107673 0.21031241 0.1283268

recurs2.weight_hh f4 [120, 30]
00000000: 0984 213d b99f c43d 0889 593e 4e41 12be
00000010: 754b a83d 7dbc b6bd 0f69 353e b22e dcbd
00000020: a7bb 253c 6938 143d a7e4 27bd c184 103d
00000030: 6b5e 79bd a607 0f3d 7ec5 bdbc 0060 d03c
00000040: 30cf e53d af95 cb3d 466a 02be bb76 14be
00000050: ab73 9cbc 59e0 9e3c cd85 7bbd 2439 e4bb
00000060: b2d8 7b3b 3230 5fbd 54fb 32bd 47c9 79bd
00000070: 06ee 16be a365 003e dea7 c3bc 0534 b8bd
00000080: d277 1dbe 3aa8 553d dfe0 63bd aeb4 333d
00000090: d1e3 af3c 1ba9 69bd ac8d a6bd f724 8c3d
000000a0: 3063 71be 5d3a a7bd ab4b a4bd 0a4b 05bd
000000b0: cde2 193e 7a58 143e a3dd 663e 01c2 c7bd
000000c0: 7ad1 d2bd a04c 023d 4420 4e3e d877 2ebd
000000d0: 3eec f5bd c08f 29be 913a bdbd 161b d8bd
000000e0: 32d1 28be ec1b efbb 30d8 803c 2e2f b33d
000000f0: f562 09be d3e7 9fbd b29f 2a3e a03c 3abd
00000100: 0179 1d3e 00cb ecbd 0ba2 57bc a157 9c3c
00000110: 37f0 2abd de79 84be 5e25 a23d a291 8dbd
00000120: d976 2fbc aef4 c73c f408 433e c637 123d
00000130: dd26 f73d e83b 93bc d113 f23d c049 6f3d
00000140: 9486 1b3e 2a07 2b3d 8fb6 50be 6595 3e3d
00000150: bec5 49be a8e3 71be aefd db3b fb51 15ba
00000160: b086 e6bd c088 4e3e a475 48bd 7538 743c
00000170: 5ff5 5f3e 1b26 be3d ff3a a6bd b71e c23c
00000180: d36b 86bd d708 32be 67af 31bd 3c36 77bd
00000190: d83d 75be 2188 d2bd 4b3e 7fbe a3ca 49bd
000001a0: 69d8 143e 092c 893b 3b19 293e bb66 0b3e
000001b0: 6be1 9c3d 2540 89bc 1f3c 053d 816b 0f3e
000001c0: 9e08 3fbe 49fa bebd 1ab7 553d 22e9 68bd
000001d0: ae20 1bbc f3ab 4e3e 98e2 0e3e 7ec8 0a3e
000001e0: 7b4c 053e c6cf 463e 1176 0ebd cd57 733d
000001f0: 6e84 cb3d b878 b33d 3691 5d3e 7c15 16be
00000200: 8ed2 503d ae37 013e abb2 69be 804a b6bd
00000210: deff 273d 8f63 003e a545 883e 5f24 ec3a
00000220: df97 253e f6a3 24be 5c09 15be e7be b9bc
00000230: 6695 92bc c683 f93d a632 6cbd 75ef 223e
00000240: 9541 89bd d412 d63b c0d6 4cbd 1677 483e
00000250: c7d2 b53c 45ee 663e 4c6a 46be f425 41bd
00000260: bdf0 323e 55c6 143e ee25 26bd 83f1 373e
00000270: f6ce 0e3e edce 25be 85e3 023d 5ed2 e23d
00000280: 1969 2dbe 1520 073e 457f 07be 0f12 d7bd
00000290: 28e2 27bb d776 4cbd ce6f 6d3e c23d e73d
000002a0: b3c5 bf3d 2c5e 483d 28eb f03d ca2a 993c
000002b0: 1b22 63be 74f0 0ebe c657 e9bd 1efa b23d
000002c0: de23 d2bd df5f b43c 26c6 693d 35cb 8f3e
000002d0: 1b97 f0bc 1fd5 0b3e 0fff c4bd 70c6 4ebe
000002e0: 2bba 2cbd a303 3a3d 3126 063e 5f73 a83d
000002f0: df14 3a3e 3071 cdbd 7a1e 72bc c769 2c3e
00000300: 03c5 02be 6f27 013e ea8b dabd 332a ae3d
00000310: 6883 fd3d 32cb 1c3e 7e20 57bc eb84 11bd
00000320: abc5 2dbd 08cc 7f3e 5943 e3bc 5980 a4bd
00000330: e08d 61bb 9cac 973d 6b8d b7bd 7629 15be
00000340: a53a 85bd e2a4 da3d d37f e6bb 9308 183d
00000350: 97cd fa3d d3ad 523c 14ee 193e 2f05 afbd
00000360: f105 503e 9e1e 5f3a f4df 183e 1aa9 433d
00000370: 7b3d 75be 2ab0 f73d 6e93 0ebe 0e90 f1bd
00000380: 6dc9 443e 9f9b 883d b0f9 38bd 3821 ddbd
00000390: 1996 143e 0945 70be 9ef7 ff3d a870 003e
000003a0: 6981 09be 27d3 8b3d bf5d 39be 811c 3bbd
000003b0: 3fd5 edbd 4bc4 f53d c453 cabc 1c0e 6fbd
000003c0: cafa 7dbd 62f0 483e 4e7a 18bd 457e 1a3e
000003d0: 28ce 0d3e d2f3 03bd e61c 633d ebc8 ea3d
000003e0: 70f7 22ba ce8e 6dbd 3a97 81bd 0525 203d
000003f0: 1f30 4bbe a2aa a5bd 36bb 863e b214 cd3d
0.03943256 0.09600777 0.2124368 -0.14282724 0.08217517 -0.0892267 0.17715858 -0.10751094
0.010115541 0.03618661 -0.040989544 0.035282854 -0.06088106 0.034919403 -0.02316546 0.025436401
0.112211585 0.09940659 -0.12735853 -0.14498417 -0.019098124 0.019394087 -0.0614069 -0.0069648195
0.003842872 -0.054489322 -0.043696716 -0.06098297 -0.14739236 0.12538771 -0.023883756 -0.08994297
-0.15377739 0.052162386 -0.055634376 0.04387348 0.021470936 -0.057046037 -0.081324905 0.06842988
-0.23572993 -0.08165429 -0.08022245 -0.032542266 0.15027924 0.14486876 0.22545485 -0.097538
-0.10293861 0.031811357 0.20129496 -0.04259476 -0.1200795 -0.16558743 -0.09239686 -0.10552041
-0.16486052 -0.0072970297 0.015728086 0.08749233 -0.13416655 -0.07807889 0.16662481 -0.045467973
0.1537819 -0.11562157 -0.013161193 0.019084753 -0.041732993 -0.25874227 0.079172835 -0.06912543
-0.010709488 0.024408665 0.19046384 0.03569772 0.120679595 -0.017972901 0.11820186 0.058419943
0.15188056 0.04175488 -0.2038214 0.046529192 -0.19704339 -0.23622 0.0067135906 -0.0005696115
-0.11256158 0.20169353 -0.048940316 0.0149060385 0.21870945 0.09284612 -0.08116721 0.023696287
-0.065635346 -0.17386185 -0.043380167 -0.060354456 -0.23949373 -0.10279871 -0.24926107 -0.049265515
0.14535679 0.0041861576 0.16513531 0.13613407 0.076601826 -0.01675422 0.03252804 0.14005853
-0.18655631 -0.09325082 0.052176572 -0.056862958 -0.009468241 0.20182781 0.13953626 0.13553044
0.13017456 0.19415197 -0.034780566 0.059409905 0.09937368 0.0876326 0.21637425 -0.14656633
0.05098205 0.12618896 -0.22822063 -0.089009285 0.0410155 0.12537979 0.26615635 0.001801621
0.16171215 -0.16078171 -0.14554352 -0.022674037 -0.017893504 0.12183337 -0.05766549 0.15911658
-0.06701962 0.006533006 -0.05000949 0.19576678 0.022195233 0.2255183 -0.19376487 -0.047155336
0.17474647 0.14528783 -0.040563516 0.17963223 0.13946137 -0.16192217 0.03195526 0.110752806
-0.16934623 0.13195832 -0.13232143 -0.10501491 -0.0025616977 -0.049918022 0.23187181 0.11291076
0.0936388 0.048917934 0.117636025 0.018697161 -0.22180979 -0.13958913 -0.113936946 0.08739112
-0.102607474 0.022018371 0.057073735 0.28084722 -0.029368928 0.13655518 -0.09618961 -0.20192885
-0.04216973 0.045413624 0.13100506 0.0822513 0.18172024 -0.100313544 -0.014777774 0.16837226
-0.12770467 0.12612699 -0.10671218 0.085041426 0.123785794 0.15311888 -0.013130305 -0.03552715
-0.04242484 0.24980175 -0.027742075 -0.08032293 -0.003441684 0.074059695 -0.0896252 -0.14566597
-0.06505326 0.1067598 -0.007034281 0.037117552 0.122462444 0.012858826 0.15032226 -0.085459106
0.20314766 0.0008511337 0.14929181 0.04776869 -0.23949234 0.120941475 -0.13923427 -0.117950544
0.19217463 0.06670307 -0.045159996 -0.107973516 0.14510383 -0.23463835 0.12498401 0.12542975
-0.13428272 0.068273835 -0.18102168 -0.04568148 -0.11612939 0.120003305 -0.024698146 -0.058363065
-0.06200675 0.19622949 -0.037226014 0.1508723 0.13848174 -0.032214947 0.05544748 0.11464103
-0.00062166806 -0.057997517 -0.06327672 0.039097805 -0.19842575 -0.08089186 0.26314706 0.10013713

recurs2.bias_ih f4 [120]
00000000: 8fee a93e aa2c 973e 9522 263d f282 373e
00000010: a0b4 5b3d 9ddf 823d d445 d83d 055a ac3e
00000020: f172 193e 83ba 803e 41b0 0fbb 2c68 1b3e
00000030: 8112 443e c09c 083d 78b5 303e 242f 193e
00000040: 7f02 963e ae16 223e b3b0 0c3e 1d4a 873e
00000050: e373 bf3d c8cf 953e 1c1b 893e 9073 833c
00000060: 3d81 493e 3029 613d 8f14 9f3e 7775 0c3e
00000070: 1ca2 063e c375 9a3e f799 053e d29d 433e
00000080: 4aa7 613c b1c4 c1bc 74a8 b93d ed99 893e
00000090: 3e98 453e 5efe 833c 9009 7d3e 63bf 9ebd
000000a0: 9b20 623e 0810 c93c d202 f5bc 61f5 0c3e
000000b0: 17e7 673e 0ca1 603e 7ec1 0d3d 490d bc3d
000000c0: 57c4 153e c035 823d 4419 173d c475 6d3e
000000d0: c7e3 1f3c a5c0 843e 6e42 3dbd 9629 a1bb
000000e0: 4e92 123e 920b 243c 99c9 2cbd ea40 8d3d
000000f0: 9c71 c9bd 685d eb3d bb43 133e 1b15 81bd
00000100: c529 013e cde0 193e b17d fa3d a9b8 03be
00000110: 31dd 01be 410f dcbd 7bba 44bc fac2 773d
00000120: 3390 51be 1d70 173e 559c 923e 70f2 173d
00000130: e54b f53c fd63 d23c 9f4d f7bd b303 33be
00000140: 32dd 3a3e 7918 733e d1bc d23c fd0e 1abe
00000150: 464c 2a3c fe7c 23be f315 0c3d 4db6 4b3e
00000160: f07e 523e 30a0 6a3e ebb6 5c3e 2386 a93e
00000170: 6fa2 ee3d 2e4c 533e 0250 a63c 93f8 833e
00000180: 042c 573e 6e43 793e 2661 8e3e d3ba 633e
00000190: 7d95 03bd 355e 0c3e 7409 ef3b 1887 993e
000001a0: 0025 c53d 038f 2d3d cb80 823e cbc4 8d3d
000001b0: 08ce 2b3e 4958 903e ca2a 623e d6bc 6e3e
000001c0: ab03 133e fce4 d83d c176 3f3e c7ad cbbd
000001d0: 4576 dc3d b6e6 913e 457e 873e 9575 04bd
0.33189818 0.29526263 0.040560324 0.17921045 0.053639054 0.06390307 0.10560194 0.3366243
0.14985253 0.25142297 -0.0021925124 0.15176457 0.19147684 0.033352613 0.17256725 0.14959389
0.2929878 0.15828964 0.1373928 0.2642373 0.093482755 0.29260087 0.26778495 0.016046315
0.19678207 0.05497092 0.31070372 0.13716684 0.13147777 0.3016797 0.13047014 0.19103172
0.013772795 -0.02365336 0.09065333 0.2687525 0.19296357 0.016112503 0.24710679 -0.07751348
0.2208275 0.024543777 -0.029908571 0.1376548 0.22646748 0.21936435 0.034608357 0.091822214
0.14625679 0.06357908 0.03688933 0.23189455 0.009758896 0.25928226 -0.04620593 -0.0049182875
0.14313623 0.010012524 -0.042184446 0.06897147 -0.098361224 0.11492425 0.14381306 -0.06302854
0.1261359 0.15027161 0.12231005 -0.12863411 -0.12682034 -0.10745097 -0.012007351 0.06048868
-0.20465164 0.14788862 0.28634897 0.03709644 0.029943416 0.025682444 -0.12075352 -0.1748188
0.18248442 0.23739804 0.0257248 -0.1504478 0.010394162 -0.1596565 0.03420062 0.19893761
0.20556235 0.22912669 0.21554153 0.3311015 0.116520755 0.20634529 0.020301823 0.25775585
0.21012884 0.24342129 0.27808493 0.22239237 -0.032124985 0.13707812 0.007294828 0.2998588
0.09626198 0.042372715 0.25488886 0.06922301 0.16777813 0.28192356 0.22086635 0.23314223
0.14356868 0.1059055 0.18697645 -0.09945255 0.107647456 0.2849633 0.26463524 -0.032338697

recurs2.bias_hh f4 [120]
00000000: 2557 5e3e 5974 a33e b2d8 863c 805a 3f3e
00000010: 2861 9d3d 971f 203e e0db 383d b727 aa3e
00000020: 28e5 813e 8fda 163d 90f3 a63c 2d6a bc3d
00000030: 7bcd 153e 60df 2a3e beaf be3d 5463 1f3d
00000040: ba5a 123e acca 143d 16e2 533e 53ee 84bb
00000050: b803 043e 8aa3 ad3c a283 2c3d 5245 003e
00000060: 54a2 af3d ec86 98bc 3e0e 413e 049a 8a3d
00000070: af60 343e eb5e 633e ac94 a93d 964b b7bd
00000080: 7dab fa3c b036 f03d 097b ea3d 4d17 fdbc
00000090: 0772 3a3e 43ba 0e3e 1faa d93d a3cf 3e3d
000000a0: 7b2c a33c 64be cf3d 4456 433e b5bc 773d
000000b0: 7a11 1f3e 9e15 573e da85 503e 1a79 413d
000000c0: ff1e 0e3e 7145 003e ed9d 063e 8201 b83b
000000d0: e249 ab3d 1441 173e 6c1d 84bd 4806 e03d
000000e0: 323b d1bc 752e 313e 12f1 6e3d cf49 173e
000000f0: 00c8 1dbe ccbb fc3d 13ee 313e b13c 063e
00000100: 425d a23d be55 83bd 0790 2c3e 7cfd 1e3d
00000110: dfc1 1dbe ddc5 d6bd 44cf 8fbd 623b 233d
00000120: dc13 f9bc b93d 103e 43f6 b83d b11f af3c
00000130: 05eb e5bb 798f d53d 7fff 14be 21ea 103e
00000140: 98b9 82b8 5336 423e c542 bdbd c72d 6bbd
00000150: 4268 1d3c ab4c 7bbd 16fb 13be 21dd 07be
00000160: dec1 03be 155c 803e 1d64 873e 6fd2 bd3d
00000170: 923e 873e 7a32 403e c9ab 0a3e 653b 913d
00000180: 2d5c d93c 276a 953e 667f a83e a468 eebd
00000190: fa07 273e 6447 6b3e a94c 5b3d 002d a43d
000001a0: 3347 0bbd 193f 823e d247 b43e 8fd5 7b3e
000001b0: 9cff 103e 500e 693e 1068 273a 1e29 d23c
000001c0: 2a0a 513e e34a 903e b68f 423e 2772 db3c
000001d0: 1395 423e 9ff6 13bd 6b34 903e e480 bd3c
0.2171293 0.31924704 0.01646075 0.18686867 0.07684547 0.1563705 0.045131564 0.33233425
0.25370145 0.036829527 0.020379812 0.09199939 0.14629166 0.16686773 0.09310864 0.038913086
0.14292422 0.036326095 0.20691714 -0.004056731 0.12892044 0.021196146 0.042117722 0.12526444
0.085758835 -0.018619023 0.18853089 0.067676574 0.17615007 0.22204177 0.0828031 -0.08949964
0.03059935 0.11729181 0.11449248 -0.0308949 0.1820756 0.1393824 0.10628151 0.046584737
0.01991867 0.10143736 0.19075876 0.0604827 0.1553401 0.2100434 0.2036356 0.047234632
0.13879012 0.1252649 0.13146181 0.005615414 0.083637014 0.14770919 -0.06450924 0.10938698
-0.025540922 0.17302878 0.05833537 0.1477425 -0.15408325 0.12340507 0.17375974 0.1310909
0.07927944 -0.064128384 0.16851817 0.03881596 -0.15405987 -0.10486958 -0.07021955 0.039851554
-0.030404978 0.14086045 0.09031346 0.021377416 -0.007016542 0.10427756 -0.14550589 0.14151813
-6.2334526e-05 0.18966036 -0.09241251 -0.057416704 0.0096073765 -0.061352413 -0.1445125 -0.13267948
-0.12866923 0.25070253 0.26443568 0.09268653 0.26414925 0.18769255 0.13542093 0.07091407
0.02653321 0.2918255 0.32909697 -0.11641052 0.16311637 0.22976452 0.053539906 0.080163956
-0.034003448 0.25438765 0.35211045 0.24593185 0.14160007 0.22759366 0.0006386051 0.025654372
0.20414034 0.28182134 0.19000134 0.02678783 0.1900218 -0.036123868 0.28164992 0.023132749

output.weight f4 [2, 30]
00000000: e753 acbd aac0 60bd 92df 0d3e 7404 65bd
00000010: 1a6c 333c 3125 b7bd d5d4 0b3e a0ad 0ebe
00000020: 26da 0ebe 5b4d 69be 0540 fc3c 9a92 8e3d
00000030: 67b0 54be 24ac dabc cb97 803e d48b 823d
00000040: 3047 553e f3ce 1bbd 18d3 f9bc b22b a63d
00000050: e861 fd3d 5725 ddbc 4539 5abd 8d74 d93d
00000060: 6187 423d 5be7 c8bd 2675 80be d1fc 243e
00000070: 570d d0bc a43b 9e3d 887b a23e 4951 853e
00000080: a55a 663e 6eb5 8c3e e795 3abe be49 5c3e
00000090: 9f93 51be ec17 683e 7b6b 873e ba3e a73d
000000a0: 16ab 64be 7a5e 48be 865c 43be 7890 8bbe
000000b0: 5666 353e c387 9e3e e265 6e3e 3539 8bbe
000000c0: f282 993e 2eb7 94be f508 533e 25e2 053e
000000d0: 2bd5 6c3e 0114 503e 4e5a c3be ceb6 033e
000000e0: ccc1 3ebe 7606 88be 17d0 a03e 7583 283e
-0.084144406 -0.05487124 0.13854817 -0.05591245 0.010951066 -0.089426406 0.13655408 -0.1393342
-0.13950405 -0.22783415 0.030792246 0.06961556 -0.20770417 -0.026693411 0.2511581 0.06374326
0.20827937 -0.03803916 -0.030496165 0.08113803 0.1237219 -0.026995344 -0.053277273 0.106179334
0.04749239 -0.098097526 -0.25089377 0.16112067 -0.025396986 0.07726219 0.31734872 0.26038578
0.22495516 0.2748217 -0.18221246 0.21512505 -0.20466469 0.22665375 0.2644919 0.08166261
-0.22330889 -0.1956729 -0.19078264 -0.27258658 0.1771482 0.30962953 0.23281053 -0.27192083
0.29982716 -0.29046005 0.20608886 0.13074549 0.23128192 0.20320131 -0.38154835 0.12862703
-0.18628615 -0.2656743 0.3140876 0.16456397

output.bias f4 [2]
00000000: 880c 063e 6b74 043d
0.13090718 0.032337587

switch.weight f4 [1, 30]
00000000: eec7 ff3d d34b 83bd 3c28 d3bd d88a 79bd
00000010: 88a5 48bd ae91 953d e299 f8bc d1b0 b33d
00000020: 3674 10be 6f0c 9b3c 4385 0f3e 35f8 c1bc
00000030: 7d28 1a3e 8040 543d 6306 37be 517d dfbd
00000040: 2da3 103e f385 08bd a14b 363e 7f51 31be
00000050: 14b2 c0bd 6a4f 103e c8f6 273e 672b 25be
00000060: 65cf 613d 2588 31be 3314 02be d596 ab3d
00000070: ab76 c1bd ac40 90bc
0.124893054 -0.06410947 -0.103104085 -0.060923427 -0.048985988 0.07303177 -0.030346815 0.087739594
-0.14106831 0.018926827 0.14015679 -0.023677925 0.15054508 0.051819324 -0.1787353 -0.10912574
0.14124747 -0.03333087 0.17802288 -0.17316245 -0.09408966 0.14092794 0.16402733 -0.16129838
0.055129427 -0.17337091 -0.12703018 0.08378378 -0.09446462 -0.017608963
