checkpoints/VQE-H2-221714b8/.pth (torch, 49793 bytes, 11 tensors)

recurs1.weight_ih f4 [120, 2]
-0.05035825 0.21222718 -0.22651061 -0.08247945 -0.12237771 -0.038891453 -0.05106563 0.09239504
-0.10978896 0.05101405 -0.122043185 0.07686797 -0.251918 -0.12188399 -0.11638809 0.079671346
0.006154447 0.21109053 -0.19654123 -0.16052087 -0.03175435 0.14946683 -0.10851216 0.1431758
-0.11987993 -0.060057223 0.12546748 -0.07834205 -0.13347249 0.06631399 -0.13445434 0.09952423
-0.18812098 -0.13971998 -0.21619312 -0.21366887 -0.1556603 0.23694932 0.023017205 0.1897204
-0.026160529 -0.1044329 -0.047172874 -0.17941187 -0.17304689 -0.17861675 0.015004102 0.0092525445
-0.12829739 0.031697385 0.05989346 0.29283002 0.02940064 0.11409808 0.06793803 -0.12820661
-0.038687665 -0.10474828 -0.22829482 -0.10754673 0.04020819 0.18982 -0.16972542 0.10997501
0.052926723 -0.116350435 -0.029040413 -0.020845905 0.043932963 0.1951242 -0.19591847 0.047332603
0.016060332 0.15594497 0.127339 0.24467075 -0.015125032 -0.049794067 -0.035803456 -0.19739842
-0.23756458 0.1672519 0.085755296 -0.16239284 -0.04060907 -0.12201585 -0.065575324 0.005022869
0.055742987 0.0055905003 0.023464505 0.03472772 0.0805195 0.012423682 -0.2446253 -0.16167404
0.0528601 0.12982084 -0.19734067 -0.0051361592 0.13740708 0.10661809 -0.14074393 -0.053793147
-0.20369633 -0.08386656 -0.2187112 -0.23989625 -0.0525857 0.099449135 -0.1252325 0.22026789
-0.15003483 0.2605043 0.08748846 -0.17842944 -0.10448883 0.043590296 -0.050086156 0.0302048
0.041613854 0.12554328 -0.072349496 0.19612916 -0.21316034 -0.19442531 -0.08464296 -0.14624675
-0.06431712 -0.26652867 -0.068077736 0.15264551 -0.12879331 -0.12091529 0.13033278 -0.12465411
0.02126255 -0.13259014 0.07390268 0.21274124 0.17244056 0.23098493 0.17647117 0.09839716
-0.18393861 -0.19532558 0.166058 -0.06136624 -0.12525105 -0.044177536 -0.19184506 -0.24490106
-0.009753663 0.2022372 0.07097163 -0.2734185 0.09665057 -0.24818788 -0.011390188 -0.17786607
0.003024859 -0.023657355 -0.1856459 -0.26944238 -0.075464666 -0.10834301 -0.0628501 0.18418425
-0.21637839 0.01866355 0.18188682 -0.18707325 0.11070043 0.12476279 -0.13368528 0.21059759
-0.028579187 -0.19532032 0.13858382 -0.26514933 -0.029444419 0.07953927 0.061552424 0.09263098
0.030054303 -0.026644679 -0.08806734 -0.109773174 -0.24115993 0.10801341 0.086497225 0.24196635
-0.20006996 0.019269343 -0.16956836 -0.020859038 -0.1658624 0.1707886 -0.17770986 -0.09318746
-0.081844345 0.12544534 -0.20090862 -0.10021328 -0.20082192 0.03711277 -0.09906057 0.24679786
0.05256591 0.13955836 -0.05764655 -0.09789275 -0.04191122 -0.10558285 -0.08936635 -0.024653506
-0.18938717 0.0044681514 0.0854487 -0.042184904 -0.05300929 0.15174685 -0.0089152865 -0.0061299726
-0.19374496 0.010746948 -0.2233745 -0.15560648 -0.10665028 0.03053678 -0.053171463 0.26665676
-0.017953847 0.25619775 0.06304026 -0.15068391 0.0123296315 -0.08933572 -0.17676157 0.037637495
00000000: 7444 4ebd 1552 593e 66f2 67be fcea a8bd
00000010: 2aa1 fabd a54c 1fbd 322a 51bd 9c39 bd3d
00000020: 09d9 e0bd 1cf4 503d c7f1 f9bd f46c 9d3d
00000030: 65fb 80be 509e f9bd e15c eebd bb2a a33d
00000040: 3eab c93b 1e28 583e 1b42 49be 955f 24be
00000050: d910 02bd d50d 193e a03b debd ad9c 123e
00000060: 9c83 f5bd 90fe 75bd 8c7a 003e cc71 a0bd
00000070: 03ad 08be a1cf 873d 66ae 09be 5cd3 cb3d
00000080: c9a2 40be c112 0fbe bb61 5dbe 03cc 5abe
00000090: 6a65 1fbe d8a2 723e 948e bc3c 1146 423e
000000a0: 9b4e d6bc ebe0 d5bd 5838 41bd bfb7 37be
000000b0: 3433 31be 4fe7 36be c4d3 753c fc97 173c
000000c0: 6460 03be 1ed5 013d d852 753d d1ed 953e
000000d0: 9cd9 f03c 41ac e93d 1823 8b3d 9848 03be
000000e0: f576 1ebd 4486 d6bd 1ec6 69be 7641 dcbd
000000f0: 58b1 243d 2d60 423e 80cc 2dbe 943a e13d
00000100: b1c9 583d 2349 eebd 29e6 edbc 08c5 aabc
00000110: 0df3 333d a3ce 473e da9e 48be d5df 413d
00000120: f590 833c 0ab0 1f3e 2865 023e f88a 7a3e
00000130: fbce 77bc ddf4 4bbd a5a6 12bd d022 4abe
00000140: 2144 73be 1544 2b3e 79a0 af3d 4f4a 26be
00000150: b255 26bd 72e3 f9bd 5b4c 86bd e196 a43b
00000160: c252 643d 8430 b73b a238 c03c a73e 0e3d
00000170: 68e7 a43d b38c 4b3c 0e7f 7abe e18d 25be
00000180: d583 583d c1ef 043e ac13 4abe 3a4d a8bb
00000190: 71b4 0c3e 965a da3d 2d1f 10be 3456 5cbd
000001a0: c595 50be 3bc2 abbd d4f5 5fbe 5da7 75be
000001b0: 1a64 57bd fdab cb3d f33c 00be e88d 613e
000001c0: bba2 19be d260 853e 262d b33d 35b6 36be
000001d0: 3dfe d5bd bd8b 323d 2427 4dbd 0f70 f73c
000001e0: 4a73 2a3d 6b8e 003e f92b 94bd 15d6 483e
000001f0: b446 5abe 6e17 47be 4a59 adbd b5c1 15be
00000200: b2b8 83bd 7276 88be 576c 8bbd 1b4f 1c3e
00000210: 65e2 03be 70a2 f7bd f575 053e a74a ffbd
00000220: cd2e ae3c b6c5 07be 4a5a 973d d7d8 593e
00000230: 4294 303e 5087 6c3e dcb4 343e 7384 c93d
00000240: 675a 3cbe 6e03 48be 1c0b 2a3e 2b5b 7bbd
00000250: d041 00be 81f3 34bd 0873 44be 58c7 7abe
00000260: d4cd 1fbc 4517 4f3e 9359 913d 82fd 8bbe
00000270: bcf0 c53d f724 7ebe e99d 3abc 8622 36be
00000280: b63c 463b 12cd c1bc f519 3ebe 5af4 89be
00000290: 388d 9abd f1e2 ddbd 8eb7 80bd cc9a 3c3e
000002a0: 4c92 5dbe 4de4 983c 8a40 3a3e 2190 3fbe
000002b0: e8b6 e23d a283 ff3d cbe4 08be e5a6 573e
000002c0: e61e eabc 0d02 48be ebe8 0d3e a7c1 87be
000002d0: 6c35 f1bc 7ce5 a23d 651e 7c3d 50b5 bd3d
000002e0: 7134 f63c f145 dabc a65c b4bd c2d0 e0bd
000002f0: a1f2 76be 2236 dd3d 7525 b13d 07c6 773e
00000300: 24df 4cbe beda 9d3c 54a3 2dbe 93e0 aabc
00000310: d5d7 29be 35e3 2e3e 93f9 35be 11d9 bebd
00000320: 029e a7bd be74 003e fdba 4dbe 9f3c cdbd
00000330: 43a4 4dbe 8f03 183d 45e0 cabd 94b8 7c3e
00000340: 5a4f 573d 63e8 0e3e ca1e 6cbd fe7b c8bd
00000350: 19ab 2bbd d23b d8bd b405 b7bd 26f6 c9bc
00000360: b6ee 41be 9269 923b baff ae3d 14ca 2cbd
00000370: 4520 59bd 8763 1b3e 6c11 12bc f0dd c8bb
00000380: 1465 46be f813 303c 49bc 64be 4e57 1fbe
00000390: 766b dabd 4528 fa3c 52ca 59bd 3c87 883e
000003a0: f213 93bc 5a2c 833e 401b 813d e24c 1abe
000003b0: 3902 4a3c a5f5 b6bd fc00 35be c629 1a3d

recurs1.weight_hh f4 [120, 30]
0.11132956 0.21285291 -0.070196435 0.038160086 0.011434663 -0.11929986 0.060025856 -0.20971797
-0.053808335 0.00077120506 -0.01336088 0.09322255 0.09154729 -0.10561314 -0.06872942 -0.14328478
-0.10731485 -0.02346568 -0.14504522 -0.18041913 -0.15640911 0.028207283 0.07088025 0.20108934
0.11392919 -0.11946243 0.007924729 0.1247613 0.07400399 -0.039238773 -0.02517135 -0.02984966
-0.1034188 0.110672556 -0.12613212 -0.09261304 0.14668901 -0.17479777 -0.08512976 -0.009930261
0.034502506 -0.12064358 -0.12585106 0.07569086 0.091913335 0.1720291 -0.084655255 0.04733647
-0.109901145 -0.071830906 -0.19263455 0.04143949 0.087588355 -0.047745295 0.025806857 -0.1844551
0.20027325 -0.14616302 0.03962196 -0.084135026 -0.12797557 -0.054764 -0.030846037 0.104065746
0.104539275 -0.18082432 0.08655433 0.14001444 0.13353254 -0.08247405 -0.22539878 -0.08325188
0.14673713 -0.09517827 0.09760689 0.1846801 -0.1580412 0.0736369 0.1439853 0.04126045
-0.033983674 0.08657095 -0.080156475 -0.050113406 0.16593097 0.20758629 0.10947117 -0.0367612
0.14796434 -0.020508194 -0.14012146 -0.18192452 0.23160706 0.16548139 -0.10618823 0.07812248
0.15883528 0.2032771 0.17523704 0.10084549 -0.06152272 -0.08591419 0.21176459 0.050254367
-0.06282394 0.20761544 0.043475237 0.14498802 -0.10002716 0.028942617 -0.11254875 0.16998519
0.025941815 0.027698979 0.08655179 0.068756744 -0.02450511 0.05024766 -0.10307887 0.06762206
-0.047245465 -0.14761896 -0.06422862 0.23406616 0.09618406 0.25333315 0.14815362 -0.21182974
-0.18550201 -0.10746775 -0.11335018 0.11774981 -0.09043058 -0.1795451 -0.08883878 -0.070880264
0.11214279 0.15608588 0.061679292 0.06914655 0.066508144 -0.041373387 0.118757434 0.09957884
0.15023029 0.09803257 0.18408246 0.092065625 -0.073021434 0.08989043 0.08184037 0.04660371
-0.08767814 -0.044788666 -0.2303612 0.18665469 0.05926024 -0.084689155 -0.1681785 0.16869053
0.21005747 0.081951775 -0.1330237 0.10249148 0.12784481 -0.22178663 0.2530566 0.025208736
-0.13060647 0.0335341 -0.17299128 -0.108197734 0.13584563 0.035513636 -0.06595642 -0.12709387
0.017430041 0.037275508 -0.06086066 0.069177836 0.07948613 -0.08265493 0.08542097 0.16315973
0.08023343 -0.09319217 -0.034847584 -0.18220162 -0.13309622 -0.0033018398 -0.11340108 0.06416625
0.19633809 -0.06910159 -0.04141458 -0.03590219 0.01070634 -0.14204904 0.026384573 -0.22512986
-0.25495273 -0.17834046 0.0023204447 0.0700681 -0.09675944 0.07629953 0.0016324354 0.03910266
0.0012424622 -0.17148492 0.19912061 0.15780637 0.20798162 0.1274662 -0.16503106 0.20160379
-0.020837938 0.041535378 -0.19217053 -0.07714147 -0.1354016 -0.050256368 0.027158745 -0.1916608
0.10591609 0.08900639 0.03166547 -0.15711357 -0.19489796 -0.10662664 0.037420876 0.1393951
0.10911842 -0.017787738 0.1072097 -0.23109369 -0.104535595 0.102879524 -0.1494655 0.038846377
-0.06623106 -0.002435319 -0.120707676 0.14923139 -0.095107265 0.20538345 0.049589433 0.040710952
-0.05547124 -0.054750778 0.039793625 0.081732854 0.06713489 -0.19459042 0.2137275 -0.059791286
00000000: c100 e43d 1df6 593e 26c3 8fbd c04d 1c3d
00000010: 7458 3b3c 7c53 f4bd acdd 753d 4fc0 56be
00000020: 2166 5cbd b22a 4a3a 98e7 5abc 77eb be3d
00000030: 257d bb3d b44b d8bd 03c2 8cbd 3fb9 12be
00000040: e3c7 dbbd 193b c0bc bc86 14be cbbf 38be
00000050: b629 20be f612 e73c aa29 913d 5dea 4d3e
00000060: b553 e93d b8a8 f4bd b9d6 013c da82 ff3d
00000070: 678f 973d d6b8 20bd 2634 cebc 4687 f4bc
00000080: 3ccd d3bd 4ba8 e23d c728 01be e8ab bdbd
00000090: a535 163e 30fe 32be 8358 aebd 89b2 22bc
000000a0: 8052 0d3d fb13 f7bd 1adf 00be cf03 9b3d
000000b0: 0f3d bc3d 6528 303e bc5f adbd e3e3 413d
000000c0: da13 e1bd 151c 93bd fe41 45be 74bc 293d
000000d0: 8661 b33d 9290 43bd e768 d33c cce1 3cbe
000000e0: 6e14 4d3e c2ab 15be a34a 223d fc4e acbd
000000f0: 070c 03be 3750 60bd d4b0 fcbc 6c20 d53d
00000100: b018 d63d 032a 39be 6643 b13d f25f 0f3e
00000110: c1bc 083e 28e8 a8bd f0ce 66be f67f aabd
00000120: 4242 163e d3ec c2bd 1fe6 c73d c81c 3d3e
00000130: 8dd5 21be f1ce 963d e270 133e b800 293d
00000140: 7732 0bbd 1c4c b13d 1429 a4bd b743 4dbd
00000150: cfe9 293e 8091 543e 6c32 e03d e992 16bd
00000160: f783 173e cd00 a8bc 007c 0fbe 6c4a 3abe
00000170: 672a 6d3e f473 293e 3779 d9bd aefe 9f3d
00000180: b7a5 223e df27 503e 5771 333e 1588 ce3d
00000190: 3fff 7bbd c7f3 afbd d1d8 583e 86d7 4d3d
000001a0: d6a9 80bd 2499 543e 1713 323d bd77 143e
000001b0: 0adb ccbd 1119 ed3c f67f e6bd 9910 2e3e
000001c0: ee83 d43c f8e8 e23c 1142 b13d 56d0 8c3d
000001d0: f1be c8bc 7ed0 4d3d 041b d3bd 6f7d 8a3d
000001e0: 7684 41bd 6d29 17be 4b8a 83bd 0aaf 6f3e
000001f0: 26fc c43d e2b4 813e 95b5 173e e5e9 58be
00000200: 3df4 3dbe 0d18 dcbd 2424 e8bd d026 f13d
00000210: ab33 b9bd acda 37be 1bf1 b5bd ac29 91bd
00000220: 1eab e53d fad4 1f3e 6da3 7c3d b59c 8d3d
00000230: 6c35 883d 2477 29bd 1937 f33d feef cb3d
00000240: f8d5 193e 4dc5 c83d 1d80 3c3e e78c bc3d
00000250: 438c 95bd 7918 b83d ed9b a73d 88e3 3e3d
00000260: 9990 b3bd 5274 37bd cee3 6bbe 6822 3f3e
00000270: deba 723d 8271 adbd fc36 2cbe 36bd 2c3e
00000280: 4e19 573e 55d6 a73d 5d37 08be 0ee7 d13d
00000290: c0e9 023e 091c 63be a290 813e 8d82 ce3c
000002a0: b4bd 05be 0d5b 093d a024 31be c696 ddbd
000002b0: 1e1b 0b3e bf76 113d 2914 87bd e524 02be
000002c0: 72c9 8e3c 34ae 183d 0749 79bd 1cad 8d3d
000002d0: a0c9 a23d fd46 a9bd 31f1 ae3d 5813 273e
000002e0: 6d51 a43d 89db bebd 57bc 0ebd 1093 3abe
000002f0: 604a 08be ae63 58bb d33e e8bd 9869 833d
00000300: da0c 493e 2285 8dbd 56a2 29bd 2d0e 13bd
00000310: a569 2f3c 4e75 11be 7624 d83c 7188 66be
00000320: 2a89 82be e29e 36be 9a12 183b dd7f 8f3d
00000330: d029 c6bd ee42 9c3d 71f7 d53a 1c2a 203d
00000340: 1dda a23a be99 2fbe 46e6 4b3e fe97 213e
00000350: 22f9 543e 8086 023e e7fd 28be 3971 4e3e
00000360: 53b4 aabc 0021 2a3d 5ac8 44be 59fc 9dbd
00000370: b8a6 0abe 9fd9 4dbd 047c de3c bb42 44be
00000380: 89ea d83d fb48 b63d a7b3 013d 61e2 20be
00000390: 5593 47be 115f dabd a246 193d 97bd 0e3e
000003a0: 7a79 df3d 97b7 91bc c290 db3d d3a3 6cbe
000003b0: c216 d6bd 80b2 d23d 7c0d 19be 611d 1f3d
000003c0: 26a4 87bd df99 1fbb 9635 f7bd 1dd0 183e
000003d0: 99c7 c2bd 0a50 523e 4a1e 4b3d 87c0 263d
000003e0: d035 63bd 5a42 60bd a4fe 223d 8e63 a73d
000003f0: 047e 893d b642 47be 62db 5a3e b5e7 74bd

recurs1.bias_ih f4 [120]
-0.11400277 -0.08035165 0.014827462 0.19563441 0.15694277 0.105936244 0.03799687 0.21441318
0.07564135 0.13539872 0.108366616 0.105151236 0.14909276 0.17983139 0.122842126 0.095085695
0.1528122 0.03824981 0.17379312 0.10923913 0.1814161 0.057661258 -0.10603101 0.13384502
0.13370277 0.2058925 0.11901879 0.13169634 0.22729199 0.0484836 0.2015793 0.15814959
0.16857785 0.17512769 -0.070668824 0.15241674 0.23002239 -0.09348435 0.037825927 -0.056545787
0.033520605 0.08397009 0.17690666 -0.01759639 -0.15423256 0.14798205 0.15988386 0.04362787
0.19816588 0.19290254 0.0023446933 0.07646692 0.064874955 0.044975244 0.009010567 -0.030720377
-0.06062792 0.13576199 0.010221635 0.0019728804 0.18832293 0.0006839905 0.17426886 0.21484841
-0.01733663 0.042561874 0.19184521 -0.11311021 -0.06455481 -0.014970258 -0.028928215 0.03602409
0.12241577 -0.12210334 0.054346863 0.19613726 -0.13984014 -0.08545144 -0.11019699 0.08012762
-0.21028705 -0.060313802 0.17140901 -0.1334192 0.21083827 -0.093591444 0.08912162 -0.014687074
0.014490796 0.13227108 0.20408228 -0.038691893 0.16115345 0.09982988 0.097992994 -0.065406844
0.13423648 0.17813759 -0.09290397 -0.097567186 -0.08000047 0.11359637 0.040420063 -0.02362308
0.18330081 0.017699536 -0.041406702 0.11044383 -0.047432054 0.00767046 0.14174627 0.12391053
-0.08831184 0.26136988 0.1822788 -0.06681475 0.12528992 0.13577726 -0.052740727 -0.01792854
00000000: 497a e9bd 688f a4bd e2ee 723c 6354 483e
00000010: 9bb5 203e 1af5 d83d 9ba2 1b3d 218f 5b3e
00000020: dae9 9a3d f6a5 0a3e 51ef dd3d 8859 d73d
00000030: c6ab 183e b825 383e a794 fb3d 4abc c23d
00000040: cd7a 1c3e d5ab 1c3d d3f6 313e c4b8 df3d
00000050: 24c5 393e 362e 6c3d c926 d9bd ab0e 093e
00000060: 61e9 083e 7cd5 523e 20c0 f33d 68db 063e
00000070: 3bbf 683e bd96 463d ce6a 4e3e f7f1 213e
00000080: ac9f 2c3e ac54 333e d1ba 90bd 2213 1c3e
00000090: fd8a 6b3e b974 bfbd 5cef 1a3d 8e9c 67bd
000000a0: e74c 093d 83f8 ab3d 0527 353e 4e26 90bc
000000b0: 24ef 1dbe 9b88 173e 98b8 233e 23b3 323d
000000c0: ffeb 4a3e 3e88 453e 6da9 193b b09a 9c3d
000000d0: 29dd 843d f637 383d 0fa1 133c 4da9 fbbc
000000e0: fb54 78bd 3105 0b3e a578 273c 714b 013b
000000f0: bad7 403e d34d 333a 8973 323e 3901 5c3e
00000100: 8c05 8ebc 5c55 2e3d 1273 443e 53a6 e7bd
00000110: 5035 84bd d045 75bc ddfa ecbc ff8d 133d
00000120: 1fb5 fa3d 5111 fabd d19a 5e3d 35d8 483e
00000130: 4132 0fbe 2a01 afbd f6ae e1bd f319 a43d
00000140: 7d55 57be 9b0b 77bd d885 2f3e 0b9f 08be
00000150: fde5 573e dfac bfbd 6585 b63d 0ea2 70bc
00000160: ce6a 6d3c 1272 073e f2fa 503e 647b 1ebd
00000170: 6905 253e 9c73 cc3d 8db0 c83d 06f4 85bd
00000180: 4a75 093e b369 363e 7044 bebd 4ed1 c7bd
00000190: 49d7 a3bd 37a5 e83d 828f 253d 3185 c1bc
000001a0: 35b3 3b3e 9efe 903c 139a 29bd 6030 e23d
000001b0: 1d48 42bd 7b58 fb3b ef25 113e cec4 fd3d
000001c0: d7dc b4bd 46d2 853e 4ba7 3a3e 2cd6 88bd
000001d0: 004c 003e 3209 0b3e a906 58bd e0de 92bc

recurs1.bias_hh f4 [120]
-0.10269945 0.15987192 0.08580697 0.13351654 0.022226594 0.20878993 0.10969687 -0.097441725
0.02793872 0.1669264 0.14560965 0.04873063 -0.03934648 -0.07384606 0.1752272 -0.03286497
0.20919879 0.032045145 0.05082177 -0.11980183 -0.015717436 0.24007367 -0.120878644 0.18964264
-0.09420494 0.08499774 -0.11727382 -0.08029252 -0.06539318 0.047919597 0.06523829 -0.06931345
0.09291729 0.15488012 0.22732623 0.21898104 0.18018901 -0.018983541 0.036647923 0.21641509
0.16843005 0.008344167 0.2170895 -0.12414828 0.17491041 0.15155004 -0.07645699 -0.07218366
0.18464603 0.23226878 0.058517087 -0.001921609 0.13667454 0.16311957 0.031204551 0.19786558
0.1615395 0.090097845 0.159233 -0.08145584 -0.058025073 -0.00849318 0.09218724 0.023509847
0.07732038 0.07094586 -0.14616226 0.070094466 -0.024658332 -0.16658792 -0.010380311 -0.057486292
-0.07054101 -0.21335727 0.19286554 -0.07991689 -0.01200829 0.18461728 0.0068183374 -0.14866945
-0.21945699 0.05880757 -0.043509394 -0.010655086 0.12068426 -0.05997409 0.18403266 -0.0623448
-0.053893924 -0.10216182 0.10441131 -0.037576854 0.09713835 0.028005728 0.22687022 -0.027255308
-0.009862119 0.02202349 -0.04770641 0.14065528 0.032608442 0.14631629 0.1988411 0.13970093
-0.020221801 0.1639053 -0.022141568 -0.08788662 0.03540025 -0.07121475 -0.096140064 0.1281832
0.19298841 0.015703306 0.048428092 -0.07463068 0.07767358 0.11280542 0.05023947 0.24929136
00000000: 1754 d2bd 77b5 233e 91bb af3d 8fb8 083e
00000010: 8c14 b63c 07cd 553e c1a8 e03d 878f c7bd
00000020: bedf e43c c1ee 2a3e b21a 153e c599 473d
00000030: c629 21bd 9a3c 97bd c26e 333e 6b9d 06bd
00000040: 3538 563e c541 033d 7d2a 503d a95a f5bd
00000050: dac1 80bc dfd5 753e 398f f7bd ae31 423e
00000060: 85ee c0bd 4c13 ae3d 422d f0bd 6870 a4bd
00000070: dcec 85bd 5747 443d a79b 853d 36f4 8dbd
00000080: 6c4b be3d e598 1e3e 35c8 683e 913c 603e
00000090: 7883 383e 5f83 9bbc 221c 163d eb9b 5d3e
000000a0: ed78 2c3e f9b5 083c b64c 5e3e 7441 febd
000000b0: b71b 333e ef2f 1b3e 7b95 9cbd 07d5 93bd
000000c0: d913 3d3e ded7 6d3e 9daf 6f3d 80de fbba
000000d0: 69f4 0b3e d108 273e b0a0 ff3c 469d 4a3e
000000e0: 9c6a 253e 3885 b83d fa0d 233e 52d2 a6bd
000000f0: b3ab 6dbd fb26 0bbc aacc bc3d b997 c03c
00000100: 265a 9e3d 104c 913d 8fab 15be b08d 8f3d
00000110: 4500 cabc 0696 2abe 2e12 2abc bf76 6bbd
00000120: ce77 90bd 547a 5abe 8b7e 453e 77ab a3bd
00000130: 6bbe 44bc 500c 3d3e 5c6c df3b ce3c 18be
00000140: 55b9 60be 35e0 703d e836 32bd ab92 2ebc
00000150: 4f29 f73d 64a7 75bd 0f73 3c3e 435d 7fbd
00000160: e0bf 5cbd 373a d1bd 99d5 d53d 30ea 19bd
00000170: 79f0 c63d 456c e53c ab50 683e 8646 dfbc
00000180: ba94 21bc 9b6a b43c cc67 43bd f007 103e
00000190: 6e90 053d f0d3 153e 009d 4b3e c30d 0f3e
000001a0: 31a8 a5bc cad6 273e 3c62 b5bc e6fd b3bd
000001b0: daff 103d 0ad9 91bd 15e5 c4bd 7542 033e
000001c0: c19e 453e 38a4 803c 895c 463d f8d7 98bd
000001d0: 5313 9f3d 8706 e73d e7c7 4d3d 3c46 7f3e

recurs2.weight_ih f4 [120, 30]
-0.10135852 0.018613523 -0.051142145 0.22350259 0.11312428 0.23699546 0.13817814 0.03323884
-0.18108957 -0.1323468 0.08558041 -0.13718268 0.14252551 0.022175493 0.07699051 -0.17010212
0.14027771 -0.032863706 -0.11417466 0.012358033 -0.05113105 -0.11058156 0.06504398 -0.13589208
0.23969924 0.09883098 0.16184224 0.112434596 -0.20559308 -0.12749527 -0.15837339 -0.12797594
-0.10299404 0.19757982 0.14171125 0.11183102 -0.032870397 0.15552446 -0.018335018 -0.1170416
0.06360675 0.069550164 -0.053033147 0.11664216 0.0353132 0.107119225 -0.24246944 0.073250614
-0.079330854 -0.13731575 -0.14118268 0.05228636 -0.006755625 -0.16777411 0.19198656 0.04113565
-0.13534099 -0.019847037 0.099020965 0.05524255 0.066852674 -0.04647333 0.13367024 -0.07067982
-0.031549957 0.15427835 -0.066155545 0.106105566 0.17631845 -0.23360562 -0.12259201 0.10561958
0.07894221 -0.0229195 0.08248377 0.13383451 -0.13873984 0.08365264 0.13567306 -0.0420914
-0.22594115 0.115504816 -0.008356508 -0.1021837 0.15426213 0.014214963 -0.06460647 -0.14418411
0.024717737 0.008211677 0.030234642 -0.11568449 0.21768914 0.19909655 0.043954294 0.12339829
0.035535976 0.112103716 -0.003168658 -0.048963785 -0.10291663 0.039721392 -0.0878726 -0.047214318
-0.062497295 -0.034433797 0.051480893 -0.079653345 0.08885731 -0.19125775 0.063683465 0.07199106
-0.022957014 0.039921734 -0.05600233 -0.2049624 -0.011391449 -0.009048632 0.028115097 -0.14574638
0.23708226 0.057314698 -0.0341049 0.07906716 -0.13676105 0.113942444 0.02170536 -0.10658196
-0.045619387 0.07912004 -0.061053395 -0.000721787 0.0047578397 -0.18899088 0.064231664 -0.0042371675
-0.14164706 0.013422602 0.12006977 0.018594341 -0.17850102 0.11978717 -0.10163237 -0.12476055
0.15235999 0.07905385 0.24690077 0.18283658 -0.14511071 -0.007832161 -0.033672266 0.021978207
0.23145072 0.18649925 -0.17467938 0.009284699 -0.15264063 0.050730575 -0.081402 -0.20151451
-0.04869397 0.05130193 0.09298825 0.06965192 0.09334528 0.090452194 -0.090909906 0.03747003
-0.06445062 0.07810362 -0.0246698 -0.10237558 -0.10857121 -0.23291735 0.03327464 -0.0698849
0.27191898 -0.036708385 0.070708595 0.092009604 -0.08884078 -0.08999561 0.085965216 0.13414466
-0.15404081 0.09274106 -0.23796347 -0.05603454 -0.0122676585 0.031901486 0.038400196 0.13421498
-0.053615257 0.09152207 -0.12467342 -0.15012583 -0.11025339 -0.21584281 0.07857404 -0.112523
-0.1990543 -0.023528157 -0.14284496 0.041203003 0.13303235 -0.10407505 0.15932249 0.08675619
-0.20370834 -0.028953174 0.15843596 -0.0023710104 0.07125101 0.08750924 -0.03166518 0.099825926
-0.21078324 0.10100407 0.037950587 0.010998083 0.079189874 -0.11261746 -0.024116654 -0.055206727
0.07593022 -0.11191845 0.028876327 -0.07348399 0.093290485 -0.22682591 -0.043422375 0.08569106
-0.12318184 -0.014757013 0.14239198 0.020058736 0.086979926 0.09332234 -0.16216855 0.1137125
0.041065343 0.1563234 0.08537794 0.031317044 0.031445906 0.22507052 0.14297937 -0.18993162
-0.029617494 -0.13437454 0.15071347 0.16683325 -0.11368823 -0.050730597 0.1439766 0.1019715
00000000: 0e95 cfbd 637b 983c 6d7a 51bd dddd 643e
00000010: b4ad e73d f0ae 723e 927e 0d3e 7325 083d
00000020: 8b6f 39be eb85 07be c844 af3d 9e79 0cbe
00000030: 35f2 113e 61a9 b53c 33ad 9d3d 402f 2ebe
00000040: f6a4 0f3e 189c 06bd 67d4 e9bd 5979 4a3c
00000050: cb6e 51bd 9678 e2bd c735 853d 4b27 0bbe
00000060: b873 753e e667 ca3d f9b9 253e 1c44 e63d
00000070: fe86 52be 1f8e 02be a22c 22be 200c 03be
00000080: 8aee d2bd 5d52 4a3e c11c 113e a907 e53d
00000090: 1ca3 06bd ce41 1f3e 5233 96bc 82b3 efbd
000000a0: 4144 823d 5170 8e3d 4939 59bd 16e2 ee3d
000000b0: 93a4 103d 5361 db3d e949 78be 6b04 963d
000000c0: 3778 a2bd 809c 0cbe 3192 10be 392a 563d
000000d0: 4a5e ddbb facc 2bbe 2098 443e db7d 283d
000000e0: d496 0abe 4196 a2bc 81cb ca3d 0346 623d
000000f0: 0eea 883d d25a 3ebd dae0 083e 95c0 90bd
00000100: 873a 01bd 25fb 1d3e 8f7c 87bd e04d d93d
00000110: d38c 343e 5036 6fbe 8511 fbbd 144f d83d
00000120: 74ac a13d adc1 bbbc 40ed a83d ea0b 093e
00000130: d111 0ebe 1352 ab3d e1ed 0a3e 0868 2cbd
00000140: 1e5d 67be ca8d ec3d bce9 08bc b045 d1bd
00000150: e4f6 1d3e e0e5 683c 6650 84bd 00a5 13be
00000160: da7c ca3c 458a 063c a4ae f73c fdeb ecbd
00000170: e7e9 5e3e f7df 4b3e 6b09 343d 3eb8 fc3d
00000180: 2c8e 113d a296 e53d 42a9 4fbb 408e 48bd
00000190: f4c5 d2bd e6b2 223d 8df6 b3bd cd63 41bd
000001a0: 2afd 7fbd 740a 0dbd a1dd 523d 4b21 a3bd
000001b0: d2fa b53d 12d9 43be 7a6c 823d 0d70 933d
000001c0: 5910 bcbc f984 233d b362 65bd aae1 51be
000001d0: 33a3 3abc b740 14bc a251 e63c 8a3e 15be
000001e0: b1c5 723e d1c2 6a3d 94b1 0bbd f7ed a13d
000001f0: 170b 0cbe a85a e93d 70cf b13c a547 dabd
00000200: 65db 3abd b009 a23d 2013 7abd 4e36 3dba
00000210: a7e7 9b3b d386 41be e48b 833d f0d7 8abb
00000220: ed0b 11be 79ea 5b3c 24e7 f53d 2953 983c
00000230: f9c8 36be fa52 f53d a224 d0bd 7682 ffbd
00000240: 4204 1c3e fce6 a13d 8ed3 7c3e 8339 3b3e
00000250: e797 14be 7752 00bc eeeb 09bd a40b b43c
00000260: 6b01 6d3e a9f9 3e3e 27df 32be da1e 183c
00000270: d34d 1cbe ddca 4f3d 17b6 a6bd d259 4ebe
00000280: 5473 47bd f921 523d a070 be3d aaa5 8e3d
00000290: cf2b bf3d 003f b93d f92e babd 2d7a 193d
000002a0: b0fe 83bd caf4 9f3d 5218 cabc 4aaa d1bd
000002b0: 955a debd e381 6ebe fd4a 083d d01f 8fbd
000002c0: f738 8b3e 885b 16bd abcf 903d 886f bc3d
000002d0: 28f2 b5bd 9e4f b8bd 880e b03d 385d 093e
000002e0: e0bc 1dbe 06ef bd3d b2ac 73be 7984 65bd
000002f0: 4afe 48bc 22ab 023d 8649 1d3d a76f 093e
00000300: ac9b 5bbd ec6f bb3d c754 ffbd 96ba 19be
00000310: 88cc e1bd e605 5dbe 6deb a03d 7572 e6bd
00000320: e4d4 4bbe 1fbe c0bc f345 12be 7bc4 283d
00000330: a239 083e 4d25 d5bd 6f25 233e 3bad b13d
00000340: eb98 50be 352f edbc 093d 223e f462 1bbb
00000350: 0dec 913d 0b38 b33d 59b3 01bd 8971 cc3d
00000360: 90d7 57be 39db ce3d 1372 1b3d 4e31 343c
00000370: 4d2e a23d fca3 e6bd 4a90 c5bc 7320 62bd
00000380: 4e81 9b3d 8035 e5bd 0c8e ec3c c67e 96bd
00000390: 150f bf3d 0d45 68be a9db 31bd cb7e af3d
000003a0: c346 fcbd 66c7 71bc 34cf 113e 3852 a43c
000003b0: 8822 b23d c81f bf3d 830f 26be 19e2 e83d
000003c0: 2234 283d 3e13 203e a1da ae3d 4d46 003d
000003d0: 6ccd 003d e378 663e 2f69 123e 6f7d 42be
000003e0: 63a0 f2bc 7b99 09be a254 1a3e 56d6 2a3e
000003f0: 60d5 e8bd e3ca 4fbd 9a6e 133e 6fd6 d03d

recurs2.weight_hh f4 [120, 30]
0.018185858 0.05043834 0.17041922 -0.18221189 0.11980921 -0.12935312 0.19556916 -0.15870777
-0.051691275 0.039025027 -0.00026212892 0.07515924 -0.023729088 0.06696243 -0.06478612 -0.014033675
0.046319056 0.14472112 -0.17307389 -0.08958396 -0.061970968 -0.030644665 -0.107403494 -0.044100925
0.076707944 -0.06601921 0.0037389304 -0.029669708 -0.18940434 0.08413709 -0.024772497 -0.10762188
-0.15119867 0.09524099 -0.035270024 0.08582975 0.009797789 -0.07406134 -0.10810912 0.0877096
-0.21028203 -0.08597364 -0.08045451 -0.029056532 0.13144016 0.20544057 0.19284058 -0.09201507
-0.11948996 0.05126864 0.14575984 -0.10443399 -0.08727768 -0.1333208 -0.057019785 -0.10449445
-0.16686791 -0.0057881456 -0.00039254632 0.057634965 -0.1192664 -0.07358993 0.18044768 -0.014182293
0.13617922 -0.08382519 -0.0216484 0.03272312 -0.019978628 -0.22783455 0.099628426 -0.08166176
-0.026731586 0.02197698 0.1651769 0.07480729 0.11771767 -0.031035999 0.13281639 0.061624277
0.12636732 0.0031216934 -0.16756903 0.07769317 -0.19116452 -0.22886482 -0.013968034 -0.0005492844
-0.10145003 0.17503363 -0.062176 -0.014490361 0.19357683 0.09259234 -0.07794358 -0.0026484039
-0.0652638 -0.17853925 -0.047257993 -0.04102142 -0.16185252 -0.07786806 -0.22594109 -0.03388007
0.07749339 0.029754445 0.1385246 0.15919109 0.07381044 0.0078082914 -0.039358906 0.04701307
-0.20312469 -0.10343638 0.07958641 -0.06301016 0.023675356 0.21208197 0.11266029 0.056291215
0.122905865 0.15891181 -0.06961297 0.026021177 0.12485719 0.05055622 0.21903808 -0.1545118
-0.00904988 0.15429962 -0.19160108 -0.07684455 0.07462559 0.13545482 0.22127974 -0.040570408
0.109133296 -0.13099061 -0.15486014 0.013832227 -0.057885755 0.0695205 -0.0889791 0.13861279
-0.037712168 0.017886788 -0.01247478 0.20331332 -0.014210248 0.17850347 -0.20806594 -0.07098881
0.159267 0.13006085 -0.020714823 0.16123182 0.14659418 -0.18207157 0.003294143 0.104355365
-0.12677056 0.14619976 -0.11186481 -0.08872239 -0.06230495 -0.05158373 0.19294591 0.1267707
0.073037796 0.073228344 0.077193566 -0.03567037 -0.22822556 -0.14540209 -0.08305944 0.08012227
-0.09316714 0.045261275 0.034500647 0.23164567 -0.049347878 0.10122802 -0.11705197 -0.20754166
0.0030677817 0.047133494 0.14545132 0.040634945 0.12004942 -0.10525 0.0009675938 0.19177246
-0.10449891 0.15231006 -0.12269122 0.08391581 0.060506653 0.17908606 -0.053832367 0.0053441715
-0.07404715 0.2167308 -0.026308762 -0.07362499 0.053374674 0.06054227 -0.078081496 -0.120580144
-0.08899086 0.09080731 -0.009159019 -0.0029038563 0.07415152 -0.026496466 0.16909859 -0.12194543
0.20644768 -0.01583312 0.11321963 0.063946635 -0.19629328 0.14775917 -0.09372451 -0.10572243
0.13790064 0.02175487 -0.10405025 -0.07719757 0.12906536 -0.18943666 0.08465042 0.065471135
-0.15690364 0.05509105 -0.14255978 -0.03763944 -0.06868034 0.12044234 -0.06213845 -0.10887097
-0.040160585 0.18338214 -0.061930303 0.14018719 0.12775217 -0.035490546 0.024885967 0.13621081
-0.0081138 0.013392139 -0.035029408 0.027847204 -0.18293643 -0.09096642 0.21896231 0.09784747
00000000: 82fa 943c 6f98 4e3d 6082 2e3e c195 3abe
00000010: 885e f53d 2575 04be 4843 483e 4a84 22be
00000020: 3bba 53bd b5d8 1f3d 596e 89b9 16ed 993d
00000030: 8163 c2bc 9923 893d 96ae 84bd 80ed 65bc
00000040: 0db9 3d3d c631 143e 483a 31be cc77 b7bd
00000050: 45d5 7dbd 850a fbbc 5df6 dbbd 2ca3 34bd
00000060: 0e19 9d3d 1435 87bd d808 753b e30d f3bc
00000070: 36f3 41be 1150 ac3d b1ef cabc dc68 dcbd
00000080: d3d3 1abe b50d c33d 4d77 10bd 82c7 af3d
00000090: e886 203c 79ad 97bd 5068 ddbd 17a1 b33d
000000a0: 2c54 57be f312 b0bd 56c5 a4bd f707 eebc
000000b0: 4098 063e 035f 523e 0078 453e 6672 bcbd
000000c0: 27b7 f4bd 11ff 513d 1142 153e 7de1 d5bd
000000d0: a4be b2bd 3f85 08be 948d 69bd 3001 d6bd
000000e0: 6cdf 2abe 7caa bdbb adce cdb9 a412 6c3d
000000f0: f141 f4bd 51b6 96bd 47c7 383e d95c 68bc
00000100: 9172 0b3e 8bac abbd fc57 b1bc ae08 063d
00000110: 38aa a3bc 764d 69be fd09 cc3d 483e a7bd
00000120: 33fc dabc 1109 b43c 2224 293e 9134 993d
00000130: f615 f13d 353f febc 0501 083e bd69 7c3d
00000140: 6f66 013e 5395 4c3b 3797 2bbe 991d 9f3d
00000150: a2c0 43be 8a5b 6abe 2eda 64bc dafd 0fba
00000160: 09c5 cfbd 043c 333e 43ac 7ebd fb68 6dbc
00000170: 0139 463e 0ea1 bd3d e2a0 9fbd d890 2dbb
00000180: 07a9 85bd fed2 36be 9991 41bd 1406 28bd
00000190: abbc 25be 4a79 9fbd 1a5d 67be d4c5 0abd
000001a0: dbb4 9e3d 98bf f33c 65d9 0d3e fd02 233e
000001b0: ee29 973d b2dc ff3b ce36 21bd c790 403d
000001c0: ebff 4fbe 74d6 d3bd 33fe a23d 790b 81bd
000001d0: d2f2 c13c 042c 593e 70ba e63d 9e91 663d
000001e0: 12b6 fb3d c7b9 223e 3f91 8ebd 5d2a d53c
000001f0: 20b5 ff3d 0a14 4f3d 854b 603e 5738 1ebe
00000200: f345 14bc b800 1e3e 1333 44be ad60 9dbd
00000210: 4dd5 983d abb4 0a3e 2897 623e 282d 26bd
00000220: 4781 df3d 6722 06be a893 1ebe 91a0 623c
00000230: 9d19 6dbd c460 8e3d ad3a b6bd 83f0 0d3e
00000240: 1378 1abd 5087 923c 0563 4cbc 5e31 503e
00000250: 1ad2 68bc 9dc9 363e 3d0f 55be 9562 91bd
00000260: e316 233e ac2e 053e 22b2 a9bc f419 253e
00000270: c91c 163e f870 3abe 8ce2 573b 44b8 d53d
00000280: 24d0 01be 64b5 153e 6119 e5bd 16b4 b5bd
00000290: 7a33 7fbd 7649 53bd 9d93 453e 2ed0 013e
000002a0: d794 953d bef8 953d a917 9e3d 181b 12bd
000002b0: f6b3 69be 49e4 14be 111b aabd 2517 a43d
000002c0: 6ace bebd e363 393d 8d50 0d3d 8634 6d3e
000002d0: 0021 4abd a350 cf3d f1b8 efbd cd85 54be
000002e0: d60c 493b 0d0f 413d 31f1 143e d470 263d
000002f0: 78dc f53d 508d d7bd 1fa6 7d3a 0060 443e
00000300: 8603 d6bd 2bf7 1b3e 8945 fbbd 0ddc ab3d
00000310: d3d5 773d 5662 373e 547f 5cbd 291e af3b
00000320: 08a6 97bd aeee 5d3e 7985 d7bc b3c8 96bd
00000330: 679f 5a3d 2cfb 773d 31e9 9fbd b9f2 f6bd
00000340: d740 b6bd 2ff9 b93d b60f 16bc a04e 3ebb
00000350: c1dc 973d 1e0f d9bc 2e28 2d3e 87be f9bd
00000360: 0567 533e 76b4 81bc b2df e73d 74f6 823d
00000370: 1b01 49be 2e4e 173e a3f2 bfbd 0085 d8bd
00000380: d335 0d3e 4537 b23c 4c18 d5bd c219 9ebd
00000390: b629 043e affb 41be 335d ad3d bb15 863d
000003a0: 59ab 20be 27a7 613d 31fb 11be d02b 1abd
000003b0: 47a8 8cbd 79aa f63d e384 7ebd bef7 debd
000003c0: 6d7f 24bd 87c8 3b3e a1aa 7dbd 3b8d 0f3e
000003d0: 77d1 023e 895e 11bd a8dd cb3c d97a 0b3e
000003e0: beef 04bc b46a 5b3c ff7a 0fbd d21f e43c
000003f0: b053 3bbe 9a4c babd a837 603e 4164 c83d

recurs2.bias_ih f4 [120]
0.22667624 0.20933528 -0.059797835 0.080254465 -0.048443675 0.0060184156 0.033971105 0.22675681
0.045608122 0.16841115 -0.12485249 0.05797905 0.09667343 -0.02593674 0.059383757 0.09711298
0.21775256 0.053248946 0.035689633 0.18443017 -0.0026022105 0.16515239 0.21904023 -0.04665271
0.11857996 0.007210936 0.2161883 0.034526367 0.062250964 0.1758645 0.08502977 0.16995944
-0.028096117 -0.06685608 0.07508812 0.23297904 0.17351605 -0.03386404 0.19817682 -0.11768912
0.20146473 0.055724606 -0.043373052 0.08605275 0.18313774 0.18877539 -0.019830927 0.10160645
0.11620686 0.026534902 0.057343066 0.20248353 -0.0020792878 0.18249531 -0.07602568 -0.037350554
0.099791385 -0.03353563 -0.055355426 0.009931089 -0.0744224 0.09166357 0.10044165 -0.10968003
0.099439204 0.12035038 0.120613605 -0.113520816 -0.13408662 -0.040659703 0.029968292 0.066606864
-0.1630445 0.13513659 0.2154743 0.00022888149 0.041743297 0.019286709 -0.12220746 -0.18378568
0.14516845 0.1784908 0.007098814 -0.1661376 -0.0022464045 -0.13876362 0.05278538 0.17099927
0.19435461 0.17586152 0.10687574 0.24420005 0.027459547 0.09656047 -0.06052775 0.17510045
0.122829534 0.13374986 0.1844191 0.1517622 -0.12450391 0.043459482 -0.07547084 0.20340732
0.042579763 -0.06615503 0.17361525 -0.033366084 0.05714017 0.17817375 0.15386288 0.15578482
0.063745774 0.03290449 0.091609865 -0.13238186 0.010120805 0.19375345 0.19279177 -0.115613006
00000000: d11d 683e fd5b 563e 93ee 74bd 745c a43d
00000010: e06c 46bd 2136 c53b 4925 0b3d f032 683e
00000020: 95cf 3a3d f973 2c3e aab2 ffbd 717b 6d3d
00000030: b8fc c53d 4979 d4bc 623c 733d 2ce3 c63d
00000040: 87fa 5e3e 911b 5a3d 4b2f 123d 43db 3c3e
00000050: d989 2abb b51d 293e 154c 603e e916 3fbd
00000060: 0dda f23d b749 ec3b 7760 5d3e 856b 0d3d
00000070: defa 7e3d d315 343e 1724 ae3d d909 2e3e
00000080: d429 e6bc d7eb 88bd cdc7 993d 0f92 6e3e
00000090: 31ae 313e 05b5 0abd ddee 4a3e fe06 f1bd
000000a0: c54c 4e3e 7c3f 643d f1a7 31bd 6d3c b03d
000000b0: 7688 3b3e 564e 413e 7874 a2bc 0b17 d03d
000000c0: ddfd ed3d b95f d93c 90e0 6a3d d857 4f3e
000000d0: a944 08bb 0de0 3a3e 5ab3 9bbd e5fc 18bd
000000e0: 6d5f cc3d a85c 09bd 5fbc 62bd 02b6 223c
000000f0: c56a 98bd 1cba bb3d 5ab4 cd3d ec9f e0bd
00000100: c8a6 cb3d 437a f63d 4404 f73d 9a7d e8bd
00000110: 014e 09be ca8a 26bd 1080 f53c 2e69 883d
00000120: 23f5 26be 3f61 0a3e 4ba5 5c3e e8ff 6f39
00000130: 05fb 2a3d 29ff 9d3c e847 fabd 5032 3cbe
00000140: 0aa7 143e 4bc6 363e 2b9d e83b fa1f 2abe
00000150: 6a38 13bb 0d18 0ebe 7c35 583d 6f1a 2f3e
00000160: e504 473e 0b15 343e abe1 da3d 940f 7a3e
00000170: d8f2 e03c 7fc1 c53d f2eb 77bd 884d 333e
00000180: 0d8e fb3d b9f5 083e 5cd8 3c3e 8d67 1b3e
00000190: e8fb febd 9202 323d 7590 9abd 024a 503e
000001a0: 1e68 2e3d 4a7c 87bd 32c8 313e e0aa 08bd
000001b0: d00b 6a3d 2e73 363e 3b8e 1d3e 0e86 1f3e
000001c0: 258d 823d dcc6 063d f49d bb3d 1c8f 07be
000001d0: bcd1 253c 4e67 463e 356b 453e 83c6 ecbd

recurs2.bias_hh f4 [120]
0.11190684 0.23331977 -0.08389742 0.08791268 -0.025237277 0.09848576 -0.026499195 0.22246669
0.14945692 -0.046182353 -0.10228014 -0.0017859966 0.05148824 0.10757829 -0.020074831 -0.013567681
0.06768885 -0.06871446 0.10521385 -0.08386396 0.032835424 -0.1062526 -0.006627002 0.0625654
0.0075567663 -0.06637909 0.09401526 -0.03496392 0.10692327 0.09622634 0.037362825 -0.11057194
-0.011269537 0.07408903 0.098927334 -0.06666825 0.16262808 0.089405864 0.057351425 0.0064090793
0.0005558577 0.1326181 0.17729428 0.008880598 0.11201044 0.17945443 0.14919627 0.05701888
0.10874023 0.08822073 0.15191552 -0.02379565 0.07179881 0.070922226 -0.09432892 0.0769546
-0.068885826 0.12948059 0.045164365 0.08870208 -0.13014425 0.10014437 0.13038833 0.0844394
0.052582677 -0.09404967 0.16682167 0.053929318 -0.16132614 -0.038078323 -0.028243942 0.04596973
0.011202095 0.1281084 0.019438637 -0.015490143 0.00478332 0.09788192 -0.14695987 0.13255124
-0.03737828 0.13075317 -0.11103849 -0.07310631 -0.0030331933 -0.04045962 -0.12592776 -0.16061781
-0.13987698 0.19743735 0.15576993 0.005784453 0.17508814 0.07790775 0.054591373 -0.011741129
-0.060766026 0.18215433 0.23543131 -0.1870407 0.07073741 0.13614585 -0.029225761 -0.016287835
-0.08768552 0.14585984 0.2708373 0.14334255 0.03096213 0.123843655 -0.0663648 -0.05170277
0.124317445 0.20882069 0.09463474 -0.006141388 0.092495054 -0.12733391 0.20980658 -0.060141344
00000000: 6a2f e53d 61eb 6e3e 69d2 abbd 900b b43d
00000010: 68be cebc e7b2 c93d d714 d9bc 4fce 633e
00000020: 3c0b 193e b529 3dbd 4078 d1bd 1a18 eaba
00000030: 55e5 523d 0252 dc3d f973 a4bc fb4a 5ebc
00000040: 74a0 8a3d 2bba 8cbd 5c7a d73d dec0 abbd
00000050: 707e 063d f79a d9bd 5227 d9bb 4a22 803d
00000060: c09e f73b c3f1 87bd 138b c03d 5436 0fbd
00000070: 96fa da3d 5112 c53d c309 193d 8b73 e2bd
00000080: dda3 38bc fdbb 973d 6a9a ca3d 5d89 88bd
00000090: fa87 263e 6c1a b73d 54e9 6a3d 4103 d23b
000000a0: fbb6 113a 0acd 073e a28c 353e ed7f 113c
000000b0: bb65 e53d e7c2 373e e8c6 183e a18c 693d
000000c0: 33b3 de3d 12ad b43d be8f 1b3e 18ef c2bc
000000d0: 410b 933d ac3f 913d 852f c1bd 609a 9d3d
000000e0: 0314 8dbd 8f96 043e 45fe 383d 70a9 b53d
000000f0: 8944 05be 7e18 cd3d 8584 053e 90ee ac3d
00000100: ef60 573d 1d9d c0bd 4dd3 2a3e fde4 5c3d
00000110: ae32 25be 04f8 1bbd d75f e7bc c14a 3c3d
00000120: fe88 373c d92e 033e c73d 9f3c 5eca 7dbc
00000130: 65bd 9c3b 5176 c83d a67c 16be 83bb 073e
00000140: f819 19bd 29e4 053e 2668 e3bd c3b8 95bd
00000150: 8ac8 46bb fdb8 25bd 35f3 00be ff78 24be
00000160: e93b 0fbe 042d 4a3e 2782 1f3e 828b bd3b
00000170: 4e4a 333e 198e 9f3d 349b 5f3d dd5d 40bc
00000180: cce5 78bd aa86 3a3e e814 713e 9987 3fbe
00000190: c6de 903d d169 0b3e dd6a efbc 116e 85bc
000001a0: 7794 b3bd 485c 153e 30ab 8a3e 64c8 123e
000001b0: 4ba4 fd3c bea1 fd3d 45ea 87bd 49c6 53bd
000001c0: 259a fe3d 17d5 553e dccf c13d b23d c9bb
000001d0: 0c6e bd3d d263 02be 89d7 563e c556 76bd

output.weight f4 [2, 30]
-0.11256743 -0.09731424 0.10551459 -0.073684625 0.05777105 -0.11129382 0.14881831 -0.17949495
-0.19048068 -0.21657512 0.07984311 0.09627166 -0.172893 0.0032933261 0.2056228 0.05945482
0.16485833 -0.013563461 -0.07077232 0.11191043 0.066694796 -0.08153045 -0.074343406 0.0840966
0.085205674 -0.095965035 -0.22364815 0.17120865 -0.052440386 0.029278627 0.22691138 0.16868724
0.1272783 0.16984521 -0.07724008 0.121753216 -0.14095569 0.1273627 0.1514453 0.055095997
-0.1477782 -0.09423802 -0.09631066 -0.17038293 0.10159811 0.20424125 0.11916787 -0.16404116
0.20631154 -0.18147284 0.1323366 0.057892196 0.13862677 0.12347942 -0.27395996 0.09578026
-0.08690562 -0.20152973 0.2184954 0.07689962
00000000: c189 e6bd b04c c7bd 0918 d83d f7e7 96bd
00000010: 56a1 6c3d 04ee e3bd d463 183e 86cd 37be
00000020: 5e0d 43be dec5 5dbe c984 a33d 132a c53d
00000030: dd0a 31be d8d4 573b c98e 523e e686 733d
00000040: 9fd0 283e 4739 5ebc 14f1 90bd 4c31 e53d
00000050: 4897 883d 70f9 a6bd 5b41 98bd d73a ac3d
00000060: 5080 ae3d 5189 c4bd 0504 65be 5251 2f3e
00000070: bbcb 56bd bbd9 ef3c 755b 683e 59bc 2c3e
00000080: 3e55 023e e7eb 2d3e 0c30 9ebd c059 f93d
00000090: b056 10be 5e6b 023e 7a14 1b3e 57ac 613d
000000a0: 2b53 17be ddff c0bd 863e c5bd dd78 2ebe
000000b0: ab12 d03d 9e24 513e 490e f43d 68fa 27be
000000c0: 5543 533e 04d4 39be 3f83 073e 5e20 6d3d
000000d0: 2df4 0d3e c7e2 fc3d 7b44 8cbe 7128 c43d
000000e0: 93fb b1bd cf5d 4ebe 42bd 5f3e 8c7d 9d3d

output.bias f4 [2]
0.030545486 0.011452255
00000000: 873a fa3c 3da2 3b3c

switch.weight f4 [1, 30]
0.12881148 -0.06819986 -0.09927115 -0.05681574 -0.044370256 0.07713959 -0.03398559 0.08431445
-0.14509286 0.02264609 0.14127162 -0.01938154 0.14663498 0.05705489 -0.17466891 -0.104982145
0.14527063 -0.030531099 0.1739344 -0.17762148 -0.09786212 0.13918194 0.16808479 -0.16620466
0.059189208 -0.17970821 -0.1323168 0.082062 -0.09071673 -0.013771468
00000000: 28e7 033e 5eac 8bbd ac4e cbbd 9fb7 68bd
00000010: 96bd 35bd 5dfb 9d3d 7934 0bbd 0ead ac3d
00000020: 3993 14be 4b84 b93c 82a9 103e 09c6 9ebc
00000030: 7b27 163e 63b2 693d 68dc 32be e100 d7bd
00000040: d3c1 143e 5b1c fabc dc1b 323e 68e2 35be
00000050: ef6b c8bd b685 0e3e 6b1e 2c3e 8e31 2abe
00000060: 6270 723d 6e05 38be 0e7e 07be 1f10 a83d
00000070: b1c9 b9bd b9a1 61bc
