checkpoints/VQE-H2-221714b8/model.pth (torch, 49793 bytes, 11 tensors)

recurs1.weight_ih f4 [120, 2]
00000000: 12a0 c3bd dd29 a23e 1382 76be 2580 71bd
00000010: cfb1 07be 2e9d 01be 7079 b6bd 79c3 bb3d
00000020: 6391 b7bd 76e1 653d bbd5 39be 0c97 1c3e
00000030: 1a23 8cbe ac9b 6ebd f46c b5bd 228c f03d
00000040: 209f 54bc 135c 8c3e 0d12 83be c00d 83be
00000050: dc0d eabc 0c72 293e edbb 6bbd 8179 4b3e
00000060: ab5f 3dbe 490d 9dbd 7a8e af3d 8e96 40bd
00000070: 8555 32be 6e30 db3d 39ca 0abe 9d8d 083d
00000080: 7581 3fbe 937f 4fbe c1c1 47be e1d4 6abe
00000090: 1c07 30be d04b 8b3e 907c b0bc 8afa 543e
000000a0: 95d4 3dbd a1fc b1bd 0967 643b c0ee 3fbe
000000b0: e11c 29be d221 93be e64c 2abd 5b92 ccbd
000000c0: b904 00be a7cf d53c da04 ad3c 5bdf b63e
000000d0: 725f 9cba d0e9 0b3e 4c21 063e 3db3 21be
000000e0: 9326 d93c 6bb9 d1bd 34d8 56be 17a8 ecbd
000000f0: 051c 3d3d 536d 883e 26c6 0fbe 073f 2c3e
00000100: 5230 b63d c036 47be d092 ffbc 07ad 2fbd
00000110: 6b98 073e d9bf 733e 9e68 5fbe 61ca fa3d
00000120: f919 903d d0a4 303e a7bb 393e 8372 993e
00000130: 0838 c03c dee5 0b3d 1dcf 79bc fa4f 90be
00000140: 352b 33be f20f 4e3e 70fc 1f3e a098 0fbe
00000150: fc45 0abd 70b6 25be 8ef2 b4bd 63bb 373d
00000160: 404b e63c 0f78 623d a61d e43d 7723 e8bc
00000170: 7a7a 133e 25ca 01bd 20c0 15be b39f 3dbe
00000180: 36f1 c43d f093 383e 9d76 61be 9e30 aa3c
00000190: aca5 fa3d dc21 ec3d a678 28bd 5567 32bd
000001a0: d355 0abe 9eb0 45be 761b 36be 12d0 b0be
000001b0: 735e 4bbd 8478 ea3d 087c 05be 1395 8d3e
000001c0: 01b0 20be 868b 8e3e 1956 3b3e 5c75 22be
000001d0: e0cf d43c 9d4a 673d 2a14 b43d c1c3 ef3c
000001e0: 9718 37bc 2d5a 613e eb9b b0bd e2e5 883e
000001f0: e2e2 62be 042d 8abe 06a0 dcbd 16f1 2abe
00000200: 65d0 72bd ce0b c6be c4c4 00be b79c 893e
00000210: 6ccc 97bd 9193 68be 2599 0d3e cfb9 65be
00000220: 4ee3 b43c fe5f 74be a1e7 043e abc1 a53e
00000230: ea3b 1a3e 4b7b 9d3e 736d 203e 9785 563e
00000240: 1bd3 2fbe f9ee 70be 2488 533e 0eab aebd
00000250: 722a 23be dc57 cebc 65bc 32be cd42 b7be
00000260: 39d7 cebb f9d3 a33e 0737 943d 40c6 c3be
00000270: 77eb f83d d2a0 acbe cdae 0c3d e43b 76be
00000280: bd65 f03c 04bc 35bd 8ab0 3abe 22c5 c7be
00000290: d0e9 96bd 09db 4dbe 78d6 8dbc d302 9c3e
000002a0: a309 63be 864f fc3b a111 643e ff71 89be
000002b0: 1dee 9e3d 1522 1a3e f1c6 03be 726a a63e
000002c0: 9db4 bdbc cae4 9fbe 2e9f 153e 29fb cabe
000002d0: f7fd 4cbd 2f4b 403e 0211 653d 002a 133e
000002e0: 7ba6 cf3c 076d fcbd 4d86 c1bd ed5f 1cbe
000002f0: 38ba 64be 5a04 003e ec88 9b3d 49e1 ad3e
00000300: f6cc 56be 0288 b13d 2bc0 14be 0cb5 8a3d
00000310: 4d56 26be 7735 923e 583a 39be 10be 55be
00000320: 7a57 80bd 7d7f 1b3e 00eb 1fbe d8cf 69bd
00000330: f1d3 75be 027d 77ba 9b1c e9bd 8a47 983e
00000340: c827 033d c21e 533e 36b5 0dbd bd4b 44be
00000350: 87a1 37bc 0e30 3ebe 6582 8cbd db45 5bbd
00000360: 86eb 3ebe 7784 b13d 0ab7 5a3d f356 3cbc
00000370: e04e 94bd ffc2 1f3e 188b 7d3d 1abc 083c
00000380: 24ab 4bbe 878f e3bd 7225 6dbe 8f8f 8dbe
00000390: 4b03 babd 0840 613d ecea 6ebd f80a b53e
000003a0: 8cf1 e2bc 6052 963e db15 083e 3e1b 51be
000003b0: c4da ac3d de7f 93bd a237 04be e018 823c
-0.09552015 0.31672564 -0.24073057 -0.0589601 -0.13251422 -0.12657616 -0.08909881 0.09168143
-0.08963277 0.05612322 -0.18147938 0.15291995 -0.2737053 -0.05825393 -0.08858672 0.11745478
-0.0129773915 0.27413997 -0.2559971 -0.25596428 -0.028571062 0.16547412 -0.057552267 0.19870569
-0.18493526 -0.076685496 0.08572097 -0.04701858 -0.17415436 0.107025966 -0.13553704 0.033338178
-0.18701728 -0.2026351 -0.19507505 -0.2293277 -0.17190212 0.27206278 -0.021543771 0.20798698
-0.046345312 -0.08690763 0.0034851453 -0.1874342 -0.16514923 -0.2873674 -0.041577242 -0.099888526
-0.12501802 0.026099993 0.021120477 0.35717282 -0.00119303 0.13663411 0.13098639 -0.1579103
0.026507651 -0.10240444 -0.20980912 -0.11555498 0.0461693 0.26645908 -0.14040431 0.16820918
0.08895935 -0.19454479 -0.031197935 -0.04288962 0.13241737 0.23803653 -0.21817252 0.12245632
0.07036204 0.17250371 0.1813799 0.29970178 0.023464218 0.034154765 -0.015247134 -0.28186017
-0.17496951 0.2012327 0.15623641 -0.14023066 -0.03375815 -0.16182876 -0.08835326 0.04485644
0.028112054 0.055290278 0.111384675 -0.028337223 0.1440219 -0.03168692 -0.14624071 -0.18517952
0.0961632 0.18025184 -0.22017904 0.020775136 0.12238631 0.11529896 -0.041130684 -0.043555576
-0.13509302 -0.19305655 -0.17783913 -0.34533745 -0.04965062 0.11448768 -0.13035595 0.27652797
-0.1569214 0.27840823 0.18294562 -0.15865082 0.025978029 0.05646764 0.087929085 0.029268147
-0.011175296 0.22007056 -0.08623489 0.26737887 -0.22156861 -0.2698747 -0.107727095 -0.1669353
-0.05928077 -0.3868088 -0.1257506 0.26877376 -0.07412037 -0.22712542 0.13827951 -0.22434162
0.022081044 -0.23864743 0.12978984 0.3237432 0.15061918 0.30758128 0.15666752 0.20949398
-0.17170374 -0.23528661 0.20657402 -0.0852872 -0.1593416 -0.025188379 -0.1745468 -0.35793152
-0.0063122776 0.3199766 0.07237058 -0.3823719 0.12154286 -0.33716446 0.03434639 -0.24046284
0.029345388 -0.04436876 -0.18231407 -0.39017588 -0.07368815 -0.20103087 -0.01731418 0.30470905
-0.22171645 0.0076999096 0.2227235 -0.26844785 0.0776026 0.15052064 -0.12868859 0.32503086
-0.023157412 -0.3122924 0.14611503 -0.39644745 -0.050046887 0.1877868 0.055924423 0.1437149
0.025347939 -0.12325483 -0.09449444 -0.15270968 -0.22336662 0.1250166 0.07594475 0.3396094
-0.20976624 0.086685196 -0.14526431 0.06772813 -0.16243859 0.28556415 -0.18088663 -0.20873284
-0.06266685 0.15185352 -0.15616989 -0.05708298 -0.2400663 -0.000944093 -0.11382409 0.2974208
0.03202036 0.20617202 -0.034596644 -0.19169517 -0.011207945 -0.18573019 -0.06860808 -0.053533416
-0.18644533 0.08667844 0.053397216 -0.01149534 -0.07241607 0.15601729 0.06190023 0.008345628
-0.19889504 -0.1111136 -0.23158816 -0.2764859 -0.09082659 0.054992706 -0.058329508 0.3535993
-0.02770307 0.29359722 0.13289587 -0.20420548 0.08440164 -0.07202123 -0.12911847 0.015881002

recurs1.weight_hh f4 [120, 30]
00000000: 260a 0a3e 9aa6 7b3e 7833 a6bc b512 9c3d
00000010: 56b9 673b e330 a9bd 4e6a 4f3d b51c 67be
00000020: cef5 86bd d3e2 47bd d7d6 b33c ecc2 8e3d
00000030: 57e6 1d3d f822 0cbe 8d77 1abd f211 d2bd
00000040: a353 20be 8490 10bb 2838 33be 4c0e 5abe
00000050: 1aa5 4fbe ada6 253d ddbc 0c3e 7046 243e
00000060: c33b 103e ab26 20be 180e 433d 667b 643d
00000070: 78e0 be3d faa4 bebc ad57 08bc d6bd 7abc
00000080: 2f2b 83bd cc0d 0f3e b440 03be b77b 9abd
00000090: bb50 153e 2557 39be 2ce3 cabd ced5 31bd
000000a0: 4b12 423d 22fa 02be fd89 e8bd dc7e 5d3d
000000b0: d622 e63d 9b78 533e cfa7 f8bd 9a8c 973d
000000c0: 1f70 fdbd 7089 b7bd becc 60be e249 583d
000000d0: 3c26 fc3d 19b9 abbd 2782 433d f2d2 51be
000000e0: 3c58 633e 8a95 2cbe b407 503d 5e88 b0bd
000000f0: 7a55 19be 69c8 f5bd 3dc3 53bc 077a ea3d
00000100: b1e4 083e 68ad 5cbe 2be1 e43d d432 273e
00000110: 537e 1b3e 52f1 c8bd eca5 89be 659a dcbd
00000120: cd90 273e e9ba bbbd ce97 d63d 39b7 543e
00000130: cdcc 39be aa8a d93d 9d83 353e 1f54 793d
00000140: ab6f 10bd 2b85 f43d d3cf 7abd b59a 8dbd
00000150: 545a 263e c279 783e 9a34 c63d 686c 88bd
00000160: ca4c 343e 20a6 1a3c 9bc4 cdbd c0b7 2cbe
00000170: 57fd 853e 9f81 6b3e 47b2 eabd ed56 f03d
00000180: d946 103e 516d 3b3e 536f 1f3e 3559 953d
00000190: ccff 52bd 8b6f 9fbd dc89 923e e5fd beba
000001a0: 0576 20bc 7fae 593e 8924 fa3c cfe8 053e
000001b0: 2b8c f0bd b519 67bc fff4 31be 65f8 2c3e
000001c0: f677 583d 0717 093c 2f8d 0e3e 8827 f03c
000001d0: 4b27 bc3c 4206 5b3d 338a d7bd 7845 563d
000001e0: fe33 c7bc 978e 06be a7f0 dcbd 86b2 6c3e
000001f0: e5f0 953d 880a 8f3e 563d 053e b909 6fbe
00000200: 4909 5bbe 2bf9 9bbd 8d89 bfbd 512d 0b3e
00000210: 3a12 d2bd aa84 55be 752d 69bd 52df e9bd
00000220: 45b8 203e 750d 033e e7be 1a3d de5e 523d
00000230: 4ced 3b3d b15a 79bd 1e29 6e3d 14b4 123e
00000240: c3b3 353e 91a9 913d 915c 543e adef 163e
00000250: 2566 c8bd 35a9 823d 2f3f e73d b47b b53d
00000260: 92be cabc 62c0 463c fe22 3fbe f5f3 6a3e
00000270: 6e0f c23d b1fe b0bd 4f25 33be d490 e93d
00000280: 7bd2 7c3e 3b4e d53c de7a 24be cf2f 683d
00000290: 9460 2f3e 54c2 2ebe 39f5 4c3e b9cb 723d
000002a0: 7824 26be 562f 30bc c414 6abe 3303 4fbd
000002b0: 775b 483e 5ff7 91bc 5cfb d0bc 5394 32be
000002c0: ffad 853d 6787 b3bc 3fe0 07bc e032 e33d
000002d0: 5e9a f33d cd1e 15bd 1d87 af3d fd67 203e
000002e0: c2a6 293d 5986 52bd e627 8cbd 4b01 63be
000002f0: 8515 2abe e4b7 003c 501e 83bd 392a 9b3d
00000300: 98a4 033e 47ab ddbd f095 b73a 4435 29bd
00000310: 93a2 813c 9bf1 2ebe 3283 8cbc bdab 7cbe
00000320: e75f 8cbe 0c87 3ebe 9557 1ebc c2c1 ab3d
00000330: 2201 8cbd 4842 053d bd1c 123d 5379 0c3d
00000340: ca89 13bc 8cb6 49be 4194 523e 6338 2c3e
00000350: a3ee f93d cbb5 973d 8270 40be d11e 543e
00000360: 985c 0cbd 69a2 ff3c a715 53be d323 05bc
00000370: 15d0 f3bd 6528 07bd 12a1 11bd ae4b 46be
00000380: 1172 e43d bee2 d53c 6bca b23d ee9f 49be
00000390: 5532 55be 72b6 c7bd 7d5a 5f3d 32d0 e73d
000003a0: 4544 dd3c e18b 4e3d d2e5 d23d 07a3 73be
000003b0: 7eca d8bd 2d82 1c3e 1f31 36be c1ac d53b
000003c0: 7c55 83bd 1e0e a33b e1dd d3bd f5f5 2a3e
000003d0: e223 d0bd e1ab 613e a5a2 853d abb6 353d
000003e0: d72f 65bd b282 8abd 79af 403d 348d 1c3d
000003f0: 26cd 4f3d 8747 55be 3976 683e de3c 2cbd
0.13480434 0.24575272 -0.020288214 0.076207556 0.0035358272 -0.082612775 0.05063849 -0.22569545
-0.06589852 -0.0488003 0.02195303 0.06970772 0.038549747 -0.13685215 -0.03771167 -0.10257329
-0.15656905 -0.0022058794 -0.1750189 -0.21294516 -0.20277825 0.040442158 0.1374392 0.16042495
0.14085297 -0.1563975 0.047620863 0.055781744 0.09320158 -0.023272026 -0.008321685 -0.0153040495
-0.06404721 0.13970107 -0.12817651 -0.07543128 0.14581577 -0.18099649 -0.09906611 -0.04341679
0.047380727 -0.1279073 -0.11354444 0.05407606 0.11237113 0.20651476 -0.12141382 0.073998645
-0.12374901 -0.08961761 -0.21953103 0.052804835 0.1231198 -0.08384914 0.047731545 -0.20490626
0.22201627 -0.1685392 0.050788596 -0.0861976 -0.14974013 -0.12001116 -0.012924966 0.11449056
0.13368489 -0.21550524 0.1117576 0.16327983 0.15184908 -0.09811653 -0.268844 -0.10771636
0.16363831 -0.0916651 0.10478173 0.20773019 -0.18144532 0.10622151 0.17725988 0.06087124
-0.035262745 0.11939462 -0.061233353 -0.06914274 0.16245395 0.24265197 0.09678002 -0.06661302
0.17607418 0.009439021 -0.10047265 -0.1686697 0.26169845 0.22998665 -0.11459785 0.1173533
0.14089526 0.1830342 0.1556981 0.072924055 -0.05151348 -0.07784947 0.28620803 -0.0014571516
-0.009793763 0.21257971 0.030535 0.1307709 -0.11745485 -0.01410525 -0.17378615 0.1689163
0.05284878 0.008367307 0.13921045 0.029315725 0.022967955 0.053472765 -0.10524406 0.052312344
-0.024316784 -0.13140331 -0.10788088 0.23114976 0.073213376 0.27937722 0.13011679 -0.23343553
-0.21390261 -0.076158844 -0.093524076 0.13591506 -0.10257383 -0.20851389 -0.056928117 -0.11419548
0.15695293 0.12798102 0.037779715 0.051360004 0.0458806 -0.060877506 0.05814468 0.14326507
0.17744355 0.0711242 0.20738436 0.14739867 -0.097851075 0.0637993 0.11291348 0.08861485
-0.024749074 0.012130829 -0.18665692 0.22944625 0.09475599 -0.086423285 -0.17494701 0.11404577
0.24689667 0.02603828 -0.16062495 0.05668622 0.17126685 -0.17066318 0.2001542 0.059276316
-0.16224849 -0.010753473 -0.22859484 -0.05054016 0.19566141 -0.017818151 -0.025510482 -0.17439394
0.06527328 -0.02191515 -0.0082932105 0.11093688 0.118946776 -0.036406327 0.08570693 0.15664668
0.0414188 -0.051397655 -0.068435475 -0.22168462 -0.16609772 0.007856343 -0.06402266 0.07576413
0.12855756 -0.10823684 0.0014006477 -0.041310564 0.015824592 -0.17084353 -0.017152403 -0.24674888
-0.27416918 -0.18606204 -0.009664436 0.08386566 -0.068361536 0.032533914 0.03567194 0.03429539
-0.009005019 -0.19698542 0.20564367 0.16818385 0.122037195 0.07407721 -0.18792918 0.2071488
-0.03426799 0.031205373 -0.20613728 -0.008126217 -0.11904923 -0.032997508 -0.035554 -0.19364807
0.11154569 0.026109096 0.087300144 -0.19689915 -0.20819981 -0.097515956 0.054529656 0.11319007
0.027010093 0.050426368 0.10297741 -0.23792659 -0.10585497 0.15284033 -0.17792176 0.006520838
-0.06412789 0.004976048 -0.103450544 0.16695388 -0.10163094 0.22038223 0.065251626 0.04436366
-0.055953827 -0.067632094 0.047042344 0.0382206 0.050732754 -0.20828067 0.22701348 -0.042050235

recurs1.bias_ih f4 [120]
00000000: 98cf 76bd 35f3 33bd b68c 5f3d 4634 8e3e
00000010: a01f 5d3e 6383 303e 7be1 b93d b416 6b3e
00000020: 793b fa3d 1e2e 513e 19e3 183e 64a4 ab3d
00000030: a90b 783e f571 803e bdfc 423e 69e3 133e
00000040: b65b 433e 7950 a63d f446 593e 603e 353e
00000050: 65f3 773e 4eb3 ac3d c5f5 9dbd 0dbd 523e
00000060: 1fb8 323e e9e1 813e 963a 323e 0eba 023e
00000070: a6a0 6a3e 326d e43d 2a4d 553e 4d40 1e3e
00000080: c0f1 293e 3116 703e 003a ffbd fced 3b3e
00000090: a09c 433e 87dd f7bd c891 223c 1fcc 69bd
000000a0: 8a64 c4bb 5316 2f3d 2a45 3f3e 9d3e 393d
000000b0: 6f22 cdbd 325f e53d d759 083e 3a37 90bc
000000c0: a374 3c3e a17b 783e c23a 3e3d 72c1 9a3a
000000d0: c063 823d de03 ed3c bb86 493d 2792 81bc
000000e0: d49a febc 083e 8b3d 7151 a8bd e10d b9bd
000000f0: fcff 813e f778 593c 0636 5b3e 1188 963e
00000100: 6047 c5bc 0109 ab3d f671 173e f6c7 01be
00000110: 962e 9fbd 1aba b0bd 92dc 2abc e933 613d
00000120: fe6b fd3d cc2d 46be ef00 f13d c863 4c3e
00000130: c1ed 1fbe 659d b0bd eb1d 09be 59e2 533c
00000140: ccee 8bbe abc9 49bd fc1e 643e 6fce 44be
00000150: 9427 863e 0ccc 0cbe 56d1 123e efa9 03bd
00000160: 3ccf 973c e601 033e 5c99 7f3e c887 3bbc
00000170: 7c9e 4b3e 2517 2a3e 4943 1c3e 78a3 0ebd
00000180: 3863 3f3e f49d 433e 6d01 7dbd ab36 75bd
00000190: 070e 60bd a5ed d03d 75e4 dc3d c3e5 103d
000001a0: 58b8 713e 411a 2a3d abe2 06bd 96d4 1f3e
000001b0: cd1a fbbc cec4 8d3d 1f6a 4a3e 1e99 fe3d
000001c0: 2b3d 77bd cec5 9b3e d503 703e 0e83 31bd
000001d0: 1e29 233e 04e6 023e bf91 5dbd dde0 ac3c
-0.06025657 -0.043933112 0.05457755 0.27774256 0.21594095 0.1723762 0.0907621 0.2295788
0.12218375 0.20427749 0.14930381 0.083809644 0.24223198 0.25086942 0.19041725 0.14442219
0.19077954 0.08120818 0.21218473 0.17699575 0.24213941 0.08432637 -0.077128924 0.2057993
0.17453049 0.25367668 0.17405161 0.12766287 0.22912845 0.1115364 0.20830217 0.15454216
0.16596127 0.23445965 -0.124622345 0.18352503 0.19102716 -0.121028 0.009922452 -0.05707943
-0.0059934305 0.0427459 0.18678728 0.04522573 -0.10016333 0.11199798 0.13315521 -0.01760446
0.18403868 0.2426591 0.046442755 0.0011806919 0.06366682 0.028932508 0.049200755 -0.015816761
-0.031079687 0.06798941 -0.08218659 -0.0903585 0.25390613 0.013273469 0.21407327 0.29400685
-0.024081886 0.08351327 0.14789566 -0.12673935 -0.077725574 -0.08629246 -0.010428565 0.054981146
0.123741135 -0.19353408 0.11767756 0.19959939 -0.1561804 -0.086237706 -0.13390319 0.012932383
-0.27330625 -0.04926459 0.22277445 -0.19219373 0.2620207 -0.13749713 0.14337668 -0.032144483
0.018531434 0.12793693 0.24960846 -0.011445947 0.19884676 0.16610391 0.15260042 -0.034823865
0.18690193 0.19103223 -0.061768938 -0.05986659 -0.054700878 0.10201577 0.10785762 0.035375368
0.23605478 0.041528944 -0.03293101 0.15608439 -0.030652428 0.06922303 0.19767044 0.124315485
-0.06036107 0.3042435 0.23438962 -0.043337874 0.15933654 0.12783056 -0.054094072 0.021103317

recurs1.bias_hh f4 [120]
00000000: 3583 48bd 6000 493e 0692 003e becc 5c3e
00000010: 2359 a63d e6ea 8c3e 765c 263e 6180 a8bd
00000020: 9189 983d e876 713e 2306 3f3e eb5e e03c
00000030: a855 5c3d a808 38bb 27a1 783e 2cef 863c
00000040: 1e19 7d3e 6f9b 993d 88b5 b63d 372d 55bd
00000050: ff57 383d fd91 883e 3b5e bcbd 0cf0 853e
00000060: 2ca2 5abd 02f8 073e 6ef0 7ebd 13b3 acbd
00000070: 0d2a 82bd 7e45 e33d 4e60 933d 8d57 95bd
00000080: 8cef b83d 6a5a 5b3e 9c88 313e b60b 803e
00000090: 1c95 103e 5093 3ebd e044 0f3c 0e10 5d3e
000000a0: 8802 043e 2dad 06bd da6a 683e 1b31 7bbd
000000b0: a079 6a3e d8ad ec3d 1553 d3bd 359e 08be
000000c0: 7d9c 2e3e 9e65 903e de27 d23d 261f 9ebd
000000d0: c4b7 0a3e 4a9b 163e 5e37 923d 2fe0 593e
000000e0: 83ac 433e 8fe3 b63c 6fdb 883d 4df5 31be
000000f0: 47aa f73b 413a 863b df28 073e cd43 d23d
00000100: a689 903d 662a e53d aaac 42be 3948 673d
00000110: bff2 1abd b49e 73be 0b07 053c d7d0 1dbd
00000120: eec0 8dbd b7cf 91be 272c 833e 5394 9cbd
00000130: 333b e8bc 3a3e 3c3e 7858 8abc a50b 5dbe
00000140: b8a0 90be 1611 8f3d 34b6 003c 1731 8ebd
00000150: d3fd 2f3e ebbe d4bd ac01 743e 556f a3bd
00000160: f132 4cbd 931a dabd 3789 193e f842 29bc
00000170: 4e11 0a3e bd15 c13d d01d 903e de14 5a3b
00000180: 7e52 2f3d 3806 0f3d cac0 87bc eca2 363e
00000190: f330 6d3d 24f8 093e ac55 883e da77 4b3e
000001a0: 5740 053d 883d 403e dee6 5fbc 310a 2dbd
000001b0: 93ba 553d 424e 1ebc 6bb9 24bd a1ac 033e
000001c0: e13d 623e 77ee 6f3d 49e7 cd3d 9e86 51bd
000001d0: 8ccd e43d 1dc0 d63d d03c 483d 0f9f 933e
-0.048953254 0.1962905 0.12555704 0.21562478 0.0812247 0.27522963 0.16246209 -0.08227611
0.07448114 0.23580515 0.18654685 0.02738901 0.053792626 -0.0028081331 0.24280225 0.016471468
0.24716613 0.0750035 0.08921343 -0.052045073 0.045005795 0.2667388 -0.091976605 0.26159704
-0.053377315 0.13278201 -0.06224101 -0.08432593 -0.06355677 0.11097239 0.07196103 -0.072920896
0.09030065 0.21421209 0.17337269 0.25008935 0.1411938 -0.046527207 0.008744448 0.21588156
0.1289159 -0.032879997 0.2269701 -0.061326127 0.22897959 0.115565956 -0.10318581 -0.13341601
0.17051883 0.28202528 0.1026151 -0.07720785 0.13546664 0.14707676 0.07139467 0.21276926
0.19108777 0.022325305 0.06682479 -0.17378731 0.0075581404 0.0040963 0.13199185 0.10266838
0.07057504 0.111897275 -0.19011179 0.05646536 -0.037829157 -0.23791009 0.008119355 -0.038529243
-0.06921564 -0.28478786 0.25619623 -0.07645478 -0.02834854 0.18383113 -0.016887888 -0.21586473
-0.2824762 0.06985681 0.007855941 -0.06942957 0.1718667 -0.10387977 0.23828763 -0.07980219
-0.04985327 -0.106496 0.1499375 -0.010330908 0.13483164 0.094279744 0.28147745 0.0033276598
0.04280328 0.03491804 -0.016571421 0.17835587 0.05790801 0.13473564 0.26627862 0.19869938
0.032532062 0.18773472 -0.013665883 -0.042246047 0.052179884 -0.009662213 -0.04021589 0.12858821
0.22093917 0.058577027 0.1005388 -0.05115377 0.111720175 0.104858615 0.04888612 0.2883229

recurs2.weight_ih f4 [120, 30]
00000000: 6e75 18bd f787 8f3d 53ab 82bc 275b 933e
00000010: 06ae c13d 7eab 983e e745 013e e535 c03b
00000020: 7c33 58be 4166 2cbe f435 ec3d fd9e 11be
00000030: 0414 323e 3744 95bd 4958 203e 13a0 08be
00000040: 4efd d03d 7dc5 61bc acf0 0dbe 7a5c 9dbd
00000050: 3e1f 0cbe 0bae c1bd 77bd c83d 350a 35be
00000060: ca3b aa3e 0c2c 0e3d 5759 813e e080 983d
00000070: 732e 42be eee9 f1bd 063a 00be 3e5e e1bd
00000080: 5a3c 4cbd a9e3 883e 5b67 ff3d e666 163e
00000090: 43b8 27bd e7dd 0b3e 24ba 2cbd 4f0f 21be
000000a0: 90cc 9c3d 7a06 9a3d 3b0a 8eb9 9b5f 713d
000000b0: b51a c13d acc1 073e fee5 8abe ddbb 933d
000000c0: 8082 bfbd b3d4 3ebe a3f7 5abe 729f 423d
000000d0: 8b18 133d d860 4fbe 8a3d 7c3e 03aa 14ba
000000e0: f36a a3bd 8828 11bd 837a be3d 29b5 473d
000000f0: d078 ab3d 1fb8 40bd 553b 423e c910 043b
00000100: b400 1cbd ee37 383e ee1a 8ebd 0f30 b33d
00000110: d021 223e c141 8dbe f71c 06be e262 e83d
00000120: 971a 1a3e b8f6 b6bd 840c 123e 520d 303e
00000130: e35a 3bbe 4056 cc3d a8e7 083e ce85 b0bd
00000140: 3415 9cbe d6b3 f93d be3a 1f3d a28c 10be
00000150: 3f62 653e 2fbb 50bc 67b7 acbb a360 2dbe
00000160: 4227 e63c c6c4 143c 20bd 5e3d fd4c dfbd
00000170: 7c1e 9a3e 4be9 943e 9312 5a3d 8352 173e
00000180: bc37 fd3c ecbd d63d fd16 63bc 51ba 09be
00000190: d7f1 c1bd 2d10 1e3d 5246 77bc 1f2a cdbd
000001a0: c18d fdbb 55dd 753c bb38 5ebb 0e81 78bd
000001b0: 9c78 9c3d ed84 69be c332 7bbc 1496 b63d
000001c0: 5d19 533d 8c20 01bd 5ddc 96bb ef5d 6ebe
000001d0: 1fae 0a3d 0a07 27bd bc36 343d 0dec 05be
000001e0: 6bd6 9d3e 4052 d53d 7263 0cbc a1ac 1c3e
000001f0: 93b1 29be 4eb4 443e 41f9 96bb ae25 1cbe
00000200: c3ea c0bd eb9b 3d3d b7e3 e8bc 3905 8f3c
00000210: 809a 493c 21ff 8ebe 8cfc 193e b508 713c
00000220: ac06 26be 236e 2e3c d014 a83d 051a 87bd
00000230: 524f 8bbe 0921 ee3d 4cb8 a3bd 6ead 14be
00000240: 9ee0 743e cabd 08bb fe61 ab3e 4121 2a3e
00000250: 0475 14be 2030 a4bc 95b8 d0bc 57c7 403c
00000260: 298c 983e 7d10 7e3e 1fbc 28be 69a4 ad3c
00000270: 23cb 0ebe d5f3 593d d0a7 a6bd 6666 87be
00000280: 855e 69bd 843f 023d ba23 f23d c6ad f43c
00000290: c72d 043e 10d9 053e d068 0cbe 77cc 6f3d
000002a0: edb6 6ebd 7b43 903d ae18 abbd e623 a8bd
000002b0: 6207 4ebd 741f 90be 7503 973d 2981 b3bd
000002c0: 3b12 983e 68c2 92bd 78e7 b33d 45e3 de3d
000002d0: 4aa7 8fbd b086 babd 129b e03d 0498 2c3e
000002e0: bba5 2cbe 998a da3d 8988 67be ec99 8fbd
000002f0: 3da3 eabc 8cb3 9d3c 5637 193d bf7d 0a3e
00000300: d554 6fbd ab51 583d 20e9 b7bd d592 08be
00000310: 57cc fabd e353 66be cc42 b53d 4d33 13be
00000320: a586 7abe 0f07 a4bc 14c6 f5bd 2822 fd3c
00000330: 4987 2f3e d647 fabd c847 463e 9e15 933d
00000340: 74a7 4abe 1b9d 18bd 0cd7 573e 63f3 fe3c
00000350: 73ef e73d 271b 2e3e c09f 43bd d213 233e
00000360: ff4e 73be 8c5e 863d 20b4 dd39 437b 95bc
00000370: cb16 d73d 8aa4 cebd fd05 073c aff2 0bbe
00000380: e3c4 183e ca38 94bd ab56 91bc 91b6 8cbd
00000390: fefd 883d 8e23 9cbe f44a 0abe 9619 aa3d
000003a0: addc a2bd b580 5cbd 0550 6a3e 241f 1fbd
000003b0: fc84 293e 2c26 823d 97e6 27be 1fbe e13d
000003c0: 867f e53d 1c9b 3b3e 8c36 eb3d d125 d23d
000003d0: e9af 773b 8be5 973e dcdd e93d e552 6fbe
000003e0: bd57 9dbd b793 27be 94bd 313e 5f0b 463e
000003f0: 7fd2 03bd a977 18be 8952 6f3e aee0 ff3d
-0.037221365 0.07008355 -0.015950834 0.2878048 0.094570205 0.29818338 0.12624322 0.0058657997
-0.2111339 -0.16835882 0.11533728 -0.14220805 0.17390448 -0.072884016 0.15658678 -0.13342313
0.10204564 -0.013779995 -0.1386134 -0.07683654 -0.13683793 -0.09457024 0.098017626 -0.17679675
0.3324874 0.034709975 0.25263473 0.07446456 -0.18963031 -0.11812197 -0.12522134 -0.110043034
-0.049862243 0.2673619 0.12470885 0.1468769 -0.04094721 0.13658868 -0.042169705 -0.15728496
0.07656205 0.075207666 -0.00027091973 0.058929067 0.09428922 0.13257474 -0.27128595 0.072135665
-0.09351063 -0.18635826 -0.21383528 0.04751534 0.035912078 -0.20251787 0.2463285 -0.00056710857
-0.07979383 -0.035439044 0.09300711 0.048756752 0.083726525 -0.04705059 0.18967946 0.0020151606
-0.038086608 0.17990085 -0.0693873 0.08749401 0.15833211 -0.2758923 -0.13096987 0.113469854
0.15049206 -0.089337766 0.14262587 0.17192581 -0.1829639 0.099773884 0.1336962 -0.08619271
-0.30484927 0.12192504 0.03887438 -0.14116147 0.22400759 -0.012739941 -0.0052708867 -0.16931395
0.028094891 0.009080118 0.054379582 -0.10903356 0.30101383 0.29084238 0.05324037 0.1477757
0.030910365 0.104854435 -0.013860461 -0.1344998 -0.094699554 0.038589645 -0.015092449 -0.100177996
-0.0077378456 0.015006383 -0.0033908326 -0.06066995 0.07640192 -0.22804613 -0.015331927 0.08915344
0.05153786 -0.03152518 -0.004603906 -0.2327802 0.03385746 -0.040778197 0.04399751 -0.13078327
0.3082765 0.104160786 -0.0085686315 0.15300228 -0.16571645 0.19209406 -0.00460735 -0.15248749
-0.09419777 0.046291273 -0.028428895 0.017458545 0.012304902 -0.27929023 0.15037745 0.014711549
-0.16213483 0.010646376 0.08207095 -0.0659676 -0.27208954 0.11627395 -0.07994136 -0.14519283
0.2391381 -0.0020865076 0.334732 0.16614248 -0.14497763 -0.020042479 -0.02547864 0.011766276
0.29794434 0.24810977 -0.16478013 0.021196561 -0.13944678 0.053211052 -0.081374764 -0.2644531
-0.056974906 0.031798854 0.118232206 0.029868018 0.12908088 0.13071084 -0.13711858 0.058544602
-0.05827992 0.07044121 -0.08354317 -0.08209972 -0.05030001 -0.28148997 0.07373706 -0.0876487
0.2970141 -0.07165986 0.087843835 0.10883192 -0.0701433 -0.09107721 0.10967077 0.16854864
-0.16860096 0.10670967 -0.22610678 -0.0701178 -0.028642291 0.019250654 0.037406288 0.13524531
-0.05843051 0.05281226 -0.08980012 -0.13337262 -0.12246006 -0.22492938 0.08850631 -0.14375038
-0.24465425 -0.020022897 -0.12000671 0.030900076 0.17141451 -0.12220733 0.1936332 0.071818575
-0.19790441 -0.037259202 0.21078128 0.031121915 0.11324968 0.17002545 -0.04775977 0.1592553
-0.23760603 0.06561002 0.00042286608 -0.018247252 0.10502394 -0.10089977 0.008241174 -0.13666795
0.14918856 -0.07237394 -0.017741522 -0.06870759 0.0668907 -0.30495876 -0.13505155 0.083056614
-0.07952247 -0.053833682 0.22882088 -0.038848057 0.16554636 0.06354937 -0.16396557 0.11022591
0.11205964 0.18320888 0.11485013 0.10261119 0.003779406 0.29667315 0.114192694 -0.23371466
-0.076827504 -0.16364942 0.17357475 0.19340275 -0.032183167 -0.14889397 0.23371328 0.12494026

recurs2.weight_hh f4 [120, 30]
00000000: 6eaf fc3c 91fe bd3d b017 573e f475 1abe
00000010: bfd5 963d 9e06 c0bd 3fae 353e 2b48 e2bd
00000020: 6922 613c d42a e23c 9839 29bd 0a1d 483d
00000030: ffdd 6bbd a227 5b3d a4a2 f9bc 63cb 873c
00000040: 4b3a f13d f134 f03d 60f8 07be f22a 1dbe
00000050: 6d44 e1bc 5fbb 753c e248 9cbd 8552 8ebc
00000060: 60fa 373c 547f 82bd e170 25bd b9b6 53bd
00000070: bcdf 21be 39b9 f53d 167f ccbc 61f9 cebd
00000080: d325 20be 5e91 883d 00f3 27bd 8060 863d
00000090: 8168 303c 0e4c 72bd 7680 b8bd 5da8 8c3d
000000a0: c8d9 72be cfb1 a5bd 79b0 8bbd aee4 ddbc
000000b0: 6cff 143e 9841 343e 25f0 523e ee67 c4bd
000000c0: 1bbf ddbd d64d 0c3d ce05 433e 8f14 84bd
000000d0: 8873 d8bd 9cad 14be ae1f 9dbd 7b9a dbbd
000000e0: f7e6 1fbe 9082 2abc d64e 743b ec61 b43d
000000f0: ff63 0dbe bb03 9abd 866e 363e e563 1cbd
00000100: 2e88 1a3e f88f e4bd 2af6 dd3b 5509 a93c
00000110: 6a5d 19bd ff49 8bbe 2d92 9b3d 1624 8dbd
00000120: f617 a5bc 7f5c 043d d2b9 413e 82f5 403d
00000130: 924f e93d 1a7b 60bc 3a4e f63d 6d73 a23d
00000140: d098 1f3e 9f30 3e3d debf 51be eed7 7a3d
00000150: 6790 39be d000 82be a5ce 01bb eb2a 2a3c
00000160: 1403 efbd 1800 533e 1f4b 8fbd 2143 d93b
00000170: 2883 5c3e af7c b03d 832b 93bd 3125 63bc
00000180: 3993 5fbd 9793 3dbe bb7a 5fbd 7b2e 98bd
00000190: f12d 63be ffc0 b3bd b5a6 77be 2999 dcbc
000001a0: f5cd 0e3e 94ed 0a3c 2b2d 0f3e 6ef1 1b3e
000001b0: 4027 833d c199 623b c910 a43c 0e4c f03d
000001c0: 2100 65be 60f7 e7bd a294 9c3d f5f6 93bd
000001d0: 27de 9e3b 75db 5e3e 2862 fc3d 0321 f33d
000001e0: 8ead 083e 089b 3a3e 6d1d 32bd 260d 523d
000001f0: 219a cd3d 8e05 a03d 3ce8 5b3e cbe6 08be
00000200: ccd2 4e3d 4fb8 f13d 104d 5ebe e4a5 afbd
00000210: 25fc 5b3d 5639 063e 4642 833e 453f 24bc
00000220: 0046 243e 567d 16be bf4a 14be 6451 7ebc
00000230: f22b f3bc d1ca bd3d fa2a 93bd a7c5 193e
00000240: d273 66bd a867 f93b 0f0b 3abd e9a8 453e
00000250: 947a e53b 4aa0 5a3e 07e1 50be 381b 3abd
00000260: e514 3d3e a1d3 133e 8af8 b2bc 4b49 353e
00000270: eaf1 183e 6384 33be ba77 2a3c 0147 9c3d
00000280: 10de 2cbe cc62 013e fa2c 0dbe c0a4 c4bd
00000290: 9ca4 2fbc fcb3 1cbd 4bc0 5f3e 01d6 e53d
000002a0: 19bf 923d b6ac 6b3d ec23 ef3d 3b01 553c
000002b0: a05c 62be 2396 0fbe d06a cebd 6817 a83d
000002c0: 5bed dcbd 9788 133d 9073 5b3d 2094 8d3e
000002d0: 22df 2abd a705 033e a576 cbbd 993b 4abe
000002e0: df54 18bd 03e1 513d bd30 123e 6def 9f3d
000002f0: 4900 3f3e d76e c6bd 5428 abbc c50e 313e
00000300: 74a7 f9bd 5692 0c3e f972 d6bd b2fa b43d
00000310: 147d 093e 48ed 233e 2c39 bcbc d752 05bd
00000320: 1d77 3bbd 2200 7c3e 75d0 22bd 9113 a6bd
00000330: d5f4 dd3b ac65 683d 8ef8 c3bd f148 08be
00000340: 3d94 93bd eaea ec3d 4681 b7bc 0cec dd3c
00000350: d51b f13d e729 49ba 8708 233e e2bf d6bd
00000360: 284f 653e 108e 60bc bb24 123e dad9 7e39
00000370: e490 72be 7375 0b3e e35f 01be c5d8 cabd
00000380: 537c 2b3e edee 2d3d 47f9 6dbd 9b5b b8bd
00000390: 29bc fd3d 95f2 61be 79b1 033e aa50 eb3d
000003a0: fc4c 1cbe 9cd9 3e3d 7136 2abe 218d 84bd
000003b0: 8f71 d8bd e7d6 063e f7c6 06bd 5569 94bd
000003c0: 26d6 9fbd 717c 3a3e 8c69 52bd 1436 0a3e
000003d0: b968 1a3e 6c30 30bd 4aaa 923d e5fb da3d
000003e0: 1a0d 643b 7e71 8bbd a555 23bd 375a 3e3d
000003f0: 3e0f 41be 1179 84bd 980f 6a3e 26e8 ba3d
0.03084537 0.0927707 0.2100513 -0.15084058 0.073649876 -0.09376262 0.17742251 -0.11048921
0.013741114 0.027608313 -0.04131469 0.04885582 -0.05758476 0.053504594 -0.03047306 0.016576475
0.117786966 0.11728848 -0.13278341 -0.15348414 -0.027498448 0.014998286 -0.07631089 -0.017373333
0.011229128 -0.06371942 -0.040390853 -0.05168793 -0.15808004 0.11998219 -0.024962943 -0.10106159
-0.15639429 0.066683516 -0.041003227 0.06561375 0.010767103 -0.059154563 -0.09008877 0.0686805
-0.2371589 -0.08090555 -0.06820769 -0.027086582 0.1455056 0.17603147 0.2059942 -0.095901355
-0.10827466 0.034253918 0.19045183 -0.06449234 -0.10568911 -0.14519352 -0.07672058 -0.10722824
-0.1561545 -0.010407105 0.0037278435 0.088077396 -0.13807677 -0.07520243 0.17815599 -0.038181204
0.15091011 -0.11160272 0.00677373 0.020634333 -0.037442602 -0.27204892 0.0759624 -0.068916485
-0.020153027 0.032314774 0.18918541 0.047109134 0.1139213 -0.013701225 0.12026639 0.07932172
0.15585637 0.046433087 -0.20483348 0.061241083 -0.18121491 -0.25391245 -0.0019807008 0.010386209
-0.11670509 0.20605505 -0.0699675 0.006630317 0.21534407 0.086175315 -0.071860336 -0.013863848
-0.05458376 -0.18513332 -0.054560404 -0.074307404 -0.22185494 -0.087770455 -0.24184687 -0.026928501
0.13945754 0.008479495 0.13982074 0.15228817 0.06403971 0.0034576508 0.020027535 0.11733256
-0.2236333 -0.1132648 0.07645537 -0.07224838 0.00484826 0.21763404 0.12323409 0.11871531
0.13347456 0.18223202 -0.043485094 0.05128207 0.100391634 0.078135595 0.21475309 -0.1336929
0.050494 0.11802732 -0.21709085 -0.08576563 0.05370726 0.1310781 0.256365 -0.01002485
0.16042328 -0.1469625 -0.14481638 -0.015522335 -0.02968404 0.092672 -0.071859315 0.15016805
-0.0562628 0.0076112337 -0.045420703 0.19302715 0.007003138 0.21350208 -0.20398341 -0.045436114
0.18465002 0.14436199 -0.021847028 0.1770374 0.14936033 -0.1753097 0.010404522 0.076307304
-0.16881585 0.12635344 -0.13786688 -0.09601736 -0.010720398 -0.038257584 0.21850698 0.11222459
0.07165355 0.057537757 0.116767734 0.013000782 -0.22105646 -0.14022116 -0.100789666 0.082075894
-0.107874595 0.036018934 0.053577006 0.27652073 -0.041716702 0.12795125 -0.09934739 -0.19749297
-0.037190314 0.05123998 0.14276405 0.07809339 0.18652453 -0.0968911 -0.020893253 0.1729079
-0.12190142 0.13727698 -0.10471148 0.08836879 0.1342662 0.16008484 -0.02297648 -0.032549705
-0.045767892 0.24609426 -0.03974958 -0.08109201 0.006773571 0.056737587 -0.095688924 -0.13309075
-0.072060086 0.11568244 -0.02240051 0.027090095 0.11772887 -0.00076737854 0.15921222 -0.104858175
0.22393477 -0.013705745 0.14271824 0.00024304484 -0.23688084 0.13619022 -0.12634234 -0.09904627
0.16746645 0.042464186 -0.058099058 -0.09001847 0.12389404 -0.22065194 0.12860669 0.11489995
-0.15263742 0.046594247 -0.1662233 -0.06472231 -0.105685346 0.13167916 -0.03290459 -0.07246653
-0.078045174 0.18211533 -0.05137019 0.13497192 0.15079011 -0.04301493 0.07161386 0.10692576
0.0034797848 -0.06808756 -0.0398766 0.046472754 -0.1885347 -0.06468404 0.22857511 0.0912631

recurs2.bias_ih f4 [120]
00000000: 088c a63e 7782 973e 9cdb 163d 2ec1 333e
00000010: e4ee 6d3d a1a3 ae3d 0fb6 bc3d dc91 a93e
00000020: 4275 203e 7a99 833e f8e8 0438 64e6 253e
00000030: 2bb9 403e c297 8c3d 4985 283e 75b5 383e
00000040: 6baa 963e aff1 133e 5425 023e 8b56 7d3e
00000050: 8a0c ae3d 2368 893e 2081 963e b359 133d
00000060: d597 453e b81f 8d3d 898c 9c3e a15a f53d
00000070: 2dbb 113e 76c6 963e ea14 093e 96b7 353e
00000080: b899 b43b 0d33 fdbc 38d1 a83d efe4 8e3e
00000090: 0162 533e 6dac 333d e127 813e aee5 61bd
000000a0: ac29 573e 43b8 1b3d 1194 b9bc d498 1f3e
000000b0: e10d 4f3e eb33 563e d504 143d bcf2 a13d
000000c0: a8f5 1c3e a44a a73d 4f1c 523d 9ab8 623e
000000d0: d9a6 993c f000 763e 2667 eebc 5f54 ac3c
000000e0: 3347 0b3e 4394 6c3c a99e 91bd a718 4f3d
000000f0: f2d8 bebd cfb8 f73d 4f96 1c3e 9d80 47bd
00000100: 41fc f83d 6a56 1e3e 2f18 0c3e f62d 0ebe
00000110: b54c 14be db96 d4bd 759a 8dbc 39c7 713d
00000120: b0c5 62be 746b 1a3e 98fa 9d3e 44a3 5e3d
00000130: 5b3a f53c 85c3 683c 32dd 00be 6a89 35be
00000140: 05ab 413e 0b87 663e 9119 083d 5c48 21be
00000150: 2b49 843c 6bd0 35be faa7 c63c 4d5d 3f3e
00000160: 18de 543e a1dd 6b3e 4d95 553e b140 a53e
00000170: c548 ca3d ba4a 493e cafd 0c3d 9e36 843e
00000180: b7ea 543e 0a09 743e 4d32 923e 8c28 533e
00000190: c6be 52bc 252b 113e f168 bdbb dd74 983e
000001a0: 399f d03d 6790 c83c fd54 863e 3bcb 503d
000001b0: ef57 263e 3231 883e 452c 5c3e 76ea 6a3e
000001c0: 2d03 153e 8133 ea3d 8ef8 3a3e 4daf 91bd
000001d0: de0b cd3d b07c 843e 6cb4 883e 4a33 cabc
0.3252871 0.29591724 0.03683053 0.17554161 0.058089152 0.085273035 0.092144124 0.33119094
0.1566973 0.2570303 3.168822e-05 0.16201168 0.18820636 0.06864883 0.16457094 0.1803797
0.29426894 0.14447664 0.12709552 0.24740045 0.084984854 0.26837263 0.2939539 0.035974216
0.192962 0.068908155 0.3057597 0.11980177 0.14231558 0.2944829 0.13386884 0.17745814
0.0055114888 -0.030908132 0.0824303 0.27909037 0.20642854 0.04386561 0.25225738 -0.05515068
0.2101199 0.038017523 -0.022653611 0.15585643 0.20220138 0.20918243 0.03613742 0.07907626
0.15328085 0.081685334 0.05129653 0.22140732 0.018756317 0.24023795 -0.02910192 0.021036325
0.13601379 0.014439645 -0.0711034 0.05056062 -0.09318723 0.12095796 0.15291713 -0.04870664
0.121574886 0.15462652 0.136811 -0.1388472 -0.14482386 -0.10380336 -0.017285565 0.059027884
-0.22145724 0.15080053 0.3085525 0.05435492 0.029935053 0.014206772 -0.1258438 -0.177282
0.18912895 0.22512452 0.033227507 -0.15750259 0.01614817 -0.17755286 0.02425002 0.18687935
0.20787847 0.23033763 0.20857735 0.32275918 0.09877161 0.19657412 0.03442172 0.2582292
0.20792662 0.23831573 0.28554 0.20620936 -0.012862867 0.14176615 -0.0057803323 0.2977666
0.10186619 0.024482919 0.26236716 0.050975066 0.16244482 0.26600033 0.21501262 0.22941002
0.14551993 0.11435605 0.18258879 -0.07113514 0.10012029 0.2587638 0.2670015 -0.02468266

recurs2.bias_hh f4 [120]
00000000: 1392 573e 26ca a33e 8295 503c be98 3b3e
00000010: 497e a63d 9901 363e 63bc 013d 8f5f a73e
00000020: 4c66 853e 31d2 2d3d 032c b93c 9f66 d13d
00000030: 2174 123e 1504 4f3e 554f ae3d 4cbe 8e3d
00000040: 9daa 133e 916d b83c b956 493e 7b29 abbc
00000050: 14a0 f63d 18ba 46bb f9d9 8b3d 50ad 143e
00000060: 81cf a73d 7b6a 99bb 30fe 3b3e 5613 4e3d
00000070: c479 3f3e 4b00 5c3e 938a b03d 0718 d3bd
00000080: 4efe b63c 195b e13d daa3 d93d 6967 a8bc
00000090: cb3b 483e 9325 2b3e 6236 e43d 6134 8d3d
000000a0: 80e9 163c 7956 eb3d 25c4 4a3e 2225 a13d
000000b0: 4c38 063e 7ca8 4c3e ab16 523e f043 0d3d
000000c0: 5350 153e efcf 123e a85e 153e 50a4 9fbb
000000d0: 12b7 bd3d b9c0 033e ea2b 42bd f596 0a3e
000000e0: 1eca 05bd 02b7 353e a3fa f03c 7f6f 043e
000000f0: 9d7b 18be 978b 043e 9f40 3b3e 16e7 143e
00000100: ee05 993d 1ad5 74bd 6569 3b3e bf50 ea3c
00000110: 6331 30be 794d cfbd 989e 9abd ad3f 1d3d
00000120: ef5f 41bd 0a39 133e 476f e63d ae40 1e3d
00000130: 8331 e6bb fa0e be3d e335 1abe 6a64 0e3e
00000140: 73ae d73b e8a4 353e 32e5 adbd 8c09 84bd
00000150: 4dae 7b3c 3c4d a2bd 902b 1ebe 2036 14be
00000160: b862 01be cefa 803e 50d3 833e a8bc ac3d
00000170: 5a50 7c3e 0a31 363e 4221 193e 9433 923d
00000180: be51 c73c f3cc 923e 8750 ac3e 9cc6 07be
00000190: 70c1 3a3e 5814 703e 5dbe 253d f9e3 9f3d
000001a0: 31a5 e8bc 7e2c 723e 061c b83e ec25 693e
000001b0: 8089 0b3e 18c0 583e e5e2 aabb 6496 b33c
000001c0: b109 533e 839e 943e 8211 3e3e 15b6 613d
000001d0: dedf 3a3e bf46 7fbd 916a 913e 3a39 fc3c
0.21051817 0.31990165 0.012730958 0.18319985 0.08129556 0.17774047 0.0316738 0.32690093
0.2605461 0.042436782 0.022603994 0.102246515 0.14302112 0.20216401 0.08511225 0.0696989
0.14420553 0.022513183 0.19661988 -0.020893803 0.12042251 -0.0030323323 0.06828684 0.14519238
0.08193875 -0.004681883 0.18358684 0.05031141 0.18698794 0.21484487 0.08620181 -0.10307317
0.022338059 0.110037036 0.10626955 -0.020557122 0.19554059 0.16713552 0.11143185 0.06894756
0.009210944 0.11491103 0.19801386 0.07868411 0.13107413 0.19986147 0.2051646 0.03448862
0.14581423 0.14337133 0.1458689 -0.0048718825 0.092634335 0.12866487 -0.04740516 0.13534148
-0.032663457 0.17745593 0.029416388 0.12933157 -0.14890905 0.12943874 0.1828637 0.14541277
0.07471834 -0.059773542 0.18301924 0.028602956 -0.1720634 -0.101221986 -0.075497806 0.038390804
-0.04721063 0.14377227 0.11251693 0.038635902 -0.007024945 0.092802 -0.15059619 0.13905492
0.0065820753 0.17738688 -0.08490981 -0.064471334 0.015361381 -0.079248875 -0.15446305 -0.14473772
-0.12635314 0.2519135 0.25747156 0.08434421 0.24640027 0.17792144 0.14954093 0.07138744
0.02433097 0.2867199 0.33655187 -0.13259357 0.18237853 0.2344526 0.040464748 0.07807154
-0.028399082 0.23649785 0.3595888 0.22768372 0.13626671 0.21167028 -0.005215036 0.021922298
0.20609166 0.29027185 0.18561366 0.055105288 0.18249461 -0.062323328 0.28401616 0.030789007

output.weight f4 [2, 30]
00000000: 4935 e2bd 162f 8abd 530f 093e ad6b 86bd
00000010: 55ce 0a3d fcd9 d3bd 903d 1e3e 36bb 29be
00000020: 7d19 22be d564 73be 3075 2b3d fa8d ac3d
00000030: 18bc 4ebe 64db d3ba d885 7e3e 6db1 733d
00000040: 4d63 3d3e 6cb1 cbbc 8486 72bd 306d c83d
00000050: 1e2b e23d 6a52 22bd 8952 95bd a84d a43d
00000060: b650 8e3d eb5e f0bd 6724 75be 2934 3b3e
00000070: 932d 2fbd b989 8d3d 3bc5 9b3e f15b 823e
00000080: 1233 563e a5be 853e 10f7 30be 0da7 553e
00000090: fa03 51be 981b 5b3e a635 813e de8a d33d
000000a0: 30cb 5abe 10a1 3dbe 3c2b 30be 1bf2 82be
000000b0: 1b2a 2c3e fd1b 973e 5a15 563e 1b41 7bbe
000000c0: 9f0f 953e ff16 87be 33ca 473e fa0b e73d
000000d0: f84c 693e 2507 4d3e 91e1 b8be 577c 123e
000000e0: f7f7 34be 8629 89be 80fe 973e e75b 1b3e
-0.110453196 -0.06747262 0.13384752 -0.06563506 0.03388818 -0.103443116 0.15453172 -0.16575322
-0.15830036 -0.23768933 0.041859806 0.084255174 -0.2018894 -0.0016163406 0.24855745 0.05949538
0.18494911 -0.024864875 -0.059210315 0.09786451 0.1104338 -0.039629377 -0.07291133 0.08022624
0.06948988 -0.11736854 -0.23939668 0.18281616 -0.042768072 0.06911034 0.30423912 0.2546077
0.2091792 0.26122013 -0.17281747 0.20864506 -0.20411673 0.21397245 0.25236243 0.10329221
-0.21366572 -0.18518472 -0.17203993 -0.25575337 0.16812937 0.2951354 0.20906582 -0.24536555
0.2911348 -0.26384732 0.19510727 0.11281581 0.22783267 0.20022257 -0.36109594 0.14305244
-0.17672716 -0.26789492 0.29686356 0.15171777

output.bias f4 [2]
00000000: a882 ef3d d335 9c3c
0.116948426 0.019068634

switch.weight f4 [1, 30]
00000000: 9255 083e 9ed6 82bd 1a3b cbbd d955 7abd
00000010: 8f76 47bd 624a 953d bc01 1dbd 378c b53d
00000020: 5c24 10be f964 b93c b6ab 0f3e 8c3b c2bc
00000030: ad22 163e 73fc 573d ad32 36be 88d4 dfbd
00000040: d0c8 143e d0d2 0ebd d089 363e e152 3abe
00000050: e2a5 bfbd 03d6 113e ccd2 273e adb7 25be
00000060: 91ad 603d 5191 33be 320b 03be 522f 9f3d
00000070: fbeb b0bd c203 8cbc
0.13313892 -0.06388591 -0.09923382 -0.061117027 -0.04869705 0.07289578 -0.038331732 0.088646345
-0.1407637 0.022631155 0.14030346 -0.023710035 0.14661665 0.05273099 -0.17792769 -0.10929209
0.14529729 -0.034869015 0.17826009 -0.18195678 -0.093578115 0.14241795 0.16389006 -0.16183348
0.054853026 -0.17535903 -0.1279724 0.077726975 -0.0863876 -0.017091636
