checkpoints/RAND-VC-032e2829/model.pth (torch, 49793 bytes, 11 tensors)

recurs1.weight_ih f4 [120, 2]
-0.09368621 0.35673222 -0.2227407 0.0038490468 -0.1728184 -0.11441479 -0.15141732 -0.042882323
-0.124287955 0.16250473 -0.20502958 0.22490212 -0.28781164 0.11903132 -0.14810982 0.23630528
-0.031792477 0.35697484 -0.25094613 -0.28502676 -0.051538426 0.23277631 -0.05447074 0.3442249
-0.19518435 -0.025202066 0.03128841 -0.36809847 -0.21897283 -0.2447205 -0.16718705 0.053017274
-0.18815383 -0.26858464 -0.1926729 -0.2935128 -0.18020234 0.34769613 -0.030901995 0.22964433
-0.03995854 0.031507883 -0.06344345 -0.20740701 -0.2617283 -0.28815854 -0.047394693 -0.112185515
-0.19947347 0.22523883 -0.008319251 0.38985106 -0.024666797 0.2190341 0.0950056 -0.23605174
-0.00014949488 0.05373119 -0.213777 -0.12832183 0.04387592 0.2690745 -0.042132262 0.184945
0.14027959 -0.22031023 -0.064235 -0.07004982 0.17398512 0.31330663 -0.21638213 0.134491
0.019827683 0.23936662 0.21089667 0.3403007 0.055772796 0.068258755 0.0502166 -0.30447558
-0.16911973 0.23847981 0.21283653 -0.0009112607 3.2575e-05 -0.099667855 -0.09943881 -0.28951007
0.08654177 -0.28807047 0.13245997 -0.006582078 0.14562081 -0.060788665 -0.13974553 -0.1962866
0.14059454 0.18271445 -0.17115828 0.02431722 0.15459281 0.18492797 -0.027937323 -0.040701132
-0.19943859 -0.22130977 -0.10057326 -0.36326236 -0.07504468 0.23648596 -0.13765104 0.25475493
-0.103817984 0.3183645 0.19955145 -0.22825083 0.019947894 0.15270591 0.06646822 0.027149536
-0.033476036 0.26052275 -0.060539 0.2986193 -0.17017339 -0.35630155 -0.18472618 -0.28652605
-0.026214678 -0.39344934 -0.16475336 0.2699055 -0.015584638 -0.21935123 0.19782022 -0.23508248
0.09092818 -0.26753345 0.14023638 0.3678993 0.10057061 0.25755358 0.11255837 0.23226315
-0.15751183 -0.22027133 0.20365217 0.18632329 -0.1298757 -0.3648634 -0.17029993 -0.35516575
0.047639113 0.3124193 0.029765667 -0.3415192 0.12705739 -0.29827294 -0.0069651306 -0.25532493
0.031245552 -0.1580834 -0.22621663 -0.3716249 -0.14471173 -0.23860504 -0.049227387 0.33127517
-0.2684993 0.20245968 0.27711636 -0.25633696 0.0714091 0.26279452 -0.0813125 0.31233412
0.01003545 -0.32213372 0.12175723 -0.3825295 -0.06136992 0.23673354 0.091563754 0.19481257
0.012998609 -0.15640454 -0.12459486 -0.23955776 -0.24513865 0.22537816 0.0628224 0.37265465
-0.21407542 0.23840554 -0.17038615 0.14741048 -0.16856767 0.3275536 -0.1831314 -0.23904411
-0.0708814 0.22976168 -0.16320094 0.10706149 -0.19675453 0.027059518 -0.20648023 -0.050757732
-0.029919248 -0.19816662 -0.0715031 -0.16459364 -0.021050615 -0.24283794 -0.05377044 -0.11978717
-0.19263986 0.10836516 0.03725667 0.02240252 -0.06448571 0.3054362 0.0041192435 -0.06111374
-0.28080994 -0.13169059 -0.24923848 -0.3013748 -0.15864986 0.23786597 -0.068716526 0.3672923
-0.022389712 0.38598782 0.123904765 -0.2648091 0.06897902 0.06798795 -0.149888 -0.06324029
00000000: 8ede bfbd 9ba5 b63e 2316 64be 4a40 7c3b
00000010: 4ff7 30be 4d52 eabd 240d 1bbe 60a5 2fbd
00000020: af8a febd a467 263e 46f3 51be be4c 663e
00000030: 0c5c 93be b1c6 f33d 1aaa 17be 03fa 713e
00000040: d438 02bd 68c5 b63e 037c 80be 07ef 91be
00000050: f519 53bd ea5c 6e3e b61c 5fbd 3f3e b03e
00000060: 68de 47be 9074 cebc 4728 003d 6777 bcbe
00000070: 6a3a 60be 0398 7abe 1533 2bbe a428 593d
00000080: 66ab 40be ed83 89be 0b4c 45be 4f47 96be
00000090: f686 38be 3a05 b23e 2e26 fdbc e227 6b3e
000000a0: 91ab 23bd 690e 013d a4ee 81bd 8162 54be
000000b0: 4001 86be 8489 93be f020 42bd 85c1 e5bd
000000c0: c642 4cbe 02a5 663e 784d 08bc 8f9a c73e
000000d0: 0612 cabc 7a4a 603e 4c92 c23d 8cb7 71be
000000e0: bac1 1cb9 3c15 5c3d 5ce8 5abe cc66 03be
000000f0: 3db7 333d 22c4 893e e192 2cbd 3962 3d3e
00000100: 74a5 0f3e 0199 61be a48d 83bd 4876 8fbd
00000110: 2829 323e ba69 a03e 4793 5dbe 02b8 093e
00000120: aa6d a23c 861c 753e 4cf5 573e e53b ae3e
00000130: 0472 643d 3fcb 8b3d ecaf 4d3d 39e4 9bbe
00000140: b92d 2dbe 0d34 743e d2f1 593e ace1 6eba
00000150: 24a1 0838 a91e ccbd 93a6 cbbd aa3a 94be
00000160: d03c b13d f97d 93be 96a3 073e 79ae d7bb
00000170: 9f1d 153e 89fd 78bd 7419 0fbe 5bff 48be
00000180: 04f8 0f3e 7f19 3b3e 1e44 2fbe e834 c73c
00000190: 944d 1e3e c25d 3d3e d0dc e4bc 3bb6 26bd
000001a0: a139 4cbe 079f 62be 5af9 cdbd 86fd b9be
000001b0: 06b1 99bd 6029 723e 65f4 0cbe 3d6f 823e
000001c0: 869e d4bd ac00 a33e 3757 4c3e 96ba 69be
000001d0: c469 a33c f05e 1c3e 7d20 883d b468 de3c
000001e0: 2b1e 09bd 3d63 853e bef7 77bd a1e4 983e
000001f0: ef41 2ebe 286d b6be dc28 3dbe 8bb3 92be
00000200: 2ac0 d6bc 3172 c9be 1bb5 28be 0e31 8a3e
00000210: b656 7fbc 9c9d 60be 6291 4a3e 76b9 70be
00000220: 8e38 ba3d 25fa 88be 209a 0f3e 4c5d bc3e
00000230: f7f7 cd3d 10de 833e 0185 e63d 64d6 6d3e
00000240: c84a 21be cf8e 61be 328a 503e 88cb 3e3e
00000250: 23fe 04be 60cf babe 1b63 2ebe 49d8 b5be
00000260: 3b21 433d 6cf5 9f3e 21d7 f33c 9bdb aebe
00000270: 551b 023e 3bb7 98be c03b e4bb f3b9 82be
00000280: acf6 ff3c 9de0 21be 55a5 67be 9e45 bebe
00000290: 502f 14be e154 74be a8a2 49bd e69c a93e
000002a0: be78 89be 9751 4f3e 32e2 8d3e 993e 83be
000002b0: ef3e 923d 018d 863e 2b87 a6bd 42ea 9f3e
000002c0: ba6b 243c b6ee a4be db5b f93d e8da c3be
000002d0: 065f 7bbd 476a 723e c785 bb3d f27c 473e
000002e0: 1ef8 543c 8328 20be 972b ffbd a14e 75be
000002f0: a005 7bbe 88c9 663e 08a9 803d 97cc be3e
00000300: 9636 5bbe 9520 743e b579 2ebe c6f2 163e
00000310: 019d 2cbe 1bb5 a73e cc86 3bbe fbc7 74be
00000320: 442a 91bd a546 6b3e 261e 27be 0e43 db3d
00000330: 057a 49be ecab dd3c 8e6f 53be 57e7 4fbd
00000340: 3619 f5bc 31ec 4abe 3870 92bd 3c8b 28be
00000350: 5772 acbc 82aa 78be 653e 5cbd fa52 f5bd
00000360: 6243 45be 8eee dd3d 739a 183d 7d85 b73c
00000370: 1511 84bd 2262 9c3e b8fa 863b 6752 7abd
00000380: 52c6 8fbe e6d9 06be 5f38 7fbe cc4d 9abe
00000390: 1c75 22be 2393 733e 40bb 8cbd bd0d bc3e
000003a0: a16a b7bc 32a0 c53e c8c1 fd3d 0f95 87be
000003b0: df44 8d3d 443d 8b3d 3d7c 19be 2084 81bd

recurs1.weight_hh f4 [120, 30]
0.15833701 0.23943451 -0.048283312 0.111654624 -0.005435252 -0.07375743 0.036554363 -0.24318513
-0.07515131 -0.06625632 0.051106825 0.08990083 0.10518479 -0.2080387 -0.012685092 -0.097064294
-0.20251793 0.063113764 -0.2097652 -0.24402164 -0.22026022 0.087804474 0.23739626 0.09287056
0.14597844 -0.19173792 0.07295981 0.023664914 0.07160485 0.018284315 -0.02978056 -0.05128037
-0.017677743 0.12440314 -0.14502153 -0.107608266 0.122969605 -0.16771132 -0.059898444 -0.05897171
0.073731996 -0.09270634 -0.17781092 0.0173105 0.16613969 0.18027052 -0.16328077 0.044042297
-0.106169164 -0.07063334 -0.20295665 0.05933184 0.20364653 -0.14209744 0.02159726 -0.19382691
0.18847369 -0.16151734 0.04035978 -0.100786164 -0.023964405 -0.079880685 0.04086154 0.16502185
0.15511896 -0.11994376 0.13034149 0.033044048 0.059246924 -0.14177601 -0.24350029 -0.14414799
0.13898708 -0.18629381 0.19817401 0.23732175 -0.21604033 0.11339273 0.08116688 0.02969854
-0.09892281 0.14398333 -0.04594727 -0.10686287 0.20643273 0.08706559 0.17457752 -0.09480371
0.1925012 0.03211758 -0.028503198 -0.107827954 0.24981062 0.26281753 -0.17348397 0.18096718
0.049726155 0.06329961 0.04865802 0.05807776 0.012939343 0.027793678 0.26561558 -0.00022088815
0.0016254575 0.2257372 -0.002735138 0.17786604 -0.20797673 -0.021766476 -0.22027798 0.19241759
0.0664712 -0.0089883795 0.20428514 -0.036856677 0.06802868 0.02480205 -0.19406025 0.05639446
-0.008168238 -0.08716334 -0.0036752194 0.26356858 0.03017556 0.28768137 0.066794865 -0.27494472
-0.22958769 -0.14681762 -0.01499279 0.18713135 -0.1426899 -0.23133518 -0.048903994 -0.058703903
0.022310223 0.20720159 0.010912484 0.037763525 0.032759275 -0.066747695 0.19698586 0.04508426
0.17680386 0.05641757 0.21932843 0.03966805 -0.15790847 0.069281094 0.14852434 0.061357222
0.042664733 0.06739684 -0.25435716 0.24388923 0.040306646 -0.13908377 -0.22123908 0.06435737
0.2814019 0.05765541 -0.14290336 -0.03345252 0.23138729 -0.15691416 0.10598719 0.12067803
-0.2020231 -0.05413312 -0.27846548 -0.052710127 0.34890088 -0.15213016 0.0007043417 -0.21479504
0.09055537 -0.07398821 -0.08018018 0.13910116 0.13541432 0.019362032 0.11195436 0.2095577
-0.038772404 -0.042610276 -0.12868318 -0.25202903 -0.17297257 -0.04261681 0.03386733 0.15456446
0.1340817 -0.12267601 -0.016657079 -0.06989634 -0.03561306 -0.1703533 -0.059026856 -0.29730216
-0.32162973 -0.22191228 0.0804934 0.012451966 -0.05786293 0.006606601 0.06309473 0.035525233
-0.10243968 -0.21006747 0.20889984 0.14327337 0.22473592 0.158532 -0.17214984 0.20355175
-0.021682188 0.040496096 -0.18381105 -0.04742962 -0.085311614 -0.059660137 -0.08699472 -0.23928574
0.11217817 0.020329367 0.045573108 -0.19799545 -0.20504977 -0.1313401 -0.017598338 0.1357649
0.20321728 -0.07135644 0.116855875 -0.25996366 -0.08488659 0.092120446 -0.14541942 0.04114913
-0.02503358 0.0016958024 -0.103114605 0.22249311 -0.11134018 0.2458217 0.022699242 -0.00041340207
-0.08403606 -0.08825642 0.09070612 0.090106554 -0.06614332 -0.3103114 0.2824188 -0.10881218
00000000: 1923 223e 522e 753e b9c4 45bd 2eab e43d
00000010: 331a b2bb 230e 97bd 07ba 153d 8605 79be
00000020: eee8 99bd 65b1 87bd 6455 513d ed1d b83d
00000030: 206b d73d 1908 55be 22d5 4fbc a5c9 c6bd
00000040: dc60 4fbe ca41 813d b0cc 56be cfe0 79be
00000050: e58b 61be d5d2 b33d 0118 733e ec32 be3d
00000060: 5f7b 153e f256 44be f46b 953d ecdc c13c
00000070: 90a5 923d fdc8 953c 5cf6 f3bc 5e0b 52bd
00000080: ead0 90bc 13c7 fe3d 8680 14be b961 dcbd
00000090: 7dd7 fb3d 84bc 2bbe 1258 75bd 528c 71bd
000000a0: cd00 973d d2dc bdbd 1114 36be c0ce 8d3c
000000b0: 8620 2a3e d698 383e 1333 27be b265 343d
000000c0: 386f d9bd 36a8 90bd ded3 4fbe f205 733d
000000d0: b788 503e fe81 11be bdec b03c 907a 46be
000000e0: 3fff 403e cd64 25be 4c50 253d fa68 cebd
000000f0: 0051 c4bc 7c98 a3bd 6e5e 273d 7dfb 283e
00000100: 81d7 1e3e 13a5 f5bd 3d78 053e 3259 073d
00000110: e7ac 723d bb2d 11be 2458 79be 889b 13be
00000120: a152 0e3e cec3 3ebe 21ee 4a3e 7904 733e
00000130: ad39 5dbe 733a e83d d23a a63d 5a4a f33c
00000140: 0b98 cabd 5e70 133e 3433 3cbd ecda dabd
00000150: 1a63 533e 724f b23d 73c4 323e 7328 c2bd
00000160: 091f 453e b98d 033d 8a7f e9bc e7d4 dcbd
00000170: 5bce 7f3e 0590 863e c8a5 31be 764f 393e
00000180: a7ad 4b3d 3aa3 813d a24d 473d f2e2 6d3d
00000190: 8aff 533c 91af e33c c4fe 873e 369e 67b9
000001a0: 4e0d d53a a727 673e 0040 33bb 8422 363e
000001b0: daf7 54be 9c4f b2bc 8d90 61be 1e09 453e
000001c0: 0d22 883d ff43 13bc 2030 513e 07f7 16bd
000001d0: 9f52 8b3d ab2d cb3c bbb7 46be e1fd 663d
000001e0: 13d4 05bc b182 b2bd f3db 70bb 76f2 863e
000001f0: bc32 f73c f94a 933e bfcb 883d 8ec5 8cbe
00000200: 0919 6bbe 5c57 16be 52a4 75bc 5c9f 3f3e
00000210: 4d1d 12be 21e3 6cbe 8e4f 48bd 8173 70bd
00000220: eec3 b63c a72c 543e 46ca 323c edad 1a3d
00000230: 972e 063d 04b3 88bd a9b6 493e 46aa 383d
00000240: 120c 353e 1c16 673d a297 603e f77a 223d
00000250: c2b2 21be 3fe3 8d3d c416 183e b651 7b3d
00000260: 37c1 2e3d 5b07 8a3d 1a3b 82be 19be 793e
00000270: 9518 253d fa6b 0ebe 7f8c 62be cccd 833d
00000280: e913 903e 1428 6c3d 4255 12be 8205 09bd
00000290: caf0 6c3e 1bae 20be d00f d93d 0b26 f73d
000002a0: 25df 4ebe b1ba 5dbd 0793 8ebe 93e6 57bd
000002b0: 23a3 b23e 02c8 1bbe 92a3 383a 3bf3 5bbe
000002c0: 1875 b93d 2187 97bd 8235 a4bd 8970 0e3e
000002d0: 0daa 0a3e 209d 9e3c 5448 e53d 4b96 563e
000002e0: d0cf 1ebd 1d88 2ebd 86c5 03be f309 81be
000002f0: b91f 31be f78e 2ebd 78b8 0a3d 2546 1e3e
00000300: b74c 093e 8f3d fbbd 6d74 88bc d025 8fbd
00000310: 00df 11bd 1871 2ebe 25c6 71bd fd37 98be
00000320: a7ac a4be f93c 63be b9d9 a43d 5503 4c3c
00000330: ae01 6dbd 307c d83b cf37 813d e882 113d
00000340: e5cb d1bd ed1b 57be d7e9 553e 41b6 123e
00000350: 2c21 663e 3656 223e 0c48 30be df6f 503e
00000360: d89e b1bc 3cdf 253d f738 3cbe 9045 42bd
00000370: dbb7 aebd 305e 74bd 4a2a b2bd 5207 75be
00000380: abbd e53d c689 a63c deaa 3a3d 52bf 4abe
00000390: 91f8 51be 057e 06be 642a 90bc f405 0b3e
000003a0: 3118 503e 5323 92bd 2252 ef3d f519 85be
000003b0: 05d9 adbd a5a9 bc3d d4e8 14be fd8b 283d
000003c0: 3913 cdbc b045 de3a c02d d3bd 3cd5 633e
000003d0: 5206 e4bd afb8 7b3e c3f3 b93c e3bd d8b9
000003e0: 191b acbd c8bf b4bd 21c4 b93d c989 b83d
000003f0: 2676 87bd 23e1 9ebe 3299 903e ecd8 debd

recurs1.bias_ih f4 [120]
-0.023003193 -0.0039348304 0.1296759 0.33401254 0.24991176 0.23226161 0.13531649 0.29480842
0.16385601 0.25660416 0.15127228 0.16398482 0.25016862 0.32346523 0.27502495 0.17910929
0.20727213 0.082029134 0.26445165 0.18970394 0.22829418 0.1400692 0.01708866 0.23707077
0.22866543 0.30358747 0.21566619 0.15325046 0.27343792 0.10139669 0.22745548 0.10892546
0.17095107 0.2554995 -0.10987036 0.18770444 0.24418844 -0.11781426 0.03692542 -0.074347466
-0.00014242626 0.037936933 0.15916447 0.062462803 -0.12018036 0.11736526 0.13087675 -0.019221472
0.15843336 0.2096005 0.016627725 0.030903807 0.1211667 0.025457265 0.052631628 0.0018606852
-0.047291137 0.08159758 -0.06402928 -0.05557149 0.26497006 0.017458953 0.18267152 0.34567285
-0.08035322 0.12640575 0.07374567 -0.2236881 -0.1422509 -0.0682532 0.05655191 0.11993414
0.076989055 -0.23388168 0.073165074 0.16797903 -0.20772178 -0.07415778 -0.14843874 0.055910576
-0.28399292 -0.025103426 0.28461462 -0.20607223 0.2770475 -0.1954575 0.15458585 -0.07687808
-0.033223443 0.12981766 0.2874161 0.034179717 0.26407322 0.19596456 0.18919319 0.017395861
0.19616611 0.25989553 -0.019581039 -0.018980851 -0.04062681 0.18002316 0.10778911 0.1231443
0.3339169 0.10594707 -0.0031145432 0.14645289 0.043427918 0.09150052 0.18368827 0.19266027
0.03556427 0.35300618 0.2634255 -0.0040193126 0.19113323 0.14436102 -0.01803096 0.019165503
00000000: 3171 bcbc c0ef 80bb c2c9 043e b103 ab3e
00000010: dee8 7f3e fdd5 6d3e 6890 0a3e 21f1 963e
00000020: dfc9 273e 9f61 833e 1fe7 1a3e a3eb 273e
00000030: 1a16 803e 3c9d a53e 12d0 8c3e 6d68 373e
00000040: 253f 543e e4fe a73d 3566 873e c041 423e
00000050: f3c5 693e 4d6e 0f3e 84fd 8b3c aec2 723e
00000060: 4527 6a3e d16f 9b3e 99d7 5c3e b0ed 1c3e
00000070: 0e00 8c3e 11a9 cf3d 17ea 683e 5014 df3d
00000080: cc0d 2f3e d5d0 823e b603 e1bd 9835 403e
00000090: 890c 7a3e 9a48 f1bd 1c3f 173d 7c43 98bd
000000a0: 4258 15b9 c263 1b3d 03fc 223e ffd8 7f3d
000000b0: 1f21 f6bd 335d f03d 8e04 063e 5976 9dbc
000000c0: 5b3c 223e 83a1 563e de36 883c fb29 fd3c
000000d0: 3f26 f83d c18b d03c 4394 573d 3ce2 f33a
000000e0: 5ab4 41bd a21c a73d c821 83bd ee9e 63bd
000000f0: 28aa 873e 1406 8f3c 3e0e 3b3e 08fc b03e
00000100: 3b90 a4bd 8270 013e f807 973d 7e0e 65be
00000110: 38aa 11be 55c8 8bbd faa2 673d 08a0 f53d
00000120: 70ac 9d3d ae7e 6fbe 92d7 953d b202 2c3e
00000130: 05b5 54be 09e0 97bd 5300 18be 7d02 653d
00000140: 8567 91be b3a5 cdbc 02b9 913e 9904 53be
00000150: 2bd9 8d3e 0326 48be c14b 1e3e 4172 9dbd
00000160: 4e15 08bd ecee 043e 3428 933e 0800 0c3d
00000170: 9b34 873e efaa 483e dcbb 413e c481 8e3c
00000180: c5df 483e 0711 853e 6a68 a0bc bb7d 9bbc
00000190: 4c68 26bd fe57 383e 89c0 dc3d 1433 fc3d
000001a0: 28f7 aa3e c7fa d83d 5d1d 4cbb bff7 153e
000001b0: 79e1 313d a064 bb3d c718 3c3e bc48 453e
000001c0: d7ab 113d 3abd b43e b5df 863e 70b4 83bb
000001d0: 6eb8 433e 60d3 133e aab5 93bc f900 9d3c

recurs1.bias_hh f4 [120]
-0.011699945 0.23628901 0.20065564 0.27189487 0.11519547 0.335115 0.2070166 -0.017046228
0.11615331 0.2881318 0.18851537 0.1075641 0.061729327 0.06978799 0.32740968 0.051158547
0.26365867 0.07582447 0.14148013 -0.039336976 0.031160569 0.3224814 0.002241028 0.29286826
0.0007577344 0.18269292 -0.020626359 -0.058738276 -0.019247368 0.10083269 0.091114484 -0.118537605
0.095290594 0.2352519 0.1881248 0.2542687 0.19435509 -0.04331355 0.035747413 0.19861339
0.13476712 -0.037688993 0.19934724 -0.04408923 0.20896257 0.1209333 -0.10546406 -0.13503295
0.14491351 0.24896674 0.072800145 -0.04748473 0.19296633 0.1436015 0.07482562 0.23044667
0.17487615 0.0359334 0.08498206 -0.13900015 0.018621987 0.008281783 0.100589946 0.15433472
0.014303825 0.15478969 -0.26426178 -0.04048335 -0.10235452 -0.21987087 0.07509985 0.026423695
-0.11596772 -0.32513526 0.2116837 -0.10807509 -0.079889886 0.19591086 -0.031423442 -0.17288643
-0.29316273 0.094017886 0.06969621 -0.08330806 0.1868939 -0.16184022 0.2494968 -0.124535814
-0.10160822 -0.10461541 0.18774538 0.03529475 0.20005815 0.12414048 0.31807023 0.055547334
0.052067406 0.10378137 0.025616486 0.21924175 0.071982116 0.21274301 0.26621023 0.2864685
0.13039434 0.25215292 0.016150497 -0.051877625 0.12626033 0.012615228 -0.054197993 0.19693294
0.31686416 0.107340194 0.12957472 -0.011835237 0.14351697 0.12138912 0.0849492 0.28638515
00000000: 20b1 3fbc bff5 713e ac78 4d3e ce35 8b3e
00000010: 9aeb eb3d 3194 ab3e 29fc 533e 88a4 8bbc
00000020: c9e1 ed3d 0386 933e 2c0a 413e 914a dc3d
00000030: e4d7 7c3d 01ed 8e3d 3ea2 a73e a08b 513d
00000040: 45fe 863e dc49 9b3d 2be0 103e cf1f 21bd
00000050: 7344 ff3c 481c a53e 36de 123b d4f2 953e
00000060: b2a2 463a da13 3b3e 9cf8 a8bc 8c97 70bd
00000070: a8ac 9dbc 5f81 ce3d 3b9a ba3d d8c3 f2bd
00000080: b727 c33d e0e5 703e caa3 403e 822f 823e
00000090: 0505 473e 8d69 31bd e16b 123d 4f61 4b3e
000000a0: 6400 0a3e c65f 1abd af21 4c3e e996 34bd
000000b0: 49fa 553e e1ab f73d 8bfd d7bd 1446 0abe
000000c0: 3564 143e 23f1 7e3e 3e18 953d 597f 42bd
000000d0: f798 453e 460c 133e 2d3e 993d 36fa 6b3e
000000e0: bc12 333e e72e 133d 130b ae3d 0e56 0ebe
000000f0: 238d 983c 51b0 073c 1a02 ce3d ec09 1e3e
00000100: 975a 6a3c 3081 1e3e 524d 87be dfd1 25bd
00000110: 3f9f d1bd d425 61be f3cd 993d 8176 d83c
00000120: 7c80 edbd 2178 a6be 9dc3 583e 7956 ddbd
00000130: 4f9d a3bd db9c 483e deb5 00bd 2409 31be
00000140: 6d19 96be 738c c03d e3bc 8e3d 6b9d aabd
00000150: 1d61 3f3e 71b9 25be 177c 7f3e a20c ffbd
00000160: f817 d0bd 9b40 d6bd 5340 403e 3a91 103d
00000170: 0bdc 4c3e 5d3d fe3d 1ada a23e 9a85 633d
00000180: a244 553d 548b d43d aad9 d13c e980 603e
00000190: 5c6b 933d 4ed9 593e b54c 883e 00ac 923e
000001a0: 1886 053e 301a 813e 0c4e 843c a27d 54bd
000001b0: 634a 013e 1ab0 4e3c b7fe 5dbd caa8 493e
000001c0: 053c a23e 2dd5 db3d 3caf 043e 95e8 41bc
000001d0: 1df6 123e dc9a f83d d9f9 ad3d 13a1 923e

recurs2.weight_ih f4 [120, 30]
0.012006218 0.122016415 -0.039997153 0.31895047 -0.0004185631 0.3573245 -0.006818678 -0.113885455
-0.32192728 -0.20367172 0.22235489 -0.022223718 0.051626116 -0.08458398 0.15710962 -0.16696227
0.051517192 0.010686365 -0.24291281 -0.0911434 -0.16850993 -0.09940244 0.18160793 -0.20259736
0.33225045 -0.02899774 0.27524474 0.042777326 -0.32936317 -0.12514725 -0.052329767 -0.0788261
0.0075349887 0.32592368 0.09049019 0.17660324 -0.13249946 0.06496104 -0.08924632 -0.24419832
0.1509481 0.15368806 0.02925229 0.008476274 0.16236477 0.17788139 -0.38428628 0.2116769
-0.14935254 -0.19302365 -0.22979507 0.13252819 0.117843725 -0.29517072 0.26209253 -0.032469574
-0.08221802 -0.15095833 0.017826056 0.1162377 0.17466193 -0.06019925 0.26567185 0.06718767
-0.029107522 0.20750082 -0.1537629 -0.0029363064 0.0943294 -0.36058268 -0.08057288 0.20319675
0.14945818 -0.1481255 0.2219938 0.24501725 -0.2776862 0.21819885 0.07733094 -0.07851983
-0.3266427 0.22963795 0.12333014 -0.22802494 0.26853833 -0.07045249 0.00033909018 -0.28025326
-0.010254711 0.10002182 0.12706517 -0.14756298 0.33639175 0.3033252 0.079255804 0.20103624
-0.0506814 -0.010051948 -0.0896814 -0.18791261 -0.08263629 0.08235226 -0.011409301 -0.16588742
0.055527933 0.093296476 -0.12860961 0.0972098 0.017204357 -0.22969761 -0.022659337 0.2144095
0.11988713 -0.10166774 0.021882234 -0.29017478 0.061226144 -0.18913119 -0.0012316667 -0.018304298
0.37893146 0.19071755 -0.050173342 0.16703121 -0.28060117 0.25660658 -0.13020086 -0.26447695
-0.2010309 0.075831234 0.108566865 0.1372391 -0.17460945 -0.2814634 0.13567495 -0.07949915
-0.1966185 -0.02277651 -0.028401557 -0.11229089 -0.31060562 0.056390487 0.015426446 -0.17023742
0.29277477 -0.072203204 0.40377456 0.15954101 -0.2963663 -0.08607895 -0.0070105223 0.039007064
0.3368588 0.23899385 -0.16215791 0.022685844 -0.18663189 -0.017805783 -0.12541185 -0.3237872
-0.024733188 0.07124151 0.0113706 -0.02665598 0.1820413 0.1390744 -0.24529438 0.12578332
-0.0880492 0.06431676 -0.07454286 -0.039006133 0.029816972 -0.35060537 0.045664437 -0.08658337
0.28631213 -0.19871567 0.024025053 0.16207865 -0.033977117 0.0072471183 -0.011030675 0.1517288
-0.27098516 0.15812372 -0.29018193 -0.12726654 -0.07623143 0.10571316 0.14598224 0.18897408
-0.35620764 0.014138142 -0.21283409 -0.3160194 -0.030423677 -0.4035742 -0.013632912 -0.1829852
-0.28662607 -0.17478189 -0.061948236 0.107532844 0.18570884 -0.19243988 0.24955969 0.1546305
-0.2944615 -0.18385749 0.2820005 0.08793277 0.07472161 0.18522945 -0.1401619 0.22727571
-0.35081667 -0.040430497 -0.087563336 -0.04144582 0.2104876 0.005723323 -0.10174391 -0.16860576
0.15568338 -0.113615915 -0.041402858 -0.04224855 -0.036657423 -0.3304943 -0.15962075 0.08379957
-0.014626446 -0.0886778 0.24977043 -0.11059949 0.21209161 0.02766274 -0.2655396 0.11038002
0.18389554 0.24472736 0.093570575 0.11729518 -0.07141592 0.36726558 -0.032497317 -0.36032763
-0.18875949 -0.1724756 0.28490016 0.2865727 -0.17030641 -0.15612575 0.205439 0.109775245
00000000: bab5 443c bee3 f93d 0ed4 23bd 7a4d a33e
00000010: 9772 dbb9 3df3 b63e 386f dfbb c73c e9bd
00000020: a7d3 a4be 528f 50be 00b1 633e 840e b6bc
00000030: e875 533d 5e3a adbd 58e1 203e 28f8 2abe
00000040: b103 533d dd15 2f3c 23be 78be 64a9 babd
00000050: de8d 2cbe 8293 cbbd 6ef7 393e af75 4fbe
00000060: bb1c aa3e ab8c edbc e1ec 8c3e 4737 2f3d
00000070: 4aa2 a8be 9a26 00be bd57 56bd 946f a1bd
00000080: 11e8 f63b 78df a63e ec52 b93d 7bd7 343e
00000090: f0ad 07be 4b0a 853d c6c6 b6bd 200f 7abe
000000a0: 2492 1a3e 6760 1d3e 80a2 ef3c 12e0 0a3c
000000b0: f342 263e 8a26 363e 2cc1 c4be d4c1 583e
000000c0: dfef 18be fea7 45be 664f 6bbe 78b5 073e
000000d0: 0d58 f13d 9e20 97be fe30 863e d1fe 04bd
000000e0: ec61 a8bd d294 1abe f307 923c 080e ee3d
000000f0: 94da 323e 7d93 76bd 2406 883e b099 893d
00000100: e672 eebc 187b 543e 0674 1dbe 0c6f 40bb
00000110: c62f c13d 4b9e b8be 6503 a5bd cf12 503e
00000120: 910b 193e 36ae 17be 5852 633e cde5 7a3e
00000130: e32c 8ebe 856f 5f3e af5f 9e3d 01cf a0bd
00000140: b63d a7be 3626 6b3e 8394 fc3d 5f7f 69be
00000150: db7d 893e 6549 90bd eac7 b139 5b7d 8fbe
00000160: 6003 28bc 3dd8 cc3d 5f1d 023e c01a 17be
00000170: 8a3b ac3e 714d 9b3e de50 a23d 72dc 4d3e
00000180: 4d97 4fbd edb0 24bc e2aa b7bd 2a6c 40be
00000190: 373d a9bd 4da8 a83d 14ee 3abc 64de 29be
000001a0: 4271 633d 3912 bf3d 3db2 03be ee15 c73d
000001b0: 27f0 8c3c da35 6bbe 13a0 b9bc 2a8e 5b3e
000001c0: 6287 f53d 2d37 d0bd 5f42 b33c ca91 94be
000001d0: 44c8 7a3d 9bab 41be e06f a1ba e5f2 95bc
000001e0: 4e03 c23e 764b 433e 9082 4dbd 3b0a 2b3e
000001f0: f5aa 8fbe f061 833e 6053 05be 8669 87be
00000200: 0bdb 4dbe 684d 9b3d 4e58 de3d 6888 0c3e
00000210: d2cc 32be f91b 90be 60ee 0a3e 73d0 a2bd
00000220: 5c56 49be ce95 babc 62aa e8bc c4f8 e5bd
00000230: b307 9fbe b6f9 663d 34bf 7c3c b852 2ebe
00000240: 93e6 953e 46df 93bd 8abb ce3e b85e 233e
00000250: 53bd 97be 294a b0bd 86b8 e5bb dfc5 1f3d
00000260: c278 ac3e ceba 743e b90c 26be aad7 b93c
00000270: 6e1c 3fbe 6fdd 91bc f76b 00be 70c7 a5be
00000280: 419d cabc 12e7 913d c14b 3a3c a45d dabc
00000290: 0969 3a3e 8569 0e3e 732e 7bbe 58cd 003e
000002a0: 2453 b4bd 81b8 833d eda9 98bd e5c4 1fbd
000002b0: b942 f43c 8c82 b3be a20a 3b3d 9f52 b1bd
000002c0: 8197 923e 1f7c 4bbe 30d0 c43c f2f7 253e
000002d0: 972b 0bbd 3c79 ed3b 01ba 34bc cb5e 1b3e
000002e0: 91be 8abe 2feb 213e ba92 94be 2952 02be
000002f0: 391f 9cbd 2480 d83d 5e7c 153e 6c82 413e
00000300: d960 b6be aaa3 673c 2ef1 59be 4bcd a1be
00000310: 133b f9bc 47a1 cebe 945c 5fbc 7960 3bbe
00000320: a7c0 92be 06fa 32be 6fbd 7dbd 2e3a dc3d
00000330: 752a 3e3e f60e 45be 938c 7f3e 7557 1e3e
00000340: a8c3 96be 2345 3cbe 5f62 903e 1916 b43d
00000350: a507 993d caac 3d3e 9a86 0fbe f7ba 683e
00000360: 3e9e b3be 739a 25bd 6854 b3bd 18c3 29bd
00000370: 108a 573e b78a bb3b 1c5f d0bd fda6 2cbe
00000380: 776b 1f3e 76af e8bd 0b96 29bd d10c 2dbd
00000390: 1826 16bd 8d36 a9be 9f73 23be 1c9f ab3d
000003a0: c3a3 6fbc b59c b5bd d2c3 7f3e fc81 e2bd
000003b0: 8b2e 593e f89c e23c cef4 87be ec0e e23d
000003c0: 1d4f 3c3e cf99 7a3e eea1 bf3d 7538 f03d
000003d0: 8342 92bd 3c0a bc3e e81b 05bd dd7c b8be
000003e0: 2b4a 41be 729d 30be 6fde 913e a8b9 923e
000003f0: ce64 2ebe 6edf 1fbe 9a5e 523e d8d1 e03d

recurs2.weight_hh f4 [120, 30]
0.014208099 0.16596295 0.25514722 -0.07664919 0.15812312 -0.032907583 0.2777518 -0.15480988
-0.018965295 0.101923525 -0.09281974 0.03927865 -0.10634519 0.056580253 0.048194665 0.070623085
0.1489466 0.11446506 -0.20078689 -0.18283711 0.016997455 0.054903384 -0.033436988 -0.05683328
-0.0076476294 -0.10652297 -0.055096257 -0.02501721 -0.12092697 0.17488375 -0.106787935 -0.030229725
-0.059425067 0.13517359 0.03328802 0.087602094 0.097718686 -0.1574799 -0.19037324 0.023787776
-0.28649917 -0.014208304 -0.1649964 0.037473194 0.23055176 0.20306449 0.16390423 -0.045028716
-0.18837042 0.080205664 0.20536634 -0.008624653 -0.10191835 -0.20740642 -0.0075932303 -0.16199125
-0.21256986 0.09353431 -0.063843556 0.15229091 -0.23922041 -0.008044859 0.24224965 0.0076250136
0.22039261 -0.07647728 0.10051997 -0.07323311 -0.13384597 -0.2964534 0.053944834 -0.002347108
-0.076154776 0.12848221 0.24752417 0.06817363 0.07975626 0.060785137 0.020110577 0.10635447
0.16878816 0.10377316 -0.23134738 -0.025355773 -0.13025078 -0.3264152 -0.03260612 0.10287812
-0.1790058 0.25064263 -0.13843109 0.038409516 0.25691518 0.16525708 0.0036282497 0.020394556
0.008930632 -0.25439137 -0.12460103 -0.09416036 -0.22557384 -0.044397037 -0.27103958 0.01666962
0.18867746 0.03945268 0.1541052 0.17930554 0.0024846895 -0.013007891 0.02516493 0.1449012
-0.23520117 -0.1694906 0.09293613 -0.13940589 -0.0064663854 0.29061103 0.113622546 0.14361474
0.0895344 0.22709554 0.0057554403 0.090358414 0.18382344 0.10389849 0.31903368 -0.1755263
-0.016236773 0.14906046 -0.24813129 -0.052627504 0.006797892 0.17786689 0.30177546 0.005219669
0.16662763 -0.09318736 -0.2143144 -0.04454223 -0.0054320376 0.13416402 -0.08895631 0.1088079
-0.05786159 -0.057215847 -0.059266288 0.25246066 -0.004006233 0.25600865 -0.205316 0.007441744
0.25553972 0.25177747 -0.003197041 0.23897235 0.15893245 -0.18988882 0.0031415801 0.116765484
-0.19318567 0.126942 -0.19247183 -0.10383194 0.07222342 -0.004475427 0.2585903 0.109694906
0.06293766 0.011217795 0.15216906 0.062192544 -0.20612606 -0.14189017 -0.117168084 0.07686439
-0.1352144 0.05685282 0.0819441 0.31886777 -0.014127215 0.21779722 -0.043219928 -0.12984455
0.007217263 0.0996001 0.14852177 0.0710204 0.16900991 -0.03308501 -0.055569913 0.10311207
-0.1830594 0.09522388 -0.0023736185 0.09852648 0.19475399 0.09582881 -0.026569575 -0.13669248
0.07165029 0.29824173 -0.014724919 -0.10958976 -0.046628263 0.08493117 -0.08127267 -0.16628994
0.0030317565 0.15665236 -0.054451037 0.069251455 0.16000889 0.06696173 0.24003401 -0.042258907
0.30652207 -0.07626374 0.095151216 0.074223205 -0.271232 0.15108567 -0.15460104 -0.08210573
0.2295166 0.09271067 -0.046946503 -0.08117493 0.06272326 -0.23487833 0.14043203 0.1275861
-0.15366466 0.017260445 -0.16906896 -0.11162596 -0.109863564 0.16808815 -0.038530353 -0.024177235
-0.109895766 0.24044764 -0.038270783 0.19929293 0.20882863 0.016143331 0.1952285 0.071832284
-0.048328515 -0.014850108 -0.06835681 0.040185854 -0.20120218 -0.04295835 0.27367273 0.14271809
00000000: 16c9 683c 31f2 293e a8a2 823e 40fa 9cbd
00000010: 07eb 213e 1aca 06bd 7c35 8e3e 7b86 1ebe
00000020: 1b5d 9bbc 48bd d03d 4718 bebd a6e2 203d
00000030: 82cb d9bd b2c0 673d c567 453d d6a2 903d
00000040: 7585 183e a86c ea3d 149b 4dbe a739 3bbe
00000050: 3f3e 8b3c 5fe2 603d 39f5 08bd 03ca 68bd
00000060: f798 fabb b728 dabd 9dac 61bd e4f0 ccbc
00000070: 8fa8 f7bd ba14 333e a2b3 dabd 54a4 f7bc
00000080: b367 73bd f26a 0a3e 0559 083d ba68 b33d
00000090: bc20 c83d 6942 21be 34f1 42be 95de c23c
000000a0: 05b0 92be f2c9 68bc d1f4 28be 7e7d 193d
000000b0: c315 6c3e 23f0 4f3e 83d6 273e 0870 38bd
000000c0: 2de4 40be de42 a43d 8e4b 523e 6b4e 0dbc
000000d0: 91ba d0bd 5962 54be a2d0 f8bb 09e1 25be
000000e0: eaab 59be eb8e bf3d 69c0 82bd 26f2 1b3e
000000f0: 32f6 74be 96ce 03bc 4b10 783e 40db f93b
00000100: 9aae 613e 1fa0 9cbd 6add cd3d 3efb 95bd
00000110: eb0e 09be bdc8 97be 42f5 5c3d f0d1 19bb
00000120: 09f7 9bbd d790 033e fa76 7d3e 9e9e 8b3d
00000130: 4057 a33d d6f9 783d f0be a43c 5fd0 d93d
00000140: ced6 2c3e 0687 d43d 54e6 6cbe e9b6 cfbc
00000150: 7660 05be e51f a7be ff8d 05bd c4b1 d23d
00000160: 4c4d 37be 3b54 803e e1c0 0dbe 4c53 1d3d
00000170: 638a 833e 2739 293e eec7 6d3b 7c12 a73c
00000180: c951 123c 963f 82be d32e ffbd 26d7 c0bd
00000190: d4fc 66be abd9 35bd b3c5 8abe ba8e 883c
000001a0: aa34 413e 2299 213d c1cd 1d3e df9b 373e
000001b0: 2cd6 223b 0d1f 55bc af26 ce3c fb60 143e
000001c0: 93d8 70be f28e 2dbe 4c55 be3d 6bc0 0ebe
000001d0: f9e3 d3bb f8ca 943e f0b2 e83d be0f 133e
000001e0: d05d b73d bc8b 683e 2298 bc3b d50d b93d
000001f0: 363c 3c3e bbc8 d43d 6258 a33e 2bbd 33be
00000200: fb02 85bc 4ea3 183e 2116 7ebe f08f 57bd
00000210: dac0 de3b bd22 363e 5082 9a3e c209 ab3b
00000220: 6fa0 2a3e 04d9 bebd 3c75 5bbe ea71 36bd
00000230: 3cff b1bb 4b62 093e ba2e b6bd add6 de3d
00000240: 4600 6dbd 2a5b 6abd 35c1 72bd 8642 813e
00000250: b846 83bb 9113 833e 5c3e 52be e0d9 f33b
00000260: 1ad6 823e fae8 803e 7385 51bb 2bb5 743e
00000270: 30bf 223e 3772 42be f8e2 4d3b be22 ef3d
00000280: 77d2 45be 15fd 013e 5617 45be d7a5 d4bd
00000290: dfe9 933d 9aa6 92bb f365 843e b9a7 e03d
000002a0: 76e5 803d d8ca 373c 35d2 1b3e 9cbd 7e3d
000002b0: b612 53be a84b 11be d2f5 efbd 146b 9d3d
000002c0: a575 0abe 81de 683d 4fd2 a73d a342 a33e
000002d0: d675 67bc 3c06 5f3e 6107 31bd f8f5 04be
000002e0: ca7e ec3b 23fb cb3d 1716 183e 2573 913d
000002f0: ef10 2d3e 2684 07bd 479d 63bd 6c2c d33d
00000300: ec73 3bbe bd04 c33d b68e 1bbb 40c8 c93d
00000310: 976d 473e e541 c43d 70a8 d9bc 1df9 0bbe
00000320: 63bd 923d 24b3 983e c940 71bc 9970 e0bd
00000330: 47fd 3ebd 65f0 ad3d 4972 a6bd e947 2abe
00000340: 6fb0 463b 7a69 203e 0d08 5fbd b5d3 8d3d
00000350: 5fd9 233e 3b23 893d 7acb 753e ad17 2dbd
00000360: 76f0 9c3e 2a30 9cbd a4de c23d 5602 983d
00000370: ecde 8abe 34b6 1a3e bc4f 1ebe 0d27 a8bd
00000380: 6606 6b3e 17df bd3d fa4a 40bd 0b3f a6bd
00000390: 0d75 803d f283 70be 6acd 0f3e eea5 023e
000003a0: 455a 1dbe c765 8d3c 6a20 2dbe 279c e4bd
000003b0: 2600 e1bd 4d1f 2c3e 01d2 1dbd 560f c6bc
000003c0: 0811 e1bd e837 763e d3c1 1cbd 7213 4c3e
000003d0: 2cd7 553e 053f 843c fbe9 473e ce1c 933d
000003e0: 1ff4 45bd de4d 73bc a8fe 8bbd ec99 243d
000003f0: f207 4ebe 18f5 2fbd d51e 8c3e b124 123e

recurs2.bias_ih f4 [120]
0.33311254 0.33757576 0.083279274 0.19340572 0.0805654 0.10874512 0.11225989 0.33824646
0.16692029 0.33319783 0.040115446 0.141601 0.21630387 0.049974672 0.18228488 0.18491976
0.29984245 0.15554433 0.16042161 0.24665552 0.1010838 0.33332214 0.34021065 0.06984208
0.22443074 0.1176367 0.3535305 0.14255673 0.15540615 0.35120806 0.08385532 0.17603861
-0.0015143584 -0.04606776 0.10091775 0.24993257 0.15139346 0.0077256514 0.23694123 -0.081588134
0.22978507 0.08037337 -0.009685251 0.08658947 0.25709268 0.2024998 -0.0019451877 0.07685155
0.16196938 -0.006309617 0.056529563 0.22427033 0.025271837 0.18055356 -0.06026507 0.012888775
0.11894412 0.009805269 -0.08173903 0.060494486 -0.09018894 0.15484422 0.16787213 -0.04464395
0.14500023 0.13453113 0.1910466 -0.13108493 -0.105374545 -0.061966684 -0.039253145 0.068220146
-0.21862654 0.17313544 0.3536227 0.031266104 0.07101235 0.056032766 -0.12088981 -0.21247864
0.2052669 0.23146504 0.019411258 -0.22075088 -0.0005794136 -0.21873906 0.033312596 0.26308113
0.15155926 0.18397833 0.19173041 0.34275377 0.107503936 0.20670123 0.0023091845 0.25737223
0.19096349 0.21172729 0.25180215 0.2792499 -0.023332104 0.11359047 -0.003660498 0.29098326
0.103598274 0.022702951 0.2109429 0.032974128 0.13553013 0.25254965 0.23678008 0.28012943
0.14025451 0.10624576 0.15338816 -0.062564686 0.1327369 0.2272535 0.25120172 -0.016361024
00000000: ba8d aa3e bbd6 ac3e 538e aa3d 260c 463e
00000010: 79ff a43d c3b5 de3d 83e8 e53d a42e ad3e
00000020: 27ed 2a3e e898 aa3e 1850 243d daff 103e
00000030: c37e 5d3e 3eb2 4c3d e3a8 3a3e 9b5b 3d3e
00000040: f384 993e 0347 1f3e 9045 243e 4493 7c3e
00000050: 0605 cf3d 33a9 aa3e 1730 ae3e 5d09 8f3d
00000060: 2cd1 653e 83eb f03d f301 b53e 64fa 113e
00000070: ca22 1f3e 8bd1 b33e 57bc ab3d 7743 343e
00000080: 707d c6ba 8cb1 3cbd f7ad ce3d 53ee 7f3e
00000090: e306 1b3e 7627 fd3b b9a0 723e ae17 a7bd
000000a0: c74c 6b3e cb9a a43d e3ae 1ebc d255 b13d
000000b0: a7a1 833e 1c5c 4f3e abf5 feba 5864 9d3d
000000c0: 4ddb 253e e7c0 cebb 8b8b 673d 1fa7 653e
000000d0: e206 cf3c 08e3 383e 82d8 76bd 712b 533c
000000e0: fa98 f33d 47a6 203c cb66 a7bd 11c9 773d
000000f0: fbb4 b8bd 7c8f 1e3e ace6 2b3e 93dc 36bd
00000100: f17a 143e 87c2 093e b8a1 433e 213b 06be
00000110: 9cce d7bd c7d0 7dbd e8c7 20bd 01b7 8b3d
00000120: a3df 5fbe 6b4a 313e 090e b53e e310 003d
00000130: ec6e 913d 9d82 653d 1495 f7bd 0094 59be
00000140: 7c31 523e 2c05 6d3e 5c04 9f3c 850c 62be
00000150: cae3 17ba 22fd 5fbe ca72 083d 92b2 863e
00000160: 5a32 1b3e d164 3c3e fa54 443e 6c7d af3e
00000170: 062b dc3d 7da9 533e b055 173b 4bc6 833e
00000180: ef8b 433e 0acf 583e 36ec 803e d8f9 8e3e
00000190: f822 bfbc 1fa2 e83d f7e4 6fbb c2fb 943e
000001a0: 552b d43d 8afb b93c 6a01 583e e10f 073d
000001b0: 69c8 0a3e 304e 813e 7a76 723e 206d 8f3e
000001c0: e19e 0f3e 6197 d93d c911 1d3e ea21 80bd
000001d0: 2fec 073e 24b5 683e 839d 803e 8e07 86bc

recurs2.bias_hh f4 [120]
0.21834333 0.36156017 0.05917988 0.20106402 0.10377186 0.2012127 0.05178955 0.33395633
0.2707691 0.118604384 0.06268784 0.08183585 0.17111869 0.18348981 0.10282629 0.07423899
0.14977887 0.03358087 0.2299459 -0.021638736 0.13652141 0.06191752 0.114543855 0.17906019
0.11340748 0.0440467 0.231358 0.073066376 0.20007855 0.27157053 0.03618847 -0.1044928
0.01531217 0.09487726 0.12475694 -0.04971475 0.14050552 0.13099562 0.09611597 0.04251004
0.028876068 0.15726693 0.21098213 0.0094173 0.18596542 0.19317883 0.1670818 0.03226401
0.15450275 0.0553762 0.15110224 -0.0020087182 0.09915 0.06898045 -0.0785683 0.12719393
-0.049733065 0.17282149 0.018780712 0.13926539 -0.1459111 0.16332504 0.19781883 0.1494754
0.09814376 -0.07986897 0.2372547 0.036365073 -0.13261409 -0.059385303 -0.0974653 0.047583155
-0.044380017 0.16610725 0.15758748 0.015547058 0.034052406 0.13462783 -0.14564234 0.103858255
0.022719974 0.18372726 -0.098726004 -0.12771963 -0.0013662007 -0.12043501 -0.1454005 -0.06853604
-0.18267232 0.20555414 0.24062464 0.104338616 0.25513247 0.18804848 0.11742831 0.07053062
0.0073679397 0.26013154 0.30281425 -0.059552882 0.17190932 0.20627704 0.04258449 0.07128833
-0.026667094 0.23471792 0.30816486 0.20968282 0.10935209 0.19821966 0.016552242 0.07264166
0.20082627 0.2821619 0.1564131 0.063675776 0.21511137 -0.093833804 0.2682165 0.039110463
00000000: 6595 5f3e 6a1e b93e 9a66 723d bae3 4d3e
00000010: 5786 d43d b40a 4e3e 4721 543d 53fc aa3e
00000020: 3fa2 8a3e dbe6 f23d 7b62 803d 8e99 a73d
00000030: bd39 2f3e c1e4 3b3e 9796 d23d 9d0a 983d
00000040: a25f 193e 188c 093d f076 6b3e b843 b1bc
00000050: 45cc 0b3e 3a9d 7d3d f895 ea3d 8e5b 373e
00000060: 2e42 e83d 506a 343d 1de9 6c3e d3a3 953d
00000070: 64e1 4c3e 4b0b 8b3e 5c3a 143d 5200 d6bd
00000080: e5df 7a3c 024f c23d 9180 ff3d b2a1 4bbd
00000090: aee0 0f3e b723 063e 73d8 c43d 021f 2e3d
000000a0: 818d ec3c 950a 213e b30b 583e 054b 1a3c
000000b0: b86d 3e3e acd0 453e 7e17 2b3e 4427 043d
000000c0: f835 1e3e 27d2 623d 8cba 1a3e b3a4 03bb
000000d0: 280f cb3d 9f45 8d3d 6be8 a0bd 203f 023e
000000e0: e6b4 4bbd 1ef8 303e 02da 993c 969b 0e3e
000000f0: b869 15be ae3e 273e 0591 4a3e 1410 193e
00000100: 98ff c83d 5892 a3bd e5f2 723e 8bf3 143d
00000110: fdcb 07be 013e 73bd e39b c7bd 8ee6 423d
00000120: d2c7 35bd 0518 2a3e 9d5e 213e 16b9 7e3c
00000130: 897a 0b3d e1db 093e 4423 15be a3b3 d43d
00000140: 3d1f ba3c 0023 3c3e dc30 cabd efc8 02be
00000150: 1712 b3ba a1a6 f6bd dee3 14be a05c 8cbd
00000160: 740e 3bbe c97c 523e 4e66 763e 7caf d53d
00000170: b9a0 823e c88f 403e 417e f03d 5c72 903d
00000180: c26e f13b f62f 853e 780a 9b3e b9ed 73bd
00000190: ff08 303e 4a3a 533e 136d 2e3d 9eff 913d
000001a0: f374 dabc e559 703e c9c7 9d3e 18b7 563e
000001b0: fdf3 df3d 18fa 4a3e 9198 873c 27c5 943d
000001c0: 67a5 4d3e 8677 903e c12a 203e 7268 823d
000001d0: 2846 5c3e f02b c0bd ac53 893e 4b32 203d

output.weight f4 [2, 30]
-0.13844933 -0.040135622 0.14705949 -0.013167863 0.11162497 -0.049034994 0.21095443 -0.21471511
-0.20635961 -0.21376742 0.04192334 0.117729895 -0.2226485 0.018434556 0.28195614 0.09240942
0.24729678 0.023843898 -0.11864018 0.050498113 0.14162554 -0.026442148 -0.089367 0.030227972
0.08315097 -0.14404154 -0.2444967 0.22188868 -0.06499086 0.06938728 0.28622997 0.2688099
0.23237027 0.24054152 -0.14306399 0.18388347 -0.2229485 0.17213832 0.20568852 0.18732582
-0.25510448 -0.16009393 -0.1689749 -0.24682213 0.18501934 0.28215575 0.1617571 -0.23210137
0.25398713 -0.2395384 0.24215919 0.1738342 0.21583503 0.20550804 -0.32218072 0.15688625
-0.1811329 -0.24393171 0.27669168 0.20019035
00000000: a9c5 0dbe 4065 24bd c396 163e 05be 57bc
00000010: a29b e43d ebd8 48bd 7004 583e 47de 5bbe
00000020: ef4f 53be d9e5 5abe cfb7 2b3d 5f1c f13d
00000030: f8fd 63be 1104 973c 8e5c 903e 2641 bd3d
00000040: 5e3b 7d3e 4754 c33c 9ff9 f2bd 1cd7 4e3d
00000050: 4906 113e 349d d8bc 0c06 b7bd a7a0 f73c
00000060: 0e4b aa3d a07f 13be 585d 7abe c936 633e
00000070: ee19 85bd eb1a 8e3d bc8c 923e 74a1 893e
00000080: 79f2 6d3e 8450 763e 5e7f 12be f34b 3c3e
00000090: 9d4c 64be 0745 303e 03a0 523e 57d2 3f3e
000000a0: 0e9d 82be aaef 23be c207 2dbe f1be 7cbe
000000b0: b675 3d3e b876 903e a7a3 253e fbab 6dbe
000000c0: 9a0a 823e 8e49 75be 94f8 773e 9801 323e
000000d0: dc03 5d3e b370 523e dff4 a4be caa6 203e
000000e0: e77a 39be 3cc9 79be 88aa 8d3e b3fe 4c3e

output.bias f4 [2]
0.090892464 0.037394505
00000000: d425 ba3d fb2a 193d

switch.weight f4 [1, 30]
0.1347412 -0.062268022 -0.09927988 -0.06279721 -0.050301343 0.07115563 -0.039915618 0.09024411
-0.1391634 0.028576698 0.14127044 -0.0253108 0.14664379 0.051124863 -0.17466289 -0.11092817
0.14525734 -0.036462415 0.17986482 -0.1776095 -0.091928214 0.139176 0.16804706 -0.16027376
0.053259492 -0.1737784 -0.12639071 0.07613197 -0.084786706 -0.013779268
00000000: 99f9 093e c10c 7fbd 4053 cbbd d39b 80bd
00000010: c808 4ebd 0bba 913d 8f7e 23bd e7d1 b83d
00000020: da80 0ebe ae19 ea3c 33a9 103e 9858 cfbc
00000030: ca29 163e 4e68 513d d4da 32be 4f2e e3bd
00000040: 57be 143e 9d59 15bd 7c2e 383e 44df 35be
00000050: dc44 bcbd 2784 0e3e 8714 2c3e ce1e 24be
00000060: a026 5a3d f7f2 31be 916c 01be 14eb 9b3d
00000070: a7a4 adbd 70c2 61bc
