checkpoints/VQE-H2-08a6c5fb/model.pth (torch, 49793 bytes, 11 tensors)

recurs1.weight_ih f4 [120, 2]
00000000: a564 96bd 1a78 9b3e 3cb2 7bbe c1d0 60bd
00000010: 5efc 09be dbbc 02be 2f8f 9abd 4baf eb3d
00000020: 6478 d4bd 8979 883d 1979 26be 10de 113e
00000030: 96d4 81be afe5 a5bd 5887 c9bd 7e7b 1a3e
00000040: 1be4 26bc 3fa9 863e 5dd2 7abe 517f 84be
00000050: 3a08 00bd d3cf 243e c927 49bd 396d 213e
00000060: d3fb 2bbe 98b4 c1bd 753d c63d 8ea0 58bd
00000070: 539b 21be 24d9 de3d 2a65 0fbe 4821 563d
00000080: d4b6 41be 3ea9 3fbe 16c8 61be 4d2f 6fbe
00000090: 3227 27be 704c 913e 7454 113a afe3 473e
000000a0: 4b42 2ebd e03e 9abd 6056 3abc 45d8 39be
000000b0: 1ae8 3abe 6702 8fbe 9551 eabc 9dd5 c0bd
000000c0: 9c79 0abe b437 213d 9689 f53c b4c6 b33e
000000d0: 0b9c c63b e78d 1d3e fe7d 063e 2a1d 1abe
000000e0: 3b1b 363c 5a63 b1bd c8fb 7cbe 3ac7 f1bd
000000f0: 0473 6d3d 8943 883e 9943 0abe bca7 3c3e
00000100: b7b1 a43d 7480 48be d67a 24bd 342b 94bc
00000110: 8ef1 fa3d da6a 783e 94f6 51be bbf8 eb3d
00000120: 6b27 953d e3b7 333e e7f1 333e 3dae 9c3e
00000130: 0cd7 c43c 5ad4 d93c 5274 5ebc 4015 93be
00000140: 1f28 41be 0e32 563e 89fe 183e aba7 0fbe
00000150: 5c93 a1bc f4f9 1fbe 461f a4bd af99 343d
00000160: 1120 653d a641 863d b743 b03d 58b0 19bd
00000170: a2b1 043e 383b 31bd e79d 2bbe 4655 39be
00000180: 563d ae3d 352e 393e ff93 49be 590c b23c
00000190: 25c5 f73d 738f 003e 39e2 5cbd f8ac 2dbd
000001a0: beb2 23be fe46 42be 3823 41be a990 adbe
000001b0: b41a 49bd 1b12 033e 7846 01be 97b1 8f3e
000001c0: fd65 14be 3111 a43e 6a23 2c3e b46d 20be
000001d0: 19ba d6bb 324b 803d b756 443d c6a8 3c3d
000001e0: 91d6 a03c 7c1c 5b3e b965 8dbd 1b64 8a3e
000001f0: 046e 5cbe 5187 83be cdb4 05be f21b 07be
00000200: 5507 83bd 0121 bdbe be1f d3bd a904 743e
00000210: 0c3d d7bd 3890 54be 1a73 0f3e b49e 56be
00000220: e153 bd3c 2ba1 65be 453f fc3d dac7 943e
00000230: c551 243e d83c 953e 765d 333e 79de 413e
00000240: bc12 37be 1186 7abe da29 473e b73d aabd
00000250: 1527 32be 94fc e3bc e459 43be 404b b1be
00000260: ec76 cbba 1d48 9a3e 26a4 873d ce0d bdbe
00000270: 4fa3 eb3d e799 abbe 72ff 32bb 3cd1 71be
00000280: ab03 883c 1472 3abd 8b2b 46be f0f3 bcbe
00000290: 0587 e3bd 053d 2dbe 72a0 67bc e4f0 903e
000002a0: 47a2 72be aaad bc3c 50c8 593e f7ce 7ebe
000002b0: 84b9 bb3d 19dd 3f3e d605 fabd da0d 9c3e
000002c0: fe1a 06bd e957 96be 1ee9 093e 9aac bebe
000002d0: 158f 14bd 33fc 333e d50a 523d ab0b 203e
000002e0: 8a7b 8f3c 7a05 ecbd f3c2 ebbd 8970 13be
000002f0: f48b 73be cd42 093e a5ec a93d 6f8a ab3e
00000300: 57b5 4cbe 4eba 7f3d ccb3 18be 742f 9f3d
00000310: dc82 27be 8a3b 933e 1daa 44be efe0 40be
00000320: d032 98bd a5fd 273e 75ee 1bbe 69f8 89bd
00000330: ec1c 63be 0baf 40bc dccd e0bd a2b4 973e
00000340: 2426 763d 975f 523e 2c8a 3abd bc8b 34be
00000350: aaee 8dbc f18b 2ebe 7134 9abd caef 50bd
00000360: 9ae0 34be cfa2 b23d 4e79 6f3d 2004 adbb
00000370: dd82 a2bd d03a 283e 3647 5e3d d347 61bb
00000380: 5ddb 51be 5e4e d1bd 3780 71be 50d5 80be
00000390: 0264 d1bd 1185 813d 2627 56bd 372e b13e
000003a0: 3dfb acbc 443f ab3e 943e e93d 86d8 3ebe
000003b0: 1086 903d 9389 a0bd 2ebf 35be 8dce ab3b
-0.07343415 0.30365068 -0.2457971 -0.054886583 -0.13475177 -0.12767355 -0.07546841 0.11508044
-0.10374525 0.06663806 -0.16257133 0.14244866 -0.25357503 -0.08100449 -0.09840268 0.15086171
-0.0101862205 0.26301 -0.2449431 -0.25878385 -0.031257845 0.16094904 -0.049110208 0.15764321
-0.16795282 -0.09458274 0.09679691 -0.052887492 -0.15781908 0.1088126 -0.14003435 0.052277833
-0.189174 -0.18716905 -0.22048983 -0.23357888 -0.16323546 0.2837863 0.00055438955 0.19520448
-0.04254369 -0.07531524 -0.0113731325 -0.18148907 -0.18252602 -0.2793152 -0.028603354 -0.094157435
-0.13522953 0.039359763 0.029972833 0.35112536 0.0060610822 0.15386163 0.13134 -0.15050188
0.011114891 -0.08661528 -0.24705422 -0.118055776 0.057971016 0.26614025 -0.13502349 0.1842336
0.08041709 -0.19580251 -0.040156208 -0.018087007 0.12253104 0.2425951 -0.20504218 0.11522051
0.07282909 0.17550616 0.17572747 0.30601683 0.024028324 0.026590515 -0.013577538 -0.2872715
-0.18862961 0.20917532 0.14940847 -0.14028804 -0.019723587 -0.15622693 -0.080137774 0.044091877
0.055938784 0.0655549 0.086066656 -0.03752169 0.12958387 -0.043269366 -0.16759454 -0.18098935
0.08507793 0.18084033 -0.19685362 0.021734403 0.12098149 0.12554722 -0.05392668 -0.042401284
-0.15986153 -0.18972394 -0.18861091 -0.3389943 -0.04909773 0.12799875 -0.12624538 0.28065178
-0.1449203 0.32044366 0.16810384 -0.15666848 -0.0065529463 0.06264342 0.04793426 0.046059392
0.019633563 0.21397585 -0.06904168 0.270295 -0.21526343 -0.25689176 -0.13057251 -0.13194254
-0.06397883 -0.36939242 -0.10308789 0.23829903 -0.10509691 -0.2075814 0.14008752 -0.20958978
0.023111286 -0.22424762 0.12316755 0.29058725 0.16046818 0.29147983 0.17516121 0.18932523
-0.1787824 -0.24465205 0.19449559 -0.083125524 -0.17397721 -0.0278304 -0.1907726 -0.34627724
-0.0015523112 0.30133143 0.06623106 -0.36924595 0.11505758 -0.33515856 -0.0027312902 -0.23614973
0.016603312 -0.04551895 -0.19352548 -0.3690486 -0.11109737 -0.16917808 -0.014137374 0.28308785
-0.23694716 0.023032028 0.2126782 -0.24883638 0.09166244 0.18736686 -0.12208144 0.30479318
-0.032740586 -0.29363945 0.13467833 -0.3724106 -0.036269266 0.17576675 0.05127986 0.15629451
0.017514963 -0.11524482 -0.11511793 -0.14398398 -0.23783857 0.13404389 0.082970895 0.33504054
-0.1999105 0.062433533 -0.14912337 0.07772723 -0.16358513 0.28756362 -0.19205518 -0.18835805
-0.07431567 0.16405351 -0.15227683 -0.067368336 -0.22179002 -0.0117604835 -0.109767646 0.2963
0.060094967 0.20544277 -0.045541927 -0.1763143 -0.017325718 -0.17045571 -0.07529534 -0.05100993
-0.17663804 0.087224595 0.058465295 -0.0052800328 -0.079351164 0.16428685 0.05426713 -0.0034375086
-0.20493837 -0.102200255 -0.23584066 -0.25162745 -0.10224153 0.063242085 -0.05228343 0.34605572
-0.021115893 0.33446705 0.11388889 -0.18637285 0.070568204 -0.0783874 -0.1774871 0.0052431286

recurs1.weight_hh f4 [120, 30]
00000000: 4f2e f43d 11b0 713e 0434 e1bc 6242 923d
00000010: b78e 443c 5a70 d6bd f70a 913d a994 53be
00000020: 10d1 5ebd e28c 4cbd db17 013c 6190 973d
00000030: 7ad1 5c3d 91b7 fdbd 031a 63bd 487b c2bd
00000040: a11d 22be 402f 3ebb cf50 1bbe 23c7 49be
00000050: 3dd2 41be 2d5b 333d 11dd 053e db57 133e
00000060: 9ee7 033e 2461 0dbe 1f0a e23c d257 a63d
00000070: c99b b63d d13c 7bbc c97f 09bc e6b7 a5bc
00000080: 0981 8abd af64 113e f5c7 0dbe 5c88 a3bd
00000090: 4073 133e e6d8 38be d29c c1bd 5e37 37bd
000000a0: 20a2 4b3d 18e7 f2bd ae17 f8bd 73ef 683d
000000b0: 7da8 df3d e6c9 4c3e f591 e9bd b9a1 7d3d
000000c0: 66ae fbbd da8d afbd 49bd 5ebe 6ac9 413d
000000d0: 2c37 003e 0393 99bd f882 423d eef1 4dbe
000000e0: 6583 5d3e 0fc1 25be 6027 2d3d a0b8 bcbd
000000f0: 9bd5 2abe 9108 f7bd c870 9e39 4f22 f03d
00000100: f078 2e3e 696a 62be 8949 103e df81 3c3e
00000110: 7a53 363e 2713 eabd 15b5 92be 1182 07be
00000120: 3526 203e 9951 95bd 59b3 ac3d 6391 673e
00000130: a8ed 48be 6e5d df3d 04ad 463e d255 943d
00000140: a96c edbc b137 0d3e 7e9e 68bd d917 a1bd
00000150: 6e7a 113e 689f 763e 8cc3 883d 4625 a8bd
00000160: d705 463e 2486 d83c 7780 fabd 2b2a 25be
00000170: d873 7b3e d938 573e e6d2 f0bd a53e be3d
00000180: 43b8 1a3e 9483 3c3e e113 243e 8831 bd3d
00000190: e0a2 4abd 4890 a7bd c788 693e dc83 ee3c
000001a0: 085a 2bbd bc26 633e 7c0a d23c a7f9 083e
000001b0: f706 d7bd 2d3a 363c acd5 25be 5b4b 2b3e
000001c0: 89b1 4c3d 167b 3b3c 4342 de3d e998 393d
000001d0: 0083 78bc b646 263d b346 d7bd 5af0 613d
000001e0: 8a76 05bd d631 08be 58be bfbd 32d9 743e
000001f0: 66a3 a33d 3db4 8a3e 74ad 0c3e 158f 6cbe
00000200: 4745 58be 282a 8ebd 081e bcbd 4700 033e
00000210: ac58 d6bd aa75 48be 402f 87bd 1a64 bbbd
00000220: 05a4 ff3d ba40 163e 909c 1f3d 4d46 7c3d
00000230: e317 5d3d 5857 6dbd 6b72 9d3d f9d2 053e
00000240: 2bab 273e 0a87 a43d 651d 483e 3fd6 eb3d
00000250: bfcc c1bd de1a 943d 849c ce3d a391 9f3d
00000260: e553 21bd 6aea f1b9 eedb 47be f8fe 5c3e
00000270: 88a9 c43d bbcd acbd 9888 2bbe 62bd f63d
00000280: c27a 6f3e 402d 4a3d 133b 04be e9d5 893d
00000290: 4ad5 1f3e 801b 36be 5286 533e 8216 533d
000002a0: faa7 17be c0b7 27bb ef96 5dbe f18f 73bd
000002b0: 31ef 413e f847 11bb 5a92 09bd d6a8 26be
000002c0: 824d 6b3d 2073 62bc feb7 81bc 7389 f03d
000002d0: 9336 db3d 0a35 4dbd d2f6 883d ae6d 1d3e
000002e0: 373f 3d3d 0a48 85bd 3c90 62bd 0882 54be
000002f0: c0ac 28be 448f a03c 787a 9fbd c934 883d
00000300: 9834 db3d da0a bbbd 24f7 2dbc acec 87bd
00000310: 53d1 173d 06ff 35be 957f edbb def1 73be
00000320: cc76 88be d021 4dbe 3285 17bd 2028 ba3d
00000330: 6e42 a2bd 31c4 483d c2c9 f33c b8a5 413d
00000340: fdf8 cdbc 04b5 4ebe db38 443e 243d 2a3e
00000350: 21b8 e63d 221d a13d 9f19 45be ae94 4c3e
00000360: f291 0bbd 89fe 123d b322 49be 6740 2bbc
00000370: ead5 dbbd 9f49 f6bc 4fc3 81bd 0d7e 3dbe
00000380: 282a da3d d54b bf3c c36d b83d 95c7 58be
00000390: 58fb 4cbe c308 cabd d781 593d 8aba f03d
000003a0: 6429 273d 8b7c 293d f176 c43d 42cf 6abe
000003b0: 8be0 d1bd 7b25 103e d46e 32be aaa9 93ba
000003c0: f35a 84bd d354 113c 00cd d9bd 8e28 283e
000003d0: 92f9 bfbd 5f40 5f3e 377d 8d3d 24de 333d
000003e0: b377 62bd d65b 94bd 3ad1 593d 4580 423d
000003f0: f792 293d f772 53be 6272 693e 1ccf 52bd
0.11922895 0.2360232 -0.027490623 0.07141568 0.0119969165 -0.10470648 0.070821695 -0.20662178
-0.054398596 -0.049939044 0.007879223 0.07400585 0.05391071 -0.12388528 -0.05544473 -0.0949617
-0.15831615 -0.0029019862 -0.15167545 -0.19704871 -0.18927856 0.043788124 0.13072611 0.14388983
0.12881324 -0.13806587 0.027592717 0.08122219 0.089164324 -0.015334324 -0.008392283 -0.020229291
-0.06762893 0.14198564 -0.13845809 -0.07984993 0.14399433 -0.1805149 -0.09453739 -0.044730537
0.04971516 -0.11860484 -0.121138915 0.05686898 0.109208085 0.19998893 -0.11404792 0.06192181
-0.12289123 -0.08571978 -0.21751894 0.047311224 0.12521046 -0.074987434 0.047488183 -0.2011182
0.21632154 -0.16186927 0.04227388 -0.09214902 -0.16683047 -0.12062181 0.00030220137 0.11725294
0.17038321 -0.22110905 0.14090551 0.18408917 0.17805281 -0.11429434 -0.2865378 -0.1323321
0.15639575 -0.07290954 0.08432645 0.22614054 -0.19621909 0.10906492 0.19401938 0.072429314
-0.028982477 0.13790776 -0.056791775 -0.07865877 0.1420686 0.24084246 0.066779226 -0.08210234
0.19338165 0.02643115 -0.12231534 -0.16129367 0.2455591 0.2101778 -0.11758976 0.09289292
0.15109353 0.18409568 0.16023208 0.09237963 -0.049471736 -0.08181816 0.22806083 0.02911561
-0.041833907 0.22182745 0.025639765 0.13376485 -0.10499375 0.011122269 -0.1619479 0.16727965
0.049974 0.01144292 0.10852482 0.045311842 -0.015167952 0.04059478 -0.10511532 0.055160858
-0.03258375 -0.13300261 -0.09362477 0.23910978 0.0799015 0.27090636 0.13738042 -0.23101456
-0.21120177 -0.069416344 -0.091854155 0.12793075 -0.104661316 -0.19576135 -0.06600809 -0.09149952
0.12482456 0.14673129 0.03896767 0.06159048 0.05397786 -0.057944626 0.07687839 0.13068761
0.16373889 0.08033569 0.19542463 0.115154736 -0.0946288 0.07231687 0.10088447 0.0779145
-0.03938665 -0.00046141754 -0.1951749 0.21581638 0.09602648 -0.084376775 -0.16751325 0.12047841
0.23386672 0.04935956 -0.1291316 0.06730253 0.15608707 -0.17783928 0.20656708 0.051535137
-0.14810172 -0.0025591701 -0.21639608 -0.059463445 0.189389 -0.002216814 -0.033586837 -0.16275343
0.057446964 -0.013821393 -0.015834805 0.11744966 0.107037686 -0.05009941 0.06687702 0.1537387
0.046202864 -0.06507881 -0.055313334 -0.20752728 -0.16472149 0.019599564 -0.07787031 0.06650693
0.10703391 -0.09132929 -0.010618005 -0.066369385 0.03706486 -0.17773065 -0.007247875 -0.23822734
-0.26653135 -0.2003243 -0.03699226 0.090896845 -0.07922827 0.049015228 0.029759292 0.047277182
-0.02514314 -0.2018624 0.19162314 0.16624886 0.112655886 0.07866885 -0.19248055 0.19978592
-0.03407473 0.035887275 -0.19642143 -0.010452366 -0.1073416 -0.030064402 -0.0633608 -0.18505116
0.10652572 0.02335159 0.090053104 -0.21169885 -0.20017755 -0.098649524 0.05310234 0.117543295
0.040810958 0.04137854 0.09592999 -0.22930625 -0.10247906 0.14076798 -0.1742509 -0.0011265774
-0.0646266 0.008870321 -0.10634804 0.1642172 -0.09373774 0.218019 0.069086485 0.04391302
-0.055289935 -0.07244079 0.05317805 0.04748561 0.041399922 -0.20649324 0.2279754 -0.051467046

recurs1.bias_ih f4 [120]
00000000: e187 92bd ea58 1cbd fdc6 4f3d d26d 833e
00000010: 36ca 423e 52b2 1e3e 37e1 a63d 7b08 643e
00000020: a019 dc3d f093 453e e6df 1b3e 577a da3d
00000030: ea97 583e a97a 703e 94de 333e 2998 003e
00000040: 4b6f 3e3e 4967 c23d 9fc4 4b3e 015e 213e
00000050: fe76 673e 4f68 ae3d 8a5d a9bd b9ae 493e
00000060: 4993 3f3e 25c2 783e dfd2 223e 72b7 f83d
00000070: e801 6d3e 64ba d73d 9863 4e3e e0ce 1e3e
00000080: e7e5 2f3e 1e55 6a3e 5a68 e1bd 5c26 2f3e
00000090: 0550 3e3e aa14 f4bd 0faa 7a3c e4a6 87bd
000000a0: c880 3338 32ed 1d3d c995 283e a437 ec3c
000000b0: a7d8 f1bd 8596 de3d 3f41 043e 73d0 1dbc
000000c0: d1af 3b3e 3411 623e de1e 283d e774 fc3b
000000d0: 802b 663d a8e4 153d 1cc1 1d3d 9392 b1bc
000000e0: 9cdb 38bd 61ab 893d 14bf 84bd 32ca 87bd
000000f0: 02a6 573e 3dd8 263b 198d 5f3e f85e 953e
00000100: 6142 83bc 6f73 8f3d 734b 3c3e bc34 febd
00000110: cd05 8bbd 4ca6 aebd 938f 94bc 2a17 0c3d
00000120: f9e0 fd3d 5bab 39be fe46 f53d 8056 473e
00000130: 64f0 1ebe 5284 a1bd 69c9 edbd f062 513d
00000140: 37e5 81be 5ca7 4fbd fac8 693e 6640 43be
00000150: 57eb 893e 2270 07be 6503 f13d 1ef2 e9bc
00000160: 534c c33c 957a 0d3e c265 713e 4750 47bb
00000170: 0fcf 4b3e 26e8 273e 437e 093e c746 15bd
00000180: 4a79 2b3e 78a0 413e 52cf 8fbd c82c 72bd
00000190: f0d8 5abd 4656 e63d ebc0 a83d 3570 b33c
000001a0: 5bdd 5d3e 71ce 283d 2218 f4bc 6fc3 193e
000001b0: d6f5 0cbd be39 683d 03f3 493e 3d7a 083e
000001c0: 8df0 7fbd 3b0f 993e 4bee 653e cb34 41bd
000001d0: f271 1a3e 38e6 e93d 357e 5ebd 989b c33c
-0.07154823 -0.038170733 0.05072688 0.25669724 0.1902245 0.15497711 0.08148425 0.2226886
0.10747075 0.19294715 0.15222129 0.10667866 0.211517 0.23484291 0.17565376 0.12558044
0.18597142 0.09492356 0.19899224 0.15758516 0.22603986 0.08515989 -0.08269794 0.19695558
0.18708529 0.2429281 0.15900753 0.121443644 0.23145258 0.10533598 0.2015518 0.15508604
0.17177545 0.22884032 -0.110062316 0.17104477 0.18585213 -0.11918004 0.015299334 -0.06623629
4.2796863e-05 0.038556285 0.16463389 0.028835125 -0.11808901 0.10868553 0.12915514 -0.009632218
0.18328787 0.22076875 0.041045062 0.0077043655 0.05619383 0.036595017 0.03851424 -0.021676337
-0.04513131 0.06722141 -0.06481758 -0.066303626 0.2105942 0.0025458478 0.21831168 0.29174018
-0.016022863 0.07004439 0.18388157 -0.12412402 -0.06788216 -0.08527812 -0.018134868 0.03420178
0.12396426 -0.18131773 0.11976431 0.19466591 -0.15521389 -0.07886566 -0.116106816 0.051119745
-0.2537019 -0.050696716 0.22830573 -0.19067535 0.26937363 -0.13226369 0.117682256 -0.028557833
0.023840105 0.13816293 0.23573974 -0.003041284 0.19903205 0.16397151 0.13427071 -0.03644445
0.16745487 0.1890887 -0.07021965 -0.059124738 -0.053429544 0.11246924 0.08239921 0.02190409
0.21666472 0.041212503 -0.029796664 0.15015958 -0.034414135 0.056695692 0.19721608 0.1332788
-0.062485266 0.29894432 0.22454183 -0.047169488 0.15082529 0.11420864 -0.05431958 0.023877904

recurs1.bias_hh f4 [120]
00000000: 5dc3 76bd f9e6 4e3e 3541 f93d ce3f 473e
00000010: a25c 633d 6802 843e 58dc 1c3e e19c b6bd
00000020: 6ccf 743d bcdc 653e f202 423e 5cdb 4d3d
00000030: 8b0d bd3c fb4a 9abc 0083 693e a055 1bbb
00000040: b32c 783e 3fb2 b53d cbb0 9b3d 6557 92bd
00000050: dfcc ec3c 36ff 883e fec5 c7bd e068 813e
00000060: 6e35 27bd 8eec f93d 9947 9ebd bb6f b9bd
00000070: 17cf 7abd b292 d63d 3a8d 853d 603a 94bd
00000080: ebd7 c43d 5a99 553e 7771 403e c64f 733e
00000090: 8348 0b3e 9d01 37bd 205d 673c 9caf 533e
000000a0: ec30 0a3e 6ad6 17bd 78bb 513e f929 9fbd
000000b0: 881e 583e 2fe5 e53d 2784 dbbd 5374 00be
000000c0: abd7 2d3e 6930 853e fa19 c73d d7c2 90bd
000000d0: bc10 033e f673 1e3e 34a9 783d 27e0 533e
000000e0: fb48 353e 0699 b03c c86d ac3d 7553 19be
000000f0: 8a72 12bd 864b d9bb eb7f 0b3e 6f9f cd3d
00000100: e70a a13d d194 c93d 2dd3 1dbe 89fe 713d
00000110: 3a42 e5bc cd94 72be 3490 d839 94ed 72bd
00000120: f54b 8dbd 858e 8bbe a93d 843e d4ae a6bd
00000130: 5350 e0bc beca 433e 9828 6e3a 0bf1 35be
00000140: 2097 86be 3822 8c3d d855 5b3c 0215 8bbd
00000150: 6085 373e 1407 cabd 08b2 593e e616 9cbd
00000160: 7574 36bd 3929 c5bd 9b55 0b3e 067a fcba
00000170: e141 0a3e cdb7 bc3d 4cbb 863e 6ac0 df3a
00000180: 7455 bf3c 4c10 073d 10fb ccbc 6f65 373e
00000190: 1966 723d 7dac 143e 9499 763e 75ac 3d3e
000001a0: fc50 573c 95ea 3f3e 4c8c 2cbc e14e 45bd
000001b0: 2652 463d cdc6 b5bc 0996 26bd 4fda 0c3e
000001c0: 0311 603e dd39 5a3d 38bc b93d 5e38 61bd
000001d0: 205f d33d 56da ba3d 5a50 473d c50a 953e
-0.060244907 0.20205297 0.121706404 0.19457933 0.055508263 0.25783086 0.1531843 -0.08916641
0.059768125 0.22447485 0.18946436 0.050258026 0.023077747 -0.018834582 0.22803879 -0.002370216
0.24235801 0.08871888 0.0760208 -0.071455754 0.028906284 0.2675721 -0.09754561 0.25275326
-0.04082244 0.12203322 -0.077285 -0.09054514 -0.061232653 0.10477199 0.065210775 -0.07237697
0.096114956 0.2085928 0.18793283 0.237609 0.1360188 -0.044679273 0.014121324 0.20672458
0.13495225 -0.037069716 0.2048167 -0.077716775 0.21105397 0.11225354 -0.107185654 -0.12544374
0.16976802 0.26013497 0.097217515 -0.07068413 0.12799352 0.15473923 0.06070824 0.20690976
0.17703621 0.021557342 0.084193766 -0.14973243 -0.035753764 -0.0066313175 0.13623016 0.10040175
0.078634076 0.098428376 -0.15412588 0.059080634 -0.02798568 -0.23689575 0.0004130617 -0.059308603
-0.06899253 -0.2725717 0.25828293 -0.081388146 -0.027382052 0.19120309 0.00090850284 -0.17767732
-0.26287174 0.06842464 0.013387166 -0.06791116 0.17921972 -0.09864631 0.2125932 -0.07621555
-0.044544656 -0.09627003 0.13606875 -0.001926244 0.13501693 0.09214745 0.2631477 0.0017070894
0.023356177 0.032974526 -0.02502206 0.17909788 0.0591794 0.14518924 0.24082023 0.18522818
0.013141867 0.1874183 -0.010531496 -0.048170928 0.048418187 -0.022189522 -0.04067043 0.13755153
0.2188149 0.05327784 0.09069103 -0.054985397 0.10320878 0.091236755 0.048660614 0.2910978

recurs2.weight_ih f4 [120, 30]
00000000: 4e4b 7dbd 2f9e 223d e949 e1bb a173 8c3e
00000010: ac54 dd3d 2d07 8c3e 989b 0d3e 3bc7 8e3c
00000020: f540 49be 1eb5 2bbe a783 bf3d 57d8 10be
00000030: adc7 2e3e 3988 4abd d0bb 0e3e afe2 11be
00000040: d986 e83d 3433 d0bc 8895 f2bd b370 53bd
00000050: e579 eebd 1f94 cdbd 94bc d73d 401b 21be
00000060: f60b 9e3e 7739 5f3d bacb 613e 671b ab3d
00000070: 59d4 4abe 1dfd 03be 0b9b 0abe 0416 fabd
00000080: 694a 4abd 6bbd 7e3e 6c35 0f3e 57e1 063e
00000090: d9b0 f1bc f347 083e f0be 30bd 3263 17be
000000a0: b902 893d 69dd 763d 0605 0cbd a967 a83d
000000b0: 6222 8e3d ada1 023e 0198 87be 71fd 953d
000000c0: 2789 babd 422b 17be 64c1 46be 0f5d 883d
000000d0: dafc 1e3d def3 3dbe 71a3 663e 664e c63c
000000e0: 0ba1 febd 5606 1dbd 9bd5 e03d 8315 793d
000000f0: dd74 883d 22c4 86bd 6852 453e 20ef 4abb
00000100: d215 ddbc 66d8 233e 02b5 59bd 1ee3 d13d
00000110: fdab 303e 16ae 8abe fecd 07be ecc5 bb3d
00000120: c348 cd3d 6e66 72bd ec77 f33d 7ea3 1d3e
00000130: f05c 26be 6a0e 9e3d 6ba9 173e 7aa6 5fbd
00000140: adb3 93be 8300 093e f6cd 303d 5a11 02be
00000150: f39e 443e 90c2 0e3b 002b 5dbd 96bc 1fbe
00000160: e0d9 2e3d 6efa 303c c5fe 2c3d 79d0 f8bd
00000170: 231e 963e a891 833e ad89 853d 2148 033e
00000180: a1c8 853d 5b05 da3d 4b26 eabb 56d3 d7bd
00000190: c690 ffbd 9f7f 0a3c d86d 8bbd ff21 88bd
000001a0: 556c 1dbd 82b8 68bb 5cd7 963c 0530 86bd
000001b0: c83b b53d bc93 45be ee17 a53c 66fc d53d
000001c0: 545d 453d a75f 9c3b a4e1 0fbd 9a8c 57be
000001d0: 39ac 7abb f020 30bd 0889 6d3d 1532 00be
000001e0: 1e8b 953e a61e d63d b921 09bc 57b2 123e
000001f0: e27f 19be 3a4f 343e 1152 1b3c c3eb 1abe
00000200: 84a1 b6bd 2418 813d 2998 03bd 5392 f73b
00000210: 73b9 cbba a5d4 8cbe e658 0f3e 103c 50bb
00000220: e4db 11be 8072 713c e5d0 a03d 400b 7fbd
00000230: 69f1 85be 9d5e f73d febb a0bd 6538 08be
00000240: bb31 753e ba87 593c c0ca a53e 8868 383e
00000250: 88d4 14be daec 3dbc b26c b0bc 42f6 663c
00000260: c3a5 903e f4a4 753e 251f 23be df2b 7b3c
00000270: d19e 0abe 2476 0f3d 2b23 c3bd 24ac 76be
00000280: 836a 82bd cbd3 163d 12f6 d03d 3720 0d3d
00000290: 4484 033e 45b4 fc3d aa94 01be fb50 413d
000002a0: 84c1 76bd 16df 893d 7680 89bd 2384 a6bd
000002b0: 392c 84bd 8e25 85be 44bb 8a3d 1946 abbd
000002c0: 5609 933e e63c 7bbd 3047 b13d f0d0 d43d
000002d0: 0b8b 93bd 034a bebd 52bf ea3d 97a4 323e
000002e0: 90aa 1fbe 8356 d23d 0d0f 62be 9c5d 72bd
000002f0: 3ea2 9abc 2d3b 853c 1b5c b33c d1d1 033e
00000300: 835a 2dbd b2c0 783d 8d8b cfbd 37e8 0dbe
00000310: 3bca f9bd 605e 6cbe e904 c03d 1da4 10be
00000320: d43a 7bbe 1076 82bc 004b e0bd 613b 0e3d
00000330: c434 273e 2e58 eebd 0123 393e 5a5a 973d
00000340: 4e19 49be 8c14 1fbd 487c 4f3e edb4 c73c
00000350: 9669 ee3d 31b5 263e 022e 34bd 771f 1d3e
00000360: 284e 6cbe 188b 903d 3962 d63b e90e bcbc
00000370: 94bd c53d e0aa cebd 9fd9 833b 5514 08be
00000380: 14dd 0c3e ab85 b5bd 20d3 b539 2ca8 81bd
00000390: 981b 983d 1b91 99be d004 05be 8b67 bd3d
000003a0: 98c7 97bd 8b90 22bd 04b7 653e c9fb 12bd
000003b0: 8128 193e 5ae9 953d b5c3 1ebe 62fc ee3d
000003c0: b194 ce3d 8f84 413e a1ec 003e 540f e13d
000003d0: fa45 143c 041e 923e e8da f63d d147 75be
000003e0: f056 a0bd 6de6 2fbe 18cc 303e 6e97 433e
000003f0: ecc2 61bd 8bda 18be 21eb 6a3e 1546 e13d
-0.061839394 0.039701637 -0.006875266 0.27431968 0.108071655 0.27349225 0.13828886 0.017428985
-0.19653685 -0.1676831 0.093512826 -0.14145027 0.17068358 -0.04944632 0.13938832 -0.14246629
0.11353845 -0.02541504 -0.11844927 -0.05162115 -0.11644343 -0.100380175 0.10534015 -0.15733051
0.308685 0.054498162 0.22050372 0.08354836 -0.19807567 -0.12889524 -0.13535707 -0.122112304
-0.04938737 0.24876945 0.13985223 0.13171898 -0.029503273 0.13308696 -0.043150842 -0.14783934
0.066899724 0.060269747 -0.03418448 0.082228966 0.06940152 0.12756987 -0.26483157 0.07323731
-0.09108191 -0.14762595 -0.1940971 0.066583745 0.038815357 -0.18550059 0.22523285 0.024207305
-0.1243306 -0.03833612 0.10978242 0.06081153 0.06662915 -0.06580378 0.19269717 -0.0030965284
-0.026987944 0.16000518 -0.053151138 0.10248397 0.17253108 -0.27085942 -0.13262174 0.0916861
0.10023644 -0.059179716 0.11888108 0.15394399 -0.1624639 0.07717593 0.14810722 -0.054602124
-0.2884802 0.13379101 0.04316517 -0.12701932 0.1920126 0.0021783449 -0.053996086 -0.15599284
0.04268825 0.010801895 0.042235155 -0.12149138 0.29319867 0.25697064 0.065204 0.12820484
0.065324076 0.10645553 -0.007145678 -0.10538356 -0.12478785 0.008453279 -0.068080604 -0.06647109
-0.03843339 -0.0035510366 0.018413238 -0.06552128 0.08849293 -0.19294637 0.020153012 0.10448532
0.048184708 0.004772145 -0.035127297 -0.21049729 -0.0038249625 -0.04300016 0.05799201 -0.12519105
0.292077 0.104550645 -0.0083698565 0.14325844 -0.1499019 0.17608348 0.009480015 -0.15128998
-0.089175254 0.063034326 -0.032127533 0.007555285 -0.0015542939 -0.27505985 0.13998756 -0.0031774081
-0.14244038 0.014736772 0.078523435 -0.06226659 -0.26160744 0.12078593 -0.07848357 -0.13302763
0.23944752 0.013276989 0.32381248 0.18008626 -0.14534199 -0.011592114 -0.021536205 0.014096798
0.28251466 0.23988706 -0.1592985 0.015330284 -0.13537146 0.035024777 -0.09528192 -0.24089104
-0.06367972 0.036823075 0.10203184 0.03445455 0.12843424 0.12339071 -0.12654367 0.04719637
-0.060243145 0.067320034 -0.06713955 -0.08130672 -0.06453747 -0.26005214 0.06773999 -0.083629794
0.2871806 -0.061337374 0.08656156 0.10391414 -0.07204255 -0.0929146 0.11462273 0.17445599
-0.15592408 0.10270407 -0.22076054 -0.059171304 -0.018876191 0.016263569 0.021894505 0.12873007
-0.042322647 0.060730644 -0.10134039 -0.13858114 -0.121967755 -0.23082876 0.093759365 -0.14125104
-0.2453416 -0.015925437 -0.10951805 0.034724597 0.16328722 -0.11637913 0.18079759 0.0739028
-0.19638559 -0.038837954 0.20262253 0.024378264 0.11641233 0.16280057 -0.04398919 0.15344034
-0.23076689 0.0705778 0.006542471 -0.022956328 0.096553 -0.100911856 0.004023745 -0.13289006
0.1375621 -0.08863386 0.0003468031 -0.06330904 0.07427138 -0.2999352 -0.12990117 0.09248265
-0.07411116 -0.03968863 0.22433096 -0.035884652 0.14956857 0.07319899 -0.15504344 0.11669232
0.100869544 0.18898223 0.12590267 0.10989252 0.009049887 0.28538525 0.12053472 -0.23953177
-0.07829082 -0.17177744 0.17265356 0.19100735 -0.055117533 -0.14927118 0.22941257 0.10999695

recurs2.weight_hh f4 [120, 30]
00000000: 4c23 0b3d 3f16 b23d 2519 4b3e b1a7 22be
00000010: a793 a53d 7657 d8bd 2c14 353e 3d16 ffbd
00000020: 8414 923b fa0e 4c3d e8d1 0cbd de02 473d
00000030: fdf8 42bd f2b8 223d cfad 0ebd a6ee 153c
00000040: ed0a c03d 7217 f43d 8f88 15be 6ddf 06be
00000050: 9ac2 bbbc 7b0c 733c 32e1 b6bd 810d bebc
00000060: 5da8 1e3d 07e8 59bd 51b9 08bd d054 66bd
00000070: 26e9 1dbe af80 ed3d 960f f1bb e306 acbd
00000080: 31a6 0bbe d88e c53d bd2e 81bd d7ae c53d
00000090: b484 3a3b f89c 3abd c73e 9ebd 0f4a c83d
000000a0: c7bb 80be 90bd c7bd 5b98 bebd 26e0 60bd
000000b0: abfe 153e ecea 4e3e b2fe 613e 8f71 d8bd
000000c0: d7d3 bfbd ca49 bf3c 580f 413e 00a3 39bd
000000d0: 35b7 a0bd ef31 e4bd 9833 b3bd a59a c5bd
000000e0: 5d8a 42be c91f d8bc 42e6 b73c 8c27 c53d
000000f0: c400 e5bd e048 6cbd 9fd1 453e 3a1a 8bbc
00000100: aeb1 093e 35b7 90bd 9cd1 5dbc b30a 143d
00000110: 0e9d 8abc 5f51 73be 4d0c 8d3d 5285 b5bd
00000120: 5599 13bd 0fe0 6a3c a04d 473e 711f 933d
00000130: e995 103e 3699 07bd a637 053e 4993 423d
00000140: dbbe 203e 9f25 6f3d 31af 35be 9e1f 933d
00000150: 78c7 5dbe d1ab 74be 764f 84bc 4af6 07bc
00000160: cbce b4bd 208a 543e 8863 4bbd 3fe0 ad3c
00000170: 0e92 683e 4308 cf3d fdcc aebd 8003 033d
00000180: 3d8f 8fbd 7145 28be f094 04bd d853 31bd
00000190: 6b46 6dbe 6098 ddbd 56c1 84be a09e 42bd
000001a0: bdc8 113e 38c7 c23c f4b5 3b3e ce0f 0a3e
000001b0: 1e60 af3d e74e babc 4c55 fd3c af40 0d3e
000001c0: 9191 37be 025d c0bd 848d 283d b082 71bd
000001d0: d7e2 49bc fa11 4d3e 6903 1b3e 25a4 fc3d
000001e0: 2d54 003e 99b9 363e a854 30bd 1ffc 183d
000001f0: 4eaa d83d b13f 8b3d 6c08 613e d314 13be
00000200: 2f24 f73c fe11 0c3e 3e64 5fbe 96be a6bd
00000210: cd90 563d 2d11 0c3e 9258 813e 7242 a5bc
00000220: 26ad 113e 874b 11be 27bf 1ebe 182c f6ba
00000230: eafc e3bc 77e2 e33d edfb 98bd a2a0 093e
00000240: cafc 3abd 6d3f 2a3c c402 1abd bde6 4b3e
00000250: f506 a03b 1928 5a3e 9325 52be 28e3 41bd
00000260: 3fb6 383e 485a 0e3e 3195 bebc acb5 323e
00000270: 4a57 243e df3d 34be 6179 703c 2ebd b83d
00000280: 0cb5 22be 14d1 093e d69b 07be 9d61 bfbd
00000290: eadf b4bc c040 51bd 7e84 653e ea04 f73d
000002a0: a4be 9e3d 3e9d 6c3d fbab e83d ac26 6f3c
000002b0: d6c7 67be 4423 14be 3624 d5bd 2fc0 8b3d
000002c0: 7e36 d7bd 734c 243d 6dc4 5e3d 55c5 8b3e
000002d0: f548 3ebd 9067 043e fc68 b2bd ee6b 47be
000002e0: ab04 f3bc 8c9e 733d 9cf4 0b3e 1025 913d
000002f0: ba68 2a3e 9e25 a8bd 7a37 d2bc dc81 3a3e
00000300: 799a 01be c56d 0b3e 4ef0 d2bd 261d be3d
00000310: d746 e03d c2b5 2e3e bf2b f0bc 3c1a 97bc
00000320: 3fe2 2ebd 7886 833e 5f13 a6bc 4ac8 73bd
00000330: c59c be3c f929 783d eeec d7bd 9988 0ebe
00000340: 0438 89bd b16e e13d b279 5dba cc1b 023d
00000350: d6e4 ec3d 0e67 a23b af2c 1e3e da78 c4bd
00000360: 579d 613e 2543 84bb 5a32 1a3e cd93 263d
00000370: 6d1f 77be 3da9 083e a9f8 01be 4115 e4bd
00000380: fa7f 393e c972 5d3d 1b5a 74bd 8f38 c5bd
00000390: 5304 013e 646f 62be 4733 093e 0f95 fd3d
000003a0: 2de0 10be 9373 753d 566f 29be 81d8 6cbd
000003b0: 2bed e3bd e391 ff3d 64ba 15bd cee3 89bd
000003c0: e241 91bd aa6c 473e abee 43bd 6243 0d3e
000003d0: cbf8 143e f6bf 48bd eb88 793d 1846 e63d
000003e0: 8a89 32bc 9bfe 1ebd 874f 56bd 74b8 383d
000003f0: 1996 3dbe a36f 87bd 95af 743e d913 ab3d
0.03396921 0.08695649 0.1983381 -0.15884282 0.08084803 -0.10563557 0.17683476 -0.124554135
0.004458012 0.04981897 -0.03437987 0.04858672 -0.047600735 0.03972716 -0.034833726 0.0091511365
0.09377084 0.11918534 -0.14602874 -0.13171168 -0.022919942 0.014834519 -0.08929671 -0.023199799
0.038734782 -0.053199794 -0.033379856 -0.056233227 -0.1542097 0.1159681 -0.0073565943 -0.08399751
-0.13637616 0.09646386 -0.06307743 0.09652489 0.0028460445 -0.045559853 -0.077268176 0.097797506
-0.25143263 -0.09752953 -0.09306403 -0.054901265 0.1464793 0.20206803 0.22069815 -0.105685346
-0.09366577 0.023350615 0.1885351 -0.045321465 -0.07847444 -0.111423366 -0.08750075 -0.09648637
-0.18998094 -0.026382344 0.022448663 0.096266836 -0.11181787 -0.057686687 0.19318245 -0.01698028
0.13446686 -0.07066194 -0.013538744 0.036143016 -0.016920593 -0.2376151 0.06887112 -0.088633195
-0.0360349 0.014335646 0.19463205 0.07183731 0.14119686 -0.033105098 0.1300951 0.047503743
0.15697806 0.058385488 -0.17742611 0.07183765 -0.21658123 -0.23893668 -0.016151171 -0.008298466
-0.08828505 0.20755816 -0.049655467 0.021225093 0.22711965 0.10108998 -0.08535192 0.03198576
-0.070097424 -0.1643274 -0.0323686 -0.04329285 -0.23171394 -0.10820079 -0.25928754 -0.047514558
0.14236732 0.023776636 0.18331128 0.13482592 0.08563255 -0.022742702 0.030924462 0.13794206
-0.17926623 -0.0939274 0.041150585 -0.058962524 -0.012322149 0.20026389 0.1513802 0.123359956
0.1253211 0.17844237 -0.043049484 0.037349816 0.10579358 0.067992575 0.21975869 -0.14363413
0.03016862 0.13678738 -0.21815583 -0.0814182 0.052384187 0.13678427 0.25262886 -0.020173285
0.14226207 -0.14188968 -0.15502606 -0.0018781452 -0.02783056 0.11127179 -0.07469926 0.13440183
-0.045651235 0.010391098 -0.037600294 0.19912238 0.004883642 0.21304359 -0.20522146 -0.047335774
0.18038271 0.13901627 -0.0232645 0.17452115 0.16048923 -0.17601727 0.0146773765 0.09020458
-0.15889376 0.13458663 -0.1324304 -0.0934479 -0.022079427 -0.05108714 0.22413823 0.12061484
0.077512056 0.057767145 0.11360928 0.014596622 -0.22634825 -0.14466578 -0.10407297 0.068237655
-0.105084404 0.04011197 0.054386545 0.2729899 -0.046456296 0.12930131 -0.087114304 -0.19474766
-0.029665312 0.059477374 0.1366753 0.07087147 0.16641513 -0.082103 -0.025661219 0.182136
-0.12656583 0.13616093 -0.10299741 0.092829034 0.10951012 0.17061523 -0.029317735 -0.018445127
-0.042696234 0.2568853 -0.020272909 -0.059517182 0.023268113 0.060586903 -0.105432376 -0.13919295
-0.06700137 0.11007441 -0.0008448615 0.03176479 0.115670845 0.0049561327 0.15446733 -0.09593363
0.22032677 -0.0040363246 0.1505827 0.040668298 -0.24133082 0.1334581 -0.12692513 -0.11136866
0.18115225 0.054064546 -0.059656244 -0.09629928 0.12599306 -0.22112805 0.13398467 0.12381946
-0.14148016 0.059924673 -0.16546378 -0.05782366 -0.111292206 0.124789976 -0.03655471 -0.067329034
-0.07092644 0.19475046 -0.047835033 0.13795236 0.14548032 -0.049011193 0.06092159 0.11243838
-0.01089705 -0.03881703 -0.052321937 0.045097783 -0.18514289 -0.0661309 0.23895104 0.08353395

recurs2.bias_ih f4 [120]
00000000: 1c53 9b3e 9148 8a3e 7460 893c db96 123e
00000010: cf0e 213d 6efe 8a3d 726d b83d d705 a23e
00000020: 1858 103e cd45 7c3e 4213 bebc d359 103e
00000030: d023 2d3e 4744 953c 9450 1e3e 3fb9 183e
00000040: 1e77 9a3e 48eb 003e 68da eb3d a919 753e
00000050: c578 b03d f812 8a3e a68b 8e3e 4fa0 9c3c
00000060: 698c 403e d7d3 8a3d 9431 903e 0150 e63d
00000070: 97bb 063e fa9b 923e e946 f53d 10cf 3d3e
00000080: 9f17 503b 0f20 a0bc ba04 e63d c5d8 883e
00000090: fed7 513e 928b e43c b699 8a3e 23e7 97bd
000000a0: e33c 533e ac70 443d cf22 7bbc 03ff 043e
000000b0: d45d 5c3e 2c0d 6e3e 90cb 023d dad3 be3d
000000c0: f7d9 1c3e 80ce a33d bfec 623d de40 813e
000000d0: fac8 b33c 5dea 883e 5794 41bd f835 f63c
000000e0: 74c6 043e 3baf 253d 807b 54bd ba50 8b3d
000000f0: a94a 96bd b4ce 003e 9e29 253e 87db 42bd
00000100: 96cd 043e 06d5 153e 1a38 063e b93e 13be
00000110: 7ae9 12be c057 b0bd 7eed cebc 6548 4b3d
00000120: 65ff 54be 8f8e 0b3e 119f 953e 71a3 3e3d
00000130: 6118 0a3d 1eb4 023c 33d2 01be 28c7 41be
00000140: 012e 4e3e 8cf9 893e 235c 0d3d 68f5 25be
00000150: 53b8 f0bb a625 1bbe fe56 973c ef57 3d3e
00000160: 802b 5c3e 2b13 803e 7e2e 363e 8bbc 9d3e
00000170: 7745 e43d c2a0 2c3e c05a f03b c21c 6c3e
00000180: 2f75 3e3e b1a3 583e 6f62 803e b41f 403e
00000190: 05ae f2bc e467 e33d 280a 36bc f376 883e
000001a0: a4ba d03d f771 0a3c e120 703e d205 ea3c
000001b0: 1942 063e b27f 763e 13cf 653e d1d5 733e
000001c0: 18e6 023e 9784 b33d 2249 203e 4b4f c7bd
000001d0: 1d54 9b3d 6922 7f3e 8d57 813e 5dbc e1bc
0.30336845 0.2700849 0.016769625 0.1431536 0.039320763 0.0678681 0.0900525 0.3164508
0.14096105 0.24636002 -0.023202542 0.14096765 0.16908193 0.018221034 0.15460426 0.14914416
0.30169004 0.12589753 0.11516267 0.2393557 0.08616785 0.26967597 0.27840918 0.01911941
0.18803562 0.067786865 0.28162825 0.11245728 0.13157497 0.28634626 0.11976416 0.1853602
0.003175236 -0.019546537 0.1123137 0.26727882 0.2049255 0.027898584 0.27070397 -0.07417133
0.20628695 0.047959015 -0.015328123 0.12987904 0.21520168 0.23247212 0.031932414 0.09317751
0.15317522 0.07998371 0.05540156 0.25244802 0.021946419 0.26741305 -0.04726061 0.030055031
0.12966329 0.040450316 -0.05187559 0.06802507 -0.07338459 0.12578851 0.16129157 -0.04757264
0.1296905 0.14632043 0.13107339 -0.14379396 -0.14346877 -0.08610487 -0.02525973 0.049629588
-0.2080055 0.136286 0.2922292 0.04654259 0.033714656 0.007977514 -0.12677841 -0.18923628
0.20134737 0.26948202 0.034511697 -0.16206896 -0.007346192 -0.1515108 0.018474098 0.18490575
0.21500969 0.25014624 0.17791173 0.3080791 0.11146062 0.16858199 0.007335037 0.23057845
0.1859939 0.21156193 0.250751 0.18762094 -0.029623995 0.111038 -0.01111082 0.2665325
0.10191849 0.008450023 0.23450042 0.028567228 0.13111152 0.2407215 0.22442274 0.23812033
0.12783086 0.08765524 0.15652898 -0.09731921 0.07584403 0.2491547 0.25262108 -0.027555639

recurs2.bias_hh f4 [120]
00000000: 3120 413e 3a90 963e cd2f f0bb 696e 1a3e
00000010: 390e 803d fb2e 243e 3b56 f23c 87d3 9f3e
00000020: 74af 7a3e 701d 023d c635 25ba 834d a63d
00000030: 93bd fd3d bb60 1b3e f9e5 993d f08b 1d3d
00000040: f843 1b3e ece8 803b 911e 3d3e 5810 edbc
00000050: 4f0c f93d cf9f e2ba 0208 583d e96a 033e
00000060: 9eb8 9d3d 1028 bebb 5848 233e 22fe 2f3d
00000070: 2f7a 343e 50ab 533e b6a7 933d 21e9 c2bd
00000080: dbda a33c d09f f83d ab6b 0b3e 9794 04bd
00000090: c5b1 463e f2cb 1a3e e5fe 043e 3080 4c3d
000000a0: 473b b03b c8b2 ff3d 7644 523e 26e3 573d
000000b0: 4388 133e be81 643e 59c8 4d3e 4506 473d
000000c0: a534 153e d211 113e cf92 193e 0860 d63c
000000d0: a63f c43d 7b94 1f3e 5d46 86bd 2ad3 133e
000000e0: 1acd 1fbd 8759 503e 2a3f 473d b451 163e
000000f0: 8434 04be e67d 093e f6d3 433e 5810 163e
00000100: e8a4 a93d 576d 8bbd 4b89 353e 59ca c13c
00000110: 26ce 2ebe 5c0e abbd 54f3 aabd bb81 ed3c
00000120: c846 0abd 275c 043e 1e01 c53d b681 fc3c
00000130: 7caf 54bb fd4c b13d ec2a 1bbe a526 023e
00000140: c403 9a3c f610 633e d943 abbd 9163 8dbd
00000150: 3240 05bc 6eef 59bd bb15 24be 7f3b 16be
00000160: a02a f4bd 221f 8b3e cf3f 683e 06ac 8e3d
00000170: 59a7 843e 0f87 193e 44c9 fa3d 5125 333d
00000180: b92c 1d3b 531a 853e a580 9a3e 6ecf 1abe
00000190: 9a97 293e 249d 503e e5e8 0f3d 74d8 3f3d
000001a0: e437 e8bc 97c1 613e 7dd7 a93e db33 523e
000001b0: 57e7 d63d 62dd 3e3e 4876 893b 49f1 fa3c
000001c0: a3ec 403e d0f2 863e 1862 233e 01ec ec3c
000001d0: 0204 223e 6e51 93bd b50d 8a3e e5af e43c
0.18859936 0.2940691 -0.007329917 0.1508118 0.06252713 0.16033547 0.029582134 0.3121607
0.24480993 0.031766355 -0.00063022634 0.08120253 0.12389674 0.15173618 0.07514567 0.038463533
0.15162647 0.0039340165 0.18468691 -0.028938457 0.12160551 -0.0017290058 0.05274201 0.12833752
0.077012286 -0.0058031157 0.15945566 0.04296697 0.17624734 0.2067082 0.07209723 -0.09517122
0.02000182 0.12139857 0.13615291 -0.03236827 0.19403751 0.15116861 0.1298786 0.049926937
0.00537816 0.12485272 0.20533928 0.05270686 0.14407448 0.22315118 0.20095958 0.048589963
0.14570864 0.14166954 0.1499741 0.026168838 0.095824525 0.15583985 -0.065563895 0.14436021
-0.03901396 0.20346652 0.048644222 0.14679605 -0.12910658 0.13426933 0.19123825 0.14654672
0.082834065 -0.06807964 0.17728154 0.023656057 -0.17070827 -0.08352348 -0.083471924 0.028992524
-0.03375891 0.12925778 0.09619354 0.03082357 -0.003245323 0.086572625 -0.15153092 0.12710054
0.018800624 0.22174439 -0.0836255 -0.069037564 -0.008132981 -0.053206854 -0.16023915 -0.14671133
-0.119221926 0.2717219 0.22680591 0.069664046 0.25908926 0.14992927 0.122454196 0.04373676
0.0023982956 0.25996646 0.30176273 -0.1511819 0.16561738 0.20372444 0.035134215 0.046837285
-0.028346963 0.22046505 0.33172217 0.20527594 0.10493343 0.18639138 0.0041950084 0.030632632
0.1884027 0.26357126 0.15955389 0.02892113 0.15821841 -0.07193266 0.26963583 0.027915904

output.weight f4 [2, 30]
00000000: a26c adbd 3532 49bd c3bd 173e 7c6d 26bd
00000010: 4c57 933c 1c54 a0bd d2cb ff3d e178 11be
00000020: 34af 16be 8395 49be ba35 ed3c 9126 673d
00000030: d777 5dbe a7fa f8bc f68c 843e 2649 a93d
00000040: bd08 5e3e ff32 41bd 2dff 15bd 8571 973d
00000050: f5c0 f03d b149 bebc 940b 34bd 564e f03d
00000060: a678 473d b634 a9bd 042f 84be 4f64 193e
00000070: 91a2 a0bc 3eab 923d 6518 913e 68e7 773e
00000080: c30c 513e b59d 803e 28ab 17be e531 433e
00000090: 2368 40be db48 463e 763a 653e 71cb ab3d
000000a0: c703 5ebe fd72 26be 21e5 2ebe 1f33 69be
000000b0: f512 2d3e 1792 8e3e ca71 493e c6ad 6ebe
000000c0: 4f1d 883e f646 7fbe bcd6 4b3e 3be1 d43d
000000d0: a672 4f3e 043e 353e 347c aebe 46c8 003e
000000e0: 9ac1 27be 4641 78be 1071 913e ef1c 1b3e
-0.08467986 -0.049120147 0.14818482 -0.040631756 0.017985962 -0.078285426 0.124900475 -0.14206268
-0.14715272 -0.1968594 0.028956283 0.056433264 -0.21627747 -0.030392958 0.25888795 0.08265905
0.21683021 -0.047167774 -0.036620308 0.07394699 0.11755554 -0.023228498 -0.043956354 0.117336914
0.048699044 -0.08262007 -0.2581712 0.14979671 -0.019608768 0.07161568 0.28338924 0.24209368
0.20415024 0.2512032 -0.14811385 0.19062002 -0.18789725 0.1936373 0.22385582 0.08388413
-0.21681128 -0.16254802 -0.17079593 -0.22773407 0.16901763 0.27845833 0.19672313 -0.23308477
0.2658486 -0.24929413 0.19906133 0.10394522 0.20258579 0.17699438 -0.34079134 0.12576398
-0.16382447 -0.2424365 0.28406572 0.15147756

output.bias f4 [2]
00000000: c452 c43d dab0 1e3d
0.09586099 0.038742878

switch.weight f4 [1, 30]
00000000: f6f1 063e c196 85bd 4964 d1bd d6e2 74bd
00000010: cde8 41bd c0e5 973d b05f 17bd abc2 b23d
00000020: 6a88 11be bdda d13c 50b4 133e 7b1c b7bc
00000030: 4a32 193e 2c87 5d3d 37e7 35be 7e16 ddbd
00000040: 04b7 113e 6639 09bd ab26 353e 36ed 38be
00000050: 8c81 cebd e77a 0b3e 9d13 293e bf26 27be
00000060: 2b45 663d 9ffa 34be 4073 04be 82fa a13d
00000070: 4edf bfbd 4f27 89bc
0.13178238 -0.06522895 -0.10224206 -0.05978664 -0.047341157 0.07416868 -0.03695649 0.08728536
-0.14212194 0.025616998 0.14424253 -0.022352448 0.1496059 0.054083988 -0.17763983 -0.10795306
0.14229971 -0.033502005 0.17690532 -0.18059239 -0.10083303 0.13621102 0.16511388 -0.16323374
0.056218307 -0.1767373 -0.1293459 0.07909109 -0.09368764 -0.016742377
