checkpoints/VQE-H2-d58f1c4e/.pth (torch, 49921 bytes, 11 tensors)

recurs1.weight_ih f4 [120, 2]
-0.045300003 0.18462795 -0.22314717 -0.112995915 -0.1131878 -0.008479577 -0.040758967 0.10738831
-0.10288948 0.03601778 -0.11392845 0.050350785 -0.2512075 -0.13220052 -0.120270856 0.055652678
0.012520582 0.18036547 -0.18244141 -0.13273266 -0.020995263 0.13515079 -0.11097987 0.13120271
-0.09242849 -0.040282417 0.13128161 -0.10633944 -0.13067628 0.039084617 -0.12700462 0.10961148
-0.18336546 -0.13098866 -0.19554764 -0.20702855 -0.15213731 0.21017882 0.02859791 0.16244118
-0.02280167 -0.12642384 -0.045112222 -0.18941344 -0.17477988 -0.15917115 0.03385869 0.0389831
-0.12657146 0.028351115 0.06487588 0.26587874 0.03290409 0.081115775 0.06366547 -0.13628219
-0.04303599 -0.12469266 -0.21478485 -0.11203462 0.03925881 0.16064806 -0.1691296 0.073427886
0.053737532 -0.08580714 -0.026631404 0.002347652 0.037487477 0.17107002 -0.19190536 0.019491233
0.0046896636 0.14514399 0.118575215 0.22124802 -0.014907773 -0.08056868 -0.03757185 -0.17079975
-0.24527536 0.15206328 0.074945986 -0.17966461 -0.02501518 -0.09733146 -0.06366504 -0.023724241
0.05528196 -0.021015748 0.015590051 0.03698773 0.07200763 0.01582534 -0.24265525 -0.160153
0.0506185 0.103284225 -0.19561419 -0.03396788 0.13957873 0.0852944 -0.15126126 -0.0655317
-0.2115023 -0.06856033 -0.21613471 -0.21078658 -0.054344602 0.0791857 -0.124328636 0.19373046
-0.14990567 0.22533034 0.07517994 -0.18719348 -0.11472916 0.022973588 -0.053183693 0.023969702
0.04166606 0.09759195 -0.06949719 0.16545017 -0.20550613 -0.16377145 -0.0786255 -0.12715797
-0.06251574 -0.2358405 -0.058432836 0.1239517 -0.13122559 -0.090209626 0.1309975 -0.0945474
0.016013693 -0.10239164 0.065612614 0.18174663 0.17275815 0.20277455 0.17532697 0.067921445
-0.18376344 -0.16467941 0.1618798 -0.036182694 -0.11942446 -0.070943356 -0.18809219 -0.21420197
-0.015566453 0.17166491 0.07288165 -0.2432225 0.09390796 -0.21783721 -0.014707196 -0.15079853
0.0003222313 -0.0024183039 -0.18071711 -0.23884888 -0.061995305 -0.07709648 -0.07067172 0.15336263
-0.21056351 0.015291938 0.17679304 -0.15924487 0.11504515 0.090706706 -0.13714743 0.18051119
-0.027207274 -0.16468327 0.141494 -0.23414159 -0.02610714 0.050453603 0.061501887 0.061126664
0.04071232 0.0052976306 -0.08094591 -0.0803477 -0.23428391 0.089190826 0.09122258 0.21318409
-0.20206013 0.004129729 -0.17383017 -0.04717282 -0.16111977 0.13800877 -0.16832666 -0.06256261
-0.07879207 0.10813257 -0.20769039 -0.12172372 -0.17623354 0.06269927 -0.09723177 0.21848288
0.05220104 0.110349774 -0.056421954 -0.089402184 -0.04211872 -0.09458482 -0.07057597 -0.018926881
-0.18733115 -0.026921134 0.093031205 -0.07184917 -0.05046877 0.13407448 -0.010397305 -0.017730527
-0.19868155 0.026710894 -0.21156724 -0.124833494 -0.10642532 0.012483385 -0.050735686 0.23846212
-0.016460044 0.22166452 0.05323871 -0.15339518 0.0073646456 -0.110924095 -0.16702764 0.033440948
00000000: 7f8c 39bd 1c0f 3d3e b180 64be 676a e7bd
00000010: 01cf e7bd eced 0abc e0f2 26bd 67ee db3d
00000020: b8b7 d2bd 6187 133d 5253 e9bd a03c 4e3d
00000030: 459e 80be 935f 07be 9150 f6bd 10f4 633d
00000040: 2123 4d3c bab1 383e ecd1 3abe 12eb 07be
00000050: 42fe abbc f864 0a3e 6a49 e3bd 015a 063e
00000060: 264b bdbd 2dff 24bd b06e 063e 7ec8 d9bd
00000070: 01d0 05be 3117 203d 800d 02be fc7b e03d
00000080: 28c4 3bbe e421 06be a43d 48be 4bff 53be
00000090: e2c9 1bbe 1e39 573e 2a46 ea3c fb56 263e
000000a0: 91ca babc 4075 01be 98c7 38bd 99f5 41be
000000b0: 7ff9 32be c3fd 22be 69af 0a3d beac 1f3d
000000c0: f39b 01be 9940 e83c a5dd 843d 4221 883e
000000d0: 70c6 063d 0720 a63d 0b63 823d 8f8d 0bbe
000000e0: 8246 30bd de5e ffbd 8ff0 5bbe 6872 e5bd
000000f0: d9cd 203d ed80 243e 4f30 2dbe 5c61 963d
00000100: e31b 5c3d a7bb afbd 1a2a dabc 11db 193b
00000110: 788c 193d fb2c 2f3e d782 44be 14ac 9f3c
00000120: c0ab 993b a0a0 143e 90d7 f23d d78e 623e
00000130: bb3f 74bc 3101 a5bd f1e4 19bd 21e6 2ebe
00000140: 7729 7bbe 7ab6 1b3e 487d 993d 00fa 37be
00000150: a3ec ccbc b755 c7bd d162 82bd 5759 c2bc
00000160: 566f 623d 3829 acbc 6a6d 7f3c 7280 173d
00000170: bc78 933d 25a4 813c 9e7a 78be 26ff 23be
00000180: 5855 4f3d ae86 d33d 164f 48be e721 0bbd
00000190: baed 0e3e d5ae ae3d 3be4 1abe 7c35 86bd
000001a0: 0f94 58be 5c69 8cbd 6b52 5dbe 70d8 57be
000001b0: 7298 5ebd 1d2c a23d 03a0 febd 4761 463e
000001c0: df80 19be ffbc 663e f1f7 993d a6af 3fbe
000001d0: 1ff7 eabd 1b33 bc3c 25d7 59bd 1c5c c43c
000001e0: 08aa 2a3d 4ade c73d 8b54 8ebd c56b 293e
000001f0: 3370 52be b4b3 27be 6806 a1bd b335 02be
00000200: 4108 80bd 2c80 71be 4557 6fbd 64da fd3d
00000210: 0060 06be d3bf b8bd 3524 063e 11a2 c1bd
00000220: 262f 833c b5b2 d1bd e85f 863d ca1b 3a3e
00000230: 83e7 303e 22a4 4f3e ea88 333e 661a 8b3d
00000240: 7c2c 3cbe b8a1 28be d1c3 253e 4e34 14bd
00000250: d094 f4bd c04a 91bd 3d9b 40be c357 5bbe
00000260: 700a 7fbc edc8 2f3e f942 953d 520f 79be
00000270: d152 c03d b810 5fbe 73f6 70bc ee6a 1abe
00000280: 27f1 a839 687c 1ebb e80d 39be cd94 74be
00000290: caee 7dbd c2e4 9dbd 56bc 90bd 180b 1d3e
000002a0: f69d 57be 098b 7a3c 3c09 353e 1611 23be
000002b0: cb9c eb3d 70c4 b93d 6070 0cbe edd7 383e
000002c0: cae1 debc bba2 28be cee3 103e d0c2 6fbe
000002d0: a4de d5bc 70a8 4e3d 67e9 7b3d f45f 7a3d
000002e0: f6c1 263d bf97 ad3b f8c6 a5bd 568d a4bd
000002f0: 1fe8 6fbe aea9 b63d e7d2 ba3d ee4c 5a3e
00000300: dae8 4ebe ad52 873b 8900 32be 4938 41bd
00000310: 95fc 24be 2c52 0d3e d35d 2cbe d320 80bd
00000320: bd5d a1bd 9c74 dd3d caac 54be 494a f9bd
00000330: 9176 34be 7a68 803d 7321 c7bd fab9 5f3e
00000340: c2d0 553d 10ff e13d b51a 67bd 7e18 b7bd
00000350: ae84 2cbd b0b5 c1bd 228a 90bd 8c0c 9bbc
00000360: bdd3 3fbe b689 dcbc 2587 be3d a825 93bd
00000370: 57b8 4ebd d24a 093e 7559 2abc 9c3f 91bc
00000380: 2d73 4bbe ced0 da3c 15a5 58be b4a8 ffbd
00000390: 85f5 d9bd 1d87 4c3c 39d0 4fbd 6a2f 743e
000003a0: 37d7 86bc 06fc 623e d510 5a3d a013 1dbe
000003b0: 2053 f13b 2c2c e3bd 4b09 2bbe 60f9 083d

recurs1.weight_hh f4 [120, 30]
0.108471565 0.20646873 -0.057627164 0.03493837 0.018186118 -0.12398756 0.061452698 -0.20721982
-0.050848138 -0.0038031356 -0.020324858 0.093409464 0.12339777 -0.10058696 -0.07275636 -0.13694721
-0.1132453 -0.00026494838 -0.1414299 -0.17591825 -0.14784211 0.030991863 0.0696472 0.18409216
0.108524255 -0.11412064 0.0018995425 0.12409732 0.076676056 -0.029222146 -0.03025158 -0.03617106
-0.1176289 0.10745263 -0.11690459 -0.09819502 0.14748526 -0.16985835 -0.079826705 -0.0021724626
0.024249354 -0.1193551 -0.10131029 0.08315505 0.08688521 0.17381434 -0.08226756 0.06526804
-0.10498382 -0.06734509 -0.18415171 0.04856907 0.08352256 -0.04791917 0.021646818 -0.17894146
0.1958992 -0.14503397 0.047279958 -0.070080444 -0.11295002 -0.030363813 -0.041572426 0.093137726
0.089315124 -0.16386184 0.08095246 0.12912782 0.11767196 -0.072139375 -0.20569877 -0.07787598
0.13101985 -0.09905857 0.10148551 0.17352961 -0.14671524 0.058223233 0.12781471 0.021786688
-0.0250883 0.07463016 -0.08802194 -0.039658874 0.1646235 0.18760486 0.12599212 -0.026382484
0.13961951 -0.03419504 -0.15720192 -0.18953912 0.21939601 0.15409206 -0.095657095 0.06305632
0.16619197 0.21703781 0.19129868 0.1121673 -0.07088597 -0.09204775 0.19853394 0.06928687
-0.08248536 0.19749175 0.05469406 0.13509457 -0.08716255 0.041975714 -0.10168693 0.1743458
0.015695121 0.03899323 0.06981472 0.0831406 -0.036976945 0.05679537 -0.09493076 0.07413437
-0.053259738 -0.1560452 -0.07181188 0.23231916 0.10614246 0.24826185 0.15268135 -0.19877478
-0.17691612 -0.0995323 -0.122986734 0.111500636 -0.072662726 -0.17413504 -0.0958598 -0.070061415
0.110869825 0.16724524 0.06892189 0.07318269 0.07405268 -0.03557341 0.116015226 0.097653165
0.14672838 0.10338487 0.1770022 0.09315793 -0.06627818 0.10270134 0.07505947 0.03610245
-0.090078644 -0.049838446 -0.21806945 0.1814156 0.058315672 -0.079313874 -0.16107872 0.16750465
0.1983135 0.084697 -0.10884827 0.10863729 0.11964196 -0.21593 0.25006709 0.049558394
-0.122029826 0.04024993 -0.16106735 -0.10348531 0.12991594 0.03559709 -0.070975855 -0.12049595
0.009693662 0.04072705 -0.05702885 0.084184706 0.07371613 -0.09390419 0.07774852 0.16622779
0.092564866 -0.09891881 -0.03144666 -0.17294441 -0.12520954 0.0051717027 -0.12938817 0.05602288
0.21833575 -0.06376241 -0.04757856 -0.030684965 0.0065149674 -0.12355073 0.032867808 -0.22387639
-0.25444075 -0.17233111 -0.002474603 0.06805319 -0.09681208 0.08192777 -0.000990909 0.037814744
0.009789589 -0.15539436 0.19838911 0.15128191 0.21632643 0.13423742 -0.15795223 0.19960977
-0.015064093 0.04427643 -0.19001026 -0.08736139 -0.14353617 -0.056548048 0.05959108 -0.19095431
0.10476661 0.10277476 0.020006701 -0.1291168 -0.19243622 -0.10744084 0.034572423 0.14768195
0.114585385 -0.038466346 0.10988002 -0.22878818 -0.10569008 0.09302463 -0.1404358 0.05344599
-0.07302603 -0.012292174 -0.111165345 0.14857551 -0.07775942 0.19688651 0.057538703 0.048098654
-0.048072908 -0.06537329 0.024632918 0.06966956 0.09939129 -0.18582842 0.20605953 -0.045731295
00000000: 5726 de3d 8a6c 533e 760a 6cbd 891b 0f3d
00000010: 0efb 943c 31ed fdbd d3b5 7b3d 6f31 54be
00000020: 2346 50bd 073e 79bb 5180 a6bc 764d bf3d
00000030: f8b7 fc3d 8900 cebd 4901 95bd e43b 0cbe
00000040: 27ed e7bd c5e8 8ab9 00d3 10be ea23 34be
00000050: ec63 17be a6e2 fd3c 31a3 8e3d a882 3c3e
00000060: f741 de3d 15b8 e9bd 12fa f83a bc26 fe3d
00000070: 5608 9d3d 4863 efbc 29d2 f7bc 1b28 14bd
00000080: 6ce7 f0bd 2010 dc3d ac6b efbd 781a c9bd
00000090: 6006 173e 59ef 2dbe 2f7c a3bd e05f 0ebb
000000a0: 95a6 c63c 7270 f4bd c57b cfbd 324d aa3d
000000b0: dff0 b13d 63fc 313e e57b a8bd 40ab 853d
000000c0: c201 d7bd 39ec 89bd 4492 3cbe 5cf0 463d
000000d0: e00d ab3d e446 44bd ab54 b13c 6e3c 37be
000000e0: cd99 483e c983 14be a1a8 413d 5686 8fbd
000000f0: 5752 e7bd 88bd f8bc d947 2abd febe be3d
00000100: d9ea b63d 66cb 27be 67ca a53d 153a 043e
00000110: fffd f03d cfbd 93bd b3a2 52be 717d 9fbd
00000120: 112a 063e 38df cabd a3d7 cf3d bfb1 313e
00000130: 853c 16be 7c7b 6e3d dce1 023e ff79 b23c
00000140: fb85 cdbc b3d7 983d d944 b4bd 5871 22bd
00000150: 1093 283e 7d1b 403e 1404 013e 1420 d8bc
00000160: 6bf8 0e3e 1910 0cbd 8af9 20be 8b16 42be
00000170: 59a9 603e 4fca 1d3e dee7 c3bd ac23 813d
00000180: 3a2e 2a3e 293f 5e3e cde3 433e f8b7 e53d
00000190: aa2c 91bd 8883 bcbd 7b4c 4b3e 46e6 8d3d
000001a0: 16ee a8bd 473b 4a3e e106 603d 3b56 0a3e
000001b0: 4782 b2bd baee 2b3d 3d41 d0bd b587 323e
000001c0: 0e93 803c 5db7 1f3d 05fb 8e3d 9e45 aa3d
000001d0: 2375 17bd 43a2 683d 0f6b c2bd c3d3 973d
000001e0: e226 5abd 50ca 1fbe 1b12 93bd 13e5 6d3e
000001f0: 3861 d93d 5b38 7e3e 8058 1c3e 9e8b 4bbe
00000200: 8029 35be 97d7 cbbd 78e0 fbbd 725a e43d
00000210: 32d0 94bd 7550 32be 2552 c4bd 5c7c 8fbd
00000220: b80f e33d 5642 2b3e eb26 8d3d cee0 953d
00000230: eea8 973d 6db5 11bd 6499 ed3d 62fe c73d
00000240: f73f 163e 72bb d33d 1140 353e 96c9 be3d
00000250: dbbc 87bd 1555 d23d c8b8 993d 2ae0 133d
00000260: 277b b8bd 6623 4cbd 994d 5fbe 03c5 393e
00000270: 6adc 6e3d 506f a2bd d2f1 24be 5786 2b3e
00000280: b212 4b3e 9f75 ad3d d7eb debd 3a7d de3d
00000290: d806 f53d c11c 5dbe cb08 803e befd 4a3d
000002a0: c6ea f9bd 1cdd 243d d7ee 24be 1bf0 d3bd
000002b0: af08 053e 41ce 113d ca5b 91bd 95c6 f6bd
000002c0: 2ad2 1e3c 68d1 263d 1597 69bd 0869 ac3d
000002d0: 7bf8 963d d750 c0bd 9e3a 9f3d 9e37 2a3e
000002e0: a692 bd3d f295 cabd 37ce 00bd 5718 31be
000002f0: ee36 00be 6377 a93b 557e 04be 3f78 653d
00000300: 6893 5f3e de95 82bd bce1 42bd 095f fbbc
00000310: 827b d53b 2a08 fdbd 65a0 063d da3f 65be
00000320: 0f46 82be 9177 30be f32c 22bb 795f 8b3d
00000330: 6945 c6bd bfc9 a73d 63e1 81ba a2e3 1a3d
00000340: 8364 203c b31f 1fbe 8426 4b3e a5e9 1a3e
00000350: ad84 5d3e 8975 093e 3bbe 21be 8166 4c3e
00000360: 63cf 76bc 345b 353d 0d92 42be 87ea b2bd
00000370: 25fb 12be ed9e 67bd c715 743d 8789 43be
00000380: e08f d63d 937b d23d 18e5 a33c 3237 04be
00000390: 000e 45be f109 dcbd d09b 0d3d f039 173e
000003a0: beab ea3d e38e 1dbd c708 e13d 7347 6abe
000003b0: 0a74 d8bd b283 be3d 67ce 0fbe 2fea 5a3d
000003c0: ac8e 95bd 1d65 49bc a8aa e3bd 2e24 183e
000003d0: 5540 9fbd 9e9c 493e b4ad 6b3d 1803 453d
000003e0: 19e8 44bd 6ee2 85bd f9ca c93c eaae 8e3d
000003f0: a98d cb3d ce49 3ebe 4501 533e bd50 3bbd

recurs1.bias_ih f4 [120]
-0.122880116 -0.08770526 0.0011764641 0.17807874 0.14266747 0.09329114 0.031275485 0.2148821
0.06449012 0.11795113 0.09128739 0.10440589 0.12109787 0.17003289 0.11722217 0.08156444
0.14107579 0.013331372 0.16806975 0.10020613 0.1751872 0.050234213 -0.10839207 0.112049274
0.122754045 0.19652008 0.11304421 0.12871636 0.22484256 0.026357193 0.19974717 0.15552641
0.16300929 0.16722874 -0.067955464 0.14586546 0.24157995 -0.08638438 0.035182033 -0.056974858
0.037893143 0.09457635 0.15667297 -0.023150932 -0.15573737 0.15427068 0.16633616 0.03469495
0.1998628 0.18839139 -0.002911338 0.084895514 0.07067026 0.037315194 0.0029089998 -0.033387892
-0.06304152 0.14658467 0.020630606 -0.0018617333 0.18164803 0.00204633 0.16613005 0.20073515
-0.018177228 0.039838985 0.18973747 -0.11527184 -0.056569934 -0.0072389245 -0.029279975 0.03837702
0.123412885 -0.114921264 0.0470796 0.1919405 -0.1338336 -0.09030146 -0.11354255 0.08374771
-0.20465481 -0.065402836 0.15691733 -0.12946203 0.1977465 -0.09595486 0.08413768 -0.010114555
0.01032351 0.12741701 0.19637138 -0.043386873 0.14734975 0.08501534 0.08576335 -0.07396929
0.13310932 0.1789906 -0.10148126 -0.110300995 -0.08924865 0.1178021 0.013036587 -0.028553788
0.18302648 0.010294405 -0.048009053 0.08639342 -0.052276816 -0.0009698461 0.13623464 0.120810635
-0.086088575 0.24699284 0.17227899 -0.07220656 0.121257216 0.13703084 -0.05158714 -0.037269656
00000000: 92a8 fbbd d19e b3bd 9633 9a3a 465a 363e
00000010: 6c17 123e 6d0f bf3d b91a 003d 0e0a 5c3e
00000020: 6513 843d 5d90 f13d e2f4 ba3d c1d2 d53d
00000030: 2902 f83d 1a1d 2e3e 2d12 f03d 420b a73d
00000040: 2c76 103e d46b 5a3c 7a1a 2c3e df38 cd3d
00000050: 4664 333e 64c2 4d3d a9fc ddbd 177a e53d
00000060: 7966 fb3d 8f3c 493e b983 e73d 39ce 033e
00000070: 213d 663e 0aeb d73c 868a 4c3e 5142 1f3e
00000080: e8eb 263e 033e 2b3e 3c2c 8bbd c15d 153e
00000090: bc60 773e 4bea b0bd 091b 103d 785e 69bd
000000a0: d735 1b3d 3fb1 c13d e16e 203e 06a7 bdbc
000000b0: 9e79 1fbe 22f9 1d3e 0754 2a3e 4b1c 0e3d
000000c0: d5a8 4c3e ace9 403e 25cc 3ebb b3dd ad3d
000000d0: 92bb 903d d1d7 183d eba4 3e3b bec1 08bd
000000e0: ea1b 81bd 4b1a 163e 8401 a93c 6705 f4ba
000000f0: f101 3a3e b81b 063b ff1d 2a3e 848d 4d3e
00000100: 69e8 94bc 342e 233d 8a4a 423e a413 ecbd
00000110: e0b5 67bd 8034 edbb 8fdc efbc 3931 1d3d
00000120: e5bf fc3d d75b ebbd 8ad6 403d 0d8c 443e
00000130: ad0b 09be f9ef b8bd ff88 e8bd eb83 ab3d
00000140: 0891 51be ecf1 85bd f0ae 203e b291 04be
00000150: 0f7e 4a3e fb83 c4bd 6050 ac3d 85b7 25bc
00000160: f023 293c 9b79 023e 9415 493e 6fb6 31bd
00000170: dae2 163e 861c ae3d b2a4 af3d 367d 97bd
00000180: cf4d 083e 5049 373e 68d5 cfbd 7de5 e1bd
00000190: ffc7 b6bd 3a42 f13d 6997 553c a2e9 e9bc
000001a0: 4b6b 3b3e dda9 283c 24a5 44bd 09ef b03d
000001b0: 3720 56bd 453d 7eba 1881 0b3e 916b f73d
000001c0: 354f b0bd b1eb 7c3e e769 303e 08e1 93bd
000001d0: b455 f83d d051 0c3e 094d 53bd 11a8 18bd

recurs1.bias_hh f4 [120]
-0.11157678 0.15251829 0.07215601 0.115960926 0.0079513155 0.19614488 0.10297553 -0.09697278
0.016787505 0.14947881 0.12853044 0.047985274 -0.06734129 -0.083644725 0.16960715 -0.046386186
0.1974624 0.007126693 0.04509844 -0.12883472 -0.021946264 0.2326466 -0.12323973 0.16784689
-0.10515359 0.07562523 -0.12324843 -0.08327241 -0.06784264 0.025793195 0.063406214 -0.07193659
0.087348856 0.14698122 0.23003964 0.21242979 0.1917466 -0.011883625 0.034004025 0.21598612
0.1728026 0.018950395 0.1968557 -0.12970284 0.1734056 0.15783867 -0.07000464 -0.081116565
0.18634294 0.22775762 0.05326109 0.0065069967 0.14246984 0.1554594 0.025102982 0.19519807
0.15912588 0.100920536 0.16964191 -0.08529053 -0.06469997 -0.007130836 0.08404837 0.009396627
0.076479755 0.06822296 -0.14827 0.067932844 -0.016673442 -0.1588566 -0.010732059 -0.05513336
-0.06954389 -0.20617525 0.18559825 -0.08411369 -0.006001672 0.17976724 0.0034728048 -0.14504926
-0.21382473 0.053718485 -0.05800105 -0.006697881 0.1075926 -0.06233749 0.17904861 -0.057772275
-0.058061216 -0.10701595 0.09670048 -0.042271838 0.08333468 0.0131912595 0.21464053 -0.035817776
-0.0109892525 0.02287649 -0.05628366 0.12792149 0.023360308 0.150522 0.17145747 0.13477026
-0.02049615 0.15650012 -0.028743928 -0.11193706 0.03055553 -0.079855114 -0.10165163 0.12508333
0.19521163 0.0013261909 0.03842818 -0.080022536 0.07364093 0.114058964 0.05139301 0.22995013
00000000: 5e82 e4bd c12d 1c3e 88c6 933d ec7c ed3d
00000010: 3c46 023c 34da 483e d6e4 d23d aa99 c6bd
00000020: f385 893c f910 193e 7c9d 033e 358c 443d
00000030: 3bea 89bd ed4d abbd 7fad 2d3e 71ff 3dbd
00000040: 9533 4a3e 0987 e93b 24b9 383d 40ed 03be
00000050: a7c8 b3bc e93a 6e3e 1d65 fcbd 0ee0 2b3e
00000060: c45a d7bd 67e1 9a3d ac69 fcbd ba8a aabd
00000070: 15f1 8abd 404c d33c 1edb 813d 7e53 93bd
00000080: f5e3 b23d 3f82 163e 838f 6b3e 3287 593e
00000090: 3959 443e 89b3 42bc ce47 0b3d 772b 5d3e
000000a0: 2af3 303e dc3d 9b3c 8a94 493e d2d0 04be
000000b0: 3d91 313e 76a0 213e 985e 8fbd 7120 a6bd
000000c0: afd0 3e3e 4b39 693e 4d28 5a3d a538 d53b
000000d0: 9de3 113e c030 1f3e c5a4 cd3c 01e2 473e
000000e0: e5f1 223e 6daf ce3d 9cb6 2d3e cdac aebd
000000f0: 6b81 84bd caa9 e9bb 8d21 ac3d 4ff4 193c
00000100: 6ba1 9c3d 7bb8 8b3d 17d4 17be 6020 8b3d
00000110: be96 88bc 4eab 22be 85d5 2fbc 85d3 61bd
00000120: 076d 8ebd 9b1f 53be 780d 3e3e cc43 acbd
00000130: aca9 c4bb e714 383e ff97 633b cb87 14be
00000140: dff4 5abe ea07 5c3d 8292 6dbd e679 dbbb
00000150: 8259 dc3d 9955 7fbd 8558 373e 9fa2 6cbd
00000160: 99d1 6dbd 2e2b dbbd e70a c63d 3c25 2dbd
00000170: 5fab aa3d 2720 583c baca 5b3e a9b5 12bd
00000180: 440c 34bc 7a67 bb3c b289 66bd dafd 023e
00000190: 1e5e bf3c 7022 1a3e 8c92 2f3e 3701 0a3e
000001a0: 8be7 a7bc 9141 203e 6378 ebbc 423f e5bd
000001b0: 974f fa3c 148b a3bd bb2e d0bd d815 003e
000001c0: 8fe5 473e 95d3 ad3a de66 1d3d dbe2 a3bd
000001d0: 0ed1 963d bf97 e93d 7a81 523d 0c78 6b3e

recurs2.weight_ih f4 [120, 30]
-0.11490534 0.020737892 -0.07413417 0.20050164 0.108197585 0.22263254 0.12621666 0.033034008
-0.1789712 -0.11068489 0.092920445 -0.12499638 0.11909985 0.044099256 0.059843663 -0.19019882
0.16287047 -0.050730735 -0.1145928 0.032691065 -0.028695716 -0.12175797 0.043696847 -0.1174756
0.21694875 0.1142727 0.14299963 0.12931758 -0.22003019 -0.13960439 -0.17948817 -0.15092894
-0.11716568 0.1764285 0.1597843 0.098728195 -0.02046406 0.17878683 0.0061874785 -0.11336074
0.039936684 0.05813324 -0.057627298 0.14162341 0.011266576 0.11612003 -0.24949485 0.08908725
-0.058183625 -0.117055655 -0.11731765 0.06437731 -0.015749944 -0.16760612 0.16868664 0.061747584
-0.15535097 -0.030068696 0.11040251 0.07224636 0.046797592 -0.065291874 0.12135177 -0.088065356
-0.018586045 0.13823935 -0.05514441 0.12650292 0.19618486 -0.23086418 -0.13660508 0.09547965
0.07166039 -0.00034415547 0.06077092 0.1421049 -0.14102282 0.092975415 0.15384871 -0.025230413
-0.20643546 0.12716217 -0.014854664 -0.09968128 0.13292558 0.03388463 -0.08524692 -0.15042557
0.032431256 0.020270485 0.009517597 -0.13141939 0.20042191 0.17738453 0.056246895 0.10451512
0.043931063 0.13350265 0.017879507 -0.036758978 -0.116955765 0.030043563 -0.09597742 -0.02108524
-0.08556699 -0.036563996 0.056648787 -0.07098266 0.109205075 -0.16996725 0.08797615 0.08052732
-0.036744647 0.04967959 -0.07963663 -0.18542881 -0.034201734 -0.01308456 0.037687443 -0.13305724
0.2207391 0.050750125 -0.0561157 0.056059115 -0.13173383 0.09647807 0.01834348 -0.094098546
-0.030860642 0.0982203 -0.06409019 0.0018590091 -0.010140265 -0.16882868 0.044764277 -0.013810183
-0.1287671 0.0108650895 0.13397516 0.03756982 -0.15579274 0.11923708 -0.11994508 -0.11263083
0.13307719 0.097575046 0.22852963 0.18775642 -0.14657803 -0.004557969 -0.05437136 0.0063324925
0.21542606 0.16779026 -0.16212484 -0.008678084 -0.14428726 0.07104371 -0.05782087 -0.19241275
-0.061554406 0.043122064 0.084832564 0.093799554 0.07112438 0.091167435 -0.088773325 0.04692539
-0.04647139 0.099168316 -0.0029308808 -0.09371739 -0.12225893 -0.22762343 0.01100206 -0.049388554
0.24986017 -0.043213006 0.079180434 0.10538079 -0.10806983 -0.09506732 0.06537835 0.11316841
-0.14745636 0.07755546 -0.23743665 -0.04305671 0.001812614 0.04541516 0.03341818 0.13424818
-0.068015516 0.108783975 -0.14080067 -0.15866041 -0.09864808 -0.21971966 0.09067547 -0.09477507
-0.17849016 -0.022798982 -0.15992892 0.05184159 0.11769938 -0.08807391 0.14221108 0.092278734
-0.20520689 -0.0253783 0.14469166 0.001156431 0.049079176 0.06612233 -0.029777693 0.08795636
-0.21542396 0.102733724 0.045158073 0.031220622 0.07975544 -0.108472265 -0.045800716 -0.039580315
0.05983588 -0.12749343 0.04538476 -0.08750676 0.098527476 -0.21318683 -0.0231637 0.08136206
-0.1437297 0.0018677656 0.12711525 0.03262581 0.073567435 0.10755548 -0.1680603 0.11100923
0.023553265 0.15753113 0.06298864 0.009097571 0.033809874 0.21121755 0.14081028 -0.1841489
-0.016790025 -0.1138574 0.1507284 0.16860959 -0.13775788 -0.03411432 0.12801188 0.08619588
00000000: 7e53 ebbd 83e2 a93c a8d3 97bd 4d50 4d3e
00000010: b296 dd3d c9f9 633e f13e 013e ab4e 073d
00000020: 3a44 37be c2ae e2bd 134d be3d 1afe ffbd
00000030: 9fea f33d 6ca1 343d a11e 753d 7bc3 42be
00000040: 84c7 263e 08cb 4fbd a1af eabd 11e7 053d
00000050: 4713 ebbc 3e5c f9bd 77fb 323d 0c97 f0bd
00000060: d027 5e3e ce07 ea3d 7f6e 123e d46b 043e
00000070: 984f 61be 74f4 0ebe bfcb 37be 1e8d 1abe
00000080: 8ff4 efbd aca9 343e 7f9e 233e 0232 ca3d
00000090: 3fa4 a7bc e513 373e 55c0 ca3b ad29 e8bd
000000a0: a694 233d 1f1d 6e3d 9a0a 6cbd ba05 113e
000000b0: 7297 383c 57d0 ed3d 947b 7fbe 6073 b63d
000000c0: f451 6ebd e0ba efbd 3c44 f0bd 40d8 833d
000000d0: 0706 81bc f0a0 2bbe 31bc 2c3e 09eb 7c3d
000000e0: 5314 1fbe a052 f6bc b61a e23d e6f5 933d
000000f0: d5ae 3f3d bfb7 85bd 4787 f83d 9c5b b4bd
00000100: c341 98bc 9e8e 0d3e 1bdf 61bd fb89 013e
00000110: afe4 483e a967 6cbe 34e2 0bbe d68a c33d
00000120: afc2 923d c46f b4b9 eeea 783d f283 113e
00000130: 4968 10be e569 be3d 848a 1d3e 03b0 cebc
00000140: d163 53be cd36 023e fa60 73bc b325 ccbd
00000150: a51d 083e 9cca 0a3d f095 aebd 2909 1abe
00000160: a3d6 043d 4a0e a63c b2ef 1b3c ce92 06be
00000170: 673b 4d3e 4aa4 353e 2563 663d 060c d63d
00000180: 0ff1 333d ebb4 083e 0b78 923c 9590 16bd
00000190: 8186 efbd eb1d f63c cf8f c4bd f4ba acbc
000001a0: bf3d afbd 21c4 15bd 8f08 683d 5b5f 91bd
000001b0: e9a6 df3d e50b 2ebe d72c b43d 82eb a43d
000001c0: 8e81 16bd d37c 4b3d 8818 a3bd 0de1 3dbe
000001d0: 1e17 0cbd 9f60 56bc 265e 1a3d 2840 08be
000001e0: 6e09 623e 5ddf 4f3d 94d9 65bd 3e9e 653d
000001f0: 3ce5 06be 4b96 c53d 1145 963c bdb6 c0bd
00000200: 75cf fcbc ba27 c93d b841 83bd ffa9 f33a
00000210: 5b23 26bc 6de1 2cbe bf5a 373d 1b44 62bc
00000220: 86db 03be 7d03 323c c930 093e d0e2 193d
00000230: 2288 1fbe 9232 f43d c4a5 f5bd feaa e6bd
00000240: 6345 083e 6dd5 c73d ac03 6a3e 3843 403e
00000250: 8d18 16be 045b 95bb 81b4 5ebd cc80 cf3b
00000260: a698 5c3e 36d1 2b3e 0e04 26be 862e 0ebc
00000270: 0ac0 13be 5d7f 913d 94d5 6cbd d907 45be
00000280: 7920 7cbd c3a0 303d b2bc ad3d fb19 c03d
00000290: a9a9 913d feb5 ba3d cace b5bd d634 403d
000002a0: c958 3ebd c218 cb3d 0514 40bb e7ee bfbd
000002b0: e462 fabd 1e16 69be fc41 343c a74b 4abd
000002c0: 58db 7f3e 1f00 31bd 5a29 a23d e2d1 d73d
000002d0: b753 ddbd a8b2 c2bd 16e5 853d d7c4 e73d
000002e0: cdfe 16be 66d5 9e3d 9822 73be 3c5c 30bd
000002f0: 3c95 ed3a 3f05 3a3d 80e1 083d 5b78 093e
00000300: b84b 8bbd 22ca de3d 0d2e 10be e077 22be
00000310: 0108 cabd 31fe 60be 10b4 b93d 6f19 c2bd
00000320: 20c6 36be eec4 babc 68c4 23be d957 543d
00000330: 5f0c f13d 1860 b4bd c89f 113e a2fc bc3d
00000340: c121 52be 27e6 cfbc 0d2a 143e 6393 973a
00000350: 3f07 493d 256b 873d 59f0 f3bc 7722 b43d
00000360: 1998 5cbe 0f66 d23d acf7 383d 64c2 ff3c
00000370: d256 a33d b526 debd 8899 3bbd f81e 22bd
00000380: 7816 753d a38d 02be 5fe5 393d bf36 b3bd
00000390: c6c8 c93d a64d 5abe cdc1 bdbc 27a1 a63d
000003a0: e12d 13be d0cf f43a 802a 023e a4a2 053d
000003b0: 86aa 963d 0c46 dc3d 0018 2cbe cf58 e33d
000003c0: c7f2 c03c d74f 213e 3000 813d fa0d 153c
000003d0: 397c 0a3d 6a49 583e 9230 103e 8791 3cbe
000003e0: 3c8b 89bc 122e e9bd 8c58 1a3e fea7 2c3e
000003f0: 6710 0dbe 75bb 0bbd 8c15 033e 7787 b03d

recurs2.weight_hh f4 [120, 30]
0.021369183 0.031441603 0.14933807 -0.202475 0.12073299 -0.14932661 0.18692571 -0.15919743
-0.053599067 0.058743037 0.020531002 0.08916275 -0.0026342236 0.06564951 -0.086351 -0.03213402
0.026996592 0.15779078 -0.16797519 -0.07163505 -0.08436424 -0.051601656 -0.121388465 -0.042048965
0.09350365 -0.053702366 0.024333684 -0.032165896 -0.20750032 0.0623632 -0.00949267 -0.10103173
-0.14873357 0.10340034 -0.052005954 0.09234494 -0.009297964 -0.057384063 -0.09136159 0.10602931
-0.19885471 -0.094262265 -0.083262905 -0.046082016 0.11961777 0.21254979 0.19827864 -0.10890888
-0.09918747 0.0428121 0.13518713 -0.116957314 -0.07058903 -0.11325523 -0.06603988 -0.08518582
-0.17386219 -0.027433408 0.008188503 0.044851597 -0.099111415 -0.062798135 0.19040333 0.0016667055
0.11422184 -0.066350855 -0.040798318 0.05408445 0.0025776147 -0.2084884 0.10350811 -0.09335546
-0.03839713 0.002747066 0.16606182 0.090210736 0.13310418 -0.053093918 0.15103672 0.045105603
0.122934 -0.0018542443 -0.14430803 0.09535987 -0.20623703 -0.20973971 -0.024626045 -0.021576334
-0.085711 0.17168209 -0.043977097 -0.018242413 0.18473807 0.095775954 -0.09693084 0.0024951263
-0.08369287 -0.16070546 -0.031382315 -0.022456972 -0.14608753 -0.08524011 -0.21755587 -0.051101822
0.059948687 0.0348532 0.14500698 0.1502851 0.09314569 -0.00015732479 -0.055007644 0.029556135
-0.19345911 -0.08514094 0.07043356 -0.044028275 0.023487141 0.1935398 0.12117319 0.038987536
0.13035837 0.14222303 -0.09366999 0.0077457847 0.12539524 0.035141826 0.20952216 -0.15042612
-0.005688286 0.16468892 -0.16995493 -0.06905667 0.09908491 0.12855224 0.19709465 -0.054221623
0.09386568 -0.12691474 -0.14226529 0.024609607 -0.07775261 0.048783213 -0.09878487 0.14995833
-0.027433816 0.028244829 0.008053586 0.19683693 -0.02829696 0.15381446 -0.18944027 -0.072644845
0.15330282 0.13765202 -0.03974811 0.16626477 0.12800746 -0.16375695 0.020442972 0.12140354
-0.11643382 0.14041165 -0.10990533 -0.10952095 -0.07697812 -0.04598713 0.19921003 0.115047365
0.09142538 0.06397754 0.06650776 -0.04906653 -0.2105007 -0.12766154 -0.09245629 0.09878293
-0.094992965 0.027124533 0.042699035 0.21790004 -0.037498828 0.08807767 -0.13245729 -0.2209508
-0.00027388585 0.03634574 0.13078731 0.04785666 0.123639025 -0.09317484 0.018654745 0.19485936
-0.08993248 0.14191316 -0.1416387 0.07598532 0.051159497 0.18112639 -0.039453622 0.014324821
-0.09237119 0.19783509 -0.026705222 -0.062704355 0.05825538 0.07353827 -0.06549059 -0.1316035
-0.093902 0.07181464 -0.0026049328 -0.020365218 0.054125156 -0.041639198 0.1710415 -0.13814342
0.19661187 -0.017057803 0.11173849 0.075958915 -0.17752485 0.1609769 -0.0763068 -0.104885645
0.11782001 0.0056229625 -0.120132074 -0.069649674 0.1370563 -0.17542593 0.06631871 0.04621749
-0.16407 0.06280995 -0.13294955 -0.028726026 -0.050469697 0.11280516 -0.07401417 -0.12919374
-0.026061999 0.16650741 -0.08158053 0.12525432 0.123364344 -0.050923422 0.009161467 0.14045182
-0.0044317166 0.03164521 -0.017119974 0.040098432 -0.16437984 -0.097315386 0.19876745 0.0829342
00000000: 6d0e af3c e9c8 003d 14ec 183e 9b55 4fbe
00000010: dc42 f73d 13e9 18be 7469 3f3e a704 23be
00000020: b28a 5bbd 8a9c 703d a230 a83c f69a b63d
00000030: f0a2 2cbb 4073 863d cbd8 b0bd f69e 03bd
00000040: f527 dd3c e893 213e b001 2cbe 66b5 92bd
00000050: 29c7 acbd 425c 53bd 849a f8bd 893b 2cbd
00000060: d77e bf3d 03f7 5bbd 6f57 c73c 63c0 03bd
00000070: f77a 54be 8e70 7f3d 2587 1bbc b9e9 cebd
00000080: 9d4d 18be 8fc3 d33d 3204 55bd 581f bd3d
00000090: 7d56 18bc 8d0b 6bbd c91b bbbd e525 d93d
000000a0: 92a0 4bbe 930c c1bd be85 aabd 7fc0 3cbd
000000b0: 29fa f43d a7a6 593e 8e09 4b3e 9e0b dfbd
000000c0: cd22 cbbd be5b 2f3d 7f6e 0a3e 5187 efbd
000000d0: fb90 90bd 5cf2 e7bd eb3f 87bd e775 aebd
000000e0: ee08 32be 07bc e0bc 1229 063c 4fb6 373d
000000f0: edfa cabd 4f9c 80bd 17f9 423e 5b75 da3a
00000100: 24ed e93d f5e2 87bd 231c 27bd a887 5d3d
00000110: 33ed 283b fc7d 55be 0ffc d33d 2631 bfbd
00000120: 4f46 1dbd 1f08 343b 1c0c 2a3e 68c0 b83d
00000130: 764c 083e 0279 59bd 5fa9 1a3e a7c0 383d
00000140: d2c4 fb3d 1d0a f3ba 7cc5 13be 094c c33d
00000150: cd2f 53be 02c6 56be 8fbc c9bc dac0 b0bc
00000160: 4089 afbd 6ecd 2f3e 5421 34bd 1d71 95bc
00000170: fa2b 3d3e 2f26 c43d ad83 c6bd 4685 233b
00000180: 2b67 abbd f98f 24be be8a 00bd aff7 b7bc
00000190: f897 15be 5e92 aebd f7c6 5ebe 2550 51bd
000001a0: c18c 753d 3bc2 0e3d b67c 143e 56e4 193e
000001b0: 2bc3 be3d 8df7 24b9 b24f 61bd b51f f23c
000001c0: 251a 46be 605e aebd 783f 903d fe56 34bd
000001d0: 1b68 c03c 4c2f 463e a629 f83d 65b1 1f3d
000001e0: aa7c 053e eaa2 113e 0dd6 bfbd 5ad0 fd3b
000001f0: 9c67 003e e0f0 0f3d fa8c 563e 4e09 1abe
00000200: cd64 babb 36a4 283e aa08 2ebe 956d 8dbd
00000210: 07ed ca3d 33a3 033e 2ed3 493e 7e17 5ebd
00000220: a63c c03d f0f5 01be fead 11be 169a c93c
00000230: c33c 9fbd e8d0 473d b94f cabd ad8e 193e
00000240: e2bc e0bc b361 e73c 30f3 033c 9f8f 493e
00000250: 07cf e7bc 8a81 1d3e a1fc 41be d2c6 94bd
00000260: 6afb 1c3e a7f4 0c3e eace 22bd 5041 2a3e
00000270: 6314 033e e7af 27be 0578 a73c 6ba2 f83d
00000280: db74 eebd 12c8 0f3e 0c16 e1bd 854c e0bd
00000290: b4a6 9dbd 005d 3cbd b7fd 4b3e f49d eb3d
000002a0: 3b3d bb3d a806 833d 3835 883d fcf9 48bd
000002b0: 7f8d 57be b5b9 02be b959 bdbd b44e ca3d
000002c0: ac8b c2bd 4534 de3c 2fe5 2e3d 3021 5f3e
000002d0: 5f98 19bd 1162 b43d e2a2 07be ed40 62be
000002e0: 5698 8fb9 45df 143d 1ced 053e 5805 443d
000002f0: 7536 fd3d 73d2 bebd d6d1 983c 3689 473e
00000300: 852e b8bd af51 113e bc09 11be 319e 9b3d
00000310: 9f8c 513d 3279 393e 1f9a 21bd a7b2 6a3c
00000320: 1b2d bdbd 4895 4a3e e9c4 dabc 246b 80bd
00000330: 319d 6e3d 3c9b 963d ee1f 86bd 11c3 06be
00000340: b14f c0bd 8e13 933d 85b7 2abb f5d4 a6bc
00000350: 57b2 5d3d dd8d 2abd 8125 2f3e 7875 0dbe
00000360: 9f54 493e cebc 8bbc 26d7 e43d 5990 9b3d
00000370: 13c9 35be 21d7 243e bd46 9cbd 49ce d6bd
00000380: 9e4b f13d d440 b83b ce07 f6bd 7da4 8ebd
00000390: 7d58 0c3e dba2 33be 1bd2 873d 8d4e 3d3d
000003a0: f701 28be 81a2 803d ed23 08be d852 ebbc
000003b0: 50b9 4ebd 6406 e73d be94 97bd 5d4b 04be
000003c0: f97f d5bc eb80 2a3e b113 a7bd ab42 003e
000003d0: 72a6 fc3d 1495 50bd fa19 163c 9ad2 0f3e
000003e0: ef37 91bb 689e 013d 303f 8cbc 413e 243d
000003f0: 3053 28be 4a4d c7bd b289 4b3e 68d9 a93d

recurs2.bias_ih f4 [120]
0.20347767 0.18472669 -0.08129934 0.05633272 -0.07218994 -0.016163029 0.015052442 0.20548415
0.023881517 0.1441495 -0.14947295 0.033791464 0.075681426 -0.045537878 0.03846977 0.07404541
0.20043905 0.029812248 0.012637736 0.16308874 -0.029411469 0.14322858 0.20048147 -0.06945279
0.09694731 -0.008940391 0.19553956 0.013575916 0.041555006 0.15092018 0.06773999 0.15970558
-0.033459865 -0.081680976 0.07286341 0.22510515 0.16445594 -0.041329402 0.19109157 -0.14505784
0.19598015 0.056007653 -0.048203643 0.07279764 0.18028407 0.18404004 -0.022907035 0.0928779
0.105783544 0.011680355 0.053455003 0.19375375 -0.0055229566 0.17049289 -0.08351123 -0.038143795
0.09130291 -0.040961023 -0.06169096 -0.0013283052 -0.06712908 0.09537717 0.10112451 -0.10732976
0.08669148 0.12374965 0.111872435 -0.10068486 -0.12468549 -0.024708375 0.040392824 0.062465027
-0.15947309 0.12903492 0.20279986 0.001996909 0.046478156 0.014598428 -0.11513955 -0.18935268
0.13757528 0.1661829 0.013056447 -0.15510334 -0.00915092 -0.11997184 0.050463386 0.15803637
0.2005818 0.16895077 0.08489905 0.22131471 0.008457452 0.07591453 -0.07832816 0.1565514
0.10325419 0.11512687 0.16588117 0.1277093 -0.14138143 0.020929476 -0.09256938 0.18057725
0.029066538 -0.085959226 0.15347359 -0.058465928 0.036050357 0.1564068 0.13732982 0.13762617
0.044534955 0.012697271 0.06861253 -0.14673457 -0.010963571 0.17482358 0.17097163 -0.13311367
00000000: 735c 503e fe28 3d3e 4580 a6bd 23bd 663d
00000010: 52d8 93bd 5468 84bc 859e 763c 706a 523e
00000020: 2ca3 c33c ed9b 133e 700f 19be eb68 0a3d
00000030: ddfe 9a3d ed85 3abd 7a92 1d3d 1fa5 973d
00000040: e53f 4d3e d138 f43c 820e 4f3c bc00 273e
00000050: 52f0 f0bc 83aa 123e 044b 4d3e 443d 8ebd
00000060: 508c c63d b87a 12bc 863b 483e 856d 5e3c
00000070: 9535 2a3d d28a 1a3e 44bb 8a3d dc89 233e
00000080: 360d 09bd 5b48 a7bd 6939 953d f781 663e
00000090: 2367 283e 0549 29bd 82ad 433e 0b8a 14be
000000a0: 05af 483e 4868 653d 2f71 45bd ee16 953d
000000b0: 639c 383e fe74 3c3e 89a7 bbbc c536 be3d
000000c0: 0ba5 d83d f65e 3f3c a2f3 5a3d 6267 463e
000000d0: ebf9 b4bb b095 2e3e f007 abbd ab3c 1cbd
000000e0: 05fd ba3d bfc6 27bd a9af 7cbd 871a aeba
000000f0: f97a 89bd 1b55 c33d 5e1a cf3d b5cf dbbd
00000100: 4d8b b13d 7570 fd3d 601d e53d dd33 cebd
00000110: 1b5b ffbd 3869 cabc f272 253d 54db 7f3d
00000120: ea4c 23be bb21 043e c4aa 4f3e 93de 023b
00000130: e15f 3e3d 3f2e 6f3c 49ce ebbd abe5 41be
00000140: 89e0 0c3e da2b 2a3e b5ea 553c 69d3 1ebe
00000150: beed 15bc ccb3 f5bd b2b2 4e3d 49d4 213e
00000160: 5165 4d3e 6e01 2d3e 8edf ad3d 53a0 623e
00000170: 2091 0a3c 1479 9b3d 846a a0bd 034f 203e
00000180: ef76 d33d a3c7 eb3d c1dc 293e 3ac6 023e
00000190: 4bc6 10be 4b74 ab3c 0495 bdbd 3ee9 383e
000001a0: f31c ee3c 640b b0bd 2e28 1d3e f879 6fbd
000001b0: 8aa9 133d 1b29 203e 30a0 0c3e e0ed 0c3e
000001c0: 496a 363d 3708 503c ba84 8c3d 9641 16be
000001d0: 8da0 33bc f404 333e 3013 2f3e f34e 08be

recurs2.bias_hh f4 [120]
0.0887083 0.20871116 -0.105398916 0.063990936 -0.04898356 0.07630432 -0.045417853 0.20119403
0.12773028 -0.070444 -0.1269006 -0.025973622 0.030496303 0.08797716 -0.04098883 -0.036635224
0.050375376 -0.09215115 0.08216198 -0.10520547 0.0060261614 -0.12817633 -0.02518576 0.039765332
-0.014075865 -0.08253046 0.07336651 -0.055914357 0.08622732 0.071282074 0.02007308 -0.12082582
-0.016633311 0.059264157 0.096702605 -0.07454217 0.1535679 0.08194056 0.05026633 -0.02095959
-0.004928775 0.13290115 0.17246367 -0.004374463 0.10915687 0.17471905 0.14612006 0.048290387
0.09831691 0.073366165 0.14802748 -0.032525502 0.068355136 0.058919936 -0.10181445 0.07616138
-0.07737429 0.122055165 0.038828887 0.07744268 -0.12285099 0.10385798 0.1310712 0.086789615
0.03983501 -0.0906504 0.15808044 0.06676525 -0.151925 -0.022126991 -0.017819395 0.04182797
0.014773497 0.12200673 0.006764239 -0.013722122 0.009518186 0.09319355 -0.13989197 0.12698425
-0.04497152 0.11844522 -0.10508087 -0.06207198 -0.009937708 -0.021667782 -0.12824973 -0.1735807
-0.13364978 0.19052659 0.13379325 -0.017100785 0.15608603 0.057261813 0.036790986 -0.03029015
-0.080341354 0.16353124 0.21689342 -0.2110936 0.053859975 0.11361583 -0.046324275 -0.039118014
-0.101198845 0.12605563 0.25069574 0.118242666 0.009872335 0.10207672 -0.082897834 -0.06986143
0.10510665 0.18861341 0.07163742 -0.020494033 0.071410686 -0.14626378 0.18798646 -0.07764206
00000000: b2ac b53d 61b8 553e 63db d7bd ae0d 833d
00000010: fca2 48bd 7045 9c3d 1208 3abd cf05 4e3e
00000020: bacb 023e f244 90bd 3bf2 01be a2c6 d4bc
00000030: 62d3 f93c 5f2d b43d e7e3 27bd d10e 16bd
00000040: 6956 4e3d beb9 bcbd 8a44 a83d f775 d7bd
00000050: 1b77 c53b a840 03be 5e52 cebc f9e0 223d
00000060: 759e 66bc bb05 a9bd 2e41 963d 7406 65bd
00000070: f397 b03d 56fc 913d 4d70 a43c 8773 f7bd
00000080: 9542 88bc f9be 723d 040c c63d 91a9 98bd
00000090: e740 1d3e 74d0 a73d 11e4 4d3d 72b3 abbc
000000a0: 9081 a1bb 3d17 083e 519a 303e a857 8fbb
000000b0: a38d df3d 8de9 323e 7fa0 153e 24cc 453d
000000c0: 605a c93d 0041 963d 8494 173e 7639 05bd
000000d0: c7fd 8b3d 0856 713d 1884 d0bd 7ffa 9b3d
000000e0: 6976 9ebd 0ff8 f93d 0a0b 1f3d 459a 9e3d
000000f0: 4d99 fbbd 7eb3 d43d 8737 063e c1be b13d
00000100: 092a 233d eba6 b9bd d7df 213e 38bc 883d
00000110: 3a92 1bbe aa43 b5bc fbf9 91bc ce53 2b3d
00000120: 8a0c 723c aade f93d 8da6 dd3b c0d2 60bc
00000130: 2af2 1b3c 43dc be3d d73f 0fbe 2908 023e
00000140: 0e34 38bd 6893 f23d a434 d7bd 303f 7ebd
00000150: c5d1 22bc a280 b1bc e653 03be 24bf 31be
00000160: 7ddb 08be 6719 433e 1901 093e f216 8cbc
00000170: 04d5 1f3e 5d8b 6a3d 25b2 163d 0c23 f8bc
00000180: 028a a4bd bc74 273e 4f19 5e3e ec28 58be
00000190: 479c 5c3d 6baf e83d 86be 3dbd 363a 20bd
000001a0: 5741 cfbd ba14 013e 315b 803e 3629 f23d
000001b0: 93bf 213c 990d d13d 57c6 a9bd 8213 8fbd
000001c0: 2842 d73d e023 413e a4b6 923d 1ae3 a7bc
000001d0: c43f 923d 2cc6 15be 867f 403e cd02 9fbd

output.weight f4 [2, 30]
-0.094886936 -0.11037964 0.092310585 -0.08243473 0.046824995 -0.11424685 0.12915528 -0.16414115
-0.18153094 -0.19580056 0.09897719 0.09846196 -0.15758877 -0.0129898945 0.18715465 0.05673294
0.16350065 -0.015146369 -0.051988453 0.11522033 0.04750897 -0.101528525 -0.065455176 0.10215143
0.08642577 -0.07481329 -0.2128071 0.15202354 -0.053049088 0.010839737 0.20490669 0.14487077
0.103630334 0.14637974 -0.05195971 0.097802565 -0.12177222 0.10563891 0.12625195 0.03669248
-0.12736858 -0.06952601 -0.073055975 -0.14669974 0.07992235 0.1803263 0.09531992 -0.13890082
0.18440183 -0.15734199 0.11136827 0.037096303 0.11351786 0.101653434 -0.24951719 0.07723839
-0.06307937 -0.180744 0.19406897 0.05506985
00000000: 1554 c2bd b80e e2bd 550d bd3d 8ad3 a8bd
00000010: 91cb 3f3d 41fa e9bd 4841 043e 9e14 28be
00000020: 3fe3 39be f17f 48be 8eb4 ca3d 6da6 c93d
00000030: f35e 21be 91d3 54bc 78a5 3f3e cd60 683d
00000040: b76c 273e 7a28 78bc d8f1 54bd a3f8 eb3d
00000050: c498 423d 30ee cfbd 5d0d 86bd c534 d13d
00000060: feff b03d b637 99bd 1bea 59be 0fac 1b3e
00000070: 004a 59bd 2799 313c 0fd3 513e 0159 143e
00000080: 243c d43d 92e4 153e b4d3 54bd b64c c83d
00000090: b763 f9bd 3659 d83d 3148 013e db4a 163d
000000a0: e96c 02be a763 8ebd 5f9e 95bd 7538 16be
000000b0: 54ae a33d 75a7 383e 1737 c33d 043c 0ebe
000000c0: d5d3 3c3e 421e 21be 0c15 e43d 4bf2 173d
000000d0: 0d7c e83d ad2f d03d 6f81 7fbe 292f 9e3d
000000e0: c22f 81bd f514 39be 04ba 463e ec90 613d

output.bias f4 [2]
0.005774676 0.016062927
00000000: 7e39 bd3b 6696 833c

switch.weight f4 [1, 30]
0.12881148 -0.06819986 -0.09927115 -0.05681574 -0.044370256 0.07713959 -0.03398559 0.08431445
-0.14509286 0.02264609 0.14127162 -0.01938154 0.14663498 0.05705489 -0.17466891 -0.104982145
0.14527063 -0.030531099 0.1739344 -0.17762148 -0.09786212 0.13918194 0.16808479 -0.16620466
0.059189208 -0.17970821 -0.1323168 0.082062 -0.09071673 -0.013771468
00000000: 28e7 033e 5eac 8bbd ac4e cbbd 9fb7 68bd
00000010: 96bd 35bd 5dfb 9d3d 7934 0bbd 0ead ac3d
00000020: 3993 14be 4b84 b93c 82a9 103e 09c6 9ebc
00000030: 7b27 163e 63b2 693d 68dc 32be e100 d7bd
00000040: d3c1 143e 5b1c fabc dc1b 323e 68e2 35be
00000050: ef6b c8bd b685 0e3e 6b1e 2c3e 8e31 2abe
00000060: 6270 723d 6e05 38be 0e7e 07be 1f10 a83d
00000070: b1c9 b9bd b9a1 61bc
