checkpoints/VQE-H2-d58f1c4e/model.pth (torch, 49921 bytes, 11 tensors)

recurs1.weight_ih f4 [120, 2]
0	0xbd9bb675	-0.0760316
1	0x3e9f8b46	0.31160945
2	0xbe6e24d5	-0.23256238
3	0xbd5c7b9d	-0.053828824
4	0xbde79d68	-0.1130932
5	0xbe0e04d5	-0.13869031
6	0xbd8f307c	-0.069916695
7	0x3da3af11	0.07992376
8	0xbda752b4	-0.08170071
9	0x3d876a83	0.066121124
10	0xbe3729e1	-0.1788707
11	0x3e207b1b	0.15671961
12	0xbe75ddc3	-0.24010377
13	0xbd3e2266	-0.046419524
14	0xbdb10594	-0.08643642
15	0x3ded598d	0.11589346
16	0xbc938aaa	-0.018010456
17	0x3e83c633	0.25737152
18	0xbe5a8ea3	-0.21343474
19	0xbe8be822	-0.2732554
20	0xbc22ffba	-0.009948665
21	0x3e2e701e	0.17034957
22	0xbd22ff40	-0.039794207
23	0x3e3b94fb	0.1831855
24	0xbe34b178	-0.17645824
25	0xbdbc36af	-0.091901176
26	0x3dc0e4f6	0.09418671
27	0xbd1be78e	-0.038062625
28	0xbe2fb2a5	-0.17157991
29	0x3dddf849	0.10838372
30	0xbdfc3188	-0.12314135
31	0x3d42bbc0	0.047542334
32	0xbe2f45f2	-0.17116526
33	0xbe4e9cfc	-0.20177072
34	0xbe384685	-0.17995651
35	0xbe67c4e1	-0.22633697
36	0xbe2a427a	-0.16626921
37	0x3e8b2e98	0.27183986
38	0xbc904fce	-0.017616179
39	0x3e3e1053	0.18560915
40	0xbd0ec844	-0.034858957
41	0xbdb1edd3	-0.086879395
42	0x3cd56db4	0.026053287
43	0xbe37f2fd	-0.17963786
44	0xbe13d10f	-0.14435218
45	0xbe9561c9	-0.29176167
46	0xbbbbe2ca	-0.0057338225
47	0xbdecbab2	-0.11559047
48	0xbdf7e008	-0.121032774
49	0x3cfeb75f	0.031093298
50	0x3cf67dcf	0.030089287
51	0x3eb8af87	0.36071417
52	0x3b2d10ea	0.0026407787
53	0x3df61356	0.12015407
54	0x3e0917c4	0.13387972
55	0xbe1a13d4	-0.15046626
56	0x3d0e581f	0.034752008
57	0xbdc19d6a	-0.094538525
58	0xbe50215d	-0.20325227
59	0xbdd98daf	-0.10622727
60	0x3d8d2508	0.06891829
61	0x3e927f9d	0.28612986
62	0xbdfe9783	-0.12431242
63	0x3e221bad	0.1583087
64	0x3db1ed9f	0.08687901
65	0xbe52cdfb	-0.20586388
66	0xbc3ecfbc	-0.011646207
67	0xbd6ba2c2	-0.057528265
68	0x3e11da6e	0.1424348
69	0x3e7113a5	0.2354265
70	0xbe590865	-0.21194609
71	0x3e139371	0.14411713
72	0x3d9cab55	0.076498665
73	0x3e45ad5b	0.19304411
74	0x3e40f158	0.18842065
75	0x3e9b38ec	0.30316865
76	0x3d2073e1	0.03917301
77	0x3cfe1bfb	0.031019202
78	0xbbad2492	-0.0052839005
79	0xbe8ffa3a	-0.28120595
80	0xbe312bd3	-0.17301874
81	0x3e448198	0.19190061
82	0x3e274ed6	0.16338667
83	0xbe0258a2	-0.12729123
84	0xbc996aab	-0.018727621
85	0xbe350bbd	-0.17680259
86	0xbd942f7f	-0.07235622
87	0x3d6ba0cf	0.057526406
88	0x3d49beba	0.049254157
89	0x3d9330ec	0.071870655
90	0x3dc7660a	0.09736259
91	0xbd04937d	-0.03236722
92	0x3e06d5a2	0.13167432
93	0xbd28bd3c	-0.041196093
94	0xbe20a497	-0.15687786
95	0xbe375684	-0.17904097
96	0x3ddda465	0.108223714
97	0x3e4053c0	0.18781948
98	0xbe491867	-0.19638215
99	0x3cc3fd1e	0.023924407
100	0x3e046651	0.12929656
101	0x3de05823	0.10954311
102	0xbcb34873	-0.021885132
103	0xbd178395	-0.03699072
104	0xbe088943	-0.13333611
105	0xbe4e1b96	-0.2012771
106	0xbe3531be	-0.17694756
107	0xbeb620df	-0.35571954
108	0xbd3689e9	-0.044565115
109	0x3dfaa614	0.12238708
110	0xbdfe37d1	-0.1241299
111	0x3e9b683a	0.30352956
112	0xbe141375	-0.14460547
113	0x3e9391ae	0.28822082
114	0x3e29ee3d	0.16594787
115	0xbe22870f	-0.15871833
116	0x3d351d91	0.04421765
117	0x3d4fa528	0.050694615
118	0x3dd8ae6b	0.105801426
119	0x3d2b59fb	0.04183386
120	0xbae275ae	-0.0017277503
121	0x3e65ad0b	0.22429292
122	0xbdad7323	-0.08469226
123	0x3e8fa6be	0.28056902
124	0xbe46acd3	-0.19401865
125	0xbe903eda	-0.28172952
126	0xbdbfffb5	-0.09374944
127	0xbe37dcbc	-0.17955297
128	0xbd53d8c9	-0.051720414
129	0xbec28244	-0.3799001
130	0xbdf5001d	-0.11962912
131	0x3e832cf5	0.25620237
132	0xbdaaeee6	-0.083463475
133	0xbe666633	-0.22499923
134	0x3e14dc97	0.14537273
135	0xbe6c6297	-0.23084484
136	0x3cd2c47b	0.025728455
137	0xbe771ac8	-0.2413131
138	0x3dbea8af	0.093095176
139	0x3ea13589	0.31486157
140	0x3e1319da	0.1436533
141	0x3e9bd4ff	0.3043594
142	0x3e1c4a5c	0.15262741
143	0x3e58efff	0.21185301
144	0xbe2c2a9a	-0.16813126
145	0xbe8033ba	-0.25039464
146	0x3e423e40	0.18969059
147	0xbdca6fbc	-0.09884593
148	0xbe1a3a93	-0.15061407
149	0xbcc503d9	-0.024049686
150	0xbe31730d	-0.17329045
151	0xbeb8ddf9	-0.36106852
152	0xbc340041	-0.010986389
153	0x3e9e3ce6	0.30905837
154	0x3d9579fa	0.07298656
155	0xbec256eb	-0.37956938
156	0x3df174c8	0.117898524
157	0xbead1a43	-0.338091
158	0x3cf0fce3	0.02941746
159	0xbe74b208	-0.23896039
160	0x3c502659	0.012704455
161	0xbd3114cf	-0.043232735
162	0xbe371fbe	-0.17883202
163	0xbec53fee	-0.38525337
164	0xbd4aa101	-0.04946995
165	0xbe4eee7a	-0.20208159
166	0xbd629d36	-0.05532571
167	0x3e9c5b3b	0.30538353
168	0xbe599ce1	-0.21251251
169	0x3c4cae7a	0.01249277
170	0x3e5fabe9	0.21842922
171	0xbe85c86c	-0.26129472
172	0x3da4d43d	0.08048294
173	0x3e0f2c35	0.13981707
174	0xbe086351	-0.13319136
175	0x3ea4a32f	0.3215575
176	0xbc9b1046	-0.018928658
177	0xbe9def7a	-0.3084677
178	0x3e1bd0cc	0.15216368
179	0xbec54818	-0.38531566
180	0xbd14315a	-0.036179878
181	0x3e5c74bb	0.21528904
182	0x3d80df5f	0.06292605
183	0x3e142615	0.14467652
184	0x3d454d83	0.048169624
185	0xbe144983	-0.14481167
186	0xbd9de69b	-0.0771
187	0xbe22d656	-0.15902075
188	0xbe60c8eb	-0.21951644
189	0x3e05a493	0.13051061
190	0x3da00bcf	0.07814752
191	0x3eb6adc4	0.35679448
192	0xbe41fa8c	-0.18943232
193	0x3da9532b	0.08267816
194	0xbe0e886e	-0.13919231
195	0x3d45e9c2	0.048318632
196	0xbe25462d	-0.16140051
197	0x3e930822	0.28717142
198	0xbe26d7df	-0.16293286
199	0xbe55923e	-0.20856568
200	0xbd3bca6e	-0.04584735
201	0x3e2b55ee	0.16731998
202	0xbe126241	-0.14295293
203	0xbd64973a	-0.055808283
204	0xbe620da9	-0.22075523
205	0xbd0aff1c	-0.033934698
206	0xbdc3a44e	-0.09552823
207	0x3ea54e09	0.322861
208	0x3d51db31	0.051234428
209	0x3e5d7f57	0.21630608
210	0xbcd568d6	-0.026050966
211	0xbe4058b2	-0.18783835
212	0xbbba3dcf	-0.0056836377
213	0xbe3d55f0	-0.18489814
214	0xbd8a20aa	-0.067445114
215	0xbd7ac2ff	-0.06122112
216	0xbe35553a	-0.17708293
217	0x3d9b3d13	0.07580008
218	0x3d7a5815	0.061119158
219	0x3c1dbf53	0.009628135
220	0xbd8e7c1b	-0.06957265
221	0x3e173d88	0.14769566
222	0x3da66ca6	0.08126192
223	0xbbcf3432	-0.006323361
224	0xbe3b3c1e	-0.18284652
225	0xbdf03410	-0.1172868
226	0xbe4cafce	-0.19988939
227	0xbe9434bf	-0.28946492
228	0xbdcd58dd	-0.10026715
229	0x3d7280cc	0.05920486
230	0xbd6520a4	-0.05593933
231	0x3eb6b6ab	0.3568624
232	0xbcbb5bf6	-0.022870999
233	0x3e9ff5df	0.31242272
234	0x3dfb5d0a	0.12273605
235	0xbe47826b	-0.19483344
236	0x3dcfb05c	0.1014106
237	0xbda696b6	-0.081342146
238	0xbe0ff5b8	-0.14058578
239	0x3cb2c368	0.021821693

recurs1.weight_hh f4 [120, 30]
0	0x3dfb5070	0.122712016
1	0x3e7468a3	0.2386804
2	0xbc73b1b1	-0.014873908
3	0x3d82894c	0.063738436
4	0x3c070ed1	0.008243279
5	0xbdca8fb9	-0.09890694
6	0x3d8140d1	0.06311191
7	0xbe573fc2	-0.21020415
8	0xbd5ae109	-0.053437266
9	0xbd30babe	-0.04314684
10	0x3c09b100	0.0084040165
11	0x3d938e48	0.07204872
12	0x3d18a4f7	0.037266698
13	0xbdfc511f	-0.1232016
14	0xbd5251e2	-0.05134762
15	0xbdc30ac9	-0.095235415
16	0xbe1c1037	-0.1524056
17	0xbba3e3ce	-0.0050015217
18	0xbe27decb	-0.16393583
19	0xbe4856ba	-0.19564334
20	0xbe40461a	-0.18776742
21	0x3d1f75f5	0.038930852
22	0x3e0740e6	0.1320835
23	0x3e2a4c2a	0.16630617
24	0x3e031f89	0.12804998
25	0xbe1202e0	-0.14258909
26	0x3d07df14	0.03317173
27	0x3d877ded	0.06615815
28	0x3dd180e1	0.1022966
29	0xbca721a0	-0.020401776
30	0xbbe62708	-0.007023696
31	0xbc81941f	-0.0158177
32	0xbd836c25	-0.06417111
33	0x3e100484	0.14064223
34	0xbe08a34b	-0.13343541
35	0xbda080a2	-0.07837035
36	0x3e131d72	0.14366701
37	0xbe3c8809	-0.18411268
38	0xbdcd7710	-0.10032475
39	0xbd327544	-0.043568864
40	0x3d377f8e	0.04479938
41	0xbdfdfcbc	-0.12401721
42	0xbdbcb2f2	-0.092138186
43	0x3d7184ec	0.058964655
44	0x3de79cc6	0.11309199
45	0x3e4bb036	0.19891438
46	0xbddf6045	-0.10907034
47	0x3d8ec671	0.069714434
48	0xbdf92ea1	-0.12167097
49	0xbdafb71c	-0.08579847
50	0xbe606a6f	-0.21915601
51	0x3d4fa92d	0.050698448
52	0x3deeef24	0.11666706
53	0xbd9aed98	-0.07564849
54	0x3d3f7f32	0.046752162
55	0xbe5036fe	-0.20333478
56	0x3e630077	0.22168146
57	0xbe292ed2	-0.16521767
58	0x3d60496b	0.054757517
59	0xbd948645	-0.072521724
60	0xbe22659b	-0.15859072
61	0xbe002d8a	-0.12517372
62	0xbc8c7099	-0.017143534
63	0x3dddd475	0.108315386
64	0x3e181825	0.1485296
65	0xbe65962b	-0.22420566
66	0x3ddaf773	0.106917284
67	0x3e399664	0.18123776
68	0x3e2a1db2	0.1661289
69	0xbdc134e1	-0.09433914
70	0xbe8a35da	-0.2699421
71	0xbdf5843d	-0.11988113
72	0x3e1eaf01	0.15496446
73	0xbd82af1e	-0.06381057
74	0x3db5e0a1	0.08880735
75	0x3e53525d	0.20636888
76	0xbe33be61	-0.17553093
77	0x3ddb71ed	0.10715089
78	0x3e3e129d	0.18561788
79	0x3d99311b	0.07480069
80	0xbcebbfe6	-0.028778028
81	0x3e03ae35	0.12859423
82	0xbd8cb754	-0.068709046
83	0xbd7ef014	-0.062240675
84	0x3e0f5074	0.13995534
85	0x3e85724a	0.26063758
86	0x3dad9d0a	0.084772184
87	0xbd82ff1a	-0.06396313
88	0x3e3d480c	0.18484515
89	0x3c2d33c4	0.010571424
90	0xbdc4435b	-0.095831595
91	0xbe1b5e44	-0.15172678
92	0x3e87b82b	0.26507697
93	0x3e5ef60d	0.21773548
94	0xbdfaacfc	-0.122400254
95	0x3de99bd3	0.11406674
96	0x3df6ce9a	0.12051125
97	0x3e21cf2b	0.15801685
98	0x3e054224	0.13013512
99	0x3d934790	0.07191384
100	0xbca27738	-0.019832239
101	0xbd8cf573	-0.06882753
102	0x3e8b6dc3	0.2723218
103	0x3b13aefb	0.0022534716
104	0xbbedf4db	-0.007261855
105	0x3e5edef0	0.21764731
106	0x3d063ba6	0.03277173
107	0x3e14fd20	0.14549685
108	0xbe0c5088	-0.13702595
109	0xbc3352c3	-0.010945025
110	0xbe2c18ad	-0.16806288
111	0x3e2f35d9	0.17110385
112	0x3d4ce472	0.05002255
113	0x3bc34fbd	0.0059604333
114	0x3e0df2b6	0.13862118
115	0x3cf627a1	0.030048193
116	0x3cce52f6	0.025186043
117	0x3d43c83a	0.047798373
118	0xbdc9c5a1	-0.09852148
119	0x3d7a9048	0.061172754
120	0xbc95e4b5	-0.018297533
121	0xbe02a9e1	-0.12760116
122	0xbddba942	-0.10725643
123	0x3e706d66	0.23479232
124	0x3d9195bd	0.071086384
125	0x3e920f63	0.28527364
126	0x3de82790	0.11335671
127	0xbe6dc9cb	-0.23221509
128	0xbe5c27fb	-0.21499626
129	0xbd8a1c75	-0.06743709
130	0xbdbb347c	-0.0914087
131	0x3e128a0a	0.1431047
132	0xbdaa2216	-0.083072826
133	0xbe57f49a	-0.21089402
134	0xbd5c34b5	-0.053761203
135	0xbe0301c3	-0.12793641
136	0x3e14d5b3	0.14534645
137	0x3e025ad4	0.1272996
138	0x3d0fe8ee	0.03513425
139	0x3d3c6a24	0.04599966
140	0x3d45cfc4	0.048293844
141	0xbd988501	-0.074472435
142	0x3d481ffc	0.048858628
143	0x3e0f7be2	0.14012101
144	0x3e3cd231	0.18439557
145	0x3d8b4217	0.06799715
146	0x3e594272	0.21216753
147	0x3e163f58	0.14672601
148	0xbde799e5	-0.1130865
149	0x3d72c0b7	0.05926582
150	0x3dc984f8	0.09839815
151	0x3da53c73	0.080681704
152	0xbd11083f	-0.035408255
153	0x3ab441c2	0.0013752508
154	0xbe42d3ee	-0.19026157
155	0x3e635489	0.22200216
156	0x3dc370ce	0.09543
157	0xbda9088d	-0.08253584
158	0xbe201f4a	-0.15636936
159	0x3dfd7c0e	0.12377177
160	0x3e6a29df	0.22867535
161	0x3d29c43d	0.041446913
162	0xbe19193c	-0.14951032
163	0x3d731712	0.059348173
164	0x3e222a09	0.15836348
165	0xbe34dd9e	-0.17662665
166	0x3e561168	0.20905077
167	0x3d3ff647	0.046865728
168	0xbe155b66	-0.14585647
169	0xbbac4d72	-0.0052582556
170	0xbe653057	-0.22381721
171	0xbd7749cd	-0.060373116
172	0x3e412301	0.18861009
173	0x3b9e6b0f	0.0048345397
174	0xbcfcba87	-0.030850662
175	0xbe2a34ca	-0.166217
176	0x3d7ba25e	0.061434142
177	0xbbd5de0a	-0.0065267133
178	0xbca13a78	-0.0196812
179	0x3dc6bbe2	0.097038046
180	0x3dc86af9	0.097860284
181	0xbd62a9c4	-0.055337682
182	0x3d92e5eb	0.071727596
183	0x3e0c3627	0.13692532
184	0x3d27495d	0.04084145
185	0xbd9566d2	-0.07295002
186	0xbd8447f8	-0.064590394
187	0xbe4f43ba	-0.2024068
188	0xbe1c225c	-0.15247482
189	0x3cb2885a	0.021793533
190	0xbda4e352	-0.080511704
191	0x3da96744	0.082716495
192	0x3df6f137	0.12057727
193	0xbda9fe6f	-0.083004825
194	0xbcaf6eb4	-0.021415092
195	0xbd7cf9b8	-0.061761588
196	0x3d1ec344	0.03876044
197	0xbe4c2758	-0.19936883
198	0xbb3e2478	-0.0029013436
199	0xbe6a1e71	-0.22863175
200	0xbe834998	-0.25642085
201	0xbe5b58d2	-0.21420601
202	0xbc737b72	-0.014860975
203	0x3dd6e3b8	0.10492653
204	0xbdb8c974	-0.09022799
205	0x3d57458e	0.052556567
206	0x3c40b65f	0.011762231
207	0x3d4fbb63	0.050715815
208	0xbd0e8490	-0.03479439
209	0xbe5e0ac2	-0.21683791
210	0x3e50358e	0.2033293
211	0x3e24570b	0.1604883
212	0x3e255355	0.1614507
213	0x3dc98c9b	0.098412715
214	0xbe3319a2	-0.17490247
215	0x3e515b78	0.20445049
216	0xbcdbc1bf	-0.026825784
217	0x3d18be85	0.03729107
218	0xbe4a9f84	-0.19787413
219	0xbce20826	-0.027591776
220	0xbe024dfc	-0.12725061
221	0xbd306e8d	-0.04307418
222	0xbc9b4470	-0.018953532
223	0xbe40cca3	-0.18828063
224	0x3dddd8c0	0.108323574
225	0x3d2462f0	0.040133417
226	0x3d9715d7	0.073772125
227	0xbe415bd8	-0.18882692
228	0xbe4e2033	-0.2012947
229	0xbdc61ba8	-0.09673244
230	0x3d5b345d	0.053516734
231	0x3e028573	0.1274622
232	0x3d3bbc8c	0.04583411
233	0x3d16764f	0.03673392
234	0x3dcc0c53	0.09963288
235	0xbe6ccb50	-0.23124433
236	0xbde7aa8e	-0.113118276
237	0x3dfe44d5	0.124154724
238	0xbe264ec9	-0.16240992
239	0x3ccd8913	0.025089776
240	0xbd70bdc6	-0.058774732
241	0x3c17c66b	0.009263615
242	0xbdae6ebc	-0.08517215
243	0x3e408edd	0.18804498
244	0xbdb2217f	-0.08697795
245	0x3e662cc2	0.22478011
246	0x3d6eecd3	0.058331322
247	0x3d3b1e70	0.045683324
248	0xbd81075e	-0.06300233
249	0xbd9ab5f9	-0.0755424
250	0x3d2923f3	0.04129405
251	0x3d1d9e22	0.038480885
252	0x3d9e31bb	0.07724329
253	0xbe5dbff4	-0.21655256
254	0x3e6d9573	0.23201542
255	0xbd2cfe97	-0.042234983

recurs1.bias_ih f4 [120]
0	0xbd9bd927	-0.07609778
1	0xbd2b0065	-0.041748423
2	0x3d47418c	0.048646495
3	0x3e9072cc	0.28212583
4	0x3e4e7423	0.2016149
5	0x3e287975	0.16452582
6	0x3d95a9ca	0.07307775
7	0x3e701e00	0.23448944
8	0x3e02f895	0.12790139
9	0x3e39eeff	0.18157576
10	0x3e0b2acb	0.13590543
11	0x3dac394e	0.084093675
12	0x3e63ac0b	0.22233598
13	0x3e75ecc2	0.24016097
14	0x3e3ff92e	0.18747398
15	0x3e1d0beb	0.15336578
16	0x3e36bb62	0.17844918
17	0x3d922ebb	0.071378194
18	0x3e4c5796	0.19955286
19	0x3e2d20bd	0.1690702
20	0x3e656d27	0.2240492
21	0x3d909531	0.07059706
22	0xbda03ccb	-0.07824095
23	0x3e475197	0.19464718
24	0x3e33d5b7	0.17561994
25	0x3e73d0a5	0.2381006
26	0x3e2d95e7	0.16951714
27	0x3dfbfea0	0.12304425
28	0x3e66dfd6	0.22546324
29	0x3de9fae4	0.11424807
30	0x3e45f3cd	0.19331284
31	0x3e143d1f	0.14476441
32	0x3e2b4f78	0.16729534
33	0x3e6203b2	0.22071722
34	0xbdeadfea	-0.114684895
35	0x3e2d94f2	0.1695135
36	0x3e3f1009	0.1865846
37	0xbdef79cc	-0.11693153
38	0x3bb15553	0.005411783
39	0xbd9614c0	-0.073281765
40	0xbc21aa6e	-0.009867294
41	0x3d29ed0b	0.041485827
42	0x3e2b17ef	0.16708349
43	0x3d27af39	0.04093859
44	0xbde2256b	-0.11042293
45	0x3de6e6eb	0.11274513
46	0x3e07d6f8	0.13265598
47	0xba3f7f44	-0.0007305036
48	0x3e361efb	0.17785256
49	0x3e667c31	0.22508313
50	0x3d3aa533	0.045567703
51	0x3c572b58	0.013132893
52	0x3d6d465c	0.057928428
53	0x3cb3e305	0.021958837
54	0x3d59fc38	0.05321905
55	0xbce3e171	-0.02781746
56	0xbd00418e	-0.031312518
57	0x3dad854a	0.084726885
58	0xbd94592c	-0.07243571
59	0xbdb30792	-0.08741678
60	0x3e6690f4	0.22516233
61	0x3c6aa28a	0.014320979
62	0x3e4fbdbe	0.20287225
63	0x3e9a9fd2	0.30200058
64	0xbccdc0cb	-0.025116345
65	0x3db64c16	0.08901231
66	0x3e22de1b	0.15905039
67	0xbe03caa7	-0.12870274
68	0xbd8b24a1	-0.06794096
69	0xbd83202c	-0.06402621
70	0xbc41fe56	-0.011840424
71	0x3d4941df	0.049135085
72	0x3de8c388	0.113654196
73	0xbe463cfa	-0.19359198
74	0x3e04d6e8	0.12972605
75	0x3e3fda0f	0.18735527
76	0xbe163f15	-0.14672501
77	0xbdc0649d	-0.093941905
78	0xbe022e23	-0.12712912
79	0x3d08454d	0.033269215
80	0xbe837ee5	-0.2568275
81	0xbd723ffc	-0.05914305
82	0x3e70d951	0.235204
83	0xbe2e4a94	-0.17020637
84	0x3e8369dc	0.25666702
85	0xbe09ad5e	-0.1344504
86	0x3e118058	0.14209116
87	0xbcaf62f1	-0.021409484
88	0x3c037910	0.008024469
89	0x3df15933	0.117845915
90	0x3e75a70e	0.23989508
91	0xbbc07617	-0.0058734524
92	0x3e434be2	0.19071916
93	0x3e2c9094	0.16852027
94	0x3e18ba28	0.14914763
95	0xbd2ed017	-0.04267892
96	0x3e25e104	0.16199118
97	0x3e429a84	0.19004256
98	0xbd76a05b	-0.06021152
99	0xbd9a748c	-0.07541761
100	0xbd7577fb	-0.059928875
101	0x3dd06a01	0.10176469
102	0x3dc262d5	0.09491507
103	0x3cc5ef88	0.024162069
104	0x3e670b61	0.22562934
105	0x3d4cedc1	0.050031427
106	0xbd20d05a	-0.0392612
107	0x3e133faf	0.14379762
108	0xbcfeb7d3	-0.031093514
109	0x3d82438e	0.06360541
110	0x3e4b1c60	0.19835043
111	0x3dfc6afb	0.123250924
112	0xbd67ea3d	-0.05661987
113	0x3e929a3d	0.286333
114	0x3e708a8f	0.23490356
115	0xbd52db76	-0.051478826
116	0x3e287e75	0.1645449
117	0x3df854d9	0.121255584
118	0xbd6a0272	-0.05713124
119	0x3d01f47d	0.031727303

recurs1.bias_hh f4 [120]
0	0xbd84b2f2	-0.064794436
1	0x3e4b3d19	0.19847526
2	0x3df4fe7c	0.119626015
3	0x3e6149cc	0.22000808
4	0x3d890222	0.0668986
5	0x3e88e5f5	0.26737943
6	0x3e1440a5	0.14477785
7	0xbd9e71c4	-0.07736543
8	0x3da43f34	0.080198675
9	0x3e5a37c8	0.21310341
10	0x3e314dda	0.17314854
11	0x3ce2b29c	0.027673058
12	0x3d0ad74f	0.03389674
13	0xbc5d757a	-0.013516778
14	0x3e759d9a	0.23985901
15	0x3cd0333c	0.025415055
16	0x3e7078cb	0.23483579
17	0x3d8579ae	0.06517349
18	0x3d9cd6d5	0.076581635
19	0xbd75a3c0	-0.059970617
20	0x3cdc7e60	0.026915729
21	0x3e818a7a	0.25300962
22	0xbdbea540	-0.09308863
23	0x3e803a4d	0.2504448
24	0xbd562b9a	-0.052287675
25	0x3df0099b	0.11720582
26	0xbd88c193	-0.06677546
27	0xbdb6288c	-0.088944525
28	0xbd89abb1	-0.06722201
29	0x3de8d332	0.11368407
30	0x3d695b34	0.056971744
31	0xbda95df0	-0.0826987
32	0x3dbbab0a	0.091634825
33	0x3e4d47ee	0.2004697
34	0x3e3bb5ab	0.1833102
35	0x3e71be63	0.23607783
36	0x3e0c0887	0.13675128
37	0xbd2dcbea	-0.042430796
38	0x3b8abb6d	0.0042337687
39	0x3e4c78bd	0.19967933
40	0x3e000b0c	0.12504214
41	0xbd0bd681	-0.034140114
42	0x3e543d98	0.20726621
43	0xbd866039	-0.06561322
44	0x3e5ff829	0.2187201
45	0x3dee358d	0.11631308
46	0xbdd458ae	-0.10368477
47	0xbdeead97	-0.116542034
48	0x3e2846d5	0.1643327
49	0x3e8765e4	0.26444924
50	0x3dd05d2c	0.10174021
51	0xbd85a4be	-0.06525563
52	0x3e04d76e	0.12972805
53	0x3e0f772c	0.14010304
54	0x3d9a7225	0.075413026
55	0x3e4d9645	0.20076855
56	0x3e436f7f	0.19085501
57	0x3d200046	0.03906276
58	0x3d9cd3bd	0.07657573
59	0xbe2ef220	-0.17084551
60	0xbcad8e08	-0.02118589
61	0x3ba88d5f	0.005143806
62	0x3df7610d	0.12079058
63	0x3de2a2dd	0.1106622
64	0x3d8e6b4d	0.0695406
65	0x3df06d79	0.1173963
66	0xbe374086	-0.17895707
67	0x3d5f3d70	0.05450195
68	0xbce5bd84	-0.02804447
69	0xbe5cd1c0	-0.21564388
70	0x3bdbca68	0.0067074783
71	0xbd35c2df	-0.044375297
72	0xbda26964	-0.07930258
73	0xbe91d751	-0.28484586
74	0x3e895761	0.26824477
75	0xbdb5a7c8	-0.08869892
76	0xbc9ac5e2	-0.018893186
77	0x3e345a99	0.17612685
78	0xbc25b43a	-0.01011377
79	0xbe483871	-0.1955278
80	0xbe8830cf	-0.26599738
81	0x3d75abcc	0.05997829
82	0x3ca62ddb	0.020285537
83	0xbd4252b2	-0.047442146
84	0x3e2a826a	0.16651312
85	0xbdce8192	-0.10083307
86	0x3e72b0ae	0.2370021
87	0xbd8d731a	-0.069067195
88	0xbd773c4a	-0.06036023
89	0xbdeec530	-0.11658704
90	0x3e0f96e8	0.1402241
91	0xbb9bec82	-0.0047584185
92	0x3e01beb2	0.126704
93	0x3dc6089c	0.09669611
94	0x3e8e593c	0.27802455
95	0xbb945a74	-0.0045273844
96	0x3c929355	0.017892519
97	0x3d0af855	0.033928234
98	0xbc75fd06	-0.015013939
99	0x3e26b655	0.16280492
100	0x3d57c6f9	0.05267999
101	0x3e09b657	0.13448463
102	0x3e81b540	0.25333595
103	0x3e3ffc63	0.18748622
104	0x3cb518f7	0.02210663
105	0x3e48f270	0.19623733
106	0xbca3cecf	-0.019996075
107	0xbd5f5de0	-0.054532886
108	0x3d53ec1b	0.05173884
109	0xbc7a5855	-0.015279849
110	0xbd21f062	-0.039535888
111	0x3e02958c	0.1275236
112	0x3e661298	0.2246803
113	0x3d2691ec	0.040666506
114	0x3dcef4b6	0.10105269
115	0xbd72df0d	-0.05929475
116	0x3def7827	0.11692839
117	0x3dc948f0	0.09828365
118	0x3d3bcbf0	0.045848787
119	0x3e990f88	0.29894662

recurs2.weight_ih f4 [120, 30]
0	0xbcd1b0db	-0.025597027
1	0x3d8ddbf0	0.069267154
2	0x3b2b6e59	0.0026158302
3	0x3e99770b	0.29973635
4	0x3dcf0462	0.10108258
5	0x3ea07f61	0.31347182
6	0x3dcfdbec	0.10149369
7	0x3b53776d	0.0032267228
8	0xbe582f53	-0.21111803
9	0xbe3b4ef9	-0.18291844
10	0x3e066270	0.13123488
11	0xbe17db5c	-0.14829773
12	0x3e2efd8d	0.1708891
13	0xbdad78c4	-0.084703
14	0x3e34aa6c	0.17643136
15	0xbe04c9ba	-0.12967578
16	0x3dd0df65	0.10198859
17	0xbc3ad88f	-0.011404171
18	0xbe0dac78	-0.13835323
19	0xbdad9686	-0.08475976
20	0xbe0eac2c	-0.13932866
21	0xbdc0e1bd	-0.09418056
22	0x3de93a50	0.11388075
23	0xbe362981	-0.1778927
24	0x3ead45c7	0.33842298
25	0x3c962dc3	0.018332368
26	0x3e88c193	0.26710185
27	0x3d950c52	0.072777405
28	0xbe3e1b9c	-0.1856522
29	0xbdf8ab40	-0.12142038
30	0xbe037f52	-0.12841538
31	0xbdebd553	-0.11515298
32	0xbd21a6a1	-0.03946555
33	0x3e8a3fba	0.27001745
34	0x3e0bb234	0.13642198
35	0x3e1c854d	0.15285225
36	0xbd4d8c1e	-0.050182454
37	0x3e0a162d	0.13485022
38	0xbd1acd5b	-0.0377935
39	0xbe33a9ca	-0.17545238
40	0x3d9ad1c9	0.075595446
41	0x3d970216	0.07373445
42	0x3b377dc1	0.002799854
43	0x3d803fae	0.06262146
44	0x3db104e0	0.08643508
45	0x3e0489a2	0.12943128
46	0xbe8c4e83	-0.2740365
47	0x3da01ce0	0.078180075
48	0xbdb85aa0	-0.0900166
49	0xbe3e1d4b	-0.18565862
50	0xbe506e4a	-0.20354572
51	0x3d78998f	0.06069332
52	0x3d471ee0	0.04861343
53	0xbe5eddc7	-0.21764289
54	0x3e7e5446	0.24836835
55	0x3c0f9496	0.008763453
56	0xbd9bc522	-0.076059595
57	0xbd334498	-0.043766588
58	0x3dd84bcd	0.10561333
59	0x3d61021c	0.054933652
60	0x3dbf6253	0.09344926
61	0xbd17b019	-0.037033174
62	0x3e4a9ee1	0.1978717
63	0x3cc967a6	0.024585556
64	0xbce4dab4	-0.027936317
65	0x3e416c36	0.18888935
66	0xbdb4c912	-0.088274136
67	0x3d9d3786	0.07676606
68	0x3e187236	0.14887318
69	0xbe9507a1	-0.29107383
70	0xbdeb4a91	-0.11488832
71	0x3def86a8	0.116956055
72	0x3e1e1cda	0.15440693
73	0xbdb0b0ef	-0.086274974
74	0x3e1793f0	0.14802527
75	0x3e330c7a	0.17485228
76	0xbe3f882c	-0.18704289
77	0x3dd80452	0.10547699
78	0x3dffa11d	0.12481902
79	0xbdc1fb3e	-0.09471749
80	0xbea0cc70	-0.31405973
81	0x3e051e58	0.12999856
82	0x3d2c03b7	0.04199573
83	0xbe1d70a6	-0.15375003
84	0x3e6154a6	0.22004947
85	0xbc8331a2	-0.016014878
86	0x3a28ab63	0.000643423
87	0xbe2a4224	-0.16626793
88	0x3d1028f8	0.03519532
89	0x3ca3522a	0.01993664
90	0x3d5a8ab4	0.053354934
91	0xbdf584e1	-0.11988235
92	0x3e98bfda	0.2983387
93	0x3e94cfe2	0.29064852
94	0x3d5ddc83	0.054165374
95	0x3e16d298	0.14728773
96	0x3cca5a93	0.024701392
97	0x3de20126	0.11035375
98	0xbba0329b	-0.004888845
99	0xbe030f0d	-0.1279871
100	0xbdd7e614	-0.10541931
101	0x3cfd6bb8	0.030935153
102	0xbc5158e6	-0.012777543
103	0xbdc6716a	-0.09689601
104	0xbc8abbc5	-0.016935239
105	0x3c4b45f2	0.012406813
106	0xbb845df9	-0.0040395227
107	0xbd6183c2	-0.055057295
108	0x3db5a150	0.088686585
109	0xbe6a1727	-0.22860394
110	0xbc94add2	-0.01814929
111	0x3dc0d6a6	0.09415941
112	0x3d6eb28d	0.058275748
113	0xbcfc1c23	-0.030775135
114	0xbbc9b467	-0.006155539
115	0xbe6c04b3	-0.23048668
116	0x3d1651b8	0.036699027
117	0xbd371053	-0.044693302
118	0x3d45e35a	0.048312522
119	0xbe04c457	-0.12965523
120	0x3e906f8a	0.28210098
121	0x3da816ef	0.08207499
122	0x3c93a66a	0.018023688
123	0x3e1d2727	0.15346967
124	0xbe1c7ee6	-0.15282783
125	0x3e2704ad	0.16310377
126	0xbbda3028	-0.0066585727
127	0xbe06011d	-0.13086362
128	0xbd97e633	-0.07416954
129	0x3ce68eb3	0.028144216
130	0xbd024519	-0.031804178
131	0x3c423ccf	0.011855318
132	0xbb253471	-0.002520826
133	0xbe81d27b	-0.25355896
134	0x3df9bc56	0.12194125
135	0x3d049940	0.032372713
136	0xbe3648b8	-0.17801178
137	0x3ce09528	0.027414873
138	0x3dd1243b	0.102119885
139	0xbd1f6490	-0.038914263
140	0xbe81ac65	-0.2532684
141	0x3de54a78	0.111958444
142	0xbd50b6f1	-0.050955717
143	0xbe27b808	-0.16378796
144	0x3e597393	0.21235494
145	0x3d001f3f	0.0312798
146	0x3e9e1154	0.30872595
147	0x3e1dac77	0.15397821
148	0xbe12a041	-0.14318945
149	0xbc9837e2	-0.018581335
150	0xbcdeefc4	-0.027213939
151	0x3c20c209	0.009811887
152	0x3e96cf29	0.29454926
153	0x3e872c85	0.26401153
154	0xbe293cc8	-0.16527092
155	0x3c541094	0.012943406
156	0xbe13921b	-0.14411204
157	0x3d6c3029	0.057663117
158	0xbd914915	-0.070940174
159	0xbe83f1c3	-0.25770387
160	0xbd5bb35e	-0.053637855
161	0x3d130b20	0.03589928
162	0x3de0014f	0.109377496
163	0x3d3b10c7	0.045670297
164	0x3ded0927	0.11574011
165	0x3e0425d8	0.12905061
166	0xbe0b28d2	-0.1358979
167	0x3d376647	0.044775274
168	0xbd713229	-0.058885727
169	0x3d887b1d	0.06664107
170	0xbd93e32e	-0.072210655
171	0xbdaf4319	-0.0855772
172	0xbd34017d	-0.04394673
173	0xbe8f316b	-0.2796739
174	0x3d611ee6	0.054961108
175	0xbd9ecc18	-0.077537715
176	0x3e973e36	0.2953965
177	0xbd90915c	-0.07058975
178	0x3db89769	0.09013254
179	0x3dd09439	0.10184521
180	0xbd87ed8f	-0.066371076
181	0xbdaffe5c	-0.08593437
182	0x3deb5d16	0.11492364
183	0x3e3bc31f	0.18336152
184	0xbe2313e7	-0.15925561
185	0x3dfb551a	0.12272091
186	0xbe6aeb6f	-0.22941373
187	0xbd637a41	-0.055536512
188	0xbc7960be	-0.015220819
189	0x3c162042	0.009162964
190	0x3d1e67b6	0.038673125
191	0x3dfb0545	0.122568645
192	0xbd447ec9	-0.047972474
193	0x3d0f2694	0.0349489
194	0xbda21dea	-0.07915862
195	0xbdffeb65	-0.1249607
196	0xbe031c3c	-0.1280374
197	0xbe613692	-0.21993473
198	0x3dbcd5d0	0.09220469
199	0xbe2570e9	-0.16156353
200	0xbe821f18	-0.25414348
201	0xbc82c6f4	-0.015964009
202	0xbde36666	-0.11103515
203	0x3c9de635	0.01927481
204	0x3e3d0427	0.18458615
205	0xbe0b1bac	-0.13584775
206	0x3e59ec22	0.21281484
207	0x3d85df39	0.06536717
208	0xbe4452be	-0.19172189
209	0xbd1f3cff	-0.03887653
210	0x3e4a67c3	0.19766144
211	0x3c31c8d8	0.010851108
212	0x3e03a5d9	0.12856235
213	0x3e3647b8	0.17800796
214	0xbd03f2ea	-0.032214083
215	0x3e0e9977	0.1392573
216	0xbe66116a	-0.2246758
217	0x3db44b2c	0.088034004
218	0x3cf50258	0.029908344
219	0xbd271cfd	-0.04079913
220	0x3db95b51	0.0905062
221	0xbdeff470	-0.11716545
222	0x3c34ce18	0.011035465
223	0xbdf87dba	-0.121333554
224	0x3e00fa7e	0.12595555
225	0xbd8ae508	-0.067819655
226	0xbc94009c	-0.018066697
227	0xbd46e3f9	-0.048557255
228	0x3db464d9	0.08808298
229	0xbe9d7815	-0.30755678
230	0xbe0d0ebc	-0.13775152
231	0x3dcd77e2	0.100326315
232	0xbd8509ce	-0.06496011
233	0xbd8b1a02	-0.0679207
234	0x3e50522d	0.20343848
235	0xbca558a5	-0.02018387
236	0x3e2fcf2a	0.1716887
237	0x3d5ee263	0.054415118
238	0xbe0eb2b6	-0.1393536
239	0x3dfa2c42	0.12215473
240	0x3da75324	0.08170155
241	0x3e349a69	0.17637028
242	0x3e060722	0.13088658
243	0x3e0276de	0.12740657
244	0x3ca01794	0.019542493
245	0x3e8be280	0.27321243
246	0x3dde3985	0.10850815
247	0xbe658c70	-0.22416854
248	0xbd7c6bf7	-0.0616264
249	0xbe3da02d	-0.18518133
250	0x3e25d3df	0.16194104
251	0x3e3689b9	0.17825975
252	0xbcfa2353	-0.030534422
253	0xbe01cb76	-0.1267527
254	0x3e567125	0.20941599
255	0x3e0c9aaa	0.13730875

recurs2.weight_hh f4 [120, 30]
0	0x3d4edc0c	0.05050282
1	0x3dcf881c	0.10133383
2	0x3e5e5065	0.21710356
3	0xbe091a1b	-0.13388865
4	0x3d800d04	0.062524825
5	0xbda6e0e2	-0.08148362
6	0x3e279418	0.16365087
7	0xbdbe76e8	-0.09300023
8	0x3ca7de8b	0.020491859
9	0x3d1ae781	0.037818436
10	0xbd4590b2	-0.048233695
11	0x3d31b096	0.043381296
12	0xbd91009d	-0.07080195
13	0x3cd90d94	0.026495732
14	0xbbf8f5f6	-0.00759768
15	0x3ceb7d4c	0.02874627
16	0x3e049905	0.12948997
17	0x3ddb4457	0.10706394
18	0xbded6e1a	-0.11593266
19	0xbe249e0d	-0.16075917
20	0xbc8afa01	-0.016964914
21	0x3cc81d61	0.024428071
22	0xbd940094	-0.07226673
23	0xbcc45d83	-0.023970371
24	0x3adc5595	0.0016810173
25	0xbd273a79	-0.04082725
26	0xbd390f7d	-0.045180786
27	0xbda3d53a	-0.07999654
28	0xbe183c50	-0.14866757
29	0x3e1129db	0.14176123
30	0xbcc6d95c	-0.024273567
31	0xbdc9adc6	-0.09847598
32	0xbe208ff1	-0.1567991
33	0x3d8b6478	0.06806272
34	0xbd3d3501	-0.046193127
35	0x3d49ae72	0.04923863
36	0x3ce1912e	0.027535047
37	0xbd7947c6	-0.060859464
38	0xbdb1e3b7	-0.08686011
39	0x3d5fba49	0.054621015
40	0xbe7e5919	-0.24838676
41	0xbda3f248	-0.08005196
42	0xbd8976a3	-0.06712081
43	0xbd0cd836	-0.034385882
44	0x3e25d9bf	0.16196345
45	0x3e2b9e09	0.16759504
46	0x3e487e31	0.19579388
47	0xbdc5ae1d	-0.0965235
48	0xbdeaa1b0	-0.11456621
49	0x3d2eff0a	0.042723693
50	0x3e4fb229	0.20282806
51	0xbd3b3372	-0.04570336
52	0xbdf15c74	-0.11785212
53	0xbe0f84c8	-0.14015496
54	0xbda3630e	-0.079778776
55	0xbe038a35	-0.1284569
56	0xbe2152b6	-0.15754208
57	0xbb53002d	-0.003219615
58	0xba7ff42d	-0.0009763863
59	0x3dc73107	0.09726148
60	0xbe23453c	-0.1594438
61	0xbd9b7726	-0.07591085
62	0x3e300f07	0.17193232
63	0xbd1a1bba	-0.0376241
64	0x3e25ef76	0.16204628
65	0xbdeb6571	-0.11493958
66	0x3c9ff380	0.01952529
67	0x3c3041d9	0.010757887
68	0xbd1f0d98	-0.038831323
69	0xbe8ef67f	-0.27922437
70	0x3da45698	0.08024329
71	0xbd7ebfb2	-0.062194534
72	0xbc825ca6	-0.015913319
73	0x3d2e719a	0.042588808
74	0x3e463f5d	0.19360109
75	0x3d31bdcd	0.0433939
76	0x3dd116dd	0.10209439
77	0xbc3e9e18	-0.011634372
78	0x3dcaa4da	0.09894724
79	0x3da8a331	0.08234251
80	0x3e1aab30	0.15104365
81	0x3d176665	0.036962885
82	0xbe4f6e6a	-0.20256963
83	0x3d169e59	0.036772106
84	0xbe37d80a	-0.17953506
85	0xbe8f3643	-0.27971086
86	0xbb49cbbe	-0.0030791606
87	0x3cf72b7c	0.030172102
88	0xbdec3c0d	-0.11534891
89	0x3e4fa176	0.20276436
90	0xbda249d9	-0.079242416
91	0x3c753ef4	0.0149686225
92	0x3e62e83a	0.221589
93	0x3dcde53f	0.10053491
94	0xbd67e345	-0.056613225
95	0xbc869535	-0.01642857
96	0xbd1f7fe3	-0.03894032
97	0xbe47b312	-0.19501904
98	0xbd97cf10	-0.07412541
99	0xbd9831dc	-0.07431385
100	0xbe61f02d	-0.22064276
101	0xbdb17660	-0.08665156
102	0xbe7ac2ea	-0.24488416
103	0xbc9b6f72	-0.01897404
104	0x3e0f6794	0.14004356
105	0x3bbe5018	0.0058078878
106	0x3e0a1feb	0.13488738
107	0x3e167d06	0.1469613
108	0x3d679a63	0.05654372
109	0x3c326e05	0.0108904885
110	0x3c6dd6f0	0.014516577
111	0x3df113ca	0.117713526
112	0xbe5c8287	-0.21534167
113	0xbdef9255	-0.116978325
114	0x3da917e8	0.08256513
115	0xbdaaaef5	-0.08334152
116	0xbc17758c	-0.009244334
117	0x3e67dc31	0.2264259
118	0x3df02fca	0.11727865
119	0x3df3fbb9	0.11913247
120	0x3e05b9cc	0.13059157
121	0x3e4d72ca	0.2006332
122	0xbcae2376	-0.021257143
123	0x3d928103	0.07153513
124	0x3dc5c0f2	0.09655942
125	0x3dc32863	0.095291875
126	0x3e5386a9	0.20656838
127	0xbe038874	-0.12845021
128	0x3d6fd05b	0.058548313
129	0x3e07fb9a	0.13279572
130	0xbe719953	-0.23593645
131	0xbdbb215a	-0.09137221
132	0x3ce34d41	0.027746798
133	0x3df566dd	0.1198251
134	0x3e915c1a	0.2839058
135	0x3a4719c6	0.0007595088
136	0x3e2f7a34	0.1713646
137	0xbe22ef1b	-0.15911524
138	0xbe06258e	-0.13100263
139	0xbd11f5a4	-0.03563465
140	0xbc1c97e7	-0.009557701
141	0x3df7c16a	0.12097438
142	0xbd598867	-0.0531086
143	0x3e25accf	0.16179202
144	0xbda171be	-0.07883023
145	0x3c8e21d7	0.01735012
146	0xbd861eef	-0.06548869
147	0x3e41fd91	0.18944384
148	0x3ce9224c	0.028458737
149	0x3e71987e	0.23593327
150	0xbe52ec06	-0.20597848
151	0xbd39891d	-0.045296777
152	0x3e3e9fd0	0.18615651
153	0x3e217465	0.15767057
154	0xbca97edd	-0.020690376
155	0x3e356d9b	0.17717592
156	0x3e1d52f3	0.15363674
157	0xbe374e0d	-0.17900868
158	0x3b9e8ea7	0.004838783
159	0x3daf0f2b	0.08547815
160	0xbe2bed49	-0.16789736
161	0x3e02d2e6	0.12775764
162	0xbe0a1ff5	-0.13488753
163	0xbdd2c582	-0.10291578
164	0xbc407645	-0.011746948
165	0xbd0abbaf	-0.033870395
166	0x3e5bd892	0.21469334
167	0x3de08700	0.10963249
168	0x3d974b5f	0.07387423
169	0x3d69ca89	0.05707792
170	0x3de16d09	0.11007125
171	0x3c4563bd	0.012047705
172	0xbe5ce6f8	-0.21572483
173	0xbe0e2a61	-0.13883354
174	0xbdcac69c	-0.09901163
175	0x3da2371e	0.07920669
176	0xbdeebf57	-0.11657589
177	0x3d109bdd	0.035304893
178	0x3d4e8b76	0.05042597
179	0x3e8f726d	0.28016987
180	0xbd170c4a	-0.036876954
181	0x3e0c86d9	0.13723315
182	0xbdad87a1	-0.08473135
183	0xbe45129f	-0.19245385
184	0xbd50857d	-0.050908554
185	0x3d839697	0.06425207
186	0x3e00d70e	0.12582037
187	0x3dc2250d	0.09479723
188	0x3e4200ff	0.18945692
189	0xbdd8c3e8	-0.10584241
190	0xbcc33566	-0.023829173
191	0x3e2e3852	0.17013672
192	0xbe074538	-0.13209999
193	0x3e016b52	0.12638596
194	0xbdc32386	-0.0952826
195	0x3dcd189b	0.10014459
196	0x3e0b2667	0.13588868
197	0x3e238464	0.15968472
198	0x39cf8caa	0.0003958692
199	0xbd337380	-0.04381132
200	0xbd1ba6e9	-0.038000975
201	0x3e7fa900	0.24966812
202	0xbd00e141	-0.03146482
203	0xbd99750c	-0.07493028
204	0xbc0af3b2	-0.008480953
205	0x3d8ef421	0.06980158
206	0xbdcfbad6	-0.10143058
207	0xbe16493c	-0.14676374
208	0xbd865a53	-0.06560197
209	0x3deea8a7	0.11653262
210	0xb9e50ec3	-0.00043689282
211	0x3d2fb41f	0.042896386
212	0x3e0447f7	0.12918077
213	0x3cc98f69	0.024604516
214	0x3e1b8211	0.15186335
215	0xbd9b8501	-0.07593728
216	0x3e502876	0.20327935
217	0x3a4f474c	0.00079070474
218	0x3e22a201	0.15882112
219	0x3cf0083c	0.029300801
220	0xbe7c836e	-0.24659511
221	0x3dfd358e	0.1236373
222	0xbe18025c	-0.1484465
223	0xbde58019	-0.11206073
224	0x3e4a7323	0.19770484
225	0x3d869415	0.06571213
226	0xbd22ea6f	-0.039774355
227	0xbdcf5a90	-0.10124695
228	0x3e11f383	0.14253049
229	0xbe6422be	-0.22278878
230	0x3e0b57e4	0.13607746
231	0x3e010b18	0.12601888
232	0xbe0881df	-0.13330792
233	0x3d74e2b0	0.0597865
234	0xbe416140	-0.18884754
235	0xbd5733ea	-0.052539743
236	0xbdfa8608	-0.12232596
237	0x3de46270	0.11151588
238	0xbce94084	-0.028473146
239	0xbd4cac32	-0.049968906
240	0xbd75eb8a	-0.06003908
241	0x3e4ccd6c	0.20000237
242	0xbce05064	-0.027382083
243	0x3e28e6da	0.16494313
244	0x3e0ed115	0.13946946
245	0xbca693c6	-0.020334136
246	0x3d34f80f	0.04418188
247	0x3df9399d	0.12169192
248	0x3bda488b	0.00666148
249	0xbd14c33f	-0.036319014
250	0xbd89e73b	-0.06733557
251	0x3cde0f8b	0.02710702
252	0xbe5b8c3e	-0.21440217
253	0xbda6c8c3	-0.08143761
254	0x3e8407ca	0.25787193
255	0x3de7514c	0.11294803

recurs2.bias_ih f4 [120]
0	0x3ea71ade	0.32637686
1	0x3e956ee2	0.2918616
2	0x3d499dfb	0.049222928
3	0x3e35dae6	0.17759284
4	0x3d174341	0.036929373
5	0x3da50d64	0.08059195
6	0x3dde76f0	0.10862529
7	0x3ea56b10	0.32308245
8	0x3e0c0b4c	0.13676184
9	0x3e7867b7	0.24258314
10	0xbb03ee9e	-0.002013124
11	0x3e1880d3	0.14892893
12	0x3e4d079d	0.20022435
13	0x3d7027a2	0.058631547
14	0x3e29c38a	0.16578498
15	0x3e1fd726	0.15609416
16	0x3e9463f9	0.28982523
17	0x3e0ab8bc	0.13547033
18	0x3e00bba6	0.12571582
19	0x3e7caa25	0.2467428
20	0x3d9ace1d	0.07558844
21	0x3e8db96b	0.27680525
22	0x3e8ea2e1	0.27858642
23	0x3cdf15a6	0.027232002
24	0x3e422be5	0.18962057
25	0x3d8bba6f	0.06822669
26	0x3e9e33e4	0.30898964
27	0x3dfea3f3	0.124336146
28	0x3e0483ba	0.12940875
29	0x3e994977	0.29938862
30	0x3e0e754a	0.1391193
31	0x3e41e2ea	0.18934217
32	0x3a72424e	0.00092414476
33	0xbcc22201	-0.023697855
34	0x3d9efb60	0.0776279
35	0x3e8d0b85	0.2754785
36	0x3e56c0f7	0.20972048
37	0x3cc799ed	0.02436539
38	0x3e7cc986	0.2468625
39	0xbdab219a	-0.08356018
40	0x3e593e2f	0.21215127
41	0x3d027aac	0.03185527
42	0xbc46b547	-0.012128181
43	0x3e1d2bc4	0.15348727
44	0x3e59204b	0.21203725
45	0x3e493cbb	0.19652073
46	0x3cc79422	0.024362627
47	0x3d9dccec	0.07705101
48	0x3e16f16e	0.14740536
49	0x3d977c96	0.0739681
50	0x3d387d83	0.045041572
51	0x3e58a86e	0.21158001
52	0x3c2bf888	0.010496266
53	0x3e64a4ca	0.22328487
54	0xbd0d865c	-0.034551963
55	0x3c191b6a	0.009344915
56	0x3e04e250	0.12976956
57	0x3c3e2584	0.011605624
58	0xbd475d8b	-0.048673194
59	0x3d6aacc8	0.057293683
60	0xbdcd359f	-0.10019993
61	0x3dfaa32a	0.12238152
62	0x3e19e539	0.15028848
63	0xbd624282	-0.055239208
64	0x3e01c5c5	0.126731
65	0x3e1fd8ad	0.15609999
66	0x3e0ea0b4	0.13928491
67	0xbe0588ba	-0.13040438
68	0xbe08098a	-0.13284889
69	0xbdbd557e	-0.09244822
70	0xbc853e40	-0.016265035
71	0x3d81d294	0.06338993
72	0xbe582a32	-0.21109846
73	0x3e1e543c	0.1546182
74	0x3e9b723a	0.30360585
75	0x3d37205e	0.044708602
76	0x3cdff39c	0.027337842
77	0x3caff9fa	0.021481503
78	0xbdf626bd	-0.120191075
79	0xbe31a1eb	-0.17346923
80	0x3e2eb0ae	0.17059585
81	0x3e626535	0.2210892
82	0x3cbcc8d7	0.023044987
83	0xbe27a103	-0.16370015
84	0x3c5587ca	0.013032863
85	0xbe29ed0e	-0.16594335
86	0x3ce5013c	0.02795469
87	0x3e484ac5	0.19559772
88	0x3e53fa38	0.2070092
89	0x3e6c93ae	0.2310321
90	0x3e5d0f7d	0.2158794
91	0x3ea675e8	0.3251183
92	0x3e0482f4	0.1294058
93	0x3e4d5e7c	0.20055574
94	0x3d02837c	0.031863675
95	0x3e871446	0.26382655
96	0x3e590a41	0.21195318
97	0x3e74a28e	0.23890135
98	0x3e92495c	0.28571594
99	0x3e4e707c	0.20160097
100	0xbc54692a	-0.012964526
101	0x3e09d4b3	0.13460045
102	0x3c3bff31	0.011474417
103	0x3e98d015	0.29846254
104	0x3dd19051	0.10232604
105	0x3d00a97a	0.031411625
106	0x3e8247eb	0.25445494
107	0x3d3f2987	0.046670463
108	0x3e269b82	0.16270259
109	0x3e883562	0.26603228
110	0x3e6c980c	0.23104876
111	0x3e7cac6b	0.24675147
112	0x3e1348a9	0.14383186
113	0x3df1c7b6	0.1180567
114	0x3e3f5a29	0.18686737
115	0xbd70090f	-0.05860239
116	0x3dcd1c53	0.10015168
117	0x3e8ca36e	0.27468437
118	0x3e8a2b4e	0.26986164
119	0xbc3df80d	-0.011594784

recurs2.bias_hh f4 [120]
0	0x3e58afc8	0.21160805
1	0x3ea1b68d	0.31584588
2	0x3ccdcf89	0.025123375
3	0x3e3db274	0.18525106
4	0x3d7650f0	0.06013578
5	0x3e31367d	0.17305942
6	0x3d453e2a	0.048154987
7	0x3ea338c1	0.31879237
8	0x3e7662ac	0.24061078
9	0x3ce54a34	0.027989484
10	0x3ca86bc7	0.020559205
11	0x3db69b89	0.08916385
12	0x3e1ec298	0.15503919
13	0x3e44c21d	0.19214673
14	0x3db0cbc6	0.08632617
15	0x3d3a036a	0.045413412
16	0x3e0f1dac	0.13976163
17	0x3c5d4c22	0.013506921
18	0x3e47ed00	0.19524002
19	0xbcb08d09	-0.021551626
20	0x3de361a7	0.1110261
21	0x3bb0f523	0.0054003163
22	0x3d58c1da	0.052919246
23	0x3e0bb99c	0.13645023
24	0x3da0f79c	0.07859728
25	0xbbafbf22	-0.005363361
26	0x3e3f4d01	0.18681718
27	0x3d60a606	0.054845832
28	0x3e32424b	0.17408101
29	0x3e61064f	0.21975063
30	0x3dbb4b60	0.09145236
31	0xbdbac172	-0.09118928
32	0x3c9169e7	0.017750693
33	0x3df01f5d	0.11724732
34	0x3dcfcdff	0.101467125
35	0xbcc5fddd	-0.024168903
36	0x3e4b9abb	0.19883244
37	0x3e172dbe	0.14763543
38	0x3dd92a09	0.10603721
39	0x3d260b34	0.040538028
40	0x3c3831f2	0.011242377
41	0x3ddeb7ba	0.10874887
42	0x3e558b52	0.20853928
43	0x3d9c4b0a	0.076315
44	0x3e104abd	0.1409101
45	0x3e3fb14a	0.18719974
46	0x3e4607fa	0.1933898
47	0x3d04f856	0.032463394
48	0x3e0f4c21	0.13993885
49	0x3e0ae8e2	0.135654
50	0x3e0ef6f7	0.13961397
51	0xbc70d543	-0.014699283
52	0x3daccc73	0.08437433
53	0x3de4c925	0.11171178
54	0xbd587ea4	-0.05285515
55	0x3dfd3c46	0.12365012
56	0xbd1f5dab	-0.038907688
57	0x3e32d018	0.17462194
58	0x3d545d27	0.05184665
59	0x3e0b5491	0.13606478
60	0xbe1fa9fe	-0.1559219
61	0x3e0600c6	0.13086233
62	0x3e388f8f	0.18023513
63	0x3e0e369d	0.13888021
64	0x3da3953b	0.07987448
65	0xbd6ecc18	-0.058300108
66	0x3e3df1dd	0.18549295
67	0x3d17bd43	0.03704573
68	0xbe23ee37	-0.1600884
69	0xbdb80c1b	-0.08986684
70	0xbd988788	-0.074477255
71	0x3d2f1d85	0.04275276
72	0xbd16f22e	-0.036852054
73	0x3e1721d8	0.14759004
74	0x3ddc4db6	0.1075701
75	0x3ced7b92	0.028989587
76	0xbc1da61a	-0.009622121
77	0x3dccf4fd	0.10007665
78	0xbe146c0e	-0.14494345
79	0x3e124be9	0.1428677
80	0xbc43cdf4	-0.0119509585
81	0x3e31830f	0.17335151
82	0xbdc2bfd6	-0.09509246
83	0xbd90bac2	-0.07066871
84	0x3c48a3c1	0.012246073
85	0xbd8a865f	-0.067639105
86	0xbe1a6067	-0.15075837
87	0xbe0b48a8	-0.13601935
88	0xbe024696	-0.12722239
89	0x3e8155d9	0.2526081
90	0x3e879063	0.26477346
91	0x3db19181	0.08670331
92	0x3e8dd777	0.2770345
93	0x3e3a44ca	0.18190303
94	0x3e1682af	0.1469829
95	0x3d9daa37	0.076984815
96	0x3ce84e0e	0.028357532
97	0x3e9319b6	0.28730553
98	0x3eac679b	0.33672795
99	0xbe0c7eaa	-0.13720194
100	0x3e3aa6c8	0.18227684
101	0x3e68bdea	0.22728696
102	0x3d6c6b46	0.05771949
103	0x3da150ed	0.078767635
104	0xbce4e112	-0.027939353
105	0x3e7944d1	0.24342658
106	0x3eb40ee2	0.35167605
107	0x3e64bd89	0.22337927
108	0x3e0bcd18	0.13652456
109	0x3e58c883	0.21170239
110	0x3c314ac3	0.010821047
111	0x3d20d302	0.039263733
112	0x3e514f30	0.20440364
113	0x3e968395	0.29397264
114	0x3e42731d	0.18989225
115	0x3d8a85cf	0.06763803
116	0x3e3ae81a	0.18252602
117	0xbd3e10d1	-0.046402756
118	0x3e92e177	0.2868764
119	0x3d33b820	0.043876767

output.weight f4 [2, 30]
0	0xbdc57cee	-0.09642969
1	0xbd4b3cda	-0.04961858
2	0x3e15189c	0.14560169
3	0xbd7551a3	-0.059892308
4	0x3cc2484c	0.023716114
5	0xbdbbcaef	-0.09169566
6	0x3e10521b	0.14093821
7	0xbe1702ed	-0.1474721
8	0xbe1a1ab1	-0.15049244
9	0xbe793bbc	-0.24339193
10	0x3ca72552	0.020403538
11	0x3d93cb74	0.0721654
12	0xbe5ce2b9	-0.21570863
13	0xbc91b988	-0.017788664
14	0x3e8ab543	0.27091417
15	0x3d925c5f	0.07146525
16	0x3e47aaa0	0.19498682
17	0xbd121bae	-0.03567093
18	0xbd331147	-0.04371765
19	0x3dafe3d9	0.0858838
20	0x3e1152d6	0.14191756
21	0xba5e3a17	-0.0008477284
22	0xbd71a298	-0.058992952
23	0x3dc67271	0.09689797
24	0x3d68dcf9	0.05685136
25	0xbddb5495	-0.10709492
26	0xbe82669b	-0.25468907
27	0x3e2f4bdc	0.17118782
28	0xbd0b5ebc	-0.034025893
29	0x3db39614	0.087688595
30	0x3e9d8282	0.30763632
31	0x3e888f06	0.26671618
32	0x3e6a98f3	0.22909908
33	0x3e8d1c92	0.2756086
34	0xbe333ae6	-0.17502937
35	0x3e5ca431	0.21547009
36	0xbe59d638	-0.21273124
37	0x3e637ab6	0.2221478
38	0x3e81137e	0.25210184
39	0x3dd60b87	0.104514174
40	0xbe7802c3	-0.24219804
41	0xbe3d8b8a	-0.18510261
42	0xbe45af70	-0.19305205
43	0xbe832ae1	-0.25618652
44	0x3e48223a	0.19544306
45	0x3e9bdffd	0.30444327
46	0x3e54d583	0.20784573
47	0xbe82e7b1	-0.25567392
48	0x3e9995c0	0.29997063
49	0xbe8a6370	-0.2702899
50	0x3e67b87e	0.22628972
51	0x3e1aaf54	0.15105945
52	0x3e60633b	0.21912853
53	0x3e48dabc	0.1961469
54	0xbebb685b	-0.36603054
55	0x3e1d8ec4	0.15386492
56	0xbe432ca2	-0.19059995
57	0xbe8ae19a	-0.27125245
58	0x3e992a3c	0.29915035
59	0x3e331a33	0.17490463

output.bias f4 [2]
0	0x3dfafe19	0.122554965
1	0x3cdb16a4	0.026744194

switch.weight f4 [1, 30]
0	0x3dfed528	0.12443
1	0xbd863177	-0.065524034
2	0xbdd360f3	-0.10321226
3	0xbd762927	-0.06009784
4	0xbd3fadb2	-0.046796508
5	0x3d96f9b7	0.07371848
6	0xbcf776a4	-0.03020794
7	0x3dafe11c	0.08587858
8	0xbe12b11f	-0.14325379
9	0x3c9b3920	0.018948138
10	0x3e110757	0.14162956
11	0xbcb7d7d6	-0.022441786
12	0x3e19b2e9	0.15009655
13	0x3d5f250c	0.05447869
14	0xbe368752	-0.17825058
15	0xbdddcb92	-0.108298436
16	0x3e110740	0.14162922
17	0xbd079a28	-0.033106
18	0x3e342f06	0.17596063
19	0xbe3542b4	-0.17701226
20	0xbdc652f8	-0.09683794
21	0x3e108e15	0.141167
22	0x3e2889bb	0.1645879
23	0xbe27a22d	-0.16370459
24	0x3d6a529e	0.057207696
25	0xbe359190	-0.17731309
26	0xbe02d326	-0.12775859
27	0x3da3abc7	0.07991748
28	0xbdc1c662	-0.09461667
29	0xbc92d6cd	-0.01792469
