checkpoints/VQE-H2-fb95c5e1/model.pth (torch, 49921 bytes, 11 tensors)

recurs1.weight_ih f4 [120, 2]
000000 1c b0 9b bd 11 d9 9b 3e 95 53 6e be 48 f3 50 bd
       -0.076019496 0.30439046 -0.23274072 -0.05101326
000010 5d 3d e8 bd c9 24 cf bd 8e 45 67 bd 09 10 ef 3d
       -0.11339829 -0.10114438 -0.056462817 0.1167298
000020 7c d0 af bd 34 83 ae 3d 9c 56 28 be b1 32 16 3e
       -0.08584687 0.08521119 -0.16439289 0.14667775
000030 d8 25 72 be 19 97 79 bd ae 8b c2 bd de 1c 16 3e
       -0.23647249 -0.060935114 -0.09499298 0.1465945
000040 b5 86 98 bb 1a 22 83 3e 7e 23 54 be a7 2e 70 be
       -0.00465473 0.25611955 -0.20716664 -0.23455296
000050 20 28 fa bc e2 8b 30 3e 9f 10 21 bd 3a 32 30 3e
       -0.030536711 0.17240861 -0.03932249 0.1720666
000060 d1 43 1e be 67 7a 9d bd 04 61 c8 3d 4f 10 40 bd
       -0.15455557 -0.07689362 0.09784129 -0.046890553
000070 fa 3f 0d be d3 99 c6 3d b2 6a 03 be 8d ce a3 3d
       -0.13793936 0.096973084 -0.1283367 0.07998381
000080 1b 65 2f be 0d 87 2b be 37 8e 4f be 2c 27 67 be
       -0.17128412 -0.16750737 -0.20269094 -0.22573537
000090 66 74 20 be f2 da 8c 3e 49 64 86 b9 3d 26 49 3e
       -0.15669402 0.27510792 -0.0002563319 0.19643493
0000a0 4c c1 1d bd cb af a0 bd 43 88 8e 3a 70 95 2a be
       -0.03851442 -0.0784603 0.0010874349 -0.16658568
0000b0 1a f0 1f be d0 d0 86 be cb 93 04 bb ad 22 8a bd
       -0.15618935 -0.26331186 -0.0020229693 -0.06744895
0000c0 cd df 06 be 0e 0c 1a 3d 1d 62 f9 3c de e0 b9 3e
       -0.1317131 0.037609152 0.030442292 0.36304373
0000d0 d0 da 11 3c f0 26 2b 3e 28 4c f3 3d cc dd 08 be
       0.008902267 0.16714072 0.1187976 -0.13365859
0000e0 80 44 14 3c aa fd a5 bd e5 33 75 be 10 90 d9 bd
       0.009049535 -0.08105023 -0.23945577 -0.10623181
0000f0 a0 c2 91 3d 95 f2 8b 3e 27 63 07 be cf e0 1f 3e
       0.071172 0.27333513 -0.13221417 0.15613101
000100 15 ac a3 3d e3 d3 30 be e3 82 f1 bc f0 1a 9d bc
       0.079918064 -0.17268328 -0.029481357 -0.019177884
000110 d3 71 f2 3d af b4 66 3e 6a 5a 45 be c7 54 f3 3d
       0.118381165 0.22529863 -0.19272771 0.11881404
000120 81 6d a2 3d b9 c1 36 3e e1 b9 27 3e b8 21 9f 3e
       0.079310425 0.17847337 0.16379501 0.31080413
000130 40 d6 f7 3c c9 32 8a 3c fc 77 b1 39 a9 dc 8a be
       0.03025353 0.01686992 0.00033849466 -0.27121475
000140 af aa 3b be ff cf 4f 3e f8 76 21 3e a4 5f 0b be
       -0.1832683 0.20294188 0.15768039 -0.13610703
000150 cf ce bf bc 41 bd 19 be 95 ad 83 bd 2d af 1a 3d
       -0.023414044 -0.15013601 -0.064295925 0.037764717
000160 6f 6d 9b 3d 91 b9 1d 3d 2b 7b b4 3d 70 c6 46 bc
       0.07589232 0.038507048 0.08812555 -0.012132272
000170 c1 92 00 3e f8 74 a8 bc 5d 9e 33 be 9c fe 33 be
       0.12555982 -0.020563588 -0.1754088 -0.17577595
000180 4c 8a b0 3d b1 2e 33 3e 23 3c 43 be 07 f7 97 3c
       0.08620128 0.1749828 -0.19065909 0.018550409
000190 78 01 07 3e 0c e9 06 3e 88 dd 88 bd 46 1b 45 bd
       0.13184154 0.13174838 -0.06682879 -0.048121713
0001a0 fb cd 1e be 67 ba 34 be 49 17 3e be d3 d5 a0 be
       -0.15508263 -0.17649232 -0.1856357 -0.31413135
0001b0 64 ad 45 bd 44 82 e5 3d b6 fb fd bd 7f 1b 93 3e
       -0.04826106 0.11206487 -0.12401526 0.28731915
0001c0 af 26 0a be a5 17 9f 3e 99 d7 21 3e b2 d9 3b be
       -0.13491319 0.31072727 0.158049 -0.18344763
0001d0 0f a7 fb bc 06 2d 81 3d de 75 15 3d 2c b5 0d 3d
       -0.030719308 0.06307416 0.03648936 0.034596607
0001e0 8a c3 8d 3c af 55 64 3e eb 3f 75 bd eb 68 81 3e
       0.017305154 0.2229831 -0.05987541 0.2527536
0001f0 23 d6 50 be 42 29 7a be 17 bd d8 bd 25 6e 14 be
       -0.20394187 -0.24429801 -0.10582941 -0.14495142
000200 83 42 50 bd 4c e1 b7 be ec 69 ac bd 0d ed 6e 3e
       -0.05084468 -0.35914075 -0.084186405 0.23332615
000210 ab 32 cc bd 1b 8c 4c be 94 b0 0d 3e 21 bd 55 be
       -0.09970602 -0.19975321 0.1383689 -0.20872928
000220 f7 05 bf 3c 20 15 57 be 20 54 ab 3d 15 db 90 3e
       0.023318274 -0.21004152 0.08365655 0.28292146
000230 88 86 24 3e da e5 97 3e 52 94 2b 3e 18 64 40 3e
       0.16066945 0.2966755 0.16755798 0.18788183
000240 95 5d 2e be 40 0a 81 be 23 cf 46 3e 45 8e d3 bd
       -0.17027886 -0.25203133 0.19414954 -0.1032987
000250 24 3f 1e be 4e f0 17 bd a5 31 3a be 76 9f ac be
       -0.15453774 -0.037094407 -0.18183 -0.3371541
000260 2e 58 0a bc a3 b0 94 3e d6 16 79 3d 84 02 b7 be
       -0.008443875 0.29041013 0.060812794 -0.35744107
000270 ee dc e3 3d 04 af a8 be 09 c6 92 bc e2 aa 4a be
       0.11126123 -0.32946026 -0.017916696 -0.19791749
000280 91 b3 2f 3c ba 06 1d bd 96 a2 48 be 7a 9a b7 be
       0.010723964 -0.038336493 -0.19593272 -0.35860044
000290 a4 05 9f bd 25 61 18 be 92 97 7b bd 0d de 87 3e
       -0.07764748 -0.14880808 -0.061423846 0.265366
0002a0 38 68 66 be 36 43 aa 3c 7c 0f 59 3e 8c 3f 81 be
       -0.22500694 0.020784002 0.21197313 -0.25243795
0002b0 39 fc e6 3d 49 05 4d 3e e8 8b 0b be 86 4a 9a 3e
       0.112785764 0.20021547 -0.13627589 0.30134982
0002c0 d3 82 b7 bc 18 a0 8e be 41 a8 18 3e fe b6 b7 be
       -0.022401249 -0.27856517 0.14907934 -0.358818
0002d0 d1 63 02 bd 79 91 37 3e 80 9e 73 3d da 6a 1c 3e
       -0.031833474 0.17926587 0.05947733 0.15275136
0002e0 78 cd 31 3d d5 6d ca bd e5 6a bc bd f2 87 07 be
       0.04340884 -0.0988423 -0.09200076 -0.13235453
0002f0 72 05 5d be 5a b4 0e 3e 30 17 b6 3d 17 85 ab 3e
       -0.21584108 0.13935986 0.088911414 0.33499977
000300 bf f5 43 be 26 6b 63 3d c0 d2 19 be bf 4b 75 3d
       -0.19136713 0.055522107 -0.15021801 0.05988669
000310 9b 61 16 be 30 29 85 3e 59 29 28 be c5 85 30 be
       -0.14685671 0.26007986 -0.16422023 -0.17238529
000320 3d 38 89 bd fb c6 25 3e 04 66 16 be 07 79 96 bd
       -0.0670018 0.16189186 -0.14687353 -0.07347303
000330 dd 6a 5a be 99 35 86 3b 21 8f bf bd dd 67 9a 3e
       -0.21329828 0.004095745 -0.093534715 0.30157366
000340 ac fd 90 3d 67 50 3c 3e 33 00 13 bd 1d 4a 12 be
       0.07079634 0.18390046 -0.035888862 -0.14286084
000350 77 3f 44 bc 3d 09 13 be 6d b1 8f bd b8 96 35 bd
       -0.011978022 -0.14358993 -0.07016263 -0.04433319
000360 62 d4 3c be 61 e6 8c 3d f0 59 79 3d e3 05 11 bc
       -0.18440393 0.06879879 0.060876787 -0.008851501
000370 73 d9 a3 bd 8a 1c 31 3e 1d 6c 1f 3d 4f c1 3a bc
       -0.080004595 0.17296043 0.038921464 -0.011398627
000380 b6 0c 46 be 8b bb af bd 06 72 5c be 6b 2a 78 be
       -0.19340786 -0.08580693 -0.21527871 -0.24234931
000390 12 7c e4 bd f9 02 59 3d 71 87 5b bd c9 f7 b0 3e
       -0.11156477 0.05298135 -0.053595964 0.34564045
0003a0 9f 5e 66 bc b0 af aa 3e b9 47 e5 3d 82 75 31 be
       -0.014060645 0.33337164 0.11195321 -0.17329982
0003b0 31 46 91 3d 86 5b 92 bd 84 a7 28 be c6 b3 cf 3c
       0.07093466 -0.07146363 -0.16470152 0.025354277

recurs1.weight_hh f4 [120, 30]
000000 dc c5 e2 3d 4e b2 72 3e fd a6 1f bd 7c 00 90 3d
       0.11072895 0.2370083 -0.03897761 0.070313424
000010 ef 6d 66 3c 36 65 e8 bd e6 b6 a2 3d b1 8d 50 be
       0.014064296 -0.113474295 0.07945041 -0.20366551
000020 00 25 41 bd 41 db 0b bd 1c 69 88 bb 1d 61 6d 3d
       -0.047154427 -0.034144644 -0.0041629206 0.057953943
000030 5c ad 48 3d 84 3b ec bd bb d5 86 bd f1 19 e9 bd
       0.048993453 -0.11534789 -0.065837346 -0.11381901
000040 13 aa 10 be df fa 09 bd ec 9b 18 be 63 b8 44 be
       -0.14127378 -0.033686515 -0.1490323 -0.19210963
000050 db ab 47 be 9c 31 60 3d b5 ba 08 3e ee f9 1f 3e
       -0.19499151 0.05473481 0.13352473 0.15622684
000060 fe 04 f5 3d c0 77 09 be 05 cb 94 3c 11 5b ad 3d
       0.11963843 -0.13424587 0.018163214 0.08464635
000070 a0 a0 c5 3d 60 5f 8a bc e0 ae dc bc d9 07 cf bc
       0.096497774 -0.016891181 -0.026938856 -0.025272297
000080 24 c1 80 bd eb 5c 11 3e 5c 85 06 be ea da bb bd
       -0.06286839 0.14195602 -0.1313681 -0.09172614
000090 6c 6f 14 3e a7 28 29 be 1f a4 9e bd 6c 2d 07 bd
       0.14495629 -0.16519414 -0.07746147 -0.033002302
0000a0 ca 8f 3e 3d 7b 8f f5 bd a3 3a d2 bd ff ea 8e 3d
       0.046523847 -0.11990257 -0.1026509 0.06978416
0000b0 5e 4e c8 3d 54 9a 3d 3e d7 c6 de bd 2d 6e 68 3d
       0.09780572 0.18515903 -0.108777694 0.056745697
0000c0 a7 99 db bd 7a 73 98 bd ed 34 57 be 64 79 46 3d
       -0.10722666 -0.074439004 -0.21016283 0.04845561
0000d0 85 15 f8 3d b8 86 87 bd f2 2e 0c 3d a8 49 40 be
       0.121134795 -0.066174924 0.034224458 -0.18778098
0000e0 45 60 4c 3e d0 04 19 be f2 cf 5b 3d 34 18 bd bd
       0.19958599 -0.14943242 0.05366511 -0.09233132
0000f0 98 90 1e be 1d ba f2 bd aa 9e 8c bc 3f d8 e1 3d
       -0.15484846 -0.118519045 -0.0171655 0.11027574
000100 7c da 11 3e 5b f1 53 be 12 01 ea 3d b0 d2 2a 3e
       0.14243501 -0.20697539 0.114259854 0.16681933
000110 05 c8 29 3e 74 6c c1 bd b5 91 85 be cb 8d dd bd
       0.16580208 -0.09444514 -0.26087728 -0.108180605
000120 cf b8 1a 3e 4f a3 99 bd f2 28 c0 3d 41 9a 53 3e
       0.15109561 -0.07501852 0.0938281 0.20664312
000130 80 36 35 be c5 92 c5 3d 2a d0 46 3e f3 34 8d 3d
       -0.17696571 0.09647135 0.19415346 0.06894865
000140 81 04 a4 bc ab 22 ed 3d 81 13 97 bd 8b 29 84 bd
       -0.020021679 0.11578878 -0.07376767 -0.06453236
000150 ba ef 18 3e b4 e2 6f 3e 86 98 1f 3d 30 01 77 bd
       0.14935198 0.23426324 0.038963817 -0.060303867
000160 60 d5 2e 3e 5f fd 09 3c b9 06 0e be f3 90 35 be
       0.17073584 0.008422225 -0.13869752 -0.17731075
000170 85 5b 72 3e b8 a9 51 3e 23 da dc bd f3 e5 a4 3d
       0.23667724 0.20474899 -0.10783794 0.08051672
000180 ab b3 23 3e 35 1d 41 3e 37 f5 25 3e 70 bf cc 3d
       0.15986507 0.18858798 0.16206823 0.09997451
000190 0f 78 7a bd 87 5b b4 bd 06 04 6e 3e ef c3 1d 3d
       -0.061149653 -0.0880652 0.23243722 0.038516935
0001a0 07 8e 46 bd 41 41 47 3e 13 a3 34 3d 28 07 07 3e
       -0.04847529 0.19458486 0.044100832 0.13186324
0001b0 2b ac c1 bd 6b b6 b8 3c bb 1c 1a be 29 45 32 3e
       -0.094566666 0.022547921 -0.15050022 0.17409195
0001c0 7e ef 0e 3d ae 4a 1b 3d 67 69 c6 3d 24 cd 7d 3d
       0.034896366 0.037913017 0.09688073 0.061963215
0001d0 74 a0 32 bd 96 22 49 3d 9e 11 cb bd 39 0a 8e 3d
       -0.04361005 0.04910525 -0.099154696 0.069355436
0001e0 9a 4e 39 bd 38 ac 06 be 33 09 b4 bd ec 61 63 3e
       -0.045240976 -0.13151634 -0.08790817 0.22205323
0001f0 e1 86 af 3d 4c dc 83 3e 25 8e 0a 3e 62 0a 6a be
       0.08570648 0.2575401 0.13530786 -0.22855523
000200 04 85 49 be 55 cc 9e bd 76 e2 c2 bd 17 a3 03 3e
       -0.19679648 -0.07753817 -0.0951585 0.12855183
000210 20 79 d6 bd 0b 44 3f be 43 ae 98 bd 0c b4 be bd
       -0.104723215 -0.186783 -0.07455113 -0.09311685
000220 69 0a 00 3e 38 43 17 3e 62 af 3d 3d 2c 66 8c 3d
       0.12503971 0.14771736 0.046309836 0.06855425
000230 a1 01 5d 3d 2e c4 6f bd 5e ad a0 3d 3b e3 00 3e
       0.05395663 -0.0585367 0.07845567 0.12586682
000240 d5 cf 1c 3e 4a 90 ac 3d 6b f3 43 3e cc 7f e5 3d
       0.15313657 0.084259585 0.19135825 0.11206016
000250 d1 a9 c7 bd a2 b7 96 3d 5d 36 bc 3d fa 63 a5 3d
       -0.09749187 0.07359244 0.091900565 0.0807571
000260 fc 5a 30 bd c7 7c 39 bc 1f d2 57 be bf 0d 5a 3e
       -0.04305552 -0.011321253 -0.21076249 0.21294306
000270 b3 88 b8 3d ef d0 b0 bd 16 5b 36 be 44 86 0f 3e
       0.09010448 -0.08633601 -0.17808184 0.14016062
000280 4c d5 62 3e 6b 92 3a 3d 3c 1c 0b be 00 db 93 3d
       0.22151679 0.04554979 -0.1358499 0.07219505
000290 cf 09 18 3e 28 54 3e be 9c 54 60 3e a5 f3 25 3d
       0.14847492 -0.1858679 0.21907276 0.04051556
0002a0 bc b4 19 be 25 bc 0c bb 19 17 5b be 48 b0 97 bd
       -0.15010351 -0.0021474448 -0.2139553 -0.0740667
0002b0 2f f5 39 3e 9a ab d5 3c c8 5a 39 bd 43 b1 2b be
       0.18159936 0.026082803 -0.04525259 -0.16766839
0002c0 bc 20 5d 3d 97 ed 1f bc 20 c3 07 bd 8f ef d3 3d
       0.053986296 -0.009761236 -0.03314507 0.103484266
0002d0 cb 75 c1 3d ce 4c 51 bd 2c 7d 63 3d ee 95 0f 3e
       0.09446295 -0.051098637 0.055539295 0.14022037
0002e0 f3 ef 66 3d 1e d0 a1 bd da 10 24 bd b2 e4 49 be
       0.056381177 -0.07901023 -0.040055133 -0.19716147
0002f0 b2 a4 18 be 04 a4 fe 3c 58 58 a2 bd cc 28 75 3d
       -0.14906576 0.031084068 -0.079270065 0.05985336
000300 4d 45 f7 3d 2d 79 a5 bd c2 b4 d2 bc de e6 8f bd
       0.12073765 -0.08079753 -0.025720958 -0.07026456
000310 8b 0a 2e 3d 39 3b 47 be 53 33 22 3b 37 da 68 be
       0.042490523 -0.19456185 0.002474983 -0.22739492
000320 c6 50 83 be 0f 58 48 be 47 88 00 bd 0d 57 cc 3d
       -0.25647563 -0.19564842 -0.031379964 0.09977541
000330 30 6c be bd 1c 29 6c 3d b2 5d c6 3c ba c2 55 3d
       -0.09297979 0.057656392 0.0242146 0.05218766
000340 f1 11 bb bc 29 14 54 be d7 f7 47 3e 4e 52 22 3e
       -0.022835704 -0.20710815 0.19528137 0.15851709
000350 7d 71 06 3e 58 c3 d6 3d 85 ac 34 be f8 82 4c 3e
       0.1312923 0.104864776 -0.17643936 0.19971836
000360 ee ce f8 bc 3f 62 16 3d fb 19 48 be 81 b7 97 bc
       -0.03037211 0.03671479 -0.19541161 -0.018520119
000370 80 63 f9 bd bd 9a 01 bd 89 46 26 bd ce a8 3e be
       -0.12177181 -0.03164171 -0.04059461 -0.18619081
000380 bc b5 cb 3d 07 5a 38 3d 92 9b 9d 3d bc d9 5e be
       0.099467725 0.04500773 0.07695688 -0.21762747
000390 9d 09 45 be 5d b2 c6 bd 6f e4 31 3d 59 6b 02 3e
       -0.19241948 -0.09701989 0.043430742 0.12736262
0003a0 d6 d9 79 3d 99 80 fd 3c 6d f3 c7 3d 86 87 6b be
       0.06099876 0.03094511 0.09763227 -0.23000917
0003b0 cb af d4 bd b6 fa 0c 3e bf 07 29 be e3 fd 87 3c
       -0.10385092 0.13767514 -0.16506861 0.016600555
0003c0 b0 44 94 bd 28 fe 6b 39 28 e2 d3 bd 58 d8 30 3e
       -0.072396636 0.00022506027 -0.1034587 0.17270029
0003d0 fe 23 b2 bd 9c 57 61 3e 7b 5b 88 3d da ff 29 3d
       -0.08698271 0.22006077 0.066580735 0.041503765
0003e0 cd 09 58 bd 98 52 81 bd f2 4c 24 3d a4 f4 83 3d
       -0.05274372 -0.06314582 0.040112443 0.06443146
0003f0 1a 87 7c 3d e8 61 55 be da d9 5f 3e 55 a5 9d bd
       0.06165228 -0.2083813 0.21860448 -0.0769755

recurs1.bias_ih f4 [120]
000000 85 13 94 bd d5 eb 36 bd 37 3a 2d 3d 13 12 7c 3e
       -0.072302856 -0.0446585 0.042291846 0.2461627
000010 4f 40 47 3e 55 6d 14 3e ad 81 6b 3d 30 74 5d 3e
       0.19458126 0.14494832 0.057496715 0.21626353
000020 bd 0b e3 3d 8d a2 31 3e f0 68 14 3e 87 fd b5 3d
       0.11086223 0.17347164 0.14493155 0.08886247
000030 25 f7 48 3e 0b 2d 78 3e b9 92 2c 3e fc 3c 06 3e
       0.19625528 0.24235933 0.16852845 0.13109201
000040 cf 8f 31 3e 1a 31 94 3d 9e cc 47 3e 23 5f 21 3e
       0.17340015 0.07235928 0.19511649 0.15758948
000050 2c 01 5e 3e 7b 05 91 3d 7e bd d3 bd b6 bb 37 3e
       0.21680135 0.070811234 -0.10338877 0.179427
000060 a6 c3 34 3e af 01 70 3e da 06 0c 3e e6 4c 00 3e
       0.17652759 0.23438142 0.13674489 0.12529334
000070 cb 63 63 3e 1d f8 e1 3d d2 f0 48 3e af dc 13 3e
       0.22206037 0.11033652 0.19623116 0.14439653
000080 5e 7d 27 3e 4a bc 5d 3e 22 a4 e9 bd 52 1c 22 3e
       0.16356418 0.21653858 -0.11408259 0.15831116
000090 7a 17 3d 3e c5 1e ec bd 50 6a 41 3c 00 c8 a1 bd
       0.18465987 -0.11529306 0.011805132 -0.07899475
0000a0 90 bf 2f bb e9 a9 0f 3d 7a 49 2b 3e 5a 45 6c 3c
       -0.002681706 0.03507415 0.16727248 0.014420832
0000b0 cd 85 02 be ab eb df 3d 21 86 07 3e d3 eb 34 3b
       -0.12746353 0.10933622 0.1323476 0.0027606383
0000c0 70 fa 33 3e fc 7a 5a 3e c9 5a 17 3d d7 df f5 3c
       0.17576003 0.21335977 0.036951814 0.030013962
0000d0 ed 71 6e 3d af 8b f9 3c 38 07 10 3d 69 0c e3 bc
       0.058214117 0.030462114 0.035163134 -0.027715879
0000e0 2c cd 80 bd d7 04 b2 3d 73 a6 2a bd 1d 57 52 bd
       -0.062891334 0.086923294 -0.041662645 -0.05135261
0000f0 40 51 53 3e 3f db d5 3b f2 6d 44 3e 2b 34 8f 3e
       0.20636463 0.0065263803 0.19182566 0.27969489
000100 fe 1b 01 bd 33 3f 89 3d 3d c0 30 3e a8 3c 08 be
       -0.031520836 0.067015074 0.17260833 -0.13304389
000110 9d 76 8c bd af 62 43 bd 3c 24 eb bb 0e 39 2b 3d
       -0.06858561 -0.047701534 -0.0071759503 0.04180246
000120 f9 2e ec 3d 22 31 3b be 49 16 fd 3d 03 20 3a 3e
       0.11532397 -0.18280461 0.12357766 0.18176274
000130 ae e6 11 be a5 6d b0 bd db 16 fe bd d0 f6 8c 3d
       -0.14248154 -0.08614663 -0.12406703 0.06883013
000140 53 e2 76 be 25 0e 6d bd a7 26 50 3e 84 47 26 be
       -0.24109773 -0.057874817 0.20327245 -0.16238219
000150 07 c0 86 3e bb 53 08 be af 2b b4 3d 88 5a 55 bc
       0.2631838 -0.1331319 0.087973945 -0.013022073
000160 76 5a 39 3c 1b 34 fc 3d 0a 8e 72 3e e0 67 96 bb
       0.0113130715 0.12314626 0.23686996 -0.0045900196
000170 13 cc 45 3e 16 1b 1c 3e 57 90 05 3e fc 20 54 bd
       0.1931613 0.15244707 0.13043343 -0.05178927
000180 d7 1e 13 3e 66 b6 34 3e 50 9c a6 bd b3 89 93 bd
       0.14367233 0.17647704 -0.08135283 -0.072039984
000190 3e b9 51 bd ff c0 d5 3d e2 d0 8f 3d fe 08 c5 3b
       -0.05120205 0.10437202 0.07022263 0.006013035
0001a0 54 d8 5c 3e c5 7b 0d 3d 71 b7 28 bd 36 26 06 3e
       0.21566898 0.034541864 -0.04119057 0.13100514
0001b0 55 3b 21 bd 40 31 84 3d e5 e7 47 3e d4 bf 01 3e
       -0.039363224 0.06454706 0.19522054 0.12670833
0001c0 30 2e a1 bd 92 8a 93 3e a6 48 65 3e f8 b3 74 bd
       -0.07870138 0.28816658 0.22390994 -0.059741944
0001d0 cc 78 04 3e fc db f1 3d d8 a2 77 bd e6 72 eb 3c
       0.12936705 0.11809537 -0.060458034 0.028741311

recurs1.bias_hh f4 [120]
000000 ac da 79 bd 39 42 48 3e d1 fa e7 3d 3a 76 3c 3e
       -0.060999557 0.19556512 0.11327136 0.18404475
000010 04 35 75 3d d9 bf 7d 3e 25 4c 04 3e 83 c5 c3 bd
       0.059865013 0.24780215 0.12919672 -0.09559157
000020 d6 59 81 3d 59 eb 51 3e fa 8b 3a 3e c4 e1 04 3d
       0.06315963 0.20499934 0.1821746 0.03244187
000030 a3 0e 00 3c b2 70 39 bc 1d 37 62 3e 58 df 4d 3b
       0.00781599 -0.011318373 0.22091337 0.003141364
000040 3c 4d 6b 3e 10 7c 87 3d ca c0 93 3d 2d 55 92 bd
       0.22978681 0.0661546 0.07214506 -0.07145152
000050 55 1e a1 3c 86 a6 81 3e e8 25 f2 bd bc de 70 3e
       0.019667784 0.2532236 -0.11823636 0.23522466
000060 e5 73 52 bd 9a 6b e8 3d 9c df cb bd 62 8d b1 bd
       -0.051380057 0.11348648 -0.099547595 -0.08669545
000070 a8 a3 90 bd 6b d0 e0 3d 65 4f 75 3d be 1e aa bd
       -0.07062465 0.109772526 0.05989017 -0.08306645
000080 df 06 b4 3d 88 00 49 3e 95 53 3c 3e bf 45 66 3e
       0.08790373 0.19629109 0.18391259 0.22487544
000090 f5 0f 0a 3e cd 15 27 bd 65 1d 2e 3c 0c 9f 46 3e
       0.1348265 -0.040792275 0.010627125 0.19396609
0000a0 b6 66 07 3e a5 19 26 bd 26 6f 54 3e 40 af bc bd
       0.13222775 -0.0405518 0.20745525 -0.09213114
0000b0 0e 85 4e 3e 56 3a e7 3d 76 fa d4 bd 3b 87 e7 bd
       0.20167944 0.112904236 -0.10399334 -0.1130509
0000c0 4a 22 26 3e 4b 65 81 3e e5 b7 be 3d 56 24 46 bd
       0.16224018 0.25272593 0.09312419 -0.048374496
0000d0 5d 22 05 3e 47 2c 18 3e 4f ef 6a 3d e7 b0 4d 3e
       0.1300139 0.1486064 0.05735713 0.20087014
0000e0 43 19 23 3e 63 ff 28 3d 99 d9 db 3d 1e 04 0a be
       0.15927605 0.04125918 0.10734863 -0.13478133
0000f0 68 c5 23 bd dd b8 2d bb 80 c1 e0 3d 4b f4 b4 3d
       -0.039983183 -0.0026507892 0.10974407 0.08835658
000100 86 4d 81 3d 94 60 c3 3d 64 5e 29 be 6a 75 4d 3d
       0.063136145 0.09539905 -0.16539913 0.050160803
000110 75 05 eb bc 5b 1a 4c be 76 51 3a 3c b0 cb 53 bd
       -0.028689126 -0.19931929 0.011371961 -0.051707923
000120 f4 fd 9e bd 61 51 8c be 7d 31 86 3e e2 1b c1 bd
       -0.077632815 -0.27405837 0.26209632 -0.09429146
000130 09 05 70 bc 0f 56 3c 3e 2c 13 e7 bb 56 ce 23 be
       -0.014649638 0.18392204 -0.007051846 -0.1599668
000140 16 23 80 be a2 dd 7a 3d 7d cf 3e bc 94 46 22 bd
       -0.25026768 0.06124652 -0.011646149 -0.03961809
000150 b8 2e 31 3e 39 ce cb bd 28 46 3b 3e 5f 8b 78 bd
       0.17302978 -0.09951443 0.18288481 -0.06067979
000160 f6 c3 69 bd 40 ea e3 bd d9 7d 0c 3e 84 bc 63 bb
       -0.05707165 -0.11128664 0.13719882 -0.0034749815
000170 e7 3e 04 3e 96 1d a5 3d 57 c4 84 3e ed 70 5f bc
       0.1291462 0.08062284 0.25931045 -0.013637763
000180 3b 77 df b9 49 d0 a6 3c 7f 17 14 bd b3 2b 2a 3e
       -0.00042622708 0.02036299 -0.03615522 0.16618232
000190 d8 85 7b 3d d7 61 0c 3e 91 21 6a 3e ab 66 2d 3e
       0.06140694 0.13709198 0.22864367 0.16933696
0001a0 68 01 47 3c ea 15 39 3e 0d 9d b3 bc d7 e1 89 bd
       0.012146331 0.18074766 -0.021925474 -0.06732529
0001b0 a9 0c 32 3d de ea 6a bc 6a c2 2e bd e4 1f 06 3e
       0.043469105 -0.014338223 -0.042665876 0.13098103
0001c0 12 76 4f 3e b5 14 2e 3d 08 71 b8 3d c8 5b 8a bd
       0.20259884 0.042500217 0.09005934 -0.06755787
0001d0 e2 6c a7 3d 19 d0 c2 3d b1 2b 2e 3d 2d 88 97 3e
       0.081750646 0.09512348 0.042522136 0.2959608

recurs2.weight_ih f4 [120, 30]
000000 7f 78 ad bd 8f 34 0b 3d 16 8a a2 bc 72 e3 8d 3e
       -0.084702484 0.03398567 -0.019841235 0.2771259
000010 cb 7f e3 3d f0 bf 88 3e be 68 13 3e bc 77 06 3d
       0.11108359 0.26708937 0.14395425 0.03282903
000020 28 fc 35 be 94 f7 1c be 31 79 a9 3d 23 57 0e be
       -0.17771971 -0.15328819 0.082750686 -0.13900428
000030 e4 76 1e 3e 16 df 30 bd d0 4e 0d 3e a6 c1 1f be
       0.1547504 -0.0431815 0.13799596 -0.15601215
000040 f5 7a 00 3e 64 86 18 bd 47 1a cc bd b7 8f 62 bd
       0.12546904 -0.03723754 -0.099659495 -0.05531284
000050 e8 2e f6 bd 79 c6 da bd bf af b4 3d 21 4e 13 be
       -0.120206654 -0.10682387 0.088225834 -0.14385273
000060 d3 c4 9e 3e 41 52 8a 3d e9 98 48 3e 04 b0 c8 3d
       0.3100954 0.0675397 0.1958958 0.09799197
000070 21 0e 52 be 5a f3 08 be 3a fd 0f be a0 bc 04 be
       -0.20513202 -0.13374081 -0.14061442 -0.1296258
000080 5e 1f 73 bd 3c 0b 81 3e 16 2b 0f 3e a0 5b 06 3e
       -0.059356086 0.25203884 0.1398128 0.1312089
000090 33 cb 09 bd 93 4b 1b 3e 58 e2 07 bd 24 97 15 be
       -0.03364105 0.15165548 -0.033174843 -0.14608437
0000a0 b9 55 6f 3d 92 03 8d 3d bf 17 96 bc e6 2b a0 3d
       0.05843136 0.068854466 -0.01832187 0.07820873
0000b0 bd ca a1 3d d5 eb fd 3d da 61 88 be 9a ad a3 3d
       0.078999974 0.12398497 -0.26637155 0.07992096
0000c0 b2 d5 a0 bd 65 6a 1d be 38 08 42 be 55 6f 6a 3d
       -0.07853259 -0.15372618 -0.18948448 0.05723508
0000d0 b6 6d d9 3c f6 ab 3d be 63 d0 67 3e cd b9 d9 3c
       0.026541572 -0.18522629 0.22638087 0.026577855
0000e0 9c d2 0b be d7 9e 03 bd 5e 7a d2 3d 09 4e 78 3d
       -0.1365456 -0.032133903 0.10277246 0.060621295
0000f0 fc 1e 9b 3d 59 0b 80 bd eb e8 3d 3e 21 ef 01 bc
       0.07574269 -0.062521644 0.18545882 -0.007930548
000100 32 80 f3 bc 7c 39 2f 3e c8 8a 8a bd 81 7b d8 3d
       -0.029724214 0.17111772 -0.06764752 0.105704315
000110 94 89 30 3e 5f 07 88 be be 64 07 be ce 0c d4 3d
       0.17239982 -0.26568124 -0.13222024 0.10354005
000120 92 a0 e3 3d c5 2b 8c bd 49 06 07 3e cc bb 18 3e
       0.11114611 -0.06844286 0.13185991 0.14915389
000130 9f a9 25 be ad 40 ab 3d 80 62 0a 3e c0 8a 80 bd
       -0.16177987 0.08361945 0.13514137 -0.062764645
000140 39 2c 92 be d2 66 00 3e 88 37 d7 3c 29 d1 f6 bd
       -0.28549364 0.12539223 0.026271597 -0.12051613
000150 a4 95 4d 3e 2c 93 cc bb 69 f2 89 bd 8c e2 1e be
       0.20076615 -0.00624313 -0.06735689 -0.15516108
000160 c7 7e ee 3c b4 05 6b 3c 2f f2 44 3d 1e c1 00 be
       0.029113187 0.014344621 0.048082527 -0.12573668
000170 3a 59 90 3e 71 bd 88 3e 11 20 64 3d b1 dc 09 3e
       0.28193074 0.26707032 0.055694643 0.13463093
000180 05 e2 53 3d 77 e6 e0 3d 16 c5 30 bc a2 8c c2 bd
       0.05172922 0.10981458 -0.010789176 -0.0949948
000190 79 ae ed bd 80 b1 a1 3c 84 77 2b bd 4e c1 a8 bd
       -0.11605544 0.019737959 -0.041862026 -0.08239995
0001a0 b0 c7 a6 bc 0f b4 2a bc d1 bc ca 3c ca 76 84 bd
       -0.02035889 -0.010418906 0.024748238 -0.0646797
0001b0 c1 c0 b8 3d 9a f3 4f be f8 fe 0f 3c 95 c6 c2 3d
       0.0902114 -0.2030777 0.008788817 0.09510533
0001c0 9e d2 07 3d 99 0e a0 3c ae fd b3 bc af 97 5c be
       0.033159845 0.01953821 -0.02197155 -0.21542238
0001d0 aa a8 fa bb 01 09 09 bd 5f b4 48 3d c4 20 02 be
       -0.007649501 -0.033455852 0.04900014 -0.12707812
0001e0 2a 40 90 3e ed be ce 3d a1 48 db bb 6c ca 07 3e
       0.28173953 0.1009501 -0.0066920076 0.13260812
0001f0 ae ed 1d be 61 06 31 3e 2c 11 1e 3c d9 5e 0b be
       -0.15422699 0.1728759 0.009647649 -0.136104
000200 62 f5 8d bd 3b 75 87 3d 42 fe 38 bd c3 5c dc 3b
       -0.06931569 0.06614157 -0.045164354 0.0067249252
000210 da b6 25 bb cb 49 8e be a1 66 18 3e 0f 3c 65 bc
       -0.002528599 -0.27790675 0.148829 -0.01399137
000220 02 4b 0b be 15 58 7c 3b 84 84 c5 3d 0a ed 8c bd
       -0.13602832 0.003850465 0.09644416 -0.06881149
000230 77 81 84 be ca 56 ed 3d 3b 4a a2 bd b3 05 f5 bd
       -0.25880024 0.11588819 -0.079243146 -0.11963978
000240 7f 2b 7c 3e a5 16 58 3b e6 91 a5 3e 14 82 41 3e
       0.24625967 0.0032972482 0.32337874 0.18897277
000250 0e dc 19 be 9c ba 93 bc cb 4b 1a bd 35 cf f4 3b
       -0.1502535 -0.018033318 -0.037669938 0.00747099
000260 96 29 8b 3e b8 fa 79 3e 71 93 2d be 9e 33 b4 bb
       0.27180165 0.24412048 -0.16950776 -0.0054993173
000270 90 d6 14 be f2 17 0f 3d e1 21 ba bd ab f3 65 be
       -0.14534974 0.034934945 -0.09088493 -0.22456233
000280 0f 9f 5d bd fc 29 35 3d 93 68 cd 3d 8b 4a 21 3d
       -0.05410677 0.044229493 0.100297116 0.03937773
000290 9a 16 03 3e bf ef da 3d bf c0 de bd a9 80 10 3d
       0.1280159 0.10690259 -0.10876607 0.03527895
0002a0 70 9f 5e bd 92 27 aa 3d 18 76 92 bd 64 e9 b9 bd
       -0.05435127 0.08308329 -0.07151431 -0.09077719
0002b0 4b d1 a8 bd e9 b9 75 be 1e 34 7f 3d 97 56 8b bd
       -0.082430445 -0.239967 0.062305562 -0.06803625
0002c0 39 89 87 3e 94 2d 54 bd 46 45 9a 3d f3 9a b8 3d
       0.2647188 -0.05180128 0.07532744 0.09013929
0002d0 2e de b4 bd 8c b0 ac bd 26 3b e2 3d 00 c0 34 3e
       -0.0883144 -0.08432111 0.11046438 0.17651367
0002e0 1e ab 16 be b7 84 d2 3d 7e 83 62 be 28 1e 59 bd
       -0.14713714 0.102792196 -0.22120473 -0.053007275
0002f0 8d ee bb bb 9d 98 ad 3c 49 84 cc 3c 5c 9f fb 3d
       -0.0057352246 0.021190936 0.024965422 0.12286255
000300 14 47 65 bd fb ee 33 3d 73 0a c8 bd 2d c1 10 be
       -0.05597599 0.04392908 -0.09767618 -0.1413619
000310 f0 4b f7 bd fc 0b 68 be c7 af ce 3d aa a3 2b be
       -0.12075031 -0.22660822 0.100921206 -0.16761652
000320 6d b6 7d be 10 0e 22 bc 7d 26 f3 bd 5e 98 14 3d
       -0.24776621 -0.009891048 -0.118725754 0.03627812
000330 a6 e9 38 3e cc 82 f2 bd d4 56 3e 3e d4 5e 9e 3d
       0.1805788 -0.11841354 0.1858781 0.07732931
000340 1c a0 44 be 61 c0 e0 bc 49 db 3a 3e 29 a6 9d 3c
       -0.19201702 -0.027435483 0.18247713 0.01924427
000350 b7 da ca 3d 15 db 15 3e 1b 05 1d bd 00 24 07 3e
       0.09904998 0.14634354 -0.038334947 0.13197327
000360 ac db 60 be 4d 8a ae 3d 93 14 ff 3c 14 f6 d4 bb
       -0.21958798 0.085224725 0.03113774 -0.0064990614
000370 d2 4b a8 3d 07 3d d4 bd 8e aa ce bc 23 6c 04 be
       0.082175866 -0.103632025 -0.025227811 -0.12931876
000380 fa d1 08 3e bd c4 dc bd ab 9e b7 3c dc 03 a7 bd
       0.1336135 -0.10779712 0.022414526 -0.08155033
000390 0b 6c bb 3d 67 1e 9a be 3b 77 f0 bd c3 db ac 3d
       0.09151467 -0.3010132 -0.117414914 0.08440354
0003a0 5f 26 c8 bd 09 94 ab bc af f4 63 3e f2 59 c4 bc
       -0.09772944 -0.020944612 0.22261308 -0.02396867
0003b0 75 73 04 3e 1e 9e ab 3d 36 b8 28 be 35 6e df 3d
       0.12934668 0.08379768 -0.16476521 0.10909692
0003c0 83 6e 94 3d 38 b3 33 3e 07 50 06 3e b6 d6 d1 3d
       0.07247641 0.17548835 0.13116466 0.10246031
0003d0 fb 5f 9e 3c ef 12 84 3e 17 3d 04 3e cc 3c 5a be
       0.019332876 0.25795695 0.12913929 -0.21312255
0003e0 82 b8 3c bd 9e 0e 30 be 59 b2 22 3e aa d7 38 3e
       -0.046074398 -0.17193076 0.15888347 0.1805102
0003f0 ae 78 86 bd 7f e2 00 be 76 4a 4d 3e 5d d2 f0 3d
       -0.065659866 -0.12586401 0.20047936 0.117588736

recurs2.weight_hh f4 [120, 30]
000000 9a 8f 08 3d 04 61 96 3d d8 c8 49 3e 6d 9a 2b be
       0.033340074 0.07342723 0.19705522 -0.16758128
000010 be d5 b3 3d c4 37 00 be b5 79 3e 3e 32 84 06 be
       0.087810025 -0.12521273 0.18601115 -0.13136366
000020 dc de 63 bc cb e8 34 3d 8d 0a e4 bc d4 d1 8f 3d
       -0.013908114 0.04416732 -0.027837062 0.070224434
000030 7d 6e 39 bd 75 d1 60 3d 2a c1 0e bd 93 7b 29 bc
       -0.045271385 0.054887254 -0.034852184 -0.010344404
000040 8c b8 82 3d 50 d2 13 3e 8e 00 1f be d8 b6 be bd
       0.06382856 0.14435697 -0.15527555 -0.093122184
000050 c1 d5 d3 bc 72 80 9f 3c 60 5a ea bd af 04 33 bd
       -0.025858762 0.019470427 -0.11443019 -0.04370564
000060 7d 21 8f 3d df 7b 84 bd cc 45 88 bc b7 33 2f bd
       0.06988809 -0.06468939 -0.016634844 -0.04277393
000070 cf cd 3f be e9 bd e4 3d 6e 01 89 bc 74 94 ab bd
       -0.18730853 0.11169035 -0.016724315 -0.083779246
000080 ca 60 0e be c5 66 d1 3d b0 68 44 bd 8c 70 bd 3d
       -0.1390411 0.1022468 -0.0479514 0.09249982
000090 4e ee 90 3b a5 cf 80 bd 5c 70 d0 bd df 3e a8 3d
       0.0044229394 -0.06289605 -0.10177681 0.08215117
0000a0 f5 ea 80 be 3f c3 b8 bd 43 2d be bd 5e 8f 02 bd
       -0.25179258 -0.09021615 -0.09285977 -0.031875007
0000b0 e2 cc 1c 3e be 8d 55 3e 24 68 53 3e ef f8 b8 bd
       0.15312532 0.20854852 0.20645195 -0.09031855
0000c0 e0 20 d6 bd 0c 6e 18 3d 7c 6c 39 3e 45 09 41 bd
       -0.10455489 0.037214324 0.1810779 -0.04712798
0000d0 6f 62 a5 bd 06 34 03 be a5 45 8e bd e2 9d c4 bd
       -0.08075415 -0.12812814 -0.069468774 -0.09600426
0000e0 da 14 3d be 42 0a 26 bc fb c1 60 3c 85 d2 b0 3d
       -0.18464985 -0.010134282 0.013718124 0.086339034
0000f0 b7 ec 0a be 71 1c 93 bd ce cd 3b 3e d8 e0 a3 bc
       -0.13566862 -0.07183159 0.18340227 -0.020004675
000100 1c 58 1f 3e ab 9f af bd af a9 0e bb 7d fa 84 3c
       0.15560955 -0.08575376 -0.002176862 0.016232723
000110 98 da 0c bd fe cc 7d be d3 ff a3 3d 19 eb 90 bd
       -0.034388155 -0.2478523 0.08007779 -0.07076091
000120 7d ab d7 bc f5 7c 19 3d 50 6a 3d 3e d5 cf 89 3d
       -0.02632689 0.037472684 0.18497586 0.06729094
000130 c1 84 fa 3d e4 8a 69 bc be 9a f5 3d f8 57 86 3d
       0.12232352 -0.0142543055 0.11992405 0.065597475
000140 33 9a 12 3e 16 64 84 3d 32 88 3b be 83 e7 80 3d
       0.14316635 0.064644024 -0.18313673 0.06294157
000150 ba d8 3f be 85 47 7a be 05 ac 52 bc 97 13 5b 3c
       -0.18735018 -0.24441345 -0.012858395 0.01337137
000160 ad 17 e5 bd c0 e0 47 3e de 25 6f bd ea e7 d4 3b
       -0.111861564 0.19519329 -0.058385722 0.006497373
000170 e2 8d 5c 3e be aa e8 3d 71 1b 9c bd 5a 0e 2b 3c
       0.21538499 0.113606915 -0.076224215 0.010440433
000180 59 d9 7a bd 0d 7d 35 be 9d ae 52 bd 6b d6 71 bd
       -0.061242435 -0.17723484 -0.051436055 -0.059042376
000190 82 1d 64 be 5e 30 ca bd bd 96 7c be fc 32 35 bd
       -0.22276881 -0.098725066 -0.24666877 -0.044238076
0001a0 22 60 00 3e 8f 37 ef 3c 53 af 23 3e 84 d3 17 3e
       0.12536672 0.029201297 0.1598485 0.1482678
0001b0 e9 e1 92 3d e2 6b 2f bc cd 22 7c 3c 4f 7f e3 3d
       0.07171995 -0.010706874 0.0153891565 0.111082666
0001c0 ea b0 40 be 26 03 d7 bd 3d 62 68 3d f4 28 8a bd
       -0.18817487 -0.104986474 0.056734312 -0.067460924
0001d0 25 77 20 bb 31 6e 62 3e 86 8b 09 3e 48 b6 de 3d
       -0.0024485078 0.22112347 0.1343213 0.10874611
0001e0 0b 21 fd 3d 83 45 2f 3e 4c 8d 39 bd ab 79 02 3d
       0.12359818 0.1711636 -0.045300767 0.031854313
0001f0 50 7f e9 3d 34 a0 7a 3d 74 47 69 3e 7d 81 19 be
       0.11401236 0.061187938 0.22781163 -0.14990802
000200 30 b7 6f 3c 87 3e 18 3e 18 30 62 be af a1 88 bd
       0.014631078 0.14867602 -0.22088659 -0.06671464
000210 89 93 7a 3d 6e 86 0b 3e 73 b4 80 3e e1 67 0f bd
       0.061175857 0.136255 0.25137672 -0.035011176
000220 f5 a9 01 3e e8 5f 00 be 14 87 25 be f1 a5 1a 3c
       0.1266249 -0.12536585 -0.1616481 0.009438978
000230 f9 a0 09 bd 70 d7 f1 3d 14 cb a9 bd 1d 62 07 3e
       -0.03360078 0.118086696 -0.08290687 0.13221021
000240 3e 8e 35 bd f9 2d 0c 3c 53 d8 e7 bc a0 1f 53 3e
       -0.044325106 0.008555883 -0.028301394 0.20617533
000250 22 f7 06 bc 5c fb 52 3e 74 3c 52 be a3 1c 5e bd
       -0.008237632 0.20603698 -0.20530874 -0.05422653
000260 42 7d 32 3e 7e 7c 10 3e cd 95 9e bc 38 23 30 3e
       0.17430595 0.1410999 -0.01935854 0.17200935
000270 25 75 1c 3e 86 41 33 be ba 46 0b 3c 20 0a d7 3d
       0.15279062 -0.17505464 0.008500749 0.10499978
000280 ab 2e 14 be fa 81 0a 3e 8d c8 fe bd c1 5b bb bd
       -0.14470927 0.13526145 -0.12440596 -0.0914836
000290 93 67 fa bc ba cf 49 bd 25 e4 58 3e c0 29 03 3e
       -0.030566966 -0.04927037 0.2118078 0.12808895
0002a0 ae e2 9d 3d fd c7 88 3d ab b6 cd 3d bf 98 5b 3c
       0.07709251 0.0667877 0.10044607 0.013403117
0002b0 4a f5 64 be 53 70 14 be 9c bd cc bd e7 ac 9e 3d
       -0.22359195 -0.14495973 -0.099971026 0.07747822
0002c0 b3 da df bd c4 2b 21 3d 7b af 43 3d 25 c3 86 3e
       -0.109303854 0.03934838 0.047774773 0.26320758
0002d0 17 a1 29 bd 1f d9 05 3e ec 42 c6 bd f4 69 4f be
       -0.041413393 0.13071106 -0.09680733 -0.20255262
0002e0 b4 b2 6a bc 63 35 28 3d 25 56 0a 3e c4 f8 7a 3d
       -0.014324833 0.04106654 0.13509424 0.061272398
0002f0 9b 99 1d 3e 41 da b6 bd 06 09 af bc a9 0f 3a 3e
       0.15390627 -0.089283474 -0.021366607 0.18170036
000300 d3 89 f5 bd 17 f6 0a 3e b3 f3 c9 bd ec 3a a1 3d
       -0.119891785 0.13570438 -0.09860935 0.078725666
000310 62 23 96 3d ae de 2f 3e 86 58 24 bd 08 e7 85 bb
       0.073309675 0.1717479 -0.040123485 -0.004086379
000320 4a 13 45 bd 3e 5f 80 3e 8e 86 c6 bc c2 43 87 bd
       -0.0481141 0.25072664 -0.024234083 -0.06604721
000330 17 7f fe 3c 7c 8b 85 3d 3e 14 c7 bd 89 3a 09 be
       0.03106646 0.06520745 -0.09720658 -0.13401236
000340 88 65 a1 bd 4b 48 e0 3d 92 45 05 bc f6 f3 90 3c
       -0.07880694 0.10951289 -0.008134263 0.017694455
000350 58 e8 c9 3d 7a d8 82 bc e4 ac 21 3e 9b 66 e1 bd
       0.09858769 -0.015972365 0.15788609 -0.110058986
000360 df f4 5f 3e e3 df dc bb ae 8c 05 3e 0a c2 4c 3d
       0.21870755 -0.0067405566 0.13041946 0.049989738
000370 d5 7a 64 be cd 64 17 3e 60 3a e1 bd 6a 1a d5 bd
       -0.22312482 0.14784546 -0.10997462 -0.10405429
000380 f2 54 2f 3e 25 d0 02 3d a0 e9 a5 bd 6b ab 97 bd
       0.17122248 0.031936783 -0.08101201 -0.07405742
000390 1a bc 04 3e 35 be 49 be 01 95 e9 3d e1 1a f4 3d
       0.1296238 -0.19701464 0.11405373 0.11919189
0003a0 94 50 1e be dd 7a 50 3d 13 e1 22 be 8d 5b 49 bd
       -0.15460426 0.05089842 -0.15906172 -0.049159575
0003b0 60 86 a8 bd bb 34 f3 3d 6f 5c 57 bd 6f 35 a2 bd
       -0.08228755 0.11875292 -0.052578386 -0.07920348
0003c0 6c 75 67 bd 50 a8 49 3e 1e 40 0f bd c9 fd 19 3e
       -0.056508467 0.19693112 -0.034973256 0.15038218
0003d0 48 a1 0b 3e 0f 8c 1a bd 4f 04 2d 3d cf 98 f1 3d
       0.13635743 -0.037731227 0.042240437 0.11796724
0003e0 55 9f 94 bc b6 1d d0 bc 2e f4 84 bd 70 25 1c 3d
       -0.018142382 -0.025404792 -0.06491886 0.03812164
0003f0 92 db 4c be 16 8a 94 bd 40 cb 80 3e c2 22 ca 3d
       -0.20005634 -0.072529 0.25155067 0.09869911

recurs2.bias_ih f4 [120]
000000 c4 ba 99 3e 54 52 8a 3e 96 6c 4d 3c 93 96 1a 3e
       0.30025303 0.27015936 0.012538096 0.15096502
000010 31 d0 30 3d f6 27 95 3d 52 e9 c5 3d dd 58 9f 3e
       0.043167297 0.072830126 0.09663643 0.31122485
000020 2f 47 0f 3e f3 0e 6f 3e 97 78 3d bd f0 73 11 3e
       0.13991998 0.23345546 -0.04625758 0.14204383
000030 fc 7c 2e 3e ab 37 a4 3c a4 60 0f 3e 06 0a 1e 3e
       0.17039865 0.020046076 0.14001709 0.15433511
000040 41 63 9a 3e 63 2a 05 3e 8c 2e e2 3d dd 20 7c 3e
       0.3015385 0.1300445 0.11044034 0.24621911
000050 d8 30 62 3d 33 b8 83 3e af 97 91 3e 28 af 8d 3c
       0.055222362 0.2572647 0.28436038 0.017295435
000060 a0 25 49 3e 40 47 8a 3d 76 84 95 3e eb de d9 3d
       0.19643259 0.06751871 0.29202622 0.10638221
000070 62 d6 06 3e 85 0b 82 3e 24 73 e8 3d 35 b8 38 3e
       0.13167718 0.25399414 0.11350086 0.1803902
000080 14 e8 49 3b 1b 06 0c bd 29 39 e1 3d 72 d8 84 3e
       0.0030808495 -0.03418551 0.109972306 0.25946385
000090 d1 fd 52 3e d5 9c af 3c ea 6b 7c 3e 48 29 bc bd
       0.20604636 0.021437088 0.24650541 -0.09187561
0000a0 5a ec 46 3e 46 fe 3d 3d 09 16 79 bc 34 dd fa 3d
       0.19426098 0.046385072 -0.0152030075 0.122492224
0000b0 9d fb 5a 3e cb 9f 57 3e fa 4a c0 3c 40 3e c6 3d
       0.21385045 0.2105705 0.023473252 0.09679842
0000c0 8c 9c 09 3e c4 c4 5b 3d 19 fa 28 3d 5e 22 89 3e
       0.13438624 0.053654447 0.041254137 0.26784033
0000d0 5a f8 7d 3b 76 20 69 3e 4d ff 4b bd e3 36 00 3b
       0.0038752765 0.22766289 -0.04980402 0.0019563965
0000e0 de 00 0a 3e 99 2b 8c 3c 90 58 3b bd a0 08 ec 3c
       0.13476893 0.017110633 -0.045738757 0.028812706
0000f0 f0 9f 97 bd fc 24 f6 3d ff ce 20 3e 83 41 5a bd
       -0.074035525 0.12018773 0.15703963 -0.053285133
000100 66 e4 10 3e 21 12 17 3e ff 24 f9 3d b1 aa 16 be
       0.14149627 0.1475301 0.121652596 -0.14713551
000110 23 56 09 be 9c ba 88 bd b1 b6 60 bb f4 53 6d 3d
       -0.13411765 -0.06676218 -0.003428858 0.057941392
000120 8a db 50 be af 00 05 3e 46 8c 8d 3e 37 39 45 3d
       -0.20396248 0.12988542 0.27646083 0.048150267
000130 ad 36 29 3d 11 2a a6 3c d5 55 01 be ee ae 41 be
       0.04131191 0.02028373 -0.12630399 -0.18914387
000140 49 d4 23 3e 85 4e 89 3e 16 0d ca 3c 78 2e 1f be
       0.15998949 0.26817718 0.024664443 -0.1554507
000150 a7 90 d2 bb 95 7d 14 be 3b f4 c8 3c 02 50 2f 3e
       -0.0064259353 -0.1450103 0.02453052 0.17120364
000160 40 d2 52 3e f1 ef 61 3e ac a7 35 3e ab b0 9e 3e
       0.20588017 0.22064187 0.17739743 0.30994162
000170 be 5d c3 3d a8 39 2c 3e 32 78 75 3c 09 d8 76 3e
       0.09539364 0.16818869 0.01498227 0.24105848
000180 f0 74 3f 3e 18 e5 54 3e 6f 84 81 3e 97 5f 46 3e
       0.18696952 0.20790517 0.2529635 0.19372402
000190 d7 75 69 bd 94 6e f5 3d c9 41 18 bb 49 c6 88 3e
       -0.056997146 0.11983982 -0.002323257 0.2671378
0001a0 86 09 bc 3d f2 fa cb 3b 70 e0 73 3e 38 11 05 3d
       0.09181504 0.0062249834 0.23816085 0.032487124
0001b0 b8 b2 05 3e 0d c2 7d 3e 8f 46 4d 3e d8 58 6d 3e
       0.13056457 0.24781056 0.20046447 0.23178422
0001c0 ea 4e 09 3e 6d dd c2 3d b0 45 20 3e 6f 75 9f bd
       0.1340901 0.0951489 0.15651584 -0.077860706
0001d0 03 08 b9 3d 2a f1 80 3e 36 b0 84 3e 99 a7 6f bd
       0.09034731 0.25183994 0.25915688 -0.058509443

recurs2.bias_hh f4 [120]
000000 7d ef 3d 3e 00 9a 96 3e 61 6c 3d bc 22 6e 22 3e
       0.18548389 0.29414368 -0.011561484 0.15862325
000010 e9 ee 87 3d c3 43 29 3e fd 22 14 3d 8e 26 9d 3e
       0.06637365 0.16529755 0.03616618 0.30693477
000020 88 9e 79 3e 53 84 9a 3c a3 07 c2 bc b9 81 a8 3d
       0.24376881 0.018861925 -0.023685282 0.08227868
000030 f8 37 00 3e 26 3f 1d 3e 3b 0c 78 3d fe ce 32 3d
       0.1252135 0.1535612 0.06055854 0.043654434
000040 3a 1c 1b 3e b5 66 04 3c 9e 48 38 3e 0c d7 b4 bc
       0.15147486 0.008081128 0.17996451 -0.022075199
000050 f5 ab b9 3d 61 ac 67 bc 4c 68 70 3d c8 8c 01 3e
       0.09066001 -0.014140219 0.058693215 0.1265136
000060 0f eb ae 3d cf f1 c6 bb 06 ee 2d 3e f8 1b 17 3d
       0.085409276 -0.0060713063 0.1698533 0.036891907
000070 f6 94 34 3e 5e 8a 32 3e ed d3 86 3d cd 16 cd bd
       0.17634949 0.17435595 0.065833904 -0.100141145
000080 cf 14 a3 3c c2 a4 da 3d e3 05 09 3e 6e 97 24 bd
       0.019907383 0.10675956 0.13381152 -0.040183477
000090 9a d7 47 3e 16 2e 14 3e db 6e d8 3d c6 fb 03 3d
       0.19515839 0.14470705 0.10568019 0.03222253
0000a0 d2 d6 d9 bb 7f 79 fc 3d 40 65 52 3e 96 a1 39 3d
       -0.006647923 0.12327861 0.20546436 0.045320116
0000b0 02 26 12 3e 5c 14 4e 3e de 1e 45 3e 09 db 55 3d
       0.14272311 0.20124954 0.19250056 0.05221084
0000c0 32 f7 01 3e 87 37 ec 3d 27 16 0b 3e 13 3c 2a 3d
       0.12691954 0.115340285 0.13582669 0.041561197
0000d0 24 3d 9f 3d 7d c0 ed 3d d4 7b 8b bd 91 1a ee 3d
       0.077753335 0.1160898 -0.06810728 0.11626161
0000e0 67 e3 0a bd 2c 73 38 3e 13 62 60 3d dc 54 dc 3d
       -0.033908274 0.18012685 0.05478103 0.10758373
0000f0 29 df 04 be b0 c1 03 3e 5c 79 3f 3e de 36 10 3e
       -0.12975754 0.12866855 0.18698639 0.1408343
000100 8f d2 c1 3d 14 f3 88 bd aa e3 2b 3e a3 6a a6 3c
       0.09463989 -0.066869885 0.16786066 0.02031452
000110 d0 3a 25 be 39 71 83 bd 51 7b 7c bd 63 cc 18 3d
       -0.16135716 -0.0641808 -0.06164104 0.037304293
000120 f2 6e f3 bc 9c 9c fb 3d 00 b6 a4 3d 99 d6 04 3d
       -0.029715989 0.1228573 0.08042526 0.03243122
000130 ec 9a 8e 3b fd 80 ca 3d 93 ae 1a be e8 3e 02 3e
       0.004351964 0.09887884 -0.15105657 0.1271931
000140 d8 c9 b8 bc e9 ba 61 3e ab 6e bf bd 96 ab 7f bd
       -0.022557184 0.22043957 -0.0934728 -0.062419496
000150 b5 58 ec bb 24 4f 3f bd 14 e2 1d be 6b 43 24 be
       -0.007212723 -0.046706334 -0.15418273 -0.16041343
000160 8e 6e 03 be ea 07 78 3e ff b8 67 3e 8b 7c 92 3d
       -0.12835142 0.24221769 0.22629164 0.07152661
000170 d7 da 78 3e f2 1f 19 3e 56 39 05 3e 8f 12 5e 3d
       0.24302231 0.14953592 0.13010153 0.054216918
000180 b7 1b 5d 3b 02 3b 83 3e a8 a2 9b 3e 8f 8f 14 be
       0.0033738443 0.25630957 0.30397534 -0.14507888
000190 e8 8f 0d 3e 77 a0 59 3e 65 e7 33 3d 3d 53 42 3d
       0.13824427 0.21252619 0.043921847 0.047442663
0001a0 0d 7e 1d bd 41 7a 5f 3e 43 b7 ab 3e 67 37 56 3e
       -0.03845029 0.2182398 0.33538255 0.20919572
0001b0 9a c8 d5 3d be 1f 46 3e 76 e6 a1 bc 96 09 c7 3c
       0.10438652 0.19348046 -0.019763213 0.024296563
0001c0 6d 55 47 3e 00 c9 8a 3e a4 5e 23 3e d6 29 46 3d
       0.19466181 0.27106476 0.15954071 0.04837974
0001d0 eb dd 30 3e 9e d1 8d bd 5b 66 8d 3e e3 17 47 bb
       0.17272155 -0.06924747 0.27617154 -0.0030379228

output.weight f4 [2, 30]
000000 0c 61 cc bd 2b 7c 75 bd 3b e5 0a 3e d1 4f 59 bd
       -0.09979448 -0.05993287 0.13564007 -0.053054634
000010 f1 11 28 3d 9c 3a c2 bd b7 08 11 3e f2 38 27 be
       0.041032735 -0.09483835 0.1416348 -0.16330317
000020 d4 82 2f be 0d 6d 53 be 46 3b 0f 3d 38 68 ac 3d
       -0.1713975 -0.20647068 0.034968637 0.08418316
000030 50 fa 4c be b1 e0 11 bc 3f 63 7d 3e 91 c0 85 3d
       -0.20017362 -0.008903668 0.2474489 0.0653087
000040 b3 01 3d 3e fb 33 69 bc 45 42 6c bd 04 06 d5 3d
       0.1845768 -0.0142335845 -0.057680387 0.10401538
000050 40 e5 da 3d 51 d9 96 bc 21 c5 6f bd 1e 2b c3 3d
       0.10688257 -0.018414171 -0.058537606 0.09529708
000060 58 d4 8f 3d 5f 36 c0 bd 1d 9e 7e be 61 2a 2c 3e
       0.07022923 -0.093853705 -0.24865003 0.16813041
000070 29 4b 4b bd ec 1f 8f 3d 1f 09 96 3e 04 59 7d 3e
       -0.049632225 0.069885105 0.29303834 0.24740988
000080 bf 6f 59 3e d2 aa 81 3e 3d 15 1a be 41 f0 47 3e
       0.21234034 0.25325638 -0.15047164 0.19525243
000090 5e a8 50 be 78 64 4b 3e 2d 19 61 3e f2 45 b7 3d
       -0.20376727 0.19862545 0.2198226 0.08948888
0000a0 40 ce 52 be d4 fe 2c be 4a 73 37 be b4 53 6e be
       -0.2058649 -0.16894084 -0.17915073 -0.23274118
0000b0 96 15 25 3e 0a f9 90 3e 68 0b 47 3e 39 92 71 be
       0.16121516 0.28315002 0.19437945 -0.23590936
0000c0 4a 91 8c 3e f4 c7 82 be e6 e6 43 3e 1b 6d 68 3d
       0.27454597 -0.25543177 0.1913105 0.056744676
0000d0 4e de 53 3e 0c 74 41 3e 65 20 b0 be 04 37 1c 3e
       0.20690271 0.18891925 -0.34399715 0.15255362
0000e0 42 d2 31 be 37 ed 82 be 6c 3a 95 3e 45 73 14 3e
       -0.17365363 -0.25571606 0.29146135 0.14497097

output.bias f4 [2]
000000 fb ff d1 3d 65 ce 06 3d
       0.102539025 0.032911677

switch.weight f4 [1, 30]
000000 3a e9 06 3e 25 ad 7b bd 2f af d3 bd a0 6c 79 bd
       0.13174906 -0.06144442 -0.10336148 -0.06089461
000010 9a 03 51 bd 66 9f 95 3d 44 df fd bc a8 6f af 3d
       -0.051028825 0.073057935 -0.03099025 0.085662186
000020 e1 1d 13 be 94 05 a1 3c 80 51 10 3e ad 24 d6 bc
       -0.14366867 0.01965598 0.1409359 -0.026140535
000030 89 57 1a 3e e8 55 4e 3d 65 0f 37 be b8 5b df bd
       0.15072455 0.050374895 -0.17876966 -0.10906166
000040 49 92 10 3e fc b1 18 bd 64 81 35 3e dc 58 37 be
       0.14118303 -0.037279114 0.1772514 -0.17904991
000050 ff 6e be bd d7 97 07 3e 8b f1 27 3e a6 b1 26 be
       -0.092985146 0.13241516 0.16400735 -0.16278705
000060 f1 8b 58 3d 1f 8d 36 be 01 51 03 be 12 25 a5 3d
       0.052867834 -0.17827271 -0.1282387 0.08063711
000070 bb 00 b6 bd ea 19 92 bc
       -0.08886858 -0.017834622
