checkpoints/VQE-H2-8b1cf0f8/model.pth (torch, 49793 bytes, 11 tensors)

recurs1.weight_ih f4 [120, 2]
-0.043460853 0.27811286 -0.18609901 -0.016495168 -0.14340523 -0.09045149 -0.021856299 0.34957844
-0.083082005 0.09827344 -0.16017908 0.11738124 -0.21327163 -0.012722178 -0.10856015 0.16377658
-0.0065763695 0.26509467 -0.17162916 -0.14542614 0.036822107 0.21048574 -0.05846218 0.19304405
-0.14037566 -0.06823781 0.09899118 0.002264519 -0.13389091 -0.11932512 -0.17724466 0.10165705
-0.18504715 -0.12772702 -0.22722769 -0.17345227 -0.17495215 0.27379173 0.01972348 0.22983578
-0.023938205 0.03909009 -0.01549247 -0.17306964 -0.2085729 -0.054295078 -0.008486084 -0.014250758
-0.09447034 0.10785315 0.037321214 0.33051205 0.027364274 0.15843159 0.10621823 -0.12036545
-0.0018039675 -0.012000542 -0.2379986 -0.04057175 0.08079301 0.27481198 -0.11025304 0.21375136
0.06195747 -0.1837657 -0.011192213 0.27148187 0.10218902 0.28776994 -0.15555081 0.124069355
0.0837409 0.23768902 0.17916277 0.351741 0.016588895 0.046341594 0.0034845287 -0.1801071
-0.17259325 0.25597256 0.14685902 -0.07978856 -0.032244705 -0.14322601 -0.0390396 0.10941358
0.046228625 -0.20153822 0.04351487 0.019617012 0.110028446 0.03677635 -0.18965244 -0.118479416
0.08604562 0.1828383 -0.17014073 0.057652365 0.16176137 0.27107498 -0.100578025 -0.023919672
-0.14226529 0.12596335 -0.19704069 -0.28913918 0.0026708774 0.19318274 -0.11369354 0.26896718
-0.12035051 0.31295013 0.12219119 -0.14535768 -0.039870776 0.14316799 0.023579106 0.143467
0.033901684 0.19430554 -0.05792621 0.27315563 -0.1730841 -0.29012474 -0.11499799 0.03312811
-0.04543135 -0.34788385 -0.07720286 0.22219849 -0.08938362 -0.20834012 0.15685429 -0.19623154
0.028074436 -0.20071474 0.064614035 0.2927906 0.15183492 0.28360775 0.148096 0.17798582
-0.18658417 -0.23404434 0.15937077 -0.19161718 -0.12720995 -0.20037712 -0.1855028 -0.32063338
-0.009738755 0.28008056 0.05136004 -0.31836626 0.096196085 -0.32805413 -0.021384642 -0.2224847
-0.008137422 -0.1650349 -0.19216622 -0.3481902 -0.057751324 0.19062887 -0.07488778 0.26775035
-0.18843234 0.09352236 0.20319647 -0.23767708 0.1436573 0.19941577 -0.12993191 0.2802532
-0.011524437 -0.26558608 0.13830017 -0.34818977 -0.017290695 0.17916724 0.104563415 0.19990642
0.017321846 -0.10151395 -0.095825784 0.18025658 -0.2172634 0.17828234 0.08074796 0.32449174
-0.14649637 0.15560217 -0.15397398 0.092507064 -0.15899386 0.27864438 -0.1562084 -0.08582444
-0.036711268 0.21558905 -0.16901802 0.012167021 -0.20877902 0.003794234 -0.08061804 0.3598169
0.02831931 -0.071061365 -0.08201729 -0.11582932 -0.033996727 -0.07899753 -0.11878521 0.009047581
-0.18696396 0.06299514 0.07831094 0.02562562 -0.023713922 0.34951892 0.036576584 0.06662664
-0.2143139 0.20244436 -0.23354852 -0.2035406 -0.07021447 0.13879229 -0.036498494 0.339696
-0.0053247097 0.3213189 0.09921052 -0.10339009 0.05509558 0.015268456 -0.14929388 0.11566603
00000000: 0204 32bd cf64 8e3e bd90 3ebe e020 87bc
00000010: d2d8 12be a13e b9bd fb0b b3bc f2fb b23e
00000020: e626 aabd 9643 c93d fc05 24be 9365 f03d
00000030: e163 5abe af70 50bc c954 debd 0cb5 273e
00000040: 967e d7bb 7dba 873e 8ebf 2fbe 97ea 14be
00000050: c7d2 163d 9389 573e 0a76 6fbd 57ad 453e
00000060: a3be 0fbe 44c0 8bbd e3bb ca3d 5368 143b
00000070: b31a 09be ba60 f4bd a07f 35be 9231 d03d
00000080: 007d 3dbe dfca 02be 60ae 68be 799d 31be
00000090: a826 33be 6e2e 8c3e 2393 a13c 125a 6b3e
000000a0: 0e1a c4bc ee1c 203d 21d4 7dbc 2b39 31be
000000b0: 2294 55be 8464 5ebd 3709 0bbc 037c 69bc
000000c0: aa79 c1bd 1de2 dc3d 21de 183d e038 a93e
000000d0: 0b2b e03c e43b 223e f288 d93d 2982 f6bd
000000e0: 1b73 ecba ec9d 44bc e8b5 73be 902e 26bd
000000f0: ce76 a53d 28b4 8c3e 59cc e1bd a3e1 5a3e
00000100: 1ec7 7d3d 132d 3cbe 8b5f 37bc acff 8a3e
00000110: 7a48 d13d 9556 933e b648 1fbe 1318 fe3d
00000120: 5980 ab3d c064 733e 7276 373e 6517 b43e
00000130: 6fe5 873c afd0 3d3d b15c 643b ff6d 38be
00000140: 49bc 30be d60e 833e 3662 163e 2f68 a3bd
00000150: 0613 04bd d7a9 12be fde7 1fbd 3a14 e03d
00000160: 3a5a 3d3d 0960 4ebe a63c 323d dbb3 a03c
00000170: 9856 e13d cca2 163d 4034 42be 56a5 f2bd
00000180: b038 b03d f739 3b3e 5f39 2ebe e324 6c3d
00000190: c6a4 253e 57ca 8a3e dafb cdbd 30f3 c3bc
000001a0: fead 11be 89fc 003e 09c5 49be 0d0a 94be
000001b0: e309 2f3b b2d1 453e 29d8 e8bd 11b6 893e
000001c0: 547a f6bd 003b a03e 603f fa3d a5d8 14be
000001d0: 8a4f 23bd a19a 123e f828 c13c 03e9 123e
000001e0: 7edc 0a3d 08f8 463e 0944 6dbd 0edb 8b3e
000001f0: f53c 31be 3b8b 94be 1184 ebbd 57b1 073d
00000200: 3916 3abd d51d b2be 881c 9ebd 0088 633e
00000210: c20e b7bd 1d57 55be 699e 203e ecf0 48be
00000220: 5cfc e53c 2a88 4dbe 5d54 843d a6e8 953e
00000230: 9d7a 1b3e 0935 913e 7aa6 173e ea41 363e
00000240: ec0f 3fbe 52a9 6fbe 1732 233e 4b37 44be
00000250: 5343 02be a92f 4dbe 72f4 3dbe 0f2a a4be
00000260: 4d8f 1fbc b866 8f3e e85e 523d e700 a3be
00000270: 7402 c53d b6f6 a7be d82e afbc 07d3 63be
00000280: d252 05bc e9fe 28be 39c7 44be fc45 b2be
00000290: a78c 6cbd 3734 433e c45e 99bd 9316 893e
000002a0: 68f4 40be a788 bf3d bc12 503e 9f61 73be
000002b0: e61a 133e a633 4c3e df0c 05be 597d 8f3e
000002c0: fed0 3cbc e6fa 87be 8f9e 0d3e ee45 b2be
000002d0: 37a5 8dbc 9e77 373e 5825 d63d 45b4 4c3e
000002e0: 8be6 8d3c 8ce6 cfbd 4f40 c4bd 2e95 383e
000002f0: 4c7a 5ebe a58f 363e 305f a53d c823 a63e
00000300: 2503 16be 2d56 1f3e 5bab 1dbe 5874 bd3d
00000310: 49cf 22be 7aaa 8e3e 18f5 1fbe b9c4 afbd
00000320: 8e5e 16bd 60c3 5c3e 0f13 2dbe 2f58 473c
00000330: 2bca 55be afa8 783b 121b a5bd ec39 b83e
00000340: e6fd e73c 9f88 91bd aef8 a7bd ec37 edbd
00000350: 2740 0bbd 75c9 a1bd a945 f3bd 4e3c 143c
00000360: 7b73 3fbe 9903 813d 7c61 a03d d2ec d13c
00000370: b343 c2bc 25f4 b23e 54d1 153d 8c73 883d
00000380: 1a75 5bbe 934d 4f3e 5827 6fbe f26c 50be
00000390: 9bcc 8fbd 911f 0e3e 727f 15bd a2ec ad3e
000003a0: e77a aebb e983 a43e e32e cb3d 2fbe d3bd
000003b0: e7ab 613d 8c28 7a3c 7fe0 18be 50e2 ec3d

recurs1.weight_hh f4 [120, 30]
0.10009322 0.18587455 -0.10623965 0.028530462 0.029451735 -0.13521814 0.10099014 -0.19148631
-0.037641793 0.01488849 -0.03948068 0.05008032 0.022185476 -0.093951955 -0.10429342 -0.19310409
-0.11441207 -0.06530718 -0.1354124 -0.16357571 -0.15045537 0.06454273 0.13205911 0.2198997
0.10261361 -0.10970954 0.001716099 0.07261177 0.10957953 -0.013656452 -0.03631163 -0.056529496
-0.16353977 0.09187723 -0.12956461 -0.11217772 0.14267282 -0.16470313 -0.066666946 0.030185828
0.039110076 -0.10171159 -0.18122156 0.09144873 0.025633384 0.12987271 -0.046694048 -0.013865487
-0.09142843 -0.04811659 -0.16858 0.04120523 0.074448034 -0.0011879769 0.012210476 -0.16836059
0.17883565 -0.11445628 0.0401307 -0.09398864 -0.08047529 -0.0632137 0.0061181723 0.09468225
0.14834148 -0.13592488 0.1314538 0.09645031 0.08160681 -0.13359992 -0.25787678 -0.13322018
0.1436608 -0.10564884 0.1777589 0.23701513 -0.2029316 0.11314455 0.097333945 0.03926289
-0.036377613 0.13941349 -0.2387433 -0.09259187 0.18351464 0.15797251 0.09768798 -0.09389776
0.17039758 0.015297186 -0.10232043 -0.08412878 0.08603376 0.15636025 -0.21915546 0.13233218
0.077238604 0.119290926 0.10446901 0.21489853 0.046987496 0.0011277958 -0.039687846 0.044804107
-0.13779074 -0.014350953 0.234031 -0.11069036 -0.17684399 0.0047298563 -0.11566982 0.07089859
0.042864993 0.21493207 0.07725506 0.017603768 -0.0016161426 0.17196977 -0.19928719 -0.064233355
-0.051023085 -0.1359285 -0.15504892 0.23037906 0.0730169 0.2571886 0.10483729 -0.22790377
-0.1983591 -0.048605405 -0.078843564 0.16723262 -0.099574834 -0.16876338 -0.14726715 -0.0736337
0.1342661 0.14301808 0.04026428 0.079718255 0.078081354 -0.08810275 0.10459289 0.12664582
0.14126197 0.091427766 0.16805519 0.14404896 -0.12773366 0.039869364 0.09359662 -0.021893462
-0.11461528 -0.036571138 -0.18990281 0.16306236 0.12920146 -0.08850368 -0.15734108 0.17171057
0.16538791 0.03989709 -0.15098551 0.09186052 0.15903765 -0.22332549 0.23556224 -0.0014621551
-0.14550336 0.017616421 -0.20284864 -0.062824 0.17318779 0.04810057 -0.0380157 -0.14953981
0.048314493 0.0022393235 -0.0017441639 0.10110982 0.08306231 -0.050260555 -0.014374048 0.16414765
0.01804877 -0.08234618 -0.07718042 -0.21085206 -0.14870141 0.07712183 -0.060895685 0.12420056
0.10577811 -0.06787344 -0.09636807 -0.116217166 0.10200397 -0.22739978 0.0034112663 -0.22176276
-0.25577688 -0.23708893 0.010623014 0.14331183 -0.107138745 0.06800516 0.009056382 0.11711845
-0.061625574 -0.25112057 0.18108359 0.13999362 0.12940513 0.123607285 -0.17735223 0.18695761
-0.027058192 0.055082116 -0.17842154 -0.013489987 -0.12397099 -0.029893791 -0.06885121 -0.17658533
0.053014293 -0.009496384 0.09856006 -0.2463633 -0.18341137 -0.08481081 0.043204583 0.12965403
0.14152794 0.06084403 0.09390658 -0.21959771 -0.113260485 0.13294418 -0.14350234 0.024134872
-0.05452007 -0.0128901685 -0.21616855 0.16910198 -0.10217906 0.22381228 0.0503492 0.03343876
-0.0644546 0.015305136 0.05098251 0.087689474 0.02992274 -0.20047131 0.18845809 -0.10326672
00000000: adfd cc3d e655 3e3e 2c94 d9bd b7b8 e93c
00000010: c444 f13c a076 0abe ebd3 ce3d fd14 44be
00000020: 482e 1abd daee 733c 7eb6 21bd 0621 4d3d
00000030: 51be b53c e269 c0bd ca97 d5bd 14bd 45be
00000040: e050 eabd c5bf 85bd 8ca9 0abe 6480 27be
00000050: f910 1abe fb2e 843d 813a 073e 632d 613e
00000060: 1627 d23d 65af e0bd baee e03a 7bb5 943d
00000070: 3c6b e03d 50bf 5fbc 81bb 14bd 798b 67bd
00000080: f876 27be 212a bc3d 96ac 04be 6fbd e5bd
00000090: d318 123e f0a7 28be ae88 88bd 4548 f73c
000000a0: e331 203d 2b4e d0bd 2592 39be 7949 bb3d
000000b0: 1afd d13c 5afd 043e 4242 3fbd 112c 63bc
000000c0: d43e bbbd e715 45bd 3ca0 2cbe d1c6 283d
000000d0: 3678 983d e4b5 9bba 730e 483c b866 2cbe
000000e0: b120 373e 0e68 eabd 1760 243d 1e7d c0bd
000000f0: 3bd0 a4bd 2f76 81bd f37a c83b c4e8 c13d
00000100: d4e6 173e e42f 0bbe d39b 063e bd87 c53d
00000110: 7921 a73d 6bce 08be 6d08 84be df6a 08be
00000120: d11b 133e 6b5e d8bd 6e06 363e 18b4 723e
00000130: 4dcd 4fbe 54b8 e73d 0557 c73d 20d2 203d
00000140: b100 15bd 69c2 0e3e 2079 74be cea0 bdbd
00000150: 43eb 3b3e 8cc3 213e a310 c83d 784d c0bd
00000160: b47c 2e3e 0ca1 7a3c 608d d1bd b64b acbd
00000170: 7832 b03d e71c 203e 4a6a 60be 1682 073e
00000180: 462f 9e3d cd4e f43d d9f3 d53d 5c0e 5c3e
00000190: f675 403d 8cd2 933a b98f 22bd 8384 373d
000001a0: 0419 0dbe 4220 6bbc d3a5 6f3e a1b1 e2bd
000001b0: 9716 35be e9fc 9a3b 4ce4 ecbd 4833 913d
000001c0: 3493 2f3d 2717 5c3e e737 9e3d c735 903c
000001d0: bfd4 d3ba d818 303e f111 4cbe c78c 83bd
000001e0: 95fd 50bd d730 0bbe 25c5 1ebe 7de8 6b3e
000001f0: e289 953d 39ae 833e efb4 d63d 9b5f 69be
00000200: a61e 4bbe 7616 47bd bc78 a1bd 073f 2b3e
00000210: e4ed cbbd 4fd0 2cbe 33cd 16be 44cd 96bd
00000220: 0d7d 093e 5573 123e 28ec 243d 5343 a33d
00000230: 1ee9 9f3d 376f b4bd cc34 d63d 71af 013e
00000240: faa6 103e 7b3e bb3d a916 2c3e 9281 133e
00000250: 9dcc 02be 0f4e 233d 96af bf3d eb59 b3bc
00000260: 6abb eabd 9ecb 15bd e275 42be d2f9 263e
00000270: 634d 043e 6b41 b5bd 051e 21be e5d4 2f3e
00000280: 735b 293e 226b 233d f29b 1abe 5e21 bc3d
00000290: c4da 223e 70af 64be 3a37 713e c9a5 bfba
000002a0: d5fe 14be 5050 903c 8eb7 4fbe dfa9 80bd
000002b0: 2458 313e 1a05 453d 5ab6 1bbd f720 19be
000002c0: 6be5 453d 9dc1 123b 6e9c e4ba aa12 cf3d
000002d0: 931c aa3d 03de 4dbd 2181 6bbc 5216 283e
000002e0: 04db 933c 1da5 a8bd c510 9ebd 9ae9 57be
000002f0: 2f45 18be 0df2 9d3d c16d 79bd dd5c fe3d
00000300: 32a2 d83d 3b01 8bbd 9f5c c5bd 4403 eebd
00000310: 75e7 d03d 7ddb 68be 8d8f 5f3b c715 63be
00000320: 30f5 82be 71c7 72be 260c 2e3c 56c0 123e
00000330: 8f6b dbbd 4a46 8b3d 3861 143c ccdb ef3d
00000340: 196b 7cbd e092 80be fa6d 393e 7d5a 0f3e
00000350: c782 043e d125 fd3d d39b 35be d171 3f3e
00000360: 24a9 ddbc c99d 613d 23b4 36be 1b05 5dbc
00000370: 81e4 fdbd d3e3 f4bc dd01 8dbd c9d2 34be
00000380: 8425 593d b996 1bbc dbd9 c93d a946 7cbe
00000390: 31d0 3bbe 4ab1 adbd 4af7 303d 07c4 043e
000003a0: b3ec 103e 9737 793d 1852 c03d 39de 60be
000003b0: 1df5 e7bd 8522 083e 47f2 12be 7fb6 c53c
000003c0: 7050 5fbd 4931 53bc 4a5b 5dbe 1229 2d3e
000003d0: 4143 d1bd 0c2f 653e f63a 4e3d 15f7 083d
000003e0: c600 84bd 65c2 7a3c 09d3 503d 8a96 b33d
000003f0: 8920 f53c 5a48 4dbe 28fb 403e 817d d3bd

recurs1.bias_ih f4 [120]
-0.11282725 -0.086381815 0.059984002 0.17571379 0.17971307 0.15077607 0.033781976 0.1999584
0.09139807 0.13635713 0.06498785 0.1067345 0.18393043 0.20482996 0.16512543 0.1560803
0.183627 0.07072155 0.20650004 0.12608321 0.17512682 0.059773464 -0.028855111 0.1822845
0.13203487 0.22214738 0.12253567 0.12962563 0.20861644 0.09739373 0.1748212 0.11910666
0.16525678 0.15888524 -0.1119661 0.117440924 0.16013181 -0.1307288 0.0042549996 -0.08992609
-0.015925745 0.032270357 0.18249965 -0.03934682 -0.111792974 0.14326404 0.14406279 -0.0007840189
0.18418218 0.1879324 -0.021407785 0.04382111 0.022267329 0.034995712 -0.011789262 -0.03786215
-0.081641115 0.105188146 -0.03580005 -0.046767827 0.20859064 0.004592143 0.14329764 0.2612472
-0.028682731 0.046310857 0.15452394 -0.15244748 -0.07333187 -0.014209395 0.0005006741 0.051745497
0.10651501 -0.10441656 0.08260383 0.18499993 -0.12759936 -0.08664391 -0.1180666 0.075033695
-0.20151867 -0.060776696 0.13608384 -0.12572159 0.22224833 -0.12702982 0.066396475 -0.010946293
-0.007552074 0.117509685 0.22182441 -0.052496273 0.20331648 0.10558081 0.11777073 -0.044039372
0.090008534 0.17165804 -0.081914246 -0.090941176 -0.11511372 0.10468492 0.06155552 -0.03462977
0.24473551 0.0819759 -0.01870538 0.1488544 -0.04060533 0.036777887 0.121790975 0.10874454
-0.038630262 0.30771863 0.17842498 -0.077200055 0.124452025 0.12477749 -0.06706647 0.010254046
00000000: f911 e7bd f3e8 b0bd c9b1 753d 51ee 333e
00000010: b406 383e 0b65 1a3e f85e 0a3d e5c1 4c3e
00000020: e92e bb3d 34a1 0b3e 5a18 853d 9e97 da3d
00000030: 4258 3c3e f2be 513e a416 293e 84d3 1f3e
00000040: b708 3c3e 76d6 903d bf74 533e f51b 013e
00000050: 7254 333e 05d5 743d 8e61 ecbc caa8 3a3e
00000060: 2634 073e 9a7a 633e fbf3 fa3d 95bc 043e
00000070: 8c9f 553e 5d76 c73d 5404 333e 31ee f33d
00000080: 1339 293e d0b2 223e 7c4e e5bd de84 f03d
00000090: 98f9 233e c5dd 05be 866d 8b3b 2b2b b8bd
000000a0: b576 82bc ec2d 043d 30e1 3a3e 222a 21bd
000000b0: b7f3 e4bd cfb3 123e 3285 133e 9e86 4dba
000000c0: 419a 3c3e 5a71 403e 615f afbc c47d 333d
000000d0: f969 b63c aa57 0f3d c027 41bc 5815 1bbd
000000e0: 7533 a7bd e26c d73d 13a3 12bd 9f8f 3fbd
000000f0: c998 553e b079 963b 9ebc 123e 31c2 853e
00000100: 0cf8 eabc 74b0 3d3d 863b 1e3e 311b 1cbe
00000110: 052f 96bd 86ce 68bc ac3f 033a 16f3 533d
00000120: 8b24 da3d 59d8 d5bd 322c a93d 9f70 3d3e
00000130: 68a9 02be 5d72 b1bd e7cc f1bd 44ab 993d
00000140: e95a 4ebe fcf0 78bd 9059 0b3e 29bd 00be
00000150: 1195 633e 1b14 02be e0fa 873d 1558 33bc
00000160: 6377 f7bb eba8 f03d f025 633e 5506 57bd
00000170: 3232 503e c03a d83d c831 f13d a162 34bd
00000180: 6556 b83d 20c7 2f3e a8c2 a7bd 5e3f babd
00000190: bec0 ebbd 0c65 d63d a421 7c3d f2d7 0dbd
000001a0: f29b 7a3e fbe2 a73d 063c 99bc 4a6d 183e
000001b0: c651 26bd 69a4 163d 8c6d f93d 75b5 de3d
000001c0: c43a 1ebd 4c8d 9d3e 0ab5 363e 101b 9ebd
000001d0: b4e0 fe3d 578b ff3d 255a 89bd 9600 283c

recurs1.bias_hh f4 [120]
-0.10152394 0.15384191 0.13096364 0.113595985 0.044996794 0.25362986 0.10548209 -0.11189661
0.043695476 0.1678848 0.10223087 0.05031389 -0.0045087556 -0.048847623 0.21751058 0.028129648
0.24001361 0.06451687 0.08352853 -0.10295778 -0.022006663 0.24218586 -0.043702755 0.23808217
-0.09587285 0.10125242 -0.11375684 -0.08236324 -0.08406889 0.096829735 0.038480148 -0.10835637
0.08959632 0.13863766 0.18602881 0.18400525 0.110298455 -0.056227997 0.0030769922 0.18303479
0.118983574 -0.04335551 0.22268242 -0.14589879 0.2173501 0.14683206 -0.092277914 -0.116595544
0.17066233 0.22729862 0.034764603 -0.034567375 0.09406696 0.1531399 0.010404724 0.19072364
0.14052635 0.059524167 0.113211185 -0.13019659 -0.037757523 -0.0045850337 0.061216123 0.06990862
0.065974236 0.07469489 -0.18348353 0.030757273 -0.03343532 -0.165827 0.019048586 -0.041764896
-0.08644176 -0.19567046 0.22112246 -0.09105413 0.00023253587 0.18342485 -0.0010512532 -0.1537632
-0.21068859 0.05834466 -0.07883447 -0.0029575161 0.13209437 -0.09341248 0.16130757 -0.058604024
-0.07593681 -0.11692331 0.12215349 -0.051381234 0.13930145 0.033756718 0.24664809 -0.0058878036
-0.054090153 0.015543855 -0.036716577 0.14728118 -0.0025046722 0.13740489 0.2199764 0.12869422
0.041212823 0.22818154 0.0005597498 -0.049476102 0.042227037 -0.042107377 -0.116095364 0.11301715
0.24267013 0.062052153 0.04457416 -0.085015975 0.07683568 0.10180552 0.035913687 0.27747387
00000000: c9eb cfbd bc88 1d3e 551b 063e 03a5 e83d
00000010: 8f4e 383d c6db 813e fe06 d83d 0d2a e5bd
00000020: 07fa 323d fee9 2b3e 6b5e d13d f015 4e3d
00000030: 2fbe 93bb 7214 48bd 18bb 5e3e 2670 e63c
00000040: 21c6 753e 6c21 843d 0211 ab3d 87db d2bd
00000050: 5147 b4bc 92ff 773e a901 33bd d0cb 733e
00000060: fc58 c4bd 6e5d cf3d 59f9 e8bd 0fae a8bd
00000070: 4f2c acbd ab4e c63d 5c9d 1d3d f2e9 ddbd
00000080: 477e b73d 08f7 0d3e 567e 3e3e df6b 3c3e
00000090: 28e4 e13d 544f 66bd 5da7 493b 796d 3b3e
000000a0: a9ad f33d 8c95 31bd dc06 643e 7e66 15be
000000b0: 0691 5e3e 255b 163e 34fc bcbd a5c9 eebd
000000c0: 1bc2 2e3e f8c0 683e 5465 0e3d 8596 0dbd
000000d0: 2ea6 c03d b5d0 1c3e 9378 2a3c 0f4d 433e
000000e0: 24e6 0f3e 9dcf 733d 44db e73d 4152 05be
000000f0: a2a7 1abd 0d3e 96bb c2bd 7a3d 402c 8f3d
00000100: 801d 873d a2f9 983d 1be3 3bbe adf6 fb3c
00000110: 79f3 08bd 8ece 29be c80b 9c3c ab11 2bbd
00000120: 6108 b1bd d65d 48be ed6d 623e 967a babd
00000130: dfd4 7339 b9d3 3b3e 34ca 89ba 1a74 1dbe
00000140: c0be 57be cffa 6e3d f773 a1bd e3d2 41bb
00000150: bf43 073e 0b4f bfbd d02d 253e c60a 70bd
00000160: c284 9bbd 7d75 efbd 9c2b fa3d 2175 52bd
00000170: 0aa5 0e3e 7c44 0a3d 5191 7c3e 7aee c0bb
00000180: a38d 5dbd a7ab 7e3c 1f64 16bd e1d0 163e
00000190: 6d25 24bb deb3 0c3e 7e41 613e 6bc8 033e
000001a0: c7ce 283d 6ca8 693e 2cbc 123a 74a7 4abd
000001b0: 42f6 2c3d c978 2cbd 68c3 edbd 8975 e73d
000001c0: 857e 783e 662a 7e3d 6593 363d db1c aebd
000001d0: 065c 9d3d 6a7f d03d 3b1a 133d 0e11 8e3e

recurs2.weight_ih f4 [120, 30]
-0.08276147 -0.0052596536 -0.06901783 0.22231647 0.13069308 0.20652181 0.15755919 0.038867116
-0.1747446 -0.14369814 0.058672078 -0.15953763 0.13765854 0.024431303 0.15494375 -0.14746138
0.112275064 -0.026277328 -0.089050025 -0.009372679 -0.09141273 -0.08731662 0.046099 -0.14298238
0.28289962 0.10335007 0.1642687 0.08978698 -0.18347916 -0.11472777 -0.11944843 -0.09754032
-0.072459735 0.20280868 0.10194215 0.14967096 -0.06843727 0.106475785 -0.06301103 -0.11416661
0.09403349 0.0945523 -0.08720922 0.11581424 0.07929792 0.09701851 -0.2464603 0.042129237
-0.10745025 -0.15793908 -0.14368065 0.031036131 -0.056301642 -0.18406883 0.2014588 0.0033137815
-0.12270795 -0.016060226 0.063200906 0.020471603 0.09840857 -0.028066587 0.17254947 -0.053906415
-0.07143808 0.17435786 -0.09570072 0.06577244 0.13344985 -0.23089194 -0.08823479 0.13196932
0.028254045 -0.027211461 0.12803023 0.11893005 -0.13527235 0.044409852 0.1212806 -0.056341793
-0.24160765 0.095504664 -0.05316759 -0.103891805 0.17831081 -0.003330801 -0.076460764 -0.1373695
-0.00834947 -0.033871025 0.033305526 -0.096725784 0.23672786 0.1774986 0.0026989442 0.095416375
0.0044243466 0.07606665 -0.017716466 -0.063591056 -0.073241256 0.05783947 -0.11510134 -0.019062584
-0.022539392 -0.028055586 0.042973332 -0.13326178 0.10383494 -0.18046854 0.07690096 0.062215533
-0.0820525 0.036528844 -0.06813317 -0.18291269 -0.036390927 -0.012191806 0.0023736386 -0.18689777
0.23424421 0.035529163 -0.0601699 0.07081004 -0.12639014 0.09578478 0.03921366 -0.102289855
-0.03918058 0.09198365 -0.084085055 -0.029701684 -0.043622397 -0.18129486 0.14311297 -5.1233917e-05
-0.15438718 0.015111959 0.14323701 0.029434752 -0.18268384 0.15635334 -0.111741476 -0.104346976
0.16022265 0.0925889 0.24218233 0.14998245 -0.11705224 0.011811528 -0.035927337 0.040792726
0.23755969 0.17770587 -0.20977746 -0.020034995 -0.17970651 0.022826398 -0.08675546 -0.21921195
-0.029671334 0.07729674 0.047523387 0.08202962 0.13200581 0.09952196 -0.092154555 0.011069935
-0.04374984 0.081768796 -0.017232852 -0.11138745 -0.15247123 -0.2355431 0.027244143 -0.048110686
0.25745595 -0.042897608 0.045607697 0.05278408 -0.08130583 -0.113081895 0.0720957 0.1272841
-0.14379592 0.06995876 -0.20733121 -0.042867597 -0.0027014054 0.0096358005 0.01027668 0.09428997
-0.085982926 0.08399978 -0.077727124 -0.1406563 -0.13011011 -0.23491974 0.10531935 -0.13489994
-0.21944107 0.014279564 -0.111666925 0.029213842 0.1526932 -0.09894026 0.1735316 0.052298926
-0.1675091 -0.008868495 0.17310785 -0.016137399 0.040206295 0.07696238 -0.018059775 0.078682214
-0.19303367 0.0976152 0.03737617 0.015295711 0.059632774 -0.13905007 -0.054603983 -0.06329464
0.15926884 -0.10826189 0.01573753 -0.071150616 0.11528431 -0.24045873 -0.07020903 0.116362855
-0.1311021 -0.007839863 0.17099513 0.022963291 0.08934782 0.0730534 -0.1329919 0.13046922
0.045801356 0.13795342 0.043702934 0.01592524 0.05688918 0.20493868 0.1663148 -0.18342727
-0.025612088 -0.12644908 0.12599826 0.1347406 -0.14685474 -0.047649063 0.20411412 0.1155818
00000000: d87e a9bd 2c59 acbb 3859 8dbd eea6 633e
00000010: 68d4 053e 747a 533e 3257 213e 2033 1f3d
00000020: 40f0 32be 9b25 13be 2252 703d d55d 23be
00000030: 5cf6 0c3e 2824 c83c 93a9 1e3e 1e00 17be
00000040: 78f0 e53d 8d43 d7bc dc5f b6bd dd8f 19bc
00000050: 9936 bbbd 0ed3 b2bd 4ed2 3c3d f969 12be
00000060: 38d8 903e 34a9 d33d 0e36 283e 3ce2 b73d
00000070: f6e1 3bbe 65f6 eabd 61a1 f4bd 38c3 c7bd
00000080: c565 94bd 14ad 4f3e 0cc7 d03d 5843 193e
00000090: d728 8cbd fa0f da3d ed0b 81bd 2fd0 e9bd
000000a0: a194 c03d a3a4 c13d bf9a b2bd 0430 ed3d
000000b0: f366 a23d a4b1 c63d 1760 7cbe b58f 2c3d
000000c0: e00e dcbd c8ba 21be 0521 13be 7c3f fe3c
000000d0: 8d9c 66bd 8a7c 3cbe 374b 4e3e 072c 593b
000000e0: 4e4e fbbd bc90 83bc 7a6f 813d 10b4 a73c
000000f0: 6f8a c93d e6eb e5bc cfb0 303e f9cc 5cbd
00000100: 214e 92bd de8a 323e bdfe c3bd b3b3 863d
00000110: 14a7 083e f06e 6cbe 71b4 b4bd f722 073e
00000120: 0775 e73c 92ea debc 5b1a 033e 9991 f33d
00000130: d684 0abe 1be7 353d f761 f83d a7c6 66bd
00000140: ff67 77be f397 c33d 42c6 59bd 3ac5 d4bd
00000150: 1c97 363e 9149 5abb 7697 9cbd 97aa 0cbe
00000160: 37cc 08bc 58bc 0abd 606b 083d 2b18 c6bd
00000170: ca68 723e 31c2 353e c5e0 303b a969 c33d
00000180: 1cfa 903b d5c8 9b3d 1f22 91bc 073c 82bd
00000190: 83ff 95bd 15e9 6c3d 40ba ebbd 2329 9cbc
000001a0: 88a4 b8bc d4d4 e5bc ce04 303d c775 08be
000001b0: 6aa7 d43d bfcc 38be 407e 9d3d b7d5 7e3d
000001c0: 240b a8bd 459f 153d 6789 8bbd 774d 3bbe
000001d0: a70e 15bd 24c0 47bc 0c8f 1b3b 2162 3fbe
000001e0: b7dd 6f3e 0787 113d b774 76bd db04 913d
000001f0: 6b6c 01be d02a c43d 819e 203d 587d d1bd
00000200: d17b 20bd ed61 bc3d c934 acbd f250 f3bc
00000210: 66ad 32bd 5ca5 39be 358c 123e 00e4 56b8
00000220: ac17 1ebe 2698 773c b9ac 123e 2621 f13c
00000230: 7911 3bbe 171b 203e b7d8 e4bd deb3 d5bd
00000240: 6811 243e 409f bd3d a5fe 773e 0095 193e
00000250: 16b9 efbd 2485 413c 8b28 13bd 4616 273d
00000260: d942 733e 87f8 353e e7cf 56be 6e20 a4bc
00000270: fc04 38be 6dfe ba3c d9ac b1bd 1979 60be
00000280: 4c11 f3bc c14d 9e3d e2a7 423d 25ff a73d
00000290: 882c 073e 2bd2 cb3d 87bb bcbd ac5e 353c
000002a0: 0833 33bd 6676 a73d e92b 8dbc 1a1f e4bd
000002b0: 6b21 1cbe 3632 71be 1c2f df3c b60f 45bd
000002c0: 44d1 833e 67b5 2fbd 23cf 3a3d 1f34 583d
000002d0: ac83 a6bd 7b97 e7bd e9a6 933d c356 023e
000002e0: 3d3f 13be 8a46 8f3d a24e 54be ef95 2fbd
000002f0: 100a 31bb 7adf 1d3c 855f 283c 1a1b c13d
00000300: d117 b0bd 1408 ac3d 662f 9fbd 3508 10be
00000310: 963b 05be cd8e 70be acb1 d73d 3623 0abe
00000320: 29b5 60be d5f4 693c a1b1 e4bd de51 ef3c
00000330: 9b5b 1c3e 31a1 cabd 45b2 313e 6637 563d
00000340: 8187 2bbe 2a4d 11bc 2f43 313e 9432 84bc
00000350: 5baf 243d 749e 9d3d 18f2 93bc 2424 a13d
00000360: 9eaa 45be 7aea c73d c117 193d dd9a 7a3c
00000370: 7f41 743d 2463 0ebe 6da8 5fbd 9fa0 81bd
00000380: 5f17 233e 69b8 ddbd feeb 803c 6ab7 91bd
00000390: 2e1a ec3d d03a 76be c0c9 8fbd a64f ee3d
000003a0: a13f 06be c572 00bc 5919 2f3e 831d bc3c
000003b0: fdfb b63d 059d 953d 072f 08be b999 053e
000003c0: 349a 3b3d a943 0d3e d901 333d a675 823c
000003d0: a104 693d 72db 513e 6d4e 2a3e 5cd4 3bbe
000003e0: 71d0 d1bc de7b 01be b005 013e 71f9 093e
000003f0: 1761 16be aa2b 43bd 4b03 513e 27b6 ec3d

recurs2.weight_hh f4 [120, 30]
0.04137087 0.069228776 0.17481387 -0.17230974 0.09339688 -0.12374084 0.16802129 -0.13435142
-0.027191773 0.1160639 -0.024712358 0.050016865 -0.014401164 0.044209417 -0.044085324 -0.0078099975
0.052977353 0.14073767 -0.16073504 -0.09034773 -0.05554883 -0.11413889 -0.10211325 -0.02029781
0.055901088 -0.048215978 0.014350742 -0.058648013 -0.17239131 0.13408096 -0.01790274 -0.10058976
-0.13894026 0.07296192 -0.031367645 0.05500098 -0.008105467 -0.063138984 -0.093498476 0.107007116
-0.2397891 -0.057390973 -0.07862626 -0.036687948 0.14975038 0.18081062 0.18384628 -0.0653003
-0.1091905 0.07532898 0.15383038 -0.13287482 -0.10814272 -0.11889402 -0.031412136 -0.09627483
-0.17527401 0.000754852 -0.022789627 0.08662637 -0.13013642 -0.0646859 0.19265994 -0.045333512
0.1572882 -0.11466714 -0.007450396 0.022992501 -0.018661197 -0.22331208 0.09592092 -0.04807769
-0.009215783 0.035577513 0.18576859 0.044589832 0.099472925 0.011755637 0.119495966 0.09356763
0.13377227 0.020944675 -0.20488764 0.061163887 -0.15769328 -0.24403316 -0.0104253 0.03241122
-0.13393457 0.20688042 -0.027097624 -0.0022206036 0.20681189 0.07719292 -0.11251598 -0.02304781
-0.10020021 -0.1336783 0.001642875 0.004703145 -0.18938997 -0.06419069 -0.22393496 -0.061874304
0.11054172 0.0075521064 0.13068429 0.16009131 0.1058085 0.037265535 -0.0343758 -0.020654129
-0.18354443 -0.07012127 0.09800732 -0.036843214 0.012947875 0.19670834 0.09566569 0.0888797
0.137613 0.16493079 -0.057776943 0.03445296 0.096865855 0.06387959 0.21374781 -0.13205822
0.008787427 0.18442413 -0.20228271 -0.10558146 0.08763719 0.12464977 0.2573722 -0.026580192
0.1237594 -0.14118229 -0.14660159 0.012191488 -0.043041974 0.003161413 -0.07292276 0.14578281
-0.06915422 0.02690182 0.0011419378 0.18781069 0.013797437 0.23156847 -0.18031423 -0.060677156
0.17772512 0.11201869 -0.040762205 0.14779541 0.13037802 -0.15229015 0.031636998 0.12868586
-0.14158235 0.15393332 -0.11034708 -0.108178705 -0.041910507 -0.06747488 0.1898185 0.12987858
0.09604872 0.1054857 0.08423903 -0.07360198 -0.20977911 -0.123924695 -0.07010631 0.09899065
-0.09681986 0.032978456 0.023164704 0.27122062 -0.0178756 0.13586164 -0.09970926 -0.17771316
-0.026339054 0.08219722 0.10974106 0.073964715 0.15640657 -0.051300995 -0.02256543 0.1526752
-0.12086225 0.12666976 -0.080732375 0.11826138 0.096720845 0.15944754 -0.035851415 -0.022469278
-0.063054666 0.14195949 -0.0016710582 -0.039255425 0.009889268 0.06952049 -0.08894254 -0.15727448
-0.046772227 0.13876408 0.0049660965 0.010529365 0.0769583 -0.0141446255 0.14835988 -0.10665775
0.19871882 -0.0015060842 0.12787381 0.11143856 -0.22619277 0.12555726 -0.087374225 -0.106966525
0.17488815 0.033505984 -0.08712002 -0.08054936 0.12714876 -0.19789608 0.098825194 -0.0027027458
-0.14580572 0.060483787 -0.17140241 -0.038722448 -0.044818353 0.10444883 -0.03613232 -0.05078533
-0.020940762 0.19616021 -0.06189972 0.15638904 0.10505953 -0.019991348 0.0032060354 0.15312402
0.015830938 0.08131184 -0.044389118 0.009032282 -0.17494053 -0.1083117 0.24735884 0.1097804
00000000: 8074 293d d1c7 8d3d 6802 333e f771 30be
00000010: dd46 bf3d d66b fdbd c60d 2c3e 6b93 09be
00000020: 48c1 debc e9b2 ed3d 9271 cabc 7cde 4c3d
00000030: dcf2 6bbc ef14 353d d092 34bd 02eb ffbb
00000040: c8fe 583d 891d 103e ba97 24be 3b08 b9bd
00000050: 2c87 63bd a6c1 e9bd c020 d1bd 9847 a6bc
00000060: 8af8 643d 1e7e 45bd 601f 6b3c e638 70bd
00000070: 5987 30be 854c 093e c4a8 92bc 0102 cebd
00000080: 5b46 0ebe 0f6d 953d 5c7b 00bd b548 613d
00000090: cbcc 04bc 034f 81bd 217c bfbd 8c26 db3d
000000a0: 468b 75be cc12 6bbd ce06 a1bd 1a46 16bd
000000b0: 2a58 193e 6b26 393e 3342 3c3e 2abc 85bd
000000c0: 459f dfbd 1546 9a3d b685 1d3e 5610 08be
000000d0: ee79 ddbd b57e f3bd 03aa 00bd bd2b c5bd
000000e0: 087b 33be 43e1 453a 50b1 babc 2b69 b13d
000000f0: 7b42 05be 0b7a 84bd a648 453e a2af 39bd
00000100: 2810 213e 9bd6 eabd 7422 f4bb c55a bc3c
00000110: 5edf 98bc ecab 64be 3072 c43d 1ded 44bd
00000120: ccfd 16bc bab9 113d 1f3a 3e3e d4a3 363d
00000130: 76b8 cb3d b79a 403c 4dba f43d 63a0 bf3d
00000140: 99fb 083e 2b94 ab3c 11ce 51be fc86 7a3d
00000150: 597a 21be d4e3 79be e1ce 2abc a1c1 043d
00000160: 2526 09be 76d8 533e d6fb ddbc 8c87 11bb
00000170: 7fc6 533e 5217 9e3d c76e e6bd c3ce bcbc
00000180: c535 cdbd f7e2 08be bd55 d73a d71c 9a3b
00000190: 72ef 41be 6976 83bd 354f 65be e96f 7dbd
000001a0: b363 e23d a977 f73b 1ad2 053e faee 233e
000001b0: 20b2 d83d bfa3 183d a4cd 0cbd d932 a9bc
000001c0: 12f3 3bbe be9b 8fbd 10b8 c83d e9e8 16bd
000001d0: 5323 543c e96d 493e 60ec c33d 8f06 b63d
000001e0: 6cea 0c3e 9ee3 283e 84a7 6cbd 8c1e 0d3d
000001f0: 9b61 c63d 4dd3 823d b5e0 5a3e 453a 07be
00000200: 24f9 0f3c aed9 3c3e 3323 4fbe 183b d8bd
00000210: 217b b33d 6148 ff3d 4ac6 833e b4be d9bc
00000220: 9175 fd3d 1792 10be ba1e 16be cfbe 473c
00000230: c84c 30bd b52f 4f3b 8758 95bd 1748 153e
00000240: baa0 8dbd 3561 dc3c 13ad 953a 7251 403e
00000250: a50e 623c 4920 6d3e 4ba4 38be 9c88 78bd
00000260: 93fd 353e 0e6a e53d 45f6 26bd ae57 173e
00000270: d181 053e f3f1 1bbe cc95 013d 3ac6 033e
00000280: f7fa 10be b2a0 1d3e a6fd e1bd cc8c ddbd
00000290: 5aaa 2bbd 4530 8abd c85f 423e e4fe 043e
000002a0: 31b5 c43d e308 d83d 8385 ac3d a3bc 96bd
000002b0: 56d0 56be 3bcc fdbd e693 8fbd 9cbb ca3d
000002c0: 7e49 c6bd 6b14 073d e8c3 bd3c 6edd 8a3e
000002d0: da6f 92bc 501f 0b3e 5e34 ccbd 70fa 35be
000002e0: 00c5 d7bc 0457 a83d ecbf e03d d07a 973d
000002f0: 0b29 203e fe20 52bd 23db b8bc e356 1c3e
00000300: a186 f7bd b8b5 013e 0457 a5bd 0633 f23d
00000310: 9415 c63d 3746 233e efd8 12bd 7e11 b8bc
00000320: ce22 81bd d45d 113e 6907 dbba 4cca 20bd
00000330: 9906 223c c260 8e3d 8227 b6bd 900c 21be
00000340: 3c94 3fbd 2c18 0e3e a3ba a23b 5c83 2c3c
00000350: 509c 9d3d dcbe 67bc a7eb 173e 616f dabd
00000360: f27c 4b3e cd67 c5ba 5af1 023e e639 e43d
00000370: 149f 67be 1592 003e 42f1 b2bd 4411 dbbd
00000380: e115 333e 923d 093d fb6b b2bd 10f7 a4bd
00000390: 4933 023e 45a5 4abe dd64 ca3d 8d20 31bb
000003a0: 184e 15be d9bd 773d 1d84 2fbe 6e9b 1ebd
000003b0: 7393 37bd 45e9 d53d 7cff 13bd 4704 50bd
000003c0: f68b abbc 39de 483e 908a 7dbd 7324 203e
000003d0: 7329 d73d e5c4 a3bc 591c 523b 8bcc 1c3e
000003e0: e2af 813c d286 a63d 5dd1 35bd 23fc 133c
000003f0: 9c23 33be 86d2 ddbd a34b 7d3e 8cd4 e03d

recurs2.bias_ih f4 [120]
0.30674753 0.25825164 -0.0006765877 0.119226284 -0.019123983 0.034795128 0.091311574 0.29174846
0.10431985 0.29070857 -0.0578795 0.10448585 0.16230127 0.020496367 0.11124982 0.13014399
0.27505708 0.12895063 0.101951465 0.26314673 0.045295004 0.2381367 0.259912 0.009964775
0.17952211 0.051335745 0.29414082 0.101286165 0.102776736 0.24526814 0.13647017 0.18142654
-0.004655096 -0.03436793 0.11793084 0.2917612 0.21386412 0.044926766 0.2406982 -0.03758515
0.21058461 0.06772215 -0.009372971 0.10794832 0.18026556 0.2275721 0.032193672 0.12536755
0.1405187 0.07647271 0.08091445 0.26104325 0.053669486 0.20876794 -0.047530197 -0.010867445
0.12358382 0.00044037035 -0.029665578 0.049181636 -0.05394061 0.11708909 0.14290105 -0.0649765
0.06993453 0.15575609 0.093299516 -0.091872275 -0.11316433 0.0033693812 0.003969297 0.047290944
-0.19206874 0.13077836 0.258258 0.042519234 0.058449563 0.025763225 -0.09916364 -0.18350327
0.16041881 0.11900981 0.032534316 -0.13890873 -0.02553611 -0.10810353 0.029199755 0.16148269
0.21417436 0.22779039 0.16696629 0.30590847 0.10868933 0.14313675 -0.023570647 0.22129339
0.17466387 0.1975242 0.22946844 0.22369173 -0.060067926 0.094213046 -0.012432888 0.24265258
0.090823136 -0.016265431 0.22273542 0.011480522 0.10808123 0.23244344 0.2348389 0.21142271
0.12514845 0.07098138 0.1306028 -0.10845852 0.08401129 0.21851991 0.23136492 -0.044599105
00000000: 030e 9d3e 8f39 843e 085d 31ba e92c f43d
00000010: e6a9 9cbc 5685 0e3d 9001 bb3d 0e60 953e
00000020: a5a5 d53d c1d7 943e 0e13 6dbd adfc d53d
00000030: 4e32 263e ffe7 a73c f2d6 e33d 7744 053e
00000040: 48d4 8c3e a20b 043e eecb d03d 2bbb 863e
00000050: 4187 393d 1bda 733e 3013 853e 4c43 233c
00000060: a5d4 373e 6e45 523d a099 963e 1f6f cf3d
00000070: 9c7c d23d 9227 7b3e d6be 0b3e e1c7 393e
00000080: c789 98bb 63c5 0cbd b985 f13d b961 953e
00000090: 32ff 5a3e 2105 383d 9779 763e e3f2 19bd
000000a0: 7ea3 573e e9b1 8a3d 1791 19bc 0214 dd3d
000000b0: 8997 383e a908 693e 83dd 033d 5a60 003e
000000c0: 22e4 0f3e b99d 9c3d 7ab6 a53d 76a7 853e
000000d0: 89d4 5b3d 43c7 553e 06af 42bd 5e0d 32bc
000000e0: 8419 fd3d 82e1 e639 3a05 f3bc af72 493d
000000f0: d4f0 5cbd 68cc ef3d a754 123e 6612 85bd
00000100: d639 8f3d 867e 1f3e d113 bf3d 8827 bcbd
00000110: b3c2 e7bd d6d0 5c3b e010 823b 26b4 413d
00000120: abad 44be c3ea 053e 643a 843e a628 2e3d
00000130: cf68 6f3d 660d d33c 4e16 cbbd 48e8 3bbe
00000140: d444 243e 6abb f33d b442 053d 173e 0ebe
00000150: 1b31 d1bc 6265 ddbd 5334 ef3c b85b 253e
00000160: 8650 5b3e e241 693e 36f9 2a3e 09a0 9c3e
00000170: 8398 de3d 7192 123e 3b17 c1bc bc9a 623e
00000180: 16db 323e c943 4a3e c6f9 6a3e 720f 653e
00000190: c909 76bd c5f2 c03d 50b3 4bbc eb79 783e
000001a0: 7b01 ba3d 153f 85bc c114 643e cd18 3c3c
000001b0: b159 dd3d a705 6e3e 9c79 703e 327f 583e
000001c0: ea26 003e b05e 913d bebc 053e 801f debd
000001d0: 1c0e ac3d afc3 5f3e edea 6c3e 8dad 36bd

recurs2.bias_hh f4 [120]
0.19197859 0.28223595 -0.02477611 0.12688452 0.004082401 0.12726249 0.030841252 0.2874583
0.20816866 0.076115265 -0.035307173 0.044720635 0.11711608 0.15401131 0.031791255 0.01946339
0.124993555 0.006987196 0.17147568 -0.0051473924 0.080732636 -0.033268176 0.034244746 0.119182914
0.06849876 -0.022254247 0.17196825 0.031795867 0.14744897 0.16563004 0.08880326 -0.0991049
0.012171454 0.1065771 0.14177018 -0.007886 0.20297614 0.16819672 0.09987301 0.086513214
0.009675717 0.14461568 0.2112944 0.030776145 0.10913842 0.21825112 0.2012209 0.080779985
0.13305205 0.13815854 0.175487 0.034764145 0.12754753 0.09719495 -0.06583337 0.10343777
-0.04509328 0.16345666 0.07085426 0.12795252 -0.10966267 0.1255699 0.17284778 0.12914287
0.023078056 -0.05864397 0.1395076 0.075577855 -0.14040379 0.005950763 -0.054242928 0.026653891
-0.017822172 0.12375011 0.06222221 0.026800197 0.021489643 0.10435841 -0.12391609 0.13283366
-0.022128044 0.071272 -0.085602954 -0.045877393 -0.026322896 -0.009799475 -0.14951341 -0.17013438
-0.12005722 0.2493662 0.21586065 0.06749316 0.2563179 0.124484025 0.091548555 0.03445166
-0.008931723 0.24592872 0.2804804 -0.11511114 0.13517345 0.18689942 0.033812284 0.022957385
-0.03944235 0.19574943 0.31995684 0.18818912 0.08190315 0.17811328 0.0146111725 0.003935042
0.18572019 0.24689744 0.13362768 0.017781947 0.16638559 -0.10256745 0.24837978 0.010872434
00000000: 0996 443e 3b81 903e 45f7 cabc 04ee 013e
00000010: a9c5 853b 1951 023e cba6 fc3c bc2d 933e
00000020: 2a2a 553e 52e2 9b3d 419e 10bd fc2c 373d
00000030: 8eda ef3d 24b5 1d3e 8c37 023d b071 9f3c
00000040: 9ffc ff3d d9f4 e43b 5297 2f3e 75ab a8bb
00000050: 2757 a53d 3644 08bd 3844 0c3d 2c16 f43d
00000060: 1449 8c3d 8a4e b6bc 7218 303e 623c 023d
00000070: ddfc 163e ec9a 293e 7cde b53d 83f7 cabd
00000080: c76a 473c 1845 da3d 342c 113e 4834 01bc
00000090: fad8 4f3e c33b 2c3e 388a cc3d d72d b13d
000000a0: e686 1e3c 2216 143e 8f5d 583e 411e fc3c
000000b0: f783 df3d 397d 5f3e da0c 4e3e fa6f a53d
000000c0: cc3e 083e 6f79 0d3e ddb2 333e d964 0e3d
000000d0: d29b 023e 250e c73d a5d3 86bd 2ed7 d33d
000000e0: bbb3 38bd 2f61 273e 0a1c 913d fc05 033e
000000f0: d296 e0bd 6595 003e 02ff 303e 073e 043e
00000100: 310e bd3c a934 70bd 15db 0e3e 90c8 9a3d
00000110: 03c6 0fbe 9efe c23b d52d 5ebd 4359 da3c
00000120: ceff 91bc b370 fd3d b7dc 7e3d 168c db3c
00000130: 0c0b b03c ddb9 d53d b8c7 fdbd 8c05 083e
00000140: df45 b5bc 0ef7 913d 9a50 afbd efe9 3bbd
00000150: 1da3 d7bc fa8d 20bc 0b1a 19be b537 2ebe
00000160: 8fe0 f5bd da59 7f3e 930a 5d3e db39 8a3d
00000170: 1a3c 833e 7bf1 fe3d cf7d bb3d 2f1d 0d3d
00000180: 5d56 12bc bdd4 7b3e 219b 8f3e 64bf ebbd
00000190: e96a 0a3e 9062 3f3e c07e 0a3d 2011 bc3c
000001a0: 4d8e 21bd 8a72 483e 62d1 a33e a6b4 403e
000001b0: d7bc a73d 5463 363e b363 6f3c 86f1 803b
000001c0: 6f2d 3e3e afd2 7c3e b2d5 083e 72ab 913c
000001d0: fc60 2a3e e20e d2bd 4557 7e3e 4b22 323c

output.weight f4 [2, 30]
-0.114834145 -0.13198249 0.065139614 -0.12193522 0.07174632 -0.16397333 0.1484939 -0.1846044
-0.20255756 -0.1860635 0.058283396 0.1372657 -0.099550575 0.009161172 0.21661173 0.00360448
0.10923428 0.028940765 -0.080428384 0.17987396 0.05466388 -0.10847167 -0.09597811 0.08169778
0.12715767 -0.10455358 -0.14098348 0.18684731 -0.09430825 0.047827035 0.27253976 0.22934556
0.20285536 0.2252783 -0.124631666 0.16308723 -0.18976921 0.17984395 0.19946545 0.16431253
-0.21588375 -0.1366593 -0.15933488 -0.20912729 0.14996436 0.24912745 0.16533667 -0.2090533
0.24847567 -0.22048049 0.20932987 -0.10621256 0.18891804 0.16580403 -0.31176683 0.14459583
-0.1555925 -0.22087866 0.25958347 0.13496627
00000000: 2a2e ebbd 6b26 07be eb67 853d 2cb9 f9bd
00000010: bcef 923d a0e8 27be c90e 183e f008 3dbe
00000020: 406b 4fbe 6e87 3ebe 92ba 6e3d 618f 0c3e
00000030: 2ce1 cbbd be18 163c 77cf 5d3e 2439 6c3b
00000040: 39b6 df3d 2f15 ed3c a3b7 a4bd e130 383e
00000050: 3ce7 5f3d 6526 debd 2c90 c4bd 2a51 a73d
00000060: 9f35 023e 3020 d6bd f95d 10be e754 3f3e
00000070: af24 c1bd 48e6 433d 558a 8b3e 90d9 6a3e
00000080: 51b9 4f3e 5baf 663e e33e ffbd 5700 273e
00000090: dc52 42be 0329 383e ac40 4c3e 8b41 283e
000000a0: a110 5dbe 6af0 0bbe af28 23be 7725 56be
000000b0: 4290 193e 441b 7f3e 044e 293e 1112 56be
000000c0: 6870 7e3e a3c5 61be 925a 563e f885 d9bd
000000d0: bb73 413e 88c8 293e e79f 9fbe ee10 143e
000000e0: a453 1fbe 042e 62be 20e8 843e 9934 0a3e

output.bias f4 [2]
0.07840533 0.01446611
00000000: f992 a03d 4303 6d3c

switch.weight f4 [1, 30]
0.13345246 -0.063558884 -0.094630174 -0.052174784 -0.04901121 0.08178057 -0.038626544 0.088955425
-0.14045188 0.027287057 0.13663064 -0.024022507 0.14199401 0.052413933 -0.17002793 -0.10034117
0.14991161 -0.035172056 0.17857538 -0.18226245 -0.09322114 0.13454096 0.17272577 -0.16156368
0.054548252 -0.17506723 -0.13695778 0.077421024 -0.08607575 -0.009130503
00000000: c3a7 083e 292b 82bd 77cd c1bd 3ab5 55bd
00000010: fbbf 48bd 927c a73d de36 1ebd 432e b63d
00000020: 9ed2 0fbe 1b89 df3c e7e8 0b3e d9ca c4bc
00000030: e166 113e feaf 563d cd1b 2ebe ac7f cdbd
00000040: 6e82 193e 9310 10bd 77dc 363e 02a3 3abe
00000050: baea bebd 1bc5 093e 06df 303e f370 25be
00000060: fd6d 5f3d d344 33be a93e 0cbe ea8e 9e3d
00000070: 7c48 b0bd 1b98 15bc
