checkpoints/VQE-H2-33251292/.pth (torch, 49793 bytes, 11 tensors)

recurs1.weight_ih f4 [120, 2]
00000000: 1233 33bd 1f65 3d3e 81b8 5fbe 960f f5bd
00000010: 0d2f e1bd 13f7 bfbb 77ad 14bd ed52 d93d
00000020: 6e2f c7bd 6cc8 123d a15f e3bd 429c 4f3d
00000030: e50d 7fbe 18ba 06be 7aff f8bd c5f3 2e3d
00000040: 3de5 693c e3cf 2c3e 0b49 37be 9092 07be
00000050: 9e70 8cbc b247 083e ab19 dfbd 80c9 043e
00000060: 9cea b5bd c9f6 23bd 7273 053e e84c d9bd
00000070: 7885 05be 0450 1f3d 8814 fcbd 8763 e13d
00000080: 8b9b 38be b18f 06be 6399 45be 70e2 58be
00000090: 022d 1dbe d3b6 523e 2887 df3c d028 233e
000000a0: 79ab c0bc 8213 05be e7f8 2ebd ac9f 41be
000000b0: 0188 2fbe 78f2 1ebe 40cb 0e3d 4932 203d
000000c0: eb03 00be a9f7 b53c e31e 823d 4c50 883e
000000d0: ccd6 f93c e9d0 8d3d 556c 873d e43f 0cbe
000000e0: 05dd 29bd 82bd 01be 33a1 59be 5f45 e5bd
000000f0: 0e87 233d b8a7 243e a5a8 2ebe 2217 893d
00000100: c5b2 563d ae5d aebd 0cce cbbc fe38 bb3a
00000110: 1b77 193d b171 2c3e 01b1 45be 205a a23c
00000120: 7151 783b 0323 133e b3b0 f13d 201b 583e
00000130: 7b7a 81bc f00d b1bd ccf5 19bd fe79 2ebe
00000140: 52a8 7bbe 9fa2 1b3e e9a4 983d 8514 3abe
00000150: 2f1e bbbc a0a2 cabd aa3b 83bd 94ad e2bc
00000160: 40d5 623d 94fb acbc 0cdb 823c 6388 1d3d
00000170: 04bf 923d 73da 943c ea2e 76be ac1a 26be
00000180: 5012 4b3d a689 cc3d fffa 46be 9fb0 07bd
00000190: 7a23 0e3e 35c3 a93d 18a7 1bbe 430f 82bd
000001a0: c5fd 57be bf81 86bd 5634 5bbe 348d 57be
000001b0: 2b79 5cbd 6289 873d 7260 00be fb82 463e
000001c0: bc6c 1bbe 99de 593e 5629 983d 8217 3fbe
000001d0: 3aa0 ecbd b564 cb3c c2f3 57bd 4462 be3c
000001e0: 6066 253d 7904 c73d f732 97bd d150 293e
000001f0: 8161 4fbe c893 27be 4ae2 99bd 1e99 02be
00000200: 77cf 82bd 6674 71be d9a8 70bd 03ab fd3d
00000210: a4c2 03be 8769 b8bd c0fd ff3d a4c6 c1bd
00000220: 3c17 4f3c 79ed d1bd 356b 893d 9c07 3a3e
00000230: ce46 2e3e 5c94 4f3e 225e 313e 8eff 8a3d
00000240: 9aeb 3cbe fb9e 28be 3698 263e 0087 12bd
00000250: 1ebe f2bd 9ed1 91bd 6117 3bbe 09f0 5abe
00000260: af45 96bc 74c7 2f3e 4950 9f3d 23ed 78be
00000270: 7a87 c73d f710 5fbe 389f 5ebc 6e5d 19be
00000280: c335 b2ba 8c67 7d39 d3d4 38be 8e57 74be
00000290: 0054 7abd 828a 9ebd bdf2 91bd b7fe 1c3e
000002a0: 0dc3 55be f99e 323c 3502 313e 7e2d 23be
000002b0: 0d55 e73d 002a ac3d 9aed 11be daba 383e
000002c0: b1db d7bc c898 28be d384 133e 08ad 6fbe
000002d0: c01c cfbc 4a5f 4e3d eb49 853d c8d7 683d
000002e0: 38e6 2f3d 665a c33b 1417 9ebd e848 a6bd
000002f0: d341 6cbe 1a93 b23d 9113 b93d 647e 5a3e
00000300: 2ee4 4ebe a1d6 2a3a f1c0 32be 5b8e 61bd
00000310: ed27 26be 5e99 063e c0c1 29be b1df 7ebd
00000320: 1c7d 96bd ba7b db3d 53d8 54be 7652 febd
00000330: affb 30be a3c8 803d 0fba c7bd 1ea1 5f3e
00000340: 7f7b 563d 437f e13d 2f7c 5bbd f85b b3bd
00000350: e9e2 22bd eafc c0bd 459b 8abd 7e82 acbc
00000360: ebf0 40be edd2 f0bc a7d3 bc3d fdbf 99bd
00000370: 13d1 50bd e1d1 073e 04f2 04bc 7b52 a9bc
00000380: ff9d 4abe 30cc fd3c f32d 56be 2857 00be
00000390: 3d96 d7bd ac44 cf3b 3e20 54bd df31 743e
000003a0: 2977 95bc 60fd 553e f160 623d b754 1fbe
000003b0: 2f4e ea3b b3ad e8bd 98fe 27be 2503 ef3c
-0.043749876 0.18495606 -0.21847726 -0.119658634 -0.10995302 -0.005858311 -0.03629824 0.1061152
-0.09725843 0.03583567 -0.11102224 0.05068613 -0.24907644 -0.13156927 -0.12158103 0.042712945
0.014275846 0.16876177 -0.17898957 -0.13239503 -0.017143544 0.133086 -0.10893568 0.12967491
-0.08882639 -0.040030275 0.1303232 -0.10610372 -0.13039196 0.03889467 -0.123086035 0.110053115
-0.18028085 -0.13140751 -0.19296794 -0.21180129 -0.153492 0.20577554 0.027286127 0.15933537
-0.023519265 -0.12995723 -0.04271784 -0.18908566 -0.17141725 -0.15522182 0.034861803 0.039110456
-0.12501495 0.02221282 0.063535474 0.26623762 0.030497931 0.06924612 0.066124596 -0.13696247
-0.041470546 -0.12669948 -0.21252899 -0.11194872 0.03992372 0.16079605 -0.1705652 0.06693865
0.05241658 -0.08513962 -0.024878524 0.0014283953 0.037467103 0.16840245 -0.19305803 0.019818366
0.003789034 0.14368825 0.11801281 0.21104097 -0.015805474 -0.086452365 -0.037587926 -0.17038724
-0.24575928 0.15198754 0.07453329 -0.1817189 -0.022841541 -0.098942995 -0.064078644 -0.02767066
0.055379152 -0.021116056 0.01597359 0.038460147 0.071653396 0.018170571 -0.24041334 -0.16221112
0.04957801 0.09987192 -0.19431685 -0.033127423 0.1388072 0.08289186 -0.1520046 -0.06350567
-0.21092899 -0.06567716 -0.21406683 -0.21049958 -0.053826492 0.066180006 -0.12536791 0.19385903
-0.15178198 0.2127632 0.07429759 -0.18661311 -0.11553998 0.024828294 -0.0527227 0.023240216
0.040380836 0.0971765 -0.07382768 0.16534735 -0.20252039 -0.16364968 -0.07513864 -0.12753722
-0.06387227 -0.23579559 -0.058754776 0.123861335 -0.12867218 -0.09004503 0.12499571 -0.09461716
0.012639817 -0.102503724 0.06709901 0.18166965 0.17019197 0.20271438 0.17321065 0.067870244
-0.1844925 -0.16466896 0.16269001 -0.035773277 -0.11852668 -0.071200594 -0.18270637 -0.21380629
-0.018343775 0.17165929 0.07778985 -0.2430921 0.09742637 -0.21783815 -0.013587765 -0.14977047
-0.0013596345 0.00024166534 -0.18049936 -0.23861524 -0.061115265 -0.07741262 -0.07126377 0.15331541
-0.20875187 0.01090216 0.17285998 -0.15935323 0.11295519 0.08406448 -0.14250794 0.18040028
-0.026349874 -0.16464531 0.14406137 -0.2340585 -0.025282264 0.050383843 0.06508239 0.05684641
0.042944163 0.005961704 -0.077192456 -0.081193745 -0.23071985 0.08719464 0.09036935 0.21337277
-0.20204231 0.00065169676 -0.17456414 -0.0550674 -0.16226168 0.13144442 -0.16577816 -0.062225047
-0.073480815 0.10716958 -0.20785646 -0.12418072 -0.1728351 0.062882684 -0.09752285 0.21838805
0.05236387 0.11010601 -0.053585228 -0.08757776 -0.03976718 -0.094232395 -0.067678966 -0.021058317
-0.18841903 -0.029397452 0.09220057 -0.07507322 -0.05098064 0.13263656 -0.008114342 -0.020669213
-0.19786833 0.030981153 -0.20915966 -0.12533247 -0.105267026 0.006325325 -0.05178856 0.2384715
-0.018245297 0.20897436 0.05526823 -0.1555966 0.0071504335 -0.113612555 -0.16405714 0.029176304

recurs1.weight_hh f4 [120, 30]
00000000: 6842 e03d 45dd 543e 2ccf 70bd 6a19 093d
00000010: 6d3a 873c e46f fbbd 3ef8 783d 427e 56be
00000020: 45c3 56bd 6673 3e3a 3087 9dbc e3eb c53d
00000030: ed23 f33d d287 cbbd de8a 93bd de58 0dbe
00000040: d2d0 e2bd 0c0b 51bb 9247 12be a3f5 34be
00000050: aeab 15be 4102 ef3c 2224 873d 5b2a 3e3e
00000060: 5fb7 dc3d 5248 ecbd 1283 343b cd5e 033e
00000070: 6dab 9d3d 14b0 fdbc 340f f6bc dad2 36bd
00000080: 06ef eebd 6787 de3d ffac dbbd 3959 c9bd
00000090: fdec 223e 9c71 24be bfcd 98bd 1074 5cbb
000000a0: fa2c 9a3c 9e9d fdbd b68e cbbd 848c ab3d
000000b0: b131 b33d 6d88 2e3e a479 abbd d673 8c3d
000000c0: 207a d1bd 4759 81bd 14a7 3bbe 3142 653d
000000d0: 0fea b23d 1fc2 4fbd ad53 a83c 65e4 36be
000000e0: 2fac 463e 2849 19be 8e4c 773d 5c19 89bd
000000f0: e69b cfbd 7406 f9bc f3e7 33bd d500 bc3d
00000100: 5f41 b43d da65 28be aa36 a33d dd39 063e
00000110: 791c ef3d dc4e 93bd c4b2 4fbe 8039 9bbd
00000120: 3f57 053e 7959 cfbd 35e8 cc3d 414f 313e
00000130: 07db 15be 02a2 693d 602b ff3d 39c4 a53c
00000140: 38ae cabc fd85 973d 292a b6bd 3653 22bd
00000150: 5d6f 283e 7f92 453e 8c1f 043e be1e d5bc
00000160: 4093 0f3e 0acd 14bd b9fe 20be 3c8f 48be
00000170: ebec 603e dc13 1c3e 4d14 c0bd b685 733d
00000180: 3410 2d3e 4d16 633e fb97 4a3e bb8f e53d
00000190: 1201 96bd 1f50 c1bd 44ad 473e e08b 933d
000001a0: 2920 afbd f001 4a3e af07 613d 7346 0b3e
000001b0: be34 a1bd 51ad 363d e784 ccbd 225a 343e
000001c0: c394 823c 2c06 1c3d 2957 893d 6811 b53d
000001d0: 7a2e 15bd 6765 633d 15d5 bbbd 63ba 9a3d
000001e0: 49cf 58bd da51 28be 7878 94bd 5da4 6c3e
000001f0: e5d6 da3d caf7 7a3e bd02 1a3e bc23 45be
00000200: e98a 2bbe 4318 ccbd e97b febd 74de e43d
00000210: 8467 96bd 64bb 2fbe ba25 c5bd 2b4c 91bd
00000220: 2f75 e43d fc6d 2d3e 660b 913d 741b a03d
00000230: 9b99 973d b819 05bd 64c2 e63d d7b8 c83d
00000240: b77c 113e 4e9e db3d e4c3 343e 8ea2 c03d
00000250: 8950 70bd dc57 cf3d 471a 9d3d b28f 163d
00000260: f1c8 bcbd b626 60bd 5af6 60be ec57 373e
00000270: 44cd 6e3d 117d a6bd 19be 26be b5d1 2d3e
00000280: d669 483e 9b5a ad3d 3c3b e1bd 9643 e33d
00000290: cf93 f13d 1037 5ebe a8a0 803e a945 493d
000002a0: a1e4 fdbd 1a51 373d f2c2 24be 1ff0 d6bd
000002b0: c8fc 003e 42fb 1d3d 815f 97bd 53ff f1bd
000002c0: bc95 d63b ef7f 213d 1d82 6fbd a46b ab3d
000002d0: 885c 913d c209 c5bd a83e 8d3d 685c 243e
000002e0: c273 b73d b74d cbbd 9ed2 0dbd 4ceb 29be
000002f0: ae3e f3bd cd78 723c 93e5 02be 43e1 7d3d
00000300: 20e3 5a3e dd8d 7ebd 0f81 51bd 0a11 2dbd
00000310: 22f1 583c 0764 01be b097 093d 4a76 63be
00000320: 880a 81be b50f 30be f42c b9bb ac6d 943d
00000330: 4467 cabd 91b1 a73d 3e5b c6b9 c8be 2b3d
00000340: 1320 f83b 8222 24be 54df 4c3e 3ce5 173e
00000350: 33ad 5c3e e54a 0d3e db31 10be 1893 4d3e
00000360: 94b7 d6bb a19c 4f3d 49b6 3fbe fb0c b3bd
00000370: 7222 1bbe 3646 70bd 8281 8a3d ae91 45be
00000380: 7ece da3d 2933 cf3d 2c8d a33c 2949 01be
00000390: 74d4 44be 3e70 ddbd d7cb 033d bff8 233e
000003a0: 28bc f33d d4a4 2fbd 4afa e43d 8a8a 6abe
000003b0: 4a80 d8bd f0ee b23d 84ea 06be 28d4 833d
000003c0: 4374 93bd 02f6 9dbc 4485 e0bd af18 193e
000003d0: 5b31 82bd 1c2f 4a3e c2b3 983d 3991 483d
000003e0: 096f 42bd 16b9 92bd df31 683c 786d 763d
000003f0: c5df d43d a720 3fbe d15b 543e 7421 1fbd
0.10950166 0.20787533 -0.058791324 0.033471502 0.016507352 -0.12277201 0.060783617 -0.20946601
-0.052432317 0.00072651205 -0.019229501 0.096641324 0.11872087 -0.09938015 -0.07204221 -0.13803431
-0.110749856 -0.0031897454 -0.14285114 -0.17671828 -0.14616272 0.02917588 0.06598689 0.18570845
0.10777163 -0.115372315 0.0027543944 0.12829132 0.076987125 -0.03096775 -0.030036546 -0.044634677
-0.11666684 0.1086567 -0.10726356 -0.09831471 0.15910716 -0.16058964 -0.07461118 -0.0033638515
0.018820275 -0.12383579 -0.09939329 0.083764106 0.08749712 0.1704423 -0.083728105 0.068580315
-0.102283716 -0.063158564 -0.18325454 0.05597133 0.087360494 -0.050722238 0.020547712 -0.17860563
0.1940162 -0.14969313 0.060375743 -0.0669429 -0.10137157 -0.030398585 -0.043922376 0.09179846
0.08801531 -0.16445103 0.07969411 0.1310801 0.116753526 -0.071927756 -0.20283037 -0.07579327
0.13021563 -0.101244874 0.100052275 0.17315389 -0.14634334 0.05703927 0.12459445 0.020235168
-0.024741277 0.07398603 -0.0889476 -0.039630137 0.16448732 0.19294165 0.12902659 -0.026015636
0.14021015 -0.036328353 -0.15722169 -0.1958589 0.21965377 0.15241951 -0.09378872 0.05945369
0.16900712 0.22176476 0.19784538 0.11209055 -0.07324423 -0.0943911 0.1949969 0.072044134
-0.08551056 0.19727302 0.05493897 0.13601093 -0.07871388 0.04459888 -0.099862866 0.17612508
0.015940076 0.038091823 0.067060776 0.088412106 -0.036421277 0.055516627 -0.091715015 0.07555082
-0.052932058 -0.16437474 -0.0724954 0.23109575 0.10685519 0.24508587 0.15040107 -0.19251913
-0.16752209 -0.09965565 -0.12425978 0.11175242 -0.07343963 -0.17161328 -0.096263364 -0.07094606
0.111551635 0.16936487 0.07082252 0.07817736 0.07402345 -0.03249523 0.11267546 0.098008804
0.14207731 0.107235536 0.17652851 0.09406005 -0.058670554 0.1012418 0.07671028 0.036758132
-0.09218014 -0.054724418 -0.21968976 0.17904633 0.058301225 -0.08129323 -0.16283454 0.16974528
0.19571623 0.08464547 -0.10997626 0.11096875 0.117957704 -0.21700692 0.2512257 0.0491387
-0.12397123 0.04475508 -0.1608999 -0.10495018 0.12596428 0.038569696 -0.07391263 -0.11816277
0.0065486114 0.039428648 -0.058473695 0.0837014 0.07097727 -0.09621002 0.06896716 0.16050875
0.08957626 -0.09926932 -0.03462469 -0.16593665 -0.118771896 0.014799309 -0.12782888 0.061982404
0.21375704 -0.06214701 -0.05114847 -0.042252578 0.013241084 -0.12635814 0.033591926 -0.22213092
-0.25203347 -0.17193492 -0.005651111 0.07247481 -0.098829776 0.08188165 -0.00037833484 0.04192999
0.007572183 -0.16028789 0.20007068 0.1483354 0.21550445 0.13798101 -0.14081518 0.20075643
-0.006552646 0.050686482 -0.1872188 -0.0874271 -0.15149859 -0.05866071 0.06762983 -0.19293854
0.106839165 0.1011718 0.019964777 -0.12625565 -0.1922167 -0.10812424 0.03217682 0.16012858
0.11901122 -0.0428818 0.11180551 -0.22904411 -0.10571344 0.0873698 -0.13175398 0.0643695
-0.071999095 -0.019282345 -0.109629184 0.14950822 -0.0635707 0.19744533 0.07456161 0.04896662
-0.047469173 -0.071642086 0.014172046 0.06016299 0.10394243 -0.186648 0.2073815 -0.038850263

recurs1.bias_ih f4 [120]
00000000: 79f1 febd 21ce b4bd 0cdd c0ba 066d 323e
00000010: e4c1 113e 5b64 b83d d840 f83c bf47 5c3e
00000020: 9b12 813d e7d8 ee3d e13c bb3d f4f0 d73d
00000030: 55c8 f73d 9c85 2e3e eca7 e63d 3bdc a23d
00000040: 1d18 0f3e 194f 563c 074b 2e3e a075 d03d
00000050: 6b14 343e b302 493d b60a dcbd 85dd df3d
00000060: efe7 f33d 096f 493e d90c ec3d 4a40 033e
00000070: acc9 663e bcc6 d83c c3f5 4a3e e853 213e
00000080: d5e2 253e eaad 293e 4411 8fbd 5ca8 143e
00000090: aaff 753e d565 aebd 274a 163d b258 6cbd
000000a0: 16bd 143d 5220 bf3d a3f2 1d3e 1399 bfbc
000000b0: 560f 20be 32a7 1b3e 8f88 283e fb50 f53c
000000c0: 87d8 4e3e 400b 423e deb3 f3ba cd11 ab3d
000000d0: f23d 933d 2a66 0c3d 09c4 4aba 205e 0dbd
000000e0: 00f1 74bd 821f 153e 65c8 9f3c 4afd aebb
000000f0: 4112 3b3e b5bd 8b3b 39ff 293e 5d3f 4c3e
00000100: d374 78bc 6c0b 1f3d d877 433e 51ab dfbd
00000110: 3751 4ebd e401 57bc 05f1 e9bc fb96 163d
00000120: eb26 023e 25b3 edbd 1c87 353d 004f 453e
00000130: 4b50 09be 7bc6 b9bd 7bb0 e6bd e2be ad3d
00000140: 5023 52be be58 85bd 3af9 213e 42d8 04be
00000150: 99cc 463e 50eb b8bd a6a3 af3d 1055 17bc
00000160: 2703 333c a8c8 033e 814d 473e af7f 38bd
00000170: f070 153e aec7 ab3d f6d2 a93d e4d8 99bd
00000180: 2558 063e 48ea 383e 6124 ccbd 8f03 e3bd
00000190: 590d bdbd 7a53 ed3d 5c35 4a3c ff78 e9bc
000001a0: 1ae8 3a3e ebf3 1c3c 5c0f 46bd 2c06 b03d
000001b0: a1ff 4ebd ea38 47bb 4f27 0c3e 41cc f63d
000001c0: 159b adbd d6ad 7c3e 8281 2c3e d4a8 96bd
000001d0: 33ce fa3d 760b 0c3e 99d9 50bd 0a27 19bd
-0.12448401 -0.088283785 -0.0014714315 0.17424402 0.1423412 0.09003516 0.030304357 0.21511744
0.06302377 0.116624646 0.09142471 0.10544005 0.12098757 0.17043155 0.11262497 0.07952162
0.13974042 0.013080382 0.17020808 0.10178685 0.17585914 0.04907484 -0.107442304 0.10930923
0.11909472 0.19671263 0.11525888 0.12817493 0.22537869 0.026461951 0.19820313 0.15754664
0.16199811 0.16570249 -0.06985715 0.14517349 0.2402331 -0.08515517 0.03669181 -0.057701774
0.03631314 0.093323365 0.1542459 -0.023388421 -0.1563085 0.15200499 0.16458343 0.029945841
0.20199786 0.18949604 -0.0018593033 0.083530046 0.071895495 0.03427712 -0.00077349 -0.034513593
-0.059800148 0.145628 0.019504735 -0.005340253 0.18268682 0.004264558 0.16601266 0.19946046
-0.015164572 0.038829252 0.19088686 -0.10921348 -0.05037042 -0.013123009 -0.02855731 0.03676508
0.12710159 -0.11606435 0.044318303 0.19268417 -0.13409536 -0.0907106 -0.1126413 0.08483674
-0.20521283 -0.06511067 0.15817729 -0.12973121 0.19413985 -0.09029257 0.08576135 -0.009236589
0.010926045 0.12869513 0.19463159 -0.045043644 0.14593863 0.08387695 0.08292191 -0.07512072
0.13119562 0.18058121 -0.09967876 -0.11084663 -0.092310615 0.115881875 0.012341823 -0.028500078
0.18252602 0.009579639 -0.04835449 0.08594927 -0.050536755 -0.0030398914 0.1368687 0.12050677
-0.08476845 0.24675688 0.16846278 -0.0735642 0.12246361 0.13676247 -0.050988767 -0.037390746

recurs1.bias_hh f4 [120]
00000000: 48cb e7bd 1f96 1b3e 445a 8e3d 60a2 e53d
00000010: 77db f93b a884 453e ade7 d03d 521e c6bd
00000020: 7605 7b3c 3bb5 173e 7bc1 033e 90c8 483d
00000030: 1124 8abd de7c aabd 66f8 283e 895d 46bd
00000040: 84d5 483e 7a4d e13b 547b 413d e84e 02be
00000050: 8247 aebc fb0a 6d3e 2673 fabd cb11 293e
00000060: 4fd9 debd 5646 9b3d 7de0 f7bd 9ba6 abbd
00000070: 00d8 89bd f127 d43c 3163 7d3d 5730 8fbd
00000080: d4d1 b03d 25f2 143e f99c 693e c9d1 583e
00000090: 28f8 423e be8f 2ebc ed76 113d e26c 5c3e
000000a0: f754 2f3e 16fa 903c 5118 473e 160f 05be
000000b0: 84fb 303e 884e 1f3e 90f5 92bd 59da afbd
000000c0: 6100 413e df5a 6a3e 6c77 5e3d 357a a83b
000000d0: d124 133e 5814 1c3e 117a af3c eaba 463e
000000e0: 9943 263e e4b9 cc3d 778f 2c3e 88cc b5bd
000000f0: ca60 82bd 02fa a0bb 18e4 ab3d ce11 053c
00000100: eecc a23d 19a7 893d c9a6 16be b288 973d
00000110: cc9a 2bbc cdb1 28be 76fe 23bc c36d 68bd
00000120: 16df 86bd 3b4b 54be 9a39 3b3e e0bd aabd
00000130: 693d cdbb a8a9 373e 9753 8f3b 516a 13be
00000140: 2787 5bbe 533a 5d3d 5b69 68bd 584c e4bb
00000150: 91f6 d43d 4224 68bd 2402 393e 030a 69bd
00000160: c759 6bbd 0a8d d8bd c07a c23d 7bee 33bd
00000170: 8cc7 a73d 6479 453c e1e1 583e 016d 17bd
00000180: 0f67 53bc 516f c83c 9027 5fbd ca6e 023e
00000190: c548 a63c 0e2b 183e 76dc 2e3e 480f 0a3e
000001a0: 2601 acbc 3186 1f3e c94c eebc 1c28 e6bd
000001b0: 6148 043d 58c8 a7bd 4ce2 cebd 5a8c ff3d
000001c0: 9f3f 493e bce6 8e3a 5dc5 0d3d a3aa a6bd
000001d0: 8449 993d 0d0b e93d fdf4 543d 5158 6b3e
-0.1131807 0.15193985 0.069508106 0.11212611 0.007625039 0.19288886 0.10200439 -0.09673752
0.015321126 0.14815228 0.12866776 0.049019396 -0.0674516 -0.08324598 0.16501006 -0.048429046
0.196127 0.006875691 0.047236755 -0.12725413 -0.021274332 0.2314872 -0.12228994 0.16510694
-0.10881292 0.07581775 -0.121033646 -0.08381387 -0.06730652 0.025897952 0.061862174 -0.06991642
0.086337715 0.14545496 0.22813787 0.21173777 0.19039977 -0.010654388 0.035513807 0.2152591
0.17122255 0.017697375 0.1944287 -0.12994036 0.17283446 0.15557301 -0.071757436 -0.085865684
0.18847801 0.22886227 0.05431311 0.0051415213 0.14369513 0.15242136 0.02142051 0.1940724
0.16236724 0.09996393 0.16851602 -0.08876902 -0.06366117 -0.0049126158 0.08393115 0.008121921
0.079492435 0.067213245 -0.14712061 0.073991194 -0.010473918 -0.16474076 -0.010009399 -0.056745302
-0.06585519 -0.20731823 0.18283692 -0.08336997 -0.006263424 0.17935812 0.0043739784 -0.14396025
-0.21438275 0.0540107 -0.0567411 -0.0069671087 0.10398591 -0.056675203 0.18067223 -0.056894314
-0.057458665 -0.10573776 0.09496069 -0.043928605 0.081923574 0.012052868 0.21179916 -0.03696919
-0.012902989 0.024467142 -0.05448109 0.12737575 0.020298371 0.14860174 0.17076287 0.13482392
-0.020996641 0.15578534 -0.029089348 -0.11238119 0.03229559 -0.081925094 -0.101017565 0.12477942
0.19653176 0.0010902504 0.03461205 -0.08138015 0.07484725 0.11379061 0.05199145 0.22982909

recurs2.weight_ih f4 [120, 30]
00000000: 1e40 eebd 91ed aa3c a82d 9abd 2ed5 4c3e
00000010: 1b3d d83d af63 653e c2ec 003e fcde 0c3d
00000020: 6604 35be 77ba e1bd c6e5 c33d 649e 01be
00000030: 30d3 f23d ddc0 3c3d 3633 713d 3144 42be
00000040: 5352 263e 5e92 4cbd 51bb e9bd b4d5 0b3d
00000050: b6f4 e5bc 6be8 f8bd 656e 373d 5444 f1bd
00000060: 745e 5d3e c468 ec3d 0d3f 143e f953 033e
00000070: 6b2f 5ebe 8de3 0dbe 0db2 36be e903 1fbe
00000080: c51f f0bd 8bf4 323e 3647 263e 9a2f c03d
00000090: a3e1 95bc 32a1 3d3e 4084 743c af59 ecbd
000000a0: 38ab 113d 0d42 643d 84be 6ebd e41d 133e
000000b0: 0687 003c 118d f33d 574a 81be 5307 bc3d
000000c0: 5983 54bd 9665 ebbd e8fd ecbd 5232 8c3d
000000d0: 9251 5abc e951 2ebe 0542 2b3e 8ae4 8c3d
000000e0: 35e4 1bbe d664 05bd e6d3 e53d 051b 9c3d
000000f0: 319e 373d 2e73 8ebd cc28 f93d c5da b6bd
00000100: ba46 6abc df59 083e 1135 5fbd b0db 073e
00000110: 2bae 503e dffb 6dbe 0768 0fbe 05ce bd3d
00000120: 5e54 933d 2ead 653a 02a1 713d 34c3 133e
00000130: 8167 14be a276 c23d b61e 223e 663b b5bc
00000140: 493a 52be 6795 033e 760e 5fbc 73d5 c7bd
00000150: ab32 073e 3e2d 2a3d 7626 afbd 985e 1bbe
00000160: c1ac 0e3d 4920 b33c 4ecd e23b 6ca5 08be
00000170: f6d9 4d3e 9a7e 353e a1ae 6d3d 68e9 cf3d
00000180: 891e 383d 323b 0c3e 0459 d93c 9d82 1bbd
00000190: afe7 f4bd 4bc3 013d f1b8 c7bd 4247 a2bc
000001a0: bee6 b3bd 914d 11bd b13e 633d 3ff3 91bd
000001b0: 82f6 e03d 27be 2abe 138d b83d 6d77 a43d
000001c0: 5dd5 18bd 4a17 463d 23da a6bd 1544 36be
000001d0: 9e7f 0bbd af72 30bc e54b 183d cb55 07be
000001e0: 3861 623e e896 4c3d a784 69bd 659a 633d
000001f0: 8d09 09be 6857 c73d 7287 8f3c 9464 c1bd
00000200: 0171 00bd 58c0 ca3d 23f3 80bd 89ef 213b
00000210: d65e 46bc e74a 2ebe 3585 333d 0d0a 88bc
00000220: 14a0 03be a9cf 1e3c b709 093e 3ede 0c3d
00000230: 104f 1fbe 003c ec3d d0a9 f3bd 2e0f eabd
00000240: 4818 093e 3c1a c63d 44cc 6d3e 42c9 413e
00000250: 69a9 19be fd7f 09bc e067 6cbd dade 423b
00000260: 2286 5c3e 7a51 2b3e 7a12 25be 6c1b 6abc
00000270: 4270 14be 086f 9b3d 121b 4bbd f4d2 43be
00000280: b7e1 7fbd 3e9d 363d 7cca ab3d a8c5 c23d
00000290: f8e1 8b3d 0b83 b53d 2a60 b2bd 2231 413d
000002a0: ed13 19bd 4f13 cf3d ea11 faba 7035 bebd
000002b0: 9733 fbbd fc1f 6abe 2b51 263c 4d65 42bd
000002c0: 0458 7f3e cb2d 30bd eb21 a53d 7686 d73d
000002d0: a771 e2bd 37a7 c4bd bc8d 833d 826b df3d
000002e0: 06d2 16be cb6a 8e3d f625 72be 4061 30bd
000002f0: c87e 6d3a 536f 393d b7a8 073d 3d3f 093e
00000300: 1032 8abd 8c66 e63d 8606 14be 2010 22be
00000310: 0f05 cbbd 222a 60be 73f3 ba3d a7d4 c1bd
00000320: 1121 34be e9bb b7bc 1989 23be 06d8 4e3d
00000330: 88fb ec3d 2652 abbd 7336 103e 2be7 bb3d
00000340: 3a61 4fbe 2dc7 ccbc 3616 123e 308f abb9
00000350: 751b 443d 23ee 823d e18b 03bd b227 b23d
00000360: ea9c 5ebe b085 cf3d d949 3d3d 4038 023d
00000370: f0cf a73d 16da dcbd a71b 3dbd 3020 19bd
00000380: c68e 6e3d 948a 03be fc48 363d f69d afbd
00000390: 01d8 ca3d 3a32 58be 3d5d bfbc 1ccc a73d
000003a0: ca10 11be 3ebe a1b9 e375 013e 640d 0b3d
000003b0: 2af0 993d 4ff9 d73d 70a7 2abe 7a19 e43d
000003c0: b0a1 c33c e270 203e 0f33 803d baab 333c
000003d0: f3b2 143d 5cee 573e de30 113e d5a0 3cbe
000003e0: edcf 81bc 17a7 e9bd 2f00 183e a0db 2b3e
000003f0: 9c5f 0dbe 584c 03bd f3e6 023e 5fc6 b03d
-0.11633323 0.020865234 -0.075282395 0.20003197 0.1055853 0.22401308 0.12590316 0.034392342
-0.17677459 -0.110218935 0.0956531 -0.12658077 0.11856687 0.046082366 0.05888673 -0.18971325
0.16242342 -0.049944274 -0.11412681 0.03413935 -0.028070789 -0.12153705 0.044783015 -0.11780611
0.21618062 0.1154342 0.14477177 0.12825002 -0.21697776 -0.13856335 -0.17841358 -0.15528835
-0.117248096 0.17476098 0.16238102 0.09384079 -0.018296069 0.18518522 0.014924109 -0.11540543
0.035563678 0.055727053 -0.05828716 0.14366871 0.007844692 0.11892141 -0.2525203 0.091810845
-0.051883075 -0.11493985 -0.11571866 0.06845535 -0.013325112 -0.17023434 0.16724403 0.06879528
-0.15223773 -0.032566868 0.11222057 0.07622341 0.044828597 -0.069555625 0.121659845 -0.08928446
-0.014299089 0.13315533 -0.054493967 0.13267398 0.2037894 -0.23240612 -0.14004527 0.09267811
0.07193826 0.00087614625 0.05899144 0.14429933 -0.14492609 0.09495284 0.15832028 -0.02212305
-0.20530047 0.12849961 -0.013614288 -0.09757509 0.13202922 0.041547053 -0.08552258 -0.15172803
0.03483272 0.02186598 0.006921447 -0.13344353 0.20102677 0.17724076 0.058027867 0.101519406
0.044950996 0.13694456 0.026531704 -0.03796636 -0.11958253 0.031680387 -0.09752072 -0.019809369
-0.08784245 -0.035474364 0.05547971 -0.07126474 0.10984518 -0.166741 0.09011283 0.08030591
-0.037312854 0.048362054 -0.08147075 -0.17799409 -0.034057252 -0.01076953 0.037181754 -0.13216321
0.22107399 0.049948603 -0.057011273 0.055567164 -0.1338255 0.09733468 0.01752064 -0.09443012
-0.03135777 0.09899968 -0.06296375 0.0024709424 -0.012107572 -0.1702076 0.043828208 -0.016606355
-0.12854034 0.009693065 0.13382612 0.034391634 -0.15557504 0.115348816 -0.118976235 -0.114286765
0.13388169 0.096729726 0.23222452 0.1892443 -0.15006031 -0.008392331 -0.05771625 0.002973488
0.21535543 0.167303 -0.1612033 -0.014288764 -0.14495948 0.07589537 -0.049586363 -0.19123441
-0.062471118 0.04458355 0.0838823 0.09510356 0.068302095 0.08862885 -0.08709748 0.047165997
-0.03737252 0.10111105 -0.0019078825 -0.09287536 -0.12265699 -0.22863764 0.010151188 -0.04745989
0.24935919 -0.04301242 0.0806311 0.10523693 -0.11056834 -0.09602206 0.06423518 0.10909177
-0.14728555 0.06953963 -0.23647293 -0.043061495 0.00090597244 0.045272183 0.033119883 0.1340303
-0.0674783 0.11250028 -0.14455613 -0.15826464 -0.09913074 -0.21891072 0.091284655 -0.09464388
-0.17590739 -0.02242847 -0.15970267 0.050498985 0.11571413 -0.08365278 0.1408327 0.09174951
-0.20251933 -0.024997318 0.14266285 -0.00032722345 0.047877748 0.06393077 -0.03211582 0.086989775
-0.21739545 0.10132921 0.046213005 0.031791925 0.08193958 -0.10783784 -0.04616895 -0.037384212
0.058241628 -0.12845832 0.044503197 -0.085750505 0.09904481 -0.2111291 -0.02335989 0.08193228
-0.14166561 -0.00030850054 0.12642626 0.033948317 0.07516511 0.10545599 -0.16665435 0.11137672
0.02388081 0.15668061 0.06259739 0.010966236 0.03630347 0.2108702 0.14178798 -0.18420728
-0.015846217 -0.11408823 0.1484382 0.16782999 -0.13806003 -0.03205523 0.12783413 0.08631586

recurs2.weight_hh f4 [120, 30]
00000000: 306c b83c 9901 063d 353b 193e 7bf0 4dbe
00000010: 9dba ef3d 9a6a 16be 59f5 3e3e 9154 21be
00000020: ce93 56bd 9576 793d f81b a93c 28d2 b03d
00000030: e0fe 41bb 8580 833d 62b6 b4bd f2e9 04bd
00000040: 59dc f63c c313 203e 6472 2abe 0702 97bd
00000050: 1c0a adbd bba9 55bd 27d7 fabd 3922 2abd
00000060: fba2 bb3d b57e 57bd 9a78 c63c a682 05bd
00000070: 6739 53be 5936 763d 05ad 9fbb de45 cbbd
00000080: ee79 17be 0e3f d93d f7d6 69bd c756 c83d
00000090: eb3f 46bc db50 57bd 762a b0bd 69a7 d73d
000000a0: 6bc3 46be b0b0 c7bd 7e4b acbd da2a 4ebd
000000b0: 4647 f73d 80a0 5f3e 4487 503e 5f83 e2bd
000000c0: 0305 c0bd cd06 1b3d 996a 093e 2c8a f2bd
000000d0: 4877 81bd 96b3 e1bd 855c 8ebd 7904 a2bd
000000e0: c429 33be ef3e 09bd 79cf 393c 2901 373d
000000f0: e305 c2bd 0cbf 80bd 9a39 433e cd43 093b
00000100: ecc7 de3d e0e6 87bd e62f 2dbd c2cd 643d
00000110: 0ca2 e33b 67e0 55be c03a dc3d 36a4 c1bd
00000120: cd78 1cbd 3c9f b63a 883d 293e 956b bd3d
00000130: 8b29 083e cc97 5dbd e01b 1e3e d2eb 303d
00000140: 0506 fc3d 4360 27bb 9292 10be 12b0 c93d
00000150: eda5 53be 9f65 52be b5d8 cabc bbeb cfbc
00000160: ac02 afbd 821a 2e3e ea90 26bd c119 72bc
00000170: 8273 3f3e 3800 c73d 88e6 ccbd 48f5 133b
00000180: 59c2 acbd 35e9 1fbe 439e e1bc f876 aebc
00000190: aa61 16be e680 a6bd ed7c 60be 4e21 5bbd
000001a0: b99e 7e3d 9feb 093d b8d7 143e ce5b 143e
000001b0: f615 c33d 1870 10bb 3f08 5dbd 102f f73c
000001c0: fddd 43be eb1c aabd 8c6c 913d 3edb 27bd
000001d0: 2dfb b43c bda2 433e b672 f33d 075c 253d
000001e0: 6a04 083e e41a 163e 74c7 bdbd d926 0c3c
000001f0: a38b fd3d 54ef 063d 2f67 553e 73a5 19be
00000200: e6d2 8cbb e948 2a3e 12c7 2ebe 9ac3 86bd
00000210: d939 c83d da80 003e 856d 4a3e b8fd 6bbd
00000220: 05e3 b63d a8b3 03be 8490 0fbe b8f5 b83c
00000230: 6771 9fbd 84e7 473d c888 c9bd c70e 1b3e
00000240: a4f3 c8bc 4c52 ea3c f0b9 d63b bbd3 4a3e
00000250: c3f1 00bd 50cf 1d3e 779f 40be 2050 90bd
00000260: f9b6 1e3e 5be2 0b3e adaf 32bd a38c 2c3e
00000270: 8cd3 023e d4d5 24be 9786 c73c 109f fd3d
00000280: 329e eebd 3c3b 0d3e 8b3b e2bd adf3 e5bd
00000290: aaf8 9ebd cb50 36bd 347b 4e3e 7d40 e43d
000002a0: 6f88 bc3d 0c46 7b3d e058 893d 8df5 48bd
000002b0: 4240 50be c95e 02be 8912 cabd cdac cc3d
000002c0: cfd5 c2bd 68a2 893c 1eca 453d 7ea3 5f3e
000002d0: 655b 17bd acf9 b73d 539e 06be 8fab 61be
000002e0: 76c7 cfba dcf4 163d af11 033e 8f25 453d
000002f0: 9ab0 003e fb47 b3bd 3f8a 923c ad68 463e
00000300: 2929 bcbd 1d2e 113e 1a32 13be 00c7 9b3d
00000310: 0e29 533d 461c 353e 7c27 1ebd e4dc 633c
00000320: eb60 c0bd ec6a 483e fc5f d0bc cc7f 76bd
00000330: 7321 633d b9df 9c3d a5cd 90bd 7819 07be
00000340: b9e9 babd 9941 933d 24d5 b53a d972 a4bc
00000350: ec2d 593d f002 1abd 52e3 2b3e 0781 0bbe
00000360: b560 473e 3cd6 58bc 88f2 ea3d dfc8 9f3d
00000370: 8df9 36be 5a20 243e 0760 9ebd 76e7 dcbd
00000380: a574 f33d 9528 073c 1add f1bd f7e1 90bd
00000390: e0f8 0f3e 2099 38be 67e5 893d e975 3e3d
000003a0: f27c 27be cca9 813d 7862 08be ab1d cdbc
000003b0: c1c5 54bd 020c e43d 89df 98bd 5b8d 03be
000003c0: 29b4 d7bc 3af0 2e3e 291c a4bd 5b93 023e
000003d0: ce1a f73d 0d98 45bd 3aff b73b fed1 103e
000003e0: c559 73bb 847d 053d 0274 95bc d9ac 1a3d
000003f0: 625c 2abe f906 c7bd 77e5 4c3e ee0b ae3d
0.022512525 0.032716367 0.14963992 -0.20111267 0.117055155 -0.14689103 0.1864828 -0.15754916
-0.05238705 0.060904104 0.02064322 0.08633834 -0.002960138 0.064209975 -0.08823849 -0.03244967
0.030134367 0.15632538 -0.16645199 -0.073734336 -0.08449194 -0.05216382 -0.12248068 -0.041536544
0.091619454 -0.05261107 0.02422743 -0.0325953 -0.20627366 0.060110424 -0.0048729205 -0.099254355
-0.14792606 0.1060773 -0.057089772 0.097821765 -0.0121002 -0.052567344 -0.08601849 0.10529978
-0.19410484 -0.09750497 -0.084128365 -0.050333835 0.12074141 0.2183857 0.203641 -0.11060213
-0.09375956 0.037848283 0.1341957 -0.118427604 -0.06321579 -0.110205814 -0.069512405 -0.07911009
-0.17496401 -0.033507284 0.011340969 0.04467884 -0.09473779 -0.06286439 0.19064942 0.0020944953
0.10877976 -0.06635833 -0.042282008 0.05586029 0.0069468077 -0.20886384 0.10753393 -0.09455149
-0.038201142 0.0013932954 0.16527379 0.09249035 0.13297097 -0.054099843 0.15440321 0.043193646
0.12305836 -0.0025539554 -0.14118412 0.09848036 -0.20668764 -0.20546578 -0.024761537 -0.02538096
-0.085454315 0.170023 -0.040665545 -0.014776648 0.18696406 0.097168386 -0.10004908 0.002257662
-0.084355064 -0.15616305 -0.027541285 -0.021296963 -0.14685693 -0.08130054 -0.21922655 -0.05349856
0.06216309 0.03367197 0.14535415 0.14488146 0.09525673 -0.002203947 -0.053962942 0.030173808
-0.1912765 -0.08306297 0.07100782 -0.04098057 0.022092426 0.19105048 0.11887114 0.040370967
0.13282934 0.14658695 -0.09266558 0.008554184 0.12380149 0.032943085 0.20840143 -0.1500452
-0.004297602 0.16629376 -0.17068127 -0.06580277 0.097766586 0.12549153 0.19768341 -0.057615012
0.08930019 -0.12861502 -0.14019972 0.022578105 -0.07785302 0.048804775 -0.09840542 0.15142356
-0.02453024 0.028603695 0.006552927 0.19807331 -0.031480562 0.15411115 -0.18810831 -0.07046533
0.15499486 0.13660567 -0.04362457 0.16850524 0.12776011 -0.16097194 0.02435617 0.123838544
-0.11651267 0.13792127 -0.11046513 -0.11228118 -0.07762273 -0.044510644 0.20164186 0.11145113
0.0920571 0.0613461 0.06706405 -0.0490623 -0.20337012 -0.1273147 -0.098668166 0.09993897
-0.09513437 0.016801074 0.048288457 0.21839711 -0.036952395 0.08983168 -0.13146333 -0.220381
-0.0015852291 0.03685461 0.12799715 0.04813152 0.12567368 -0.087539636 0.017888186 0.19375868
-0.09187538 0.14177747 -0.14374581 0.076063156 0.051552825 0.17686567 -0.038611874 0.013907645
-0.09393486 0.19572037 -0.025436394 -0.06018047 0.05545182 0.07659859 -0.070704736 -0.1319331
-0.0912661 0.07190246 0.0013872725 -0.020074295 0.05302231 -0.037600458 0.16785935 -0.13623439
0.19470485 -0.013234671 0.114720404 0.07801985 -0.17868634 0.16027966 -0.077331595 -0.10786335
0.118874826 0.008249422 -0.1180975 -0.070743494 0.14059782 -0.18027163 0.06733208 0.046499167
-0.16356257 0.06331214 -0.13318813 -0.02503856 -0.051946405 0.11135103 -0.07464511 -0.12846892
-0.026331024 0.17083827 -0.080131836 0.12751524 0.120656595 -0.04824071 0.005615142 0.14142606
-0.0037132364 0.032590404 -0.018243793 0.037762497 -0.16636804 -0.09718127 0.20009409 0.08498369

recurs2.bias_ih f4 [120]
00000000: 58b7 4d3e fcf3 3b3e ca9b a8bd 205e 653d
00000010: 4893 94bd a7cb 88bc 48dc 493c be91 523e
00000020: 77ad c53c 4e92 0f3e b120 18be 6339 0c3d
00000030: f280 983d 5cce 3ebd c36b 1c3d 3f32 983d
00000040: 2564 4d3e 7588 ea3c 8f65 273c 2362 283e
00000050: bc65 fbbc 8509 133e 8b71 4c3e ac4f 92bd
00000060: 5308 c73d 4b69 11bc 167b 443e b913 6c3c
00000070: e884 2b3d dbc7 1a3e 9eff 843d 2fe9 213e
00000080: 75bb 0ebd 4912 a8bd c13c 933d 86e8 663e
00000090: 0761 273e ddfd 27bd 186b 413e 523d 1abe
000000a0: 8484 483e ba36 643d cddf 4abd 5647 923d
000000b0: eb17 383e 5a61 3d3e 2137 babc eda6 ba3d
000000c0: 63e5 d43d 18a8 353c 4c02 523d b43c 463e
000000d0: 4590 cabb e6e5 2e3e 46d1 aabd e063 20bd
000000e0: 6ab1 b63d befb 22bd b3cd 7cbd b5f5 d7ba
000000f0: dde2 88bd bb57 c73d a588 d63d e11b d8bd
00000100: fda6 b23d 1b32 fe3d 3c9b e23d 6810 c6bd
00000110: 15e3 f5bd 6230 bcbc f430 223d 782e 803d
00000120: 6d8c 28be a935 053e e9c8 503e 631d 0a3b
00000130: 8bb4 403d ec23 813c 7d8f e2bd 468d 41be
00000140: be48 0d3e f669 293e 7818 4e3c 9713 1cbe
00000150: ecdf 13bc 145f eebd 1b79 4f3d 058c 223e
00000160: 098f 4d3e c1ba 2d3e 2dbc a93d 24d7 613e
00000170: 7f03 f33b 1c35 9a3d 8fcc a2bd b6be 1f3e
00000180: a76d cf3d 9202 eb3d 184b 293e 3015 fd3d
00000190: 51fc 0fbe 50d3 a63c 6e04 c1bd aeb7 373e
000001a0: 2a25 ec3c 0644 b0bd d8c8 1c3e 9c1c 75bd
000001b0: a732 113d b3b1 1f3e c298 0b3e 1c7a 0d3e
000001c0: 2f8a 303d 8d4d 3e3c 7a09 8c3d 1f63 15be
000001d0: 1e22 74bc 3e37 333e ef94 2e3e f8fd 07be
0.20089471 0.18354791 -0.082328394 0.055997968 -0.07254654 -0.016698672 0.012320586 0.20563409
0.024130566 0.14020655 -0.14856221 0.034234416 0.07446469 -0.04658352 0.038188707 0.07431459
0.20057733 0.02862952 0.010217085 0.16443686 -0.03068816 0.143591 0.19965188 -0.071441025
0.097183846 -0.008875201 0.19187579 0.014408999 0.041874796 0.15115301 0.064940676 0.15811609
-0.03484674 -0.082066126 0.07189322 0.22549638 0.16345607 -0.041013587 0.1888851 -0.15062454
0.195818 0.055716254 -0.04952984 0.071425125 0.17977874 0.18494168 -0.022731366 0.0911387
0.103953145 0.01108744 0.05127172 0.19359094 -0.006181749 0.17079887 -0.08340697 -0.03915775
0.08920558 -0.03979086 -0.061719608 -0.0016476425 -0.06683896 0.0973353 0.104752816 -0.105521925
0.08723257 0.124119006 0.11064765 -0.09671098 -0.12006203 -0.02297229 0.039597467 0.06258863
-0.16459818 0.13008751 0.20389141 0.0021074645 0.04704718 0.0157642 -0.110625245 -0.18901548
0.1379728 0.16544327 0.012579076 -0.15241848 -0.009025555 -0.116392285 0.050652605 0.15873726
0.20074095 0.16965772 0.08287845 0.22054726 0.0074161883 0.07529661 -0.07949173 0.15600094
0.101283364 0.114750996 0.16532552 0.12357557 -0.14061095 0.020364434 -0.09424673 0.17941162
0.028826315 -0.086067244 0.15310991 -0.059841737 0.035448696 0.1559513 0.13632491 0.13816112
0.043100532 0.011615169 0.06837745 -0.14588593 -0.014900712 0.17501542 0.17049001 -0.13280475

recurs2.bias_hh f4 [120]
00000000: 8062 b03d 5f83 543e e6f6 d9bd 2b5e 823d
00000010: e318 4abd 9d2c 9b3d 9938 45bd 1e2d 4e3e
00000020: 040d 033e 3958 98bd 7c03 01be a725 d1bc
00000030: aadb ef3c 2609 b23d 9f0a 29bd 8af4 14bd
00000040: 65e7 4e3d dd25 bfbd 664f a33d 1bb3 d4bd
00000050: a1a1 9b3b a4e1 02be 3c1e d5bc 23bc 1a3d
00000060: 70be 62bc 84e3 a8bd 57c0 8e3d ed9c 61bd
00000070: 9d3f b13d 6276 923d ba81 8d3c e0b4 fabd
00000080: 0e9f 93bc 062b 713d 590f c43d 6ddc 97bd
00000090: cf3a 1c3e 0476 a83d 4ada 443d d64d d9bc
000000a0: 8dd1 a6bb dcca 073e ab3e 2f3e 3251 bcbb
000000b0: b184 de3d ecd5 333e 8ece 153e 6bac 3e3d
000000c0: b99a c53d 250a 953d 3058 153e 1ce4 05bd
000000d0: 60a4 8a3d df96 723d 6e4d d0bd e7e6 993d
000000e0: 06c2 a2bd 8d5d fc3d f9ec 1e3d d5f2 9d3d
000000f0: 3a01 fbbd 1fb6 d83d b1ee 093e 9472 b53d
00000100: 6461 253d 45e5 b8bd c99e 203e a7df 903d
00000110: 34d6 16be d60a a7bc f37d 98bc 5cd5 2b3d
00000120: 1b14 1e3c 8806 fc3d 77b5 003c 0203 5fbc
00000130: d944 253c 723f c13d 71a0 0abe 8e60 023e
00000140: 3293 36bd 970f f13d e72e d8bd 0040 73bd
00000150: f2c3 20bc dc2d 94bc 4f22 03be 6907 31be
00000160: c5b1 08be bad2 433e 68ef 063e 9860 92bc
00000170: 0bc4 1e3e 6a03 683d 0fee 113d 6fa5 fcbc
00000180: 4993 a8bd 3b12 273e a987 5d3e 8b64 5cbe
00000190: 2ec4 5f3d 2e87 e73d 699d 44bd 5c00 25bd
000001a0: 4bbf cfbd 68f8 003e 882b 803e e057 ef3d
000001b0: f2e3 173c cf1e d03d 33d5 abbd 04fb 8dbd
000001c0: 1652 d43d 3308 403e 633b 923d 8aef a0bc
000001d0: 922f 8a3d e293 15be 4701 403e d460 9ebd
0.086125374 0.20753239 -0.10642795 0.06365617 -0.04934014 0.07576869 -0.04814968 0.20134398
0.12797934 -0.07438702 -0.12598985 -0.02553065 0.029279549 0.08693151 -0.041269895 -0.036366023
0.050513644 -0.09333394 0.079741284 -0.10385724 0.0047494923 -0.12781388 -0.026015393 0.037777077
-0.013839349 -0.0824652 0.0697028 -0.055081297 0.086547114 0.07151486 0.017273773 -0.122415304
-0.01802018 0.05887892 0.0957324 -0.0741509 0.15256809 0.08225635 0.04805974 -0.026526373
-0.0050908984 0.13260978 0.1711375 -0.005746984 0.108651526 0.17562073 0.14629576 0.04655115
0.09648652 0.072773255 0.14584422 -0.032688245 0.06769633 0.059225913 -0.101710185 0.07514744
-0.07947163 0.12322531 0.038800213 0.07712332 -0.12256093 0.10581612 0.1346996 0.08859745
0.040376082 -0.09028105 0.15685572 0.07073908 -0.1473015 -0.02039091 -0.018614745 0.041951522
0.009648348 0.12305933 0.007855765 -0.013611557 0.010087215 0.09435929 -0.13537766 0.12732145
-0.04457397 0.11770552 -0.10555821 -0.059387207 -0.009812342 -0.018088274 -0.12806056 -0.17287983
-0.13349064 0.19123355 0.13177264 -0.017868325 0.15504472 0.05664388 0.03562742 -0.030840604
-0.082312174 0.16315548 0.21633781 -0.21522729 0.05463045 0.1130508 -0.04800168 -0.040283546
-0.10143908 0.1259476 0.25033212 0.11686683 0.009270655 0.10162126 -0.08390274 -0.06932643
0.10367219 0.18753128 0.07140233 -0.019645471 0.067473546 -0.14607194 0.18750487 -0.07733312

output.weight f4 [2, 30]
00000000: 0059 bfbd f598 debd 0512 be3d f387 a6bd
00000010: e98b 393d a3fe e4bd 267b 023e bc9b 26be
00000020: 9b8d 38be 6858 43be a1bc ca3d 74c3 b53d
00000030: 0031 23be 5ecd 6fbc 0995 403e d96c 683d
00000040: dd24 2b3e 8d6f 8ebc e1f2 57bd 1548 ed3d
00000050: 3d6a 423d 4ad4 d1bd 242c 77bd 3c2c d43d
00000060: d067 9e3d 4706 95bd eff7 59be 294b 173e
00000070: 574f 4cbd 8d81 303c fb34 513e 0ea6 123e
00000080: 8c28 d13d c45c 153e 47bb 43bd 25e5 c63d
00000090: 0c5b f5bd c111 d73d 124d 003e a7a8 073d
000000a0: e99a 02be ba44 8cbd fec7 91bd 272b 15be
000000b0: ea24 a23d 696c 383e f6ff c13d 844c 0cbe
000000c0: cd66 3c3e a761 20be 2bfe e33d 3c55 193d
000000d0: d754 e53d 8f15 cd3d e205 7fbe 3055 9e3d
000000e0: 6bc1 79bd 8d8e 39be 0e40 463e bb9a 603d
-0.09343147 -0.10869018 0.09280781 -0.08131399 0.045299444 -0.111813806 0.1274229 -0.16270345
-0.18022768 -0.19076693 0.09899259 0.0887517 -0.15936661 -0.014636366 0.18806852 0.05674443
0.16713281 -0.017387176 -0.05272186 0.11586014 0.047464598 -0.10245569 -0.06034483 0.103599995
0.077346444 -0.07276588 -0.21285985 0.14774765 -0.049880352 0.010773075 0.20430367 0.14321157
0.10212812 0.14586169 -0.047786023 0.097116746 -0.119802564 0.10501433 0.125294 0.033119824
-0.12754406 -0.06849046 -0.071182236 -0.14567243 0.07917197 0.18010105 0.09472649 -0.13701063
0.1839859 -0.15662251 0.11132463 0.0374348 0.111978225 0.100138776 -0.24904588 0.07731092
-0.060975473 -0.18120785 0.19360372 0.054835062

output.bias f4 [2]
00000000: 4202 9d3b 604e 833c
0.004791529 0.016028583

switch.weight f4 [1, 30]
00000000: 28e7 033e 5eac 8bbd ac4e cbbd 9fb7 68bd
00000010: 96bd 35bd 5dfb 9d3d 7934 0bbd 0ead ac3d
00000020: 3993 14be 4b84 b93c 82a9 103e 09c6 9ebc
00000030: 7b27 163e 63b2 693d 68dc 32be e100 d7bd
00000040: d3c1 143e 5b1c fabc dc1b 323e 68e2 35be
00000050: ef6b c8bd b685 0e3e 6b1e 2c3e 8e31 2abe
00000060: 6270 723d 6e05 38be 0e7e 07be 1f10 a83d
00000070: b1c9 b9bd b9a1 61bc
0.12881148 -0.06819986 -0.09927115 -0.05681574 -0.044370256 0.07713959 -0.03398559 0.08431445
-0.14509286 0.02264609 0.14127162 -0.01938154 0.14663498 0.05705489 -0.17466891 -0.104982145
0.14527063 -0.030531099 0.1739344 -0.17762148 -0.09786212 0.13918194 0.16808479 -0.16620466
0.059189208 -0.17970821 -0.1323168 0.082062 -0.09071673 -0.013771468
