checkpoints/VQE-H2-33251292/model.pth (torch, 49793 bytes, 11 tensors)

recurs1.weight_ih f4 [120, 2]
-0.065284416 0.27986783 -0.24033205 -0.059345573 -0.11275816 -0.09874776 -0.047653515 0.09495077
-0.095196195 0.068772316 -0.16516481 0.14272937 -0.23591608 -0.077825576 -0.09428767 0.09399849
-0.027639754 0.21618111 -0.20144226 -0.24033713 -0.025135368 0.16593866 -0.06307915 0.16157831
-0.17115438 -0.06716153 0.11842463 -0.03144035 -0.13855053 0.11613766 -0.121752046 0.051501807
-0.17308025 -0.194537 -0.21253613 -0.22977108 -0.1605408 0.27107036 -0.0066716066 0.2091324
-0.030115359 -0.08469796 0.003578436 -0.1809612 -0.16592753 -0.25065503 -0.0029612817 -0.06919953
-0.10764932 0.030159809 0.039429445 0.3605604 0.0134165045 0.11479268 0.12103789 -0.1511473
0.015005412 -0.09382716 -0.24172124 -0.10949565 0.062312227 0.272063 -0.13284098 0.1537033
0.083927564 -0.1802981 -0.012097759 -0.041248284 0.112008676 0.23271748 -0.20016344 0.12367724
0.08463398 0.19886623 0.1857142 0.2926522 0.01390423 0.011897786 -0.009545632 -0.27387992
-0.17020412 0.20343417 0.15268172 -0.130011 -0.022560304 -0.14681178 -0.05900207 0.057927594
0.07212832 0.061269294 0.07545437 -0.034913357 0.123054 -0.052822642 -0.17764533 -0.19779143
0.109054476 0.1840449 -0.2034523 0.0381684 0.1336453 0.11827514 -0.068065576 -0.027165145
-0.16536577 -0.15510724 -0.18751688 -0.31847337 -0.03649757 0.10695266 -0.11550221 0.29986888
-0.15032259 0.27146557 0.15484126 -0.18419506 -0.031012235 0.06530526 0.023712492 0.038036715
0.016403234 0.19758613 -0.08343313 0.2708608 -0.20056975 -0.25146645 -0.092080444 -0.16756454
-0.05136511 -0.35084683 -0.10313429 0.22172458 -0.10278593 -0.19936846 0.1321999 -0.20669281
0.02420424 -0.2099325 0.09336412 0.28519705 0.1494655 0.3065036 0.16841601 0.1802946
-0.16971989 -0.2363613 0.16770965 -0.10169507 -0.13053913 -0.013636315 -0.17937444 -0.32663453
-0.008807518 0.27988565 0.07116433 -0.34808668 0.11523213 -0.32236013 0.012692107 -0.21065262
0.0036883687 -0.044653893 -0.1881725 -0.3533084 -0.07920229 -0.17028446 -0.06573475 0.26929033
-0.20285468 0.01589305 0.20637195 -0.25201336 0.09256766 0.13208762 -0.12507884 0.29181516
-0.02401161 -0.2770654 0.14752601 -0.350384 -0.03528657 0.1618782 0.056108993 0.13674426
0.046113007 -0.0933258 -0.07598072 -0.14245424 -0.2283289 0.13233136 0.077958286 0.32209188
-0.18943778 0.07587326 -0.14592414 0.028862042 -0.18482433 0.22590658 -0.16298325 -0.17116971
-0.057610422 0.16299392 -0.16641729 -0.04977871 -0.22112551 -0.000859211 -0.091691025 0.31138957
0.06449863 0.20725358 -0.030842798 -0.16866387 -0.01600745 -0.17055623 -0.0733953 -0.067407
-0.18264718 0.06376098 0.06495164 0.011292126 -0.06268138 0.17660668 0.045249466 -0.0066832504
-0.18659635 -0.0648596 -0.20820664 -0.23756258 -0.078871414 0.05440812 -0.055575382 0.34500727
-0.019638222 0.28218603 0.10851354 -0.18748641 0.07469229 -0.08246278 -0.16915873 0.018049818
00000000: d6b3 85bd d64a 8f3e 9b19 76be 5814 73bd
00000010: c0ed e6bd 443c cabd 5530 43bd 8d75 c23d
00000020: 39f6 c2bd 80d8 8c3d f720 29be a627 123e
00000030: fc93 71be 0463 9fbd e519 c1bd 4882 c03d
00000040: c46c e2bc 955e 5d3e e146 4ebe f01a 76be
00000050: b0e8 cdbc d3eb 293e a42f 81bd c974 253e
00000060: 1843 2fbe fc8b 89bd 9d88 f23d 99c7 00bd
00000070: 31e0 0dbe 95d9 ed3d 2359 f9bd 8ff3 523d
00000080: f33b 31be b534 47be 12a3 59be 1c49 6bbe
00000090: cf64 24be bcc9 8a3e 7e9d dabb ce26 563e
000000a0: 7cb4 f6bc 2076 adbd 3284 6a3b e54d 39be
000000b0: e8e8 29be db55 80be 1012 42bb 7cb8 8dbd
000000c0: 3f77 dcbd b411 f73c c580 213d 5f9b b83e
000000d0: e6d0 5b3c 6d18 eb3d b7e2 f73d 5cc6 1abe
000000e0: 42d9 753c 7428 c0bd c685 77be 413f e0bd
000000f0: 1b3b 7f3d d74b 8b3e 7707 08be 6664 1d3e
00000100: 37e2 ab3d 11a0 38be ae35 46bc f6f3 28bd
00000110: ce64 e53d 7e4d 6e3e a5f7 4cbe 7e4a fd3d
00000120: 9554 ad3d 97a3 4b3e dd2b 3e3e 82d6 953e
00000130: 91ce 633c eeee 423c 4865 1cbc fd39 8cbe
00000140: fd49 2ebe 0c51 503e 9958 1c3e 9b21 05be
00000150: 63d0 b8bc d455 16be 28ac 71bd 7c45 6d3d
00000160: 03b8 933d 83f5 7a3d d287 9a3d 4f01 0fbd
00000170: bc03 fc3d 8e5c 58bd a8e8 35be d689 4abe
00000180: f457 df3d 4476 3c3e cd55 50be 7856 1c3d
00000190: 50da 083e 3d3a f23d f765 8bbd 7089 debc
000001a0: a555 29be 6fd4 1ebe 6d04 40be f10e a3be
000001b0: 7a7e 15bd ff09 db3d 6c8c ecbd 6a88 993e
000001c0: 2aee 19be 89fd 8a3e b58e 1e3e a19d 3cbe
000001d0: 5f0d febc c4be 853d b340 c23c 63cc 1b3d
000001e0: 1360 863c 0554 4a3e fdde aabd 44ae 8a3e
000001f0: 2862 4dbe 36c0 80be ac94 bcbd 0a96 2bbe
00000200: 3964 52bd 32a2 b3be 1238 d3bd c50b 633e
00000210: 6e81 d2bd 3f27 4cbe 695f 073e 48a7 53be
00000220: f847 c63c 8cf8 56be b035 bf3d 5905 923e
00000230: 7c0d 193e 0aee 9c3e 3f75 2c3e 269f 383e
00000240: 0dcb 2dbe b208 72be 14bc 2b3e 8145 d0bd
00000250: 0dac 05be da6a 5fbc efad 37be a43c a7be
00000260: 684d 10bc 2c4d 8f3e 9bbe 913d 6b38 b2be
00000270: d3fe eb3d 630c a5be 8ef2 4f3c 52b5 57be
00000280: 8fb8 713b 00e7 36bd 4bb0 40be d7e4 b4be
00000290: cf34 a2bd 0d5f 2ebe f19f 86bd 6ce0 893e
000002a0: 23b9 4fbe 2432 823c 2b53 533e e507 81be
000002b0: 1d94 bd3d fa41 073e ab14 00be cc68 953e
000002c0: ffb3 c4bc 84db 8dbe 0f11 173e 8865 b3be
000002d0: a788 10bd 66c3 253e 8bd2 653d b006 0c3e
000002e0: fee0 3c3d 9921 bfbd c89b 9bbd 86df 11be
000002f0: 0dcf 69be df81 073e 98a8 9f3d 3ae9 a43e
00000300: fafb 41be 7163 9b3d 236d 15be 1770 ec3c
00000310: 9742 3dbe 0e54 673e 15e5 26be 1d47 2fbe
00000320: e8f8 6bbd e1e7 263e 4b69 2abe c3e4 4bbd
00000330: ba6e 62be ad3c 61ba 81c8 bbbd 746e 9f3e
00000340: dc17 843d 483a 543e 09aa fcbc 39b6 2cbe
00000350: 0e22 83bc 4ba6 2ebe 4650 96bd ae0c 8abd
00000360: dd07 3bbe 1e95 823d 5e05 853d 9c02 393c
00000370: 185f 80bd 62d8 343e 8157 393d 2bff dabb
00000380: 1d13 3fbe 1cd5 84bd 1f34 55be 9b43 73be
00000390: 5687 a1bd 0ddb 5e3d 03a3 63bd cba4 b03e
000003a0: 56e0 a0bc b07a 903e 593c de3d 70fc 3fbe
000003b0: 45f8 983d 3fe2 a8bd f237 2dbe 36dd 933c

recurs1.weight_hh f4 [120, 30]
0.12335742 0.23260665 -0.049209334 0.052690182 0.0048863743 -0.101178706 0.065293156 -0.21840627
-0.060328957 -0.009032451 0.00588316 0.067641884 0.028266098 -0.11996666 -0.054461353 -0.13010883
-0.116553515 -0.052095186 -0.1602336 -0.19553651 -0.17606878 0.046233676 0.08998634 0.20013148
0.124253415 -0.13990107 0.026699532 0.110071614 0.09753108 -0.021847297 -0.010931915 -0.018366545
-0.06402277 0.14364779 -0.11849833 -0.07396442 0.1593567 -0.17102307 -0.088808015 -0.040165655
0.041550357 -0.1294167 -0.111635365 0.054749407 0.10987112 0.18709347 -0.11266694 0.062309764
-0.12330733 -0.08917581 -0.22074895 0.060860984 0.123401724 -0.07756212 0.048313245 -0.20419183
0.22623172 -0.16687667 0.06778566 -0.06817559 -0.13981137 -0.09842866 -0.025444584 0.104644306
0.12963893 -0.2175759 0.09486439 0.16071524 0.14964645 -0.091003306 -0.24804017 -0.09570406
0.15744048 -0.07534648 0.08828603 0.19771636 -0.17222308 0.100423075 0.16918308 0.066331655
-0.02795939 0.10876287 -0.07581869 -0.061560903 0.15333432 0.25480184 0.092903964 -0.05742294
0.16784441 0.006414704 -0.12164801 -0.17718224 0.23872855 0.19418171 -0.11689715 0.09320318
0.15043959 0.18844356 0.16570221 0.096274234 -0.05526844 -0.076487124 0.24824676 0.029388165
-0.040667478 0.19475178 0.051811468 0.1297052 -0.10072128 0.010874377 -0.14485106 0.16365208
0.03015082 0.025207898 0.10756342 0.05930686 0.0017783633 0.060484532 -0.1047297 0.05462355
-0.020110793 -0.13017058 -0.0846461 0.22737901 0.07352512 0.28149483 0.115388915 -0.22334567
-0.20069057 -0.09986475 -0.08780085 0.14401668 -0.0812985 -0.2076961 -0.05629079 -0.10382264
0.13197936 0.13774396 0.03304759 0.048024803 0.05499925 -0.059943914 0.07705306 0.1101549
0.17732646 0.071606584 0.21111946 0.11757497 -0.094460905 0.06544973 0.09791435 0.07846067
-0.059856873 -0.015660614 -0.20929243 0.21264315 0.108692236 -0.069715865 -0.15461731 0.14495057
0.23290145 0.05067775 -0.16144915 0.07290991 0.14579475 -0.20597623 0.23779422 0.019562922
-0.14752688 0.01109455 -0.21020171 -0.08431019 0.16386676 0.022969823 -0.043215953 -0.15779547
0.049258344 0.022553166 -0.040686496 0.081348546 0.09320443 -0.061949424 0.032037072 0.12511925
0.054590717 -0.07464374 -0.059026595 -0.19528186 -0.14292583 0.049902674 -0.085445814 0.06968376
0.13070716 -0.081935644 -0.023376223 -0.089389406 0.054486632 -0.19792643 0.004341693 -0.22700055
-0.25006062 -0.19777434 -0.039704993 0.12431399 -0.09112572 0.056037594 0.012442241 0.07060269
-0.02556262 -0.21646854 0.21353997 0.16680975 0.17413363 0.09419579 -0.16248299 0.21316946
-0.021357015 0.038352218 -0.20238972 -0.04202594 -0.12864493 -0.044824768 0.016016103 -0.2028154
0.12194149 0.056030862 0.05132291 -0.17508018 -0.20996954 -0.105253376 0.040037386 0.14077944
0.06256098 0.006641716 0.11303299 -0.2431681 -0.10439001 0.10822199 -0.1538239 0.033570915
-0.04317914 0.010307632 -0.08884245 0.18327032 -0.071322806 0.23406059 0.061890054 0.03459796
-0.065542005 -0.0940397 0.0407814 0.061100896 0.100447804 -0.22401293 0.24416497 -0.03503789
00000000: d1a2 fc3d 7030 6e3e ba8f 49bd a9d1 573d
00000010: e11d a03b c836 cfbd 6bb8 853d e5a5 5fbe
00000020: 7f1b 77bd d8fc 13bc 86c7 c03b d487 8a3d
00000030: 4e8e e73c 15b1 f5bd de12 5fbd 403b 05be
00000040: 9cb3 eebd c361 55bd 4714 24be b93a 48be
00000050: 604b 34be 865f 3d3d c24a b83d 44ef 4c3e
00000060: 9378 fe3d 3a42 0fbe fab8 da3c 3a6d e13d
00000070: 60be c73d 1af9 b2bc c61b 33bc 7075 96bc
00000080: 5f1e 83bd 6818 133e 41af f2bd a87a 97bd
00000090: 672e 233e ac20 2fbe fae0 b5bd be84 24bd
000000a0: b530 2a3d d085 04be 15a1 e4bd ea40 603d
000000b0: 1c04 e13d 6e95 3f3e edbd e6bd 8638 7f3d
000000c0: 8e88 fcbd cfa1 b6bd 030c 62be 5e49 793d
000000d0: 0bba fc3d e4d8 9ebd 1ce4 453d aa17 51be
000000e0: 4aa9 673e b8e1 2abe 35d3 8a3d a59f 8bbd
000000f0: b62a 0fbe f794 c9bd 2971 d0bc c14f d63d
00000100: 11c0 043e 37cc 5ebe 4348 c23d 8992 243e
00000110: eb3c 193e f15f babd 3efe 7dbe 7d00 c4bd
00000120: 1438 213e 414f 9abd 4ecf b43d 2876 4a3e
00000130: 3f5b 30be 9daa cd3d 543e 2d3e e4d8 873d
00000140: 170b e5bc 11bf de3d d446 9bbd 4927 7cbd
00000150: ac03 1d3e 6375 823e 6f44 be3d 5134 6bbd
00000160: 68df 2b3e 7032 d23b 9822 f9bd 436f 35be
00000170: 4275 743e 92d7 463e c667 efbd 4fe1 be3d
00000180: d60c 1a3e 59f7 403e d7ad 293e 6d2b c53d
00000190: 2961 62bd 48a5 9cbd 6634 7e3e 73bf f03c
000001a0: f192 26bd 036d 473e 4338 543d 71d1 043e
000001b0: f546 cebd 712a 323c d653 14be 6994 273e
000001c0: dafe f63c cb80 ce3c 364a dc3d c0eb 723d
000001d0: f817 e93a a1be 773d 867c d6bd f2bc 5f3d
000001e0: 64bf a4bc 704b 05be ef5a adbd 0bd6 683e
000001f0: 5794 963d 1720 903e 0651 ec3d bab4 64be
00000200: d481 4dbe e485 ccbd efd0 b3bd 1c79 133e
00000210: d47f a6bd 49ae 54be 2c91 66bd f7a0 d4bd
00000220: 9925 073e c10c 0d3e e95c 073d a8b5 443d
00000230: e546 613d c087 75bd ffcd 9d3d e498 e13d
00000240: 1195 353e 79a6 923d b32f 583e 25cb f03d
00000250: b874 c1bd 820a 863d 5287 c83d fdaf a03d
00000260: 7b2c 75bd b04a 80bc c150 56be 20bf 593e
00000270: 099a de3d 31c7 8ebd 0054 1ebe ec6d 143e
00000280: b87d 6e3e 7993 4f3d ed52 25be ca51 953d
00000290: 384b 153e 6feb 52be 5480 733e 6c42 a03c
000002a0: 4911 17be eac5 353c 1e3f 57be d2aa acbd
000002b0: b0cc 273e 362b bc3c 3603 31bd 2395 21be
000002c0: 1ec3 493d 6bc1 b83c e2a6 26bd 119a a63d
000002d0: f7e1 be3d aebe 7dbd 4e39 033d 431f 003e
000002e0: 849a 5f3d d1de 98bd dfc5 71bd f8f7 47be
000002f0: 265b 12be bf66 4c3d 37fe aebd 5cb6 8e3d
00000300: 19d8 053e e0cd a7bd 7e7f bfbc cb11 b7bd
00000310: 602d 5f3d 3aad 4abe c344 8e3b d572 68be
00000320: f207 80be 5b85 4abe b4a1 22bd 5598 fe3d
00000330: 1fa0 babd ad87 653d 8bda 4b3c 2598 903d
00000340: b368 d1bc eea9 5dbe 39aa 5a3e 2dd0 2a3e
00000350: 1650 323e b9e9 c03d f161 26be 1849 5a3e
00000360: e8f4 aebc 3717 1d3d 403f 4fbe 6423 2cbd
00000370: 7fbb 03be 2d9a 37bd 3434 833c d7ae 4fbe
00000380: 76bc f93d 9e80 653d f937 523d 3848 33be
00000390: 4102 57be 158f d7bd 3efe 233d 7c28 103e
000003a0: f91f 803d c1a2 d93b d77d e73d 0f01 79be
000003b0: 6eca d5bd 7ea3 dd3d 0384 1dbe a881 093d
000003c0: 9cdc 30bd 58e1 283c 08f3 b5bd 37ab 3b3e
000003d0: b111 92bd 94ad 6f3e 6d80 7d3d 97b6 0d3d
000003e0: e33a 86bd e397 c0bd 660a 273d ef44 7a3d
000003f0: 94b7 cd3d a563 65be 6206 7a3e e483 0fbd

recurs1.bias_ih f4 [120]
-0.08880083 -0.04666653 0.021493733 0.23171 0.1884289 0.14905761 0.0520609 0.22937682
0.119892634 0.15979464 0.13147157 0.10175417 0.20752834 0.21024305 0.14515543 0.1239984
0.17127101 0.07293765 0.19695964 0.15289722 0.21359614 0.06548981 -0.09170145 0.16174951
0.14942892 0.23024328 0.15380044 0.12538788 0.22861487 0.10280268 0.19993562 0.15635473
0.16309184 0.19954067 -0.10114063 0.16602625 0.18421435 -0.11954408 0.028585803 -0.07743975
-0.013084039 0.040130492 0.17007181 0.006157014 -0.13987954 0.11266901 0.12938547 0.0033088897
0.17309244 0.22078153 0.029233279 0.021013642 0.06324344 0.022359671 0.026861364 -0.027640875
-0.034671664 0.08296826 -0.046965513 -0.046939325 0.2143851 0.014229107 0.20045449 0.2529433
-0.02065548 0.078166634 0.17566065 -0.11559061 -0.05669894 -0.066123076 -0.014646534 0.037689995
0.1190743 -0.15607382 0.09072451 0.19109842 -0.1484159 -0.09477384 -0.12313141 0.039074447
-0.24251267 -0.056451667 0.21928354 -0.16731752 0.23799688 -0.119571075 0.12829117 -0.020683387
0.010414712 0.121990435 0.23034988 -0.012989134 0.16871026 0.12879798 0.13120517 -0.045566138
0.15097311 0.19384453 -0.05496997 -0.087472364 -0.064675234 0.12183305 0.08484372 0.0008308131
0.20693247 0.035929415 -0.040206607 0.14732425 -0.028266871 0.04596162 0.17718348 0.12468486
-0.07191691 0.27245748 0.21046798 -0.051374264 0.15398088 0.12107065 -0.05604581 0.027299339
00000000: 36dd b5bd 6725 3fbd a013 b03c 6345 6d3e
00000010: 81f3 403e 8fa2 183e cf3d 553d c2e1 6a3e
00000020: 458a f53d 35a1 233e 7ca0 063e 7e64 d03d
00000030: 4f82 543e f449 573e a0a3 143e e0f2 fd3d
00000040: ab61 2f3e 5660 953d caaf 493e 1791 1c3e
00000050: f2b8 5a3e 861f 863d f8cd bbbd aaa1 253e
00000060: e503 193e e5c4 6b3e dd7d 1d3e ae65 003e
00000070: 041a 6a3e 368a d23d ecbb 4c3e 741b 203e
00000080: 8c01 273e 6454 4c3e d222 cfbd c902 2a3e
00000090: b0a2 3c3e 87d3 f4bd c62c ea3c bb98 9ebd
000000a0: 705e 56bc df5f 243d 4e27 2e3e c7c0 c93b
000000b0: 953c 0fbe 03bf e63d a07d 043e f5d9 583b
000000c0: 253f 313e 8e14 623e a17a ef3c cd24 ac3c
000000d0: c785 813d a12b b73c 5d0c dc3c 1e6f e2bc
000000e0: e003 0ebd 43eb a93d e95e 40bd 7343 40bd
000000f0: c587 5b3e 3321 693c f143 4d3e c981 813e
00000100: ae35 a9bc d415 a03d 63e0 333e c5ba ecbd
00000110: 263d 68bd 896b 87bd 04f8 6fbc d360 1a3d
00000120: 3add f33d d1d1 1fbe c6cd b93d 4eaf 433e
00000130: 56fa 17be c918 c2bd 522c fcbd 870c 203d
00000140: 3e55 78be dd39 67bd dd8b 603e 4955 2bbe
00000150: 74b5 733e aee1 f4bd c35e 033e 3570 a9bc
00000160: 78a2 2a3c 1fd6 f93d d7e0 6b3e 60d0 54bc
00000170: 62c2 2c3e 9ee3 033e a65a 063e 8fa3 3abd
00000180: b298 1a3e 2e7f 463e 3128 61bd b624 b3bd
00000190: 7374 84bd 9b83 f93d 8bc2 ad3d ecca 593a
000001a0: 1be6 533e b92a 133d afaf 24bd 2bdc 163e
000001b0: ed8f e7bc 4042 3c3d 966f 353e c75a ff3d
000001c0: 2c49 93bd 8c7f 8b3e eb84 573e d26d 52bd
000001d0: 2aad 1d3e e4f3 f73d 4b90 65bd dda2 df3c

recurs1.bias_hh f4 [120]
-0.07749752 0.19355719 0.092473336 0.16959214 0.053712692 0.2519113 0.12376088 -0.08247812
0.072189994 0.19132225 0.16871473 0.045333523 0.019088993 -0.04343462 0.19754057 -0.003952303
0.22765757 0.06673292 0.07398828 -0.076143794 0.016462596 0.24790221 -0.10654907 0.21754721
-0.0784788 0.10934837 -0.08249205 -0.08660094 -0.06407032 0.10223868 0.063594535 -0.07110843
0.08743135 0.17929314 0.19685453 0.23259053 0.13438103 -0.04504331 0.027407803 0.19552101
0.12182537 -0.03549549 0.21025461 -0.100394905 0.18926342 0.11623705 -0.10695532 -0.11250264
0.15957259 0.26014772 0.085405715 -0.057374865 0.13504304 0.14050382 0.04905536 0.20094512
0.18749586 0.03730421 0.10204579 -0.13036804 -0.031963035 0.0050519304 0.11837302 0.061604667
0.0740015 0.10655069 -0.16234681 0.06761407 -0.016802473 -0.21774086 0.0039013752 -0.055820387
-0.073882475 -0.24732773 0.2292432 -0.08495577 -0.02058395 0.17529489 -0.006116095 -0.18972255
-0.25168258 0.06266973 0.0043650903 -0.044553377 0.14784293 -0.08595369 0.22320202 -0.06834107
-0.057969976 -0.11244248 0.13067889 -0.0118740965 0.10469511 0.05697384 0.2600823 -0.0074145827
0.006874482 0.037730366 -0.009772298 0.15074997 0.047933634 0.15455298 0.24326482 0.16415484
0.0034097526 0.18213515 -0.02094146 -0.051006287 0.054565467 -0.032923587 -0.060702924 0.12895747
0.20938332 0.026790986 0.076617196 -0.059190154 0.1063645 0.098098785 0.046934374 0.29451892
00000000: 05b7 9ebd db33 463e a962 bd3d 90a9 2d3e
00000010: d701 5c3d 85fa 803e 5876 fd3d 4aea a8bd
00000020: 59d8 933d fbe9 433e 8ec3 2c3e a5af 393d
00000030: 8560 9c3c 80e8 31bd 1348 4a3e 5282 81bb
00000040: 111f 693e 45ab 883d 2b87 973d 47f1 9bbd
00000050: 91dc 863c 14da 7d3e 6636 dabd b2c4 5e3e
00000060: 7eb9 a0bd 0af2 df3d 98f1 a8bd d55b b1bd
00000070: 4d37 83bd 8362 d13d da3d 823d 4ca1 91bd
00000080: 350f b33d 9f98 373e 3c94 493e 362c 6e3e
00000090: 2e9b 093e 557f 38bd 5486 e03c a936 483e
000000a0: 947f f93d b863 11bd fc4c 573e d89b cdbd
000000b0: 45ce 413e b10d ee3d 640b dbbd c967 e6bd
000000c0: ff66 233e 1532 853e 31e9 ae3d e801 6bbd
000000d0: b948 0a3e 3ce0 0f3e 46ee 483d 8fc4 4d3e
000000e0: eafe 3f3e 4dcc 183d 62fd d03d 337f 05be
000000f0: aceb 02bd aa8a a53b 8e6d f23d 2d55 7c3d
00000100: 198e 973d 4037 da3d 3e3e 26be 3f79 8a3d
00000110: 57a5 89bc 76f7 5ebe 37ae 7f3b eba3 64bd
00000120: b24f 97bd 7b43 7dbe bbbe 6a3e 4afd adbd
00000130: ac9f a8bc 8180 333e 8669 c8bb a146 42be
00000140: 8adc 80be fd58 803d 0809 8f3b 9a7d 36bd
00000150: 2364 173e 7d08 b0bd 128f 643e 67f6 8bbd
00000160: ed71 6dbd 3e48 e6bd b0d0 053e 928b 42bc
00000170: 646a d63d 675d 693d 8229 853e 07f6 f2bb
00000180: 5643 e13b 288b 1a3d fd1b 20bc 335e 1a3e
00000190: 0f56 443d 2343 1e3e 6a1a 793e 3518 283e
000001a0: 2876 5f3b a381 3a3e 6d8d abbc f8eb 50bd
000001b0: 0a80 5f3d e2da 06bd a1a3 78bd 6d0d 043e
000001c0: 9568 563e c578 db3c 7ae9 9c3d 6071 72bd
000001d0: a2d5 d93d 04e8 c83d 423e 403d 2fcb 963e

recurs2.weight_ih f4 [120, 30]
-0.074567124 0.022844922 -0.017148577 0.26599953 0.11744511 0.26628783 0.14204288 0.024015756
-0.18643554 -0.16133198 0.0850094 -0.14883107 0.18471639 -0.022558652 0.114712596 -0.13817059
0.1072939 -0.007983563 -0.11887608 -0.038599744 -0.100455195 -0.08993596 0.1023983 -0.16752328
0.28706253 0.07412903 0.21718766 0.08243627 -0.18224387 -0.11099623 -0.12343298 -0.10917253
-0.08364482 0.2401912 0.120342255 0.14733568 -0.05712774 0.13462983 -0.033921294 -0.13425684
0.07809258 0.08927542 -0.0070258602 0.07510608 0.07085362 0.11338705 -0.25285292 0.0621714
-0.095115006 -0.17268097 -0.19033803 0.044343196 0.014173446 -0.18228352 0.23331837 0.015253035
-0.08762633 -0.018811382 0.08792675 0.039100107 0.08969003 -0.03171143 0.15889247 -0.024453469
-0.049447656 0.1768567 -0.09283646 0.086820684 0.15948133 -0.2544838 -0.1044126 0.12633508
0.13631691 -0.068284355 0.12693648 0.15010332 -0.15594238 0.08206365 0.11969368 -0.073446214
-0.2735203 0.10966588 0.0116806105 -0.113200404 0.19991937 -0.002403766 -0.018457398 -0.14870675
0.013976899 -0.0065998714 0.049258742 -0.10142964 0.26378834 0.25455666 0.025847273 0.14746088
0.021708898 0.09734281 -0.012375404 -0.08506268 -0.08629584 0.050658017 -0.05359153 -0.08828687
-0.021739272 -0.01578749 0.026386904 -0.08900217 0.072718814 -0.2192733 0.007752993 0.062061552
0.018127978 0.012355087 -0.017217983 -0.22537304 0.032690343 -0.018540306 0.018480834 -0.16111602
0.26379797 0.063430026 -0.017127875 0.10718364 -0.15430847 0.13717231 0.0064811246 -0.13183263
-0.06626296 0.0695215 -0.04375903 0.004093018 -0.0035771707 -0.22389859 0.097847044 -0.00024507407
-0.14808495 0.01637179 0.104271576 -0.017625596 -0.21829833 0.11676257 -0.08094887 -0.13733557
0.18235132 0.05546851 0.28774187 0.16946825 -0.14700377 -0.022459712 -0.018023094 0.029034503
0.2658461 0.2290399 -0.18732962 0.024338186 -0.16104944 0.04051137 -0.08247466 -0.22270255
-0.03415752 0.061396584 0.11486189 0.034738947 0.12583467 0.10137292 -0.1095261 0.03778997
-0.06562064 0.056158103 -0.07258392 -0.103722535 -0.07715757 -0.25472936 0.06638072 -0.08819663
0.3050225 -0.04334342 0.07169552 0.079859436 -0.07427916 -0.08231345 0.117458865 0.1644837
-0.15741687 0.10112581 -0.24221848 -0.06546956 -0.021894824 0.004399436 0.046545938 0.1345324
-0.025370192 0.06422833 -0.10642848 -0.12305675 -0.13539407 -0.1996188 0.07426254 -0.14463514
-0.23838107 -0.019847631 -0.10347687 0.012700225 0.16584887 -0.115942374 0.1954904 0.05875365
-0.19222778 -0.029347785 0.17645547 0.0020245519 0.098939225 0.12414461 -0.033035375 0.11625523
-0.21617518 0.087056 0.030867742 -0.005573819 0.08396332 -0.11568877 -0.0012692206 -0.0880305
0.10033377 -0.090132445 0.008530596 -0.06115913 0.09251652 -0.26135835 -0.08689759 0.09642609
-0.08835469 -0.031499084 0.17478302 0.003861826 0.12604176 0.07400328 -0.14728135 0.12261639
0.06734143 0.16255885 0.11572799 0.07762627 0.03173217 0.25020903 0.13350862 -0.20677154
-0.04558323 -0.15997992 0.1513595 0.16902998 -0.08560658 -0.094574116 0.18560953 0.11749034
00000000: a6b6 98bd 4625 bb3c 2c7b 8cbc 1731 883e
00000010: 1087 f03d e156 883e b073 113e b1bc c43c
00000020: f5e8 3ebe 3634 25be 6919 ae3d 2c67 18be
00000030: 4b26 3d3e eccc b8bc 70ee ea3d 977c 0dbe
00000040: e7bc db3d 7dcd 02bc 4d75 f3bd c41a 1ebd
00000050: 74bb cdbd 5830 b8bd 33b6 d13d 398b 2bbe
00000060: dcf9 923e f6d0 973d 7166 5e3e 59d4 a83d
00000070: 239e 3abe fe51 e3bd 6eca fcbd d995 dfbd
00000080: fa4d abbd aff4 753e 0076 f63d 2adf 163e
00000090: c7fe 69bd 67dc 093e 0ef1 0abd a07a 09be
000000a0: 01ef 9f3d 08d6 b63d 3039 e6bb 37d1 993d
000000b0: b41b 913d 7837 e83d f075 81be 70a7 7e3d
000000c0: a8cb c2bd 48d3 30be f9e7 42be 36a1 353d
000000d0: be37 683c 88a8 3abe 03eb 6e3e dee7 793c
000000e0: 6f75 b3bd 541a 9abc f112 b43d 6f27 203d
000000f0: 68af b73d d8e3 01bd b5b4 223e a452 c8bc
00000100: a089 4abd ec19 353e 0b21 bebd 0bcf b13d
00000110: 134f 233e b34b 82be 46d6 d5bd fc5d 013e
00000120: a996 0b3e abd8 8bbd a3fb 013e afb4 193e
00000130: 5caf 1fbe fd10 a83d f621 f53d f86a 96bd
00000140: da0a 8cbe 8198 e03d 0860 3f3c 9dd5 e7bd
00000150: aab7 4c3e 8088 1dbb f833 97bc 9546 18be
00000160: 5dff 643c bc43 d8bb 89c3 493d 58ba cfbd
00000170: 440f 873e 4055 823e a9bd d33c fcff 163e
00000180: dcd6 b13c ab5b c73d 35c2 4abc 5835 aebd
00000190: e0bb b0bd c87e 4f3d cb82 5bbd bfcf b4bd
000001a0: 8f16 b2bc c454 81bc 5929 d83c c546 b6bd
000001b0: 9aed 943d 2e89 60be d20c fe3b 4134 7e3d
000001c0: 2081 943c fe6c 4a3c ba0c 8dbc 31c8 66be
000001d0: 4fe6 053d d7e1 97bc 1e65 973c 99fb 24be
000001e0: 8710 873e 9ae7 813d c24f 8cbc 1983 db3d
000001f0: 0a03 1ebe e676 0c3e 9d5f d43b 22ff 06be
00000200: e0b4 87bd 4a61 8e3d ab3c 33bd b91e 863b
00000210: f76e 6abb ac45 65be 0864 c83d 497d 80b9
00000220: 95a3 17be 221e 863c 568c d53d 8e63 90bc
00000230: 9989 5fbe 3721 ef3d 85c8 a5bd b2a1 0cbe
00000240: 4eba 3a3e f332 633d e752 933e 1689 2d3e
00000250: 2888 16be 6efd b7bc 2ba5 93bc c4d9 ed3c
00000260: fb1c 883e 6f89 6a3e 56d3 3fbe e060 c73c
00000270: 25ea 24be 40ef 253d 79e8 a8bd 230c 64be
00000280: c1e8 0bbd fc7a 7b3d b63c eb3d 6d4a 0e3d
00000290: ceda 003e 9b9c cf3d 384f e0bd a8c9 1a3d
000002a0: 1d64 86bd 0a06 663d e1a6 94bd 7b6c d4bd
000002b0: ca04 9ebd e36b 82be 9df2 873d 6fa0 b4bd
000002c0: e92b 9c3e df88 31bd 1ad5 923d 588d a33d
000002d0: ac1f 98bd f493 a8bd 468e f03d 6a6e 283e
000002e0: e331 21be 0c1b cf3d 1f08 78be e814 86bd
000002f0: c65c b3bc 2529 903b f4a6 3e3d ddc2 093e
00000300: 26d5 cfbc 258a 833d 2df7 d9bd 2d05 fcbd
00000310: bea4 0abe df68 4cbe f516 983d 3c1b 14be
00000320: 2b1a 74be 8097 a2bc aeeb d3bd 9b14 503c
00000330: 49d4 293e 3273 edbd a32e 483e aba7 703d
00000340: 5cd7 44be c46a f0bc beb0 343e 58ae 043b
00000350: a6a0 ca3d 873f fe3d 1a50 07bd 3917 ee3d
00000360: 075d 5dbe 6b4a b23d 59de fc3c 95a4 b6bb
00000370: f6f4 ab3d 3cee ecbd fa5b a6ba 5649 b4bd
00000380: cb7b cd3d 5c97 b8bd eac3 0b3c ff81 7abd
00000390: 4d79 bd3d c3d0 85be 5df7 b1bd 0b7b c53d
000003a0: 4ef3 b4bd 2f05 01bd 52fa 323e b016 7d3b
000003b0: 1711 013e 088f 973d ecd0 16be 4d1e fb3d
000003c0: 4eea 893d d475 263e cc02 ed3d 86fa 9e3d
000003d0: 98f9 013d 661b 803e 7cb6 083e ebbb 53be
000003e0: 7bb5 3abd c7d1 23be fcfd 1a3e 3216 2d3e
000003f0: 8152 afbd 13b0 c1bd 6d10 3e3e c69e f03d

recurs2.weight_hh f4 [120, 30]
0.02270528 0.089169145 0.19845714 -0.16650312 0.1030704 -0.11334665 0.19261931 -0.1447493
-0.029320242 0.031712223 -0.031516083 0.04601305 -0.048194278 0.056937255 -0.040036395 -0.00046873104
0.062157057 0.116906695 -0.16432859 -0.113179594 -0.030867768 0.00089207245 -0.092258684 -0.039688144
0.052041396 -0.066645555 -0.02357827 -0.03215314 -0.16826765 0.11047503 -0.04401164 -0.108090624
-0.1555506 0.081929766 -0.011555409 0.07046252 0.032581814 -0.09147748 -0.12691523 0.054729212
-0.21986318 -0.06774777 -0.07283024 -0.006540322 0.14179283 0.18974787 0.17975572 -0.07479043
-0.13741434 0.06484529 0.15439999 -0.09804169 -0.09742097 -0.15340912 -0.04137309 -0.12483987
-0.160705 0.010126942 -0.01525822 0.06584118 -0.1529148 -0.08865646 0.16975316 -0.042028263
0.16694021 -0.11141985 0.0236394 0.0012329913 -0.05021882 -0.26650047 0.095653825 -0.05444008
-0.014980572 0.05590719 0.17460673 0.045547087 0.09251649 -0.0041468376 0.09890469 0.09091837
0.13327481 0.012979513 -0.19482034 0.041026928 -0.16167963 -0.2637392 0.00996835 0.026242318
-0.13168344 0.18182509 -0.0776508 -0.0057245987 0.19949272 0.09076817 -0.06328071 -0.011822098
-0.043711063 -0.19126688 -0.06198066 -0.06553655 -0.1940558 -0.06439414 -0.23503454 -0.016810574
0.11307837 0.017599093 0.12706558 0.1674313 0.058267903 0.018292576 -0.015840955 0.088524126
-0.21570593 -0.121053234 0.09080115 -0.07816079 0.019720908 0.22244927 0.09902078 0.091213
0.1320761 0.18755211 -0.04983336 0.049307026 0.113669366 0.068173416 0.2132304 -0.14060435
0.012497155 0.14983442 -0.21145564 -0.08417932 0.053207614 0.1263236 0.25083372 -0.023560204
0.12569797 -0.15051201 -0.14265986 -0.019475907 -0.043396242 0.08623586 -0.075595036 0.1484881
-0.055765923 0.0238887 -0.03474877 0.19316171 0.0026906629 0.20702203 -0.22045292 -0.06272334
0.17221498 0.13443422 -0.009708021 0.16288646 0.17007707 -0.18913278 -0.0092616845 0.07365799
-0.14498934 0.14850341 -0.12589052 -0.080606796 -0.033813763 -0.05209712 0.19605829 0.1316082
0.057825286 0.07502664 0.08773623 -0.0075959987 -0.22521529 -0.16109817 -0.08557137 0.062286746
-0.0952377 0.045731723 0.034671564 0.26129523 -0.046642173 0.13273913 -0.08470655 -0.18584476
-0.00022881619 0.070813924 0.14516461 0.047964323 0.13020425 -0.118124425 -0.036371358 0.1725222
-0.13395299 0.14528373 -0.091268994 0.10660304 0.08374686 0.16009362 -0.048618507 -0.014855651
-0.03918761 0.25088558 -0.013894719 -0.06886655 0.034759846 0.054232247 -0.1138473 -0.11765554
-0.068701066 0.12534702 -7.4866926e-05 0.025138807 0.0942514 -0.0047814883 0.1615831 -0.10353428
0.20736912 -0.0068202005 0.12604485 0.050098483 -0.22445874 0.1326031 -0.11374927 -0.11146682
0.16518411 0.037418317 -0.08737324 -0.09714486 0.13581453 -0.2153817 0.11492617 0.094435796
-0.14473417 0.066323966 -0.16423294 -0.044709466 -0.08959589 0.112733044 -0.045982946 -0.083365336
-0.05218618 0.19634189 -0.049821634 0.1497389 0.13184698 -0.024580041 0.039913204 0.13098796
-0.00952656 -0.02161884 -0.05726756 0.028106734 -0.19492576 -0.082789466 0.24240564 0.107233696
00000000: 6c00 ba3c 509e b63d 5938 4b3e cb7f 2abe
00000010: 9316 d33d 4a22 e8bd ff3d 453e 2939 14be
00000020: 0131 f0bc ade4 013d 0217 01bd 2e78 3c3d
00000030: 5d67 45bd 0a37 693d 34fd 23bd 04c0 f5b9
00000040: 6698 7e3d c76c ef3d c145 28be b4ca e7bd
00000050: 67de fcbc f8d9 693a 1ff2 bcbd 0990 22bd
00000060: 5c29 553d 777d 88bd 3727 c1bc 03b3 03bd
00000070: 5b4e 2cbe bc40 e23d 8d45 34bd 9e5e ddbd
00000080: a848 1fbe cbca a73d e652 3dbc a74e 903d
00000090: 8274 053d 8c58 bbbd 11f6 01be bd2b 603d
000000a0: d023 61be 58bf 8abd 0528 95bd 3350 d6bb
000000b0: 2432 113e 444d 423e e211 383e ba2b 99bd
000000c0: 58b6 0cbe 9bcd 843d 081b 1e3e 15ca c8bd
000000d0: a584 c7bd 4817 1dbe d476 29bd 0cac ffbd
000000e0: da8f 24be 79eb 253c 9dfd 79bc bed7 863d
000000f0: b395 1cbe 8591 b5bd c6d3 2d3e d425 2cbd
00000100: 60f2 2a3e 1730 e4bd 6aa7 c13c 539c a13a
00000110: 40b2 4dbd c072 88be 27e6 c33d 90fc 5ebd
00000120: 1371 75bc f0fe 643d 1bcc 323e 958f 3a3d
00000130: 4979 bd3d 32e2 87bb 8b8e ca3d 6933 ba3d
00000140: 3179 083e 06a8 543c fc7e 47be da0b 283d
00000150: 588f 25be d308 87be 4a52 233c 21fa d63c
00000160: 06d8 06be 5b30 3a3e 6207 9fbd 6a95 bbbb
00000170: d247 4c3e aae4 b93d 5199 81bd 79b1 41bc
00000180: 5f0a 33bd 77db 43be 6fdf 7dbd 0738 86bd
00000190: 90b6 46be 13e1 83bd e5ac 70be 54b6 89bc
000001a0: a295 e73d f92b 903c 7b1d 023e 1c73 2b3e
000001b0: 53aa 6e3d 50da 953c e4c4 81bc 234c b53d
000001c0: 04e2 5cbe c2ea f7bd f4f5 b93d c412 a0bd
000001d0: be8d a13c bec9 633e 68cb ca3d e2cd ba3d
000001e0: f53e 073e a90d 403e 111e 4cbd 2af6 493d
000001f0: 7ccb e83d 819e 8b3d 1259 5a3e 96fa 0fbe
00000200: dec0 4c3c 326e 193e d487 58be 3566 acbd
00000210: 3af0 593d f95a 013e 476d 803e 5401 c1bc
00000220: f8b6 003e d21f 1abe 6d15 12be f08b 9fbc
00000230: 42c0 31bd 6d9c b03d 92d1 9abd 440d 183e
00000240: cf6a 64bd 3cb2 c33c ba54 0ebd 2fcc 453e
00000250: d555 303b 95fd 533e 69be 61be 1875 80bd
00000260: 2059 303e 20a9 093e 640e 1fbc b5cb 263e
00000270: af28 2e3e 06ac 41be 52be 17bc 00da 963d
00000280: 1678 14be 4711 183e 72e9 00be 2d15 a5bd
00000290: 4d80 0abd ca63 55bd 81c3 483e 4dc4 063e
000002a0: 35da 6c3d 91a7 993d 0daf b33d dbe7 f8bb
000002b0: d69e 66be ebf6 24be 0b40 afbd 6320 7f3d
000002c0: fc0b c3bd 3051 3b3d c503 0e3d 7dc8 853e
000002d0: dd0b 3fbd c4ec 073e a17a adbd 174e 3ebe
000002e0: 61ee 6fb9 e406 913d 08a6 143e 3d76 443d
000002f0: 4354 053e 38eb f1bd 22fa 14bd a9a9 303e
00000300: f92a 09be 42c5 143e 3deb babd b252 da3d
00000310: 7983 ab3d 95ef 233e 3324 47bd 1e65 73bc
00000320: 3083 20bd 1374 803e ada6 63bc e809 8dbd
00000330: 5760 0e3d a222 5e3d c628 e9bd 63f5 f0bd
00000340: 25b3 8cbd f85a 003e e001 9db8 e6ef cd3c
00000350: e106 c13d 08ae 9cbb 0a76 253e c809 d4bd
00000360: 9258 543e fd7b dfbb e711 013e 1134 4d3d
00000370: 83d8 65be 1bc9 073e 61f5 e8bd b748 e4bd
00000380: 0626 293e f343 193d bef0 b2bd e2f3 c6bd
00000390: f712 0b3e 058d 5cbe 695e eb3d 8e67 c13d
000003a0: 3235 14be dcd4 873d ae2c 28be 4621 37bd
000003b0: 0d7e b7bd 95e0 e63d 9d58 3cbd 72bb aabd
000003c0: 2dc1 55bd d90d 493e c511 4cbd 2755 193e
000003d0: e502 073e 155c c9bc 077c 233d b521 063e
000003e0: 4a15 1cbc fe19 b1bc 6491 6abd 1840 e63c
000003f0: 9e9a 47be 868d a9bd 2f39 783e 579d db3d

recurs2.bias_ih f4 [120]
0.28166524 0.26330754 0.0011171903 0.14287674 -0.007630474 0.06211014 0.08059152 0.27530292
0.09705323 0.2182483 -0.050116953 0.10975877 0.15758638 0.019141814 0.12824245 0.14848645
0.27470988 0.10298443 0.08786227 0.23848823 0.060721565 0.23335247 0.2620594 0.0025871492
0.1702983 0.05270474 0.26809356 0.08678381 0.11491779 0.2533868 0.10861566 0.18354438
-0.0112210475 -0.056950603 0.06328971 0.24856387 0.20919693 -0.0053684646 0.23358178 -0.066539645
0.19714971 0.035517063 -0.03784016 0.12121908 0.20215766 0.19324248 -8.323527e-05 0.09219711
0.1314305 0.052620485 0.043814525 0.20391053 -0.0076993094 0.21557814 -0.06826333 -0.020026753
0.114437714 -0.0015722134 -0.06956079 0.03564547 -0.07421658 0.11057573 0.1370069 -0.06666779
0.12282252 0.14291018 0.1307432 -0.123321265 -0.13701151 -0.07673375 -0.003090772 0.06117093
-0.20982955 0.14476849 0.27699596 0.027763484 0.053932585 0.018829275 -0.11585883 -0.19141814
0.15986313 0.19881439 0.016744127 -0.17262965 -0.0033389702 -0.15679428 0.038281046 0.17796984
0.20169574 0.22392067 0.16172013 0.2994799 0.08048782 0.15296154 -0.011088244 0.22461085
0.17555009 0.18808234 0.23778039 0.19933656 -0.0570464 0.10096608 -0.02849947 0.2595394
0.08215365 -0.013076868 0.22093098 0.018750204 0.11401225 0.23281415 0.20506194 0.19554743
0.11380951 0.08636523 0.14606385 -0.08682587 0.062093556 0.24713254 0.24702658 -0.053889222
00000000: 6d36 903e 3fd0 863e b06e 923a 484e 123e
00000010: 0e09 fabb 3467 7e3d 2b0d a53d 81f4 8c3e
00000020: d8c3 c63d 7b7c 5f3e 6f47 4dbd 35c9 e03d
00000030: 535e 213e 4bcf 9c3c fd51 033e d50c 183e
00000040: c6a6 8c3e 80e9 d23d 22f1 b33d 4236 743e
00000050: 2db7 783d f3f3 6e3e a62c 863e 298d 293b
00000060: ad62 2e3e ede0 573d 8f43 893e b6bb b13d
00000070: 055a eb3d eabb 813e e371 de3d 0ff3 3b3e
00000080: 7cd8 37bc 0945 69bd 099e 813d 8787 7e3e
00000090: b837 563e f2e9 afbb 1030 6f3e f045 88bd
000000a0: 9de1 493e 577a 113d 49fe 1abd b641 f83d
000000b0: 6b02 4f3e 5be1 453e 988e aeb8 d7d1 bc3d
000000c0: b895 063e 9488 573d dc76 333d eccd 503e
000000d0: 7d4a fcbb 84c0 5c3e a5cd 8bbd 250f a4bc
000000e0: 525e ea3d ba12 ceba e375 8ebd fc00 123d
000000f0: ddfe 97bd 8775 e23d 894b 0c3e 1f89 88bd
00000100: 608a fb3d 0c57 123e 8ce1 053e dc8f fcbd
00000110: bf4c 0cbe 9626 9dbd 8d8e 4abb 5e8e 7a3d
00000120: 8fdd 56be 313e 143e 6ad2 8d3e 3f70 e33c
00000130: 6ae8 5c3d da3f 9a3c 6547 edbd 1e03 44be
00000140: 29b3 233e 0096 4b3e fb2a 893c d4c5 30be
00000150: a0d2 5abb ae8e 20be 96cc 1c3d ba3d 363e
00000160: 5489 4e3e 764b 653e f699 253e 6e55 993e
00000170: ccd6 a43d f3a1 1c3e 77ab 35bc 6300 663e
00000180: 67c3 333e a898 403e b47c 733e e21e 4c3e
00000190: 7ca9 69bd 4ec7 ce3d b877 e9bc 59e2 843e
000001a0: 2c40 a83d 5c40 56bc bb3b 623e 079a 993c
000001b0: 417f e93d d566 6e3e c2fb 513e 963d 483e
000001c0: f614 e93d 41e0 b03d c391 153e c3d1 b1bd
000001d0: d055 7e3d 5010 7d3e 89f4 7c3e f2ba 5cbd

recurs2.bias_hh f4 [120]
0.16689603 0.28729188 -0.022982353 0.15053496 0.015575924 0.15457755 0.02012127 0.2710129
0.20090213 0.0036546253 -0.027544603 0.049993683 0.112401165 0.15265688 0.04878385 0.0378057
0.12464612 -0.018979048 0.15738656 -0.029805958 0.09615924 -0.03805242 0.036392156 0.111805305
0.059275117 -0.020885242 0.14592071 0.017293505 0.15959014 0.1737486 0.060948648 -0.09698705
0.0056055165 0.08399445 0.08712887 -0.051083535 0.19830894 0.11790148 0.092756376 0.057558525
-0.0037592386 0.11241059 0.18282725 0.044046883 0.13103044 0.18392153 0.16894394 0.047609564
0.12396388 0.114306346 0.13838704 -0.022368737 0.06617873 0.104005165 -0.086566545 0.09427847
-0.054239493 0.16144411 0.030959042 0.114416406 -0.12993848 0.119056545 0.16695373 0.12745157
0.07596606 -0.071489975 0.17695129 0.04412884 -0.16425095 -0.07415237 -0.06130297 0.04053378
-0.03558294 0.13774034 0.08096039 0.0120444605 0.01697261 0.097424395 -0.14061125 0.12491885
-0.022683762 0.15107664 -0.10139318 -0.07959836 -0.004125761 -0.0584902 -0.14043222 -0.15364724
-0.13253585 0.2454965 0.21061435 0.06106457 0.22811636 0.13430882 0.104030944 0.0377693
-0.008045497 0.23648682 0.28879252 -0.1394663 0.13819504 0.19365248 0.017745512 0.039844293
-0.04811166 0.19893807 0.31815252 0.19545883 0.0878342 0.17848413 -0.015165831 -0.011940188
0.17438124 0.26228124 0.14908873 0.039414566 0.14446792 -0.073954865 0.26404133 0.0015823566
00000000: cbe6 2a3e ec17 933e 7d45 bcbc d625 1a3e
00000010: 2932 7f3c 9449 1e3e 5dd5 a43c 34c2 8a3e
00000020: 4ab9 4d3e 7082 6f3b 38a5 e1bc 2dc6 4c3d
00000030: 9532 e63d 1652 1c3e 93d1 473d 26da 1a3d
00000040: 7746 ff3d f379 9bbc f129 213e a02b f4bc
00000050: 23ef c43d dbdc 1bbd f10f 153d 2efa e43d
00000060: 77ca 723d 8717 abbc 3d6c 153e 1cab 8d3c
00000070: 996b 233e 27eb 313e 4aa5 793d 25a1 c6bd
00000080: 7bae b73b 4805 ac3d 9f70 b23d f83c 51bd
00000090: 8011 4b3e 5576 f13d 0ef7 bd3d 7dc2 6b3d
000000a0: 8f5d 76bb 8637 e63d 1137 3b3e 816a 343d
000000b0: d82c 063e ed55 3c3e a4ff 2c3e 3f02 433d
000000c0: c6e0 fd3d 7219 ea3d 55b5 0d3e a43e b7bc
000000d0: b788 873d a900 d53d cd49 b1bd 1215 c13d
000000e0: 3b2a 5ebd 9b51 253e d19d fd3c 2653 ea3d
000000f0: 980e 05be ebd3 f33d ebf5 2a3e aa82 023e
00000100: 1894 9b3d 5669 92bd b832 353e 71c0 343d
00000110: 6731 28be 33dd 97bd d318 7bbd c006 263d
00000120: 6bbf 11bd ce0b 0d3e 90ce a53d 2156 453c
00000130: 250a 8b3c 7186 c73d 65fc 0fbe 74d5 ff3d
00000140: 4cd3 b9bc d6b3 1a3e 3aa7 cfbd 7704 a3bd
00000150: 6431 87bb 6c93 6fbd 77cd 0fbe b455 1dbe
00000160: 7ab7 07be 6f63 7b3e 4aab 573e d81e 7a3d
00000170: 5697 693e 4088 093e 2d0e d53d fbb3 1a3d
00000180: 43d1 03bc 9a29 723e 9ddc 933e 41d0 0ebe
00000190: 0083 0d3e d64c 463e 095f 913c c533 233d
000001a0: bb10 45bd 6cb6 4b3e e3e4 a23e 5c26 483e
000001b0: 6be2 b33d 8bc4 363e 1b7a 78bc c7a0 43bc
000001c0: ff90 323e ba49 863e b7aa 183e 2b71 213d
000001d0: 66ef 133e a675 97bd 6d30 873e 1467 cf3a

output.weight f4 [2, 30]
-0.12842403 -0.07693765 0.12206857 -0.06258938 0.0722295 -0.09793052 0.17034356 -0.18886372
-0.19683142 -0.23806912 0.046347715 0.078790784 -0.19262484 0.013149624 0.24178989 0.06717199
0.17739709 -0.024043433 -0.088170834 0.106042884 0.10065418 -0.048613325 -0.073200434 0.069297515
0.070684 -0.12293876 -0.23593436 0.19275206 -0.045664493 0.05988154 0.28305545 0.227475
0.18457136 0.2294077 -0.13039283 0.17912112 -0.1931379 0.1852519 0.20805387 0.08742647
-0.19600803 -0.1560482 -0.14923851 -0.22746417 0.14863932 0.2630988 0.17639777 -0.22305986
0.2632763 -0.23954016 0.18439098 0.10298094 0.19357066 0.18052518 -0.33207098 0.14388609
-0.14558828 -0.25431663 0.27686274 0.1315959
00000000: 9781 03be 7d91 9dbd 16ff f93d dc2e 80bd
00000010: 0fed 933d cc8f c8bd 8b6e 2e3e 7e65 41be
00000020: 2d8e 49be 64c8 73be 1ad7 3d3d 105d a13d
00000030: 723f 45be 8571 573c c597 773e 7891 893d
00000040: 95a7 353e bcf6 c4bc e992 b4bd 032d d93d
00000050: c723 ce3d c41e 47bd 1cea 95bd dbeb 8d3d
00000060: c6c2 903d 51c7 fbbd c798 71be cc60 453e
00000070: b10a 3bbd 5846 753d a5ec 903e 35ef 683e
00000080: 4600 3d3e dae9 6a3e b385 05be 876b 373e
00000090: f1c5 45be adb2 3d3e 130c 553e a60c b33d
000000a0: 54b6 48be 19cb 1fbe fbd1 18be 5eec 68be
000000b0: e834 183e e3b4 863e 9ea1 343e ce69 64be
000000c0: 27cc 863e 044a 75be fdd0 3c3e ace7 d23d
000000d0: 6337 463e 98db 383e 3505 aabe e056 133e
000000e0: 1815 15be ca35 82be f4c0 8d3e 13c1 063e

output.bias f4 [2]
0.08715021 0.007065089
00000000: cf7b b23d 4382 e73b

switch.weight f4 [1, 30]
0.1278215 -0.06734456 -0.10023953 -0.057739485 -0.045197576 0.07621334 -0.03302 0.08341612
-0.14450823 0.021595767 0.14258943 -0.0202897 0.14756279 0.05617366 -0.17561208 -0.10590803
0.14433736 -0.0313926 0.17474362 -0.17638847 -0.09689265 0.13988572 0.16716547 -0.16535023
0.058418185 -0.17903356 -0.1313318 0.081509024 -0.0915888 -0.014729306
00000000: a4e3 023e f2eb 89bd 624a cdbd 3d80 6cbd
00000010: 1821 39bd bd15 9c3d fb3f 07bd 12d6 aa3d
00000020: f7f9 13be 9be9 b03c f702 123e 9636 a6bc
00000030: b31a 173e 5a16 663d a7d3 33be 4fe6 d8bd
00000040: 2ccd 133e 8795 00bd feef 323e 2e9f 34be
00000050: a76f c6bd 343e 0f3e 6d2d 2b3e 9251 29be
00000060: e847 6f3d 9354 37be d87b 06be 34ee a63d
00000070: e992 bbbd 3053 71bc
