checkpoints/VQE-H2-7bd86193/model.pth (torch, 49793 bytes, 11 tensors)

recurs1.weight_ih f4 [120, 2]
-0.05617921 0.29266948 -0.23862761 -0.017902935 -0.15077566 -0.1485903 -0.04151278 0.20210032
-0.10510502 0.101690136 -0.17036575 0.12744194 -0.27977887 -0.03283215 -0.08259119 0.21719848
-0.033863213 0.30532888 -0.2193177 -0.24826005 -0.0077842264 0.19688207 -0.022524737 0.21350875
-0.15365748 -0.090884395 0.06849533 0.070822746 -0.17191693 0.10205238 -0.13301082 0.055230044
-0.17328557 -0.18473314 -0.22351392 -0.21020795 -0.17840983 0.31798702 -0.01543896 0.20948891
-0.06410143 0.03779986 0.009634759 -0.16857903 -0.2065921 -0.33280894 -0.009347552 -0.08410451
-0.13421321 0.09622793 0.020921296 0.32736367 0.00053781486 0.19697061 0.16210537 -0.13883793
-0.0015916781 0.012479852 -0.22837946 -0.07039949 0.06257409 0.28288648 -0.1366482 0.19976473
0.08145673 -0.25387177 -0.03010282 0.0696099 0.1621318 0.30542722 -0.2116898 0.11482427
0.04057822 0.19828196 0.18550357 0.36509493 -0.023577116 0.026748238 0.0036691434 -0.27204627
-0.17081036 0.2467634 0.1565755 -0.1465596 -0.012148931 -0.16051687 -0.061997484 0.1591145
0.020675924 0.05644721 0.09835835 -0.029618718 0.13303897 -0.037546292 -0.17185248 -0.156017
0.07540645 0.19580154 -0.19469303 0.04366188 0.12440402 0.2585008 -0.09393139 -0.051290635
-0.20388547 -0.26103354 -0.16523106 -0.35682225 -0.052604403 0.16684368 -0.1464103 0.25644895
-0.13513602 0.3560238 0.17176226 -0.15795426 -0.044271164 0.13478519 0.06650279 0.11039389
0.02696382 0.20674405 -0.06531623 0.2587327 -0.20223957 -0.25415117 -0.103902385 -0.06651737
-0.046972476 -0.38994896 -0.09343611 0.22419243 -0.077137895 -0.19634393 0.16392533 -0.2239276
0.06246419 -0.2324533 0.09348055 0.29947975 0.15221195 0.30320558 0.14845179 0.21052215
-0.16607097 -0.24286361 0.20203853 -0.21437837 -0.20095836 -0.05469024 -0.18862143 -0.35469314
-0.011818165 0.31267875 0.057281435 -0.37223074 0.11264098 -0.30776498 -0.02517992 -0.25601807
0.034230337 -0.16189332 -0.18683206 -0.3687159 -0.074744925 -0.13367264 -0.048277393 0.3117914
-0.23370597 0.08486759 0.23002598 -0.22647686 0.10091473 0.22145145 -0.135126 0.3065066
-0.0086871395 -0.29160264 0.1381997 -0.39176163 -0.032429226 0.20035902 0.04450513 0.2014362
0.021546692 -0.15530914 -0.10163721 -0.05482664 -0.23740444 0.18316416 0.079358004 0.35683554
-0.22128852 0.11090426 -0.14204155 0.12999004 -0.15673749 0.30131608 -0.19524188 -0.21907678
-0.04991205 0.20648949 -0.12309085 -0.036668863 -0.21020596 -0.012389748 -0.10098713 0.42579687
0.036135 0.20152967 -0.04048664 -0.16875818 -0.012886823 -0.16283004 -0.07926261 -0.0322938
-0.19412032 0.1030507 0.02637358 -0.008463877 -0.07126077 0.3361137 0.06790551 0.053776313
-0.23459975 -0.16918445 -0.22647455 -0.26819405 -0.101828456 0.1335584 -0.06253958 0.34884924
-0.02016665 0.38282937 0.14606689 -0.14336483 0.061774522 0.03286024 -0.13721265 0.0689495
00000000: 2c1c 66bd c6d8 953e cc5a 74be 2da9 92bc
00000010: ef64 1abe 0e28 18be 4e09 2abd 63f3 4e3e
00000020: 4d41 d7bd eb42 d03d 5c74 2ebe 2480 023e
00000030: 2d3f 8fbe 017b 06bd 9225 a9bd 4769 5e3e
00000040: 27b4 0abd 1154 9c3e d294 60be e237 7ebe
00000050: d312 ffbb 749b 493e cc85 b8bc 0aa2 5a3e
00000060: 6358 1dbe 9921 babd 4847 8c3d 840b 913d
00000070: fe0a 30be d700 d13d fd33 08be e638 623d
00000080: c671 31be af2a 3dbe d5e0 64be c140 57be
00000090: 11b1 36be 32cf a23e b1f3 7cbc 4384 563e
000000a0: 9c47 83bd 07d4 1a3d 1cdb 1d3c fb9f 2cbe
000000b0: e18c 53be ef65 aabe 7a26 19bc fc3e acbd
000000c0: 306f 09be 2613 c53d 2363 ab3c 369c a73e
000000d0: 25fc 0c3a aab2 493e f3fe 253e 882b 0ebe
000000e0: db9f d0ba 4b78 4c3c 4edc 69be 9c2d 90bd
000000f0: d826 803d 7fd6 903e 81ed 0bbe 208f 4c3e
00000100: c9d2 a63d 7bfb 81be 309a f6bc a38f 8e3d
00000110: e105 263e f560 9c3e 36c5 58be fd28 eb3d
00000120: 5935 263d 6d0a 4b3e a6f4 3d3e b9ed ba3e
00000130: cc24 c1bc 1f1f db3c 0376 703b a649 8bbe
00000140: e9e8 2ebe 8baf 7c3e 5455 203e b813 16be
00000150: 4f0c 47bc 895e 24be 13f1 7dbd e9ee 223e
00000160: 8e60 a93c 3135 673d 1a70 c93d f4a2 f2bc
00000170: 5e3b 083e 24ca 19bd 19fa 2fbe ecc2 1fbe
00000180: b26e 9a3d 3380 483e 9c5d 47be cdd6 323d
00000190: 89c7 fe3d 385a 843e 1a5f c0bd 2116 52bd
000001a0: 5ac7 50be 30a6 85be 5532 29be 68b1 b6be
000001b0: b777 57bd 12d9 2a3e 95ec 15be 474d 833e
000001c0: 1961 0abe c048 b63e 72e2 2f3e c3be 21be
000001d0: ae55 35bd 2105 0a3e 9d32 883d 3116 e23d
000001e0: 3be3 dc3c b6b4 533e 84c4 85bd 9d78 843e
000001f0: e417 4fbe 1a20 82be c6ca d4bd 423a 88bd
00000200: 3666 40bd 64a7 c7be 6e5b bfbd b392 653e
00000210: 79fa 9dbd 620e 49be 0bdc 273e 474d 65be
00000220: 73da 7f3d 3d08 6ebe bb72 bf3d 6955 993e
00000230: 73dd 1b3e c33d 9b3e bf03 183e 1e93 573e
00000240: 820e 2abe 3db1 78be 30e3 4e3e 0186 5bbe
00000250: 07c8 4dbe e002 60bd fa25 41be 579a b5be
00000260: faa0 41bc 6e17 a03e f09f 6a3d 0795 bebe
00000270: 50b0 e63d 5f93 9dbe 1f46 cebc cd14 83be
00000280: 1c35 0c3d 5dc7 25be e750 3fbe 55c8 bcbe
00000290: de13 99bd 7be1 08be 84be 45bd 1fa3 9f3e
000002a0: 9e50 6fbe 0fcf ad3d ee8b 6b3e 8de9 67be
000002b0: 62ac ce3d 2bc4 623e 785e 0abe 6fee 9c3e
000002c0: 8154 0ebc f14c 95be 3984 0d3e fb94 c8be
000002d0: 82d4 04bd ea2a 4d3e 034b 363d 4b45 4e3e
000002e0: b082 b03c 5c09 1fbe 2b27 d0bd e691 60bd
000002f0: 261a 73be 638f 3b3e 7386 a23d 26b3 b63e
00000300: 7599 62be c621 e33d 5773 11be 1c1c 053e
00000310: cb7f 20be 1a46 9a3e 7ded 47be aa55 60be
00000320: 9470 4cbd fb71 533e 0e17 fcbd 1732 16bd
00000330: 3b40 57be 5ffe 4abc 57d2 cebd 0c02 da3e
00000340: 4b02 143d cb5d 4e3e 52d5 25bd f2ce 2cbe
00000350: 4123 53bc ebbc 26be 6f54 a2bd 8146 04bd
00000360: 7ac7 46be 3f0c d33d 680d d83c 13ac 0abc
00000370: 2bf1 91bd 1817 ac3e 0b12 8b3d 8d44 5c3d
00000380: eb3a 70be b03e 2dbe f2e8 67be bb50 89be
00000390: 708b d0bd 89c3 083e c014 80bd 5e9c b23e
000003a0: 8834 a5bc 3602 c43e 8f92 153e 3bce 12be
000003b0: 4807 7d3d 7698 063d 7981 0cbe 6535 8d3d

recurs1.weight_hh f4 [120, 30]
0.10836228 0.20800458 -0.011497517 0.065430075 0.03156521 -0.11303904 0.08546096 -0.19187362
-0.046645064 -0.05560678 -0.034350347 0.05238572 0.07657293 -0.096532926 -0.07279089 -0.06816726
-0.18483186 0.03813902 -0.14081074 -0.19510056 -0.16958313 0.06416378 0.16201198 0.13621959
0.11840054 -0.12743771 0.0093545355 0.063745566 0.10341681 -0.0066260626 -0.014025161 -0.025285019
-0.06967616 0.1407805 -0.13448547 -0.085476846 0.13569388 -0.17754455 -0.09097132 -0.029784398
0.044383213 -0.11261035 -0.099652104 0.072315335 0.11011243 0.19461615 -0.11128829 0.05297148
-0.11385101 -0.08788485 -0.19414566 0.052906916 0.112581015 -0.06863781 0.04307325 -0.193425
0.19918603 -0.14439198 0.047451325 -0.095392175 -0.122196585 -0.0631522 0.05337668 0.13250035
0.14629218 -0.19145598 0.12679157 0.1583977 0.14490524 -0.14096811 -0.25333506 -0.13284501
0.18311012 -0.059016664 0.10210883 0.24366389 -0.2267268 0.12854049 0.16312994 0.05583523
-0.004894152 0.12980606 -0.00078854174 -0.11772415 0.15229514 0.20668663 0.04091395 -0.09535523
0.18974288 0.025616864 -0.10918207 -0.13965304 0.2695621 0.19093052 -0.11379518 0.10814405
0.15311995 0.16988795 0.13999899 0.07247867 -0.0361158 -0.09537606 0.16028045 0.05552002
-0.05350266 0.19429445 0.045301802 0.11765798 -0.1251465 -0.0053835963 -0.1290638 0.17407145
0.08800211 0.007723 0.09136803 0.03765139 -0.025409784 0.043916304 -0.099747494 0.057173368
-0.034783266 -0.13000481 -0.06634751 0.24262577 0.07173874 0.2664739 0.12917633 -0.22413428
-0.21179193 -0.09582607 -0.08186649 0.15051661 -0.13304397 -0.18306766 -0.070661746 -0.092839345
0.12845787 0.15404604 0.03974412 0.0673472 0.059522666 -0.051951133 0.124074064 0.14204893
0.15549763 0.08202709 0.18755239 0.10503709 -0.10824445 0.05987881 0.10882464 0.06270435
0.018034771 0.036699288 -0.19628094 0.22305362 0.09988866 -0.07012634 -0.17727624 0.10088164
0.19583066 0.03654941 -0.09584221 0.09029408 0.16586165 -0.13622932 0.16825408 0.09410286
-0.14121094 -0.021249495 -0.21257159 -0.06096932 0.2287409 -0.016904246 -0.022926582 -0.16434209
0.041411974 -0.030437915 -0.021914577 0.12610613 0.11846981 -0.007928736 0.12091432 0.19685292
0.058946647 -0.052632965 -0.07052199 -0.21174824 -0.17184633 -0.04654333 -0.05459992 0.0682573
0.14216653 -0.099384256 -0.008807129 -0.016143965 -0.0022876477 -0.17572421 -0.013664923 -0.2778294
-0.30640787 -0.1699353 0.06005685 0.042777475 -0.057408154 0.033774238 0.045456596 0.0049235164
-0.018249331 -0.18929967 0.18540351 0.16321503 0.18653359 0.09022627 -0.17710145 0.18839736
-0.026669478 0.04963288 -0.1844777 -0.05826334 -0.109009065 -0.043905873 -0.054210454 -0.18004602
0.0842988 0.035645343 0.08366607 -0.24747084 -0.1865268 -0.090522535 0.045438938 0.14467028
0.10728386 -0.0026525147 0.088664755 -0.21766177 -0.11129463 0.13506779 -0.15397745 0.008678188
-0.029053323 0.028572012 -0.077625096 0.1987004 -0.12416577 0.24090631 0.05295674 0.014037346
-0.09194375 -0.077249005 0.07333098 0.07298466 0.04796336 -0.22657882 0.2404251 -0.06293311
00000000: 0bed dd3d 27ff 543e 1560 3cbc 3400 863d
00000010: 864a 013d 0381 e7bd 2806 af3d 857a 44be
00000020: e50e 3fbd efc3 63bd f3b2 0cbd 6992 563d
00000030: 45d2 9c3d 0eb3 c5bd 6413 95bd 479b 8bbd
00000040: 9044 3dbe a937 1c3d b130 10be 71c8 47be
00000050: 33a7 2dbe 4d68 833d 78e6 253e 267d 0b3e
00000060: fb7b f23d 087f 02be c443 193c 098d 823d
00000070: 31cc d33d 711f d9bb cac9 65bc 8722 cfbc
00000080: 60b2 8ebd c328 103e 8fb6 09be 7c0e afbd
00000090: 56f3 0a3e 3dce 35be 2c4f babd 69fe f3bc
000000a0: 2ccb 353d 41a0 e6bd 6716 ccbd 101a 943d
000000b0: a082 e13d 7549 473e 1deb e3bd 9ff8 583d
000000c0: b82a e9bd f9fc b3bd 1fce 46be ecb4 583d
000000d0: e090 e63d fb91 8cbd 946d 303d 3411 46be
000000e0: 6cf7 4b3e 7edb 13be 525c 423d f95c c3bd
000000f0: 3442 fabd f155 81bd 81a1 5a3d 2cae 073e
00000100: 9ecd 153e 090d 44be a6d5 013e 0233 223e
00000110: 0a62 143e f259 10be 22b5 81be 8608 08be
00000120: 3881 3b3e 75bb 71bd 6f1e d13d 0783 793e
00000130: 122b 68be 1ea0 033e 890b 273e 7bb3 643d
00000140: 1f5f a0bb e1eb 043e 24b6 4eba 5c19 f1bd
00000150: 42f3 1b3e a9a5 533e 6395 273d 9a49 c3bd
00000160: f54b 423e 75da d13c d99a dfbd 3501 0fbe
00000170: 0b04 8a3e 4a83 433e 730d e9bd a17a dd3d
00000180: 7acb 1c3e 1bf7 2d3e e55b 0f3e b26f 943d
00000190: 29ee 13bd 8654 c3bd 8f20 243e f668 633d
000001a0: 9b25 5bbd 20f5 463e 628e 393d abf6 f03d
000001b0: 6726 00be e168 b0bb 4d29 04be c93f 323e
000001c0: 733a b43d 3811 fd3b 291f bb3d 5838 1a3d
000001d0: 2e28 d0bc 95e1 333d 6a48 ccbd 9f2e 6a3d
000001e0: e678 0ebd fb1f 05be 34e1 87bd e472 783e
000001f0: c3eb 923d 446f 883e cd46 043e 7583 65be
00000200: fcdf 58be 7540 c4bd 9ea9 a7bd 0721 1a3e
00000210: ae3c 08be 1776 3bbe 1bb7 90bd 8e22 bebd
00000220: 768a 033e 3fbe 1d3e bbca 223d 54ed 893d
00000230: 0ace 733d b6ca 54bd 8b1a fe3d 4675 113e
00000240: c53a 1f3e d2fd a73d bc0d 403e b01d d73d
00000250: 44af ddbd 7c43 753d 74df de3d 236b 803d
00000260: a8bd 933c fe51 163d dffd 48be 2b68 643e
00000270: 6d92 cc3d 669e 8fbd e787 35be 099b ce3d
00000280: d587 483e d6b4 153d ec48 c4bd 1aec b83d
00000290: a3d7 293e b37f 0bbe cc4a 2c3e 00b9 c03d
000002a0: 9a99 10be 6c13 aebc 5eac 59be f7ba 79bd
000002b0: 0e3b 6a3e c67a 8abc 87d0 bbbc 4b49 28be
000002c0: 9a9f 293d ef58 f9bc 3386 b3bc f721 013e
000002d0: 4da0 f23d 87e7 01bc eda1 f73d d093 493e
000002e0: 0a72 713d aa95 57bd d56d 90bd 88d4 58be
000002f0: 7cf8 2fbe 38a4 3ebd 2aa4 5fbd 7cca 8b3d
00000300: 1a94 113e f989 cbbd c74b 10bc 5940 84bc
00000310: 5cec 15bb 0cf1 33be d7e2 5fbc a83f 8ebe
00000320: 7ee1 9cbe 8503 2ebe 2cfe 753d 6f37 2f3d
00000330: d024 6bbd db56 0a3d b230 3a3d 7355 a13b
00000340: 9f7f 95bc c6d7 41be 6bda 3d3e d721 273e
00000350: a902 3f3e 8dc8 b83d 155a 35be 3deb 403e
00000360: f379 dabc d94b 4b3d b9e7 3cbe 8aa5 6ebd
00000370: 2540 dfbd a5d6 33bd c80b 5ebd fc5d 38be
00000380: d9a4 ac3d da00 123d 1e59 ab3d ff68 7dbe
00000390: e200 3fbe e163 b9bd 2e1e 3a3d 7224 143e
000003a0: a4b7 db3d d0d5 2dbb de95 b53d bae2 5ebe
000003b0: 70ee e3bd 364f 0a3e 44ac 1dbe f52e 0e3c
000003c0: 3c01 eebc da0f ea3c e8f9 9ebd 1e78 4b3e
000003d0: a04a febd 25b0 763e 2be9 583d e5fc 653c
000003e0: 014d bcbd ba34 9ebd 8e2e 963d fb78 953d
000003f0: 3a75 443d 4704 68be ff31 763e 13e3 80bd

recurs1.bias_ih f4 [120]
-0.08632197 -0.039788675 0.061214834 0.23726691 0.21328074 0.1711019 0.09408013 0.21407244
0.12521346 0.17434375 0.1251606 0.06644601 0.20215403 0.24158181 0.19668959 0.14664158
0.20060277 0.10322872 0.21244727 0.17258416 0.22879529 0.06701143 -0.06983749 0.18822134
0.19251338 0.26036617 0.15550555 0.10389294 0.22483683 0.12864536 0.19130492 0.15107355
0.18851732 0.21783972 -0.15635377 0.17601332 0.20142254 -0.14687978 0.039403737 -0.08109754
-0.028183404 0.03194844 0.16023546 -0.016073858 -0.08850113 0.09958943 0.13407259 -0.008095905
0.18474492 0.21164714 0.019935083 0.04178118 0.10152797 0.021711279 0.05188199 -0.00367992
-0.07006528 0.06751195 -0.045814753 -0.06909548 0.21927659 0.0218863 0.21827935 0.29307714
-0.02297405 0.081315845 0.16147411 -0.13855201 -0.099021845 -0.06520406 -0.0021286372 0.049621694
0.11202701 -0.15631858 0.14986847 0.19937357 -0.16160443 -0.080322914 -0.1419128 0.079049386
-0.24325617 -0.046625245 0.23088992 -0.19684502 0.27488795 -0.14998713 0.09137882 -0.026264349
-0.003695296 0.12782381 0.2261489 0.0008053286 0.20800531 0.18181966 0.15301871 -0.038796045
0.15491061 0.1835488 -0.07991466 -0.063197054 -0.06750117 0.08056786 0.07896793 -0.009653637
0.24733008 0.04428415 -0.011358497 0.14969997 -0.031384278 0.09199955 0.1678592 0.09795744
-0.042332277 0.30851763 0.22931176 -0.044952936 0.14170529 0.11217076 -0.074110225 0.04447094
00000000: 93c9 b0bd 73f9 22bd 68bc 7a3d 19f6 723e
00000010: 4466 5a3e 5635 2f3e 15ad c03d ce35 5b3e
00000020: f537 003e 2b87 323e 1a2a 003e d814 883d
00000030: 7701 4f3e 3961 773e ff68 493e 3629 163e
00000040: d06a 4d3e 9469 d33d c78b 593e e7b9 303e
00000050: 5049 6a3e 4a3d 893d f506 8fbd 18bd 403e
00000060: 3a22 453e b74e 853e d93c 1f3e d2c5 d43d
00000070: a03b 663e 9cbb 033e 70e5 433e 06b3 1a3e
00000080: af0a 413e 6011 5f3e 341b 20be d63c 343e
00000090: b641 4e3e a767 16be d065 213d 7816 a6bd
000000a0: e2e0 e6bc 5edc 023d c414 243e 53ad 83bc
000000b0: 1540 b5bd 8bf5 cb3d 534a 093e b0a4 04bc
000000c0: c62d 3d3e 07ba 583e e64e a33c be22 2b3d
000000d0: e5ed cf3d dadb b13c 3682 543d d02a 71bb
000000e0: 637e 8fbd b543 8a3d 40a8 3bbd ee81 8dbd
000000f0: 0b8a 603e e64a b33c 9f84 5f3e 350e 963e
00000100: 1334 bcbc ec88 a63d 7859 253e 94e0 0dbe
00000110: f7cb cabd b589 85bd 9b80 0bbb 1e40 4b3d
00000120: 6b6e e53d fa11 20be 1f77 193e 9628 4c3e
00000130: a27b 25be 5780 a4bd 9751 11be a5e4 a13d
00000140: 2518 79be 1dfa 3ebd 686e 6c3e be91 49be
00000150: 1dbe 8c3e 3a96 19be d224 bb3d 5528 d7bc
00000160: c72c 72bb 3fe4 023e 9493 673e b01c 533a
00000170: 58ff 543e ef2e 3a3e f0b0 1c3e 9ae8 1ebd
00000180: e3a0 1e3e 37f4 3b3e 4caa a3bd 756d 81bd
00000190: 0e3e 8abd c300 a53d f0b9 a13d 4a2a 1ebc
000001a0: 1944 7d3e 4c63 353d fd18 3abc f34a 193e
000001b0: cd8c 00bd 436a bc3d 48e3 2b3e e99d c83d
000001c0: 9c64 2dbd 06f6 9d3e b4d0 6a3e 9220 38bd
000001d0: 311b 113e c9b9 e53d 1ac7 97bd 2927 363d

recurs1.bias_hh f4 [120]
-0.075018674 0.20043504 0.1321944 0.17514911 0.07856447 0.2739552 0.16578025 -0.09778252
0.07751084 0.20587142 0.16240372 0.0100254165 0.013714767 -0.012095844 0.24907462 0.018690912
0.2569894 0.09702401 0.08947595 -0.0564568 0.03166183 0.24942407 -0.08468511 0.24401897
-0.035394333 0.13947125 -0.080787 -0.108095855 -0.06784838 0.12808135 0.05496392 -0.0763894
0.11285679 0.19759223 0.14164115 0.24257763 0.15158918 -0.07237902 0.038225733 0.19186337
0.106726006 -0.04367752 0.2004182 -0.12262576 0.24064183 0.10315742 -0.102268256 -0.12390745
0.17122507 0.25101334 0.076107524 -0.036607325 0.17332758 0.13985558 0.07407599 0.22490598
0.1521021 0.021847924 0.10319653 -0.15252422 -0.02707154 0.012709131 0.13619792 0.10173866
0.07168299 0.10969986 -0.17653334 0.044652674 -0.059125356 -0.21682177 0.016419273 -0.043888688
-0.08092976 -0.24757253 0.288387 -0.07668061 -0.0337725 0.18974568 -0.024897492 -0.14974757
-0.2524261 0.07249611 0.015971411 -0.074080884 0.18473396 -0.11636988 0.18628956 -0.07392209
-0.07207999 -0.106609106 0.1264779 0.0019203697 0.14399025 0.109995365 0.28189555 -0.00064446527
0.010812005 0.027434604 -0.034717005 0.17502557 0.04510783 0.11328777 0.23738882 0.15367033
0.043807466 0.1904899 0.007906626 -0.048630513 0.05144806 0.013114288 -0.07002714 0.102230094
0.23896822 0.06285129 0.09546101 -0.05276888 0.09408888 0.08919887 0.028869936 0.31169024
00000000: 64a3 99bd d83e 4d3e f85d 073e 4a5a 333e
00000010: 69e6 a03d db43 8c3e 4cc2 293e 3442 c8bd
00000020: 01be 9e3d f5cf 523e 294d 263e a541 243c
00000030: e7b3 603c a62d 46bc 6b0d 7f3e af1d 993c
00000040: 1d94 833e 86b4 c63d 2b3f b73d 3f3f 67bd
00000050: d6af 013d 0669 7f3e 636f adbd 1ce0 793e
00000060: a6f9 10bd 8dd1 0e3e a873 a5bd 5c61 ddbd
00000070: 17f4 8abd c227 033e d921 613d 0c72 9cbd
00000080: 7621 e73d 9e55 4a3e 610a 113e 4566 783e
00000090: 323a 1b3e 743b 94bd 9692 1c3d d577 443e
000000a0: 2a93 da3d 33e7 32bd 6e3a 4d3e 3723 fbbd
000000b0: d06a 763e 3344 d33d 0572 d1bd 30c3 fdbd
000000c0: a055 2f3e d284 803e 43de 9b3d 90f1 15bd
000000d0: c97c 313e 4d36 0f3e 27b5 973d c14d 663e
000000e0: a7c0 1b3e 6bfa b23c b458 d33d 4f2f 1cbe
000000f0: 22c5 ddbc f639 503c 7877 0b3e 5c5c d03d
00000100: 88ce 923d 52aa e03d 28c5 34be b9e5 363d
00000110: 6e2d 72bd 8706 5ebe b681 863c a0c4 33bd
00000120: 81be a5bd a783 7dbe 76a7 933e b90a 9dbd
00000130: 0855 0abd b14c 423e d3f5 cbbc 6d57 19be
00000140: fe3d 81be d778 943d 7ad6 823c b8b7 97bd
00000150: e62a 3d3e 5553 eebd b1c2 3e3e 7764 97bd
00000160: ac9e 93bd e055 dabd 6c83 013e eab4 fb3a
00000170: 2e72 133e 4045 e13d 9d54 903e 55f1 28ba
00000180: d624 313c 89be e03c 6b33 0ebd e739 333e
00000190: fdc2 383d 6b03 e83d 0e16 733e c15b 1d3e
000001a0: 756f 333d c90f 433e cb8a 013c ca30 47bd
000001b0: 33bb 523d 50dd 563c 646a 8fbd 035e d13d
000001c0: 16b4 743e 2db8 803d 1081 c33d 2e24 58bd
000001d0: acb1 c03d e6ad b63d a580 ec3c dd95 9f3e

recurs2.weight_ih f4 [120, 30]
-0.031234216 0.08257699 0.010703476 0.3097128 0.0805524 0.29827422 0.10202439 -0.0038456586
-0.22969832 -0.16792648 0.14394687 -0.122370586 0.12366349 -0.022700354 0.15383174 -0.16257834
0.111933336 -0.056912255 -0.14817639 -0.08792932 -0.14411825 -0.12304234 0.14377427 -0.14917797
0.3201059 0.04024817 0.20298417 0.10648237 -0.22513837 -0.16157857 -0.1297629 -0.0835317
-0.037144374 0.25516126 0.11320767 0.13528907 -0.04818488 0.13148814 -0.042107325 -0.14518607
0.09655531 0.08063311 -0.08534075 0.12103101 0.07981045 0.11759838 -0.27782485 0.065823294
-0.089279845 -0.15817797 -0.1569064 0.050662395 0.030785462 -0.19791901 0.22142753 0.018560873
-0.14240731 -0.027729204 0.07853322 0.042781953 0.115193665 -0.015633756 0.2029888 0.0018428701
-0.06890262 0.18645933 -0.09617975 0.07486982 0.13156646 -0.23149367 -0.07796477 0.11322783
0.05505762 -0.04756507 0.14235188 0.1432136 -0.16858481 0.0658856 0.10583201 -0.07293317
-0.27368 0.0987612 0.017627649 -0.12042619 0.20180954 -0.022443835 -0.06900549 -0.13050525
0.010434758 -0.036214754 0.057775542 -0.09644126 0.2891923 0.24799064 0.043643672 0.13370791
0.023789981 0.090649195 -0.03297373 -0.09801251 -0.092007995 0.03535015 -0.098177545 -0.0394856
-0.037335344 0.0030376343 0.008855315 -0.07744645 0.0844389 -0.19955269 0.04893182 0.08735891
0.047050346 -0.004270063 -0.041220408 -0.2112253 -0.021161588 -0.045619432 0.02166418 -0.13767356
0.3101265 0.113212116 0.021263542 0.15240659 -0.16401856 0.18515727 -0.009903929 -0.14631888
-0.095197015 0.056380935 -0.022357145 0.017637426 -0.011973182 -0.24944256 0.16200157 0.0062101656
-0.16614823 0.014525062 0.08128749 -0.08221771 -0.2717133 0.11432968 -0.017335836 -0.13666022
0.24727856 0.009241054 0.30731815 0.17829339 -0.17313005 -0.024501195 -0.035789117 0.030878488
0.3108817 0.20674849 -0.16681626 -0.0040119994 -0.1287831 0.036678527 -0.07907787 -0.25455466
-0.056144632 0.027229581 0.017633839 0.07396045 0.112148 0.1315241 -0.13630757 0.025764834
-0.043959036 0.08648564 -0.033413973 -0.07237954 -0.023373486 -0.2749885 0.046115138 -0.06773448
0.2596559 -0.076999 0.093685895 0.09941323 -0.056433965 -0.05035281 0.11391287 0.18766287
-0.16667272 0.12453193 -0.23759961 -0.065539785 -0.027904242 0.019798126 0.060080428 0.11890936
-0.12476046 0.061890244 -0.08571136 -0.1556738 -0.114545435 -0.260439 0.0724728 -0.18930624
-0.2428264 -0.011385699 -0.06890029 0.040740103 0.16810222 -0.13555393 0.19701672 0.0767196
-0.19003752 -0.043263175 0.2442366 0.052319784 0.13170286 0.17662288 -0.05363929 0.17253421
-0.2461095 0.06506892 -0.0023475431 -0.02784448 0.11868102 -0.098228864 -0.023449333 -0.12006356
0.16859904 -0.09878408 0.006048357 -0.07022607 0.057000443 -0.33969516 -0.14749834 0.0805436
-0.043451753 -0.038967364 0.24095355 -0.05092658 0.14969933 0.086033545 -0.17942902 0.098560944
0.10246685 0.20569238 0.14842029 0.12291971 0.013288502 0.28132886 0.11412726 -0.23057598
-0.08002779 -0.14158894 0.1768182 0.18472347 -0.11110903 -0.09624366 0.22586127 0.102659896
00000000: e6de ffbc 201e a93d a25d 2f3c ad92 9e3e
00000010: a8f8 a43d 66b7 983e 2af2 d03d 7207 7cbb
00000020: 0936 6bbe ebf4 2bbe cf66 133e 6e9d fabd
00000030: 4943 fd3d 18f6 b9bc 1186 1d3e f07a 26be
00000040: 4e3d e53d d31c 69bd 8dbb 17be 4a14 b4bd
00000050: bc93 13be 9ffd fbbd 9039 133e 1cc2 18be
00000060: ece4 a33e 44db 243d 15db 4f3e 6e13 da3d
00000070: ac8a 66be da74 25be 91e0 04be ab12 abbd
00000080: b324 18bd 7fa4 823e 6cd9 e73d 3889 0a3e
00000090: 825d 45bd d4a4 063e bb78 2cbd a8ab 14be
000000a0: cabe c53d f922 a53d 22c7 aebd 1bdf f73d
000000b0: a973 a33d 6bd7 f03d 0f3f 8ebe 5dce 863d
000000c0: 5ad8 b6bd 68f9 21be 12ac 20be 5f83 4f3d
000000d0: cb31 fc3c 48ab 4abe e6bd 623e f90c 983c
000000e0: 39d3 11be 5b28 e3bc 06d6 a03d 213c 2f3d
000000f0: a8ea eb3d 5d12 80bc 4cdc 4f3e 768c f13a
00000100: d11c 8dbd 32ef 3e3e e4f9 c4bd 5955 993d
00000110: 5cb9 063e ad0c 6dbe feab 9fbd fee3 e73d
00000120: 1984 613d 97d3 42bd b1c4 113e 96a6 123e
00000130: 7fa1 2cbe 08ef 863d 74be d83d fc5d 95bd
00000140: c91f 8cbe 5043 ca3d dc67 903c 02a2 f6bd
00000150: 29a7 4e3e 22dc b7bc c052 8dbd 2ba3 05be
00000160: 8cf6 2a3c ec55 14bd 0ca6 6c3d ff82 c5bd
00000170: 0311 943e 42f1 7d3e b5c3 323d baea 083e
00000180: 35e3 c23c 49a6 b93d 760f 07bd c8ba c8bd
00000190: b06e bcbd 52cb 103d 4f11 c9bd a7bb 21bd
000001a0: f2ec 18bd 0c13 473b e215 113c 3f9c 9ebd
000001b0: 4dee ac3d 8a57 4cbe bb6c 483d 3ae9 b23d
000001c0: ddb7 403d e2eb 8bbb bbd6 28bd 724b 58be
000001d0: 115b adbc 71db 3abd 1479 b13c 4cfa 0cbe
000001e0: e7c8 9e3e c1db e73d e130 ae3c 7910 1c3e
000001f0: 7bf4 27be de99 3d3e 1744 22bc 9ed4 15be
00000200: a7f6 c2bd b2ef 663d 5526 b7bc 5d7c 903c
00000210: 2a2b 44bc df6d 7fbe bde3 253e a57e cb3b
00000220: c322 2abe 87fa 6d3c 0e7a a63d c261 a8bd
00000230: 011e 8bbe ae25 ea3d e203 8ebc a8f0 0bbe
00000240: 9736 7d3e ca67 173c ce58 9d3e 8b92 363e
00000250: 0149 31be bbb6 c8bc 9c97 12bd e2f4 fc3c
00000260: e32b 9f3e e0b5 533e e2d1 2abe 1777 83bb
00000270: b8df 03be 393c 163d 94f3 a1bd fd54 82be
00000280: eaf7 65bd 9210 df3c d774 903c 9478 973d
00000290: daad e53d 41ae 063e 3694 0bbe c610 d33c
000002a0: 640e 34bd 621f b13d 17dd 08bd b93b 94bd
000002b0: c179 bfbc 4bcb 8cbe 3ae3 3c3d 60b8 8abd
000002c0: 9ef1 843e a7b1 9dbd 64de bf3d 2a99 cb3d
000002d0: 4d27 67bd c03e 4ebd 274b e93d b22a 403e
000002e0: 41ac 2abe 990a ff3d 504d 73be b939 86bd
000002f0: 7097 e4bc ae2f a23c e516 763d c086 f33d
00000300: 6982 ffbd a080 7d3d 7089 afbd f468 1fbe
00000310: cc96 eabd 4358 85be 9f6c 943d 7fd9 41be
00000320: 7ca7 78be 158b 3abc 981b 8dbd 18df 263d
00000330: fd22 2c3e a6ce 0abe c0be 493e 2a1f 9d3d
00000340: 3299 42be ba34 31bd 2919 7a3e 454d 563d
00000350: 1ddd 063e a1dc 343e dfb4 5bbd cfac 303e
00000360: 2104 7cbe db42 853d 3dd9 19bb 1b1a e4bc
00000370: 090f f33d 372c c9bd d118 c0bc e2e3 f5bd
00000380: 3aa5 2c3e 4f4f cabd 4c31 c63b b0d2 8fbd
00000390: 4c79 693d 86ec adbe ce09 17be 0bf4 a43d
000003a0: 77fa 31bd 3e9c 1fbd 87bc 763e 6498 50bd
000003b0: c84a 193e 5b32 b03d 3ebc 37be 52da c93d
000003c0: 24da d13d 06a1 523e 7dfb 173e 54bd fb3d
000003d0: 04b8 593c 560a 903e 8ebb e93d 1c1c 6cbe
000003e0: 9ce5 a3bd b1fc 10be d50f 353e 2628 3d3e
000003f0: 228d e3bd 651b c5bd 2d48 673e 5a3f d23d

recurs2.weight_hh f4 [120, 30]
0.040814772 0.09116962 0.2242287 -0.15887092 0.059049997 -0.11105076 0.17063603 -0.09899295
0.014179141 0.08748156 -0.0810105 0.06216133 -0.05346924 0.04179424 0.015382263 0.0019135543
0.104895465 0.13266031 -0.13356324 -0.09617245 0.008396508 -0.015933601 -0.101369366 -0.01603604
0.02388162 -0.046573922 -0.021854637 -0.07350516 -0.16508847 0.15103556 -0.019420212 -0.07652156
-0.13755833 0.07173272 -0.05666287 0.05871125 0.0024638935 -0.061587572 -0.10034426 0.103232995
-0.29109254 -0.08432145 -0.086807296 -0.0361666 0.19386835 0.17831278 0.2069361 -0.09893408
-0.10738719 0.03595026 0.22458662 -0.07887962 -0.117406234 -0.13604774 -0.072966844 -0.09348865
-0.17611249 0.008103938 0.0145100085 0.123327285 -0.14164583 -0.056529667 0.19803335 -0.020820497
0.15194853 -0.0958258 0.0068719117 0.014374172 -0.03337166 -0.24060978 0.039560664 -0.048150964
-0.03264658 0.04440547 0.22878921 0.05515708 0.11103778 -0.0021646493 0.1109584 0.08088662
0.17302491 0.06460824 -0.21642663 0.049034934 -0.18227047 -0.26031688 -0.028647482 0.03777417
-0.12007329 0.2296733 -0.05264985 0.026700372 0.22764418 0.08111528 -0.090602964 -0.016209556
-0.07326086 -0.16550945 -0.037041828 -0.026423354 -0.26563957 -0.082730144 -0.2550637 -0.037543263
0.17628999 0.004806131 0.14862074 0.16255528 0.082832694 0.013133423 0.03630064 0.05102201
-0.22609906 -0.096097544 0.07952813 -0.05872923 -0.017190186 0.22039063 0.1234978 0.13940024
0.10995589 0.19852784 -0.008428814 0.05573768 0.11849959 0.06358355 0.22940254 -0.1558189
-0.004601543 0.13485898 -0.24560681 -0.067783035 0.038657624 0.15469313 0.30514625 -0.018912673
0.124903895 -0.12037602 -0.16657968 0.030076588 0.012139381 0.11711215 -0.09614697 0.118480116
-0.033571355 -0.0040570963 -0.030659774 0.20090325 -0.012012061 0.2565623 -0.1832145 -0.022915367
0.20470323 0.12814173 -0.050241653 0.16347782 0.1300508 -0.15444373 0.031917315 0.13001628
-0.20046744 0.12965119 -0.15214613 -0.11399546 0.014131044 -0.07509625 0.23397538 0.10951935
0.096418396 0.05848752 0.13662468 -0.035567492 -0.23299246 -0.119562656 -0.11230816 0.09872441
-0.13545136 0.0207099 0.070784226 0.3118485 -0.032240868 0.10989035 -0.10923727 -0.21442814
-0.041175067 0.045620278 0.12203395 0.091783956 0.17451112 -0.077235304 -0.05744539 0.17794062
-0.10477243 0.13004185 -0.07196424 0.073661946 0.12280239 0.15874511 -0.010671359 -0.010314479
-0.042875838 0.2046561 -0.037304845 -0.044595107 0.0006856936 0.07206351 -0.08058367 -0.15213732
-0.07381056 0.12622054 -0.026939282 0.025128167 0.1386848 -0.00795457 0.15664712 -0.12145874
0.22124645 -0.03078401 0.12722224 0.053380165 -0.27769536 0.16105856 -0.12453402 -0.07834133
0.22133183 0.023753606 -0.096779816 -0.061890043 0.108963266 -0.17211185 0.16103028 0.111281954
-0.17889613 0.033669736 -0.13882759 -0.06912877 -0.09085474 0.129222 -0.07042898 -0.024274284
-0.04883011 0.19793577 -0.005312381 0.15484916 0.15152219 -0.029435664 0.033700917 0.12352658
-0.03005914 0.014721251 -0.08340737 0.036852688 -0.20717058 -0.075302355 0.30115813 0.09903599
00000000: 642d 273d 23b7 ba3d 359c 653e 0faf 22be
00000010: 69de 713d 956e e3bd 36bb 2e3e d1bc cabd
00000020: a14f 683c 8829 b33d d5e8 a5bd e19c 7e3d
00000030: 9002 5bbd 7030 2b3d e305 7c3c 3ad0 fa3a
00000040: 6fd3 d63d 1bd8 073e cdc4 08be 10f6 c4bd
00000050: 8291 093c 2f87 82bc be9a cfbd 035e 83bc
00000060: 63a3 c33c 4cc4 3ebd 7f08 b3bc e089 96bd
00000070: f40c 29be 11a9 1a3e 2317 9fbc 56b7 9cbd
00000080: 17dc 0cbe 9be8 923d 5317 68bd 357b 703d
00000090: 4679 213b 4043 7cbd 4b81 cdbd d26b d33d
000000a0: 150a 95be b9b0 acbd 06c8 b1bd 6e23 14bd
000000b0: 6d85 463e a097 363e 0fe7 533e f39d cabd
000000c0: d1ed dbbd 9440 133d 09fa 653e a38b a1bd
000000d0: ae72 f0bd 1950 0bbe a46f 95bd fa76 bfbd
000000e0: d556 34be 61c6 043c 63bb 6d3c 0493 fc3d
000000f0: 9b0b 11be a78b 67bd 41c9 4a3e bf8f aabc
00000100: 6598 1b3e 5140 c4bd c62d e13b a681 6b3c
00000110: b9b0 08bd 6962 76be 5d0a 223d f239 45bd
00000120: 6cb8 05bd 83e2 353d b847 6a3e 64ec 613d
00000130: c767 e33d cadc 0dbb 283e e33d e2a7 a53d
00000140: 712d 313e 5351 843d f19e 5dbe dbd8 483d
00000150: 1ca5 3abe 4148 85be 20ae eabc 17b9 1a3d
00000160: fce8 f5bd 7a2f 6b3e 5ea7 57bd bdba da3c
00000170: 8e1b 693e c51f a63d 0c8e b9bd e7c9 84bc
00000180: ca09 96bd 4f7b 29be 2cb9 17bd ca75 d8bc
00000190: e901 88be 6c6e a9bd b697 82be f7c6 19bd
000001a0: 5d85 343e c07c 9d3b 0930 183e e474 263e
000001b0: 30a4 a93d 922d 573c fbaf 143d 75fc 503d
000001c0: 8386 67be cace c4bd a5df a23d 108e 70bd
000001d0: 6fd2 8cbc 15ae 613e 6aec fc3d f0be 0e3e
000001e0: 8e30 e13d e24a 4b3e 0219 0abc 324d 643d
000001f0: eaaf f23d 1838 823d 80e8 6a3e fd8e 1fbe
00000200: 8ac8 96bb 7918 0a3e 5a80 7bbe d5d1 8abd
00000210: 7557 1e3d e067 1e3e 213c 9c3e c0ee 9abc
00000220: 9dcd ff3d b487 f6bd dd93 2abe 2d63 f63c
00000230: 41e4 463c 7fd8 ef3d b4e8 c4bd b4a5 f23d
00000240: 1e82 09bd 64f1 84bb 352a fbbc 95b9 4d3e
00000250: 3cce 44bc 225c 833e 959c 3bbe 02b9 bbbc
00000260: b99d 513e 9637 033e 31ca 4dbd bb66 273e
00000270: 092c 053e 7f26 1ebe bbbb 023d fd22 053e
00000280: 5647 4dbe 48c3 043e 32cc 1bbe 7476 e9bd
00000290: e585 673c 10cc 99bd 3e97 6f3e ae4b e03d
000002a0: 0277 c53d 9c90 6f3d 57e7 0b3e 38af 11bd
000002b0: 9395 6ebe 44dd f4bd d201 e6bd 0630 ca3d
000002c0: c3b3 0abe cfa7 a93c 52f7 903d 9baa 9f3e
000002d0: 000f 04bd 310e e13d cab7 dfbd 0d93 5bbe
000002e0: 30a7 28bd 54dc 3a3d f0ec f93d 3af9 bb3d
000002f0: 0bb3 323e 8b2d 9ebd db4b 6bbd 1136 363e
00000300: ee92 d6bd b129 053e fd61 93bd 13dc 963d
00000310: d27f fb3d 148e 223e ecd6 2ebc 0ffe 28bc
00000320: 939e 2fbd 5e91 513e f7cc 18bd 5ca9 36bd
00000330: 1ec0 333a 0996 933d 0d09 a5bd e3c9 1bbe
00000340: fe29 97bd f53f 013e c5af dcbc 96d9 cd3c
00000350: 6303 0e3e e353 02bc 1a68 203e 5cbf f8bd
00000360: 6e8e 623e c02e fcbc 8c46 023e 29a5 5a3d
00000370: 162e 8ebe 89ec 243e b10b ffbd 6b71 a0bd
00000380: d0a4 623e ec96 c23c 7f34 c6bd 6a80 7dbd
00000390: 2228 df3d 173e 30be 1fe5 243e cbe7 e33d
000003a0: 8c30 37be 47e9 093d d228 0ebe 6293 8dbd
000003b0: 0d12 babd c652 043e 123d 90bd ddda c6bc
000003c0: 1502 48bd adaf 4a3e 7b13 aebb c790 1e3e
000003d0: a228 1b3e 1023 f1bc f909 0a3d 81fb fc3d
000003e0: 963e f6bc 6731 713c 7cd1 aabd d8f2 163d
000003f0: 8624 54be 1f38 9abd 6631 9a3e 62d3 ca3d

recurs2.bias_ih f4 [120]
0.31558254 0.27390894 0.01770303 0.14314513 0.04663291 0.04132908 0.09037378 0.33832505
0.14523542 0.29378495 -0.01904231 0.117926694 0.17358387 -0.001356598 0.15338376 0.1334522
0.30720684 0.13406475 0.13107134 0.23958357 0.08384339 0.24236658 0.25054044 0.027793331
0.20975037 0.07142267 0.32320973 0.13034861 0.098662 0.28794914 0.112768956 0.18900372
-0.0074959914 -0.013416639 0.13152078 0.27671757 0.17078166 0.051004287 0.26181382 -0.044178627
0.20863575 0.059621114 -0.015289781 0.103484645 0.2376959 0.23384556 0.02292438 0.107521206
0.17310265 0.04388949 0.07255584 0.27314368 0.044168774 0.21841268 -0.030960603 -0.01142063
0.12617297 0.023841573 -0.033325665 0.07148965 -0.0908997 0.14728768 0.17931776 -0.036904067
0.1116256 0.16353095 0.113745846 -0.13708682 -0.120356515 -0.041314166 -0.03602684 0.032730743
-0.24225973 0.14312473 0.2930876 0.07093125 0.060364075 0.019992799 -0.11041483 -0.19614959
0.22238849 0.28446424 0.04635968 -0.16342472 -0.009991681 -0.13922457 0.004890717 0.18726403
0.2229255 0.22933874 0.17901003 0.32607394 0.1271197 0.1798768 0.0012926805 0.23596281
0.19135682 0.2129106 0.23540686 0.2176159 -0.013872181 0.10963112 0.011150972 0.25917152
0.12172093 0.005895339 0.23518723 0.023791827 0.13277586 0.24782886 0.22928807 0.18342255
0.12351758 0.06857993 0.15153082 -0.078623794 0.10812149 0.23828037 0.23975664 -0.013180047
00000000: 0994 a13e cb3d 8c3e f205 913c a394 123e
00000010: 2602 3f3d ae48 293d e315 b93d f138 ad3e
00000020: 98b8 143e fb6a 963e 9efe 9bbc 8d83 f13d
00000030: f8bf 313e e0cf b1ba a210 1d3e b2a7 083e
00000040: 374a 9d3e 4548 093e 9137 063e 6555 753e
00000050: 15b6 ab3d f22e 783e d646 803e d7ae e33c
00000060: cdc8 563e 0c46 923d bf7b a53e 1b7a 053e
00000070: 4d0f ca3d 126e 933e 69f3 e63d 318a 413e
00000080: efa0 f5bb 76d1 5bbc 62ad 063e edad 8d3e
00000090: 63e1 2e3e dfe9 503d 760c 863e a6f4 34bd
000000a0: 9ca4 553e 4535 743d fd81 7abc c2ef d33d
000000b0: 8e66 733e 3675 6f3e e9cb bb3c 1434 dc3d
000000c0: d241 313e 77c5 333d 2898 943d 7dd9 8b3e
000000d0: 51ea 343d 93a7 5f3e 17a1 fdbc 981d 3bbc
000000e0: 7d33 013e 674f c33c 7e80 08bd 2a69 923d
000000f0: 9f29 babd 95d2 163e 139f 373e b828 17bd
00000100: f69b e43d a874 273e 95f3 e83d 7d60 0cbe
00000110: 7a7d f6bd 0b39 29bd e190 13bd ac10 063d
00000120: ef12 78be 4a8f 123e 940f 963e 6744 913d
00000130: 5240 773d f0c7 a33c 2c21 e2bd 70db 48be
00000140: cfb9 633e 4ca5 913e a6e3 3d3d cf58 27be
00000150: 26b4 23bc e390 0ebe 4f42 a03b 24c2 3f3e
00000160: 9546 643e c6d7 6a3e 684e 373e 2af3 a63e
00000170: ab2b 023e a031 383e 296f a93a 3ca0 713e
00000180: 0bf3 433e 3c05 5a3e 7f0e 713e b4d6 5e3e
00000190: 2548 63bc 4886 e03d 91b2 363c 21b2 843e
000001a0: d348 f93d b02d c13b ecd4 703e 14e7 c23c
000001b0: 65f6 073e d9c6 7d3e 7eca 6a3e 1fd3 3b3e
000001c0: c9f6 fc3d a273 8c3d e52a 1b3e 8305 a1bd
000001d0: cd6e dd3d c5ff 733e c482 753e 20f1 57bc

recurs2.bias_hh f4 [120]
0.20081381 0.29789323 -0.006396548 0.15080339 0.06983928 0.13379651 0.02990342 0.33403492
0.24908432 0.07919161 0.0035300083 0.058161583 0.12839866 0.13215844 0.073925205 0.022771534
0.15714325 0.012101264 0.20059574 -0.028710846 0.11928098 -0.02903841 0.024873273 0.13701148
0.09872691 -0.0021673862 0.20103708 0.06085831 0.14333437 0.20831113 0.065101966 -0.091527656
0.00933058 0.12752847 0.15536003 -0.022929529 0.15989368 0.17427424 0.12098847 0.0799196
0.007726852 0.13651468 0.20537762 0.026312536 0.1665687 0.22452459 0.19195136 0.062933646
0.16563605 0.10557528 0.16712832 0.04686454 0.11804689 0.10683954 -0.049263816 0.102884606
-0.04250417 0.18685786 0.06719417 0.15026064 -0.1466217 0.15576851 0.20926447 0.15721536
0.06476905 -0.050869074 0.15995392 0.030363359 -0.14759599 -0.038732786 -0.094239034 0.012093706
-0.068013355 0.13609652 0.09705222 0.055212256 0.023404047 0.09858784 -0.1351673 0.12018739
0.039841603 0.23672672 -0.07177766 -0.07039339 -0.010778468 -0.04092051 -0.17382255 -0.14435305
-0.111306034 0.25091454 0.22790417 0.08765908 0.27474827 0.16122411 0.1164119 0.04912115
0.0077611967 0.26131487 0.28641874 -0.12118696 0.18136929 0.20231766 0.05739598 0.039476354
-0.008544422 0.21791032 0.33240873 0.20050062 0.106597796 0.19349878 0.0090601705 -0.024065211
0.18408926 0.24449615 0.1545557 0.04761656 0.1904957 -0.08280695 0.25677142 0.042291485
00000000: 23a2 4d3e 7685 983e 229a d1bb 346c 1a3e
00000010: e507 8f3d f401 093e 04f8 f43c a006 ab3e
00000020: f60f 7f3e 362f a23d b657 673b d73a 6e3d
00000030: f07a 033e 8b54 073e 1966 973d 5e8b ba3c
00000040: 29ea 203e 6144 463c f868 4d3e 0233 ebbc
00000050: 9649 f43d f6e1 edbc 09c3 cb3c bd4c 0c3e
00000060: 5631 ca3d b50a 0ebb aadc 4d3e 9046 793d
00000070: 3fc6 123e 834f 553e 2e54 853d da72 bbbd
00000080: 4adf 183c d396 023e b316 1f3e b5d6 bbbc
00000090: 2bbb 233e f274 323e cec8 f73d e3ac a33d
000000a0: 8831 fd3b 81ca 0b3e 834e 523e 638d d73c
000000b0: fc90 2a3e c6e9 653e e68e 443e 5be3 803d
000000c0: 7f9c 293e da37 d83d b023 2b3e 08f5 3f3d
000000d0: 91c2 f13d b0ce da3d dbc8 49bd 2ab5 d23d
000000e0: da18 2ebd ab57 3f3e 199d 893d eddd 193e
000000f0: 0024 16be c881 1f3e 6d49 563e 10fd 203e
00000100: a3a5 843d 175c 50bd f6ca 233e 94bc f83c
00000110: 6723 17be 45a6 1ebd 6500 c1bd ae24 463c
00000120: 964a 8bbd e35c 0b3e 50c3 c63d 3f26 623d
00000130: d8b9 bf3c 6ce8 c93d 4c69 0abe ce24 f63d
00000140: f330 233d 7d68 723e 2a00 93bd 692a 90bd
00000150: 2c98 30bc 449c 27bd 8afe 31be 49d1 13be
00000160: 6bf4 e3bd df77 803e b65f 693e 9b86 b33d
00000170: ceab 8c3e ef17 253e 5d69 ee3d 4233 493d
00000180: a351 fe3b 10cb 853e 7aa5 923e de30 f8bd
00000190: dfb8 393e 5c2c 4f3e 0c18 6b3d f5b1 213d
000001a0: e7fd 0bbc e223 5f3e 7a31 aa3e 0950 4d3e
000001b0: f24f da3d 8b24 463e 1c71 143c 6824 c5bc
000001c0: e581 3c3e 335d 7a3e d943 1e3e 9509 433d
000001d0: 4e11 433e b196 a9bd 8b77 833e d639 2d3d

output.weight f4 [2, 30]
-0.10807276 -0.046817653 0.13798898 -0.08194277 0.04587724 -0.13715279 0.1452244 -0.16289155
-0.169978 -0.18983974 -0.0016804875 0.097095475 -0.19039822 0.0019311674 0.29766077 0.022271043
0.16220997 0.00375409 -0.0568841 0.14267851 0.14013264 -0.07178081 -0.093144044 0.08560349
0.0855221 -0.09856683 -0.22326991 0.1731275 -0.059762385 0.090615064 0.28269577 0.26675156
0.22265892 0.27169505 -0.15063585 0.1994971 -0.18411188 0.19288218 0.21723242 0.1520684
-0.24062411 -0.16257827 -0.18748808 -0.21562353 0.19283241 0.29423532 0.1864051 -0.23830235
0.26232424 -0.25435174 0.22576381 -0.032923646 0.2094336 0.15747727 -0.34608677 0.14402741
-0.18449482 -0.23611708 0.28746593 0.17851749
00000000: 4055 ddbd dec3 3fbd fc4c 0d3e 9cd1 a7bd
00000010: c6e9 3b3d c871 0cbe b5b5 143e 0bcd 26be
00000020: b60e 2ebe 5965 42be ce43 dcba fed9 c63d
00000030: c0f7 42be 3a1f fd3a fe66 983e c371 b63c
00000040: 5f1a 263e 2e07 763b 4dff 68bd 511a 123e
00000050: ee7e 0f3e d101 93bd 4ec2 bebd e250 af3d
00000060: 3626 af3d 68dd c9bd dea0 64be 5648 313e
00000070: 67c9 74bd 6494 b93d 80bd 903e a993 883e
00000080: b300 643e 9d1b 8b3e 4940 1abe f848 4c3e
00000090: d387 3cbe e882 453e 2d72 5e3e d2b7 1b3e
000000a0: 2b66 76be eb7a 26be e0fc 3fbe 6acc 5cbe
000000b0: dc75 453e 03a6 963e fbe0 3e3e 8805 74be
000000c0: 5d4f 863e 643a 82be a12e 673e f2da 06bd
000000d0: c375 563e b941 213e 4932 b1be ec7b 133e
000000e0: 36ec 3cbe adc8 71be bc2e 933e 4acd 363e

output.bias f4 [2]
0.10138129 0.025467787
00000000: fea0 cf3d d2a1 d03c

switch.weight f4 [1, 30]
0.13369173 -0.058941144 -0.094409466 -0.060131945 -0.0492505 0.07382375 -0.038865637 0.08919466
-0.14021225 0.031903364 0.1386479 -0.028639635 0.14175849 0.04779604 -0.17204838 -0.108297944
0.15014885 -0.03978848 0.18319224 -0.18687885 -0.09297774 0.12992372 0.16476971 -0.15694633
0.049930908 -0.17045006 -0.134926 0.07718139 -0.085836045 -0.011142697
00000000: 7ce6 083e 456c 71bd c059 c1bd ea4c 76bd
00000010: e4ba 49bd e830 973d 9331 1fbd b1ab b63d
00000020: cd93 0fbe 1aad 023d b7f9 0d3e ab9d eabc
00000030: 2329 113e c8c5 433d 732d 30be 50cb ddbd
00000040: 9fc0 193e 3ff9 22bd bf96 3b3e 2b5d 3fbe
00000050: 1d6b bebd b90a 053e 64b9 283e 8ab6 20be
00000060: 5a84 4c3d 768a 2ebe 0b2a 0abe 4711 9e3d
00000070: cfca afbd dc8f 36bc
