checkpoints/QAOA_MaxCut-0b785a1f-2/model.pth (torch, 50130 bytes, 11 tensors)

recurs1.weight_ih f4 [120, 2]
0	0x3e6255e9	0.22103085
1	0x3e1066b0	0.14101672
2	0x3dfbecd9	0.123010345
3	0xbdc7e359	-0.0976016
4	0x3e2ebc1e	0.17063949
5	0xbd1b34b9	-0.037892077
6	0x3e45f7b7	0.19332777
7	0x3d2f287a	0.04276321
8	0x3ed8a4f5	0.42313352
9	0x3d13f27f	0.036119934
10	0x3e526efb	0.20550148
11	0x3d3b1e05	0.045682926
12	0xbc04fc9a	-0.0081168655
13	0xbe76ede9	-0.24114193
14	0x3dcdac7a	0.10042663
15	0x3d5dc8b0	0.05414647
16	0x3eada885	0.33917633
17	0x3e10074e	0.14065287
18	0x3e841f7f	0.2580528
19	0xbe0bcf89	-0.13653387
20	0x3eb716c1	0.35759547
21	0x3e178cf5	0.14799865
22	0x3e2d9d36	0.16954502
23	0x3e744431	0.23854138
24	0x3e8c9e14	0.27464354
25	0x3c34fcd8	0.011046611
26	0x3f1803cb	0.5938079
27	0xbeb64c89	-0.35605267
28	0x3da7da4b	0.08195933
29	0xbe210340	-0.15723896
30	0x3e80dffd	0.2517089
31	0x3e46db09	0.19419493
32	0x3e20f888	0.15719807
33	0xbe0f017f	-0.13965414
34	0x3e36ddb0	0.17858005
35	0xbe281ed3	-0.16418009
36	0x3d7de293	0.061983656
37	0x3e682455	0.2267011
38	0x3eb102b0	0.34572363
39	0x3dd91939	0.10600514
40	0x3e093817	0.13400303
41	0xbe140a39	-0.14457025
42	0x3e9c1d44	0.30491078
43	0xbe240913	-0.16019087
44	0x3d8bb22d	0.06821094
45	0xbe66f1fd	-0.22553249
46	0x3f050866	0.5196594
47	0xbd06937e	-0.032855503
48	0x3da414b9	0.08011765
49	0xbdc684e3	-0.09693315
50	0x3e946e73	0.28990516
51	0x3e85d6a9	0.26140335
52	0x3e963df1	0.29344133
53	0xbd286490	-0.04111153
54	0x3e8d2e37	0.27574322
55	0xbdcd7df5	-0.1003379
56	0x3e8b6519	0.2722557
57	0xbdcc76c0	-0.09983587
58	0x3e843d25	0.258279
59	0xbe099e79	-0.13439359
60	0x3e62b196	0.22138056
61	0x3e1744c8	0.14772332
62	0x3ddf7b04	0.10912135
63	0x3d9efb7b	0.0776281
64	0x3e9023ee	0.28152412
65	0xbdce88f1	-0.10084713
66	0x3e46ec1f	0.1942601
67	0xbd5f9610	-0.05458647
68	0x3ee65af1	0.44991258
69	0x3e43202c	0.19055241
70	0x3d5bf6f9	0.05370233
71	0xbc565f25	-0.013084208
72	0x3e48529f	0.19562767
73	0x3d8cb415	0.068702854
74	0x3e957129	0.29187897
75	0x3e7b9320	0.24567842
76	0x3e560d94	0.20903617
77	0xbdb992f3	-0.090612315
78	0x3eab3799	0.33440855
79	0xbe0e7dc9	-0.1391517
80	0x3d1db113	0.03849895
81	0x3defd628	0.11710769
82	0x3e8b39f1	0.27192643
83	0xbd377b86	-0.044795536
84	0x3e8d17af	0.27557132
85	0xbb787b4e	-0.0037915292
86	0x3eba4510	0.36380816
87	0xbea15742	-0.31511885
88	0x3e8ddfb9	0.2770975
89	0xbe33ae45	-0.17546947
90	0x3e9aa596	0.30204457
91	0x3de53890	0.11192429
92	0x3e914d85	0.28379455
93	0x3d1a3176	0.037644826
94	0x3ce77129	0.028252201
95	0xbe0941a5	-0.13403948
96	0x3e73e9fe	0.2381973
97	0x3dc0efb6	0.09420721
98	0x3d49308c	0.049118564
99	0xbd90a844	-0.07063344
100	0x3e8c2441	0.2737141
101	0x3cf46044	0.02983106
102	0x3ddbd52f	0.10734021
103	0xbd6ab6d5	-0.05730327
104	0x3aa77aa4	0.0012777639
105	0xbe1a7d0b	-0.15086763
106	0x3e95726b	0.29188856
107	0xbe8939f4	-0.26802027
108	0x3e29d4ed	0.16585131
109	0xbd433635	-0.047659118
110	0x3d6d71ac	0.057969734
111	0x3e4a53b8	0.19758499
112	0x3dd35dc2	0.10320617
113	0x3d626112	0.055268355
114	0x3e512b07	0.2042657
115	0xbe049b1a	-0.12949792
116	0x3dd2fdd7	0.10302322
117	0x3d822c00	0.063560486
118	0x3e871fbb	0.26391396
119	0x3c8721d0	0.016495615
120	0x3d96db25	0.07366017
121	0x3e1c3bbf	0.15257166
122	0xbdd0bf4c	-0.10192737
123	0x3e880c2e	0.26571792
124	0xbe249078	-0.16070735
125	0xbe8f67d9	-0.28008917
126	0xbcbb30c3	-0.0228504
127	0xbe849603	-0.258957
128	0xbd7ea724	-0.062171116
129	0xbec16907	-0.37775442
130	0xbd38187b	-0.04494522
131	0x3e55e163	0.2088676
132	0xbe304ed4	-0.1721757
133	0x3e26ee5e	0.16301867
134	0x3ddfa12c	0.10919413
135	0xbdf45a49	-0.11931283
136	0xbc04fbe5	-0.008116697
137	0xbe548dc6	-0.20757207
138	0x3d8d4b1d	0.06899092
139	0x3ebcbf2e	0.3686461
140	0x3e0e022c	0.13868016
141	0x3e78f230	0.24311137
142	0x3e734958	0.23758447
143	0x3df9dc84	0.12200263
144	0xbe55d9f2	-0.20883921
145	0xbe869ea9	-0.26292923
146	0x3d25e226	0.040498875
147	0x3eb91982	0.36152273
148	0xbded4e96	-0.11587255
149	0xbe9eb18e	-0.30994838
150	0xbe370031	-0.17871167
151	0xbea365c9	-0.31913593
152	0xbd7f9496	-0.062397562
153	0x3e92a2e6	0.28639907
154	0x3dd370bc	0.10324237
155	0xbebaa02b	-0.36450323
156	0x3e11d253	0.14240389
157	0xbe92cd44	-0.2867223
158	0xbd002398	-0.031283945
159	0xbe62b603	-0.22139744
160	0xbe24512c	-0.1604659
161	0x3c2b627a	0.01046049
162	0xbe06e728	-0.13174117
163	0xbea6b31c	-0.32558525
164	0x3df4da1c	0.119556636
165	0xbe1e4bf2	-0.15458658
166	0xbe03622d	-0.1283042
167	0x3ea31400	0.31851196
168	0xbdd64685	-0.10462669
169	0xbe3b104d	-0.18267937
170	0x3e3e744b	0.1859905
171	0xbe8d671c	-0.2761773
172	0x3eb871f4	0.3602444
173	0xbc371304	-0.011173967
174	0xbe36a102	-0.17834857
175	0x3e5d532f	0.21613763
176	0xbb11b7a0	-0.0022234693
177	0xbe6eb0ad	-0.23309584
178	0x3e0f7bb8	0.14012039
179	0xbecb4e48	-0.3970816
180	0x3e81e095	0.25366655
181	0x3d482efd	0.048872937
182	0x3ed9091d	0.42389765
183	0x3dab01d5	0.08349959
184	0x3eb263ef	0.34841868
185	0xbd644973	-0.05573411
186	0x3e6a3fa5	0.22875841
187	0xbe4d8805	-0.20071419
188	0x3e9a7b54	0.30172217
189	0x3dd571e4	0.104221135
190	0x3ed37788	0.41302133
191	0x3e756281	0.23963358
192	0x3d552d61	0.05204523
193	0xbe3500b3	-0.17676048
194	0x3d97ef45	0.07418684
195	0xbd5b789d	-0.053581823
196	0x3e2899dd	0.16464944
197	0x3e26367a	0.16231719
198	0x3e962e47	0.29332182
199	0xbdde3d43	-0.108515285
200	0x3e9f31eb	0.31092772
201	0x3deb6085	0.11493019
202	0x3d9e01ee	0.07715212
203	0xb998f338	-0.0002917291
204	0x3e6ea581	0.23305322
205	0x3df78edb	0.120877944
206	0x3ece9937	0.4035127
207	0xbdebc032	-0.11511268
208	0x3eaa2772	0.3323322
209	0xbde0a9f0	-0.10969913
210	0x3ea49120	0.32141972
211	0x3d06591a	0.032799818
212	0x3e956574	0.29178965
213	0xbdea22c3	-0.114324115
214	0x3eaea58b	0.34110674
215	0x3cba1f68	0.022720054
216	0x3d822e2f	0.06356465
217	0xbbb767db	-0.0055970973
218	0x3ee6d672	0.45085484
219	0xbdd2859c	-0.1027939
220	0x3dcef6d7	0.10105675
221	0x3d270835	0.04077931
222	0x3eb92cac	0.36166894
223	0x3c7e7e96	0.01553311
224	0x3d9fa260	0.077946424
225	0xbdb2672f	-0.08711087
226	0x3eb7c16d	0.3588976
227	0xbe787940	-0.24265003
228	0x3e0fd5bb	0.14046375
229	0xbe1b678c	-0.15176219
230	0x3e494b96	0.1965774
231	0x3e8429ef	0.25813243
232	0x3e9b1c99	0.30295256
233	0x3d293e65	0.04131927
234	0x3e93b189	0.28846386
235	0xbe15b995	-0.14621575
236	0x3ead43df	0.33840844
237	0xbda263e7	-0.07929211
238	0x3e96a8c6	0.2942564
239	0xbca9f820	-0.020748198

recurs1.weight_hh f4 [120, 30]
0	0x3d432d82	0.04765082
1	0x3e14ff81	0.14550592
2	0xbd2e2d07	-0.04252341
3	0x3bd2199c	0.0064117443
4	0x3db921fa	0.09039684
5	0xbe1d649a	-0.15370408
6	0x3e0f7f54	0.14013416
7	0xbe2cc45b	-0.16871779
8	0x3ca85488	0.02054812
9	0xbd2cebd6	-0.0422171
10	0xbd9f1eda	-0.07769556
11	0x3d609e23	0.05483831
12	0x3e055191	0.13019396
13	0xbdbc1ed6	-0.09185569
14	0xbdcf5c23	-0.101249956
15	0xbdb716d4	-0.08939901
16	0xbe466836	-0.19375691
17	0x3da1f8cc	0.07908782
18	0xbde9a87a	-0.114090875
19	0xbde50675	-0.11182872
20	0xbe01af48	-0.1266452
21	0x3dc1a848	0.09455925
22	0x3ddded57	0.108362846
23	0x3df8dc12	0.1215135
24	0x3da7f3d1	0.08200801
25	0xbdb69065	-0.0891426
26	0xbd2ed7c2	-0.04268623
27	0x3d7272a0	0.059191346
28	0x3e0d4a13	0.13797788
29	0x3d6bebbd	0.057597864
30	0xbd92506c	-0.071442455
31	0xbdb74982	-0.089495674
32	0xbdd0904f	-0.10183775
33	0x3dec7fc5	0.115478076
34	0xbdbe040f	-0.09278118
35	0xbe1240a9	-0.14282478
36	0x3de9a993	0.11409297
37	0xbe1365ef	-0.14394353
38	0xbc682997	-0.014170072
39	0xbb0b988c	-0.0021300642
40	0x3c32a40f	0.010903372
41	0xbdac07a5	-0.083998956
42	0xbe088cf4	-0.1333502
43	0x3d92269f	0.07136273
44	0x3dba30df	0.09091353
45	0x3e112c83	0.14177136
46	0xbde29a7a	-0.1106462
47	0x3d9ad239	0.07559628
48	0xbd8cbb05	-0.06871609
49	0x3b2f7e90	0.0026778318
50	0xbe3e7173	-0.18597965
51	0x3d84577e	0.06462
52	0x3dfe1e57	0.124081306
53	0xbdb57b5c	-0.088614196
54	0x3c5234b3	0.012829947
55	0xbe1281e1	-0.14307357
56	0x3e50cd2b	0.20390765
57	0xbe0f4db9	-0.13994493
58	0x3dabe6e3	0.083936475
59	0xbc76b380	-0.015057445
60	0xbd7c08c9	-0.061531816
61	0xbb94ff73	-0.0045470535
62	0xbd6705ea	-0.056402124
63	0x3d9ffe13	0.07812133
64	0x3d9769f2	0.07393254
65	0xbdb1984e	-0.08671628
66	0x3a78528a	0.00094727485
67	0x3c87e3bc	0.016588084
68	0x3dcef6ce	0.10105668
69	0xbd707eec	-0.058714792
70	0xbe50aa49	-0.20377459
71	0x3cf35b64	0.029706664
72	0x3dcfae1e	0.10140632
73	0xbde8ef76	-0.113737985
74	0x3de96b7e	0.11397456
75	0x3e25dc8e	0.16197416
76	0xbe0f6f12	-0.14007214
77	0x3d3ae072	0.045624204
78	0x3c20eb33	0.009821701
79	0x3d4b5a2e	0.04964655
80	0xbd39f0cb	-0.045395654
81	0x3d9d54b4	0.076821715
82	0xbe084baa	-0.13310114
83	0xbce55a14	-0.027997054
84	0x3e2a14dc	0.1660952
85	0x3ded4dd7	0.115871124
86	0x3e233506	0.15938196
87	0xbca5c5b3	-0.020235872
88	0x3e0c4b27	0.13700543
89	0xbd4e50bc	-0.050369963
90	0xbde3d61f	-0.11124825
91	0xbe128591	-0.14308764
92	0x3e47ac44	0.19499308
93	0x3e23ca5d	0.15995164
94	0xbe2cbbec	-0.16868562
95	0x3df67b76	0.12035267
96	0x3dc4322f	0.09579884
97	0x3e024a55	0.12723668
98	0x3e22135c	0.15827698
99	0x3e07a71c	0.13247341
100	0xbc9551bc	-0.01822745
101	0xbc7f37d5	-0.015577276
102	0x3e02745e	0.12739703
103	0x3d968441	0.07349444
104	0xbd87dc83	-0.06633856
105	0x3e0adf75	0.13561805
106	0x3da1c6f0	0.078992724
107	0x3dca3c03	0.098747276
108	0xbe3e9ea5	-0.18615206
109	0x3ce066dd	0.027392799
110	0xbe0a0542	-0.13478568
111	0x3e06b665	0.13155515
112	0x3c05e1eb	0.008171539
113	0x3d0ad9b2	0.033899017
114	0x3d8f0421	0.069832094
115	0x3c90fca1	0.017698588
116	0xb98a98ee	-0.00026435353
117	0x3d9a2f12	0.07528509
118	0xbe0611c5	-0.13092716
119	0x3d382597	0.044957723
120	0xbde4d470	-0.11173332
121	0xbe1d0d47	-0.15337096
122	0xbdc2133b	-0.09476324
123	0x3e698af1	0.22806908
124	0x3e005637	0.12532888
125	0x3e56615a	0.20935574
126	0x3dcf7b74	0.10130969
127	0xbe4a5094	-0.197573
128	0xbe002167	-0.12512742
129	0xbd6dd985	-0.05806877
130	0xbe1a6324	-0.15076882
131	0x3e34b8ed	0.17648669
132	0xbe1df027	-0.15423642
133	0xbe1effb7	-0.15527235
134	0xbde7ef89	-0.113249846
135	0xbd9122c9	-0.07086713
136	0x3ddf6b7e	0.109091744
137	0x3e4475bf	0.19185542
138	0x3db2b04c	0.08725032
139	0x3dffe4a5	0.12494782
140	0x3d6ac4a2	0.05731643
141	0xbd0d95d5	-0.03456672
142	0x3e07f5c5	0.13277347
143	0x3dbe777f	0.09300136
144	0x3df84169	0.12121851
145	0x3e0ce548	0.13759339
146	0x3e439838	0.19101036
147	0x3d8988f5	0.067155756
148	0xbd9702e7	-0.073736005
149	0x3df6f879	0.12059111
150	0x3ce78a29	0.028264122
151	0xbd23b4ae	-0.03996723
152	0xbd5f569d	-0.05452596
153	0xbc8d221b	-0.017228177
154	0xbe0f0a7f	-0.13968848
155	0x3e174577	0.14772592
156	0x3d547528	0.05186954
157	0xbd36d4d3	-0.04463656
158	0xbdd3e195	-0.10345761
159	0x3de07758	0.10960263
160	0x3e03dbf7	0.12876879
161	0x3d2f5be8	0.042812258
162	0xbdc621fe	-0.09674452
163	0x3dac07c5	0.083999194
164	0x3e16d42b	0.14729373
165	0xbe1e6a94	-0.15470344
166	0x3e102078	0.14074886
167	0x3e198a2e	0.14994118
168	0xbdd137a3	-0.1021569
169	0x3dd40dd1	0.10354198
170	0xbe5127a3	-0.20425276
171	0xbcc84133	-0.024445152
172	0x3e5ed9cf	0.21762775
173	0xbda3bd9c	-0.079951495
174	0xbd737b97	-0.059444036
175	0xbdc1d1b5	-0.094638266
176	0x3d7e590d	0.062096644
177	0xbd0769cb	-0.033059876
178	0x3c290c81	0.010317923
179	0x3e46443d	0.19361968
180	0x3d1879a8	0.037225395
181	0xbe0f825c	-0.14014572
182	0x3d05729e	0.03258001
183	0x3de35677	0.11100476
184	0x3dfb4315	0.12268654
185	0xbe1cd4e0	-0.1531558
186	0xbd432f30	-0.047652423
187	0xbe204d93	-0.15654592
188	0xbd8d90c7	-0.0691238
189	0x3d41cf7c	0.047317013
190	0xbe19ecd4	-0.15031749
191	0x3dc31afe	0.09526633
192	0x3e391078	0.18072689
193	0xba0f8e1f	-0.0005476195
194	0xbdac41b8	-0.08410972
195	0xbd23eaa9	-0.04001871
196	0x3b1f4f08	0.002430858
197	0xbdcc08de	-0.09962629
198	0x3dc9c72f	0.098524444
199	0xbe146b85	-0.1449414
200	0xbe4afec3	-0.19823746
201	0xbe095f8c	-0.13415354
202	0xbcd1ce7a	-0.025611151
203	0x3dc507cf	0.0962063
204	0xbe195b4f	-0.14976238
205	0x3e1f59ec	0.15561646
206	0xbd906671	-0.07050789
207	0x3cd0b23a	0.02547561
208	0x3cfd1d73	0.030897832
209	0xbe03e854	-0.12881595
210	0x3e3a7470	0.1820848
211	0x3dfb4390	0.12268746
212	0x3e465ae1	0.19370605
213	0x3e0d649c	0.1380791
214	0xbe0a465e	-0.13503405
215	0x3e441d53	0.19151811
216	0xbb0e019e	-0.0021668444
217	0x3d5ef5f2	0.05443377
218	0xbe32321a	-0.17401925
219	0xbd4c16f1	-0.049826566
220	0xbe1dca2e	-0.15409157
221	0xbd0a9831	-0.033836547
222	0x3d040c1a	0.032238103
223	0xbe39815c	-0.18115753
224	0x3dc21870	0.09477317
225	0x3d91e4c5	0.071237125
226	0x3d3087be	0.043098204
227	0xbe134378	-0.14381206
228	0xbe3223c4	-0.17396456
229	0xbd94beb6	-0.07262938
230	0x3d23ad07	0.039959934
231	0x3e15040a	0.14552322
232	0x3dba31b9	0.09091515
233	0xbdbae842	-0.09126331
234	0x3dc0247f	0.09381961
235	0xbe5f4d9e	-0.21806952
236	0xbdd9c50d	-0.106332876
237	0x3dffd374	0.12491503
238	0xbe13d09c	-0.14435047
239	0x3d88d7e7	0.06681805
240	0xbe08b5c2	-0.13350585
241	0xbd903418	-0.07041186
242	0xbdf0cd60	-0.11757922
243	0x3e008e6c	0.1255433
244	0xbc5fbb9e	-0.013655571
245	0x3e2b2415	0.16712983
246	0x3dd65a1b	0.10466405
247	0x3d8e6ea4	0.06954697
248	0x3c5bd17f	0.013416647
249	0xbda20560	-0.079111814
250	0xbcb4c0c4	-0.022064574
251	0x3d8052b2	0.06265773
252	0x3db7f88b	0.08982953
253	0xbe40302c	-0.18768376
254	0x3e3bc6d1	0.18337561
255	0xbd1e9f6c	-0.038726255

recurs1.bias_ih f4 [120]
0	0xbdaebe21	-0.08532358
1	0xbd344b0d	-0.044016887
2	0x3d823017	0.06356829
3	0x3e7a9712	0.24471691
4	0x3e4f9964	0.20273358
5	0x3e01232a	0.1261107
6	0xbb0f2c26	-0.0021846383
7	0x3e70df9a	0.23522797
8	0x3dd2ad81	0.102869995
9	0x3e4dbdf4	0.20091993
10	0x3e11fcf0	0.14256644
11	0x3db19c00	0.08672333
12	0x3e473ffa	0.19457999
13	0x3e8dae1e	0.27671903
14	0x3e6f85cd	0.23390885
15	0x3e34e862	0.17666772
16	0x3e2f8464	0.17140347
17	0x3d63f15d	0.055650104
18	0x3e4e7e50	0.20165372
19	0x3e3361fa	0.17517844
20	0x3e2b6850	0.16739011
21	0x3dd23191	0.1026336
22	0xbd93fa7d	-0.07225511
23	0x3e50becc	0.20385283
24	0x3df734a7	0.120705895
25	0x3e761eb4	0.2403515
26	0x3dc1efad	0.09469543
27	0x3e0620f3	0.13098507
28	0x3e83e62d	0.25761548
29	0x3d304de5	0.043043036
30	0x3e47fe96	0.1953071
31	0x3e0cb56d	0.13741083
32	0x3e191594	0.14949638
33	0x3e09d6fb	0.13460915
34	0xbe0538d7	-0.13009964
35	0x3e082e92	0.13299015
36	0x3e3a8a54	0.1821683
37	0xbda62207	-0.08111959
38	0x3d0fbecf	0.03509408
39	0xbdf7aa3c	-0.120930165
40	0x3c2c2d31	0.010508821
41	0x3d98eb56	0.07466762
42	0x3e1bf4e6	0.1523014
43	0xbdc05e86	-0.09393029
44	0xbe1f145f	-0.15535115
45	0x3e07c6d0	0.13259435
46	0x3e0d67c8	0.1380912
47	0xbb494f04	-0.0030717263
48	0x3e3f4ef2	0.18682459
49	0x3e4fa197	0.20276485
50	0xbc52e846	-0.012872761
51	0x3d927d41	0.071527965
52	0x3d194a0e	0.03742414
53	0xbd88ea74	-0.066853434
54	0xbd71176d	-0.05886023
55	0xbcb10598	-0.021609113
56	0xbe00523d	-0.12531371
57	0x3e03e324	0.12879616
58	0xbbadb1aa	-0.00530072
59	0xbd3cb16a	-0.046067633
60	0x3e1e1bfd	0.15440364
61	0xbb1c6781	-0.0023865404
62	0x3e1093d2	0.14118889
63	0x3e2b3cc0	0.16722393
64	0xbcb1e12f	-0.021713821
65	0x3d30692a	0.043069042
66	0x3dfacbf1	0.1224593
67	0xbe0f48ee	-0.13992664
68	0xbd03aae4	-0.032145396
69	0x3c1f984e	0.009740902
70	0xbc386fa5	-0.011257087
71	0x3d9db1d5	0.076999344
72	0x3dbbb6a3	0.091656946
73	0xbdb6ffd0	-0.08935511
74	0x3c4ce137	0.012504867
75	0x3e0b6bec	0.13615388
76	0xbdf245ef	-0.11829745
77	0xbdf389b8	-0.11891502
78	0xbe01e447	-0.12684737
79	0x3dfc584e	0.1232153
80	0xbe531d90	-0.20616746
81	0xbd4ab982	-0.04949332
82	0x3e28d634	0.16487962
83	0xbdfb7160	-0.12277484
84	0x3e21da76	0.15805992
85	0xbdc3aa53	-0.09553971
86	0x3d9a630f	0.07538425
87	0x3cff0993	0.031132495
88	0x3c88b1de	0.016686376
89	0x3e07dbe2	0.13267472
90	0x3e6a84f6	0.22902283
91	0xbba95537	-0.005167629
92	0x3e3af38f	0.18256973
93	0x3e00ceab	0.12578838
94	0x3e105e27	0.14098416
95	0xbd862269	-0.06549532
96	0x3db3e1f3	0.08783331
97	0x3e4336d8	0.1906389
98	0xbd84e70b	-0.064893804
99	0xbd3bc338	-0.045840472
100	0xbd1d4d02	-0.03840352
101	0x3dcdcc4a	0.10048731
102	0x3d946692	0.07246126
103	0x3dda3400	0.106544495
104	0x3e8f643d	0.28006163
105	0x3dc3795c	0.09544632
106	0xbd20372b	-0.039115112
107	0x3ddd6e26	0.10812025
108	0xbd335f78	-0.043792218
109	0x3d98350b	0.07431992
110	0x3e218986	0.15775117
111	0x3e0cb51c	0.13740963
112	0xbd5d109b	-0.053970914
113	0x3eaa0e31	0.33213952
114	0x3e2383ed	0.15968294
115	0xbd11adb6	-0.035566054
116	0x3dd22c98	0.10262412
117	0x3dff0211	0.12451566
118	0xbcc26078	-0.02372764
119	0xbcccbc9f	-0.024992285

recurs1.bias_hh f4 [120]
0	0xbd9797f3	-0.07402029
1	0x3e48ea66	0.19620666
2	0x3e09c6ea	0.13454786
3	0x3e3afb3e	0.18259904
4	0x3d8b4c88	0.068017066
5	0x3e6a75b5	0.22896464
6	0x3d8e5e20	0.06951547
7	0xbd9cee83	-0.0766268
8	0x3d61f71e	0.05516731
9	0x3e6e06ba	0.23244753
10	0x3e381ffc	0.17980951
11	0x3cf83d5c	0.030302696
12	0x3bc93728	0.0061406083
13	0x3cbcc19e	0.023041543
14	0x3e929514	0.28629363
15	0x3d478b82	0.04871703
16	0x3e6941d3	0.22779016
17	0x3d4a874a	0.049445428
18	0x3da1243d	0.0786824
19	0xbd5c9eb6	-0.053862296
20	0xbcf3a850	-0.029743344
21	0x3e91f17a	0.28504544
22	0xbdb262ec	-0.08710274
23	0x3e84f0e5	0.25965038
24	0xbddb8c93	-0.10720172
25	0x3df4a5bb	0.11945673
26	0xbe10fecb	-0.14159696
27	0xbda5e54e	-0.08100377
28	0xbd0fa544	-0.03506972
29	0x3d2dfe7f	0.042479035
30	0x3d718636	0.058965884
31	0xbdb86d53	-0.09005227
32	0x3d973741	0.07383586
33	0x3dea3647	0.11436134
34	0x3e2becc7	0.16789542
35	0x3e4c5800	0.19955444
36	0x3e0782d0	0.13233495
37	0xbbd8e318	-0.0066188686
38	0x3d0aeb93	0.033916067
39	0x3e1badee	0.15203068
40	0x3e14e88a	0.14541832
41	0xba7b3bfb	-0.0009583828
42	0x3e451a94	0.1924842
43	0xbe4d4b34	-0.20048219
44	0x3e31f67c	0.17379183
45	0x3e0b6e24	0.13616234
46	0xbdc936fe	-0.09824942
47	0xbdf37908	-0.11888319
48	0x3e3176cc	0.17330474
49	0x3e77f135	0.24213107
50	0x3d315af9	0.04329965
51	0xbbe0ce7a	-0.0068605514
52	0x3ddfb0af	0.109223716
53	0x3d521647	0.051290777
54	0xbd162f53	-0.036666226
55	0x3e53f1c0	0.20697689
56	0x3dc65b39	0.09685368
57	0x3daa4125	0.083132066
58	0x3e1328df	0.1437106
59	0xbe049ab4	-0.1294964
60	0xbdbc4d5f	-0.09194445
61	0xbc3d75bb	-0.011563714
62	0x3d721a9e	0.059107415
63	0xbcc58bce	-0.024114516
64	0x3d95633a	0.072943166
65	0x3d925600	0.071453094
66	0xbe5cb897	-0.2155479
67	0x3d31443e	0.04327797
68	0x3bfdfd00	0.007751107
69	0xbe114820	-0.1418767
70	0x3beee7ca	0.007290815
71	0xbc87421b	-0.016511014
72	0xbdcf7649	-0.10129983
73	0xbe38f19d	-0.18060918
74	0x3e1aa5ea	0.15102354
75	0xbe0f4206	-0.1399003
76	0x3c1c36d3	0.0095345555
77	0x3e1ac7fb	0.15115349
78	0xbc21170b	-0.009832154
79	0xbdd83b31	-0.10558165
80	0xbe5c8168	-0.2153374
81	0x3d8e991d	0.06962798
82	0xbd4cf550	-0.050038636
83	0xb734f3e0	-1.0785618e-05
84	0x3d8b124e	0.06790601
85	0xbd7da23c	-0.061922297
86	0x3e2e61de	0.17029521
87	0xbc875feb	-0.01652523
88	0xbd53c1a9	-0.05169836
89	0xbdd06695	-0.10175816
90	0x3e0474d6	0.12935194
91	0xbb84cba0	-0.0040525943
92	0x3df2ccbd	0.11855457
93	0x3d5d09a7	0.053964283
94	0x3e8a2b3b	0.26986107
95	0xbce00000	-0.02734375
96	0xbd66766d	-0.056265283
97	0x3d0d69cf	0.034524735
98	0xbca15a30	-0.019696325
99	0x3e44ffce	0.19238207
100	0x3d97f8f7	0.07420533
101	0x3e08676f	0.13320707
102	0x3e6c6c74	0.23088247
103	0x3e8a2c33	0.26986846
104	0x3d9cc085	0.07653908
105	0x3e7773a1	0.24165203
106	0xbca29c88	-0.01985003
107	0xbdb8c020	-0.0902102
108	0x3d1fe892	0.039040156
109	0xbb95985b	-0.0045652813
110	0xbda41de6	-0.08013515
111	0x3e11152a	0.1416823
112	0x3e68c90f	0.22732948
113	0x3db118f2	0.08647336
114	0x3cd39e4a	0.025832314
115	0xbd31b14e	-0.04338198
116	0x3d614fdb	0.055007797
117	0x3dcff646	0.10154395
118	0x3da24f26	0.079252526
119	0x3e780a7d	0.24222751

recurs2.weight_ih f4 [120, 30]
0	0xbdb20247	-0.086918406
1	0x3d9b2196	0.075747654
2	0xbe023ac9	-0.12717737
3	0x3d9a42a0	0.07532239
4	0x3c4dbe7d	0.012557623
5	0x3e8db55c	0.2767743
6	0x3dbb29af	0.0913881
7	0xbc6e8149	-0.014557191
8	0xbe4ad6d2	-0.1980851
9	0xbc2c443e	-0.010514317
10	0x3e3999c4	0.18125063
11	0xbdb26496	-0.087105915
12	0xbd243284	-0.040087238
13	0x3d8f445a	0.06995459
14	0xbe39485b	-0.18094008
15	0xbea4fc3c	-0.3222369
16	0x3e18789a	0.14889756
17	0xbde2e63d	-0.11079071
18	0xbe55bb09	-0.2087213
19	0xbc976fb5	-0.018485883
20	0xbe2a0800	-0.16604614
21	0xbe34c8b6	-0.1765469
22	0x3e1785d9	0.14797153
23	0x3d9201fd	0.071292855
24	0x3e0e7ded	0.13915224
25	0x3d27dbca	0.04098109
26	0x3ea0a82e	0.3137831
27	0x3e118884	0.14212233
28	0xbe826a75	-0.25471845
29	0xbe2d55fa	-0.16927329
30	0xbe2453f3	-0.16047649
31	0xbe06cdf1	-0.13164498
32	0xbdd4907d	-0.103791215
33	0x3e55cacf	0.20878147
34	0x3e019038	0.12652671
35	0x3dbaebf2	0.09127034
36	0xbde4958b	-0.111613356
37	0x3e114393	0.14185934
38	0xbcb2dec0	-0.021834731
39	0xbdb8934e	-0.09012471
40	0x3d6d6e7b	0.05796669
41	0x3e06a21e	0.1314778
42	0xbddfe398	-0.10932082
43	0x3dfd762b	0.123760544
44	0x3d965028	0.07339507
45	0x3dbdac14	0.09261337
46	0xbe6cfc09	-0.23143019
47	0x3db0c338	0.08630985
48	0xbd5718a7	-0.052513745
49	0xbdbb92f4	-0.091588885
50	0xbe18f071	-0.14935471
51	0x3d094990	0.03351742
52	0xbc27b129	-0.010235109
53	0xbe54a989	-0.20767798
54	0x3e47e41c	0.1952061
55	0x3d91ce39	0.07119412
56	0xbdc2ac0d	-0.09505472
57	0xbcc43a86	-0.023953687
58	0x3dafcfe1	0.08584572
59	0x3d6bfdf5	0.05761524
60	0x3e13410c	0.14380282
61	0xbd25e756	-0.040503822
62	0x3e2581b9	0.16162767
63	0xba923fb8	-0.0011157906
64	0xbd173ee4	-0.03692521
65	0x3e473ac5	0.19456013
66	0xbe3ffb1b	-0.18748133
67	0xbb4744cd	-0.0030405999
68	0x3de0cda8	0.10976726
69	0xbe817d1f	-0.25290772
70	0xbdffcbcc	-0.12490043
71	0x3e8cb3ee	0.27481025
72	0x3d04d4e3	0.032429587
73	0xbd5375ae	-0.0516259
74	0x3e296d92	0.16545704
75	0x3e08f048	0.1337291
76	0xbe148dd8	-0.14507234
77	0x3dea51c4	0.11441377
78	0x3de936f2	0.11387433
79	0xbbcc29ef	-0.006230585
80	0xbe7f4a37	-0.24930654
81	0x3db2fd72	0.08739747
82	0x3d0f4fc4	0.03498818
83	0xbe2cdb96	-0.1688064
84	0x3e46d0ee	0.19415638
85	0xbcbec12f	-0.023285476
86	0xbbd3e21b	-0.006466163
87	0xbdd7f32b	-0.105444275
88	0xbcb4737a	-0.02202772
89	0x3cf1d6be	0.029521342
90	0xbd193dc7	-0.03741243
91	0xbe33cc74	-0.17558461
92	0x3e525edd	0.20544
93	0x3e3c6844	0.18399149
94	0x3da1de00	0.07903671
95	0x3c3ccdf2	0.011523711
96	0xbd36ae2e	-0.044599704
97	0x3e1946f1	0.14968468
98	0x3d80d3a4	0.06290367
99	0xbd0c1817	-0.03420266
100	0xbe23b404	-0.1598664
101	0x3d51afa1	0.051192883
102	0xbe2b5c6e	-0.16734478
103	0xbcfa762c	-0.030573927
104	0xbd8b33f7	-0.06797021
105	0xbc848947	-0.01617874
106	0x3cb0e942	0.021595601
107	0xbcb00096	-0.021484654
108	0x3e4c58a6	0.19955692
109	0xbd68d41d	-0.056842912
110	0x3db89fda	0.09014864
111	0x3df8a32b	0.12140497
112	0xbb85426d	-0.0040667565
113	0x3c4c39bb	0.012464936
114	0xbd9ef7a8	-0.077620804
115	0xbdac6f70	-0.084196925
116	0xbc30a435	-0.0107813375
117	0xbdb7fac0	-0.08983374
118	0x3da511f4	0.08060065
119	0xbdc19bf5	-0.094535746
120	0x3dc08c43	0.09401753
121	0xbdfafc48	-0.1225515
122	0x3d281870	0.04103893
123	0x3e115d29	0.14195694
124	0x3d58ddf1	0.052946035
125	0xbc936225	-0.017991135
126	0xbd99bf14	-0.075071484
127	0xbbb265b8	-0.0054442547
128	0x3dd9a5d8	0.10627335
129	0xbd02f267	-0.031969454
130	0xbe6996bd	-0.22811408
131	0xbd9190b5	-0.07107679
132	0x3de1542f	0.11002385
133	0xbe8033e8	-0.250396
134	0x3e243639	0.1603631
135	0x3e039d2d	0.12852927
136	0xbe918bac	-0.28426874
137	0x3e38414f	0.17993663
138	0x3e6a655b	0.22890227
139	0x3e6f98b2	0.23398092
140	0xbe5ffd8d	-0.21874066
141	0x3e946eba	0.28990728
142	0x3b9c9a87	0.0047791633
143	0xbe6c3e58	-0.23070657
144	0x3e61647f	0.22010992
145	0x3e404324	0.18775612
146	0x3e955516	0.29166478
147	0x3d76189b	0.06008206
148	0x3c2b9e99	0.010474824
149	0x3e36f737	0.17867742
150	0xbdc169af	-0.09443986
151	0xbc71f265	-0.014767264
152	0x3e399c89	0.1812612
153	0x3de9fd78	0.114252985
154	0xbe17e319	-0.14832725
155	0xbd90e749	-0.07075364
156	0xbe2b8d2e	-0.16753075
157	0x3daa1896	0.08305471
158	0xbcbc0e1f	-0.022955952
159	0xbe221988	-0.15830052
160	0xbdb91bb2	-0.090384856
161	0x3d532011	0.051544253
162	0x3b41127b	0.0029460478
163	0x3e01bf48	0.12670624
164	0x3cb98b3c	0.0226494
165	0x3da9ecc4	0.082971126
166	0xbdd2e52c	-0.10297617
167	0x3d945832	0.072433844
168	0x3c4314ad	0.011906785
169	0x3e334c46	0.17509565
170	0xba013cd6	-0.0004930025
171	0xbd8542a5	-0.06506852
172	0xbdfdcdad	-0.12392745
173	0xbe4c99ab	-0.19980495
174	0xbd299711	-0.041403834
175	0x3d0d1b83	0.034450065
176	0x3e901550	0.2814126
177	0xbdb08684	-0.08619407
178	0x3dcfd341	0.10147715
179	0x3e00b26b	0.12568061
180	0xbd871055	-0.06594912
181	0xbd52cb78	-0.051463574
182	0xbd4f8b1a	-0.050669767
183	0xbde60726	-0.11231832
184	0xbe58c538	-0.21168983
185	0x3dd2292e	0.10261761
186	0xbddcba88	-0.107777655
187	0xbd860653	-0.06544175
188	0xbcfb3f8f	-0.030669956
189	0x3e119235	0.1421593
190	0x3daec448	0.085335314
191	0x3e151114	0.14557296
192	0xbe6533eb	-0.22383086
193	0x3e6e9c4f	0.23301814
194	0xbf00c427	-0.50299305
195	0xbe67cd99	-0.22637023
196	0xbd931c55	-0.07183138
197	0xbe88fcfa	-0.26755506
198	0x3d6db505	0.05803396
199	0xbe131986	-0.14365205
200	0xbe5e00cc	-0.21679991
201	0xbd89cce8	-0.06728536
202	0xbdf0bac6	-0.11754374
203	0x3e881a93	0.26582775
204	0xbdf4f876	-0.11961453
205	0xbe02e95c	-0.12784332
206	0x3e512586	0.2042447
207	0x3dcef622	0.1010554
208	0xbe6e1599	-0.23250426
209	0xbd95eaf8	-0.07320207
210	0x3e1dddbd	0.15416618
211	0x3d63a46e	0.055576734
212	0x3cde9e05	0.027174959
213	0xbd15031f	-0.03637993
214	0xbe1981f0	-0.14990973
215	0x3e22880b	0.15872209
216	0xbe5e8124	-0.2172895
217	0x3d96c439	0.07361645
218	0x3d1f2aa2	0.038859017
219	0x3e31705a	0.17328015
220	0x3e165b44	0.14683253
221	0xbdc01a38	-0.09380001
222	0xbe7032c6	-0.23456869
223	0x3d5d1b27	0.053980973
224	0xbe06cf94	-0.13165122
225	0xbe7c6672	-0.24648455
226	0xbc5b11d3	-0.013370949
227	0xbdec47ac	-0.11537108
228	0x3c583f28	0.013198651
229	0xbe7ba372	-0.24574068
230	0xbde435a0	-0.11143041
231	0x3d381b44	0.044947878
232	0xbcaf5f8d	-0.021407867
233	0x3e2f269c	0.17104572
234	0xbc966291	-0.018357547
235	0xbd3aca34	-0.045602992
236	0x3e347ba2	0.17625287
237	0x3d4de382	0.050265796
238	0xbe2632d7	-0.16230331
239	0x3d9b95bf	0.07596921
240	0x3ccbb3f0	0.024866074
241	0x3e1876a8	0.14889014
242	0x3d18d9a4	0.037316933
243	0xbc5535e3	-0.013013336
244	0x3d446261	0.047945384
245	0x3e53c184	0.20679289
246	0x3e557e59	0.20848979
247	0xbe455bce	-0.19273302
248	0xbb869e44	-0.004108222
249	0xbe01d055	-0.12677129
250	0x3e273501	0.16328813
251	0x3e2e88c2	0.17044356
252	0xbe2a17b8	-0.1661061
253	0xbd775653	-0.06038506
254	0x3dc68b82	0.09694578
255	0x3d7efcca	0.062252797

recurs2.weight_hh f4 [120, 30]
0	0x3c5c4ce6	0.013446068
1	0x3e1c1095	0.152407
2	0x3e95af08	0.292351
3	0xbcec0009	-0.02880861
4	0x3ec5f279	0.38661554
5	0xbc45e08d	-0.012077463
6	0x3e2dffd9	0.1699213
7	0xbdccfdfd	-0.10009382
8	0xbd4dce96	-0.050245844
9	0x3ea150de	0.3150701
10	0xbd49d7a9	-0.049277935
11	0x3e9612fc	0.2931136
12	0xbdf3bcf5	-0.11901275
13	0x3d180b4a	0.03712014
14	0x3d529ce6	0.05141916
15	0x3dd9660a	0.106151655
16	0x3e08a6b1	0.13344838
17	0x3d8c38a2	0.06846739
18	0xbe393221	-0.18085529
19	0xbe545526	-0.20735607
20	0x3d9dcd5b	0.07705184
21	0x3e26e3ec	0.16297883
22	0xbd66276a	-0.056189932
23	0x3b813ccb	0.0039440147
24	0xbd57239f	-0.052524205
25	0xbbbc1acf	-0.0057405005
26	0xbd884f3c	-0.06655738
27	0xbe3dfac3	-0.18552689
28	0xbe2df095	-0.16986306
29	0x3e4ac2bc	0.19800848
30	0xbddb3f06	-0.1070538
31	0xbe0849ac	-0.13309354
32	0xbe2d5467	-0.16926728
33	0x3d240d1f	0.040051576
34	0xbd4f19d7	-0.050561752
35	0x3cbc6313	0.022996461
36	0x3dab8ea3	0.08376815
37	0xbe159cd0	-0.146106
38	0xbe2c4f66	-0.16827163
39	0x3dd54803	0.10414126
40	0xbe285532	-0.1643875
41	0xbd39495d	-0.04523598
42	0xbd397a0a	-0.0452824
43	0xbb2bef56	-0.0026235185
44	0x3dc20009	0.09472663
45	0x3e2ad2f3	0.16682033
46	0x3e0c9cf4	0.13731748
47	0xbd51ada4	-0.051190987
48	0xbe3c4449	-0.18385424
49	0x3d8cc399	0.06873245
50	0x3de816bb	0.113324605
51	0xbe0a9129	-0.13531937
52	0xbe12dc34	-0.14341813
53	0xbe51cdf1	-0.20488717
54	0xbce869ce	-0.028370764
55	0xbdd4a27f	-0.10382556
56	0xbdf79d20	-0.12090516
57	0x3cb01d1c	0.021498255
58	0xbcf82dc8	-0.030295268
59	0x3cdcfb36	0.026975255
60	0xbe959828	-0.29217649
61	0xbdd3db6e	-0.10344587
62	0x3e2c9d02	0.16856769
63	0xbd8e6dbb	-0.06954523
64	0x3de9c6e7	0.11414891
65	0xbe1597bf	-0.14608668
66	0x3e50c862	0.2038894
67	0xbe210975	-0.15726264
68	0xbe2265d5	-0.15859158
69	0xbe462491	-0.19349886
70	0x3e153c09	0.14573683
71	0xbd23937c	-0.039935574
72	0x3cb06b2a	0.021535475
73	0x3e2efd22	0.1708875
74	0x3e16e984	0.14737517
75	0x3bd6d9e5	0.006556737
76	0x3d283bf2	0.041072793
77	0x3cd57b52	0.02605978
78	0xbd0ade5f	-0.033903476
79	0x3da8652c	0.08222422
80	0x3de942ba	0.1138968
81	0x38a8573b	8.027112e-05
82	0xbe875aca	-0.26436454
83	0xbdedb24b	-0.11606272
84	0xbe13af9b	-0.14422457
85	0xbea804b3	-0.32816085
86	0x3d657f45	0.056029577
87	0x3d936726	0.071974084
88	0xbe455dfc	-0.19274133
89	0x3e199136	0.149968
90	0xbd87d0a6	-0.066315934
91	0xbd6f6abf	-0.05845141
92	0x3e1c3a11	0.15256526
93	0x3dc08979	0.09401221
94	0xbdafce9d	-0.0858433
95	0xbc7213c1	-0.0147752175
96	0xbd362d69	-0.0444769
97	0xbe27a4f8	-0.16371524
98	0xbcd31731	-0.025767894
99	0x3d157f57	0.036498394
100	0xbdb09d51	-0.08623756
101	0xbd115fa7	-0.03549161
102	0xbe3d33bb	-0.18476765
103	0xbd8ce54c	-0.068796724
104	0x3d165043	0.036697637
105	0x3d6ce8c8	0.057839185
106	0x3e246ce1	0.16057159
107	0x3db53698	0.088483036
108	0x3d887221	0.06662393
109	0xbd11ffb2	-0.03564424
110	0xbda38ef3	-0.0798625
111	0x3cf6c1bf	0.030121682
112	0xbe5cee08	-0.21575177
113	0xbe37b16e	-0.17938778
114	0x3d5bafdc	0.05363451
115	0xbb1a178a	-0.0023512566
116	0x3da8d5ba	0.0824389
117	0x3e156032	0.14587477
118	0x3e23b5c1	0.15987302
119	0x3c0062a9	0.007836022
120	0x3d761454	0.06007798
121	0x3e6438a8	0.22287238
122	0xbca93d3e	-0.020659085
123	0x3e069f5b	0.13146727
124	0x3e2cbe39	0.16869439
125	0x3e30a008	0.17248547
126	0x3e825c7e	0.2546119
127	0xbe16659e	-0.14687201
128	0xbc8bfde0	-0.01708883
129	0x3e6f72f2	0.23383692
130	0xbe747d11	-0.23875834
131	0xbc3cbb16	-0.011519214
132	0x39a53386	0.0003150964
133	0x3dcca562	0.09992482
134	0x3e89a67a	0.26884824
135	0x3d5fed4b	0.05466966
136	0x3e32a1ba	0.17444506
137	0xbe74a16f	-0.23889707
138	0xbe4278f2	-0.1899145
139	0xbd540b6f	-0.051768716
140	0xbcd4a249	-0.02595629
141	0x3db47bdb	0.08812686
142	0x3cf334fc	0.02968835
143	0x3e4d9f94	0.20080405
144	0xbe075d8a	-0.13219276
145	0x3df60b56	0.12013881
146	0xbd99a638	-0.07502407
147	0x3dd2ac2e	0.10286747
148	0x3d4f971a	0.05068121
149	0x3e6a5e37	0.22887503
150	0xbe33f013	-0.1757205
151	0xbde8c70e	-0.11366092
152	0x3de83865	0.113388814
153	0x3e001d43	0.12511162
154	0xbd750e46	-0.059828065
155	0x3e27fbb4	0.16404611
156	0x3e017f5d	0.12646241
157	0xbe1d0b6b	-0.15336387
158	0x3d5e99f4	0.05434604
159	0x3e174d9e	0.14775702
160	0xbd10d643	-0.035360586
161	0x3e1f4c92	0.15556553
162	0xbda2b3ad	-0.07944427
163	0xbde938ab	-0.11387762
164	0xbe02227a	-0.12708464
165	0xbd206eb4	-0.039168075
166	0x3e64cfe9	0.22344936
167	0x3da4e0fb	0.08050724
168	0x3df05b5a	0.11736174
169	0x3d2bb367	0.04191914
170	0x3cd283ba	0.025697578
171	0xbdaff6ab	-0.0859197
172	0xbe442394	-0.19154197
173	0xbe12fb31	-0.14353634
174	0xbde41b3e	-0.111380085
175	0x3e14ef3e	0.14544389
176	0xbd6659f3	-0.056238126
177	0xbcc0b32f	-0.023522941
178	0x3daf33c2	0.08554794
179	0x3e3395b4	0.17537576
180	0xbc9ac72b	-0.018893799
181	0x3d8c39a5	0.06846932
182	0xbdf75431	-0.12076605
183	0xbe4378b3	-0.19089012
184	0x3e1e5ba0	0.1546464
185	0x3d4cd82c	0.050010845
186	0x3e0f8751	0.14016463
187	0x3dbcf664	0.09226683
188	0x3e17de18	0.14830816
189	0x3cbbcba8	0.02292426
190	0x3d9747c9	0.07386739
191	0x3e7559a2	0.23959973
192	0xbdb3957c	-0.08768746
193	0x3e068869	0.13137974
194	0xbe012fae	-0.12615845
195	0x3e0a7f50	0.13525128
196	0x3debf733	0.11521759
197	0x3e1ea58d	0.1549284
198	0xbc8f9b70	-0.017530173
199	0xbd9bd0e4	-0.07608202
200	0xbd333ab6	-0.043757163
201	0x3eaaafd2	0.33337265
202	0xbdbfc5e1	-0.09363914
203	0xbdf02360	-0.11725497
204	0xba2616c4	-0.000633579
205	0x3d53fb9e	0.051753633
206	0xbc84efdd	-0.016227657
207	0xbe121815	-0.14266999
208	0xbd7e6fc3	-0.062118303
209	0x3d948d76	0.07253544
210	0xbd096c7c	-0.033550724
211	0x3d3e11fd	0.046403874
212	0x3dd40379	0.10352225
213	0x3df811bc	0.121127576
214	0x3eb4a758	0.35283923
215	0x3c84fa74	0.016232707
216	0x3e5e7371	0.21723725
217	0x3d741b79	0.059596512
218	0x3e22c120	0.15893984
219	0x3e9345ab	0.2876409
220	0xbe3bbdae	-0.18334076
221	0x3e83a7cd	0.2571396
222	0xbe3ec02f	-0.18628
223	0xbde62144	-0.11236814
224	0x3e52710f	0.20550941
225	0x3e30a018	0.17248571
226	0xbb59c51d	-0.003322906
227	0xbe3ea7df	-0.18618725
228	0x3dfdd7f4	0.123947054
229	0xbea5278a	-0.32256728
230	0x3e4f7393	0.20258932
231	0x3e3eca7e	0.18631932
232	0xbd976ff9	-0.07394404
233	0x3d95bd70	0.07311523
234	0xbe9e3419	-0.30899122
235	0x3d4af7e2	0.049552806
236	0xbddbbb66	-0.10729103
237	0xbca9f3a7	-0.020746065
238	0x3d1683c7	0.036746766
239	0xbdcd6fec	-0.10031113
240	0xbcc67374	-0.024224974
241	0x3e1bc2f5	0.15211089
242	0xbdd6b311	-0.10483373
243	0x3e11068a	0.1416265
244	0x3e189e10	0.14904046
245	0xbd708131	-0.058716957
246	0xbb6adafa	-0.0035836087
247	0x3e18ec62	0.14933923
248	0x37c06088	2.2933134e-05
249	0x3d7b2d22	0.06132234
250	0x3d06a6cf	0.032873925
251	0x3d3254d4	0.04353793
252	0xbe0b8ffa	-0.13629141
253	0xbdf98404	-0.12183383
254	0x3e2d7afd	0.16941448
255	0x3df3e596	0.119090244

recurs2.bias_ih f4 [120]
0	0x3e95df29	0.2927182
1	0x3e803406	0.2503969
2	0x3baca53e	0.005268722
3	0x3db3542d	0.0875629
4	0x3cf85804	0.030315407
5	0xba968344	-0.0011483212
6	0x3ce588b2	0.028019283
7	0x3e954d72	0.2916065
8	0x3d3bbab0	0.045832336
9	0x3e3dc29f	0.18531273
10	0xbd1bf6cb	-0.038077157
11	0x3dfc39f7	0.123157434
12	0x3dd3587c	0.103196114
13	0x3aa8a83c	0.001286752
14	0x3d232425	0.039829392
15	0x3ddbdb8f	0.10735237
16	0x3e4a8591	0.19777514
17	0x3df7b4bd	0.1209502
18	0x3cd1d639	0.025614845
19	0x3e3d619a	0.18494263
20	0x3d39d9ef	0.045373853
21	0x3ea930e6	0.3304512
22	0x3e79e2d9	0.24402942
23	0xbc15769a	-0.009122515
24	0x3de066d7	0.10957115
25	0x3c05c761	0.008165211
26	0x3ea27563	0.31730184
27	0x3c261f69	0.010139325
28	0x3dd746e4	0.10511568
29	0x3e69ffdd	0.2285151
30	0x3d429d2a	0.047513165
31	0x3e0cf9aa	0.13767114
32	0xbd7354d7	-0.05940708
33	0xbe34cc86	-0.17656144
34	0x3d0fb564	0.035085097
35	0x3e558656	0.20852026
36	0x3dd3c1aa	0.10339673
37	0xbdde9e65	-0.10870055
38	0x3e51d945	0.20493038
39	0xbe09fef9	-0.1347617
40	0x3e642adf	0.22281979
41	0x3c691e40	0.014228404
42	0xbd361587	-0.044454124
43	0x3d11e26c	0.035616323
44	0x3e1eac64	0.1549545
45	0x3de4f420	0.11179376
46	0xbd638cf4	-0.055554345
47	0x3d2927c1	0.041297678
48	0x3d98a831	0.07453955
49	0xbbd70eda	-0.0065630497
50	0x3d1e97db	0.03871904
51	0x3e3a4c66	0.18193206
52	0x3a16f513	0.0005758565
53	0x3e218459	0.15773143
54	0xbe06c97b	-0.13162796
55	0xbcd04e30	-0.025427908
56	0x3d387512	0.045033522
57	0xbd940a47	-0.07228523
58	0xbdb202bf	-0.0869193
59	0xbc523e30	-0.0128322095
60	0xbdce16d5	-0.100629486
61	0x3e092485	0.13392837
62	0x3e16c7bd	0.14724632
63	0xbd946004	-0.07244876
64	0x3e277c8a	0.16356102
65	0x3e213027	0.15741025
66	0x3e00bec4	0.12572771
67	0xbe4f5f42	-0.20251182
68	0xbe2b8094	-0.16748267
69	0x3d1a6b36	0.0376999
70	0x3a85b63b	0.0010201404
71	0x3e62dd44	0.22154719
72	0xbe4330f9	-0.1906165
73	0x3e01e6ac	0.1268565
74	0x3e6f3ec8	0.23363793
75	0x3ca203d2	0.019777212
76	0x3cecd8c8	0.028911963
77	0x3ccb10e5	0.02478833
78	0xbe163183	-0.14667325
79	0xbe373c9c	-0.17894214
80	0x3e0fcf56	0.14043936
81	0x3e1d0a8c	0.15336055
82	0x3d4e0eb6	0.050307
83	0xbe1a0734	-0.1504181
84	0xbc8290dc	-0.015938215
85	0xbdba62d1	-0.09100879
86	0x3ce09aaa	0.0274175
87	0x3e07d847	0.13266097
88	0x3e3ecb90	0.1863234
89	0x3e4a5e85	0.19762619
90	0x3e1fee8c	0.15618342
91	0x3e879c36	0.26486367
92	0x3db687d0	0.08912623
93	0x3dd8e0e1	0.10589767
94	0x3c4f27b9	0.012643748
95	0x3e11116d	0.14166804
96	0x3e0ce0a4	0.13757569
97	0x3e6458fa	0.22299567
98	0x3e442287	0.19153796
99	0x3e33b0f3	0.1754797
100	0xbdbc9db2	-0.092097655
101	0x3d9e8bde	0.07741521
102	0xbdaed772	-0.08537187
103	0x3e6d58ea	0.2317845
104	0x3c63e136	0.013908675
105	0xbd87ac0d	-0.06624613
106	0x3e1c5759	0.15267695
107	0x3c496191	0.012291328
108	0x3d22b15e	0.03971993
109	0x3e42ede8	0.19036067
110	0x3e4fc45a	0.20289746
111	0x3e99243c	0.29910457
112	0x3da69e71	0.08135689
113	0x3d858ec5	0.06521372
114	0x3da0955e	0.078409895
115	0xbdd3dde7	-0.10345059
116	0x3df78e62	0.12087704
117	0x3e44ca8a	0.19217888
118	0x3e6cc420	0.23121691
119	0xbdc366ca	-0.0954109

recurs2.bias_hh f4 [120]
0	0x3e363842	0.17794898
1	0x3e8c7baf	0.27438113
2	0xbc9a4334	-0.018830873
3	0x3dc3034b	0.095221125
4	0x3d5b399c	0.053521737
5	0x3dbb0575	0.091319
6	0xbd04eb53	-0.032450985
7	0x3e931b24	0.28731644
8	0x3e194605	0.14968117
9	0xbcefde58	-0.029280826
10	0xbc7e07cd	-0.01550479
11	0x3d81d3e3	0.06339242
12	0x3d6d9cc5	0.058010835
13	0x3e0a098c	0.13480204
14	0xbd225239	-0.039629195
15	0xbb5a205c	-0.0033283448
16	0x3d436d0b	0.047711413
17	0xba84ce55	-0.0010132293
18	0x3dc2d848	0.095139086
19	0xbdaab450	-0.08335173
20	0x3da5808b	0.08081158
21	0x3d71dafb	0.059046727
22	0x3c966c4c	0.018362187
23	0x3dccfed9	0.10009546
24	0xbabe568d	-0.0014521644
25	0xbd85fd68	-0.06542474
26	0x3e47d003	0.19512944
27	0xbd7319f0	-0.059350908
28	0x3e19620e	0.14978811
29	0x3e187339	0.14887704
30	0xb9212f38	-0.00015371747
31	0xbe1249f4	-0.14286023
32	0xbd2e68ed	-0.042580534
33	0xbd11e28a	-0.035616435
34	0x3d715a8b	0.05892424
35	0xbdbaa0d3	-0.09112706
36	0x3dbd7538	0.09250873
37	0x3c6eb4a6	0.014569437
38	0x3d834973	0.06410494
39	0xbc2eb61b	-0.0106635345
40	0x3cb37e25	0.021910736
41	0x3dba9e15	0.09112183
42	0x3e34713b	0.17621319
43	0xbd2a3666	-0.041555785
44	0x3dabad8f	0.08382713
45	0x3dd1dd45	0.10247282
46	0x3de8646a	0.113472775
47	0xbb579b80	-0.0032899082
48	0x3d895d87	0.06707292
49	0x3d61c85d	0.055122722
50	0x3e087d8c	0.13329142
51	0xbd35a545	-0.044347066
52	0x3d987b52	0.074453965
53	0x3d3d107b	0.046158295
54	0xbe198797	-0.1499313
55	0x3db60558	0.08887738
56	0xbdfd38e2	-0.12364365
57	0x3db9d129	0.09073097
58	0x3c5ed490	0.013600484
59	0x3d870aee	0.065938815
60	0xbe201a97	-0.15635143
61	0x3e11d3bb	0.14240925
62	0x3e357211	0.17719294
63	0x3df92e76	0.12167065
64	0x3def02c8	0.11670452
65	0xbd696e28	-0.05698982
66	0x3e300ff7	0.1719359
67	0xbd0f9cd6	-0.03506168
68	0xbe476544	-0.19472224
69	0x3d24fdfa	0.040281273
70	0xbd6a4241	-0.05719209
71	0x3e4dbb63	0.20091014
72	0xbc861a50	-0.016369969
73	0x3df5687e	0.11982821
74	0x3d1a04d8	0.037602276
75	0x3b84fa91	0.00405819
76	0xbc03dbd8	-0.00804802
77	0x3dd3baaa	0.10338338
78	0xbe2f8a35	-0.17142566
79	0x3e0cb12d	0.13739462
80	0xbd2c790a	-0.04210762
81	0x3dd850c5	0.105622806
82	0xbd8aeaa0	-0.067830324
83	0xbd6b0e77	-0.05738684
84	0xbc8902de	-0.016725
85	0x3bef0c58	0.0072951727
86	0xbe1aed44	-0.15129572
87	0xbe4bbb27	-0.19895612
88	0xbe17753e	-0.14790818
89	0x3e60767e	0.21920201
90	0x3e51ffeb	0.20507781
91	0x3cd8a9ad	0.026448095
92	0x3e726fd9	0.23675479
93	0x3db2ad73	0.08724489
94	0x3e02d447	0.1277629
95	0xbd3907e9	-0.04517356
96	0xbd3c7f60	-0.04601991
97	0x3e8af4f2	0.27140003
98	0x3e785f15	0.24255021
99	0xbe273e36	-0.16332325
100	0x3dd33d04	0.10314372
101	0x3e2e2f1b	0.17010157
102	0xbd204377	-0.03912684
103	0x3c461204	0.012089256
104	0xbdee4c5e	-0.1163566
105	0x3e154466	0.14576873
106	0x3e7fe595	0.24989922
107	0x3e41893b	0.18900006
108	0x3c5dded5	0.013541897
109	0x3e0b4b8d	0.13603039
110	0xbc8df826	-0.01733024
111	0x3dbba1e3	0.09161737
112	0x3e1155b8	0.14192855
113	0x3e76eac8	0.24113
114	0x3da6c748	0.08143479
115	0x3cbab1ec	0.022789918
116	0x3e502120	0.20325136
117	0xbe040099	-0.12890853
118	0x3e7e3072	0.24823168
119	0xbd239751	-0.03993923

output.weight f4 [2, 30]
0	0xbdf2bd49	-0.118525095
1	0xbe0bcb31	-0.1365173
2	0x3d89605a	0.06707831
3	0xbd212ff9	-0.03935239
4	0x3da425db	0.08015033
5	0xbdc042e3	-0.09387758
6	0x3e3f71f1	0.18695809
7	0xbe1a175d	-0.15047975
8	0xbe17a29f	-0.14808129
9	0xbe0723ad	-0.13197203
10	0x3e238503	0.15968709
11	0x3e084212	0.13306454
12	0xbe262758	-0.16225946
13	0xbc5d3018	-0.013500236
14	0x3e49a770	0.19692779
15	0x3dc7ed0e	0.097620115
16	0x3e56f92e	0.20993492
17	0xbda521f1	-0.080631144
18	0xbd9c3750	-0.076277375
19	0x3d8519d7	0.06499069
20	0x3d994bb4	0.07485142
21	0xbd36960d	-0.044576693
22	0xbd5e4575	-0.054265458
23	0x3d3b29c4	0.045694128
24	0x3ced5da2	0.028975312
25	0xbd414ec3	-0.047194254
26	0xbe37634e	-0.17908975
27	0x3dd54364	0.10413244
28	0x3c5777de	0.013151137
29	0xbca39d39	-0.01997243
30	0x3e6b93a2	0.23005536
31	0x3e5831dc	0.2111277
32	0x3e414f64	0.18877941
33	0x3e38f1cd	0.1806099
34	0x3d352938	0.044228762
35	0x3da5a927	0.08088904
36	0xbe12b631	-0.14327313
37	0x3def7d62	0.11693837
38	0x3e31fb02	0.17380908
39	0x3d96ef42	0.073698536
40	0xbe4a0b7e	-0.19730946
41	0x3d9ebb54	0.07750574
42	0xbdb2dbd5	-0.08733336
43	0xbe6888c5	-0.22708423
44	0x3df58f48	0.11990219
45	0x3e52eeea	0.20598951
46	0x3e00fa2a	0.1259543
47	0xbe5478ca	-0.20749202
48	0x3e5b68a8	0.21426642
49	0xbe3e0d75	-0.18559821
50	0x3e6a0b6c	0.2285592
51	0x3e122753	0.14272813
52	0x3e163e45	0.14672191
53	0x3e18c440	0.14918613
54	0xbe89a02d	-0.26880017
55	0x3e0b5f82	0.13610652
56	0xbe1be0fa	-0.1522254
57	0xbe53a62c	-0.20668858
58	0x3e90e9d7	0.28303406
59	0x3e0c9424	0.13728386

output.bias f4 [2]
0	0x3d0d1b85	0.034450073
1	0x3c3f9b0e	0.011694683

switch.weight f4 [1, 30]
0	0x3e059f63	0.13049082
1	0xbd883c19	-0.06652088
2	0xbdc7de7e	-0.09759234
3	0xbd61d70c	-0.055136725
4	0xbd26aa90	-0.040690005
5	0x3da16bee	0.07881914
6	0xbd12156d	-0.035664964
7	0x3db01d84	0.0859938
8	0xbe12db04	-0.1434136
9	0x3cc74736	0.024325948
10	0x3e0ef143	0.13959222
11	0xbc80a1ad	-0.015702093
12	0x3e146f50	0.14495587
13	0x3d62d1a0	0.055375695
14	0xbe312448	-0.17298996
15	0xbdd390a0	-0.103303194
16	0x3e167a16	0.1469501
17	0xbd03ef54	-0.032210663
18	0x3e33d416	0.17561373
19	0xbe379ab1	-0.17930104
20	0xbdc4fbaa	-0.096183136
21	0x3e124adf	0.14286374
22	0x3e2dd6a9	0.16976418
23	0xbe287956	-0.16452536
24	0x3d6b8fbe	0.05751013
25	0xbe364d40	-0.17802906
26	0xbe09363c	-0.13399595
27	0x3da49fbe	0.08038281
28	0xbdb65954	-0.08903757
29	0xbc461fc9	-0.012092539
